…
==================================================================================================
        Non frequent word cleaning:
==================================================================================================
        Before : 24193
        After : 21585
# Parameters = 10523400
__________________________________________________________________________________________________
Layer (type)                    Output Shape         Param #     Connected to
==================================================================================================
input_1 (InputLayer)            (None, 4)            0
__________________________________________________________________________________________________
input_2 (InputLayer)            (None, 4)            0
__________________________________________________________________________________________________
embedding_1 (Embedding)         (None, 4, 480)       10360800    input_1[0][0]
__________________________________________________________________________________________________
embedding_2 (Embedding)         (None, 4, 42)        41202       input_2[0][0]
__________________________________________________________________________________________________
flatten_1 (Flatten)             (None, 1920)         0           embedding_1[0][0]
__________________________________________________________________________________________________
flatten_2 (Flatten)             (None, 168)          0           embedding_2[0][0]
__________________________________________________________________________________________________
concatenate_1 (Concatenate)     (None, 2088)         0           flatten_1[0][0]
                                                                 flatten_2[0][0]
__________________________________________________________________________________________________
dense_1 (Dense)                 (None, 58)           121162      concatenate_1[0][0]
__________________________________________________________________________________________________
dropout_1 (Dropout)             (None, 58)           0           dense_1[0][0]
__________________________________________________________________________________________________
dense_2 (Dense)                 (None, 4)            236         dropout_1[0][0]
==================================================================================================
Total params: 10,523,400
Trainable params: 10,523,400
Non-trainable params: 0
__________________________________________________________________________________________________
None

__________________________________________________________________________________________________
…
==================================================================================================
        Non frequent word cleaning:
==================================================================================================
        Before : 10067
        After : 8945
# Parameters = 4439862
__________________________________________________________________________________________________
Layer (type)                    Output Shape         Param #     Connected to
==================================================================================================
input_3 (InputLayer)            (None, 4)            0
__________________________________________________________________________________________________
input_4 (InputLayer)            (None, 4)            0
__________________________________________________________________________________________________
embedding_3 (Embedding)         (None, 4, 480)       4293600     input_3[0][0]
__________________________________________________________________________________________________
embedding_4 (Embedding)         (None, 4, 42)        24864       input_4[0][0]
__________________________________________________________________________________________________
flatten_3 (Flatten)             (None, 1920)         0           embedding_3[0][0]
__________________________________________________________________________________________________
flatten_4 (Flatten)             (None, 168)          0           embedding_4[0][0]
__________________________________________________________________________________________________
concatenate_2 (Concatenate)     (None, 2088)         0           flatten_3[0][0]
                                                                 flatten_4[0][0]
__________________________________________________________________________________________________
dense_3 (Dense)                 (None, 58)           121162      concatenate_2[0][0]
__________________________________________________________________________________________________
dropout_2 (Dropout)             (None, 58)           0           dense_3[0][0]
__________________________________________________________________________________________________
dense_4 (Dense)                 (None, 4)            236         dropout_2[0][0]
==================================================================================================
Total params: 4,439,862
Trainable params: 4,439,862
Non-trainable params: 0
__________________________________________________________________________________________________
None

__________________________________________________________________________________________________
…
