…
==================================================================================================
        Compact Vocabulary cleaning:
==================================================================================================
        Before : 24193
        After : 13318
# Parameters = 5904946
__________________________________________________________________________________________________
Layer (type)                    Output Shape         Param #     Connected to
==================================================================================================
input_1 (InputLayer)            (None, 4)            0
__________________________________________________________________________________________________
input_2 (InputLayer)            (None, 4)            0
__________________________________________________________________________________________________
embedding_1 (Embedding)         (None, 4, 410)       5460380     input_1[0][0]
__________________________________________________________________________________________________
embedding_2 (Embedding)         (None, 4, 103)       101043      input_2[0][0]
__________________________________________________________________________________________________
flatten_1 (Flatten)             (None, 1640)         0           embedding_1[0][0]
__________________________________________________________________________________________________
flatten_2 (Flatten)             (None, 412)          0           embedding_2[0][0]
__________________________________________________________________________________________________
concatenate_1 (Concatenate)     (None, 2052)         0           flatten_1[0][0]
                                                                 flatten_2[0][0]
__________________________________________________________________________________________________
dense_1 (Dense)                 (None, 167)          342851      concatenate_1[0][0]
__________________________________________________________________________________________________
dropout_1 (Dropout)             (None, 167)          0           dense_1[0][0]
__________________________________________________________________________________________________
dense_2 (Dense)                 (None, 4)            672         dropout_1[0][0]
==================================================================================================
Total params: 5,904,946
Trainable params: 5,904,946
Non-trainable params: 0
__________________________________________________________________________________________________
None

__________________________________________________________________________________________________
…
==================================================================================================
        Compact Vocabulary cleaning:
==================================================================================================
        Before : 10067
        After : 6853
# Parameters = 2610270
__________________________________________________________________________________________________
Layer (type)                    Output Shape         Param #     Connected to
==================================================================================================
input_3 (InputLayer)            (None, 4)            0
__________________________________________________________________________________________________
input_4 (InputLayer)            (None, 4)            0
__________________________________________________________________________________________________
embedding_3 (Embedding)         (None, 4, 326)       2234078     input_3[0][0]
__________________________________________________________________________________________________
embedding_4 (Embedding)         (None, 4, 118)       69856       input_4[0][0]
__________________________________________________________________________________________________
flatten_3 (Flatten)             (None, 1304)         0           embedding_3[0][0]
__________________________________________________________________________________________________
flatten_4 (Flatten)             (None, 472)          0           embedding_4[0][0]
__________________________________________________________________________________________________
concatenate_2 (Concatenate)     (None, 1776)         0           flatten_3[0][0]
                                                                 flatten_4[0][0]
__________________________________________________________________________________________________
dense_3 (Dense)                 (None, 172)          305644      concatenate_2[0][0]
__________________________________________________________________________________________________
dropout_2 (Dropout)             (None, 172)          0           dense_3[0][0]
__________________________________________________________________________________________________
dense_4 (Dense)                 (None, 4)            692         dropout_2[0][0]
==================================================================================================
Total params: 2,610,270
Trainable params: 2,610,270
Non-trainable params: 0
__________________________________________________________________________________________________
None

__________________________________________________________________________________________________
…
