…
	Training (Important) : 3124, Test : 1954
	MWEs in tain : 1372, occurrences : 3583
	Impotant words in tain : 1175
	MWE length mean : 2.13
	Seen MWEs : 386 (57 %)
	New MWEs : 284 (42 %)
==================================================================================================
__________________________________________________________________________________________________
Layer (type)                    Output Shape         Param #     Connected to                     
==================================================================================================
input_1 (InputLayer)            (None, 7)            0                                            
__________________________________________________________________________________________________
input_2 (InputLayer)            (None, 7)            0                                            
__________________________________________________________________________________________________
embedding_1 (Embedding)         (None, 7, 410)       482980      input_1[0][0]                    
__________________________________________________________________________________________________
embedding_2 (Embedding)         (None, 7, 54)        1026        input_2[0][0]                    
__________________________________________________________________________________________________
gru_1 (GRU)                     (None, 25)           32700       embedding_1[0][0]                
__________________________________________________________________________________________________
gru_2 (GRU)                     (None, 15)           3150        embedding_2[0][0]                
__________________________________________________________________________________________________
dropout_1 (Dropout)             (None, 25)           0           gru_1[0][0]                      
__________________________________________________________________________________________________
dropout_2 (Dropout)             (None, 15)           0           gru_2[0][0]                      
__________________________________________________________________________________________________
concatenate_1 (Concatenate)     (None, 40)           0           dropout_1[0][0]                  
                                                                 dropout_2[0][0]                  
__________________________________________________________________________________________________
dense_1 (Dense)                 (None, 51)           2091        concatenate_1[0][0]              
__________________________________________________________________________________________________
dropout_3 (Dropout)             (None, 51)           0           dense_1[0][0]                    
__________________________________________________________________________________________________
dense_2 (Dense)                 (None, 4)            208         dropout_3[0][0]                  
==================================================================================================
Total params: 522,155
Trainable params: 522,155
Non-trainable params: 0
__________________________________________________________________________________________________
None
	data size before focused sampling = 356484
	data size after focused sampling = 510016
…
	Training (Important) : 2305, Test : 3117
	MWEs in tain : 1396, occurrences : 2518
	Impotant words in tain : 1131
	MWE length mean : 2.22
	Seen MWEs : 340 (61 %)
	New MWEs : 213 (38 %)
==================================================================================================
__________________________________________________________________________________________________
Layer (type)                    Output Shape         Param #     Connected to                     
==================================================================================================
input_3 (InputLayer)            (None, 7)            0                                            
__________________________________________________________________________________________________
input_4 (InputLayer)            (None, 7)            0                                            
__________________________________________________________________________________________________
embedding_3 (Embedding)         (None, 7, 410)       464940      input_3[0][0]                    
__________________________________________________________________________________________________
embedding_4 (Embedding)         (None, 7, 54)        1026        input_4[0][0]                    
__________________________________________________________________________________________________
gru_3 (GRU)                     (None, 25)           32700       embedding_3[0][0]                
__________________________________________________________________________________________________
gru_4 (GRU)                     (None, 15)           3150        embedding_4[0][0]                
__________________________________________________________________________________________________
dropout_4 (Dropout)             (None, 25)           0           gru_3[0][0]                      
__________________________________________________________________________________________________
dropout_5 (Dropout)             (None, 15)           0           gru_4[0][0]                      
__________________________________________________________________________________________________
concatenate_2 (Concatenate)     (None, 40)           0           dropout_4[0][0]                  
                                                                 dropout_5[0][0]                  
__________________________________________________________________________________________________
dense_3 (Dense)                 (None, 51)           2091        concatenate_2[0][0]              
__________________________________________________________________________________________________
dropout_6 (Dropout)             (None, 51)           0           dense_3[0][0]                    
__________________________________________________________________________________________________
dense_4 (Dense)                 (None, 4)            208         dropout_6[0][0]                  
==================================================================================================
Total params: 504,115
Trainable params: 504,115
Non-trainable params: 0
__________________________________________________________________________________________________
None
	data size before focused sampling = 241368
	data size after focused sampling = 396311
…
	Training (Important) : 3585, Test : 1320
	MWEs in tain : 1790, occurrences : 4856
	Impotant words in tain : 1200
	MWE length mean : 2.06
	Seen MWEs : 345 (67 %)
	New MWEs : 165 (32 %)
==================================================================================================
__________________________________________________________________________________________________
Layer (type)                    Output Shape         Param #     Connected to                     
==================================================================================================
input_5 (InputLayer)            (None, 7)            0                                            
__________________________________________________________________________________________________
input_6 (InputLayer)            (None, 7)            0                                            
__________________________________________________________________________________________________
embedding_5 (Embedding)         (None, 7, 410)       493230      input_5[0][0]                    
__________________________________________________________________________________________________
embedding_6 (Embedding)         (None, 7, 54)        756         input_6[0][0]                    
__________________________________________________________________________________________________
gru_5 (GRU)                     (None, 25)           32700       embedding_5[0][0]                
__________________________________________________________________________________________________
gru_6 (GRU)                     (None, 15)           3150        embedding_6[0][0]                
__________________________________________________________________________________________________
dropout_7 (Dropout)             (None, 25)           0           gru_5[0][0]                      
__________________________________________________________________________________________________
dropout_8 (Dropout)             (None, 15)           0           gru_6[0][0]                      
__________________________________________________________________________________________________
concatenate_3 (Concatenate)     (None, 40)           0           dropout_7[0][0]                  
                                                                 dropout_8[0][0]                  
__________________________________________________________________________________________________
dense_5 (Dense)                 (None, 51)           2091        concatenate_3[0][0]              
__________________________________________________________________________________________________
dropout_9 (Dropout)             (None, 51)           0           dense_5[0][0]                    
__________________________________________________________________________________________________
dense_6 (Dense)                 (None, 4)            208         dropout_9[0][0]                  
==================================================================================================
Total params: 532,135
Trainable params: 532,135
Non-trainable params: 0
__________________________________________________________________________________________________
None
	data size before focused sampling = 480496
	data size after focused sampling = 668676
…
	Training (Important) : 3124, Test : 1954
	MWEs in tain : 1372, occurrences : 3583
	Impotant words in tain : 1175
	MWE length mean : 2.13
	Seen MWEs : 386 (57 %)
	New MWEs : 284 (42 %)
==================================================================================================
__________________________________________________________________________________________________
Layer (type)                    Output Shape         Param #     Connected to                     
==================================================================================================
input_1 (InputLayer)            (None, 7)            0                                            
__________________________________________________________________________________________________
input_2 (InputLayer)            (None, 7)            0                                            
__________________________________________________________________________________________________
embedding_1 (Embedding)         (None, 7, 283)       333374      input_1[0][0]                    
__________________________________________________________________________________________________
embedding_2 (Embedding)         (None, 7, 25)        475         input_2[0][0]                    
__________________________________________________________________________________________________
gru_1 (GRU)                     (None, 64)           66816       embedding_1[0][0]                
__________________________________________________________________________________________________
gru_2 (GRU)                     (None, 37)           6993        embedding_2[0][0]                
__________________________________________________________________________________________________
dropout_1 (Dropout)             (None, 64)           0           gru_1[0][0]                      
__________________________________________________________________________________________________
dropout_2 (Dropout)             (None, 37)           0           gru_2[0][0]                      
__________________________________________________________________________________________________
concatenate_1 (Concatenate)     (None, 101)          0           dropout_1[0][0]                  
                                                                 dropout_2[0][0]                  
__________________________________________________________________________________________________
dense_1 (Dense)                 (None, 94)           9588        concatenate_1[0][0]              
__________________________________________________________________________________________________
dropout_3 (Dropout)             (None, 94)           0           dense_1[0][0]                    
__________________________________________________________________________________________________
dense_2 (Dense)                 (None, 4)            380         dropout_3[0][0]                  
==================================================================================================
Total params: 417,626
Trainable params: 417,626
Non-trainable params: 0
__________________________________________________________________________________________________
None
	data size before focused sampling = 356484
	data size after focused sampling = 510016
…
	Training (Important) : 2305, Test : 3117
	MWEs in tain : 1396, occurrences : 2518
	Impotant words in tain : 1131
	MWE length mean : 2.22
	Seen MWEs : 340 (61 %)
	New MWEs : 213 (38 %)
==================================================================================================
__________________________________________________________________________________________________
Layer (type)                    Output Shape         Param #     Connected to                     
==================================================================================================
input_7 (InputLayer)            (None, 7)            0                                            
__________________________________________________________________________________________________
input_8 (InputLayer)            (None, 7)            0                                            
__________________________________________________________________________________________________
embedding_7 (Embedding)         (None, 7, 283)       320922      input_7[0][0]                    
__________________________________________________________________________________________________
embedding_8 (Embedding)         (None, 7, 25)        475         input_8[0][0]                    
__________________________________________________________________________________________________
gru_7 (GRU)                     (None, 64)           66816       embedding_7[0][0]                
__________________________________________________________________________________________________
gru_8 (GRU)                     (None, 37)           6993        embedding_8[0][0]                
__________________________________________________________________________________________________
dropout_10 (Dropout)            (None, 64)           0           gru_7[0][0]                      
__________________________________________________________________________________________________
dropout_11 (Dropout)            (None, 37)           0           gru_8[0][0]                      
__________________________________________________________________________________________________
concatenate_4 (Concatenate)     (None, 101)          0           dropout_10[0][0]                 
                                                                 dropout_11[0][0]                 
__________________________________________________________________________________________________
dense_7 (Dense)                 (None, 94)           9588        concatenate_4[0][0]              
__________________________________________________________________________________________________
dropout_12 (Dropout)            (None, 94)           0           dense_7[0][0]                    
__________________________________________________________________________________________________
dense_8 (Dense)                 (None, 4)            380         dropout_12[0][0]                 
==================================================================================================
Total params: 405,174
Trainable params: 405,174
Non-trainable params: 0
__________________________________________________________________________________________________
None
	data size before focused sampling = 241368
	data size after focused sampling = 396311
…
	Training (Important) : 3585, Test : 1320
	MWEs in tain : 1790, occurrences : 4856
	Impotant words in tain : 1200
	MWE length mean : 2.06
	Seen MWEs : 345 (67 %)
	New MWEs : 165 (32 %)
==================================================================================================
__________________________________________________________________________________________________
Layer (type)                    Output Shape         Param #     Connected to                     
==================================================================================================
input_13 (InputLayer)           (None, 7)            0                                            
__________________________________________________________________________________________________
input_14 (InputLayer)           (None, 7)            0                                            
__________________________________________________________________________________________________
embedding_13 (Embedding)        (None, 7, 283)       340449      input_13[0][0]                   
__________________________________________________________________________________________________
embedding_14 (Embedding)        (None, 7, 25)        350         input_14[0][0]                   
__________________________________________________________________________________________________
gru_13 (GRU)                    (None, 64)           66816       embedding_13[0][0]               
__________________________________________________________________________________________________
gru_14 (GRU)                    (None, 37)           6993        embedding_14[0][0]               
__________________________________________________________________________________________________
dropout_19 (Dropout)            (None, 64)           0           gru_13[0][0]                     
__________________________________________________________________________________________________
dropout_20 (Dropout)            (None, 37)           0           gru_14[0][0]                     
__________________________________________________________________________________________________
concatenate_7 (Concatenate)     (None, 101)          0           dropout_19[0][0]                 
                                                                 dropout_20[0][0]                 
__________________________________________________________________________________________________
dense_13 (Dense)                (None, 94)           9588        concatenate_7[0][0]              
__________________________________________________________________________________________________
dropout_21 (Dropout)            (None, 94)           0           dense_13[0][0]                   
__________________________________________________________________________________________________
dense_14 (Dense)                (None, 4)            380         dropout_21[0][0]                 
==================================================================================================
Total params: 424,576
Trainable params: 424,576
Non-trainable params: 0
__________________________________________________________________________________________________
None
	data size before focused sampling = 480496
	data size after focused sampling = 668676
…
	Training (Important) : 3124, Test : 1954
	MWEs in tain : 1372, occurrences : 3583
	Impotant words in tain : 1175
	MWE length mean : 2.13
	Seen MWEs : 386 (57 %)
	New MWEs : 284 (42 %)
==================================================================================================
__________________________________________________________________________________________________
Layer (type)                    Output Shape         Param #     Connected to                     
==================================================================================================
input_91 (InputLayer)           (None, 7)            0                                            
__________________________________________________________________________________________________
input_92 (InputLayer)           (None, 7)            0                                            
__________________________________________________________________________________________________
embedding_91 (Embedding)        (None, 7, 267)       314526      input_91[0][0]                   
__________________________________________________________________________________________________
embedding_92 (Embedding)        (None, 7, 78)        1482        input_92[0][0]                   
__________________________________________________________________________________________________
gru_91 (GRU)                    (None, 31)           27807       embedding_91[0][0]               
__________________________________________________________________________________________________
gru_92 (GRU)                    (None, 40)           14280       embedding_92[0][0]               
__________________________________________________________________________________________________
dropout_136 (Dropout)           (None, 31)           0           gru_91[0][0]                     
__________________________________________________________________________________________________
dropout_137 (Dropout)           (None, 40)           0           gru_92[0][0]                     
__________________________________________________________________________________________________
concatenate_46 (Concatenate)    (None, 71)           0           dropout_136[0][0]                
                                                                 dropout_137[0][0]                
__________________________________________________________________________________________________
dense_91 (Dense)                (None, 96)           6912        concatenate_46[0][0]             
__________________________________________________________________________________________________
dropout_138 (Dropout)           (None, 96)           0           dense_91[0][0]                   
__________________________________________________________________________________________________
dense_92 (Dense)                (None, 4)            388         dropout_138[0][0]                
==================================================================================================
Total params: 365,395
Trainable params: 365,395
Non-trainable params: 0
__________________________________________________________________________________________________
None
	data size before focused sampling = 356484
	data size after focused sampling = 510016
…
	Training (Important) : 2305, Test : 3117
	MWEs in tain : 1396, occurrences : 2518
	Impotant words in tain : 1131
	MWE length mean : 2.22
	Seen MWEs : 340 (61 %)
	New MWEs : 213 (38 %)
==================================================================================================
__________________________________________________________________________________________________
Layer (type)                    Output Shape         Param #     Connected to                     
==================================================================================================
input_97 (InputLayer)           (None, 7)            0                                            
__________________________________________________________________________________________________
input_98 (InputLayer)           (None, 7)            0                                            
__________________________________________________________________________________________________
embedding_97 (Embedding)        (None, 7, 267)       302778      input_97[0][0]                   
__________________________________________________________________________________________________
embedding_98 (Embedding)        (None, 7, 78)        1482        input_98[0][0]                   
__________________________________________________________________________________________________
gru_97 (GRU)                    (None, 31)           27807       embedding_97[0][0]               
__________________________________________________________________________________________________
gru_98 (GRU)                    (None, 40)           14280       embedding_98[0][0]               
__________________________________________________________________________________________________
dropout_145 (Dropout)           (None, 31)           0           gru_97[0][0]                     
__________________________________________________________________________________________________
dropout_146 (Dropout)           (None, 40)           0           gru_98[0][0]                     
__________________________________________________________________________________________________
concatenate_49 (Concatenate)    (None, 71)           0           dropout_145[0][0]                
                                                                 dropout_146[0][0]                
__________________________________________________________________________________________________
dense_97 (Dense)                (None, 96)           6912        concatenate_49[0][0]             
__________________________________________________________________________________________________
dropout_147 (Dropout)           (None, 96)           0           dense_97[0][0]                   
__________________________________________________________________________________________________
dense_98 (Dense)                (None, 4)            388         dropout_147[0][0]                
==================================================================================================
Total params: 353,647
Trainable params: 353,647
Non-trainable params: 0
__________________________________________________________________________________________________
None
	data size before focused sampling = 241368
	data size after focused sampling = 396311
…
	Training (Important) : 3585, Test : 1320
	MWEs in tain : 1790, occurrences : 4856
	Impotant words in tain : 1200
	MWE length mean : 2.06
	Seen MWEs : 345 (67 %)
	New MWEs : 165 (32 %)
==================================================================================================
__________________________________________________________________________________________________
Layer (type)                    Output Shape         Param #     Connected to                     
==================================================================================================
input_103 (InputLayer)          (None, 7)            0                                            
__________________________________________________________________________________________________
input_104 (InputLayer)          (None, 7)            0                                            
__________________________________________________________________________________________________
embedding_103 (Embedding)       (None, 7, 267)       321201      input_103[0][0]                  
__________________________________________________________________________________________________
embedding_104 (Embedding)       (None, 7, 78)        1092        input_104[0][0]                  
__________________________________________________________________________________________________
gru_103 (GRU)                   (None, 31)           27807       embedding_103[0][0]              
__________________________________________________________________________________________________
gru_104 (GRU)                   (None, 40)           14280       embedding_104[0][0]              
__________________________________________________________________________________________________
dropout_154 (Dropout)           (None, 31)           0           gru_103[0][0]                    
__________________________________________________________________________________________________
dropout_155 (Dropout)           (None, 40)           0           gru_104[0][0]                    
__________________________________________________________________________________________________
concatenate_52 (Concatenate)    (None, 71)           0           dropout_154[0][0]                
                                                                 dropout_155[0][0]                
__________________________________________________________________________________________________
dense_103 (Dense)               (None, 96)           6912        concatenate_52[0][0]             
__________________________________________________________________________________________________
dropout_156 (Dropout)           (None, 96)           0           dense_103[0][0]                  
__________________________________________________________________________________________________
dense_104 (Dense)               (None, 4)            388         dropout_156[0][0]                
==================================================================================================
Total params: 371,680
Trainable params: 371,680
Non-trainable params: 0
__________________________________________________________________________________________________
None
	data size before focused sampling = 480496
	data size after focused sampling = 668676
…
