…
	Training (Important) : 3124, Test : 1954
	MWEs in tain : 1372, occurrences : 3583
	Impotant words in tain : 1175
	MWE length mean : 2.13
	Seen MWEs : 386 (57 %)
	New MWEs : 284 (42 %)
==================================================================================================
__________________________________________________________________________________________________
Layer (type)                    Output Shape         Param #     Connected to                     
==================================================================================================
input_1 (InputLayer)            (None, 7)            0                                            
__________________________________________________________________________________________________
input_2 (InputLayer)            (None, 7)            0                                            
__________________________________________________________________________________________________
embedding_1 (Embedding)         (None, 7, 266)       313348      input_1[0][0]                    
__________________________________________________________________________________________________
embedding_2 (Embedding)         (None, 7, 40)        760         input_2[0][0]                    
__________________________________________________________________________________________________
gru_1 (GRU)                     (None, 39)           35802       embedding_1[0][0]                
__________________________________________________________________________________________________
gru_2 (GRU)                     (None, 19)           3420        embedding_2[0][0]                
__________________________________________________________________________________________________
dropout_1 (Dropout)             (None, 39)           0           gru_1[0][0]                      
__________________________________________________________________________________________________
dropout_2 (Dropout)             (None, 19)           0           gru_2[0][0]                      
__________________________________________________________________________________________________
concatenate_1 (Concatenate)     (None, 58)           0           dropout_1[0][0]                  
                                                                 dropout_2[0][0]                  
__________________________________________________________________________________________________
dense_1 (Dense)                 (None, 53)           3127        concatenate_1[0][0]              
__________________________________________________________________________________________________
dropout_3 (Dropout)             (None, 53)           0           dense_1[0][0]                    
__________________________________________________________________________________________________
dense_2 (Dense)                 (None, 4)            216         dropout_3[0][0]                  
==================================================================================================
Total params: 356,673
Trainable params: 356,673
Non-trainable params: 0
__________________________________________________________________________________________________
None
Train on 320835 samples, validate on 35649 samples
Epoch 1/20
 - 74s - loss: 0.0762 - acc: 0.9776 - val_loss: 0.0904 - val_acc: 0.9992
…
	Training (Important) : 2305, Test : 3117
	MWEs in tain : 1396, occurrences : 2518
	Impotant words in tain : 1131
	MWE length mean : 2.22
	Seen MWEs : 340 (61 %)
	New MWEs : 213 (38 %)
==================================================================================================
__________________________________________________________________________________________________
Layer (type)                    Output Shape         Param #     Connected to                     
==================================================================================================
input_3 (InputLayer)            (None, 7)            0                                            
__________________________________________________________________________________________________
input_4 (InputLayer)            (None, 7)            0                                            
__________________________________________________________________________________________________
embedding_3 (Embedding)         (None, 7, 266)       301644      input_3[0][0]                    
__________________________________________________________________________________________________
embedding_4 (Embedding)         (None, 7, 40)        760         input_4[0][0]                    
__________________________________________________________________________________________________
gru_3 (GRU)                     (None, 39)           35802       embedding_3[0][0]                
__________________________________________________________________________________________________
gru_4 (GRU)                     (None, 19)           3420        embedding_4[0][0]                
__________________________________________________________________________________________________
dropout_4 (Dropout)             (None, 39)           0           gru_3[0][0]                      
__________________________________________________________________________________________________
dropout_5 (Dropout)             (None, 19)           0           gru_4[0][0]                      
__________________________________________________________________________________________________
concatenate_2 (Concatenate)     (None, 58)           0           dropout_4[0][0]                  
                                                                 dropout_5[0][0]                  
__________________________________________________________________________________________________
dense_3 (Dense)                 (None, 53)           3127        concatenate_2[0][0]              
__________________________________________________________________________________________________
dropout_6 (Dropout)             (None, 53)           0           dense_3[0][0]                    
__________________________________________________________________________________________________
dense_4 (Dense)                 (None, 4)            216         dropout_6[0][0]                  
==================================================================================================
Total params: 344,969
Trainable params: 344,969
Non-trainable params: 0
__________________________________________________________________________________________________
None
Train on 217231 samples, validate on 24137 samples
Epoch 1/20
 - 51s - loss: 0.0891 - acc: 0.9723 - val_loss: 0.0849 - val_acc: 0.9994
…
	Training (Important) : 3585, Test : 1320
	MWEs in tain : 1790, occurrences : 4856
	Impotant words in tain : 1200
	MWE length mean : 2.06
	Seen MWEs : 345 (67 %)
	New MWEs : 165 (32 %)
==================================================================================================
__________________________________________________________________________________________________
Layer (type)                    Output Shape         Param #     Connected to                     
==================================================================================================
input_5 (InputLayer)            (None, 7)            0                                            
__________________________________________________________________________________________________
input_6 (InputLayer)            (None, 7)            0                                            
__________________________________________________________________________________________________
embedding_5 (Embedding)         (None, 7, 266)       319998      input_5[0][0]                    
__________________________________________________________________________________________________
embedding_6 (Embedding)         (None, 7, 40)        560         input_6[0][0]                    
__________________________________________________________________________________________________
gru_5 (GRU)                     (None, 39)           35802       embedding_5[0][0]                
__________________________________________________________________________________________________
gru_6 (GRU)                     (None, 19)           3420        embedding_6[0][0]                
__________________________________________________________________________________________________
dropout_7 (Dropout)             (None, 39)           0           gru_5[0][0]                      
__________________________________________________________________________________________________
dropout_8 (Dropout)             (None, 19)           0           gru_6[0][0]                      
__________________________________________________________________________________________________
concatenate_3 (Concatenate)     (None, 58)           0           dropout_7[0][0]                  
                                                                 dropout_8[0][0]                  
__________________________________________________________________________________________________
dense_5 (Dense)                 (None, 53)           3127        concatenate_3[0][0]              
__________________________________________________________________________________________________
dropout_9 (Dropout)             (None, 53)           0           dense_5[0][0]                    
__________________________________________________________________________________________________
dense_6 (Dense)                 (None, 4)            216         dropout_9[0][0]                  
==================================================================================================
Total params: 363,123
Trainable params: 363,123
Non-trainable params: 0
__________________________________________________________________________________________________
None
Train on 432446 samples, validate on 48050 samples
Epoch 1/20
 - 102s - loss: 0.0771 - acc: 0.9762 - val_loss: 0.0810 - val_acc: 1.0000
…
	Training (Important) : 3124, Test : 1954
	MWEs in tain : 1372, occurrences : 3583
	Impotant words in tain : 1175
	MWE length mean : 2.13
	Seen MWEs : 386 (57 %)
	New MWEs : 284 (42 %)
==================================================================================================
__________________________________________________________________________________________________
Layer (type)                    Output Shape         Param #     Connected to                     
==================================================================================================
input_7 (InputLayer)            (None, 7)            0                                            
__________________________________________________________________________________________________
input_8 (InputLayer)            (None, 7)            0                                            
__________________________________________________________________________________________________
embedding_7 (Embedding)         (None, 7, 355)       418190      input_7[0][0]                    
__________________________________________________________________________________________________
embedding_8 (Embedding)         (None, 7, 65)        1235        input_8[0][0]                    
__________________________________________________________________________________________________
gru_7 (GRU)                     (None, 28)           32256       embedding_7[0][0]                
__________________________________________________________________________________________________
gru_8 (GRU)                     (None, 48)           16416       embedding_8[0][0]                
__________________________________________________________________________________________________
dropout_10 (Dropout)            (None, 28)           0           gru_7[0][0]                      
__________________________________________________________________________________________________
dropout_11 (Dropout)            (None, 48)           0           gru_8[0][0]                      
__________________________________________________________________________________________________
concatenate_4 (Concatenate)     (None, 76)           0           dropout_10[0][0]                 
                                                                 dropout_11[0][0]                 
__________________________________________________________________________________________________
dense_7 (Dense)                 (None, 77)           5929        concatenate_4[0][0]              
__________________________________________________________________________________________________
dropout_12 (Dropout)            (None, 77)           0           dense_7[0][0]                    
__________________________________________________________________________________________________
dense_8 (Dense)                 (None, 4)            312         dropout_12[0][0]                 
==================================================================================================
Total params: 474,338
Trainable params: 474,338
Non-trainable params: 0
__________________________________________________________________________________________________
None
Train on 320835 samples, validate on 35649 samples
Epoch 1/20
 - 38s - loss: 0.0891 - acc: 0.9739 - val_loss: 0.0679 - val_acc: 0.9976
…
	Training (Important) : 2305, Test : 3117
	MWEs in tain : 1396, occurrences : 2518
	Impotant words in tain : 1131
	MWE length mean : 2.22
	Seen MWEs : 340 (61 %)
	New MWEs : 213 (38 %)
==================================================================================================
__________________________________________________________________________________________________
Layer (type)                    Output Shape         Param #     Connected to                     
==================================================================================================
input_9 (InputLayer)            (None, 7)            0                                            
__________________________________________________________________________________________________
input_10 (InputLayer)           (None, 7)            0                                            
__________________________________________________________________________________________________
embedding_9 (Embedding)         (None, 7, 355)       402570      input_9[0][0]                    
__________________________________________________________________________________________________
embedding_10 (Embedding)        (None, 7, 65)        1235        input_10[0][0]                   
__________________________________________________________________________________________________
gru_9 (GRU)                     (None, 28)           32256       embedding_9[0][0]                
__________________________________________________________________________________________________
gru_10 (GRU)                    (None, 48)           16416       embedding_10[0][0]               
__________________________________________________________________________________________________
dropout_13 (Dropout)            (None, 28)           0           gru_9[0][0]                      
__________________________________________________________________________________________________
dropout_14 (Dropout)            (None, 48)           0           gru_10[0][0]                     
__________________________________________________________________________________________________
concatenate_5 (Concatenate)     (None, 76)           0           dropout_13[0][0]                 
                                                                 dropout_14[0][0]                 
__________________________________________________________________________________________________
dense_9 (Dense)                 (None, 77)           5929        concatenate_5[0][0]              
__________________________________________________________________________________________________
dropout_15 (Dropout)            (None, 77)           0           dense_9[0][0]                    
__________________________________________________________________________________________________
dense_10 (Dense)                (None, 4)            312         dropout_15[0][0]                 
==================================================================================================
Total params: 458,718
Trainable params: 458,718
Non-trainable params: 0
__________________________________________________________________________________________________
None
Train on 217231 samples, validate on 24137 samples
Epoch 1/20
 - 26s - loss: 0.1006 - acc: 0.9693 - val_loss: 0.0620 - val_acc: 0.9988
…
	Training (Important) : 3585, Test : 1320
	MWEs in tain : 1790, occurrences : 4856
	Impotant words in tain : 1200
	MWE length mean : 2.06
	Seen MWEs : 345 (67 %)
	New MWEs : 165 (32 %)
==================================================================================================
__________________________________________________________________________________________________
Layer (type)                    Output Shape         Param #     Connected to                     
==================================================================================================
input_11 (InputLayer)           (None, 7)            0                                            
__________________________________________________________________________________________________
input_12 (InputLayer)           (None, 7)            0                                            
__________________________________________________________________________________________________
embedding_11 (Embedding)        (None, 7, 355)       427065      input_11[0][0]                   
__________________________________________________________________________________________________
embedding_12 (Embedding)        (None, 7, 65)        910         input_12[0][0]                   
__________________________________________________________________________________________________
gru_11 (GRU)                    (None, 28)           32256       embedding_11[0][0]               
__________________________________________________________________________________________________
gru_12 (GRU)                    (None, 48)           16416       embedding_12[0][0]               
__________________________________________________________________________________________________
dropout_16 (Dropout)            (None, 28)           0           gru_11[0][0]                     
__________________________________________________________________________________________________
dropout_17 (Dropout)            (None, 48)           0           gru_12[0][0]                     
__________________________________________________________________________________________________
concatenate_6 (Concatenate)     (None, 76)           0           dropout_16[0][0]                 
                                                                 dropout_17[0][0]                 
__________________________________________________________________________________________________
dense_11 (Dense)                (None, 77)           5929        concatenate_6[0][0]              
__________________________________________________________________________________________________
dropout_18 (Dropout)            (None, 77)           0           dense_11[0][0]                   
__________________________________________________________________________________________________
dense_12 (Dense)                (None, 4)            312         dropout_18[0][0]                 
==================================================================================================
Total params: 482,888
Trainable params: 482,888
Non-trainable params: 0
__________________________________________________________________________________________________
None
Train on 432446 samples, validate on 48050 samples
Epoch 1/20
 - 51s - loss: 0.0813 - acc: 0.9752 - val_loss: 0.0545 - val_acc: 1.0000
…
	Training (Important) : 3124, Test : 1954
	MWEs in tain : 1372, occurrences : 3583
	Impotant words in tain : 1175
	MWE length mean : 2.13
	Seen MWEs : 386 (57 %)
	New MWEs : 284 (42 %)
==================================================================================================
__________________________________________________________________________________________________
Layer (type)                    Output Shape         Param #     Connected to                     
==================================================================================================
input_13 (InputLayer)           (None, 7)            0                                            
__________________________________________________________________________________________________
input_14 (InputLayer)           (None, 7)            0                                            
__________________________________________________________________________________________________
embedding_13 (Embedding)        (None, 7, 227)       267406      input_13[0][0]                   
__________________________________________________________________________________________________
embedding_14 (Embedding)        (None, 7, 95)        1805        input_14[0][0]                   
__________________________________________________________________________________________________
gru_13 (GRU)                    (None, 69)           61479       embedding_13[0][0]               
__________________________________________________________________________________________________
gru_14 (GRU)                    (None, 37)           14763       embedding_14[0][0]               
__________________________________________________________________________________________________
dropout_19 (Dropout)            (None, 69)           0           gru_13[0][0]                     
__________________________________________________________________________________________________
dropout_20 (Dropout)            (None, 37)           0           gru_14[0][0]                     
__________________________________________________________________________________________________
concatenate_7 (Concatenate)     (None, 106)          0           dropout_19[0][0]                 
                                                                 dropout_20[0][0]                 
__________________________________________________________________________________________________
dense_13 (Dense)                (None, 31)           3317        concatenate_7[0][0]              
__________________________________________________________________________________________________
dropout_21 (Dropout)            (None, 31)           0           dense_13[0][0]                   
__________________________________________________________________________________________________
dense_14 (Dense)                (None, 4)            128         dropout_21[0][0]                 
==================================================================================================
Total params: 348,898
Trainable params: 348,898
Non-trainable params: 0
__________________________________________________________________________________________________
None
Train on 320835 samples, validate on 35649 samples
Epoch 1/20
 - 306s - loss: 0.0702 - acc: 0.9801 - val_loss: 0.0405 - val_acc: 1.0000
…
	Training (Important) : 2305, Test : 3117
	MWEs in tain : 1396, occurrences : 2518
	Impotant words in tain : 1131
	MWE length mean : 2.22
	Seen MWEs : 340 (61 %)
	New MWEs : 213 (38 %)
==================================================================================================
__________________________________________________________________________________________________
Layer (type)                    Output Shape         Param #     Connected to                     
==================================================================================================
input_15 (InputLayer)           (None, 7)            0                                            
__________________________________________________________________________________________________
input_16 (InputLayer)           (None, 7)            0                                            
__________________________________________________________________________________________________
embedding_15 (Embedding)        (None, 7, 227)       257418      input_15[0][0]                   
__________________________________________________________________________________________________
embedding_16 (Embedding)        (None, 7, 95)        1805        input_16[0][0]                   
__________________________________________________________________________________________________
gru_15 (GRU)                    (None, 69)           61479       embedding_15[0][0]               
__________________________________________________________________________________________________
gru_16 (GRU)                    (None, 37)           14763       embedding_16[0][0]               
__________________________________________________________________________________________________
dropout_22 (Dropout)            (None, 69)           0           gru_15[0][0]                     
__________________________________________________________________________________________________
dropout_23 (Dropout)            (None, 37)           0           gru_16[0][0]                     
__________________________________________________________________________________________________
concatenate_8 (Concatenate)     (None, 106)          0           dropout_22[0][0]                 
                                                                 dropout_23[0][0]                 
__________________________________________________________________________________________________
dense_15 (Dense)                (None, 31)           3317        concatenate_8[0][0]              
__________________________________________________________________________________________________
dropout_24 (Dropout)            (None, 31)           0           dense_15[0][0]                   
__________________________________________________________________________________________________
dense_16 (Dense)                (None, 4)            128         dropout_24[0][0]                 
==================================================================================================
Total params: 338,910
Trainable params: 338,910
Non-trainable params: 0
__________________________________________________________________________________________________
None
Train on 217231 samples, validate on 24137 samples
Epoch 1/20
 - 203s - loss: 0.0789 - acc: 0.9763 - val_loss: 0.0798 - val_acc: 0.9989
…
	Training (Important) : 3585, Test : 1320
	MWEs in tain : 1790, occurrences : 4856
	Impotant words in tain : 1200
	MWE length mean : 2.06
	Seen MWEs : 345 (67 %)
	New MWEs : 165 (32 %)
==================================================================================================
__________________________________________________________________________________________________
Layer (type)                    Output Shape         Param #     Connected to                     
==================================================================================================
input_17 (InputLayer)           (None, 7)            0                                            
__________________________________________________________________________________________________
input_18 (InputLayer)           (None, 7)            0                                            
__________________________________________________________________________________________________
embedding_17 (Embedding)        (None, 7, 227)       273081      input_17[0][0]                   
__________________________________________________________________________________________________
embedding_18 (Embedding)        (None, 7, 95)        1330        input_18[0][0]                   
__________________________________________________________________________________________________
gru_17 (GRU)                    (None, 69)           61479       embedding_17[0][0]               
__________________________________________________________________________________________________
gru_18 (GRU)                    (None, 37)           14763       embedding_18[0][0]               
__________________________________________________________________________________________________
dropout_25 (Dropout)            (None, 69)           0           gru_17[0][0]                     
__________________________________________________________________________________________________
dropout_26 (Dropout)            (None, 37)           0           gru_18[0][0]                     
__________________________________________________________________________________________________
concatenate_9 (Concatenate)     (None, 106)          0           dropout_25[0][0]                 
                                                                 dropout_26[0][0]                 
__________________________________________________________________________________________________
dense_17 (Dense)                (None, 31)           3317        concatenate_9[0][0]              
__________________________________________________________________________________________________
dropout_27 (Dropout)            (None, 31)           0           dense_17[0][0]                   
__________________________________________________________________________________________________
dense_18 (Dense)                (None, 4)            128         dropout_27[0][0]                 
==================================================================================================
Total params: 354,098
Trainable params: 354,098
Non-trainable params: 0
__________________________________________________________________________________________________
None
Train on 432446 samples, validate on 48050 samples
Epoch 1/20
 - 414s - loss: 0.0706 - acc: 0.9786 - val_loss: 0.0691 - val_acc: 1.0000
…
	Training (Important) : 3124, Test : 1954
	MWEs in tain : 1372, occurrences : 3583
	Impotant words in tain : 1175
	MWE length mean : 2.13
	Seen MWEs : 386 (57 %)
	New MWEs : 284 (42 %)
==================================================================================================
__________________________________________________________________________________________________
Layer (type)                    Output Shape         Param #     Connected to                     
==================================================================================================
input_19 (InputLayer)           (None, 7)            0                                            
__________________________________________________________________________________________________
input_20 (InputLayer)           (None, 7)            0                                            
__________________________________________________________________________________________________
embedding_19 (Embedding)        (None, 7, 308)       362824      input_19[0][0]                   
__________________________________________________________________________________________________
embedding_20 (Embedding)        (None, 7, 81)        1539        input_20[0][0]                   
__________________________________________________________________________________________________
gru_19 (GRU)                    (None, 43)           45408       embedding_19[0][0]               
__________________________________________________________________________________________________
gru_20 (GRU)                    (None, 16)           4704        embedding_20[0][0]               
__________________________________________________________________________________________________
dropout_28 (Dropout)            (None, 43)           0           gru_19[0][0]                     
__________________________________________________________________________________________________
dropout_29 (Dropout)            (None, 16)           0           gru_20[0][0]                     
__________________________________________________________________________________________________
concatenate_10 (Concatenate)    (None, 59)           0           dropout_28[0][0]                 
                                                                 dropout_29[0][0]                 
__________________________________________________________________________________________________
dense_19 (Dense)                (None, 54)           3240        concatenate_10[0][0]             
__________________________________________________________________________________________________
dropout_30 (Dropout)            (None, 54)           0           dense_19[0][0]                   
__________________________________________________________________________________________________
dense_20 (Dense)                (None, 4)            220         dropout_30[0][0]                 
==================================================================================================
Total params: 417,935
Trainable params: 417,935
Non-trainable params: 0
__________________________________________________________________________________________________
None
Train on 320835 samples, validate on 35649 samples
Epoch 1/20
 - 152s - loss: 0.0739 - acc: 0.9788 - val_loss: 0.0810 - val_acc: 1.0000
…
	Training (Important) : 2305, Test : 3117
	MWEs in tain : 1396, occurrences : 2518
	Impotant words in tain : 1131
	MWE length mean : 2.22
	Seen MWEs : 340 (61 %)
	New MWEs : 213 (38 %)
==================================================================================================
__________________________________________________________________________________________________
Layer (type)                    Output Shape         Param #     Connected to                     
==================================================================================================
input_21 (InputLayer)           (None, 7)            0                                            
__________________________________________________________________________________________________
input_22 (InputLayer)           (None, 7)            0                                            
__________________________________________________________________________________________________
embedding_21 (Embedding)        (None, 7, 308)       349272      input_21[0][0]                   
__________________________________________________________________________________________________
embedding_22 (Embedding)        (None, 7, 81)        1539        input_22[0][0]                   
__________________________________________________________________________________________________
gru_21 (GRU)                    (None, 43)           45408       embedding_21[0][0]               
__________________________________________________________________________________________________
gru_22 (GRU)                    (None, 16)           4704        embedding_22[0][0]               
__________________________________________________________________________________________________
dropout_31 (Dropout)            (None, 43)           0           gru_21[0][0]                     
__________________________________________________________________________________________________
dropout_32 (Dropout)            (None, 16)           0           gru_22[0][0]                     
__________________________________________________________________________________________________
concatenate_11 (Concatenate)    (None, 59)           0           dropout_31[0][0]                 
                                                                 dropout_32[0][0]                 
__________________________________________________________________________________________________
dense_21 (Dense)                (None, 54)           3240        concatenate_11[0][0]             
__________________________________________________________________________________________________
dropout_33 (Dropout)            (None, 54)           0           dense_21[0][0]                   
__________________________________________________________________________________________________
dense_22 (Dense)                (None, 4)            220         dropout_33[0][0]                 
==================================================================================================
Total params: 404,383
Trainable params: 404,383
Non-trainable params: 0
__________________________________________________________________________________________________
None
Train on 217231 samples, validate on 24137 samples
Epoch 1/20
 - 105s - loss: 0.0810 - acc: 0.9759 - val_loss: 0.0689 - val_acc: 0.9994
…
	Training (Important) : 3585, Test : 1320
	MWEs in tain : 1790, occurrences : 4856
	Impotant words in tain : 1200
	MWE length mean : 2.06
	Seen MWEs : 345 (67 %)
	New MWEs : 165 (32 %)
==================================================================================================
__________________________________________________________________________________________________
Layer (type)                    Output Shape         Param #     Connected to                     
==================================================================================================
input_23 (InputLayer)           (None, 7)            0                                            
__________________________________________________________________________________________________
input_24 (InputLayer)           (None, 7)            0                                            
__________________________________________________________________________________________________
embedding_23 (Embedding)        (None, 7, 308)       370524      input_23[0][0]                   
__________________________________________________________________________________________________
embedding_24 (Embedding)        (None, 7, 81)        1134        input_24[0][0]                   
__________________________________________________________________________________________________
gru_23 (GRU)                    (None, 43)           45408       embedding_23[0][0]               
__________________________________________________________________________________________________
gru_24 (GRU)                    (None, 16)           4704        embedding_24[0][0]               
__________________________________________________________________________________________________
dropout_34 (Dropout)            (None, 43)           0           gru_23[0][0]                     
__________________________________________________________________________________________________
dropout_35 (Dropout)            (None, 16)           0           gru_24[0][0]                     
__________________________________________________________________________________________________
concatenate_12 (Concatenate)    (None, 59)           0           dropout_34[0][0]                 
                                                                 dropout_35[0][0]                 
__________________________________________________________________________________________________
dense_23 (Dense)                (None, 54)           3240        concatenate_12[0][0]             
__________________________________________________________________________________________________
dropout_36 (Dropout)            (None, 54)           0           dense_23[0][0]                   
__________________________________________________________________________________________________
dense_24 (Dense)                (None, 4)            220         dropout_36[0][0]                 
==================================================================================================
Total params: 425,230
Trainable params: 425,230
Non-trainable params: 0
__________________________________________________________________________________________________
None
Train on 432446 samples, validate on 48050 samples
Epoch 1/20
 - 229s - loss: 0.0743 - acc: 0.9775 - val_loss: 0.1081 - val_acc: 0.9997
…
	Training (Important) : 3124, Test : 1954
	MWEs in tain : 1372, occurrences : 3583
	Impotant words in tain : 1175
	MWE length mean : 2.13
	Seen MWEs : 386 (57 %)
	New MWEs : 284 (42 %)
==================================================================================================
__________________________________________________________________________________________________
Layer (type)                    Output Shape         Param #     Connected to                     
==================================================================================================
input_25 (InputLayer)           (None, 7)            0                                            
__________________________________________________________________________________________________
input_26 (InputLayer)           (None, 7)            0                                            
__________________________________________________________________________________________________
embedding_25 (Embedding)        (None, 7, 211)       248558      input_25[0][0]                   
__________________________________________________________________________________________________
embedding_26 (Embedding)        (None, 7, 52)        988         input_26[0][0]                   
__________________________________________________________________________________________________
gru_25 (GRU)                    (None, 13)           8775        embedding_25[0][0]               
__________________________________________________________________________________________________
gru_26 (GRU)                    (None, 31)           7812        embedding_26[0][0]               
__________________________________________________________________________________________________
dropout_37 (Dropout)            (None, 13)           0           gru_25[0][0]                     
__________________________________________________________________________________________________
dropout_38 (Dropout)            (None, 31)           0           gru_26[0][0]                     
__________________________________________________________________________________________________
concatenate_13 (Concatenate)    (None, 44)           0           dropout_37[0][0]                 
                                                                 dropout_38[0][0]                 
__________________________________________________________________________________________________
dense_25 (Dense)                (None, 49)           2205        concatenate_13[0][0]             
__________________________________________________________________________________________________
dropout_39 (Dropout)            (None, 49)           0           dense_25[0][0]                   
__________________________________________________________________________________________________
dense_26 (Dense)                (None, 4)            200         dropout_39[0][0]                 
==================================================================================================
Total params: 268,538
Trainable params: 268,538
Non-trainable params: 0
__________________________________________________________________________________________________
None
Train on 320835 samples, validate on 35649 samples
Epoch 1/20
 - 38s - loss: 0.0813 - acc: 0.9754 - val_loss: 0.0774 - val_acc: 0.9979
…
	Training (Important) : 2305, Test : 3117
	MWEs in tain : 1396, occurrences : 2518
	Impotant words in tain : 1131
	MWE length mean : 2.22
	Seen MWEs : 340 (61 %)
	New MWEs : 213 (38 %)
==================================================================================================
__________________________________________________________________________________________________
Layer (type)                    Output Shape         Param #     Connected to                     
==================================================================================================
input_27 (InputLayer)           (None, 7)            0                                            
__________________________________________________________________________________________________
input_28 (InputLayer)           (None, 7)            0                                            
__________________________________________________________________________________________________
embedding_27 (Embedding)        (None, 7, 211)       239274      input_27[0][0]                   
__________________________________________________________________________________________________
embedding_28 (Embedding)        (None, 7, 52)        988         input_28[0][0]                   
__________________________________________________________________________________________________
gru_27 (GRU)                    (None, 13)           8775        embedding_27[0][0]               
__________________________________________________________________________________________________
gru_28 (GRU)                    (None, 31)           7812        embedding_28[0][0]               
__________________________________________________________________________________________________
dropout_40 (Dropout)            (None, 13)           0           gru_27[0][0]                     
__________________________________________________________________________________________________
dropout_41 (Dropout)            (None, 31)           0           gru_28[0][0]                     
__________________________________________________________________________________________________
concatenate_14 (Concatenate)    (None, 44)           0           dropout_40[0][0]                 
                                                                 dropout_41[0][0]                 
__________________________________________________________________________________________________
dense_27 (Dense)                (None, 49)           2205        concatenate_14[0][0]             
__________________________________________________________________________________________________
dropout_42 (Dropout)            (None, 49)           0           dense_27[0][0]                   
__________________________________________________________________________________________________
dense_28 (Dense)                (None, 4)            200         dropout_42[0][0]                 
==================================================================================================
Total params: 259,254
Trainable params: 259,254
Non-trainable params: 0
__________________________________________________________________________________________________
None
Train on 217231 samples, validate on 24137 samples
Epoch 1/20
 - 26s - loss: 0.0967 - acc: 0.9691 - val_loss: 0.0570 - val_acc: 0.9988
…
	Training (Important) : 3585, Test : 1320
	MWEs in tain : 1790, occurrences : 4856
	Impotant words in tain : 1200
	MWE length mean : 2.06
	Seen MWEs : 345 (67 %)
	New MWEs : 165 (32 %)
==================================================================================================
__________________________________________________________________________________________________
Layer (type)                    Output Shape         Param #     Connected to                     
==================================================================================================
input_29 (InputLayer)           (None, 7)            0                                            
__________________________________________________________________________________________________
input_30 (InputLayer)           (None, 7)            0                                            
__________________________________________________________________________________________________
embedding_29 (Embedding)        (None, 7, 211)       253833      input_29[0][0]                   
__________________________________________________________________________________________________
embedding_30 (Embedding)        (None, 7, 52)        728         input_30[0][0]                   
__________________________________________________________________________________________________
gru_29 (GRU)                    (None, 13)           8775        embedding_29[0][0]               
__________________________________________________________________________________________________
gru_30 (GRU)                    (None, 31)           7812        embedding_30[0][0]               
__________________________________________________________________________________________________
dropout_43 (Dropout)            (None, 13)           0           gru_29[0][0]                     
__________________________________________________________________________________________________
dropout_44 (Dropout)            (None, 31)           0           gru_30[0][0]                     
__________________________________________________________________________________________________
concatenate_15 (Concatenate)    (None, 44)           0           dropout_43[0][0]                 
                                                                 dropout_44[0][0]                 
__________________________________________________________________________________________________
dense_29 (Dense)                (None, 49)           2205        concatenate_15[0][0]             
__________________________________________________________________________________________________
dropout_45 (Dropout)            (None, 49)           0           dense_29[0][0]                   
__________________________________________________________________________________________________
dense_30 (Dense)                (None, 4)            200         dropout_45[0][0]                 
==================================================================================================
Total params: 273,553
Trainable params: 273,553
Non-trainable params: 0
__________________________________________________________________________________________________
None
Train on 432446 samples, validate on 48050 samples
Epoch 1/20
 - 51s - loss: 0.0820 - acc: 0.9745 - val_loss: 0.0696 - val_acc: 1.0000
…
	Training (Important) : 3124, Test : 1954
	MWEs in tain : 1372, occurrences : 3583
	Impotant words in tain : 1175
	MWE length mean : 2.13
	Seen MWEs : 386 (57 %)
	New MWEs : 284 (42 %)
==================================================================================================
__________________________________________________________________________________________________
Layer (type)                    Output Shape         Param #     Connected to                     
==================================================================================================
input_31 (InputLayer)           (None, 7)            0                                            
__________________________________________________________________________________________________
input_32 (InputLayer)           (None, 7)            0                                            
__________________________________________________________________________________________________
embedding_31 (Embedding)        (None, 7, 265)       312170      input_31[0][0]                   
__________________________________________________________________________________________________
embedding_32 (Embedding)        (None, 7, 32)        608         input_32[0][0]                   
__________________________________________________________________________________________________
gru_31 (GRU)                    (None, 11)           9141        embedding_31[0][0]               
__________________________________________________________________________________________________
gru_32 (GRU)                    (None, 12)           1620        embedding_32[0][0]               
__________________________________________________________________________________________________
dropout_46 (Dropout)            (None, 11)           0           gru_31[0][0]                     
__________________________________________________________________________________________________
dropout_47 (Dropout)            (None, 12)           0           gru_32[0][0]                     
__________________________________________________________________________________________________
concatenate_16 (Concatenate)    (None, 23)           0           dropout_46[0][0]                 
                                                                 dropout_47[0][0]                 
__________________________________________________________________________________________________
dense_31 (Dense)                (None, 15)           360         concatenate_16[0][0]             
__________________________________________________________________________________________________
dropout_48 (Dropout)            (None, 15)           0           dense_31[0][0]                   
__________________________________________________________________________________________________
dense_32 (Dense)                (None, 4)            64          dropout_48[0][0]                 
==================================================================================================
Total params: 323,963
Trainable params: 323,963
Non-trainable params: 0
__________________________________________________________________________________________________
None
Train on 320835 samples, validate on 35649 samples
Epoch 1/20
 - 306s - loss: 0.1030 - acc: 0.9689 - val_loss: 0.0746 - val_acc: 0.9995
…
	Training (Important) : 2305, Test : 3117
	MWEs in tain : 1396, occurrences : 2518
	Impotant words in tain : 1131
	MWE length mean : 2.22
	Seen MWEs : 340 (61 %)
	New MWEs : 213 (38 %)
==================================================================================================
__________________________________________________________________________________________________
Layer (type)                    Output Shape         Param #     Connected to                     
==================================================================================================
input_33 (InputLayer)           (None, 7)            0                                            
__________________________________________________________________________________________________
input_34 (InputLayer)           (None, 7)            0                                            
__________________________________________________________________________________________________
embedding_33 (Embedding)        (None, 7, 265)       300510      input_33[0][0]                   
__________________________________________________________________________________________________
embedding_34 (Embedding)        (None, 7, 32)        608         input_34[0][0]                   
__________________________________________________________________________________________________
gru_33 (GRU)                    (None, 11)           9141        embedding_33[0][0]               
__________________________________________________________________________________________________
gru_34 (GRU)                    (None, 12)           1620        embedding_34[0][0]               
__________________________________________________________________________________________________
dropout_49 (Dropout)            (None, 11)           0           gru_33[0][0]                     
__________________________________________________________________________________________________
dropout_50 (Dropout)            (None, 12)           0           gru_34[0][0]                     
__________________________________________________________________________________________________
concatenate_17 (Concatenate)    (None, 23)           0           dropout_49[0][0]                 
                                                                 dropout_50[0][0]                 
__________________________________________________________________________________________________
dense_33 (Dense)                (None, 15)           360         concatenate_17[0][0]             
__________________________________________________________________________________________________
dropout_51 (Dropout)            (None, 15)           0           dense_33[0][0]                   
__________________________________________________________________________________________________
dense_34 (Dense)                (None, 4)            64          dropout_51[0][0]                 
==================================================================================================
Total params: 312,303
Trainable params: 312,303
Non-trainable params: 0
__________________________________________________________________________________________________
None
Train on 217231 samples, validate on 24137 samples
Epoch 1/20
 - 201s - loss: 0.1228 - acc: 0.9647 - val_loss: 0.0798 - val_acc: 0.9986
…
	Training (Important) : 3585, Test : 1320
	MWEs in tain : 1790, occurrences : 4856
	Impotant words in tain : 1200
	MWE length mean : 2.06
	Seen MWEs : 345 (67 %)
	New MWEs : 165 (32 %)
==================================================================================================
__________________________________________________________________________________________________
Layer (type)                    Output Shape         Param #     Connected to                     
==================================================================================================
input_35 (InputLayer)           (None, 7)            0                                            
__________________________________________________________________________________________________
input_36 (InputLayer)           (None, 7)            0                                            
__________________________________________________________________________________________________
embedding_35 (Embedding)        (None, 7, 265)       318795      input_35[0][0]                   
__________________________________________________________________________________________________
embedding_36 (Embedding)        (None, 7, 32)        448         input_36[0][0]                   
__________________________________________________________________________________________________
gru_35 (GRU)                    (None, 11)           9141        embedding_35[0][0]               
__________________________________________________________________________________________________
gru_36 (GRU)                    (None, 12)           1620        embedding_36[0][0]               
__________________________________________________________________________________________________
dropout_52 (Dropout)            (None, 11)           0           gru_35[0][0]                     
__________________________________________________________________________________________________
dropout_53 (Dropout)            (None, 12)           0           gru_36[0][0]                     
__________________________________________________________________________________________________
concatenate_18 (Concatenate)    (None, 23)           0           dropout_52[0][0]                 
                                                                 dropout_53[0][0]                 
__________________________________________________________________________________________________
dense_35 (Dense)                (None, 15)           360         concatenate_18[0][0]             
__________________________________________________________________________________________________
dropout_54 (Dropout)            (None, 15)           0           dense_35[0][0]                   
__________________________________________________________________________________________________
dense_36 (Dense)                (None, 4)            64          dropout_54[0][0]                 
==================================================================================================
Total params: 330,428
Trainable params: 330,428
Non-trainable params: 0
__________________________________________________________________________________________________
None
Train on 432446 samples, validate on 48050 samples
Epoch 1/20
 - 403s - loss: 0.0994 - acc: 0.9689 - val_loss: 0.0783 - val_acc: 1.0000
…
	Training (Important) : 3124, Test : 1954
	MWEs in tain : 1372, occurrences : 3583
	Impotant words in tain : 1175
	MWE length mean : 2.13
	Seen MWEs : 386 (57 %)
	New MWEs : 284 (42 %)
==================================================================================================
__________________________________________________________________________________________________
Layer (type)                    Output Shape         Param #     Connected to                     
==================================================================================================
input_37 (InputLayer)           (None, 7)            0                                            
__________________________________________________________________________________________________
input_38 (InputLayer)           (None, 7)            0                                            
__________________________________________________________________________________________________
embedding_37 (Embedding)        (None, 7, 365)       429970      input_37[0][0]                   
__________________________________________________________________________________________________
embedding_38 (Embedding)        (None, 7, 82)        1558        input_38[0][0]                   
__________________________________________________________________________________________________
gru_37 (GRU)                    (None, 40)           48720       embedding_37[0][0]               
__________________________________________________________________________________________________
gru_38 (GRU)                    (None, 28)           9324        embedding_38[0][0]               
__________________________________________________________________________________________________
dropout_55 (Dropout)            (None, 40)           0           gru_37[0][0]                     
__________________________________________________________________________________________________
dropout_56 (Dropout)            (None, 28)           0           gru_38[0][0]                     
__________________________________________________________________________________________________
concatenate_19 (Concatenate)    (None, 68)           0           dropout_55[0][0]                 
                                                                 dropout_56[0][0]                 
__________________________________________________________________________________________________
dense_37 (Dense)                (None, 51)           3519        concatenate_19[0][0]             
__________________________________________________________________________________________________
dropout_57 (Dropout)            (None, 51)           0           dense_37[0][0]                   
__________________________________________________________________________________________________
dense_38 (Dense)                (None, 4)            208         dropout_57[0][0]                 
==================================================================================================
Total params: 493,299
Trainable params: 493,299
Non-trainable params: 0
__________________________________________________________________________________________________
None
Train on 320835 samples, validate on 35649 samples
Epoch 1/20
 - 299s - loss: 0.0742 - acc: 0.9792 - val_loss: 0.0821 - val_acc: 0.9993
…
	Training (Important) : 2305, Test : 3117
	MWEs in tain : 1396, occurrences : 2518
	Impotant words in tain : 1131
	MWE length mean : 2.22
	Seen MWEs : 340 (61 %)
	New MWEs : 213 (38 %)
==================================================================================================
__________________________________________________________________________________________________
Layer (type)                    Output Shape         Param #     Connected to                     
==================================================================================================
input_39 (InputLayer)           (None, 7)            0                                            
__________________________________________________________________________________________________
input_40 (InputLayer)           (None, 7)            0                                            
__________________________________________________________________________________________________
embedding_39 (Embedding)        (None, 7, 365)       413910      input_39[0][0]                   
__________________________________________________________________________________________________
embedding_40 (Embedding)        (None, 7, 82)        1558        input_40[0][0]                   
__________________________________________________________________________________________________
gru_39 (GRU)                    (None, 40)           48720       embedding_39[0][0]               
__________________________________________________________________________________________________
gru_40 (GRU)                    (None, 28)           9324        embedding_40[0][0]               
__________________________________________________________________________________________________
dropout_58 (Dropout)            (None, 40)           0           gru_39[0][0]                     
__________________________________________________________________________________________________
dropout_59 (Dropout)            (None, 28)           0           gru_40[0][0]                     
__________________________________________________________________________________________________
concatenate_20 (Concatenate)    (None, 68)           0           dropout_58[0][0]                 
                                                                 dropout_59[0][0]                 
__________________________________________________________________________________________________
dense_39 (Dense)                (None, 51)           3519        concatenate_20[0][0]             
__________________________________________________________________________________________________
dropout_60 (Dropout)            (None, 51)           0           dense_39[0][0]                   
__________________________________________________________________________________________________
dense_40 (Dense)                (None, 4)            208         dropout_60[0][0]                 
==================================================================================================
Total params: 477,239
Trainable params: 477,239
Non-trainable params: 0
__________________________________________________________________________________________________
None
Train on 217231 samples, validate on 24137 samples
Epoch 1/20
 - 203s - loss: 0.0845 - acc: 0.9754 - val_loss: 0.0904 - val_acc: 0.9994
…
	Training (Important) : 3585, Test : 1320
	MWEs in tain : 1790, occurrences : 4856
	Impotant words in tain : 1200
	MWE length mean : 2.06
	Seen MWEs : 345 (67 %)
	New MWEs : 165 (32 %)
==================================================================================================
__________________________________________________________________________________________________
Layer (type)                    Output Shape         Param #     Connected to                     
==================================================================================================
input_41 (InputLayer)           (None, 7)            0                                            
__________________________________________________________________________________________________
input_42 (InputLayer)           (None, 7)            0                                            
__________________________________________________________________________________________________
embedding_41 (Embedding)        (None, 7, 365)       439095      input_41[0][0]                   
__________________________________________________________________________________________________
embedding_42 (Embedding)        (None, 7, 82)        1148        input_42[0][0]                   
__________________________________________________________________________________________________
gru_41 (GRU)                    (None, 40)           48720       embedding_41[0][0]               
__________________________________________________________________________________________________
gru_42 (GRU)                    (None, 28)           9324        embedding_42[0][0]               
__________________________________________________________________________________________________
dropout_61 (Dropout)            (None, 40)           0           gru_41[0][0]                     
__________________________________________________________________________________________________
dropout_62 (Dropout)            (None, 28)           0           gru_42[0][0]                     
__________________________________________________________________________________________________
concatenate_21 (Concatenate)    (None, 68)           0           dropout_61[0][0]                 
                                                                 dropout_62[0][0]                 
__________________________________________________________________________________________________
dense_41 (Dense)                (None, 51)           3519        concatenate_21[0][0]             
__________________________________________________________________________________________________
dropout_63 (Dropout)            (None, 51)           0           dense_41[0][0]                   
__________________________________________________________________________________________________
dense_42 (Dense)                (None, 4)            208         dropout_63[0][0]                 
==================================================================================================
Total params: 502,014
Trainable params: 502,014
Non-trainable params: 0
__________________________________________________________________________________________________
None
Train on 432446 samples, validate on 48050 samples
Epoch 1/20
 - 405s - loss: 0.0750 - acc: 0.9777 - val_loss: 0.0781 - val_acc: 1.0000
…
	Training (Important) : 3124, Test : 1954
	MWEs in tain : 1372, occurrences : 3583
	Impotant words in tain : 1175
	MWE length mean : 2.13
	Seen MWEs : 386 (57 %)
	New MWEs : 284 (42 %)
==================================================================================================
__________________________________________________________________________________________________
Layer (type)                    Output Shape         Param #     Connected to                     
==================================================================================================
input_43 (InputLayer)           (None, 7)            0                                            
__________________________________________________________________________________________________
input_44 (InputLayer)           (None, 7)            0                                            
__________________________________________________________________________________________________
embedding_43 (Embedding)        (None, 7, 290)       341620      input_43[0][0]                   
__________________________________________________________________________________________________
embedding_44 (Embedding)        (None, 7, 80)        1520        input_44[0][0]                   
__________________________________________________________________________________________________
gru_43 (GRU)                    (None, 35)           34230       embedding_43[0][0]               
__________________________________________________________________________________________________
gru_44 (GRU)                    (None, 36)           12636       embedding_44[0][0]               
__________________________________________________________________________________________________
dropout_64 (Dropout)            (None, 35)           0           gru_43[0][0]                     
__________________________________________________________________________________________________
dropout_65 (Dropout)            (None, 36)           0           gru_44[0][0]                     
__________________________________________________________________________________________________
concatenate_22 (Concatenate)    (None, 71)           0           dropout_64[0][0]                 
                                                                 dropout_65[0][0]                 
__________________________________________________________________________________________________
dense_43 (Dense)                (None, 81)           5832        concatenate_22[0][0]             
__________________________________________________________________________________________________
dropout_66 (Dropout)            (None, 81)           0           dense_43[0][0]                   
__________________________________________________________________________________________________
dense_44 (Dense)                (None, 4)            328         dropout_66[0][0]                 
==================================================================================================
Total params: 396,166
Trainable params: 396,166
Non-trainable params: 0
__________________________________________________________________________________________________
None
Train on 320835 samples, validate on 35649 samples
Epoch 1/20
 - 150s - loss: 0.0739 - acc: 0.9791 - val_loss: 0.0561 - val_acc: 0.9999
…
	Training (Important) : 2305, Test : 3117
	MWEs in tain : 1396, occurrences : 2518
	Impotant words in tain : 1131
	MWE length mean : 2.22
	Seen MWEs : 340 (61 %)
	New MWEs : 213 (38 %)
==================================================================================================
__________________________________________________________________________________________________
Layer (type)                    Output Shape         Param #     Connected to                     
==================================================================================================
input_45 (InputLayer)           (None, 7)            0                                            
__________________________________________________________________________________________________
input_46 (InputLayer)           (None, 7)            0                                            
__________________________________________________________________________________________________
embedding_45 (Embedding)        (None, 7, 290)       328860      input_45[0][0]                   
__________________________________________________________________________________________________
embedding_46 (Embedding)        (None, 7, 80)        1520        input_46[0][0]                   
__________________________________________________________________________________________________
gru_45 (GRU)                    (None, 35)           34230       embedding_45[0][0]               
__________________________________________________________________________________________________
gru_46 (GRU)                    (None, 36)           12636       embedding_46[0][0]               
__________________________________________________________________________________________________
dropout_67 (Dropout)            (None, 35)           0           gru_45[0][0]                     
__________________________________________________________________________________________________
dropout_68 (Dropout)            (None, 36)           0           gru_46[0][0]                     
__________________________________________________________________________________________________
concatenate_23 (Concatenate)    (None, 71)           0           dropout_67[0][0]                 
                                                                 dropout_68[0][0]                 
__________________________________________________________________________________________________
dense_45 (Dense)                (None, 81)           5832        concatenate_23[0][0]             
__________________________________________________________________________________________________
dropout_69 (Dropout)            (None, 81)           0           dense_45[0][0]                   
__________________________________________________________________________________________________
dense_46 (Dense)                (None, 4)            328         dropout_69[0][0]                 
==================================================================================================
Total params: 383,406
Trainable params: 383,406
Non-trainable params: 0
__________________________________________________________________________________________________
None
Train on 217231 samples, validate on 24137 samples
Epoch 1/20
 - 102s - loss: 0.0819 - acc: 0.9759 - val_loss: 0.0720 - val_acc: 0.9988
…
	Training (Important) : 3585, Test : 1320
	MWEs in tain : 1790, occurrences : 4856
	Impotant words in tain : 1200
	MWE length mean : 2.06
	Seen MWEs : 345 (67 %)
	New MWEs : 165 (32 %)
==================================================================================================
__________________________________________________________________________________________________
Layer (type)                    Output Shape         Param #     Connected to                     
==================================================================================================
input_47 (InputLayer)           (None, 7)            0                                            
__________________________________________________________________________________________________
input_48 (InputLayer)           (None, 7)            0                                            
__________________________________________________________________________________________________
embedding_47 (Embedding)        (None, 7, 290)       348870      input_47[0][0]                   
__________________________________________________________________________________________________
embedding_48 (Embedding)        (None, 7, 80)        1120        input_48[0][0]                   
__________________________________________________________________________________________________
gru_47 (GRU)                    (None, 35)           34230       embedding_47[0][0]               
__________________________________________________________________________________________________
gru_48 (GRU)                    (None, 36)           12636       embedding_48[0][0]               
__________________________________________________________________________________________________
dropout_70 (Dropout)            (None, 35)           0           gru_47[0][0]                     
__________________________________________________________________________________________________
dropout_71 (Dropout)            (None, 36)           0           gru_48[0][0]                     
__________________________________________________________________________________________________
concatenate_24 (Concatenate)    (None, 71)           0           dropout_70[0][0]                 
                                                                 dropout_71[0][0]                 
__________________________________________________________________________________________________
dense_47 (Dense)                (None, 81)           5832        concatenate_24[0][0]             
__________________________________________________________________________________________________
dropout_72 (Dropout)            (None, 81)           0           dense_47[0][0]                   
__________________________________________________________________________________________________
dense_48 (Dense)                (None, 4)            328         dropout_72[0][0]                 
==================================================================================================
Total params: 403,016
Trainable params: 403,016
Non-trainable params: 0
__________________________________________________________________________________________________
None
Train on 432446 samples, validate on 48050 samples
Epoch 1/20
 - 205s - loss: 0.0737 - acc: 0.9778 - val_loss: 0.0506 - val_acc: 1.0000
…
	Training (Important) : 3124, Test : 1954
	MWEs in tain : 1372, occurrences : 3583
	Impotant words in tain : 1175
	MWE length mean : 2.13
	Seen MWEs : 386 (57 %)
	New MWEs : 284 (42 %)
==================================================================================================
__________________________________________________________________________________________________
Layer (type)                    Output Shape         Param #     Connected to                     
==================================================================================================
input_49 (InputLayer)           (None, 7)            0                                            
__________________________________________________________________________________________________
input_50 (InputLayer)           (None, 7)            0                                            
__________________________________________________________________________________________________
embedding_49 (Embedding)        (None, 7, 468)       551304      input_49[0][0]                   
__________________________________________________________________________________________________
embedding_50 (Embedding)        (None, 7, 85)        1615        input_50[0][0]                   
__________________________________________________________________________________________________
gru_49 (GRU)                    (None, 55)           86460       embedding_49[0][0]               
__________________________________________________________________________________________________
gru_50 (GRU)                    (None, 9)            2565        embedding_50[0][0]               
__________________________________________________________________________________________________
dropout_73 (Dropout)            (None, 55)           0           gru_49[0][0]                     
__________________________________________________________________________________________________
dropout_74 (Dropout)            (None, 9)            0           gru_50[0][0]                     
__________________________________________________________________________________________________
concatenate_25 (Concatenate)    (None, 64)           0           dropout_73[0][0]                 
                                                                 dropout_74[0][0]                 
__________________________________________________________________________________________________
dense_49 (Dense)                (None, 13)           845         concatenate_25[0][0]             
__________________________________________________________________________________________________
dropout_75 (Dropout)            (None, 13)           0           dense_49[0][0]                   
__________________________________________________________________________________________________
dense_50 (Dense)                (None, 4)            56          dropout_75[0][0]                 
==================================================================================================
Total params: 642,845
Trainable params: 642,845
Non-trainable params: 0
__________________________________________________________________________________________________
None
Train on 320835 samples, validate on 35649 samples
Epoch 1/20
 - 76s - loss: 0.1215 - acc: 0.9664 - val_loss: 0.0632 - val_acc: 0.9999
…
	Training (Important) : 2305, Test : 3117
	MWEs in tain : 1396, occurrences : 2518
	Impotant words in tain : 1131
	MWE length mean : 2.22
	Seen MWEs : 340 (61 %)
	New MWEs : 213 (38 %)
==================================================================================================
__________________________________________________________________________________________________
Layer (type)                    Output Shape         Param #     Connected to                     
==================================================================================================
input_51 (InputLayer)           (None, 7)            0                                            
__________________________________________________________________________________________________
input_52 (InputLayer)           (None, 7)            0                                            
__________________________________________________________________________________________________
embedding_51 (Embedding)        (None, 7, 468)       530712      input_51[0][0]                   
__________________________________________________________________________________________________
embedding_52 (Embedding)        (None, 7, 85)        1615        input_52[0][0]                   
__________________________________________________________________________________________________
gru_51 (GRU)                    (None, 55)           86460       embedding_51[0][0]               
__________________________________________________________________________________________________
gru_52 (GRU)                    (None, 9)            2565        embedding_52[0][0]               
__________________________________________________________________________________________________
dropout_76 (Dropout)            (None, 55)           0           gru_51[0][0]                     
__________________________________________________________________________________________________
dropout_77 (Dropout)            (None, 9)            0           gru_52[0][0]                     
__________________________________________________________________________________________________
concatenate_26 (Concatenate)    (None, 64)           0           dropout_76[0][0]                 
                                                                 dropout_77[0][0]                 
__________________________________________________________________________________________________
dense_51 (Dense)                (None, 13)           845         concatenate_26[0][0]             
__________________________________________________________________________________________________
dropout_78 (Dropout)            (None, 13)           0           dense_51[0][0]                   
__________________________________________________________________________________________________
dense_52 (Dense)                (None, 4)            56          dropout_78[0][0]                 
==================================================================================================
Total params: 622,253
Trainable params: 622,253
Non-trainable params: 0
__________________________________________________________________________________________________
None
Train on 217231 samples, validate on 24137 samples
Epoch 1/20
 - 51s - loss: 0.1299 - acc: 0.9576 - val_loss: 0.0907 - val_acc: 0.9997
…
	Training (Important) : 3585, Test : 1320
	MWEs in tain : 1790, occurrences : 4856
	Impotant words in tain : 1200
	MWE length mean : 2.06
	Seen MWEs : 345 (67 %)
	New MWEs : 165 (32 %)
==================================================================================================
__________________________________________________________________________________________________
Layer (type)                    Output Shape         Param #     Connected to                     
==================================================================================================
input_53 (InputLayer)           (None, 7)            0                                            
__________________________________________________________________________________________________
input_54 (InputLayer)           (None, 7)            0                                            
__________________________________________________________________________________________________
embedding_53 (Embedding)        (None, 7, 468)       563004      input_53[0][0]                   
__________________________________________________________________________________________________
embedding_54 (Embedding)        (None, 7, 85)        1190        input_54[0][0]                   
__________________________________________________________________________________________________
gru_53 (GRU)                    (None, 55)           86460       embedding_53[0][0]               
__________________________________________________________________________________________________
gru_54 (GRU)                    (None, 9)            2565        embedding_54[0][0]               
__________________________________________________________________________________________________
dropout_79 (Dropout)            (None, 55)           0           gru_53[0][0]                     
__________________________________________________________________________________________________
dropout_80 (Dropout)            (None, 9)            0           gru_54[0][0]                     
__________________________________________________________________________________________________
concatenate_27 (Concatenate)    (None, 64)           0           dropout_79[0][0]                 
                                                                 dropout_80[0][0]                 
__________________________________________________________________________________________________
dense_53 (Dense)                (None, 13)           845         concatenate_27[0][0]             
__________________________________________________________________________________________________
dropout_81 (Dropout)            (None, 13)           0           dense_53[0][0]                   
__________________________________________________________________________________________________
dense_54 (Dense)                (None, 4)            56          dropout_81[0][0]                 
==================================================================================================
Total params: 654,120
Trainable params: 654,120
Non-trainable params: 0
__________________________________________________________________________________________________
None
Train on 432446 samples, validate on 48050 samples
Epoch 1/20
 - 102s - loss: 0.1061 - acc: 0.9663 - val_loss: 0.0811 - val_acc: 0.9998
…
	Training (Important) : 3124, Test : 1954
	MWEs in tain : 1372, occurrences : 3583
	Impotant words in tain : 1175
	MWE length mean : 2.13
	Seen MWEs : 386 (57 %)
	New MWEs : 284 (42 %)
==================================================================================================
__________________________________________________________________________________________________
Layer (type)                    Output Shape         Param #     Connected to                     
==================================================================================================
input_55 (InputLayer)           (None, 7)            0                                            
__________________________________________________________________________________________________
input_56 (InputLayer)           (None, 7)            0                                            
__________________________________________________________________________________________________
embedding_55 (Embedding)        (None, 7, 229)       269762      input_55[0][0]                   
__________________________________________________________________________________________________
embedding_56 (Embedding)        (None, 7, 90)        1710        input_56[0][0]                   
__________________________________________________________________________________________________
gru_55 (GRU)                    (None, 18)           13392       embedding_55[0][0]               
__________________________________________________________________________________________________
gru_56 (GRU)                    (None, 34)           12750       embedding_56[0][0]               
__________________________________________________________________________________________________
dropout_82 (Dropout)            (None, 18)           0           gru_55[0][0]                     
__________________________________________________________________________________________________
dropout_83 (Dropout)            (None, 34)           0           gru_56[0][0]                     
__________________________________________________________________________________________________
concatenate_28 (Concatenate)    (None, 52)           0           dropout_82[0][0]                 
                                                                 dropout_83[0][0]                 
__________________________________________________________________________________________________
dense_55 (Dense)                (None, 42)           2226        concatenate_28[0][0]             
__________________________________________________________________________________________________
dropout_84 (Dropout)            (None, 42)           0           dense_55[0][0]                   
__________________________________________________________________________________________________
dense_56 (Dense)                (None, 4)            172         dropout_84[0][0]                 
==================================================================================================
Total params: 300,012
Trainable params: 300,012
Non-trainable params: 0
__________________________________________________________________________________________________
None
Train on 320835 samples, validate on 35649 samples
Epoch 1/20
 - 334s - loss: 0.0715 - acc: 0.9796 - val_loss: 0.0832 - val_acc: 0.9989
…
	Training (Important) : 2305, Test : 3117
	MWEs in tain : 1396, occurrences : 2518
	Impotant words in tain : 1131
	MWE length mean : 2.22
	Seen MWEs : 340 (61 %)
	New MWEs : 213 (38 %)
==================================================================================================
__________________________________________________________________________________________________
Layer (type)                    Output Shape         Param #     Connected to                     
==================================================================================================
input_57 (InputLayer)           (None, 7)            0                                            
__________________________________________________________________________________________________
input_58 (InputLayer)           (None, 7)            0                                            
__________________________________________________________________________________________________
embedding_57 (Embedding)        (None, 7, 229)       259686      input_57[0][0]                   
__________________________________________________________________________________________________
embedding_58 (Embedding)        (None, 7, 90)        1710        input_58[0][0]                   
__________________________________________________________________________________________________
gru_57 (GRU)                    (None, 18)           13392       embedding_57[0][0]               
__________________________________________________________________________________________________
gru_58 (GRU)                    (None, 34)           12750       embedding_58[0][0]               
__________________________________________________________________________________________________
dropout_85 (Dropout)            (None, 18)           0           gru_57[0][0]                     
__________________________________________________________________________________________________
dropout_86 (Dropout)            (None, 34)           0           gru_58[0][0]                     
__________________________________________________________________________________________________
concatenate_29 (Concatenate)    (None, 52)           0           dropout_85[0][0]                 
                                                                 dropout_86[0][0]                 
__________________________________________________________________________________________________
dense_57 (Dense)                (None, 42)           2226        concatenate_29[0][0]             
__________________________________________________________________________________________________
dropout_87 (Dropout)            (None, 42)           0           dense_57[0][0]                   
__________________________________________________________________________________________________
dense_58 (Dense)                (None, 4)            172         dropout_87[0][0]                 
==================================================================================================
Total params: 289,936
Trainable params: 289,936
Non-trainable params: 0
__________________________________________________________________________________________________
None
Train on 217231 samples, validate on 24137 samples
Epoch 1/20
 - 198s - loss: 0.0782 - acc: 0.9765 - val_loss: 0.0954 - val_acc: 0.9990
…
	Training (Important) : 3585, Test : 1320
	MWEs in tain : 1790, occurrences : 4856
	Impotant words in tain : 1200
	MWE length mean : 2.06
	Seen MWEs : 345 (67 %)
	New MWEs : 165 (32 %)
==================================================================================================
__________________________________________________________________________________________________
Layer (type)                    Output Shape         Param #     Connected to                     
==================================================================================================
input_59 (InputLayer)           (None, 7)            0                                            
__________________________________________________________________________________________________
input_60 (InputLayer)           (None, 7)            0                                            
__________________________________________________________________________________________________
embedding_59 (Embedding)        (None, 7, 229)       275487      input_59[0][0]                   
__________________________________________________________________________________________________
embedding_60 (Embedding)        (None, 7, 90)        1260        input_60[0][0]                   
__________________________________________________________________________________________________
gru_59 (GRU)                    (None, 18)           13392       embedding_59[0][0]               
__________________________________________________________________________________________________
gru_60 (GRU)                    (None, 34)           12750       embedding_60[0][0]               
__________________________________________________________________________________________________
dropout_88 (Dropout)            (None, 18)           0           gru_59[0][0]                     
__________________________________________________________________________________________________
dropout_89 (Dropout)            (None, 34)           0           gru_60[0][0]                     
__________________________________________________________________________________________________
concatenate_30 (Concatenate)    (None, 52)           0           dropout_88[0][0]                 
                                                                 dropout_89[0][0]                 
__________________________________________________________________________________________________
dense_59 (Dense)                (None, 42)           2226        concatenate_30[0][0]             
__________________________________________________________________________________________________
dropout_90 (Dropout)            (None, 42)           0           dense_59[0][0]                   
__________________________________________________________________________________________________
dense_60 (Dense)                (None, 4)            172         dropout_90[0][0]                 
==================================================================================================
Total params: 305,287
Trainable params: 305,287
Non-trainable params: 0
__________________________________________________________________________________________________
None
Train on 432446 samples, validate on 48050 samples
Epoch 1/20
 - 402s - loss: 0.0697 - acc: 0.9789 - val_loss: 0.0776 - val_acc: 1.0000
…
	Training (Important) : 3124, Test : 1954
	MWEs in tain : 1372, occurrences : 3583
	Impotant words in tain : 1175
	MWE length mean : 2.13
	Seen MWEs : 386 (57 %)
	New MWEs : 284 (42 %)
==================================================================================================
__________________________________________________________________________________________________
Layer (type)                    Output Shape         Param #     Connected to                     
==================================================================================================
input_61 (InputLayer)           (None, 7)            0                                            
__________________________________________________________________________________________________
input_62 (InputLayer)           (None, 7)            0                                            
__________________________________________________________________________________________________
embedding_61 (Embedding)        (None, 7, 472)       556016      input_61[0][0]                   
__________________________________________________________________________________________________
embedding_62 (Embedding)        (None, 7, 26)        494         input_62[0][0]                   
__________________________________________________________________________________________________
gru_61 (GRU)                    (None, 61)           97722       embedding_61[0][0]               
__________________________________________________________________________________________________
gru_62 (GRU)                    (None, 7)            714         embedding_62[0][0]               
__________________________________________________________________________________________________
dropout_91 (Dropout)            (None, 61)           0           gru_61[0][0]                     
__________________________________________________________________________________________________
dropout_92 (Dropout)            (None, 7)            0           gru_62[0][0]                     
__________________________________________________________________________________________________
concatenate_31 (Concatenate)    (None, 68)           0           dropout_91[0][0]                 
                                                                 dropout_92[0][0]                 
__________________________________________________________________________________________________
dense_61 (Dense)                (None, 98)           6762        concatenate_31[0][0]             
__________________________________________________________________________________________________
dropout_93 (Dropout)            (None, 98)           0           dense_61[0][0]                   
__________________________________________________________________________________________________
dense_62 (Dense)                (None, 4)            396         dropout_93[0][0]                 
==================================================================================================
Total params: 662,104
Trainable params: 662,104
Non-trainable params: 0
__________________________________________________________________________________________________
None
Train on 320835 samples, validate on 35649 samples
Epoch 1/20
 - 75s - loss: 0.0808 - acc: 0.9772 - val_loss: 0.1108 - val_acc: 0.9999
…
	Training (Important) : 2305, Test : 3117
	MWEs in tain : 1396, occurrences : 2518
	Impotant words in tain : 1131
	MWE length mean : 2.22
	Seen MWEs : 340 (61 %)
	New MWEs : 213 (38 %)
==================================================================================================
__________________________________________________________________________________________________
Layer (type)                    Output Shape         Param #     Connected to                     
==================================================================================================
input_63 (InputLayer)           (None, 7)            0                                            
__________________________________________________________________________________________________
input_64 (InputLayer)           (None, 7)            0                                            
__________________________________________________________________________________________________
embedding_63 (Embedding)        (None, 7, 472)       535248      input_63[0][0]                   
__________________________________________________________________________________________________
embedding_64 (Embedding)        (None, 7, 26)        494         input_64[0][0]                   
__________________________________________________________________________________________________
gru_63 (GRU)                    (None, 61)           97722       embedding_63[0][0]               
__________________________________________________________________________________________________
gru_64 (GRU)                    (None, 7)            714         embedding_64[0][0]               
__________________________________________________________________________________________________
dropout_94 (Dropout)            (None, 61)           0           gru_63[0][0]                     
__________________________________________________________________________________________________
dropout_95 (Dropout)            (None, 7)            0           gru_64[0][0]                     
__________________________________________________________________________________________________
concatenate_32 (Concatenate)    (None, 68)           0           dropout_94[0][0]                 
                                                                 dropout_95[0][0]                 
__________________________________________________________________________________________________
dense_63 (Dense)                (None, 98)           6762        concatenate_32[0][0]             
__________________________________________________________________________________________________
dropout_96 (Dropout)            (None, 98)           0           dense_63[0][0]                   
__________________________________________________________________________________________________
dense_64 (Dense)                (None, 4)            396         dropout_96[0][0]                 
==================================================================================================
Total params: 641,336
Trainable params: 641,336
Non-trainable params: 0
__________________________________________________________________________________________________
None
Train on 217231 samples, validate on 24137 samples
Epoch 1/20
 - 51s - loss: 0.0971 - acc: 0.9705 - val_loss: 0.1121 - val_acc: 0.9994
…
	Training (Important) : 3585, Test : 1320
	MWEs in tain : 1790, occurrences : 4856
	Impotant words in tain : 1200
	MWE length mean : 2.06
	Seen MWEs : 345 (67 %)
	New MWEs : 165 (32 %)
==================================================================================================
__________________________________________________________________________________________________
Layer (type)                    Output Shape         Param #     Connected to                     
==================================================================================================
input_65 (InputLayer)           (None, 7)            0                                            
__________________________________________________________________________________________________
input_66 (InputLayer)           (None, 7)            0                                            
__________________________________________________________________________________________________
embedding_65 (Embedding)        (None, 7, 472)       567816      input_65[0][0]                   
__________________________________________________________________________________________________
embedding_66 (Embedding)        (None, 7, 26)        364         input_66[0][0]                   
__________________________________________________________________________________________________
gru_65 (GRU)                    (None, 61)           97722       embedding_65[0][0]               
__________________________________________________________________________________________________
gru_66 (GRU)                    (None, 7)            714         embedding_66[0][0]               
__________________________________________________________________________________________________
dropout_97 (Dropout)            (None, 61)           0           gru_65[0][0]                     
__________________________________________________________________________________________________
dropout_98 (Dropout)            (None, 7)            0           gru_66[0][0]                     
__________________________________________________________________________________________________
concatenate_33 (Concatenate)    (None, 68)           0           dropout_97[0][0]                 
                                                                 dropout_98[0][0]                 
__________________________________________________________________________________________________
dense_65 (Dense)                (None, 98)           6762        concatenate_33[0][0]             
__________________________________________________________________________________________________
dropout_99 (Dropout)            (None, 98)           0           dense_65[0][0]                   
__________________________________________________________________________________________________
dense_66 (Dense)                (None, 4)            396         dropout_99[0][0]                 
==================================================================================================
Total params: 673,774
Trainable params: 673,774
Non-trainable params: 0
__________________________________________________________________________________________________
None
Train on 432446 samples, validate on 48050 samples
Epoch 1/20
 - 102s - loss: 0.0813 - acc: 0.9757 - val_loss: 0.1031 - val_acc: 1.0000
…
	Training (Important) : 3124, Test : 1954
	MWEs in tain : 1372, occurrences : 3583
	Impotant words in tain : 1175
	MWE length mean : 2.13
	Seen MWEs : 386 (57 %)
	New MWEs : 284 (42 %)
==================================================================================================
__________________________________________________________________________________________________
Layer (type)                    Output Shape         Param #     Connected to                     
==================================================================================================
input_67 (InputLayer)           (None, 7)            0                                            
__________________________________________________________________________________________________
input_68 (InputLayer)           (None, 7)            0                                            
__________________________________________________________________________________________________
embedding_67 (Embedding)        (None, 7, 221)       260338      input_67[0][0]                   
__________________________________________________________________________________________________
embedding_68 (Embedding)        (None, 7, 88)        1672        input_68[0][0]                   
__________________________________________________________________________________________________
gru_67 (GRU)                    (None, 69)           60237       embedding_67[0][0]               
__________________________________________________________________________________________________
gru_68 (GRU)                    (None, 43)           17028       embedding_68[0][0]               
__________________________________________________________________________________________________
dropout_100 (Dropout)           (None, 69)           0           gru_67[0][0]                     
__________________________________________________________________________________________________
dropout_101 (Dropout)           (None, 43)           0           gru_68[0][0]                     
__________________________________________________________________________________________________
concatenate_34 (Concatenate)    (None, 112)          0           dropout_100[0][0]                
                                                                 dropout_101[0][0]                
__________________________________________________________________________________________________
dense_67 (Dense)                (None, 83)           9379        concatenate_34[0][0]             
__________________________________________________________________________________________________
dropout_102 (Dropout)           (None, 83)           0           dense_67[0][0]                   
__________________________________________________________________________________________________
dense_68 (Dense)                (None, 4)            336         dropout_102[0][0]                
==================================================================================================
Total params: 348,990
Trainable params: 348,990
Non-trainable params: 0
__________________________________________________________________________________________________
None
Train on 320835 samples, validate on 35649 samples
Epoch 1/20
 - 38s - loss: 0.0848 - acc: 0.9758 - val_loss: 0.0740 - val_acc: 0.9992
…
	Training (Important) : 2305, Test : 3117
	MWEs in tain : 1396, occurrences : 2518
	Impotant words in tain : 1131
	MWE length mean : 2.22
	Seen MWEs : 340 (61 %)
	New MWEs : 213 (38 %)
==================================================================================================
__________________________________________________________________________________________________
Layer (type)                    Output Shape         Param #     Connected to                     
==================================================================================================
input_69 (InputLayer)           (None, 7)            0                                            
__________________________________________________________________________________________________
input_70 (InputLayer)           (None, 7)            0                                            
__________________________________________________________________________________________________
embedding_69 (Embedding)        (None, 7, 221)       250614      input_69[0][0]                   
__________________________________________________________________________________________________
embedding_70 (Embedding)        (None, 7, 88)        1672        input_70[0][0]                   
__________________________________________________________________________________________________
gru_69 (GRU)                    (None, 69)           60237       embedding_69[0][0]               
__________________________________________________________________________________________________
gru_70 (GRU)                    (None, 43)           17028       embedding_70[0][0]               
__________________________________________________________________________________________________
dropout_103 (Dropout)           (None, 69)           0           gru_69[0][0]                     
__________________________________________________________________________________________________
dropout_104 (Dropout)           (None, 43)           0           gru_70[0][0]                     
__________________________________________________________________________________________________
concatenate_35 (Concatenate)    (None, 112)          0           dropout_103[0][0]                
                                                                 dropout_104[0][0]                
__________________________________________________________________________________________________
dense_69 (Dense)                (None, 83)           9379        concatenate_35[0][0]             
__________________________________________________________________________________________________
dropout_105 (Dropout)           (None, 83)           0           dense_69[0][0]                   
__________________________________________________________________________________________________
dense_70 (Dense)                (None, 4)            336         dropout_105[0][0]                
==================================================================================================
Total params: 339,266
Trainable params: 339,266
Non-trainable params: 0
__________________________________________________________________________________________________
None
Train on 217231 samples, validate on 24137 samples
Epoch 1/20
 - 26s - loss: 0.1005 - acc: 0.9699 - val_loss: 0.0608 - val_acc: 0.9989
…
	Training (Important) : 3585, Test : 1320
	MWEs in tain : 1790, occurrences : 4856
	Impotant words in tain : 1200
	MWE length mean : 2.06
	Seen MWEs : 345 (67 %)
	New MWEs : 165 (32 %)
==================================================================================================
__________________________________________________________________________________________________
Layer (type)                    Output Shape         Param #     Connected to                     
==================================================================================================
input_71 (InputLayer)           (None, 7)            0                                            
__________________________________________________________________________________________________
input_72 (InputLayer)           (None, 7)            0                                            
__________________________________________________________________________________________________
embedding_71 (Embedding)        (None, 7, 221)       265863      input_71[0][0]                   
__________________________________________________________________________________________________
embedding_72 (Embedding)        (None, 7, 88)        1232        input_72[0][0]                   
__________________________________________________________________________________________________
gru_71 (GRU)                    (None, 69)           60237       embedding_71[0][0]               
__________________________________________________________________________________________________
gru_72 (GRU)                    (None, 43)           17028       embedding_72[0][0]               
__________________________________________________________________________________________________
dropout_106 (Dropout)           (None, 69)           0           gru_71[0][0]                     
__________________________________________________________________________________________________
dropout_107 (Dropout)           (None, 43)           0           gru_72[0][0]                     
__________________________________________________________________________________________________
concatenate_36 (Concatenate)    (None, 112)          0           dropout_106[0][0]                
                                                                 dropout_107[0][0]                
__________________________________________________________________________________________________
dense_71 (Dense)                (None, 83)           9379        concatenate_36[0][0]             
__________________________________________________________________________________________________
dropout_108 (Dropout)           (None, 83)           0           dense_71[0][0]                   
__________________________________________________________________________________________________
dense_72 (Dense)                (None, 4)            336         dropout_108[0][0]                
==================================================================================================
Total params: 354,075
Trainable params: 354,075
Non-trainable params: 0
__________________________________________________________________________________________________
None
Train on 432446 samples, validate on 48050 samples
Epoch 1/20
 - 51s - loss: 0.0825 - acc: 0.9751 - val_loss: 0.0671 - val_acc: 1.0000
…
	Training (Important) : 3124, Test : 1954
	MWEs in tain : 1372, occurrences : 3583
	Impotant words in tain : 1175
	MWE length mean : 2.13
	Seen MWEs : 386 (57 %)
	New MWEs : 284 (42 %)
==================================================================================================
__________________________________________________________________________________________________
Layer (type)                    Output Shape         Param #     Connected to                     
==================================================================================================
input_73 (InputLayer)           (None, 7)            0                                            
__________________________________________________________________________________________________
input_74 (InputLayer)           (None, 7)            0                                            
__________________________________________________________________________________________________
embedding_73 (Embedding)        (None, 7, 302)       355756      input_73[0][0]                   
__________________________________________________________________________________________________
embedding_74 (Embedding)        (None, 7, 18)        342         input_74[0][0]                   
__________________________________________________________________________________________________
gru_73 (GRU)                    (None, 28)           27804       embedding_73[0][0]               
__________________________________________________________________________________________________
gru_74 (GRU)                    (None, 14)           1386        embedding_74[0][0]               
__________________________________________________________________________________________________
dropout_109 (Dropout)           (None, 28)           0           gru_73[0][0]                     
__________________________________________________________________________________________________
dropout_110 (Dropout)           (None, 14)           0           gru_74[0][0]                     
__________________________________________________________________________________________________
concatenate_37 (Concatenate)    (None, 42)           0           dropout_109[0][0]                
                                                                 dropout_110[0][0]                
__________________________________________________________________________________________________
dense_73 (Dense)                (None, 19)           817         concatenate_37[0][0]             
__________________________________________________________________________________________________
dropout_111 (Dropout)           (None, 19)           0           dense_73[0][0]                   
__________________________________________________________________________________________________
dense_74 (Dense)                (None, 4)            80          dropout_111[0][0]                
==================================================================================================
Total params: 386,185
Trainable params: 386,185
Non-trainable params: 0
__________________________________________________________________________________________________
None
Train on 320835 samples, validate on 35649 samples
Epoch 1/20
 - 38s - loss: 0.1187 - acc: 0.9651 - val_loss: 0.0916 - val_acc: 0.9999
…
	Training (Important) : 2305, Test : 3117
	MWEs in tain : 1396, occurrences : 2518
	Impotant words in tain : 1131
	MWE length mean : 2.22
	Seen MWEs : 340 (61 %)
	New MWEs : 213 (38 %)
==================================================================================================
__________________________________________________________________________________________________
Layer (type)                    Output Shape         Param #     Connected to                     
==================================================================================================
input_75 (InputLayer)           (None, 7)            0                                            
__________________________________________________________________________________________________
input_76 (InputLayer)           (None, 7)            0                                            
__________________________________________________________________________________________________
embedding_75 (Embedding)        (None, 7, 302)       342468      input_75[0][0]                   
__________________________________________________________________________________________________
embedding_76 (Embedding)        (None, 7, 18)        342         input_76[0][0]                   
__________________________________________________________________________________________________
gru_75 (GRU)                    (None, 28)           27804       embedding_75[0][0]               
__________________________________________________________________________________________________
gru_76 (GRU)                    (None, 14)           1386        embedding_76[0][0]               
__________________________________________________________________________________________________
dropout_112 (Dropout)           (None, 28)           0           gru_75[0][0]                     
__________________________________________________________________________________________________
dropout_113 (Dropout)           (None, 14)           0           gru_76[0][0]                     
__________________________________________________________________________________________________
concatenate_38 (Concatenate)    (None, 42)           0           dropout_112[0][0]                
                                                                 dropout_113[0][0]                
__________________________________________________________________________________________________
dense_75 (Dense)                (None, 19)           817         concatenate_38[0][0]             
__________________________________________________________________________________________________
dropout_114 (Dropout)           (None, 19)           0           dense_75[0][0]                   
__________________________________________________________________________________________________
dense_76 (Dense)                (None, 4)            80          dropout_114[0][0]                
==================================================================================================
Total params: 372,897
Trainable params: 372,897
Non-trainable params: 0
__________________________________________________________________________________________________
None
Train on 217231 samples, validate on 24137 samples
Epoch 1/20
 - 26s - loss: 0.1404 - acc: 0.9560 - val_loss: 0.0904 - val_acc: 0.9983
…
	Training (Important) : 3585, Test : 1320
	MWEs in tain : 1790, occurrences : 4856
	Impotant words in tain : 1200
	MWE length mean : 2.06
	Seen MWEs : 345 (67 %)
	New MWEs : 165 (32 %)
==================================================================================================
__________________________________________________________________________________________________
Layer (type)                    Output Shape         Param #     Connected to                     
==================================================================================================
input_77 (InputLayer)           (None, 7)            0                                            
__________________________________________________________________________________________________
input_78 (InputLayer)           (None, 7)            0                                            
__________________________________________________________________________________________________
embedding_77 (Embedding)        (None, 7, 302)       363306      input_77[0][0]                   
__________________________________________________________________________________________________
embedding_78 (Embedding)        (None, 7, 18)        252         input_78[0][0]                   
__________________________________________________________________________________________________
gru_77 (GRU)                    (None, 28)           27804       embedding_77[0][0]               
__________________________________________________________________________________________________
gru_78 (GRU)                    (None, 14)           1386        embedding_78[0][0]               
__________________________________________________________________________________________________
dropout_115 (Dropout)           (None, 28)           0           gru_77[0][0]                     
__________________________________________________________________________________________________
dropout_116 (Dropout)           (None, 14)           0           gru_78[0][0]                     
__________________________________________________________________________________________________
concatenate_39 (Concatenate)    (None, 42)           0           dropout_115[0][0]                
                                                                 dropout_116[0][0]                
__________________________________________________________________________________________________
dense_77 (Dense)                (None, 19)           817         concatenate_39[0][0]             
__________________________________________________________________________________________________
dropout_117 (Dropout)           (None, 19)           0           dense_77[0][0]                   
__________________________________________________________________________________________________
dense_78 (Dense)                (None, 4)            80          dropout_117[0][0]                
==================================================================================================
Total params: 393,645
Trainable params: 393,645
Non-trainable params: 0
__________________________________________________________________________________________________
None
Train on 432446 samples, validate on 48050 samples
Epoch 1/20
 - 51s - loss: 0.1078 - acc: 0.9670 - val_loss: 0.0956 - val_acc: 1.0000
…
	Training (Important) : 3124, Test : 1954
	MWEs in tain : 1372, occurrences : 3583
	Impotant words in tain : 1175
	MWE length mean : 2.13
	Seen MWEs : 386 (57 %)
	New MWEs : 284 (42 %)
==================================================================================================
__________________________________________________________________________________________________
Layer (type)                    Output Shape         Param #     Connected to                     
==================================================================================================
input_79 (InputLayer)           (None, 7)            0                                            
__________________________________________________________________________________________________
input_80 (InputLayer)           (None, 7)            0                                            
__________________________________________________________________________________________________
embedding_79 (Embedding)        (None, 7, 307)       361646      input_79[0][0]                   
__________________________________________________________________________________________________
embedding_80 (Embedding)        (None, 7, 96)        1824        input_80[0][0]                   
__________________________________________________________________________________________________
gru_79 (GRU)                    (None, 59)           64959       embedding_79[0][0]               
__________________________________________________________________________________________________
gru_80 (GRU)                    (None, 9)            2862        embedding_80[0][0]               
__________________________________________________________________________________________________
dropout_118 (Dropout)           (None, 59)           0           gru_79[0][0]                     
__________________________________________________________________________________________________
dropout_119 (Dropout)           (None, 9)            0           gru_80[0][0]                     
__________________________________________________________________________________________________
concatenate_40 (Concatenate)    (None, 68)           0           dropout_118[0][0]                
                                                                 dropout_119[0][0]                
__________________________________________________________________________________________________
dense_79 (Dense)                (None, 39)           2691        concatenate_40[0][0]             
__________________________________________________________________________________________________
dropout_120 (Dropout)           (None, 39)           0           dense_79[0][0]                   
__________________________________________________________________________________________________
dense_80 (Dense)                (None, 4)            160         dropout_120[0][0]                
==================================================================================================
Total params: 434,142
Trainable params: 434,142
Non-trainable params: 0
__________________________________________________________________________________________________
None
Train on 320835 samples, validate on 35649 samples
Epoch 1/20
 - 38s - loss: 0.0839 - acc: 0.9752 - val_loss: 0.0779 - val_acc: 1.0000
…
	Training (Important) : 2305, Test : 3117
	MWEs in tain : 1396, occurrences : 2518
	Impotant words in tain : 1131
	MWE length mean : 2.22
	Seen MWEs : 340 (61 %)
	New MWEs : 213 (38 %)
==================================================================================================
__________________________________________________________________________________________________
Layer (type)                    Output Shape         Param #     Connected to                     
==================================================================================================
input_81 (InputLayer)           (None, 7)            0                                            
__________________________________________________________________________________________________
input_82 (InputLayer)           (None, 7)            0                                            
__________________________________________________________________________________________________
embedding_81 (Embedding)        (None, 7, 307)       348138      input_81[0][0]                   
__________________________________________________________________________________________________
embedding_82 (Embedding)        (None, 7, 96)        1824        input_82[0][0]                   
__________________________________________________________________________________________________
gru_81 (GRU)                    (None, 59)           64959       embedding_81[0][0]               
__________________________________________________________________________________________________
gru_82 (GRU)                    (None, 9)            2862        embedding_82[0][0]               
__________________________________________________________________________________________________
dropout_121 (Dropout)           (None, 59)           0           gru_81[0][0]                     
__________________________________________________________________________________________________
dropout_122 (Dropout)           (None, 9)            0           gru_82[0][0]                     
__________________________________________________________________________________________________
concatenate_41 (Concatenate)    (None, 68)           0           dropout_121[0][0]                
                                                                 dropout_122[0][0]                
__________________________________________________________________________________________________
dense_81 (Dense)                (None, 39)           2691        concatenate_41[0][0]             
__________________________________________________________________________________________________
dropout_123 (Dropout)           (None, 39)           0           dense_81[0][0]                   
__________________________________________________________________________________________________
dense_82 (Dense)                (None, 4)            160         dropout_123[0][0]                
==================================================================================================
Total params: 420,634
Trainable params: 420,634
Non-trainable params: 0
__________________________________________________________________________________________________
None
Train on 217231 samples, validate on 24137 samples
Epoch 1/20
 - 26s - loss: 0.0931 - acc: 0.9715 - val_loss: 0.0531 - val_acc: 0.9997
…
	Training (Important) : 3585, Test : 1320
	MWEs in tain : 1790, occurrences : 4856
	Impotant words in tain : 1200
	MWE length mean : 2.06
	Seen MWEs : 345 (67 %)
	New MWEs : 165 (32 %)
==================================================================================================
__________________________________________________________________________________________________
Layer (type)                    Output Shape         Param #     Connected to                     
==================================================================================================
input_83 (InputLayer)           (None, 7)            0                                            
__________________________________________________________________________________________________
input_84 (InputLayer)           (None, 7)            0                                            
__________________________________________________________________________________________________
embedding_83 (Embedding)        (None, 7, 307)       369321      input_83[0][0]                   
__________________________________________________________________________________________________
embedding_84 (Embedding)        (None, 7, 96)        1344        input_84[0][0]                   
__________________________________________________________________________________________________
gru_83 (GRU)                    (None, 59)           64959       embedding_83[0][0]               
__________________________________________________________________________________________________
gru_84 (GRU)                    (None, 9)            2862        embedding_84[0][0]               
__________________________________________________________________________________________________
dropout_124 (Dropout)           (None, 59)           0           gru_83[0][0]                     
__________________________________________________________________________________________________
dropout_125 (Dropout)           (None, 9)            0           gru_84[0][0]                     
__________________________________________________________________________________________________
concatenate_42 (Concatenate)    (None, 68)           0           dropout_124[0][0]                
                                                                 dropout_125[0][0]                
__________________________________________________________________________________________________
dense_83 (Dense)                (None, 39)           2691        concatenate_42[0][0]             
__________________________________________________________________________________________________
dropout_126 (Dropout)           (None, 39)           0           dense_83[0][0]                   
__________________________________________________________________________________________________
dense_84 (Dense)                (None, 4)            160         dropout_126[0][0]                
==================================================================================================
Total params: 441,337
Trainable params: 441,337
Non-trainable params: 0
__________________________________________________________________________________________________
None
Train on 432446 samples, validate on 48050 samples
Epoch 1/20
 - 52s - loss: 0.0843 - acc: 0.9741 - val_loss: 0.0600 - val_acc: 1.0000
…
