…
        One occurrence keys in vocabulary 2113 / 9376
        Embedding
==================================================================================================
        Initialisation = None
        Concatenation = False
        Lemma : 200
        POS = 15
Deep model(Non compositional)
__________________________________________________________________________________________________
Layer (type)                    Output Shape         Param #     Connected to
==================================================================================================
input_1 (InputLayer)            (None, 3)            0
__________________________________________________________________________________________________
input_2 (InputLayer)            (None, 3)            0
__________________________________________________________________________________________________
embedding_1 (Embedding)         (None, 3, 200)       1875200     input_1[0][0]
__________________________________________________________________________________________________
embedding_2 (Embedding)         (None, 3, 15)        2520        input_2[0][0]
__________________________________________________________________________________________________
flatten_1 (Flatten)             (None, 600)          0           embedding_1[0][0]
__________________________________________________________________________________________________
flatten_2 (Flatten)             (None, 45)           0           embedding_2[0][0]
__________________________________________________________________________________________________
concatenate_1 (Concatenate)     (None, 645)          0           flatten_1[0][0]
                                                                 flatten_2[0][0]
__________________________________________________________________________________________________
dense_1 (Dense)                 (None, 25)           16150       concatenate_1[0][0]
__________________________________________________________________________________________________
dropout_1 (Dropout)             (None, 25)           0           dense_1[0][0]
__________________________________________________________________________________________________
dense_2 (Dense)                 (None, 8)            208         dropout_1[0][0]
==================================================================================================
Total params: 1,894,078
Trainable params: 1,894,078
Non-trainable params: 0
__________________________________________________________________________________________________
None

__________________________________________________________________________________________________
…
        One occurrence keys in vocabulary 2113 / 9282
        Embedding
==================================================================================================
        Initialisation = None
        Concatenation = False
        Lemma : 200
        POS = 15
Deep model(Non compositional)
__________________________________________________________________________________________________
Layer (type)                    Output Shape         Param #     Connected to
==================================================================================================
input_3 (InputLayer)            (None, 3)            0
__________________________________________________________________________________________________
input_4 (InputLayer)            (None, 3)            0
__________________________________________________________________________________________________
embedding_3 (Embedding)         (None, 3, 200)       1856400     input_3[0][0]
__________________________________________________________________________________________________
embedding_4 (Embedding)         (None, 3, 15)        2520        input_4[0][0]
__________________________________________________________________________________________________
flatten_3 (Flatten)             (None, 600)          0           embedding_3[0][0]
__________________________________________________________________________________________________
flatten_4 (Flatten)             (None, 45)           0           embedding_4[0][0]
__________________________________________________________________________________________________
concatenate_2 (Concatenate)     (None, 645)          0           flatten_3[0][0]
                                                                 flatten_4[0][0]
__________________________________________________________________________________________________
dense_3 (Dense)                 (None, 25)           16150       concatenate_2[0][0]
__________________________________________________________________________________________________
dropout_2 (Dropout)             (None, 25)           0           dense_3[0][0]
__________________________________________________________________________________________________
dense_4 (Dense)                 (None, 8)            208         dropout_2[0][0]
==================================================================================================
Total params: 1,875,278
Trainable params: 1,875,278
Non-trainable params: 0
__________________________________________________________________________________________________
None

__________________________________________________________________________________________________
…
        One occurrence keys in vocabulary 2113 / 9319
        Embedding
==================================================================================================
        Initialisation = None
        Concatenation = False
        Lemma : 200
        POS = 15
Deep model(Non compositional)
__________________________________________________________________________________________________
Layer (type)                    Output Shape         Param #     Connected to
==================================================================================================
input_5 (InputLayer)            (None, 3)            0
__________________________________________________________________________________________________
input_6 (InputLayer)            (None, 3)            0
__________________________________________________________________________________________________
embedding_5 (Embedding)         (None, 3, 200)       1863800     input_5[0][0]
__________________________________________________________________________________________________
embedding_6 (Embedding)         (None, 3, 15)        2520        input_6[0][0]
__________________________________________________________________________________________________
flatten_5 (Flatten)             (None, 600)          0           embedding_5[0][0]
__________________________________________________________________________________________________
flatten_6 (Flatten)             (None, 45)           0           embedding_6[0][0]
__________________________________________________________________________________________________
concatenate_3 (Concatenate)     (None, 645)          0           flatten_5[0][0]
                                                                 flatten_6[0][0]
__________________________________________________________________________________________________
dense_5 (Dense)                 (None, 25)           16150       concatenate_3[0][0]
__________________________________________________________________________________________________
dropout_3 (Dropout)             (None, 25)           0           dense_5[0][0]
__________________________________________________________________________________________________
dense_6 (Dense)                 (None, 8)            208         dropout_3[0][0]
==================================================================================================
Total params: 1,882,678
Trainable params: 1,882,678
Non-trainable params: 0
__________________________________________________________________________________________________
None

__________________________________________________________________________________________________
…
        Attention: important lemmas are not in vocbulary        Embedding
==================================================================================================
        Initialisation = None
        Concatenation = False
        Lemma : 200
        POS = 15
Deep model(Non compositional)
__________________________________________________________________________________________________
Layer (type)                    Output Shape         Param #     Connected to
==================================================================================================
input_7 (InputLayer)            (None, 3)            0
__________________________________________________________________________________________________
input_8 (InputLayer)            (None, 3)            0
__________________________________________________________________________________________________
embedding_7 (Embedding)         (None, 3, 200)       2029600     input_7[0][0]
__________________________________________________________________________________________________
embedding_8 (Embedding)         (None, 3, 15)        3360        input_8[0][0]
__________________________________________________________________________________________________
flatten_7 (Flatten)             (None, 600)          0           embedding_7[0][0]
__________________________________________________________________________________________________
flatten_8 (Flatten)             (None, 45)           0           embedding_8[0][0]
__________________________________________________________________________________________________
concatenate_4 (Concatenate)     (None, 645)          0           flatten_7[0][0]
                                                                 flatten_8[0][0]
__________________________________________________________________________________________________
dense_7 (Dense)                 (None, 25)           16150       concatenate_4[0][0]
__________________________________________________________________________________________________
dropout_4 (Dropout)             (None, 25)           0           dense_7[0][0]
__________________________________________________________________________________________________
dense_8 (Dense)                 (None, 8)            208         dropout_4[0][0]
==================================================================================================
Total params: 2,049,318
Trainable params: 2,049,318
Non-trainable params: 0
__________________________________________________________________________________________________
None

__________________________________________________________________________________________________
…
        Attention: important lemmas are not in vocbulary        Embedding
==================================================================================================
        Initialisation = None
        Concatenation = False
        Lemma : 200
        POS = 15
Deep model(Non compositional)
__________________________________________________________________________________________________
Layer (type)                    Output Shape         Param #     Connected to
==================================================================================================
input_9 (InputLayer)            (None, 3)            0
__________________________________________________________________________________________________
input_10 (InputLayer)           (None, 3)            0
__________________________________________________________________________________________________
embedding_9 (Embedding)         (None, 3, 200)       2028200     input_9[0][0]
__________________________________________________________________________________________________
embedding_10 (Embedding)        (None, 3, 15)        3360        input_10[0][0]
__________________________________________________________________________________________________
flatten_9 (Flatten)             (None, 600)          0           embedding_9[0][0]
__________________________________________________________________________________________________
flatten_10 (Flatten)            (None, 45)           0           embedding_10[0][0]
__________________________________________________________________________________________________
concatenate_5 (Concatenate)     (None, 645)          0           flatten_9[0][0]
                                                                 flatten_10[0][0]
__________________________________________________________________________________________________
dense_9 (Dense)                 (None, 25)           16150       concatenate_5[0][0]
__________________________________________________________________________________________________
dropout_5 (Dropout)             (None, 25)           0           dense_9[0][0]
__________________________________________________________________________________________________
dense_10 (Dense)                (None, 8)            208         dropout_5[0][0]
==================================================================================================
Total params: 2,047,918
Trainable params: 2,047,918
Non-trainable params: 0
__________________________________________________________________________________________________
None

__________________________________________________________________________________________________
…
        Attention: important lemmas are not in vocbulary        Embedding
==================================================================================================
        Initialisation = None
        Concatenation = False
        Lemma : 200
        POS = 15
Deep model(Non compositional)
__________________________________________________________________________________________________
Layer (type)                    Output Shape         Param #     Connected to
==================================================================================================
input_11 (InputLayer)           (None, 3)            0
__________________________________________________________________________________________________
input_12 (InputLayer)           (None, 3)            0
__________________________________________________________________________________________________
embedding_11 (Embedding)        (None, 3, 200)       2035000     input_11[0][0]
__________________________________________________________________________________________________
embedding_12 (Embedding)        (None, 3, 15)        3360        input_12[0][0]
__________________________________________________________________________________________________
flatten_11 (Flatten)            (None, 600)          0           embedding_11[0][0]
__________________________________________________________________________________________________
flatten_12 (Flatten)            (None, 45)           0           embedding_12[0][0]
__________________________________________________________________________________________________
concatenate_6 (Concatenate)     (None, 645)          0           flatten_11[0][0]
                                                                 flatten_12[0][0]
__________________________________________________________________________________________________
dense_11 (Dense)                (None, 25)           16150       concatenate_6[0][0]
__________________________________________________________________________________________________
dropout_6 (Dropout)             (None, 25)           0           dense_11[0][0]
__________________________________________________________________________________________________
dense_12 (Dense)                (None, 8)            208         dropout_6[0][0]
==================================================================================================
Total params: 2,054,718
Trainable params: 2,054,718
Non-trainable params: 0
__________________________________________________________________________________________________
None

__________________________________________________________________________________________________
…
        One occurrence keys in vocabulary 2295 / 9710
        Embedding
==================================================================================================
        Initialisation = None
        Concatenation = False
        Lemma : 200
        POS = 15
Deep model(Non compositional)
__________________________________________________________________________________________________
Layer (type)                    Output Shape         Param #     Connected to
==================================================================================================
input_13 (InputLayer)           (None, 3)            0
__________________________________________________________________________________________________
input_14 (InputLayer)           (None, 3)            0
__________________________________________________________________________________________________
embedding_13 (Embedding)        (None, 3, 200)       1942000     input_13[0][0]
__________________________________________________________________________________________________
embedding_14 (Embedding)        (None, 3, 15)        1770        input_14[0][0]
__________________________________________________________________________________________________
flatten_13 (Flatten)            (None, 600)          0           embedding_13[0][0]
__________________________________________________________________________________________________
flatten_14 (Flatten)            (None, 45)           0           embedding_14[0][0]
__________________________________________________________________________________________________
concatenate_7 (Concatenate)     (None, 645)          0           flatten_13[0][0]
                                                                 flatten_14[0][0]
__________________________________________________________________________________________________
dense_13 (Dense)                (None, 25)           16150       concatenate_7[0][0]
__________________________________________________________________________________________________
dropout_7 (Dropout)             (None, 25)           0           dense_13[0][0]
__________________________________________________________________________________________________
dense_14 (Dense)                (None, 8)            208         dropout_7[0][0]
==================================================================================================
Total params: 1,960,128
Trainable params: 1,960,128
Non-trainable params: 0
__________________________________________________________________________________________________
None

__________________________________________________________________________________________________
…
        One occurrence keys in vocabulary 2295 / 9726
        Embedding
==================================================================================================
        Initialisation = None
        Concatenation = False
        Lemma : 200
        POS = 15
Deep model(Non compositional)
__________________________________________________________________________________________________
Layer (type)                    Output Shape         Param #     Connected to
==================================================================================================
input_15 (InputLayer)           (None, 3)            0
__________________________________________________________________________________________________
input_16 (InputLayer)           (None, 3)            0
__________________________________________________________________________________________________
embedding_15 (Embedding)        (None, 3, 200)       1945200     input_15[0][0]
__________________________________________________________________________________________________
embedding_16 (Embedding)        (None, 3, 15)        1770        input_16[0][0]
__________________________________________________________________________________________________
flatten_15 (Flatten)            (None, 600)          0           embedding_15[0][0]
__________________________________________________________________________________________________
flatten_16 (Flatten)            (None, 45)           0           embedding_16[0][0]
__________________________________________________________________________________________________
concatenate_8 (Concatenate)     (None, 645)          0           flatten_15[0][0]
                                                                 flatten_16[0][0]
__________________________________________________________________________________________________
dense_15 (Dense)                (None, 25)           16150       concatenate_8[0][0]
__________________________________________________________________________________________________
dropout_8 (Dropout)             (None, 25)           0           dense_15[0][0]
__________________________________________________________________________________________________
dense_16 (Dense)                (None, 8)            208         dropout_8[0][0]
==================================================================================================
Total params: 1,963,328
Trainable params: 1,963,328
Non-trainable params: 0
__________________________________________________________________________________________________
None

__________________________________________________________________________________________________
…
        One occurrence keys in vocabulary 2295 / 9828
        Embedding
==================================================================================================
        Initialisation = None
        Concatenation = False
        Lemma : 200
        POS = 15
Deep model(Non compositional)
__________________________________________________________________________________________________
Layer (type)                    Output Shape         Param #     Connected to
==================================================================================================
input_17 (InputLayer)           (None, 3)            0
__________________________________________________________________________________________________
input_18 (InputLayer)           (None, 3)            0
__________________________________________________________________________________________________
embedding_17 (Embedding)        (None, 3, 200)       1965600     input_17[0][0]
__________________________________________________________________________________________________
embedding_18 (Embedding)        (None, 3, 15)        1770        input_18[0][0]
__________________________________________________________________________________________________
flatten_17 (Flatten)            (None, 600)          0           embedding_17[0][0]
__________________________________________________________________________________________________
flatten_18 (Flatten)            (None, 45)           0           embedding_18[0][0]
__________________________________________________________________________________________________
concatenate_9 (Concatenate)     (None, 645)          0           flatten_17[0][0]
                                                                 flatten_18[0][0]
__________________________________________________________________________________________________
dense_17 (Dense)                (None, 25)           16150       concatenate_9[0][0]
__________________________________________________________________________________________________
dropout_9 (Dropout)             (None, 25)           0           dense_17[0][0]
__________________________________________________________________________________________________
dense_18 (Dense)                (None, 8)            208         dropout_9[0][0]
==================================================================================================
Total params: 1,983,728
Trainable params: 1,983,728
Non-trainable params: 0
__________________________________________________________________________________________________
None

__________________________________________________________________________________________________
…
