…
	Training (Important) : 3124, Test : 1954
	MWEs in tain : 1372, occurrences : 3583
	Impotant words in tain : 1175
	MWE length mean : 2.13
	Seen MWEs : 386 (57 %)
	New MWEs : 284 (42 %)
==================================================================================================
__________________________________________________________________________________________________
Layer (type)                    Output Shape         Param #     Connected to                     
==================================================================================================
input_1 (InputLayer)            (None, 7)            0                                            
__________________________________________________________________________________________________
input_2 (InputLayer)            (None, 7)            0                                            
__________________________________________________________________________________________________
embedding_1 (Embedding)         (None, 7, 283)       333374      input_1[0][0]                    
__________________________________________________________________________________________________
embedding_2 (Embedding)         (None, 7, 25)        475         input_2[0][0]                    
__________________________________________________________________________________________________
gru_1 (GRU)                     (None, 64)           66816       embedding_1[0][0]                
__________________________________________________________________________________________________
gru_2 (GRU)                     (None, 37)           6993        embedding_2[0][0]                
__________________________________________________________________________________________________
dropout_1 (Dropout)             (None, 64)           0           gru_1[0][0]                      
__________________________________________________________________________________________________
dropout_2 (Dropout)             (None, 37)           0           gru_2[0][0]                      
__________________________________________________________________________________________________
concatenate_1 (Concatenate)     (None, 101)          0           dropout_1[0][0]                  
                                                                 dropout_2[0][0]                  
__________________________________________________________________________________________________
dense_1 (Dense)                 (None, 94)           9588        concatenate_1[0][0]              
__________________________________________________________________________________________________
dropout_3 (Dropout)             (None, 94)           0           dense_1[0][0]                    
__________________________________________________________________________________________________
dense_2 (Dense)                 (None, 4)            380         dropout_3[0][0]                  
==================================================================================================
Total params: 417,626
Trainable params: 417,626
Non-trainable params: 0
__________________________________________________________________________________________________
None
Train on 320835 samples, validate on 35649 samples
Epoch 1/20
 - 79s - loss: 0.0748 - acc: 0.9795 - val_loss: 0.0564 - val_acc: 0.9854
…
	Training (Important) : 2305, Test : 3117
	MWEs in tain : 1396, occurrences : 2518
	Impotant words in tain : 1131
	MWE length mean : 2.22
	Seen MWEs : 340 (61 %)
	New MWEs : 213 (38 %)
==================================================================================================
__________________________________________________________________________________________________
Layer (type)                    Output Shape         Param #     Connected to                     
==================================================================================================
input_3 (InputLayer)            (None, 7)            0                                            
__________________________________________________________________________________________________
input_4 (InputLayer)            (None, 7)            0                                            
__________________________________________________________________________________________________
embedding_3 (Embedding)         (None, 7, 283)       320922      input_3[0][0]                    
__________________________________________________________________________________________________
embedding_4 (Embedding)         (None, 7, 25)        475         input_4[0][0]                    
__________________________________________________________________________________________________
gru_3 (GRU)                     (None, 64)           66816       embedding_3[0][0]                
__________________________________________________________________________________________________
gru_4 (GRU)                     (None, 37)           6993        embedding_4[0][0]                
__________________________________________________________________________________________________
dropout_4 (Dropout)             (None, 64)           0           gru_3[0][0]                      
__________________________________________________________________________________________________
dropout_5 (Dropout)             (None, 37)           0           gru_4[0][0]                      
__________________________________________________________________________________________________
concatenate_2 (Concatenate)     (None, 101)          0           dropout_4[0][0]                  
                                                                 dropout_5[0][0]                  
__________________________________________________________________________________________________
dense_3 (Dense)                 (None, 94)           9588        concatenate_2[0][0]              
__________________________________________________________________________________________________
dropout_6 (Dropout)             (None, 94)           0           dense_3[0][0]                    
__________________________________________________________________________________________________
dense_4 (Dense)                 (None, 4)            380         dropout_6[0][0]                  
==================================================================================================
Total params: 405,174
Trainable params: 405,174
Non-trainable params: 0
__________________________________________________________________________________________________
None
Train on 217231 samples, validate on 24137 samples
Epoch 1/20
 - 53s - loss: 0.0834 - acc: 0.9766 - val_loss: 0.0605 - val_acc: 0.9840
…
	Training (Important) : 3585, Test : 1320
	MWEs in tain : 1790, occurrences : 4856
	Impotant words in tain : 1200
	MWE length mean : 2.06
	Seen MWEs : 345 (67 %)
	New MWEs : 165 (32 %)
==================================================================================================
__________________________________________________________________________________________________
Layer (type)                    Output Shape         Param #     Connected to                     
==================================================================================================
input_5 (InputLayer)            (None, 7)            0                                            
__________________________________________________________________________________________________
input_6 (InputLayer)            (None, 7)            0                                            
__________________________________________________________________________________________________
embedding_5 (Embedding)         (None, 7, 283)       340449      input_5[0][0]                    
__________________________________________________________________________________________________
embedding_6 (Embedding)         (None, 7, 25)        350         input_6[0][0]                    
__________________________________________________________________________________________________
gru_5 (GRU)                     (None, 64)           66816       embedding_5[0][0]                
__________________________________________________________________________________________________
gru_6 (GRU)                     (None, 37)           6993        embedding_6[0][0]                
__________________________________________________________________________________________________
dropout_7 (Dropout)             (None, 64)           0           gru_5[0][0]                      
__________________________________________________________________________________________________
dropout_8 (Dropout)             (None, 37)           0           gru_6[0][0]                      
__________________________________________________________________________________________________
concatenate_3 (Concatenate)     (None, 101)          0           dropout_7[0][0]                  
                                                                 dropout_8[0][0]                  
__________________________________________________________________________________________________
dense_5 (Dense)                 (None, 94)           9588        concatenate_3[0][0]              
__________________________________________________________________________________________________
dropout_9 (Dropout)             (None, 94)           0           dense_5[0][0]                    
__________________________________________________________________________________________________
dense_6 (Dense)                 (None, 4)            380         dropout_9[0][0]                  
==================================================================================================
Total params: 424,576
Trainable params: 424,576
Non-trainable params: 0
__________________________________________________________________________________________________
None
Train on 432446 samples, validate on 48050 samples
Epoch 1/20
 - 114s - loss: 0.0715 - acc: 0.9797 - val_loss: 0.0661 - val_acc: 0.9814
…
	Training (Important) : 3124, Test : 1954
	MWEs in tain : 1372, occurrences : 3583
	Impotant words in tain : 1175
	MWE length mean : 2.13
	Seen MWEs : 386 (57 %)
	New MWEs : 284 (42 %)
==================================================================================================
__________________________________________________________________________________________________
Layer (type)                    Output Shape         Param #     Connected to                     
==================================================================================================
input_7 (InputLayer)            (None, 7)            0                                            
__________________________________________________________________________________________________
input_8 (InputLayer)            (None, 7)            0                                            
__________________________________________________________________________________________________
embedding_7 (Embedding)         (None, 7, 267)       314526      input_7[0][0]                    
__________________________________________________________________________________________________
embedding_8 (Embedding)         (None, 7, 78)        1482        input_8[0][0]                    
__________________________________________________________________________________________________
gru_7 (GRU)                     (None, 31)           27807       embedding_7[0][0]                
__________________________________________________________________________________________________
gru_8 (GRU)                     (None, 40)           14280       embedding_8[0][0]                
__________________________________________________________________________________________________
dropout_10 (Dropout)            (None, 31)           0           gru_7[0][0]                      
__________________________________________________________________________________________________
dropout_11 (Dropout)            (None, 40)           0           gru_8[0][0]                      
__________________________________________________________________________________________________
concatenate_4 (Concatenate)     (None, 71)           0           dropout_10[0][0]                 
                                                                 dropout_11[0][0]                 
__________________________________________________________________________________________________
dense_7 (Dense)                 (None, 96)           6912        concatenate_4[0][0]              
__________________________________________________________________________________________________
dropout_12 (Dropout)            (None, 96)           0           dense_7[0][0]                    
__________________________________________________________________________________________________
dense_8 (Dense)                 (None, 4)            388         dropout_12[0][0]                 
==================================================================================================
Total params: 365,395
Trainable params: 365,395
Non-trainable params: 0
__________________________________________________________________________________________________
None
Train on 320835 samples, validate on 35649 samples
Epoch 1/20
 - 308s - loss: 0.0697 - acc: 0.9822 - val_loss: 0.0551 - val_acc: 0.9856
…
	Training (Important) : 2305, Test : 3117
	MWEs in tain : 1396, occurrences : 2518
	Impotant words in tain : 1131
	MWE length mean : 2.22
	Seen MWEs : 340 (61 %)
	New MWEs : 213 (38 %)
==================================================================================================
__________________________________________________________________________________________________
Layer (type)                    Output Shape         Param #     Connected to                     
==================================================================================================
input_9 (InputLayer)            (None, 7)            0                                            
__________________________________________________________________________________________________
input_10 (InputLayer)           (None, 7)            0                                            
__________________________________________________________________________________________________
embedding_9 (Embedding)         (None, 7, 267)       302778      input_9[0][0]                    
__________________________________________________________________________________________________
embedding_10 (Embedding)        (None, 7, 78)        1482        input_10[0][0]                   
__________________________________________________________________________________________________
gru_9 (GRU)                     (None, 31)           27807       embedding_9[0][0]                
__________________________________________________________________________________________________
gru_10 (GRU)                    (None, 40)           14280       embedding_10[0][0]               
__________________________________________________________________________________________________
dropout_13 (Dropout)            (None, 31)           0           gru_9[0][0]                      
__________________________________________________________________________________________________
dropout_14 (Dropout)            (None, 40)           0           gru_10[0][0]                     
__________________________________________________________________________________________________
concatenate_5 (Concatenate)     (None, 71)           0           dropout_13[0][0]                 
                                                                 dropout_14[0][0]                 
__________________________________________________________________________________________________
dense_9 (Dense)                 (None, 96)           6912        concatenate_5[0][0]              
__________________________________________________________________________________________________
dropout_15 (Dropout)            (None, 96)           0           dense_9[0][0]                    
__________________________________________________________________________________________________
dense_10 (Dense)                (None, 4)            388         dropout_15[0][0]                 
==================================================================================================
Total params: 353,647
Trainable params: 353,647
Non-trainable params: 0
__________________________________________________________________________________________________
None
Train on 217231 samples, validate on 24137 samples
Epoch 1/20
 - 209s - loss: 0.0780 - acc: 0.9788 - val_loss: 0.0600 - val_acc: 0.9837
…
	Training (Important) : 3585, Test : 1320
	MWEs in tain : 1790, occurrences : 4856
	Impotant words in tain : 1200
	MWE length mean : 2.06
	Seen MWEs : 345 (67 %)
	New MWEs : 165 (32 %)
==================================================================================================
__________________________________________________________________________________________________
Layer (type)                    Output Shape         Param #     Connected to                     
==================================================================================================
input_11 (InputLayer)           (None, 7)            0                                            
__________________________________________________________________________________________________
input_12 (InputLayer)           (None, 7)            0                                            
__________________________________________________________________________________________________
embedding_11 (Embedding)        (None, 7, 267)       321201      input_11[0][0]                   
__________________________________________________________________________________________________
embedding_12 (Embedding)        (None, 7, 78)        1092        input_12[0][0]                   
__________________________________________________________________________________________________
gru_11 (GRU)                    (None, 31)           27807       embedding_11[0][0]               
__________________________________________________________________________________________________
gru_12 (GRU)                    (None, 40)           14280       embedding_12[0][0]               
__________________________________________________________________________________________________
dropout_16 (Dropout)            (None, 31)           0           gru_11[0][0]                     
__________________________________________________________________________________________________
dropout_17 (Dropout)            (None, 40)           0           gru_12[0][0]                     
__________________________________________________________________________________________________
concatenate_6 (Concatenate)     (None, 71)           0           dropout_16[0][0]                 
                                                                 dropout_17[0][0]                 
__________________________________________________________________________________________________
dense_11 (Dense)                (None, 96)           6912        concatenate_6[0][0]              
__________________________________________________________________________________________________
dropout_18 (Dropout)            (None, 96)           0           dense_11[0][0]                   
__________________________________________________________________________________________________
dense_12 (Dense)                (None, 4)            388         dropout_18[0][0]                 
==================================================================================================
Total params: 371,680
Trainable params: 371,680
Non-trainable params: 0
__________________________________________________________________________________________________
None
Train on 432446 samples, validate on 48050 samples
Epoch 1/20
 - 421s - loss: 0.0694 - acc: 0.9808 - val_loss: 0.0670 - val_acc: 0.9817
…
	Training (Important) : 3124, Test : 1954
	MWEs in tain : 1372, occurrences : 3583
	Impotant words in tain : 1175
	MWE length mean : 2.13
	Seen MWEs : 386 (57 %)
	New MWEs : 284 (42 %)
==================================================================================================
__________________________________________________________________________________________________
Layer (type)                    Output Shape         Param #     Connected to                     
==================================================================================================
input_13 (InputLayer)           (None, 7)            0                                            
__________________________________________________________________________________________________
input_14 (InputLayer)           (None, 7)            0                                            
__________________________________________________________________________________________________
embedding_13 (Embedding)        (None, 7, 410)       482980      input_13[0][0]                   
__________________________________________________________________________________________________
embedding_14 (Embedding)        (None, 7, 54)        1026        input_14[0][0]                   
__________________________________________________________________________________________________
gru_13 (GRU)                    (None, 25)           32700       embedding_13[0][0]               
__________________________________________________________________________________________________
gru_14 (GRU)                    (None, 15)           3150        embedding_14[0][0]               
__________________________________________________________________________________________________
dropout_19 (Dropout)            (None, 25)           0           gru_13[0][0]                     
__________________________________________________________________________________________________
dropout_20 (Dropout)            (None, 15)           0           gru_14[0][0]                     
__________________________________________________________________________________________________
concatenate_7 (Concatenate)     (None, 40)           0           dropout_19[0][0]                 
                                                                 dropout_20[0][0]                 
__________________________________________________________________________________________________
dense_13 (Dense)                (None, 51)           2091        concatenate_7[0][0]              
__________________________________________________________________________________________________
dropout_21 (Dropout)            (None, 51)           0           dense_13[0][0]                   
__________________________________________________________________________________________________
dense_14 (Dense)                (None, 4)            208         dropout_21[0][0]                 
==================================================================================================
Total params: 522,155
Trainable params: 522,155
Non-trainable params: 0
__________________________________________________________________________________________________
None
Train on 320835 samples, validate on 35649 samples
Epoch 1/20
 - 311s - loss: 0.0710 - acc: 0.9816 - val_loss: 0.0566 - val_acc: 0.9852
…
	Training (Important) : 2305, Test : 3117
	MWEs in tain : 1396, occurrences : 2518
	Impotant words in tain : 1131
	MWE length mean : 2.22
	Seen MWEs : 340 (61 %)
	New MWEs : 213 (38 %)
==================================================================================================
__________________________________________________________________________________________________
Layer (type)                    Output Shape         Param #     Connected to                     
==================================================================================================
input_15 (InputLayer)           (None, 7)            0                                            
__________________________________________________________________________________________________
input_16 (InputLayer)           (None, 7)            0                                            
__________________________________________________________________________________________________
embedding_15 (Embedding)        (None, 7, 410)       464940      input_15[0][0]                   
__________________________________________________________________________________________________
embedding_16 (Embedding)        (None, 7, 54)        1026        input_16[0][0]                   
__________________________________________________________________________________________________
gru_15 (GRU)                    (None, 25)           32700       embedding_15[0][0]               
__________________________________________________________________________________________________
gru_16 (GRU)                    (None, 15)           3150        embedding_16[0][0]               
__________________________________________________________________________________________________
dropout_22 (Dropout)            (None, 25)           0           gru_15[0][0]                     
__________________________________________________________________________________________________
dropout_23 (Dropout)            (None, 15)           0           gru_16[0][0]                     
__________________________________________________________________________________________________
concatenate_8 (Concatenate)     (None, 40)           0           dropout_22[0][0]                 
                                                                 dropout_23[0][0]                 
__________________________________________________________________________________________________
dense_15 (Dense)                (None, 51)           2091        concatenate_8[0][0]              
__________________________________________________________________________________________________
dropout_24 (Dropout)            (None, 51)           0           dense_15[0][0]                   
__________________________________________________________________________________________________
dense_16 (Dense)                (None, 4)            208         dropout_24[0][0]                 
==================================================================================================
Total params: 504,115
Trainable params: 504,115
Non-trainable params: 0
__________________________________________________________________________________________________
None
Train on 217231 samples, validate on 24137 samples
Epoch 1/20
 - 215s - loss: 0.0802 - acc: 0.9776 - val_loss: 0.0609 - val_acc: 0.9839
…
	Training (Important) : 3585, Test : 1320
	MWEs in tain : 1790, occurrences : 4856
	Impotant words in tain : 1200
	MWE length mean : 2.06
	Seen MWEs : 345 (67 %)
	New MWEs : 165 (32 %)
==================================================================================================
__________________________________________________________________________________________________
Layer (type)                    Output Shape         Param #     Connected to                     
==================================================================================================
input_17 (InputLayer)           (None, 7)            0                                            
__________________________________________________________________________________________________
input_18 (InputLayer)           (None, 7)            0                                            
__________________________________________________________________________________________________
embedding_17 (Embedding)        (None, 7, 410)       493230      input_17[0][0]                   
__________________________________________________________________________________________________
embedding_18 (Embedding)        (None, 7, 54)        756         input_18[0][0]                   
__________________________________________________________________________________________________
gru_17 (GRU)                    (None, 25)           32700       embedding_17[0][0]               
__________________________________________________________________________________________________
gru_18 (GRU)                    (None, 15)           3150        embedding_18[0][0]               
__________________________________________________________________________________________________
dropout_25 (Dropout)            (None, 25)           0           gru_17[0][0]                     
__________________________________________________________________________________________________
dropout_26 (Dropout)            (None, 15)           0           gru_18[0][0]                     
__________________________________________________________________________________________________
concatenate_9 (Concatenate)     (None, 40)           0           dropout_25[0][0]                 
                                                                 dropout_26[0][0]                 
__________________________________________________________________________________________________
dense_17 (Dense)                (None, 51)           2091        concatenate_9[0][0]              
__________________________________________________________________________________________________
dropout_27 (Dropout)            (None, 51)           0           dense_17[0][0]                   
__________________________________________________________________________________________________
dense_18 (Dense)                (None, 4)            208         dropout_27[0][0]                 
==================================================================================================
Total params: 532,135
Trainable params: 532,135
Non-trainable params: 0
__________________________________________________________________________________________________
None
Train on 432446 samples, validate on 48050 samples
Epoch 1/20
 - 428s - loss: 0.0710 - acc: 0.9801 - val_loss: 0.0657 - val_acc: 0.9819
…
