…
	Training (Important) : 3124, Test : 1954
	MWEs in tain : 1372, occurrences : 3583
	Impotant words in tain : 1175
	MWE length mean : 2.13
	Seen MWEs : 386 (57 %)
	New MWEs : 284 (42 %)
==================================================================================================
__________________________________________________________________________________________________
Layer (type)                    Output Shape         Param #     Connected to                     
==================================================================================================
input_1 (InputLayer)            (None, 7)            0                                            
__________________________________________________________________________________________________
input_2 (InputLayer)            (None, 7)            0                                            
__________________________________________________________________________________________________
embedding_1 (Embedding)         (None, 7, 283)       333374      input_1[0][0]                    
__________________________________________________________________________________________________
embedding_2 (Embedding)         (None, 7, 25)        475         input_2[0][0]                    
__________________________________________________________________________________________________
gru_1 (GRU)                     (None, 7, 64)        66816       embedding_1[0][0]                
__________________________________________________________________________________________________
gru_2 (GRU)                     (None, 7, 37)        6993        embedding_2[0][0]                
__________________________________________________________________________________________________
flatten_1 (Flatten)             (None, 448)          0           gru_1[0][0]                      
__________________________________________________________________________________________________
flatten_2 (Flatten)             (None, 259)          0           gru_2[0][0]                      
__________________________________________________________________________________________________
dropout_1 (Dropout)             (None, 448)          0           flatten_1[0][0]                  
__________________________________________________________________________________________________
dropout_2 (Dropout)             (None, 259)          0           flatten_2[0][0]                  
__________________________________________________________________________________________________
concatenate_1 (Concatenate)     (None, 707)          0           dropout_1[0][0]                  
                                                                 dropout_2[0][0]                  
__________________________________________________________________________________________________
dense_1 (Dense)                 (None, 94)           66552       concatenate_1[0][0]              
__________________________________________________________________________________________________
dropout_3 (Dropout)             (None, 94)           0           dense_1[0][0]                    
__________________________________________________________________________________________________
dense_2 (Dense)                 (None, 4)            380         dropout_3[0][0]                  
==================================================================================================
Total params: 474,590
Trainable params: 474,590
Non-trainable params: 0
__________________________________________________________________________________________________
None
Train on 320835 samples, validate on 35649 samples
Epoch 1/20
 - 118s - loss: 0.0810 - acc: 0.9793 - val_loss: 0.0463 - val_acc: 1.0000
…
	Training (Important) : 2305, Test : 3117
	MWEs in tain : 1396, occurrences : 2518
	Impotant words in tain : 1131
	MWE length mean : 2.22
	Seen MWEs : 340 (61 %)
	New MWEs : 213 (38 %)
==================================================================================================
__________________________________________________________________________________________________
Layer (type)                    Output Shape         Param #     Connected to                     
==================================================================================================
input_3 (InputLayer)            (None, 7)            0                                            
__________________________________________________________________________________________________
input_4 (InputLayer)            (None, 7)            0                                            
__________________________________________________________________________________________________
embedding_3 (Embedding)         (None, 7, 283)       320922      input_3[0][0]                    
__________________________________________________________________________________________________
embedding_4 (Embedding)         (None, 7, 25)        475         input_4[0][0]                    
__________________________________________________________________________________________________
gru_3 (GRU)                     (None, 7, 64)        66816       embedding_3[0][0]                
__________________________________________________________________________________________________
gru_4 (GRU)                     (None, 7, 37)        6993        embedding_4[0][0]                
__________________________________________________________________________________________________
flatten_3 (Flatten)             (None, 448)          0           gru_3[0][0]                      
__________________________________________________________________________________________________
flatten_4 (Flatten)             (None, 259)          0           gru_4[0][0]                      
__________________________________________________________________________________________________
dropout_4 (Dropout)             (None, 448)          0           flatten_3[0][0]                  
__________________________________________________________________________________________________
dropout_5 (Dropout)             (None, 259)          0           flatten_4[0][0]                  
__________________________________________________________________________________________________
concatenate_2 (Concatenate)     (None, 707)          0           dropout_4[0][0]                  
                                                                 dropout_5[0][0]                  
__________________________________________________________________________________________________
dense_3 (Dense)                 (None, 94)           66552       concatenate_2[0][0]              
__________________________________________________________________________________________________
dropout_6 (Dropout)             (None, 94)           0           dense_3[0][0]                    
__________________________________________________________________________________________________
dense_4 (Dense)                 (None, 4)            380         dropout_6[0][0]                  
==================================================================================================
Total params: 462,138
Trainable params: 462,138
Non-trainable params: 0
__________________________________________________________________________________________________
None
Train on 217231 samples, validate on 24137 samples
Epoch 1/20
 - 83s - loss: 0.0926 - acc: 0.9759 - val_loss: 0.0470 - val_acc: 0.9994
…
	Training (Important) : 3585, Test : 1320
	MWEs in tain : 1790, occurrences : 4856
	Impotant words in tain : 1200
	MWE length mean : 2.06
	Seen MWEs : 345 (67 %)
	New MWEs : 165 (32 %)
==================================================================================================
__________________________________________________________________________________________________
Layer (type)                    Output Shape         Param #     Connected to                     
==================================================================================================
input_5 (InputLayer)            (None, 7)            0                                            
__________________________________________________________________________________________________
input_6 (InputLayer)            (None, 7)            0                                            
__________________________________________________________________________________________________
embedding_5 (Embedding)         (None, 7, 283)       340449      input_5[0][0]                    
__________________________________________________________________________________________________
embedding_6 (Embedding)         (None, 7, 25)        350         input_6[0][0]                    
__________________________________________________________________________________________________
gru_5 (GRU)                     (None, 7, 64)        66816       embedding_5[0][0]                
__________________________________________________________________________________________________
gru_6 (GRU)                     (None, 7, 37)        6993        embedding_6[0][0]                
__________________________________________________________________________________________________
flatten_5 (Flatten)             (None, 448)          0           gru_5[0][0]                      
__________________________________________________________________________________________________
flatten_6 (Flatten)             (None, 259)          0           gru_6[0][0]                      
__________________________________________________________________________________________________
dropout_7 (Dropout)             (None, 448)          0           flatten_5[0][0]                  
__________________________________________________________________________________________________
dropout_8 (Dropout)             (None, 259)          0           flatten_6[0][0]                  
__________________________________________________________________________________________________
concatenate_3 (Concatenate)     (None, 707)          0           dropout_7[0][0]                  
                                                                 dropout_8[0][0]                  
__________________________________________________________________________________________________
dense_5 (Dense)                 (None, 94)           66552       concatenate_3[0][0]              
__________________________________________________________________________________________________
dropout_9 (Dropout)             (None, 94)           0           dense_5[0][0]                    
__________________________________________________________________________________________________
dense_6 (Dense)                 (None, 4)            380         dropout_9[0][0]                  
==================================================================================================
Total params: 481,540
Trainable params: 481,540
Non-trainable params: 0
__________________________________________________________________________________________________
None
Train on 432446 samples, validate on 48050 samples
Epoch 1/20
 - 182s - loss: 0.0787 - acc: 0.9780 - val_loss: 0.0844 - val_acc: 1.0000
…
	Training (Important) : 3124, Test : 1954
	MWEs in tain : 1372, occurrences : 3583
	Impotant words in tain : 1175
	MWE length mean : 2.13
	Seen MWEs : 386 (57 %)
	New MWEs : 284 (42 %)
==================================================================================================
__________________________________________________________________________________________________
Layer (type)                    Output Shape         Param #     Connected to                     
==================================================================================================
input_7 (InputLayer)            (None, 7)            0                                            
__________________________________________________________________________________________________
input_8 (InputLayer)            (None, 7)            0                                            
__________________________________________________________________________________________________
embedding_7 (Embedding)         (None, 7, 267)       314526      input_7[0][0]                    
__________________________________________________________________________________________________
embedding_8 (Embedding)         (None, 7, 78)        1482        input_8[0][0]                    
__________________________________________________________________________________________________
gru_7 (GRU)                     (None, 7, 31)        27807       embedding_7[0][0]                
__________________________________________________________________________________________________
gru_8 (GRU)                     (None, 7, 40)        14280       embedding_8[0][0]                
__________________________________________________________________________________________________
flatten_7 (Flatten)             (None, 217)          0           gru_7[0][0]                      
__________________________________________________________________________________________________
flatten_8 (Flatten)             (None, 280)          0           gru_8[0][0]                      
__________________________________________________________________________________________________
dropout_10 (Dropout)            (None, 217)          0           flatten_7[0][0]                  
__________________________________________________________________________________________________
dropout_11 (Dropout)            (None, 280)          0           flatten_8[0][0]                  
__________________________________________________________________________________________________
concatenate_4 (Concatenate)     (None, 497)          0           dropout_10[0][0]                 
                                                                 dropout_11[0][0]                 
__________________________________________________________________________________________________
dense_7 (Dense)                 (None, 96)           47808       concatenate_4[0][0]              
__________________________________________________________________________________________________
dropout_12 (Dropout)            (None, 96)           0           dense_7[0][0]                    
__________________________________________________________________________________________________
dense_8 (Dense)                 (None, 4)            388         dropout_12[0][0]                 
==================================================================================================
Total params: 406,291
Trainable params: 406,291
Non-trainable params: 0
__________________________________________________________________________________________________
None
Train on 320835 samples, validate on 35649 samples
Epoch 1/20
 - 491s - loss: 0.0708 - acc: 0.9806 - val_loss: 0.0568 - val_acc: 0.9999
…
	Training (Important) : 2305, Test : 3117
	MWEs in tain : 1396, occurrences : 2518
	Impotant words in tain : 1131
	MWE length mean : 2.22
	Seen MWEs : 340 (61 %)
	New MWEs : 213 (38 %)
==================================================================================================
__________________________________________________________________________________________________
Layer (type)                    Output Shape         Param #     Connected to                     
==================================================================================================
input_9 (InputLayer)            (None, 7)            0                                            
__________________________________________________________________________________________________
input_10 (InputLayer)           (None, 7)            0                                            
__________________________________________________________________________________________________
embedding_9 (Embedding)         (None, 7, 267)       302778      input_9[0][0]                    
__________________________________________________________________________________________________
embedding_10 (Embedding)        (None, 7, 78)        1482        input_10[0][0]                   
__________________________________________________________________________________________________
gru_9 (GRU)                     (None, 7, 31)        27807       embedding_9[0][0]                
__________________________________________________________________________________________________
gru_10 (GRU)                    (None, 7, 40)        14280       embedding_10[0][0]               
__________________________________________________________________________________________________
flatten_9 (Flatten)             (None, 217)          0           gru_9[0][0]                      
__________________________________________________________________________________________________
flatten_10 (Flatten)            (None, 280)          0           gru_10[0][0]                     
__________________________________________________________________________________________________
dropout_13 (Dropout)            (None, 217)          0           flatten_9[0][0]                  
__________________________________________________________________________________________________
dropout_14 (Dropout)            (None, 280)          0           flatten_10[0][0]                 
__________________________________________________________________________________________________
concatenate_5 (Concatenate)     (None, 497)          0           dropout_13[0][0]                 
                                                                 dropout_14[0][0]                 
__________________________________________________________________________________________________
dense_9 (Dense)                 (None, 96)           47808       concatenate_5[0][0]              
__________________________________________________________________________________________________
dropout_15 (Dropout)            (None, 96)           0           dense_9[0][0]                    
__________________________________________________________________________________________________
dense_10 (Dense)                (None, 4)            388         dropout_15[0][0]                 
==================================================================================================
Total params: 394,543
Trainable params: 394,543
Non-trainable params: 0
__________________________________________________________________________________________________
None
Train on 217231 samples, validate on 24137 samples
Epoch 1/20
 - 326s - loss: 0.0785 - acc: 0.9774 - val_loss: 0.0734 - val_acc: 0.9994
…
	Training (Important) : 3585, Test : 1320
	MWEs in tain : 1790, occurrences : 4856
	Impotant words in tain : 1200
	MWE length mean : 2.06
	Seen MWEs : 345 (67 %)
	New MWEs : 165 (32 %)
==================================================================================================
__________________________________________________________________________________________________
Layer (type)                    Output Shape         Param #     Connected to                     
==================================================================================================
input_11 (InputLayer)           (None, 7)            0                                            
__________________________________________________________________________________________________
input_12 (InputLayer)           (None, 7)            0                                            
__________________________________________________________________________________________________
embedding_11 (Embedding)        (None, 7, 267)       321201      input_11[0][0]                   
__________________________________________________________________________________________________
embedding_12 (Embedding)        (None, 7, 78)        1092        input_12[0][0]                   
__________________________________________________________________________________________________
gru_11 (GRU)                    (None, 7, 31)        27807       embedding_11[0][0]               
__________________________________________________________________________________________________
gru_12 (GRU)                    (None, 7, 40)        14280       embedding_12[0][0]               
__________________________________________________________________________________________________
flatten_11 (Flatten)            (None, 217)          0           gru_11[0][0]                     
__________________________________________________________________________________________________
flatten_12 (Flatten)            (None, 280)          0           gru_12[0][0]                     
__________________________________________________________________________________________________
dropout_16 (Dropout)            (None, 217)          0           flatten_11[0][0]                 
__________________________________________________________________________________________________
dropout_17 (Dropout)            (None, 280)          0           flatten_12[0][0]                 
__________________________________________________________________________________________________
concatenate_6 (Concatenate)     (None, 497)          0           dropout_16[0][0]                 
                                                                 dropout_17[0][0]                 
__________________________________________________________________________________________________
dense_11 (Dense)                (None, 96)           47808       concatenate_6[0][0]              
__________________________________________________________________________________________________
dropout_18 (Dropout)            (None, 96)           0           dense_11[0][0]                   
__________________________________________________________________________________________________
dense_12 (Dense)                (None, 4)            388         dropout_18[0][0]                 
==================================================================================================
Total params: 412,576
Trainable params: 412,576
Non-trainable params: 0
__________________________________________________________________________________________________
None
Train on 432446 samples, validate on 48050 samples
Epoch 1/20
 - 648s - loss: 0.0704 - acc: 0.9791 - val_loss: 0.0562 - val_acc: 1.0000
…
	Training (Important) : 3124, Test : 1954
	MWEs in tain : 1372, occurrences : 3583
	Impotant words in tain : 1175
	MWE length mean : 2.13
	Seen MWEs : 386 (57 %)
	New MWEs : 284 (42 %)
==================================================================================================
__________________________________________________________________________________________________
Layer (type)                    Output Shape         Param #     Connected to                     
==================================================================================================
input_13 (InputLayer)           (None, 7)            0                                            
__________________________________________________________________________________________________
input_14 (InputLayer)           (None, 7)            0                                            
__________________________________________________________________________________________________
embedding_13 (Embedding)        (None, 7, 410)       482980      input_13[0][0]                   
__________________________________________________________________________________________________
embedding_14 (Embedding)        (None, 7, 54)        1026        input_14[0][0]                   
__________________________________________________________________________________________________
gru_13 (GRU)                    (None, 7, 25)        32700       embedding_13[0][0]               
__________________________________________________________________________________________________
gru_14 (GRU)                    (None, 7, 15)        3150        embedding_14[0][0]               
__________________________________________________________________________________________________
flatten_13 (Flatten)            (None, 175)          0           gru_13[0][0]                     
__________________________________________________________________________________________________
flatten_14 (Flatten)            (None, 105)          0           gru_14[0][0]                     
__________________________________________________________________________________________________
dropout_19 (Dropout)            (None, 175)          0           flatten_13[0][0]                 
__________________________________________________________________________________________________
dropout_20 (Dropout)            (None, 105)          0           flatten_14[0][0]                 
__________________________________________________________________________________________________
concatenate_7 (Concatenate)     (None, 280)          0           dropout_19[0][0]                 
                                                                 dropout_20[0][0]                 
__________________________________________________________________________________________________
dense_13 (Dense)                (None, 51)           14331       concatenate_7[0][0]              
__________________________________________________________________________________________________
dropout_21 (Dropout)            (None, 51)           0           dense_13[0][0]                   
__________________________________________________________________________________________________
dense_14 (Dense)                (None, 4)            208         dropout_21[0][0]                 
==================================================================================================
Total params: 534,395
Trainable params: 534,395
Non-trainable params: 0
__________________________________________________________________________________________________
None
Train on 320835 samples, validate on 35649 samples
Epoch 1/20
 - 483s - loss: 0.0686 - acc: 0.9810 - val_loss: 0.0756 - val_acc: 0.9996
…
	Training (Important) : 2305, Test : 3117
	MWEs in tain : 1396, occurrences : 2518
	Impotant words in tain : 1131
	MWE length mean : 2.22
	Seen MWEs : 340 (61 %)
	New MWEs : 213 (38 %)
==================================================================================================
__________________________________________________________________________________________________
Layer (type)                    Output Shape         Param #     Connected to                     
==================================================================================================
input_15 (InputLayer)           (None, 7)            0                                            
__________________________________________________________________________________________________
input_16 (InputLayer)           (None, 7)            0                                            
__________________________________________________________________________________________________
embedding_15 (Embedding)        (None, 7, 410)       464940      input_15[0][0]                   
__________________________________________________________________________________________________
embedding_16 (Embedding)        (None, 7, 54)        1026        input_16[0][0]                   
__________________________________________________________________________________________________
gru_15 (GRU)                    (None, 7, 25)        32700       embedding_15[0][0]               
__________________________________________________________________________________________________
gru_16 (GRU)                    (None, 7, 15)        3150        embedding_16[0][0]               
__________________________________________________________________________________________________
flatten_15 (Flatten)            (None, 175)          0           gru_15[0][0]                     
__________________________________________________________________________________________________
flatten_16 (Flatten)            (None, 105)          0           gru_16[0][0]                     
__________________________________________________________________________________________________
dropout_22 (Dropout)            (None, 175)          0           flatten_15[0][0]                 
__________________________________________________________________________________________________
dropout_23 (Dropout)            (None, 105)          0           flatten_16[0][0]                 
__________________________________________________________________________________________________
concatenate_8 (Concatenate)     (None, 280)          0           dropout_22[0][0]                 
                                                                 dropout_23[0][0]                 
__________________________________________________________________________________________________
dense_15 (Dense)                (None, 51)           14331       concatenate_8[0][0]              
__________________________________________________________________________________________________
dropout_24 (Dropout)            (None, 51)           0           dense_15[0][0]                   
__________________________________________________________________________________________________
dense_16 (Dense)                (None, 4)            208         dropout_24[0][0]                 
==================================================================================================
Total params: 516,355
Trainable params: 516,355
Non-trainable params: 0
__________________________________________________________________________________________________
None
Train on 217231 samples, validate on 24137 samples
Epoch 1/20
 - 332s - loss: 0.0756 - acc: 0.9781 - val_loss: 0.1001 - val_acc: 0.9994
…
	Training (Important) : 3585, Test : 1320
	MWEs in tain : 1790, occurrences : 4856
	Impotant words in tain : 1200
	MWE length mean : 2.06
	Seen MWEs : 345 (67 %)
	New MWEs : 165 (32 %)
==================================================================================================
__________________________________________________________________________________________________
Layer (type)                    Output Shape         Param #     Connected to                     
==================================================================================================
input_17 (InputLayer)           (None, 7)            0                                            
__________________________________________________________________________________________________
input_18 (InputLayer)           (None, 7)            0                                            
__________________________________________________________________________________________________
embedding_17 (Embedding)        (None, 7, 410)       493230      input_17[0][0]                   
__________________________________________________________________________________________________
embedding_18 (Embedding)        (None, 7, 54)        756         input_18[0][0]                   
__________________________________________________________________________________________________
gru_17 (GRU)                    (None, 7, 25)        32700       embedding_17[0][0]               
__________________________________________________________________________________________________
gru_18 (GRU)                    (None, 7, 15)        3150        embedding_18[0][0]               
__________________________________________________________________________________________________
flatten_17 (Flatten)            (None, 175)          0           gru_17[0][0]                     
__________________________________________________________________________________________________
flatten_18 (Flatten)            (None, 105)          0           gru_18[0][0]                     
__________________________________________________________________________________________________
dropout_25 (Dropout)            (None, 175)          0           flatten_17[0][0]                 
__________________________________________________________________________________________________
dropout_26 (Dropout)            (None, 105)          0           flatten_18[0][0]                 
__________________________________________________________________________________________________
concatenate_9 (Concatenate)     (None, 280)          0           dropout_25[0][0]                 
                                                                 dropout_26[0][0]                 
__________________________________________________________________________________________________
dense_17 (Dense)                (None, 51)           14331       concatenate_9[0][0]              
__________________________________________________________________________________________________
dropout_27 (Dropout)            (None, 51)           0           dense_17[0][0]                   
__________________________________________________________________________________________________
dense_18 (Dense)                (None, 4)            208         dropout_27[0][0]                 
==================================================================================================
Total params: 544,375
Trainable params: 544,375
Non-trainable params: 0
__________________________________________________________________________________________________
None
Train on 432446 samples, validate on 48050 samples
Epoch 1/20
 - 660s - loss: 0.0693 - acc: 0.9793 - val_loss: 0.0795 - val_acc: 1.0000
…
