…
# Train = 16092
# Test = 1788
# Tokens vocabulary = 14811
# POSs vocabulary = 236
# Padding = False
# Embedding = True
# Initialisation = False
# Concatenation = False
# Lemma  = True
# Token/Lemma emb = 125
# POS = True
# POS emb = 56
# Features = False
# Parameters = 2075639
__________________________________________________________________________________________________
Layer (type)                    Output Shape         Param #     Connected to                     
==================================================================================================
input_1 (InputLayer)            (None, 4)            0                                            
__________________________________________________________________________________________________
input_2 (InputLayer)            (None, 4)            0                                            
__________________________________________________________________________________________________
embedding_1 (Embedding)         (None, 4, 125)       1851375     input_1[0][0]                    
__________________________________________________________________________________________________
embedding_2 (Embedding)         (None, 4, 56)        13216       input_2[0][0]                    
__________________________________________________________________________________________________
flatten_1 (Flatten)             (None, 500)          0           embedding_1[0][0]                
__________________________________________________________________________________________________
flatten_2 (Flatten)             (None, 224)          0           embedding_2[0][0]                
__________________________________________________________________________________________________
concatenate_1 (Concatenate)     (None, 724)          0           flatten_1[0][0]                  
                                                                 flatten_2[0][0]                  
__________________________________________________________________________________________________
dense_1 (Dense)                 (None, 256)          185600      concatenate_1[0][0]              
__________________________________________________________________________________________________
dropout_1 (Dropout)             (None, 256)          0           dense_1[0][0]                    
__________________________________________________________________________________________________
dense_2 (Dense)                 (None, 96)           24672       dropout_1[0][0]                  
__________________________________________________________________________________________________
dropout_2 (Dropout)             (None, 96)           0           dense_2[0][0]                    
__________________________________________________________________________________________________
dense_3 (Dense)                 (None, 8)            776         dropout_2[0][0]                  
==================================================================================================
Total params: 2,075,639
Trainable params: 2,075,639
Non-trainable params: 0
__________________________________________________________________________________________________
None
Train on 713107 samples, validate on 79235 samples
Epoch 1/15
 - 11s - loss: 0.0322 - acc: 0.9887 - val_loss: 0.0232 - val_acc: 0.9900
…
# Train = 16092
# Test = 1788
# Tokens vocabulary = 14811
# POSs vocabulary = 236
# Padding = False
# Embedding = True
# Initialisation = False
# Concatenation = False
# Lemma  = True
# Token/Lemma emb = 125
# POS = True
# POS emb = 56
# Features = False
# Parameters = 2084119
__________________________________________________________________________________________________
Layer (type)                    Output Shape         Param #     Connected to                     
==================================================================================================
input_21 (InputLayer)           (None, 4)            0                                            
__________________________________________________________________________________________________
input_22 (InputLayer)           (None, 4)            0                                            
__________________________________________________________________________________________________
embedding_21 (Embedding)        (None, 4, 125)       1851375     input_21[0][0]                   
__________________________________________________________________________________________________
embedding_22 (Embedding)        (None, 4, 56)        13216       input_22[0][0]                   
__________________________________________________________________________________________________
flatten_21 (Flatten)            (None, 500)          0           embedding_21[0][0]               
__________________________________________________________________________________________________
flatten_22 (Flatten)            (None, 224)          0           embedding_22[0][0]               
__________________________________________________________________________________________________
concatenate_11 (Concatenate)    (None, 724)          0           flatten_21[0][0]                 
                                                                 flatten_22[0][0]                 
__________________________________________________________________________________________________
dense_31 (Dense)                (None, 256)          185600      concatenate_11[0][0]             
__________________________________________________________________________________________________
dropout_21 (Dropout)            (None, 256)          0           dense_31[0][0]                   
__________________________________________________________________________________________________
dense_32 (Dense)                (None, 128)          32896       dropout_21[0][0]                 
__________________________________________________________________________________________________
dropout_22 (Dropout)            (None, 128)          0           dense_32[0][0]                   
__________________________________________________________________________________________________
dense_33 (Dense)                (None, 8)            1032        dropout_22[0][0]                 
==================================================================================================
Total params: 2,084,119
Trainable params: 2,084,119
Non-trainable params: 0
__________________________________________________________________________________________________
None
Train on 713107 samples, validate on 79235 samples
Epoch 1/15
 - 11s - loss: 0.0322 - acc: 0.9886 - val_loss: 0.0241 - val_acc: 0.9901
…
# Train = 16092
# Test = 1788
# Tokens vocabulary = 14811
# POSs vocabulary = 236
# Padding = False
# Embedding = True
# Initialisation = False
# Concatenation = False
# Lemma  = True
# Token/Lemma emb = 125
# POS = True
# POS emb = 56
# Features = False
# Parameters = 2101079
__________________________________________________________________________________________________
Layer (type)                    Output Shape         Param #     Connected to                     
==================================================================================================
input_41 (InputLayer)           (None, 4)            0                                            
__________________________________________________________________________________________________
input_42 (InputLayer)           (None, 4)            0                                            
__________________________________________________________________________________________________
embedding_41 (Embedding)        (None, 4, 125)       1851375     input_41[0][0]                   
__________________________________________________________________________________________________
embedding_42 (Embedding)        (None, 4, 56)        13216       input_42[0][0]                   
__________________________________________________________________________________________________
flatten_41 (Flatten)            (None, 500)          0           embedding_41[0][0]               
__________________________________________________________________________________________________
flatten_42 (Flatten)            (None, 224)          0           embedding_42[0][0]               
__________________________________________________________________________________________________
concatenate_21 (Concatenate)    (None, 724)          0           flatten_41[0][0]                 
                                                                 flatten_42[0][0]                 
__________________________________________________________________________________________________
dense_61 (Dense)                (None, 256)          185600      concatenate_21[0][0]             
__________________________________________________________________________________________________
dropout_41 (Dropout)            (None, 256)          0           dense_61[0][0]                   
__________________________________________________________________________________________________
dense_62 (Dense)                (None, 192)          49344       dropout_41[0][0]                 
__________________________________________________________________________________________________
dropout_42 (Dropout)            (None, 192)          0           dense_62[0][0]                   
__________________________________________________________________________________________________
dense_63 (Dense)                (None, 8)            1544        dropout_42[0][0]                 
==================================================================================================
Total params: 2,101,079
Trainable params: 2,101,079
Non-trainable params: 0
__________________________________________________________________________________________________
None
Train on 713107 samples, validate on 79235 samples
Epoch 1/15
 - 11s - loss: 0.0313 - acc: 0.9888 - val_loss: 0.0227 - val_acc: 0.9901
…
# Train = 16092
# Test = 1788
# Tokens vocabulary = 14811
# POSs vocabulary = 236
# Padding = False
# Embedding = True
# Initialisation = False
# Concatenation = False
# Lemma  = True
# Token/Lemma emb = 125
# POS = True
# POS emb = 56
# Features = False
# Parameters = 2118039
__________________________________________________________________________________________________
Layer (type)                    Output Shape         Param #     Connected to                     
==================================================================================================
input_61 (InputLayer)           (None, 4)            0                                            
__________________________________________________________________________________________________
input_62 (InputLayer)           (None, 4)            0                                            
__________________________________________________________________________________________________
embedding_61 (Embedding)        (None, 4, 125)       1851375     input_61[0][0]                   
__________________________________________________________________________________________________
embedding_62 (Embedding)        (None, 4, 56)        13216       input_62[0][0]                   
__________________________________________________________________________________________________
flatten_61 (Flatten)            (None, 500)          0           embedding_61[0][0]               
__________________________________________________________________________________________________
flatten_62 (Flatten)            (None, 224)          0           embedding_62[0][0]               
__________________________________________________________________________________________________
concatenate_31 (Concatenate)    (None, 724)          0           flatten_61[0][0]                 
                                                                 flatten_62[0][0]                 
__________________________________________________________________________________________________
dense_91 (Dense)                (None, 256)          185600      concatenate_31[0][0]             
__________________________________________________________________________________________________
dropout_61 (Dropout)            (None, 256)          0           dense_91[0][0]                   
__________________________________________________________________________________________________
dense_92 (Dense)                (None, 256)          65792       dropout_61[0][0]                 
__________________________________________________________________________________________________
dropout_62 (Dropout)            (None, 256)          0           dense_92[0][0]                   
__________________________________________________________________________________________________
dense_93 (Dense)                (None, 8)            2056        dropout_62[0][0]                 
==================================================================================================
Total params: 2,118,039
Trainable params: 2,118,039
Non-trainable params: 0
__________________________________________________________________________________________________
None
Train on 713107 samples, validate on 79235 samples
Epoch 1/15
 - 11s - loss: 0.0313 - acc: 0.9888 - val_loss: 0.0235 - val_acc: 0.9903
…
# Train = 16092
# Test = 1788
# Tokens vocabulary = 14811
# POSs vocabulary = 236
# Padding = False
# Embedding = True
# Initialisation = False
# Concatenation = False
# Lemma  = True
# Token/Lemma emb = 125
# POS = True
# POS emb = 56
# Features = False
# Parameters = 2151959
__________________________________________________________________________________________________
Layer (type)                    Output Shape         Param #     Connected to                     
==================================================================================================
input_81 (InputLayer)           (None, 4)            0                                            
__________________________________________________________________________________________________
input_82 (InputLayer)           (None, 4)            0                                            
__________________________________________________________________________________________________
embedding_81 (Embedding)        (None, 4, 125)       1851375     input_81[0][0]                   
__________________________________________________________________________________________________
embedding_82 (Embedding)        (None, 4, 56)        13216       input_82[0][0]                   
__________________________________________________________________________________________________
flatten_81 (Flatten)            (None, 500)          0           embedding_81[0][0]               
__________________________________________________________________________________________________
flatten_82 (Flatten)            (None, 224)          0           embedding_82[0][0]               
__________________________________________________________________________________________________
concatenate_41 (Concatenate)    (None, 724)          0           flatten_81[0][0]                 
                                                                 flatten_82[0][0]                 
__________________________________________________________________________________________________
dense_121 (Dense)               (None, 256)          185600      concatenate_41[0][0]             
__________________________________________________________________________________________________
dropout_81 (Dropout)            (None, 256)          0           dense_121[0][0]                  
__________________________________________________________________________________________________
dense_122 (Dense)               (None, 384)          98688       dropout_81[0][0]                 
__________________________________________________________________________________________________
dropout_82 (Dropout)            (None, 384)          0           dense_122[0][0]                  
__________________________________________________________________________________________________
dense_123 (Dense)               (None, 8)            3080        dropout_82[0][0]                 
==================================================================================================
Total params: 2,151,959
Trainable params: 2,151,959
Non-trainable params: 0
__________________________________________________________________________________________________
None
Train on 713107 samples, validate on 79235 samples
Epoch 1/15
 - 11s - loss: 0.0308 - acc: 0.9887 - val_loss: 0.0230 - val_acc: 0.9906
…
