…
	Dashed keys in vocabulary 1622
	One occurrence keys in vocabulary 1622 / 12174
	Embedding
==================================================================================================
	Initialisation = None
	Concatenation = False
	Lemma : 214
	POS = 18 
Deep model(Non compositional)
__________________________________________________________________________________________________
Layer (type)                    Output Shape         Param #     Connected to                     
==================================================================================================
input_1 (InputLayer)            (None, 4)            0                                            
__________________________________________________________________________________________________
input_2 (InputLayer)            (None, 4)            0                                            
__________________________________________________________________________________________________
embedding_1 (Embedding)         (None, 4, 214)       2605236     input_1[0][0]                    
__________________________________________________________________________________________________
embedding_2 (Embedding)         (None, 4, 18)        2736        input_2[0][0]                    
__________________________________________________________________________________________________
flatten_1 (Flatten)             (None, 856)          0           embedding_1[0][0]                
__________________________________________________________________________________________________
flatten_2 (Flatten)             (None, 72)           0           embedding_2[0][0]                
__________________________________________________________________________________________________
concatenate_1 (Concatenate)     (None, 928)          0           flatten_1[0][0]                  
                                                                 flatten_2[0][0]                  
__________________________________________________________________________________________________
dense_1 (Dense)                 (None, 164)          152356      concatenate_1[0][0]              
__________________________________________________________________________________________________
dropout_1 (Dropout)             (None, 164)          0           dense_1[0][0]                    
__________________________________________________________________________________________________
dense_2 (Dense)                 (None, 23)           3795        dropout_1[0][0]                  
__________________________________________________________________________________________________
dropout_2 (Dropout)             (None, 23)           0           dense_2[0][0]                    
__________________________________________________________________________________________________
dense_3 (Dense)                 (None, 8)            192         dropout_2[0][0]                  
==================================================================================================
Total params: 2,764,315
Trainable params: 2,764,315
Non-trainable params: 0
__________________________________________________________________________________________________
None

__________________________________________________________________________________________________
…
	Dashed keys in vocabulary 1622
	One occurrence keys in vocabulary 1622 / 12142
	Embedding
==================================================================================================
	Initialisation = None
	Concatenation = False
	Lemma : 214
	POS = 18 
Deep model(Non compositional)
__________________________________________________________________________________________________
Layer (type)                    Output Shape         Param #     Connected to                     
==================================================================================================
input_3 (InputLayer)            (None, 4)            0                                            
__________________________________________________________________________________________________
input_4 (InputLayer)            (None, 4)            0                                            
__________________________________________________________________________________________________
embedding_3 (Embedding)         (None, 4, 214)       2598388     input_3[0][0]                    
__________________________________________________________________________________________________
embedding_4 (Embedding)         (None, 4, 18)        2736        input_4[0][0]                    
__________________________________________________________________________________________________
flatten_3 (Flatten)             (None, 856)          0           embedding_3[0][0]                
__________________________________________________________________________________________________
flatten_4 (Flatten)             (None, 72)           0           embedding_4[0][0]                
__________________________________________________________________________________________________
concatenate_2 (Concatenate)     (None, 928)          0           flatten_3[0][0]                  
                                                                 flatten_4[0][0]                  
__________________________________________________________________________________________________
dense_4 (Dense)                 (None, 164)          152356      concatenate_2[0][0]              
__________________________________________________________________________________________________
dropout_3 (Dropout)             (None, 164)          0           dense_4[0][0]                    
__________________________________________________________________________________________________
dense_5 (Dense)                 (None, 23)           3795        dropout_3[0][0]                  
__________________________________________________________________________________________________
dropout_4 (Dropout)             (None, 23)           0           dense_5[0][0]                    
__________________________________________________________________________________________________
dense_6 (Dense)                 (None, 8)            192         dropout_4[0][0]                  
==================================================================================================
Total params: 2,757,467
Trainable params: 2,757,467
Non-trainable params: 0
__________________________________________________________________________________________________
None

__________________________________________________________________________________________________
…
	Dashed keys in vocabulary 1622
	One occurrence keys in vocabulary 1622 / 12159
	Embedding
==================================================================================================
	Initialisation = None
	Concatenation = False
	Lemma : 214
	POS = 18 
Deep model(Non compositional)
__________________________________________________________________________________________________
Layer (type)                    Output Shape         Param #     Connected to                     
==================================================================================================
input_5 (InputLayer)            (None, 4)            0                                            
__________________________________________________________________________________________________
input_6 (InputLayer)            (None, 4)            0                                            
__________________________________________________________________________________________________
embedding_5 (Embedding)         (None, 4, 214)       2602026     input_5[0][0]                    
__________________________________________________________________________________________________
embedding_6 (Embedding)         (None, 4, 18)        2736        input_6[0][0]                    
__________________________________________________________________________________________________
flatten_5 (Flatten)             (None, 856)          0           embedding_5[0][0]                
__________________________________________________________________________________________________
flatten_6 (Flatten)             (None, 72)           0           embedding_6[0][0]                
__________________________________________________________________________________________________
concatenate_3 (Concatenate)     (None, 928)          0           flatten_5[0][0]                  
                                                                 flatten_6[0][0]                  
__________________________________________________________________________________________________
dense_7 (Dense)                 (None, 164)          152356      concatenate_3[0][0]              
__________________________________________________________________________________________________
dropout_5 (Dropout)             (None, 164)          0           dense_7[0][0]                    
__________________________________________________________________________________________________
dense_8 (Dense)                 (None, 23)           3795        dropout_5[0][0]                  
__________________________________________________________________________________________________
dropout_6 (Dropout)             (None, 23)           0           dense_8[0][0]                    
__________________________________________________________________________________________________
dense_9 (Dense)                 (None, 8)            192         dropout_6[0][0]                  
==================================================================================================
Total params: 2,761,105
Trainable params: 2,761,105
Non-trainable params: 0
__________________________________________________________________________________________________
None

__________________________________________________________________________________________________
…
	One occurrence keys in vocabulary 1660 / 15321
	Attention: important lemmas are not in vocbulary	Embedding
==================================================================================================
	Initialisation = None
	Concatenation = False
	Lemma : 214
	POS = 18 
Deep model(Non compositional)
__________________________________________________________________________________________________
Layer (type)                    Output Shape         Param #     Connected to                     
==================================================================================================
input_7 (InputLayer)            (None, 4)            0                                            
__________________________________________________________________________________________________
input_8 (InputLayer)            (None, 4)            0                                            
__________________________________________________________________________________________________
embedding_7 (Embedding)         (None, 4, 214)       3278694     input_7[0][0]                    
__________________________________________________________________________________________________
embedding_8 (Embedding)         (None, 4, 18)        3042        input_8[0][0]                    
__________________________________________________________________________________________________
flatten_7 (Flatten)             (None, 856)          0           embedding_7[0][0]                
__________________________________________________________________________________________________
flatten_8 (Flatten)             (None, 72)           0           embedding_8[0][0]                
__________________________________________________________________________________________________
concatenate_4 (Concatenate)     (None, 928)          0           flatten_7[0][0]                  
                                                                 flatten_8[0][0]                  
__________________________________________________________________________________________________
dense_10 (Dense)                (None, 164)          152356      concatenate_4[0][0]              
__________________________________________________________________________________________________
dropout_7 (Dropout)             (None, 164)          0           dense_10[0][0]                   
__________________________________________________________________________________________________
dense_11 (Dense)                (None, 23)           3795        dropout_7[0][0]                  
__________________________________________________________________________________________________
dropout_8 (Dropout)             (None, 23)           0           dense_11[0][0]                   
__________________________________________________________________________________________________
dense_12 (Dense)                (None, 8)            192         dropout_8[0][0]                  
==================================================================================================
Total params: 3,438,079
Trainable params: 3,438,079
Non-trainable params: 0
__________________________________________________________________________________________________
None

__________________________________________________________________________________________________
…
	One occurrence keys in vocabulary 1660 / 15303
	Attention: important lemmas are not in vocbulary	Embedding
==================================================================================================
	Initialisation = None
	Concatenation = False
	Lemma : 214
	POS = 18 
Deep model(Non compositional)
__________________________________________________________________________________________________
Layer (type)                    Output Shape         Param #     Connected to                     
==================================================================================================
input_9 (InputLayer)            (None, 4)            0                                            
__________________________________________________________________________________________________
input_10 (InputLayer)           (None, 4)            0                                            
__________________________________________________________________________________________________
embedding_9 (Embedding)         (None, 4, 214)       3274842     input_9[0][0]                    
__________________________________________________________________________________________________
embedding_10 (Embedding)        (None, 4, 18)        3042        input_10[0][0]                   
__________________________________________________________________________________________________
flatten_9 (Flatten)             (None, 856)          0           embedding_9[0][0]                
__________________________________________________________________________________________________
flatten_10 (Flatten)            (None, 72)           0           embedding_10[0][0]               
__________________________________________________________________________________________________
concatenate_5 (Concatenate)     (None, 928)          0           flatten_9[0][0]                  
                                                                 flatten_10[0][0]                 
__________________________________________________________________________________________________
dense_13 (Dense)                (None, 164)          152356      concatenate_5[0][0]              
__________________________________________________________________________________________________
dropout_9 (Dropout)             (None, 164)          0           dense_13[0][0]                   
__________________________________________________________________________________________________
dense_14 (Dense)                (None, 23)           3795        dropout_9[0][0]                  
__________________________________________________________________________________________________
dropout_10 (Dropout)            (None, 23)           0           dense_14[0][0]                   
__________________________________________________________________________________________________
dense_15 (Dense)                (None, 8)            192         dropout_10[0][0]                 
==================================================================================================
Total params: 3,434,227
Trainable params: 3,434,227
Non-trainable params: 0
__________________________________________________________________________________________________
None

__________________________________________________________________________________________________
…
	One occurrence keys in vocabulary 1660 / 15244
	Attention: important lemmas are not in vocbulary	Embedding
==================================================================================================
	Initialisation = None
	Concatenation = False
	Lemma : 214
	POS = 18 
Deep model(Non compositional)
__________________________________________________________________________________________________
Layer (type)                    Output Shape         Param #     Connected to                     
==================================================================================================
input_11 (InputLayer)           (None, 4)            0                                            
__________________________________________________________________________________________________
input_12 (InputLayer)           (None, 4)            0                                            
__________________________________________________________________________________________________
embedding_11 (Embedding)        (None, 4, 214)       3262216     input_11[0][0]                   
__________________________________________________________________________________________________
embedding_12 (Embedding)        (None, 4, 18)        3042        input_12[0][0]                   
__________________________________________________________________________________________________
flatten_11 (Flatten)            (None, 856)          0           embedding_11[0][0]               
__________________________________________________________________________________________________
flatten_12 (Flatten)            (None, 72)           0           embedding_12[0][0]               
__________________________________________________________________________________________________
concatenate_6 (Concatenate)     (None, 928)          0           flatten_11[0][0]                 
                                                                 flatten_12[0][0]                 
__________________________________________________________________________________________________
dense_16 (Dense)                (None, 164)          152356      concatenate_6[0][0]              
__________________________________________________________________________________________________
dropout_11 (Dropout)            (None, 164)          0           dense_16[0][0]                   
__________________________________________________________________________________________________
dense_17 (Dense)                (None, 23)           3795        dropout_11[0][0]                 
__________________________________________________________________________________________________
dropout_12 (Dropout)            (None, 23)           0           dense_17[0][0]                   
__________________________________________________________________________________________________
dense_18 (Dense)                (None, 8)            192         dropout_12[0][0]                 
==================================================================================================
Total params: 3,421,601
Trainable params: 3,421,601
Non-trainable params: 0
__________________________________________________________________________________________________
None

__________________________________________________________________________________________________
…
	Dashed keys in vocabulary 1979
	One occurrence keys in vocabulary 1979 / 12529
	Embedding
==================================================================================================
	Initialisation = None
	Concatenation = False
	Lemma : 214
	POS = 18 
Deep model(Non compositional)
__________________________________________________________________________________________________
Layer (type)                    Output Shape         Param #     Connected to                     
==================================================================================================
input_13 (InputLayer)           (None, 4)            0                                            
__________________________________________________________________________________________________
input_14 (InputLayer)           (None, 4)            0                                            
__________________________________________________________________________________________________
embedding_13 (Embedding)        (None, 4, 214)       2681206     input_13[0][0]                   
__________________________________________________________________________________________________
embedding_14 (Embedding)        (None, 4, 18)        1980        input_14[0][0]                   
__________________________________________________________________________________________________
flatten_13 (Flatten)            (None, 856)          0           embedding_13[0][0]               
__________________________________________________________________________________________________
flatten_14 (Flatten)            (None, 72)           0           embedding_14[0][0]               
__________________________________________________________________________________________________
concatenate_7 (Concatenate)     (None, 928)          0           flatten_13[0][0]                 
                                                                 flatten_14[0][0]                 
__________________________________________________________________________________________________
dense_19 (Dense)                (None, 164)          152356      concatenate_7[0][0]              
__________________________________________________________________________________________________
dropout_13 (Dropout)            (None, 164)          0           dense_19[0][0]                   
__________________________________________________________________________________________________
dense_20 (Dense)                (None, 23)           3795        dropout_13[0][0]                 
__________________________________________________________________________________________________
dropout_14 (Dropout)            (None, 23)           0           dense_20[0][0]                   
__________________________________________________________________________________________________
dense_21 (Dense)                (None, 8)            192         dropout_14[0][0]                 
==================================================================================================
Total params: 2,839,529
Trainable params: 2,839,529
Non-trainable params: 0
__________________________________________________________________________________________________
None

__________________________________________________________________________________________________
…
	Dashed keys in vocabulary 1979
	One occurrence keys in vocabulary 1979 / 12525
	Embedding
==================================================================================================
	Initialisation = None
	Concatenation = False
	Lemma : 214
	POS = 18 
Deep model(Non compositional)
__________________________________________________________________________________________________
Layer (type)                    Output Shape         Param #     Connected to                     
==================================================================================================
input_15 (InputLayer)           (None, 4)            0                                            
__________________________________________________________________________________________________
input_16 (InputLayer)           (None, 4)            0                                            
__________________________________________________________________________________________________
embedding_15 (Embedding)        (None, 4, 214)       2680350     input_15[0][0]                   
__________________________________________________________________________________________________
embedding_16 (Embedding)        (None, 4, 18)        1980        input_16[0][0]                   
__________________________________________________________________________________________________
flatten_15 (Flatten)            (None, 856)          0           embedding_15[0][0]               
__________________________________________________________________________________________________
flatten_16 (Flatten)            (None, 72)           0           embedding_16[0][0]               
__________________________________________________________________________________________________
concatenate_8 (Concatenate)     (None, 928)          0           flatten_15[0][0]                 
                                                                 flatten_16[0][0]                 
__________________________________________________________________________________________________
dense_22 (Dense)                (None, 164)          152356      concatenate_8[0][0]              
__________________________________________________________________________________________________
dropout_15 (Dropout)            (None, 164)          0           dense_22[0][0]                   
__________________________________________________________________________________________________
dense_23 (Dense)                (None, 23)           3795        dropout_15[0][0]                 
__________________________________________________________________________________________________
dropout_16 (Dropout)            (None, 23)           0           dense_23[0][0]                   
__________________________________________________________________________________________________
dense_24 (Dense)                (None, 8)            192         dropout_16[0][0]                 
==================================================================================================
Total params: 2,838,673
Trainable params: 2,838,673
Non-trainable params: 0
__________________________________________________________________________________________________
None

__________________________________________________________________________________________________
…
	Dashed keys in vocabulary 1979
	One occurrence keys in vocabulary 1979 / 12587
	Embedding
==================================================================================================
	Initialisation = None
	Concatenation = False
	Lemma : 214
	POS = 18 
Deep model(Non compositional)
__________________________________________________________________________________________________
Layer (type)                    Output Shape         Param #     Connected to                     
==================================================================================================
input_17 (InputLayer)           (None, 4)            0                                            
__________________________________________________________________________________________________
input_18 (InputLayer)           (None, 4)            0                                            
__________________________________________________________________________________________________
embedding_17 (Embedding)        (None, 4, 214)       2693618     input_17[0][0]                   
__________________________________________________________________________________________________
embedding_18 (Embedding)        (None, 4, 18)        1980        input_18[0][0]                   
__________________________________________________________________________________________________
flatten_17 (Flatten)            (None, 856)          0           embedding_17[0][0]               
__________________________________________________________________________________________________
flatten_18 (Flatten)            (None, 72)           0           embedding_18[0][0]               
__________________________________________________________________________________________________
concatenate_9 (Concatenate)     (None, 928)          0           flatten_17[0][0]                 
                                                                 flatten_18[0][0]                 
__________________________________________________________________________________________________
dense_25 (Dense)                (None, 164)          152356      concatenate_9[0][0]              
__________________________________________________________________________________________________
dropout_17 (Dropout)            (None, 164)          0           dense_25[0][0]                   
__________________________________________________________________________________________________
dense_26 (Dense)                (None, 23)           3795        dropout_17[0][0]                 
__________________________________________________________________________________________________
dropout_18 (Dropout)            (None, 23)           0           dense_26[0][0]                   
__________________________________________________________________________________________________
dense_27 (Dense)                (None, 8)            192         dropout_18[0][0]                 
==================================================================================================
Total params: 2,851,941
Trainable params: 2,851,941
Non-trainable params: 0
__________________________________________________________________________________________________
None

__________________________________________________________________________________________________
…
	Dashed keys in vocabulary 1622
	One occurrence keys in vocabulary 1622 / 2800
	Embedding
==================================================================================================
	Initialisation = None
	Concatenation = False
	Lemma : 229
	POS = 45 
Deep model(Non compositional)
__________________________________________________________________________________________________
Layer (type)                    Output Shape         Param #     Connected to                     
==================================================================================================
input_19 (InputLayer)           (None, 4)            0                                            
__________________________________________________________________________________________________
input_20 (InputLayer)           (None, 4)            0                                            
__________________________________________________________________________________________________
embedding_19 (Embedding)        (None, 4, 229)       641200      input_19[0][0]                   
__________________________________________________________________________________________________
embedding_20 (Embedding)        (None, 4, 45)        6840        input_20[0][0]                   
__________________________________________________________________________________________________
flatten_19 (Flatten)            (None, 916)          0           embedding_19[0][0]               
__________________________________________________________________________________________________
flatten_20 (Flatten)            (None, 180)          0           embedding_20[0][0]               
__________________________________________________________________________________________________
concatenate_10 (Concatenate)    (None, 1096)         0           flatten_19[0][0]                 
                                                                 flatten_20[0][0]                 
__________________________________________________________________________________________________
dense_28 (Dense)                (None, 25)           27425       concatenate_10[0][0]             
__________________________________________________________________________________________________
dropout_19 (Dropout)            (None, 25)           0           dense_28[0][0]                   
__________________________________________________________________________________________________
dense_29 (Dense)                (None, 20)           520         dropout_19[0][0]                 
__________________________________________________________________________________________________
dropout_20 (Dropout)            (None, 20)           0           dense_29[0][0]                   
__________________________________________________________________________________________________
dense_30 (Dense)                (None, 8)            168         dropout_20[0][0]                 
==================================================================================================
Total params: 676,153
Trainable params: 676,153
Non-trainable params: 0
__________________________________________________________________________________________________
None

__________________________________________________________________________________________________
…
	One occurrence keys in vocabulary 1660 / 2793
	Attention: important lemmas are not in vocbulary	Embedding
==================================================================================================
	Initialisation = None
	Concatenation = False
	Lemma : 229
	POS = 45 
Deep model(Non compositional)
__________________________________________________________________________________________________
Layer (type)                    Output Shape         Param #     Connected to                     
==================================================================================================
input_25 (InputLayer)           (None, 4)            0                                            
__________________________________________________________________________________________________
input_26 (InputLayer)           (None, 4)            0                                            
__________________________________________________________________________________________________
embedding_25 (Embedding)        (None, 4, 229)       639597      input_25[0][0]                   
__________________________________________________________________________________________________
embedding_26 (Embedding)        (None, 4, 45)        7605        input_26[0][0]                   
__________________________________________________________________________________________________
flatten_25 (Flatten)            (None, 916)          0           embedding_25[0][0]               
__________________________________________________________________________________________________
flatten_26 (Flatten)            (None, 180)          0           embedding_26[0][0]               
__________________________________________________________________________________________________
concatenate_13 (Concatenate)    (None, 1096)         0           flatten_25[0][0]                 
                                                                 flatten_26[0][0]                 
__________________________________________________________________________________________________
dense_37 (Dense)                (None, 25)           27425       concatenate_13[0][0]             
__________________________________________________________________________________________________
dropout_25 (Dropout)            (None, 25)           0           dense_37[0][0]                   
__________________________________________________________________________________________________
dense_38 (Dense)                (None, 20)           520         dropout_25[0][0]                 
__________________________________________________________________________________________________
dropout_26 (Dropout)            (None, 20)           0           dense_38[0][0]                   
__________________________________________________________________________________________________
dense_39 (Dense)                (None, 8)            168         dropout_26[0][0]                 
==================================================================================================
Total params: 675,315
Trainable params: 675,315
Non-trainable params: 0
__________________________________________________________________________________________________
None

__________________________________________________________________________________________________
…
	Dashed keys in vocabulary 1979
	One occurrence keys in vocabulary 1979 / 3181
	Embedding
==================================================================================================
	Initialisation = None
	Concatenation = False
	Lemma : 229
	POS = 45 
Deep model(Non compositional)
__________________________________________________________________________________________________
Layer (type)                    Output Shape         Param #     Connected to                     
==================================================================================================
input_31 (InputLayer)           (None, 4)            0                                            
__________________________________________________________________________________________________
input_32 (InputLayer)           (None, 4)            0                                            
__________________________________________________________________________________________________
embedding_31 (Embedding)        (None, 4, 229)       728449      input_31[0][0]                   
__________________________________________________________________________________________________
embedding_32 (Embedding)        (None, 4, 45)        4950        input_32[0][0]                   
__________________________________________________________________________________________________
flatten_31 (Flatten)            (None, 916)          0           embedding_31[0][0]               
__________________________________________________________________________________________________
flatten_32 (Flatten)            (None, 180)          0           embedding_32[0][0]               
__________________________________________________________________________________________________
concatenate_16 (Concatenate)    (None, 1096)         0           flatten_31[0][0]                 
                                                                 flatten_32[0][0]                 
__________________________________________________________________________________________________
dense_46 (Dense)                (None, 25)           27425       concatenate_16[0][0]             
__________________________________________________________________________________________________
dropout_31 (Dropout)            (None, 25)           0           dense_46[0][0]                   
__________________________________________________________________________________________________
dense_47 (Dense)                (None, 20)           520         dropout_31[0][0]                 
__________________________________________________________________________________________________
dropout_32 (Dropout)            (None, 20)           0           dense_47[0][0]                   
__________________________________________________________________________________________________
dense_48 (Dense)                (None, 8)            168         dropout_32[0][0]                 
==================================================================================================
Total params: 761,512
Trainable params: 761,512
Non-trainable params: 0
__________________________________________________________________________________________________
None

__________________________________________________________________________________________________
…
	Dashed keys in vocabulary 1622
	One occurrence keys in vocabulary 1622 / 12174
	Embedding
==================================================================================================
	Initialisation = None
	Concatenation = False
	Lemma : 245
	POS = 42 
Deep model(Non compositional)
__________________________________________________________________________________________________
Layer (type)                    Output Shape         Param #     Connected to                     
==================================================================================================
input_37 (InputLayer)           (None, 4)            0                                            
__________________________________________________________________________________________________
input_38 (InputLayer)           (None, 4)            0                                            
__________________________________________________________________________________________________
embedding_37 (Embedding)        (None, 4, 245)       2982630     input_37[0][0]                   
__________________________________________________________________________________________________
embedding_38 (Embedding)        (None, 4, 42)        6384        input_38[0][0]                   
__________________________________________________________________________________________________
flatten_37 (Flatten)            (None, 980)          0           embedding_37[0][0]               
__________________________________________________________________________________________________
flatten_38 (Flatten)            (None, 168)          0           embedding_38[0][0]               
__________________________________________________________________________________________________
concatenate_19 (Concatenate)    (None, 1148)         0           flatten_37[0][0]                 
                                                                 flatten_38[0][0]                 
__________________________________________________________________________________________________
dense_55 (Dense)                (None, 36)           41364       concatenate_19[0][0]             
__________________________________________________________________________________________________
dropout_37 (Dropout)            (None, 36)           0           dense_55[0][0]                   
__________________________________________________________________________________________________
dense_56 (Dense)                (None, 117)          4329        dropout_37[0][0]                 
__________________________________________________________________________________________________
dropout_38 (Dropout)            (None, 117)          0           dense_56[0][0]                   
__________________________________________________________________________________________________
dense_57 (Dense)                (None, 8)            944         dropout_38[0][0]                 
==================================================================================================
Total params: 3,035,651
Trainable params: 3,035,651
Non-trainable params: 0
__________________________________________________________________________________________________
None

__________________________________________________________________________________________________
…
	Dashed keys in vocabulary 1622
	One occurrence keys in vocabulary 1622 / 12142
	Embedding
==================================================================================================
	Initialisation = None
	Concatenation = False
	Lemma : 245
	POS = 42 
Deep model(Non compositional)
__________________________________________________________________________________________________
Layer (type)                    Output Shape         Param #     Connected to                     
==================================================================================================
input_39 (InputLayer)           (None, 4)            0                                            
__________________________________________________________________________________________________
input_40 (InputLayer)           (None, 4)            0                                            
__________________________________________________________________________________________________
embedding_39 (Embedding)        (None, 4, 245)       2974790     input_39[0][0]                   
__________________________________________________________________________________________________
embedding_40 (Embedding)        (None, 4, 42)        6384        input_40[0][0]                   
__________________________________________________________________________________________________
flatten_39 (Flatten)            (None, 980)          0           embedding_39[0][0]               
__________________________________________________________________________________________________
flatten_40 (Flatten)            (None, 168)          0           embedding_40[0][0]               
__________________________________________________________________________________________________
concatenate_20 (Concatenate)    (None, 1148)         0           flatten_39[0][0]                 
                                                                 flatten_40[0][0]                 
__________________________________________________________________________________________________
dense_58 (Dense)                (None, 36)           41364       concatenate_20[0][0]             
__________________________________________________________________________________________________
dropout_39 (Dropout)            (None, 36)           0           dense_58[0][0]                   
__________________________________________________________________________________________________
dense_59 (Dense)                (None, 117)          4329        dropout_39[0][0]                 
__________________________________________________________________________________________________
dropout_40 (Dropout)            (None, 117)          0           dense_59[0][0]                   
__________________________________________________________________________________________________
dense_60 (Dense)                (None, 8)            944         dropout_40[0][0]                 
==================================================================================================
Total params: 3,027,811
Trainable params: 3,027,811
Non-trainable params: 0
__________________________________________________________________________________________________
None

__________________________________________________________________________________________________
…
	Dashed keys in vocabulary 1622
	One occurrence keys in vocabulary 1622 / 12159
	Embedding
==================================================================================================
	Initialisation = None
	Concatenation = False
	Lemma : 245
	POS = 42 
Deep model(Non compositional)
__________________________________________________________________________________________________
Layer (type)                    Output Shape         Param #     Connected to                     
==================================================================================================
input_41 (InputLayer)           (None, 4)            0                                            
__________________________________________________________________________________________________
input_42 (InputLayer)           (None, 4)            0                                            
__________________________________________________________________________________________________
embedding_41 (Embedding)        (None, 4, 245)       2978955     input_41[0][0]                   
__________________________________________________________________________________________________
embedding_42 (Embedding)        (None, 4, 42)        6384        input_42[0][0]                   
__________________________________________________________________________________________________
flatten_41 (Flatten)            (None, 980)          0           embedding_41[0][0]               
__________________________________________________________________________________________________
flatten_42 (Flatten)            (None, 168)          0           embedding_42[0][0]               
__________________________________________________________________________________________________
concatenate_21 (Concatenate)    (None, 1148)         0           flatten_41[0][0]                 
                                                                 flatten_42[0][0]                 
__________________________________________________________________________________________________
dense_61 (Dense)                (None, 36)           41364       concatenate_21[0][0]             
__________________________________________________________________________________________________
dropout_41 (Dropout)            (None, 36)           0           dense_61[0][0]                   
__________________________________________________________________________________________________
dense_62 (Dense)                (None, 117)          4329        dropout_41[0][0]                 
__________________________________________________________________________________________________
dropout_42 (Dropout)            (None, 117)          0           dense_62[0][0]                   
__________________________________________________________________________________________________
dense_63 (Dense)                (None, 8)            944         dropout_42[0][0]                 
==================================================================================================
Total params: 3,031,976
Trainable params: 3,031,976
Non-trainable params: 0
__________________________________________________________________________________________________
None

__________________________________________________________________________________________________
…
	One occurrence keys in vocabulary 1660 / 15321
	Attention: important lemmas are not in vocbulary	Embedding
==================================================================================================
	Initialisation = None
	Concatenation = False
	Lemma : 245
	POS = 42 
Deep model(Non compositional)
__________________________________________________________________________________________________
Layer (type)                    Output Shape         Param #     Connected to                     
==================================================================================================
input_43 (InputLayer)           (None, 4)            0                                            
__________________________________________________________________________________________________
input_44 (InputLayer)           (None, 4)            0                                            
__________________________________________________________________________________________________
embedding_43 (Embedding)        (None, 4, 245)       3753645     input_43[0][0]                   
__________________________________________________________________________________________________
embedding_44 (Embedding)        (None, 4, 42)        7098        input_44[0][0]                   
__________________________________________________________________________________________________
flatten_43 (Flatten)            (None, 980)          0           embedding_43[0][0]               
__________________________________________________________________________________________________
flatten_44 (Flatten)            (None, 168)          0           embedding_44[0][0]               
__________________________________________________________________________________________________
concatenate_22 (Concatenate)    (None, 1148)         0           flatten_43[0][0]                 
                                                                 flatten_44[0][0]                 
__________________________________________________________________________________________________
dense_64 (Dense)                (None, 36)           41364       concatenate_22[0][0]             
__________________________________________________________________________________________________
dropout_43 (Dropout)            (None, 36)           0           dense_64[0][0]                   
__________________________________________________________________________________________________
dense_65 (Dense)                (None, 117)          4329        dropout_43[0][0]                 
__________________________________________________________________________________________________
dropout_44 (Dropout)            (None, 117)          0           dense_65[0][0]                   
__________________________________________________________________________________________________
dense_66 (Dense)                (None, 8)            944         dropout_44[0][0]                 
==================================================================================================
Total params: 3,807,380
Trainable params: 3,807,380
Non-trainable params: 0
__________________________________________________________________________________________________
None

__________________________________________________________________________________________________
…
	One occurrence keys in vocabulary 1660 / 15303
	Attention: important lemmas are not in vocbulary	Embedding
==================================================================================================
	Initialisation = None
	Concatenation = False
	Lemma : 245
	POS = 42 
Deep model(Non compositional)
__________________________________________________________________________________________________
Layer (type)                    Output Shape         Param #     Connected to                     
==================================================================================================
input_45 (InputLayer)           (None, 4)            0                                            
__________________________________________________________________________________________________
input_46 (InputLayer)           (None, 4)            0                                            
__________________________________________________________________________________________________
embedding_45 (Embedding)        (None, 4, 245)       3749235     input_45[0][0]                   
__________________________________________________________________________________________________
embedding_46 (Embedding)        (None, 4, 42)        7098        input_46[0][0]                   
__________________________________________________________________________________________________
flatten_45 (Flatten)            (None, 980)          0           embedding_45[0][0]               
__________________________________________________________________________________________________
flatten_46 (Flatten)            (None, 168)          0           embedding_46[0][0]               
__________________________________________________________________________________________________
concatenate_23 (Concatenate)    (None, 1148)         0           flatten_45[0][0]                 
                                                                 flatten_46[0][0]                 
__________________________________________________________________________________________________
dense_67 (Dense)                (None, 36)           41364       concatenate_23[0][0]             
__________________________________________________________________________________________________
dropout_45 (Dropout)            (None, 36)           0           dense_67[0][0]                   
__________________________________________________________________________________________________
dense_68 (Dense)                (None, 117)          4329        dropout_45[0][0]                 
__________________________________________________________________________________________________
dropout_46 (Dropout)            (None, 117)          0           dense_68[0][0]                   
__________________________________________________________________________________________________
dense_69 (Dense)                (None, 8)            944         dropout_46[0][0]                 
==================================================================================================
Total params: 3,802,970
Trainable params: 3,802,970
Non-trainable params: 0
__________________________________________________________________________________________________
None

__________________________________________________________________________________________________
…
	One occurrence keys in vocabulary 1660 / 15244
	Attention: important lemmas are not in vocbulary	Embedding
==================================================================================================
	Initialisation = None
	Concatenation = False
	Lemma : 245
	POS = 42 
Deep model(Non compositional)
__________________________________________________________________________________________________
Layer (type)                    Output Shape         Param #     Connected to                     
==================================================================================================
input_47 (InputLayer)           (None, 4)            0                                            
__________________________________________________________________________________________________
input_48 (InputLayer)           (None, 4)            0                                            
__________________________________________________________________________________________________
embedding_47 (Embedding)        (None, 4, 245)       3734780     input_47[0][0]                   
__________________________________________________________________________________________________
embedding_48 (Embedding)        (None, 4, 42)        7098        input_48[0][0]                   
__________________________________________________________________________________________________
flatten_47 (Flatten)            (None, 980)          0           embedding_47[0][0]               
__________________________________________________________________________________________________
flatten_48 (Flatten)            (None, 168)          0           embedding_48[0][0]               
__________________________________________________________________________________________________
concatenate_24 (Concatenate)    (None, 1148)         0           flatten_47[0][0]                 
                                                                 flatten_48[0][0]                 
__________________________________________________________________________________________________
dense_70 (Dense)                (None, 36)           41364       concatenate_24[0][0]             
__________________________________________________________________________________________________
dropout_47 (Dropout)            (None, 36)           0           dense_70[0][0]                   
__________________________________________________________________________________________________
dense_71 (Dense)                (None, 117)          4329        dropout_47[0][0]                 
__________________________________________________________________________________________________
dropout_48 (Dropout)            (None, 117)          0           dense_71[0][0]                   
__________________________________________________________________________________________________
dense_72 (Dense)                (None, 8)            944         dropout_48[0][0]                 
==================================================================================================
Total params: 3,788,515
Trainable params: 3,788,515
Non-trainable params: 0
__________________________________________________________________________________________________
None

__________________________________________________________________________________________________
…
	Dashed keys in vocabulary 1979
	One occurrence keys in vocabulary 1979 / 12529
	Embedding
==================================================================================================
	Initialisation = None
	Concatenation = False
	Lemma : 245
	POS = 42 
Deep model(Non compositional)
__________________________________________________________________________________________________
Layer (type)                    Output Shape         Param #     Connected to                     
==================================================================================================
input_49 (InputLayer)           (None, 4)            0                                            
__________________________________________________________________________________________________
input_50 (InputLayer)           (None, 4)            0                                            
__________________________________________________________________________________________________
embedding_49 (Embedding)        (None, 4, 245)       3069605     input_49[0][0]                   
__________________________________________________________________________________________________
embedding_50 (Embedding)        (None, 4, 42)        4620        input_50[0][0]                   
__________________________________________________________________________________________________
flatten_49 (Flatten)            (None, 980)          0           embedding_49[0][0]               
__________________________________________________________________________________________________
flatten_50 (Flatten)            (None, 168)          0           embedding_50[0][0]               
__________________________________________________________________________________________________
concatenate_25 (Concatenate)    (None, 1148)         0           flatten_49[0][0]                 
                                                                 flatten_50[0][0]                 
__________________________________________________________________________________________________
dense_73 (Dense)                (None, 36)           41364       concatenate_25[0][0]             
__________________________________________________________________________________________________
dropout_49 (Dropout)            (None, 36)           0           dense_73[0][0]                   
__________________________________________________________________________________________________
dense_74 (Dense)                (None, 117)          4329        dropout_49[0][0]                 
__________________________________________________________________________________________________
dropout_50 (Dropout)            (None, 117)          0           dense_74[0][0]                   
__________________________________________________________________________________________________
dense_75 (Dense)                (None, 8)            944         dropout_50[0][0]                 
==================================================================================================
Total params: 3,120,862
Trainable params: 3,120,862
Non-trainable params: 0
__________________________________________________________________________________________________
None

__________________________________________________________________________________________________
…
	Dashed keys in vocabulary 1979
	One occurrence keys in vocabulary 1979 / 12525
	Embedding
==================================================================================================
	Initialisation = None
	Concatenation = False
	Lemma : 245
	POS = 42 
Deep model(Non compositional)
__________________________________________________________________________________________________
Layer (type)                    Output Shape         Param #     Connected to                     
==================================================================================================
input_51 (InputLayer)           (None, 4)            0                                            
__________________________________________________________________________________________________
input_52 (InputLayer)           (None, 4)            0                                            
__________________________________________________________________________________________________
embedding_51 (Embedding)        (None, 4, 245)       3068625     input_51[0][0]                   
__________________________________________________________________________________________________
embedding_52 (Embedding)        (None, 4, 42)        4620        input_52[0][0]                   
__________________________________________________________________________________________________
flatten_51 (Flatten)            (None, 980)          0           embedding_51[0][0]               
__________________________________________________________________________________________________
flatten_52 (Flatten)            (None, 168)          0           embedding_52[0][0]               
__________________________________________________________________________________________________
concatenate_26 (Concatenate)    (None, 1148)         0           flatten_51[0][0]                 
                                                                 flatten_52[0][0]                 
__________________________________________________________________________________________________
dense_76 (Dense)                (None, 36)           41364       concatenate_26[0][0]             
__________________________________________________________________________________________________
dropout_51 (Dropout)            (None, 36)           0           dense_76[0][0]                   
__________________________________________________________________________________________________
dense_77 (Dense)                (None, 117)          4329        dropout_51[0][0]                 
__________________________________________________________________________________________________
dropout_52 (Dropout)            (None, 117)          0           dense_77[0][0]                   
__________________________________________________________________________________________________
dense_78 (Dense)                (None, 8)            944         dropout_52[0][0]                 
==================================================================================================
Total params: 3,119,882
Trainable params: 3,119,882
Non-trainable params: 0
__________________________________________________________________________________________________
None

__________________________________________________________________________________________________
…
	Dashed keys in vocabulary 1979
	One occurrence keys in vocabulary 1979 / 12587
	Embedding
==================================================================================================
	Initialisation = None
	Concatenation = False
	Lemma : 245
	POS = 42 
Deep model(Non compositional)
__________________________________________________________________________________________________
Layer (type)                    Output Shape         Param #     Connected to                     
==================================================================================================
input_53 (InputLayer)           (None, 4)            0                                            
__________________________________________________________________________________________________
input_54 (InputLayer)           (None, 4)            0                                            
__________________________________________________________________________________________________
embedding_53 (Embedding)        (None, 4, 245)       3083815     input_53[0][0]                   
__________________________________________________________________________________________________
embedding_54 (Embedding)        (None, 4, 42)        4620        input_54[0][0]                   
__________________________________________________________________________________________________
flatten_53 (Flatten)            (None, 980)          0           embedding_53[0][0]               
__________________________________________________________________________________________________
flatten_54 (Flatten)            (None, 168)          0           embedding_54[0][0]               
__________________________________________________________________________________________________
concatenate_27 (Concatenate)    (None, 1148)         0           flatten_53[0][0]                 
                                                                 flatten_54[0][0]                 
__________________________________________________________________________________________________
dense_79 (Dense)                (None, 36)           41364       concatenate_27[0][0]             
__________________________________________________________________________________________________
dropout_53 (Dropout)            (None, 36)           0           dense_79[0][0]                   
__________________________________________________________________________________________________
dense_80 (Dense)                (None, 117)          4329        dropout_53[0][0]                 
__________________________________________________________________________________________________
dropout_54 (Dropout)            (None, 117)          0           dense_80[0][0]                   
__________________________________________________________________________________________________
dense_81 (Dense)                (None, 8)            944         dropout_54[0][0]                 
==================================================================================================
Total params: 3,135,072
Trainable params: 3,135,072
Non-trainable params: 0
__________________________________________________________________________________________________
None

__________________________________________________________________________________________________
…
	Dashed keys in vocabulary 1622
	One occurrence keys in vocabulary 1622 / 12174
	Embedding
==================================================================================================
	Initialisation = None
	Concatenation = False
	Lemma : 239
	POS = 22 
Deep model(Non compositional)
__________________________________________________________________________________________________
Layer (type)                    Output Shape         Param #     Connected to                     
==================================================================================================
input_55 (InputLayer)           (None, 4)            0                                            
__________________________________________________________________________________________________
input_56 (InputLayer)           (None, 4)            0                                            
__________________________________________________________________________________________________
embedding_55 (Embedding)        (None, 4, 239)       2909586     input_55[0][0]                   
__________________________________________________________________________________________________
embedding_56 (Embedding)        (None, 4, 22)        3344        input_56[0][0]                   
__________________________________________________________________________________________________
flatten_55 (Flatten)            (None, 956)          0           embedding_55[0][0]               
__________________________________________________________________________________________________
flatten_56 (Flatten)            (None, 88)           0           embedding_56[0][0]               
__________________________________________________________________________________________________
concatenate_28 (Concatenate)    (None, 1044)         0           flatten_55[0][0]                 
                                                                 flatten_56[0][0]                 
__________________________________________________________________________________________________
dense_82 (Dense)                (None, 11)           11495       concatenate_28[0][0]             
__________________________________________________________________________________________________
dropout_55 (Dropout)            (None, 11)           0           dense_82[0][0]                   
__________________________________________________________________________________________________
dense_83 (Dense)                (None, 25)           300         dropout_55[0][0]                 
__________________________________________________________________________________________________
dropout_56 (Dropout)            (None, 25)           0           dense_83[0][0]                   
__________________________________________________________________________________________________
dense_84 (Dense)                (None, 8)            208         dropout_56[0][0]                 
==================================================================================================
Total params: 2,924,933
Trainable params: 2,924,933
Non-trainable params: 0
__________________________________________________________________________________________________
None

__________________________________________________________________________________________________
…
	Dashed keys in vocabulary 1622
	One occurrence keys in vocabulary 1622 / 12142
	Embedding
==================================================================================================
	Initialisation = None
	Concatenation = False
	Lemma : 239
	POS = 22 
Deep model(Non compositional)
__________________________________________________________________________________________________
Layer (type)                    Output Shape         Param #     Connected to                     
==================================================================================================
input_57 (InputLayer)           (None, 4)            0                                            
__________________________________________________________________________________________________
input_58 (InputLayer)           (None, 4)            0                                            
__________________________________________________________________________________________________
embedding_57 (Embedding)        (None, 4, 239)       2901938     input_57[0][0]                   
__________________________________________________________________________________________________
embedding_58 (Embedding)        (None, 4, 22)        3344        input_58[0][0]                   
__________________________________________________________________________________________________
flatten_57 (Flatten)            (None, 956)          0           embedding_57[0][0]               
__________________________________________________________________________________________________
flatten_58 (Flatten)            (None, 88)           0           embedding_58[0][0]               
__________________________________________________________________________________________________
concatenate_29 (Concatenate)    (None, 1044)         0           flatten_57[0][0]                 
                                                                 flatten_58[0][0]                 
__________________________________________________________________________________________________
dense_85 (Dense)                (None, 11)           11495       concatenate_29[0][0]             
__________________________________________________________________________________________________
dropout_57 (Dropout)            (None, 11)           0           dense_85[0][0]                   
__________________________________________________________________________________________________
dense_86 (Dense)                (None, 25)           300         dropout_57[0][0]                 
__________________________________________________________________________________________________
dropout_58 (Dropout)            (None, 25)           0           dense_86[0][0]                   
__________________________________________________________________________________________________
dense_87 (Dense)                (None, 8)            208         dropout_58[0][0]                 
==================================================================================================
Total params: 2,917,285
Trainable params: 2,917,285
Non-trainable params: 0
__________________________________________________________________________________________________
None

__________________________________________________________________________________________________
…
	Dashed keys in vocabulary 1622
	One occurrence keys in vocabulary 1622 / 12159
	Embedding
==================================================================================================
	Initialisation = None
	Concatenation = False
	Lemma : 239
	POS = 22 
Deep model(Non compositional)
__________________________________________________________________________________________________
Layer (type)                    Output Shape         Param #     Connected to                     
==================================================================================================
input_59 (InputLayer)           (None, 4)            0                                            
__________________________________________________________________________________________________
input_60 (InputLayer)           (None, 4)            0                                            
__________________________________________________________________________________________________
embedding_59 (Embedding)        (None, 4, 239)       2906001     input_59[0][0]                   
__________________________________________________________________________________________________
embedding_60 (Embedding)        (None, 4, 22)        3344        input_60[0][0]                   
__________________________________________________________________________________________________
flatten_59 (Flatten)            (None, 956)          0           embedding_59[0][0]               
__________________________________________________________________________________________________
flatten_60 (Flatten)            (None, 88)           0           embedding_60[0][0]               
__________________________________________________________________________________________________
concatenate_30 (Concatenate)    (None, 1044)         0           flatten_59[0][0]                 
                                                                 flatten_60[0][0]                 
__________________________________________________________________________________________________
dense_88 (Dense)                (None, 11)           11495       concatenate_30[0][0]             
__________________________________________________________________________________________________
dropout_59 (Dropout)            (None, 11)           0           dense_88[0][0]                   
__________________________________________________________________________________________________
dense_89 (Dense)                (None, 25)           300         dropout_59[0][0]                 
__________________________________________________________________________________________________
dropout_60 (Dropout)            (None, 25)           0           dense_89[0][0]                   
__________________________________________________________________________________________________
dense_90 (Dense)                (None, 8)            208         dropout_60[0][0]                 
==================================================================================================
Total params: 2,921,348
Trainable params: 2,921,348
Non-trainable params: 0
__________________________________________________________________________________________________
None

__________________________________________________________________________________________________
…
	One occurrence keys in vocabulary 1660 / 15321
	Attention: important lemmas are not in vocbulary	Embedding
==================================================================================================
	Initialisation = None
	Concatenation = False
	Lemma : 239
	POS = 22 
Deep model(Non compositional)
__________________________________________________________________________________________________
Layer (type)                    Output Shape         Param #     Connected to                     
==================================================================================================
input_61 (InputLayer)           (None, 4)            0                                            
__________________________________________________________________________________________________
input_62 (InputLayer)           (None, 4)            0                                            
__________________________________________________________________________________________________
embedding_61 (Embedding)        (None, 4, 239)       3661719     input_61[0][0]                   
__________________________________________________________________________________________________
embedding_62 (Embedding)        (None, 4, 22)        3718        input_62[0][0]                   
__________________________________________________________________________________________________
flatten_61 (Flatten)            (None, 956)          0           embedding_61[0][0]               
__________________________________________________________________________________________________
flatten_62 (Flatten)            (None, 88)           0           embedding_62[0][0]               
__________________________________________________________________________________________________
concatenate_31 (Concatenate)    (None, 1044)         0           flatten_61[0][0]                 
                                                                 flatten_62[0][0]                 
__________________________________________________________________________________________________
dense_91 (Dense)                (None, 11)           11495       concatenate_31[0][0]             
__________________________________________________________________________________________________
dropout_61 (Dropout)            (None, 11)           0           dense_91[0][0]                   
__________________________________________________________________________________________________
dense_92 (Dense)                (None, 25)           300         dropout_61[0][0]                 
__________________________________________________________________________________________________
dropout_62 (Dropout)            (None, 25)           0           dense_92[0][0]                   
__________________________________________________________________________________________________
dense_93 (Dense)                (None, 8)            208         dropout_62[0][0]                 
==================================================================================================
Total params: 3,677,440
Trainable params: 3,677,440
Non-trainable params: 0
__________________________________________________________________________________________________
None

__________________________________________________________________________________________________
…
	One occurrence keys in vocabulary 1660 / 15303
	Attention: important lemmas are not in vocbulary	Embedding
==================================================================================================
	Initialisation = None
	Concatenation = False
	Lemma : 239
	POS = 22 
Deep model(Non compositional)
__________________________________________________________________________________________________
Layer (type)                    Output Shape         Param #     Connected to                     
==================================================================================================
input_63 (InputLayer)           (None, 4)            0                                            
__________________________________________________________________________________________________
input_64 (InputLayer)           (None, 4)            0                                            
__________________________________________________________________________________________________
embedding_63 (Embedding)        (None, 4, 239)       3657417     input_63[0][0]                   
__________________________________________________________________________________________________
embedding_64 (Embedding)        (None, 4, 22)        3718        input_64[0][0]                   
__________________________________________________________________________________________________
flatten_63 (Flatten)            (None, 956)          0           embedding_63[0][0]               
__________________________________________________________________________________________________
flatten_64 (Flatten)            (None, 88)           0           embedding_64[0][0]               
__________________________________________________________________________________________________
concatenate_32 (Concatenate)    (None, 1044)         0           flatten_63[0][0]                 
                                                                 flatten_64[0][0]                 
__________________________________________________________________________________________________
dense_94 (Dense)                (None, 11)           11495       concatenate_32[0][0]             
__________________________________________________________________________________________________
dropout_63 (Dropout)            (None, 11)           0           dense_94[0][0]                   
__________________________________________________________________________________________________
dense_95 (Dense)                (None, 25)           300         dropout_63[0][0]                 
__________________________________________________________________________________________________
dropout_64 (Dropout)            (None, 25)           0           dense_95[0][0]                   
__________________________________________________________________________________________________
dense_96 (Dense)                (None, 8)            208         dropout_64[0][0]                 
==================================================================================================
Total params: 3,673,138
Trainable params: 3,673,138
Non-trainable params: 0
__________________________________________________________________________________________________
None

__________________________________________________________________________________________________
…
	One occurrence keys in vocabulary 1660 / 15244
	Attention: important lemmas are not in vocbulary	Embedding
==================================================================================================
	Initialisation = None
	Concatenation = False
	Lemma : 239
	POS = 22 
Deep model(Non compositional)
__________________________________________________________________________________________________
Layer (type)                    Output Shape         Param #     Connected to                     
==================================================================================================
input_65 (InputLayer)           (None, 4)            0                                            
__________________________________________________________________________________________________
input_66 (InputLayer)           (None, 4)            0                                            
__________________________________________________________________________________________________
embedding_65 (Embedding)        (None, 4, 239)       3643316     input_65[0][0]                   
__________________________________________________________________________________________________
embedding_66 (Embedding)        (None, 4, 22)        3718        input_66[0][0]                   
__________________________________________________________________________________________________
flatten_65 (Flatten)            (None, 956)          0           embedding_65[0][0]               
__________________________________________________________________________________________________
flatten_66 (Flatten)            (None, 88)           0           embedding_66[0][0]               
__________________________________________________________________________________________________
concatenate_33 (Concatenate)    (None, 1044)         0           flatten_65[0][0]                 
                                                                 flatten_66[0][0]                 
__________________________________________________________________________________________________
dense_97 (Dense)                (None, 11)           11495       concatenate_33[0][0]             
__________________________________________________________________________________________________
dropout_65 (Dropout)            (None, 11)           0           dense_97[0][0]                   
__________________________________________________________________________________________________
dense_98 (Dense)                (None, 25)           300         dropout_65[0][0]                 
__________________________________________________________________________________________________
dropout_66 (Dropout)            (None, 25)           0           dense_98[0][0]                   
__________________________________________________________________________________________________
dense_99 (Dense)                (None, 8)            208         dropout_66[0][0]                 
==================================================================================================
Total params: 3,659,037
Trainable params: 3,659,037
Non-trainable params: 0
__________________________________________________________________________________________________
None

__________________________________________________________________________________________________
…
	Dashed keys in vocabulary 1979
	One occurrence keys in vocabulary 1979 / 12529
	Embedding
==================================================================================================
	Initialisation = None
	Concatenation = False
	Lemma : 239
	POS = 22 
Deep model(Non compositional)
__________________________________________________________________________________________________
Layer (type)                    Output Shape         Param #     Connected to                     
==================================================================================================
input_67 (InputLayer)           (None, 4)            0                                            
__________________________________________________________________________________________________
input_68 (InputLayer)           (None, 4)            0                                            
__________________________________________________________________________________________________
embedding_67 (Embedding)        (None, 4, 239)       2994431     input_67[0][0]                   
__________________________________________________________________________________________________
embedding_68 (Embedding)        (None, 4, 22)        2420        input_68[0][0]                   
__________________________________________________________________________________________________
flatten_67 (Flatten)            (None, 956)          0           embedding_67[0][0]               
__________________________________________________________________________________________________
flatten_68 (Flatten)            (None, 88)           0           embedding_68[0][0]               
__________________________________________________________________________________________________
concatenate_34 (Concatenate)    (None, 1044)         0           flatten_67[0][0]                 
                                                                 flatten_68[0][0]                 
__________________________________________________________________________________________________
dense_100 (Dense)               (None, 11)           11495       concatenate_34[0][0]             
__________________________________________________________________________________________________
dropout_67 (Dropout)            (None, 11)           0           dense_100[0][0]                  
__________________________________________________________________________________________________
dense_101 (Dense)               (None, 25)           300         dropout_67[0][0]                 
__________________________________________________________________________________________________
dropout_68 (Dropout)            (None, 25)           0           dense_101[0][0]                  
__________________________________________________________________________________________________
dense_102 (Dense)               (None, 8)            208         dropout_68[0][0]                 
==================================================================================================
Total params: 3,008,854
Trainable params: 3,008,854
Non-trainable params: 0
__________________________________________________________________________________________________
None

__________________________________________________________________________________________________
…
	Dashed keys in vocabulary 1979
	One occurrence keys in vocabulary 1979 / 12525
	Embedding
==================================================================================================
	Initialisation = None
	Concatenation = False
	Lemma : 239
	POS = 22 
Deep model(Non compositional)
__________________________________________________________________________________________________
Layer (type)                    Output Shape         Param #     Connected to                     
==================================================================================================
input_69 (InputLayer)           (None, 4)            0                                            
__________________________________________________________________________________________________
input_70 (InputLayer)           (None, 4)            0                                            
__________________________________________________________________________________________________
embedding_69 (Embedding)        (None, 4, 239)       2993475     input_69[0][0]                   
__________________________________________________________________________________________________
embedding_70 (Embedding)        (None, 4, 22)        2420        input_70[0][0]                   
__________________________________________________________________________________________________
flatten_69 (Flatten)            (None, 956)          0           embedding_69[0][0]               
__________________________________________________________________________________________________
flatten_70 (Flatten)            (None, 88)           0           embedding_70[0][0]               
__________________________________________________________________________________________________
concatenate_35 (Concatenate)    (None, 1044)         0           flatten_69[0][0]                 
                                                                 flatten_70[0][0]                 
__________________________________________________________________________________________________
dense_103 (Dense)               (None, 11)           11495       concatenate_35[0][0]             
__________________________________________________________________________________________________
dropout_69 (Dropout)            (None, 11)           0           dense_103[0][0]                  
__________________________________________________________________________________________________
dense_104 (Dense)               (None, 25)           300         dropout_69[0][0]                 
__________________________________________________________________________________________________
dropout_70 (Dropout)            (None, 25)           0           dense_104[0][0]                  
__________________________________________________________________________________________________
dense_105 (Dense)               (None, 8)            208         dropout_70[0][0]                 
==================================================================================================
Total params: 3,007,898
Trainable params: 3,007,898
Non-trainable params: 0
__________________________________________________________________________________________________
None

__________________________________________________________________________________________________
…
	Dashed keys in vocabulary 1979
	One occurrence keys in vocabulary 1979 / 12587
	Embedding
==================================================================================================
	Initialisation = None
	Concatenation = False
	Lemma : 239
	POS = 22 
Deep model(Non compositional)
__________________________________________________________________________________________________
Layer (type)                    Output Shape         Param #     Connected to                     
==================================================================================================
input_71 (InputLayer)           (None, 4)            0                                            
__________________________________________________________________________________________________
input_72 (InputLayer)           (None, 4)            0                                            
__________________________________________________________________________________________________
embedding_71 (Embedding)        (None, 4, 239)       3008293     input_71[0][0]                   
__________________________________________________________________________________________________
embedding_72 (Embedding)        (None, 4, 22)        2420        input_72[0][0]                   
__________________________________________________________________________________________________
flatten_71 (Flatten)            (None, 956)          0           embedding_71[0][0]               
__________________________________________________________________________________________________
flatten_72 (Flatten)            (None, 88)           0           embedding_72[0][0]               
__________________________________________________________________________________________________
concatenate_36 (Concatenate)    (None, 1044)         0           flatten_71[0][0]                 
                                                                 flatten_72[0][0]                 
__________________________________________________________________________________________________
dense_106 (Dense)               (None, 11)           11495       concatenate_36[0][0]             
__________________________________________________________________________________________________
dropout_71 (Dropout)            (None, 11)           0           dense_106[0][0]                  
__________________________________________________________________________________________________
dense_107 (Dense)               (None, 25)           300         dropout_71[0][0]                 
__________________________________________________________________________________________________
dropout_72 (Dropout)            (None, 25)           0           dense_107[0][0]                  
__________________________________________________________________________________________________
dense_108 (Dense)               (None, 8)            208         dropout_72[0][0]                 
==================================================================================================
Total params: 3,022,716
Trainable params: 3,022,716
Non-trainable params: 0
__________________________________________________________________________________________________
None

__________________________________________________________________________________________________
…
	Dashed keys in vocabulary 1622
	One occurrence keys in vocabulary 1622 / 12174
	Embedding
==================================================================================================
	Initialisation = None
	Concatenation = False
	Lemma : 169
	POS = 47 
Deep model(Non compositional)
__________________________________________________________________________________________________
Layer (type)                    Output Shape         Param #     Connected to                     
==================================================================================================
input_73 (InputLayer)           (None, 4)            0                                            
__________________________________________________________________________________________________
input_74 (InputLayer)           (None, 4)            0                                            
__________________________________________________________________________________________________
embedding_73 (Embedding)        (None, 4, 169)       2057406     input_73[0][0]                   
__________________________________________________________________________________________________
embedding_74 (Embedding)        (None, 4, 47)        7144        input_74[0][0]                   
__________________________________________________________________________________________________
flatten_73 (Flatten)            (None, 676)          0           embedding_73[0][0]               
__________________________________________________________________________________________________
flatten_74 (Flatten)            (None, 188)          0           embedding_74[0][0]               
__________________________________________________________________________________________________
concatenate_37 (Concatenate)    (None, 864)          0           flatten_73[0][0]                 
                                                                 flatten_74[0][0]                 
__________________________________________________________________________________________________
dense_109 (Dense)               (None, 39)           33735       concatenate_37[0][0]             
__________________________________________________________________________________________________
dropout_73 (Dropout)            (None, 39)           0           dense_109[0][0]                  
__________________________________________________________________________________________________
dense_110 (Dense)               (None, 68)           2720        dropout_73[0][0]                 
__________________________________________________________________________________________________
dropout_74 (Dropout)            (None, 68)           0           dense_110[0][0]                  
__________________________________________________________________________________________________
dense_111 (Dense)               (None, 8)            552         dropout_74[0][0]                 
==================================================================================================
Total params: 2,101,557
Trainable params: 2,101,557
Non-trainable params: 0
__________________________________________________________________________________________________
None

__________________________________________________________________________________________________
…
	Dashed keys in vocabulary 1622
	One occurrence keys in vocabulary 1622 / 12142
	Embedding
==================================================================================================
	Initialisation = None
	Concatenation = False
	Lemma : 169
	POS = 47 
Deep model(Non compositional)
__________________________________________________________________________________________________
Layer (type)                    Output Shape         Param #     Connected to                     
==================================================================================================
input_75 (InputLayer)           (None, 4)            0                                            
__________________________________________________________________________________________________
input_76 (InputLayer)           (None, 4)            0                                            
__________________________________________________________________________________________________
embedding_75 (Embedding)        (None, 4, 169)       2051998     input_75[0][0]                   
__________________________________________________________________________________________________
embedding_76 (Embedding)        (None, 4, 47)        7144        input_76[0][0]                   
__________________________________________________________________________________________________
flatten_75 (Flatten)            (None, 676)          0           embedding_75[0][0]               
__________________________________________________________________________________________________
flatten_76 (Flatten)            (None, 188)          0           embedding_76[0][0]               
__________________________________________________________________________________________________
concatenate_38 (Concatenate)    (None, 864)          0           flatten_75[0][0]                 
                                                                 flatten_76[0][0]                 
__________________________________________________________________________________________________
dense_112 (Dense)               (None, 39)           33735       concatenate_38[0][0]             
__________________________________________________________________________________________________
dropout_75 (Dropout)            (None, 39)           0           dense_112[0][0]                  
__________________________________________________________________________________________________
dense_113 (Dense)               (None, 68)           2720        dropout_75[0][0]                 
__________________________________________________________________________________________________
dropout_76 (Dropout)            (None, 68)           0           dense_113[0][0]                  
__________________________________________________________________________________________________
dense_114 (Dense)               (None, 8)            552         dropout_76[0][0]                 
==================================================================================================
Total params: 2,096,149
Trainable params: 2,096,149
Non-trainable params: 0
__________________________________________________________________________________________________
None

__________________________________________________________________________________________________
…
	Dashed keys in vocabulary 1622
	One occurrence keys in vocabulary 1622 / 12159
	Embedding
==================================================================================================
	Initialisation = None
	Concatenation = False
	Lemma : 169
	POS = 47 
Deep model(Non compositional)
__________________________________________________________________________________________________
Layer (type)                    Output Shape         Param #     Connected to                     
==================================================================================================
input_77 (InputLayer)           (None, 4)            0                                            
__________________________________________________________________________________________________
input_78 (InputLayer)           (None, 4)            0                                            
__________________________________________________________________________________________________
embedding_77 (Embedding)        (None, 4, 169)       2054871     input_77[0][0]                   
__________________________________________________________________________________________________
embedding_78 (Embedding)        (None, 4, 47)        7144        input_78[0][0]                   
__________________________________________________________________________________________________
flatten_77 (Flatten)            (None, 676)          0           embedding_77[0][0]               
__________________________________________________________________________________________________
flatten_78 (Flatten)            (None, 188)          0           embedding_78[0][0]               
__________________________________________________________________________________________________
concatenate_39 (Concatenate)    (None, 864)          0           flatten_77[0][0]                 
                                                                 flatten_78[0][0]                 
__________________________________________________________________________________________________
dense_115 (Dense)               (None, 39)           33735       concatenate_39[0][0]             
__________________________________________________________________________________________________
dropout_77 (Dropout)            (None, 39)           0           dense_115[0][0]                  
__________________________________________________________________________________________________
dense_116 (Dense)               (None, 68)           2720        dropout_77[0][0]                 
__________________________________________________________________________________________________
dropout_78 (Dropout)            (None, 68)           0           dense_116[0][0]                  
__________________________________________________________________________________________________
dense_117 (Dense)               (None, 8)            552         dropout_78[0][0]                 
==================================================================================================
Total params: 2,099,022
Trainable params: 2,099,022
Non-trainable params: 0
__________________________________________________________________________________________________
None

__________________________________________________________________________________________________
…
	One occurrence keys in vocabulary 1660 / 15321
	Attention: important lemmas are not in vocbulary	Embedding
==================================================================================================
	Initialisation = None
	Concatenation = False
	Lemma : 169
	POS = 47 
Deep model(Non compositional)
__________________________________________________________________________________________________
Layer (type)                    Output Shape         Param #     Connected to                     
==================================================================================================
input_79 (InputLayer)           (None, 4)            0                                            
__________________________________________________________________________________________________
input_80 (InputLayer)           (None, 4)            0                                            
__________________________________________________________________________________________________
embedding_79 (Embedding)        (None, 4, 169)       2589249     input_79[0][0]                   
__________________________________________________________________________________________________
embedding_80 (Embedding)        (None, 4, 47)        7943        input_80[0][0]                   
__________________________________________________________________________________________________
flatten_79 (Flatten)            (None, 676)          0           embedding_79[0][0]               
__________________________________________________________________________________________________
flatten_80 (Flatten)            (None, 188)          0           embedding_80[0][0]               
__________________________________________________________________________________________________
concatenate_40 (Concatenate)    (None, 864)          0           flatten_79[0][0]                 
                                                                 flatten_80[0][0]                 
__________________________________________________________________________________________________
dense_118 (Dense)               (None, 39)           33735       concatenate_40[0][0]             
__________________________________________________________________________________________________
dropout_79 (Dropout)            (None, 39)           0           dense_118[0][0]                  
__________________________________________________________________________________________________
dense_119 (Dense)               (None, 68)           2720        dropout_79[0][0]                 
__________________________________________________________________________________________________
dropout_80 (Dropout)            (None, 68)           0           dense_119[0][0]                  
__________________________________________________________________________________________________
dense_120 (Dense)               (None, 8)            552         dropout_80[0][0]                 
==================================================================================================
Total params: 2,634,199
Trainable params: 2,634,199
Non-trainable params: 0
__________________________________________________________________________________________________
None

__________________________________________________________________________________________________
…
	One occurrence keys in vocabulary 1660 / 15303
	Attention: important lemmas are not in vocbulary	Embedding
==================================================================================================
	Initialisation = None
	Concatenation = False
	Lemma : 169
	POS = 47 
Deep model(Non compositional)
__________________________________________________________________________________________________
Layer (type)                    Output Shape         Param #     Connected to                     
==================================================================================================
input_81 (InputLayer)           (None, 4)            0                                            
__________________________________________________________________________________________________
input_82 (InputLayer)           (None, 4)            0                                            
__________________________________________________________________________________________________
embedding_81 (Embedding)        (None, 4, 169)       2586207     input_81[0][0]                   
__________________________________________________________________________________________________
embedding_82 (Embedding)        (None, 4, 47)        7943        input_82[0][0]                   
__________________________________________________________________________________________________
flatten_81 (Flatten)            (None, 676)          0           embedding_81[0][0]               
__________________________________________________________________________________________________
flatten_82 (Flatten)            (None, 188)          0           embedding_82[0][0]               
__________________________________________________________________________________________________
concatenate_41 (Concatenate)    (None, 864)          0           flatten_81[0][0]                 
                                                                 flatten_82[0][0]                 
__________________________________________________________________________________________________
dense_121 (Dense)               (None, 39)           33735       concatenate_41[0][0]             
__________________________________________________________________________________________________
dropout_81 (Dropout)            (None, 39)           0           dense_121[0][0]                  
__________________________________________________________________________________________________
dense_122 (Dense)               (None, 68)           2720        dropout_81[0][0]                 
__________________________________________________________________________________________________
dropout_82 (Dropout)            (None, 68)           0           dense_122[0][0]                  
__________________________________________________________________________________________________
dense_123 (Dense)               (None, 8)            552         dropout_82[0][0]                 
==================================================================================================
Total params: 2,631,157
Trainable params: 2,631,157
Non-trainable params: 0
__________________________________________________________________________________________________
None

__________________________________________________________________________________________________
…
	One occurrence keys in vocabulary 1660 / 15244
	Attention: important lemmas are not in vocbulary	Embedding
==================================================================================================
	Initialisation = None
	Concatenation = False
	Lemma : 169
	POS = 47 
Deep model(Non compositional)
__________________________________________________________________________________________________
Layer (type)                    Output Shape         Param #     Connected to                     
==================================================================================================
input_83 (InputLayer)           (None, 4)            0                                            
__________________________________________________________________________________________________
input_84 (InputLayer)           (None, 4)            0                                            
__________________________________________________________________________________________________
embedding_83 (Embedding)        (None, 4, 169)       2576236     input_83[0][0]                   
__________________________________________________________________________________________________
embedding_84 (Embedding)        (None, 4, 47)        7943        input_84[0][0]                   
__________________________________________________________________________________________________
flatten_83 (Flatten)            (None, 676)          0           embedding_83[0][0]               
__________________________________________________________________________________________________
flatten_84 (Flatten)            (None, 188)          0           embedding_84[0][0]               
__________________________________________________________________________________________________
concatenate_42 (Concatenate)    (None, 864)          0           flatten_83[0][0]                 
                                                                 flatten_84[0][0]                 
__________________________________________________________________________________________________
dense_124 (Dense)               (None, 39)           33735       concatenate_42[0][0]             
__________________________________________________________________________________________________
dropout_83 (Dropout)            (None, 39)           0           dense_124[0][0]                  
__________________________________________________________________________________________________
dense_125 (Dense)               (None, 68)           2720        dropout_83[0][0]                 
__________________________________________________________________________________________________
dropout_84 (Dropout)            (None, 68)           0           dense_125[0][0]                  
__________________________________________________________________________________________________
dense_126 (Dense)               (None, 8)            552         dropout_84[0][0]                 
==================================================================================================
Total params: 2,621,186
Trainable params: 2,621,186
Non-trainable params: 0
__________________________________________________________________________________________________
None

__________________________________________________________________________________________________
…
	Dashed keys in vocabulary 1979
	One occurrence keys in vocabulary 1979 / 12529
	Embedding
==================================================================================================
	Initialisation = None
	Concatenation = False
	Lemma : 169
	POS = 47 
Deep model(Non compositional)
__________________________________________________________________________________________________
Layer (type)                    Output Shape         Param #     Connected to                     
==================================================================================================
input_85 (InputLayer)           (None, 4)            0                                            
__________________________________________________________________________________________________
input_86 (InputLayer)           (None, 4)            0                                            
__________________________________________________________________________________________________
embedding_85 (Embedding)        (None, 4, 169)       2117401     input_85[0][0]                   
__________________________________________________________________________________________________
embedding_86 (Embedding)        (None, 4, 47)        5170        input_86[0][0]                   
__________________________________________________________________________________________________
flatten_85 (Flatten)            (None, 676)          0           embedding_85[0][0]               
__________________________________________________________________________________________________
flatten_86 (Flatten)            (None, 188)          0           embedding_86[0][0]               
__________________________________________________________________________________________________
concatenate_43 (Concatenate)    (None, 864)          0           flatten_85[0][0]                 
                                                                 flatten_86[0][0]                 
__________________________________________________________________________________________________
dense_127 (Dense)               (None, 39)           33735       concatenate_43[0][0]             
__________________________________________________________________________________________________
dropout_85 (Dropout)            (None, 39)           0           dense_127[0][0]                  
__________________________________________________________________________________________________
dense_128 (Dense)               (None, 68)           2720        dropout_85[0][0]                 
__________________________________________________________________________________________________
dropout_86 (Dropout)            (None, 68)           0           dense_128[0][0]                  
__________________________________________________________________________________________________
dense_129 (Dense)               (None, 8)            552         dropout_86[0][0]                 
==================================================================================================
Total params: 2,159,578
Trainable params: 2,159,578
Non-trainable params: 0
__________________________________________________________________________________________________
None

__________________________________________________________________________________________________
…
	Dashed keys in vocabulary 1979
	One occurrence keys in vocabulary 1979 / 12525
	Embedding
==================================================================================================
	Initialisation = None
	Concatenation = False
	Lemma : 169
	POS = 47 
Deep model(Non compositional)
__________________________________________________________________________________________________
Layer (type)                    Output Shape         Param #     Connected to                     
==================================================================================================
input_87 (InputLayer)           (None, 4)            0                                            
__________________________________________________________________________________________________
input_88 (InputLayer)           (None, 4)            0                                            
__________________________________________________________________________________________________
embedding_87 (Embedding)        (None, 4, 169)       2116725     input_87[0][0]                   
__________________________________________________________________________________________________
embedding_88 (Embedding)        (None, 4, 47)        5170        input_88[0][0]                   
__________________________________________________________________________________________________
flatten_87 (Flatten)            (None, 676)          0           embedding_87[0][0]               
__________________________________________________________________________________________________
flatten_88 (Flatten)            (None, 188)          0           embedding_88[0][0]               
__________________________________________________________________________________________________
concatenate_44 (Concatenate)    (None, 864)          0           flatten_87[0][0]                 
                                                                 flatten_88[0][0]                 
__________________________________________________________________________________________________
dense_130 (Dense)               (None, 39)           33735       concatenate_44[0][0]             
__________________________________________________________________________________________________
dropout_87 (Dropout)            (None, 39)           0           dense_130[0][0]                  
__________________________________________________________________________________________________
dense_131 (Dense)               (None, 68)           2720        dropout_87[0][0]                 
__________________________________________________________________________________________________
dropout_88 (Dropout)            (None, 68)           0           dense_131[0][0]                  
__________________________________________________________________________________________________
dense_132 (Dense)               (None, 8)            552         dropout_88[0][0]                 
==================================================================================================
Total params: 2,158,902
Trainable params: 2,158,902
Non-trainable params: 0
__________________________________________________________________________________________________
None

__________________________________________________________________________________________________
…
	Dashed keys in vocabulary 1979
	One occurrence keys in vocabulary 1979 / 12587
	Embedding
==================================================================================================
	Initialisation = None
	Concatenation = False
	Lemma : 169
	POS = 47 
Deep model(Non compositional)
__________________________________________________________________________________________________
Layer (type)                    Output Shape         Param #     Connected to                     
==================================================================================================
input_89 (InputLayer)           (None, 4)            0                                            
__________________________________________________________________________________________________
input_90 (InputLayer)           (None, 4)            0                                            
__________________________________________________________________________________________________
embedding_89 (Embedding)        (None, 4, 169)       2127203     input_89[0][0]                   
__________________________________________________________________________________________________
embedding_90 (Embedding)        (None, 4, 47)        5170        input_90[0][0]                   
__________________________________________________________________________________________________
flatten_89 (Flatten)            (None, 676)          0           embedding_89[0][0]               
__________________________________________________________________________________________________
flatten_90 (Flatten)            (None, 188)          0           embedding_90[0][0]               
__________________________________________________________________________________________________
concatenate_45 (Concatenate)    (None, 864)          0           flatten_89[0][0]                 
                                                                 flatten_90[0][0]                 
__________________________________________________________________________________________________
dense_133 (Dense)               (None, 39)           33735       concatenate_45[0][0]             
__________________________________________________________________________________________________
dropout_89 (Dropout)            (None, 39)           0           dense_133[0][0]                  
__________________________________________________________________________________________________
dense_134 (Dense)               (None, 68)           2720        dropout_89[0][0]                 
__________________________________________________________________________________________________
dropout_90 (Dropout)            (None, 68)           0           dense_134[0][0]                  
__________________________________________________________________________________________________
dense_135 (Dense)               (None, 8)            552         dropout_90[0][0]                 
==================================================================================================
Total params: 2,169,380
Trainable params: 2,169,380
Non-trainable params: 0
__________________________________________________________________________________________________
None

__________________________________________________________________________________________________
…
	Dashed keys in vocabulary 1622
	One occurrence keys in vocabulary 1622 / 12174
	Embedding
==================================================================================================
	Initialisation = None
	Concatenation = False
	Lemma : 436
	POS = 25 
Deep model(Non compositional)
__________________________________________________________________________________________________
Layer (type)                    Output Shape         Param #     Connected to                     
==================================================================================================
input_91 (InputLayer)           (None, 4)            0                                            
__________________________________________________________________________________________________
input_92 (InputLayer)           (None, 4)            0                                            
__________________________________________________________________________________________________
embedding_91 (Embedding)        (None, 4, 436)       5307864     input_91[0][0]                   
__________________________________________________________________________________________________
embedding_92 (Embedding)        (None, 4, 25)        3800        input_92[0][0]                   
__________________________________________________________________________________________________
flatten_91 (Flatten)            (None, 1744)         0           embedding_91[0][0]               
__________________________________________________________________________________________________
flatten_92 (Flatten)            (None, 100)          0           embedding_92[0][0]               
__________________________________________________________________________________________________
concatenate_46 (Concatenate)    (None, 1844)         0           flatten_91[0][0]                 
                                                                 flatten_92[0][0]                 
__________________________________________________________________________________________________
dense_136 (Dense)               (None, 9)            16605       concatenate_46[0][0]             
__________________________________________________________________________________________________
dropout_91 (Dropout)            (None, 9)            0           dense_136[0][0]                  
__________________________________________________________________________________________________
dense_137 (Dense)               (None, 68)           680         dropout_91[0][0]                 
__________________________________________________________________________________________________
dropout_92 (Dropout)            (None, 68)           0           dense_137[0][0]                  
__________________________________________________________________________________________________
dense_138 (Dense)               (None, 8)            552         dropout_92[0][0]                 
==================================================================================================
Total params: 5,329,501
Trainable params: 5,329,501
Non-trainable params: 0
__________________________________________________________________________________________________
None

__________________________________________________________________________________________________
…
	Dashed keys in vocabulary 1622
	One occurrence keys in vocabulary 1622 / 12142
	Embedding
==================================================================================================
	Initialisation = None
	Concatenation = False
	Lemma : 436
	POS = 25 
Deep model(Non compositional)
__________________________________________________________________________________________________
Layer (type)                    Output Shape         Param #     Connected to                     
==================================================================================================
input_93 (InputLayer)           (None, 4)            0                                            
__________________________________________________________________________________________________
input_94 (InputLayer)           (None, 4)            0                                            
__________________________________________________________________________________________________
embedding_93 (Embedding)        (None, 4, 436)       5293912     input_93[0][0]                   
__________________________________________________________________________________________________
embedding_94 (Embedding)        (None, 4, 25)        3800        input_94[0][0]                   
__________________________________________________________________________________________________
flatten_93 (Flatten)            (None, 1744)         0           embedding_93[0][0]               
__________________________________________________________________________________________________
flatten_94 (Flatten)            (None, 100)          0           embedding_94[0][0]               
__________________________________________________________________________________________________
concatenate_47 (Concatenate)    (None, 1844)         0           flatten_93[0][0]                 
                                                                 flatten_94[0][0]                 
__________________________________________________________________________________________________
dense_139 (Dense)               (None, 9)            16605       concatenate_47[0][0]             
__________________________________________________________________________________________________
dropout_93 (Dropout)            (None, 9)            0           dense_139[0][0]                  
__________________________________________________________________________________________________
dense_140 (Dense)               (None, 68)           680         dropout_93[0][0]                 
__________________________________________________________________________________________________
dropout_94 (Dropout)            (None, 68)           0           dense_140[0][0]                  
__________________________________________________________________________________________________
dense_141 (Dense)               (None, 8)            552         dropout_94[0][0]                 
==================================================================================================
Total params: 5,315,549
Trainable params: 5,315,549
Non-trainable params: 0
__________________________________________________________________________________________________
None

__________________________________________________________________________________________________
…
	Dashed keys in vocabulary 1622
	One occurrence keys in vocabulary 1622 / 12159
	Embedding
==================================================================================================
	Initialisation = None
	Concatenation = False
	Lemma : 436
	POS = 25 
Deep model(Non compositional)
__________________________________________________________________________________________________
Layer (type)                    Output Shape         Param #     Connected to                     
==================================================================================================
input_95 (InputLayer)           (None, 4)            0                                            
__________________________________________________________________________________________________
input_96 (InputLayer)           (None, 4)            0                                            
__________________________________________________________________________________________________
embedding_95 (Embedding)        (None, 4, 436)       5301324     input_95[0][0]                   
__________________________________________________________________________________________________
embedding_96 (Embedding)        (None, 4, 25)        3800        input_96[0][0]                   
__________________________________________________________________________________________________
flatten_95 (Flatten)            (None, 1744)         0           embedding_95[0][0]               
__________________________________________________________________________________________________
flatten_96 (Flatten)            (None, 100)          0           embedding_96[0][0]               
__________________________________________________________________________________________________
concatenate_48 (Concatenate)    (None, 1844)         0           flatten_95[0][0]                 
                                                                 flatten_96[0][0]                 
__________________________________________________________________________________________________
dense_142 (Dense)               (None, 9)            16605       concatenate_48[0][0]             
__________________________________________________________________________________________________
dropout_95 (Dropout)            (None, 9)            0           dense_142[0][0]                  
__________________________________________________________________________________________________
dense_143 (Dense)               (None, 68)           680         dropout_95[0][0]                 
__________________________________________________________________________________________________
dropout_96 (Dropout)            (None, 68)           0           dense_143[0][0]                  
__________________________________________________________________________________________________
dense_144 (Dense)               (None, 8)            552         dropout_96[0][0]                 
==================================================================================================
Total params: 5,322,961
Trainable params: 5,322,961
Non-trainable params: 0
__________________________________________________________________________________________________
None

__________________________________________________________________________________________________
…
	One occurrence keys in vocabulary 1660 / 15321
	Attention: important lemmas are not in vocbulary	Embedding
==================================================================================================
	Initialisation = None
	Concatenation = False
	Lemma : 436
	POS = 25 
Deep model(Non compositional)
__________________________________________________________________________________________________
Layer (type)                    Output Shape         Param #     Connected to                     
==================================================================================================
input_97 (InputLayer)           (None, 4)            0                                            
__________________________________________________________________________________________________
input_98 (InputLayer)           (None, 4)            0                                            
__________________________________________________________________________________________________
embedding_97 (Embedding)        (None, 4, 436)       6679956     input_97[0][0]                   
__________________________________________________________________________________________________
embedding_98 (Embedding)        (None, 4, 25)        4225        input_98[0][0]                   
__________________________________________________________________________________________________
flatten_97 (Flatten)            (None, 1744)         0           embedding_97[0][0]               
__________________________________________________________________________________________________
flatten_98 (Flatten)            (None, 100)          0           embedding_98[0][0]               
__________________________________________________________________________________________________
concatenate_49 (Concatenate)    (None, 1844)         0           flatten_97[0][0]                 
                                                                 flatten_98[0][0]                 
__________________________________________________________________________________________________
dense_145 (Dense)               (None, 9)            16605       concatenate_49[0][0]             
__________________________________________________________________________________________________
dropout_97 (Dropout)            (None, 9)            0           dense_145[0][0]                  
__________________________________________________________________________________________________
dense_146 (Dense)               (None, 68)           680         dropout_97[0][0]                 
__________________________________________________________________________________________________
dropout_98 (Dropout)            (None, 68)           0           dense_146[0][0]                  
__________________________________________________________________________________________________
dense_147 (Dense)               (None, 8)            552         dropout_98[0][0]                 
==================================================================================================
Total params: 6,702,018
Trainable params: 6,702,018
Non-trainable params: 0
__________________________________________________________________________________________________
None

__________________________________________________________________________________________________
…
	One occurrence keys in vocabulary 1660 / 15303
	Attention: important lemmas are not in vocbulary	Embedding
==================================================================================================
	Initialisation = None
	Concatenation = False
	Lemma : 436
	POS = 25 
Deep model(Non compositional)
__________________________________________________________________________________________________
Layer (type)                    Output Shape         Param #     Connected to                     
==================================================================================================
input_99 (InputLayer)           (None, 4)            0                                            
__________________________________________________________________________________________________
input_100 (InputLayer)          (None, 4)            0                                            
__________________________________________________________________________________________________
embedding_99 (Embedding)        (None, 4, 436)       6672108     input_99[0][0]                   
__________________________________________________________________________________________________
embedding_100 (Embedding)       (None, 4, 25)        4225        input_100[0][0]                  
__________________________________________________________________________________________________
flatten_99 (Flatten)            (None, 1744)         0           embedding_99[0][0]               
__________________________________________________________________________________________________
flatten_100 (Flatten)           (None, 100)          0           embedding_100[0][0]              
__________________________________________________________________________________________________
concatenate_50 (Concatenate)    (None, 1844)         0           flatten_99[0][0]                 
                                                                 flatten_100[0][0]                
__________________________________________________________________________________________________
dense_148 (Dense)               (None, 9)            16605       concatenate_50[0][0]             
__________________________________________________________________________________________________
dropout_99 (Dropout)            (None, 9)            0           dense_148[0][0]                  
__________________________________________________________________________________________________
dense_149 (Dense)               (None, 68)           680         dropout_99[0][0]                 
__________________________________________________________________________________________________
dropout_100 (Dropout)           (None, 68)           0           dense_149[0][0]                  
__________________________________________________________________________________________________
dense_150 (Dense)               (None, 8)            552         dropout_100[0][0]                
==================================================================================================
Total params: 6,694,170
Trainable params: 6,694,170
Non-trainable params: 0
__________________________________________________________________________________________________
None

__________________________________________________________________________________________________
…
	One occurrence keys in vocabulary 1660 / 15244
	Attention: important lemmas are not in vocbulary	Embedding
==================================================================================================
	Initialisation = None
	Concatenation = False
	Lemma : 436
	POS = 25 
Deep model(Non compositional)
__________________________________________________________________________________________________
Layer (type)                    Output Shape         Param #     Connected to                     
==================================================================================================
input_101 (InputLayer)          (None, 4)            0                                            
__________________________________________________________________________________________________
input_102 (InputLayer)          (None, 4)            0                                            
__________________________________________________________________________________________________
embedding_101 (Embedding)       (None, 4, 436)       6646384     input_101[0][0]                  
__________________________________________________________________________________________________
embedding_102 (Embedding)       (None, 4, 25)        4225        input_102[0][0]                  
__________________________________________________________________________________________________
flatten_101 (Flatten)           (None, 1744)         0           embedding_101[0][0]              
__________________________________________________________________________________________________
flatten_102 (Flatten)           (None, 100)          0           embedding_102[0][0]              
__________________________________________________________________________________________________
concatenate_51 (Concatenate)    (None, 1844)         0           flatten_101[0][0]                
                                                                 flatten_102[0][0]                
__________________________________________________________________________________________________
dense_151 (Dense)               (None, 9)            16605       concatenate_51[0][0]             
__________________________________________________________________________________________________
dropout_101 (Dropout)           (None, 9)            0           dense_151[0][0]                  
__________________________________________________________________________________________________
dense_152 (Dense)               (None, 68)           680         dropout_101[0][0]                
__________________________________________________________________________________________________
dropout_102 (Dropout)           (None, 68)           0           dense_152[0][0]                  
__________________________________________________________________________________________________
dense_153 (Dense)               (None, 8)            552         dropout_102[0][0]                
==================================================================================================
Total params: 6,668,446
Trainable params: 6,668,446
Non-trainable params: 0
__________________________________________________________________________________________________
None

__________________________________________________________________________________________________
…
	Dashed keys in vocabulary 1979
	One occurrence keys in vocabulary 1979 / 12529
	Embedding
==================================================================================================
	Initialisation = None
	Concatenation = False
	Lemma : 436
	POS = 25 
Deep model(Non compositional)
__________________________________________________________________________________________________
Layer (type)                    Output Shape         Param #     Connected to                     
==================================================================================================
input_103 (InputLayer)          (None, 4)            0                                            
__________________________________________________________________________________________________
input_104 (InputLayer)          (None, 4)            0                                            
__________________________________________________________________________________________________
embedding_103 (Embedding)       (None, 4, 436)       5462644     input_103[0][0]                  
__________________________________________________________________________________________________
embedding_104 (Embedding)       (None, 4, 25)        2750        input_104[0][0]                  
__________________________________________________________________________________________________
flatten_103 (Flatten)           (None, 1744)         0           embedding_103[0][0]              
__________________________________________________________________________________________________
flatten_104 (Flatten)           (None, 100)          0           embedding_104[0][0]              
__________________________________________________________________________________________________
concatenate_52 (Concatenate)    (None, 1844)         0           flatten_103[0][0]                
                                                                 flatten_104[0][0]                
__________________________________________________________________________________________________
dense_154 (Dense)               (None, 9)            16605       concatenate_52[0][0]             
__________________________________________________________________________________________________
dropout_103 (Dropout)           (None, 9)            0           dense_154[0][0]                  
__________________________________________________________________________________________________
dense_155 (Dense)               (None, 68)           680         dropout_103[0][0]                
__________________________________________________________________________________________________
dropout_104 (Dropout)           (None, 68)           0           dense_155[0][0]                  
__________________________________________________________________________________________________
dense_156 (Dense)               (None, 8)            552         dropout_104[0][0]                
==================================================================================================
Total params: 5,483,231
Trainable params: 5,483,231
Non-trainable params: 0
__________________________________________________________________________________________________
None

__________________________________________________________________________________________________
…
	Dashed keys in vocabulary 1979
	One occurrence keys in vocabulary 1979 / 12525
	Embedding
==================================================================================================
	Initialisation = None
	Concatenation = False
	Lemma : 436
	POS = 25 
Deep model(Non compositional)
__________________________________________________________________________________________________
Layer (type)                    Output Shape         Param #     Connected to                     
==================================================================================================
input_105 (InputLayer)          (None, 4)            0                                            
__________________________________________________________________________________________________
input_106 (InputLayer)          (None, 4)            0                                            
__________________________________________________________________________________________________
embedding_105 (Embedding)       (None, 4, 436)       5460900     input_105[0][0]                  
__________________________________________________________________________________________________
embedding_106 (Embedding)       (None, 4, 25)        2750        input_106[0][0]                  
__________________________________________________________________________________________________
flatten_105 (Flatten)           (None, 1744)         0           embedding_105[0][0]              
__________________________________________________________________________________________________
flatten_106 (Flatten)           (None, 100)          0           embedding_106[0][0]              
__________________________________________________________________________________________________
concatenate_53 (Concatenate)    (None, 1844)         0           flatten_105[0][0]                
                                                                 flatten_106[0][0]                
__________________________________________________________________________________________________
dense_157 (Dense)               (None, 9)            16605       concatenate_53[0][0]             
__________________________________________________________________________________________________
dropout_105 (Dropout)           (None, 9)            0           dense_157[0][0]                  
__________________________________________________________________________________________________
dense_158 (Dense)               (None, 68)           680         dropout_105[0][0]                
__________________________________________________________________________________________________
dropout_106 (Dropout)           (None, 68)           0           dense_158[0][0]                  
__________________________________________________________________________________________________
dense_159 (Dense)               (None, 8)            552         dropout_106[0][0]                
==================================================================================================
Total params: 5,481,487
Trainable params: 5,481,487
Non-trainable params: 0
__________________________________________________________________________________________________
None

__________________________________________________________________________________________________
…
	Dashed keys in vocabulary 1979
	One occurrence keys in vocabulary 1979 / 12587
	Embedding
==================================================================================================
	Initialisation = None
	Concatenation = False
	Lemma : 436
	POS = 25 
Deep model(Non compositional)
__________________________________________________________________________________________________
Layer (type)                    Output Shape         Param #     Connected to                     
==================================================================================================
input_107 (InputLayer)          (None, 4)            0                                            
__________________________________________________________________________________________________
input_108 (InputLayer)          (None, 4)            0                                            
__________________________________________________________________________________________________
embedding_107 (Embedding)       (None, 4, 436)       5487932     input_107[0][0]                  
__________________________________________________________________________________________________
embedding_108 (Embedding)       (None, 4, 25)        2750        input_108[0][0]                  
__________________________________________________________________________________________________
flatten_107 (Flatten)           (None, 1744)         0           embedding_107[0][0]              
__________________________________________________________________________________________________
flatten_108 (Flatten)           (None, 100)          0           embedding_108[0][0]              
__________________________________________________________________________________________________
concatenate_54 (Concatenate)    (None, 1844)         0           flatten_107[0][0]                
                                                                 flatten_108[0][0]                
__________________________________________________________________________________________________
dense_160 (Dense)               (None, 9)            16605       concatenate_54[0][0]             
__________________________________________________________________________________________________
dropout_107 (Dropout)           (None, 9)            0           dense_160[0][0]                  
__________________________________________________________________________________________________
dense_161 (Dense)               (None, 68)           680         dropout_107[0][0]                
__________________________________________________________________________________________________
dropout_108 (Dropout)           (None, 68)           0           dense_161[0][0]                  
__________________________________________________________________________________________________
dense_162 (Dense)               (None, 8)            552         dropout_108[0][0]                
==================================================================================================
Total params: 5,508,519
Trainable params: 5,508,519
Non-trainable params: 0
__________________________________________________________________________________________________
None

__________________________________________________________________________________________________
…
	Dashed keys in vocabulary 1622
	One occurrence keys in vocabulary 1622 / 12174
	Embedding
==================================================================================================
	Initialisation = None
	Concatenation = False
	Lemma : 185
	POS = 145 
Deep model(Non compositional)
__________________________________________________________________________________________________
Layer (type)                    Output Shape         Param #     Connected to                     
==================================================================================================
input_109 (InputLayer)          (None, 4)            0                                            
__________________________________________________________________________________________________
input_110 (InputLayer)          (None, 4)            0                                            
__________________________________________________________________________________________________
embedding_109 (Embedding)       (None, 4, 185)       2252190     input_109[0][0]                  
__________________________________________________________________________________________________
embedding_110 (Embedding)       (None, 4, 145)       22040       input_110[0][0]                  
__________________________________________________________________________________________________
flatten_109 (Flatten)           (None, 740)          0           embedding_109[0][0]              
__________________________________________________________________________________________________
flatten_110 (Flatten)           (None, 580)          0           embedding_110[0][0]              
__________________________________________________________________________________________________
concatenate_55 (Concatenate)    (None, 1320)         0           flatten_109[0][0]                
                                                                 flatten_110[0][0]                
__________________________________________________________________________________________________
dense_163 (Dense)               (None, 199)          262879      concatenate_55[0][0]             
__________________________________________________________________________________________________
dropout_109 (Dropout)           (None, 199)          0           dense_163[0][0]                  
__________________________________________________________________________________________________
dense_164 (Dense)               (None, 56)           11200       dropout_109[0][0]                
__________________________________________________________________________________________________
dropout_110 (Dropout)           (None, 56)           0           dense_164[0][0]                  
__________________________________________________________________________________________________
dense_165 (Dense)               (None, 8)            456         dropout_110[0][0]                
==================================================================================================
Total params: 2,548,765
Trainable params: 2,548,765
Non-trainable params: 0
__________________________________________________________________________________________________
None

__________________________________________________________________________________________________
…
	Dashed keys in vocabulary 1622
	One occurrence keys in vocabulary 1622 / 12142
	Embedding
==================================================================================================
	Initialisation = None
	Concatenation = False
	Lemma : 185
	POS = 145 
Deep model(Non compositional)
__________________________________________________________________________________________________
Layer (type)                    Output Shape         Param #     Connected to                     
==================================================================================================
input_111 (InputLayer)          (None, 4)            0                                            
__________________________________________________________________________________________________
input_112 (InputLayer)          (None, 4)            0                                            
__________________________________________________________________________________________________
embedding_111 (Embedding)       (None, 4, 185)       2246270     input_111[0][0]                  
__________________________________________________________________________________________________
embedding_112 (Embedding)       (None, 4, 145)       22040       input_112[0][0]                  
__________________________________________________________________________________________________
flatten_111 (Flatten)           (None, 740)          0           embedding_111[0][0]              
__________________________________________________________________________________________________
flatten_112 (Flatten)           (None, 580)          0           embedding_112[0][0]              
__________________________________________________________________________________________________
concatenate_56 (Concatenate)    (None, 1320)         0           flatten_111[0][0]                
                                                                 flatten_112[0][0]                
__________________________________________________________________________________________________
dense_166 (Dense)               (None, 199)          262879      concatenate_56[0][0]             
__________________________________________________________________________________________________
dropout_111 (Dropout)           (None, 199)          0           dense_166[0][0]                  
__________________________________________________________________________________________________
dense_167 (Dense)               (None, 56)           11200       dropout_111[0][0]                
__________________________________________________________________________________________________
dropout_112 (Dropout)           (None, 56)           0           dense_167[0][0]                  
__________________________________________________________________________________________________
dense_168 (Dense)               (None, 8)            456         dropout_112[0][0]                
==================================================================================================
Total params: 2,542,845
Trainable params: 2,542,845
Non-trainable params: 0
__________________________________________________________________________________________________
None

__________________________________________________________________________________________________
…
	Dashed keys in vocabulary 1622
	One occurrence keys in vocabulary 1622 / 12159
	Embedding
==================================================================================================
	Initialisation = None
	Concatenation = False
	Lemma : 185
	POS = 145 
Deep model(Non compositional)
__________________________________________________________________________________________________
Layer (type)                    Output Shape         Param #     Connected to                     
==================================================================================================
input_113 (InputLayer)          (None, 4)            0                                            
__________________________________________________________________________________________________
input_114 (InputLayer)          (None, 4)            0                                            
__________________________________________________________________________________________________
embedding_113 (Embedding)       (None, 4, 185)       2249415     input_113[0][0]                  
__________________________________________________________________________________________________
embedding_114 (Embedding)       (None, 4, 145)       22040       input_114[0][0]                  
__________________________________________________________________________________________________
flatten_113 (Flatten)           (None, 740)          0           embedding_113[0][0]              
__________________________________________________________________________________________________
flatten_114 (Flatten)           (None, 580)          0           embedding_114[0][0]              
__________________________________________________________________________________________________
concatenate_57 (Concatenate)    (None, 1320)         0           flatten_113[0][0]                
                                                                 flatten_114[0][0]                
__________________________________________________________________________________________________
dense_169 (Dense)               (None, 199)          262879      concatenate_57[0][0]             
__________________________________________________________________________________________________
dropout_113 (Dropout)           (None, 199)          0           dense_169[0][0]                  
__________________________________________________________________________________________________
dense_170 (Dense)               (None, 56)           11200       dropout_113[0][0]                
__________________________________________________________________________________________________
dropout_114 (Dropout)           (None, 56)           0           dense_170[0][0]                  
__________________________________________________________________________________________________
dense_171 (Dense)               (None, 8)            456         dropout_114[0][0]                
==================================================================================================
Total params: 2,545,990
Trainable params: 2,545,990
Non-trainable params: 0
__________________________________________________________________________________________________
None

__________________________________________________________________________________________________
…
	One occurrence keys in vocabulary 1660 / 15321
	Attention: important lemmas are not in vocbulary	Embedding
==================================================================================================
	Initialisation = None
	Concatenation = False
	Lemma : 185
	POS = 145 
Deep model(Non compositional)
__________________________________________________________________________________________________
Layer (type)                    Output Shape         Param #     Connected to                     
==================================================================================================
input_115 (InputLayer)          (None, 4)            0                                            
__________________________________________________________________________________________________
input_116 (InputLayer)          (None, 4)            0                                            
__________________________________________________________________________________________________
embedding_115 (Embedding)       (None, 4, 185)       2834385     input_115[0][0]                  
__________________________________________________________________________________________________
embedding_116 (Embedding)       (None, 4, 145)       24505       input_116[0][0]                  
__________________________________________________________________________________________________
flatten_115 (Flatten)           (None, 740)          0           embedding_115[0][0]              
__________________________________________________________________________________________________
flatten_116 (Flatten)           (None, 580)          0           embedding_116[0][0]              
__________________________________________________________________________________________________
concatenate_58 (Concatenate)    (None, 1320)         0           flatten_115[0][0]                
                                                                 flatten_116[0][0]                
__________________________________________________________________________________________________
dense_172 (Dense)               (None, 199)          262879      concatenate_58[0][0]             
__________________________________________________________________________________________________
dropout_115 (Dropout)           (None, 199)          0           dense_172[0][0]                  
__________________________________________________________________________________________________
dense_173 (Dense)               (None, 56)           11200       dropout_115[0][0]                
__________________________________________________________________________________________________
dropout_116 (Dropout)           (None, 56)           0           dense_173[0][0]                  
__________________________________________________________________________________________________
dense_174 (Dense)               (None, 8)            456         dropout_116[0][0]                
==================================================================================================
Total params: 3,133,425
Trainable params: 3,133,425
Non-trainable params: 0
__________________________________________________________________________________________________
None

__________________________________________________________________________________________________
…
	One occurrence keys in vocabulary 1660 / 15303
	Attention: important lemmas are not in vocbulary	Embedding
==================================================================================================
	Initialisation = None
	Concatenation = False
	Lemma : 185
	POS = 145 
Deep model(Non compositional)
__________________________________________________________________________________________________
Layer (type)                    Output Shape         Param #     Connected to                     
==================================================================================================
input_117 (InputLayer)          (None, 4)            0                                            
__________________________________________________________________________________________________
input_118 (InputLayer)          (None, 4)            0                                            
__________________________________________________________________________________________________
embedding_117 (Embedding)       (None, 4, 185)       2831055     input_117[0][0]                  
__________________________________________________________________________________________________
embedding_118 (Embedding)       (None, 4, 145)       24505       input_118[0][0]                  
__________________________________________________________________________________________________
flatten_117 (Flatten)           (None, 740)          0           embedding_117[0][0]              
__________________________________________________________________________________________________
flatten_118 (Flatten)           (None, 580)          0           embedding_118[0][0]              
__________________________________________________________________________________________________
concatenate_59 (Concatenate)    (None, 1320)         0           flatten_117[0][0]                
                                                                 flatten_118[0][0]                
__________________________________________________________________________________________________
dense_175 (Dense)               (None, 199)          262879      concatenate_59[0][0]             
__________________________________________________________________________________________________
dropout_117 (Dropout)           (None, 199)          0           dense_175[0][0]                  
__________________________________________________________________________________________________
dense_176 (Dense)               (None, 56)           11200       dropout_117[0][0]                
__________________________________________________________________________________________________
dropout_118 (Dropout)           (None, 56)           0           dense_176[0][0]                  
__________________________________________________________________________________________________
dense_177 (Dense)               (None, 8)            456         dropout_118[0][0]                
==================================================================================================
Total params: 3,130,095
Trainable params: 3,130,095
Non-trainable params: 0
__________________________________________________________________________________________________
None

__________________________________________________________________________________________________
…
	One occurrence keys in vocabulary 1660 / 15244
	Attention: important lemmas are not in vocbulary	Embedding
==================================================================================================
	Initialisation = None
	Concatenation = False
	Lemma : 185
	POS = 145 
Deep model(Non compositional)
__________________________________________________________________________________________________
Layer (type)                    Output Shape         Param #     Connected to                     
==================================================================================================
input_119 (InputLayer)          (None, 4)            0                                            
__________________________________________________________________________________________________
input_120 (InputLayer)          (None, 4)            0                                            
__________________________________________________________________________________________________
embedding_119 (Embedding)       (None, 4, 185)       2820140     input_119[0][0]                  
__________________________________________________________________________________________________
embedding_120 (Embedding)       (None, 4, 145)       24505       input_120[0][0]                  
__________________________________________________________________________________________________
flatten_119 (Flatten)           (None, 740)          0           embedding_119[0][0]              
__________________________________________________________________________________________________
flatten_120 (Flatten)           (None, 580)          0           embedding_120[0][0]              
__________________________________________________________________________________________________
concatenate_60 (Concatenate)    (None, 1320)         0           flatten_119[0][0]                
                                                                 flatten_120[0][0]                
__________________________________________________________________________________________________
dense_178 (Dense)               (None, 199)          262879      concatenate_60[0][0]             
__________________________________________________________________________________________________
dropout_119 (Dropout)           (None, 199)          0           dense_178[0][0]                  
__________________________________________________________________________________________________
dense_179 (Dense)               (None, 56)           11200       dropout_119[0][0]                
__________________________________________________________________________________________________
dropout_120 (Dropout)           (None, 56)           0           dense_179[0][0]                  
__________________________________________________________________________________________________
dense_180 (Dense)               (None, 8)            456         dropout_120[0][0]                
==================================================================================================
Total params: 3,119,180
Trainable params: 3,119,180
Non-trainable params: 0
__________________________________________________________________________________________________
None

__________________________________________________________________________________________________
…
	Dashed keys in vocabulary 1979
	One occurrence keys in vocabulary 1979 / 12529
	Embedding
==================================================================================================
	Initialisation = None
	Concatenation = False
	Lemma : 185
	POS = 145 
Deep model(Non compositional)
__________________________________________________________________________________________________
Layer (type)                    Output Shape         Param #     Connected to                     
==================================================================================================
input_121 (InputLayer)          (None, 4)            0                                            
__________________________________________________________________________________________________
input_122 (InputLayer)          (None, 4)            0                                            
__________________________________________________________________________________________________
embedding_121 (Embedding)       (None, 4, 185)       2317865     input_121[0][0]                  
__________________________________________________________________________________________________
embedding_122 (Embedding)       (None, 4, 145)       15950       input_122[0][0]                  
__________________________________________________________________________________________________
flatten_121 (Flatten)           (None, 740)          0           embedding_121[0][0]              
__________________________________________________________________________________________________
flatten_122 (Flatten)           (None, 580)          0           embedding_122[0][0]              
__________________________________________________________________________________________________
concatenate_61 (Concatenate)    (None, 1320)         0           flatten_121[0][0]                
                                                                 flatten_122[0][0]                
__________________________________________________________________________________________________
dense_181 (Dense)               (None, 199)          262879      concatenate_61[0][0]             
__________________________________________________________________________________________________
dropout_121 (Dropout)           (None, 199)          0           dense_181[0][0]                  
__________________________________________________________________________________________________
dense_182 (Dense)               (None, 56)           11200       dropout_121[0][0]                
__________________________________________________________________________________________________
dropout_122 (Dropout)           (None, 56)           0           dense_182[0][0]                  
__________________________________________________________________________________________________
dense_183 (Dense)               (None, 8)            456         dropout_122[0][0]                
==================================================================================================
Total params: 2,608,350
Trainable params: 2,608,350
Non-trainable params: 0
__________________________________________________________________________________________________
None

__________________________________________________________________________________________________
…
	Dashed keys in vocabulary 1979
	One occurrence keys in vocabulary 1979 / 12525
	Embedding
==================================================================================================
	Initialisation = None
	Concatenation = False
	Lemma : 185
	POS = 145 
Deep model(Non compositional)
__________________________________________________________________________________________________
Layer (type)                    Output Shape         Param #     Connected to                     
==================================================================================================
input_123 (InputLayer)          (None, 4)            0                                            
__________________________________________________________________________________________________
input_124 (InputLayer)          (None, 4)            0                                            
__________________________________________________________________________________________________
embedding_123 (Embedding)       (None, 4, 185)       2317125     input_123[0][0]                  
__________________________________________________________________________________________________
embedding_124 (Embedding)       (None, 4, 145)       15950       input_124[0][0]                  
__________________________________________________________________________________________________
flatten_123 (Flatten)           (None, 740)          0           embedding_123[0][0]              
__________________________________________________________________________________________________
flatten_124 (Flatten)           (None, 580)          0           embedding_124[0][0]              
__________________________________________________________________________________________________
concatenate_62 (Concatenate)    (None, 1320)         0           flatten_123[0][0]                
                                                                 flatten_124[0][0]                
__________________________________________________________________________________________________
dense_184 (Dense)               (None, 199)          262879      concatenate_62[0][0]             
__________________________________________________________________________________________________
dropout_123 (Dropout)           (None, 199)          0           dense_184[0][0]                  
__________________________________________________________________________________________________
dense_185 (Dense)               (None, 56)           11200       dropout_123[0][0]                
__________________________________________________________________________________________________
dropout_124 (Dropout)           (None, 56)           0           dense_185[0][0]                  
__________________________________________________________________________________________________
dense_186 (Dense)               (None, 8)            456         dropout_124[0][0]                
==================================================================================================
Total params: 2,607,610
Trainable params: 2,607,610
Non-trainable params: 0
__________________________________________________________________________________________________
None

__________________________________________________________________________________________________
…
	Dashed keys in vocabulary 1979
	One occurrence keys in vocabulary 1979 / 12587
	Embedding
==================================================================================================
	Initialisation = None
	Concatenation = False
	Lemma : 185
	POS = 145 
Deep model(Non compositional)
__________________________________________________________________________________________________
Layer (type)                    Output Shape         Param #     Connected to                     
==================================================================================================
input_125 (InputLayer)          (None, 4)            0                                            
__________________________________________________________________________________________________
input_126 (InputLayer)          (None, 4)            0                                            
__________________________________________________________________________________________________
embedding_125 (Embedding)       (None, 4, 185)       2328595     input_125[0][0]                  
__________________________________________________________________________________________________
embedding_126 (Embedding)       (None, 4, 145)       15950       input_126[0][0]                  
__________________________________________________________________________________________________
flatten_125 (Flatten)           (None, 740)          0           embedding_125[0][0]              
__________________________________________________________________________________________________
flatten_126 (Flatten)           (None, 580)          0           embedding_126[0][0]              
__________________________________________________________________________________________________
concatenate_63 (Concatenate)    (None, 1320)         0           flatten_125[0][0]                
                                                                 flatten_126[0][0]                
__________________________________________________________________________________________________
dense_187 (Dense)               (None, 199)          262879      concatenate_63[0][0]             
__________________________________________________________________________________________________
dropout_125 (Dropout)           (None, 199)          0           dense_187[0][0]                  
__________________________________________________________________________________________________
dense_188 (Dense)               (None, 56)           11200       dropout_125[0][0]                
__________________________________________________________________________________________________
dropout_126 (Dropout)           (None, 56)           0           dense_188[0][0]                  
__________________________________________________________________________________________________
dense_189 (Dense)               (None, 8)            456         dropout_126[0][0]                
==================================================================================================
Total params: 2,619,080
Trainable params: 2,619,080
Non-trainable params: 0
__________________________________________________________________________________________________
None

__________________________________________________________________________________________________
…
