…
	Dashed keys in vocabulary 1622
	One occurrence keys in vocabulary 1622 / 2800
	Embedding
==================================================================================================
	Initialisation = None
	Concatenation = False
	Lemma : 62
	POS = 75 
Deep model(Non compositional)
__________________________________________________________________________________________________
Layer (type)                    Output Shape         Param #     Connected to                     
==================================================================================================
input_1 (InputLayer)            (None, 4)            0                                            
__________________________________________________________________________________________________
input_2 (InputLayer)            (None, 4)            0                                            
__________________________________________________________________________________________________
embedding_1 (Embedding)         (None, 4, 62)        173600      input_1[0][0]                    
__________________________________________________________________________________________________
embedding_2 (Embedding)         (None, 4, 75)        11400       input_2[0][0]                    
__________________________________________________________________________________________________
flatten_1 (Flatten)             (None, 248)          0           embedding_1[0][0]                
__________________________________________________________________________________________________
flatten_2 (Flatten)             (None, 300)          0           embedding_2[0][0]                
__________________________________________________________________________________________________
concatenate_1 (Concatenate)     (None, 548)          0           flatten_1[0][0]                  
                                                                 flatten_2[0][0]                  
__________________________________________________________________________________________________
dense_1 (Dense)                 (None, 38)           20862       concatenate_1[0][0]              
__________________________________________________________________________________________________
dropout_1 (Dropout)             (None, 38)           0           dense_1[0][0]                    
__________________________________________________________________________________________________
dense_2 (Dense)                 (None, 89)           3471        dropout_1[0][0]                  
__________________________________________________________________________________________________
dropout_2 (Dropout)             (None, 89)           0           dense_2[0][0]                    
__________________________________________________________________________________________________
dense_3 (Dense)                 (None, 8)            720         dropout_2[0][0]                  
==================================================================================================
Total params: 210,053
Trainable params: 210,053
Non-trainable params: 0
__________________________________________________________________________________________________
None

__________________________________________________________________________________________________
…
	One occurrence keys in vocabulary 1660 / 2793
	Attention: important lemmas are not in vocbulary	Embedding
==================================================================================================
	Initialisation = None
	Concatenation = False
	Lemma : 62
	POS = 75 
Deep model(Non compositional)
__________________________________________________________________________________________________
Layer (type)                    Output Shape         Param #     Connected to                     
==================================================================================================
input_7 (InputLayer)            (None, 4)            0                                            
__________________________________________________________________________________________________
input_8 (InputLayer)            (None, 4)            0                                            
__________________________________________________________________________________________________
embedding_7 (Embedding)         (None, 4, 62)        173166      input_7[0][0]                    
__________________________________________________________________________________________________
embedding_8 (Embedding)         (None, 4, 75)        12675       input_8[0][0]                    
__________________________________________________________________________________________________
flatten_7 (Flatten)             (None, 248)          0           embedding_7[0][0]                
__________________________________________________________________________________________________
flatten_8 (Flatten)             (None, 300)          0           embedding_8[0][0]                
__________________________________________________________________________________________________
concatenate_4 (Concatenate)     (None, 548)          0           flatten_7[0][0]                  
                                                                 flatten_8[0][0]                  
__________________________________________________________________________________________________
dense_10 (Dense)                (None, 38)           20862       concatenate_4[0][0]              
__________________________________________________________________________________________________
dropout_7 (Dropout)             (None, 38)           0           dense_10[0][0]                   
__________________________________________________________________________________________________
dense_11 (Dense)                (None, 89)           3471        dropout_7[0][0]                  
__________________________________________________________________________________________________
dropout_8 (Dropout)             (None, 89)           0           dense_11[0][0]                   
__________________________________________________________________________________________________
dense_12 (Dense)                (None, 8)            720         dropout_8[0][0]                  
==================================================================================================
Total params: 210,894
Trainable params: 210,894
Non-trainable params: 0
__________________________________________________________________________________________________
None

__________________________________________________________________________________________________
…
	Dashed keys in vocabulary 1979
	One occurrence keys in vocabulary 1979 / 3181
	Embedding
==================================================================================================
	Initialisation = None
	Concatenation = False
	Lemma : 62
	POS = 75 
Deep model(Non compositional)
__________________________________________________________________________________________________
Layer (type)                    Output Shape         Param #     Connected to                     
==================================================================================================
input_13 (InputLayer)           (None, 4)            0                                            
__________________________________________________________________________________________________
input_14 (InputLayer)           (None, 4)            0                                            
__________________________________________________________________________________________________
embedding_13 (Embedding)        (None, 4, 62)        197222      input_13[0][0]                   
__________________________________________________________________________________________________
embedding_14 (Embedding)        (None, 4, 75)        8250        input_14[0][0]                   
__________________________________________________________________________________________________
flatten_13 (Flatten)            (None, 248)          0           embedding_13[0][0]               
__________________________________________________________________________________________________
flatten_14 (Flatten)            (None, 300)          0           embedding_14[0][0]               
__________________________________________________________________________________________________
concatenate_7 (Concatenate)     (None, 548)          0           flatten_13[0][0]                 
                                                                 flatten_14[0][0]                 
__________________________________________________________________________________________________
dense_19 (Dense)                (None, 38)           20862       concatenate_7[0][0]              
__________________________________________________________________________________________________
dropout_13 (Dropout)            (None, 38)           0           dense_19[0][0]                   
__________________________________________________________________________________________________
dense_20 (Dense)                (None, 89)           3471        dropout_13[0][0]                 
__________________________________________________________________________________________________
dropout_14 (Dropout)            (None, 89)           0           dense_20[0][0]                   
__________________________________________________________________________________________________
dense_21 (Dense)                (None, 8)            720         dropout_14[0][0]                 
==================================================================================================
Total params: 230,525
Trainable params: 230,525
Non-trainable params: 0
__________________________________________________________________________________________________
None

__________________________________________________________________________________________________
…
	Dashed keys in vocabulary 1622
	One occurrence keys in vocabulary 1622 / 12174
	Embedding
==================================================================================================
	Initialisation = None
	Concatenation = False
	Lemma : 139
	POS = 46 
Deep model(Non compositional)
__________________________________________________________________________________________________
Layer (type)                    Output Shape         Param #     Connected to                     
==================================================================================================
input_19 (InputLayer)           (None, 4)            0                                            
__________________________________________________________________________________________________
input_20 (InputLayer)           (None, 4)            0                                            
__________________________________________________________________________________________________
embedding_19 (Embedding)        (None, 4, 139)       1692186     input_19[0][0]                   
__________________________________________________________________________________________________
embedding_20 (Embedding)        (None, 4, 46)        6992        input_20[0][0]                   
__________________________________________________________________________________________________
flatten_19 (Flatten)            (None, 556)          0           embedding_19[0][0]               
__________________________________________________________________________________________________
flatten_20 (Flatten)            (None, 184)          0           embedding_20[0][0]               
__________________________________________________________________________________________________
concatenate_10 (Concatenate)    (None, 740)          0           flatten_19[0][0]                 
                                                                 flatten_20[0][0]                 
__________________________________________________________________________________________________
dense_28 (Dense)                (None, 446)          330486      concatenate_10[0][0]             
__________________________________________________________________________________________________
dropout_19 (Dropout)            (None, 446)          0           dense_28[0][0]                   
__________________________________________________________________________________________________
dense_29 (Dense)                (None, 111)          49617       dropout_19[0][0]                 
__________________________________________________________________________________________________
dropout_20 (Dropout)            (None, 111)          0           dense_29[0][0]                   
__________________________________________________________________________________________________
dense_30 (Dense)                (None, 8)            896         dropout_20[0][0]                 
==================================================================================================
Total params: 2,080,177
Trainable params: 2,080,177
Non-trainable params: 0
__________________________________________________________________________________________________
None

__________________________________________________________________________________________________
…
	Dashed keys in vocabulary 1622
	One occurrence keys in vocabulary 1622 / 12142
	Embedding
==================================================================================================
	Initialisation = None
	Concatenation = False
	Lemma : 139
	POS = 46 
Deep model(Non compositional)
__________________________________________________________________________________________________
Layer (type)                    Output Shape         Param #     Connected to                     
==================================================================================================
input_21 (InputLayer)           (None, 4)            0                                            
__________________________________________________________________________________________________
input_22 (InputLayer)           (None, 4)            0                                            
__________________________________________________________________________________________________
embedding_21 (Embedding)        (None, 4, 139)       1687738     input_21[0][0]                   
__________________________________________________________________________________________________
embedding_22 (Embedding)        (None, 4, 46)        6992        input_22[0][0]                   
__________________________________________________________________________________________________
flatten_21 (Flatten)            (None, 556)          0           embedding_21[0][0]               
__________________________________________________________________________________________________
flatten_22 (Flatten)            (None, 184)          0           embedding_22[0][0]               
__________________________________________________________________________________________________
concatenate_11 (Concatenate)    (None, 740)          0           flatten_21[0][0]                 
                                                                 flatten_22[0][0]                 
__________________________________________________________________________________________________
dense_31 (Dense)                (None, 446)          330486      concatenate_11[0][0]             
__________________________________________________________________________________________________
dropout_21 (Dropout)            (None, 446)          0           dense_31[0][0]                   
__________________________________________________________________________________________________
dense_32 (Dense)                (None, 111)          49617       dropout_21[0][0]                 
__________________________________________________________________________________________________
dropout_22 (Dropout)            (None, 111)          0           dense_32[0][0]                   
__________________________________________________________________________________________________
dense_33 (Dense)                (None, 8)            896         dropout_22[0][0]                 
==================================================================================================
Total params: 2,075,729
Trainable params: 2,075,729
Non-trainable params: 0
__________________________________________________________________________________________________
None

__________________________________________________________________________________________________
…
	Dashed keys in vocabulary 1622
	One occurrence keys in vocabulary 1622 / 12159
	Embedding
==================================================================================================
	Initialisation = None
	Concatenation = False
	Lemma : 139
	POS = 46 
Deep model(Non compositional)
__________________________________________________________________________________________________
Layer (type)                    Output Shape         Param #     Connected to                     
==================================================================================================
input_23 (InputLayer)           (None, 4)            0                                            
__________________________________________________________________________________________________
input_24 (InputLayer)           (None, 4)            0                                            
__________________________________________________________________________________________________
embedding_23 (Embedding)        (None, 4, 139)       1690101     input_23[0][0]                   
__________________________________________________________________________________________________
embedding_24 (Embedding)        (None, 4, 46)        6992        input_24[0][0]                   
__________________________________________________________________________________________________
flatten_23 (Flatten)            (None, 556)          0           embedding_23[0][0]               
__________________________________________________________________________________________________
flatten_24 (Flatten)            (None, 184)          0           embedding_24[0][0]               
__________________________________________________________________________________________________
concatenate_12 (Concatenate)    (None, 740)          0           flatten_23[0][0]                 
                                                                 flatten_24[0][0]                 
__________________________________________________________________________________________________
dense_34 (Dense)                (None, 446)          330486      concatenate_12[0][0]             
__________________________________________________________________________________________________
dropout_23 (Dropout)            (None, 446)          0           dense_34[0][0]                   
__________________________________________________________________________________________________
dense_35 (Dense)                (None, 111)          49617       dropout_23[0][0]                 
__________________________________________________________________________________________________
dropout_24 (Dropout)            (None, 111)          0           dense_35[0][0]                   
__________________________________________________________________________________________________
dense_36 (Dense)                (None, 8)            896         dropout_24[0][0]                 
==================================================================================================
Total params: 2,078,092
Trainable params: 2,078,092
Non-trainable params: 0
__________________________________________________________________________________________________
None

__________________________________________________________________________________________________
…
	One occurrence keys in vocabulary 1660 / 15321
	Attention: important lemmas are not in vocbulary	Embedding
==================================================================================================
	Initialisation = None
	Concatenation = False
	Lemma : 139
	POS = 46 
Deep model(Non compositional)
__________________________________________________________________________________________________
Layer (type)                    Output Shape         Param #     Connected to                     
==================================================================================================
input_25 (InputLayer)           (None, 4)            0                                            
__________________________________________________________________________________________________
input_26 (InputLayer)           (None, 4)            0                                            
__________________________________________________________________________________________________
embedding_25 (Embedding)        (None, 4, 139)       2129619     input_25[0][0]                   
__________________________________________________________________________________________________
embedding_26 (Embedding)        (None, 4, 46)        7774        input_26[0][0]                   
__________________________________________________________________________________________________
flatten_25 (Flatten)            (None, 556)          0           embedding_25[0][0]               
__________________________________________________________________________________________________
flatten_26 (Flatten)            (None, 184)          0           embedding_26[0][0]               
__________________________________________________________________________________________________
concatenate_13 (Concatenate)    (None, 740)          0           flatten_25[0][0]                 
                                                                 flatten_26[0][0]                 
__________________________________________________________________________________________________
dense_37 (Dense)                (None, 446)          330486      concatenate_13[0][0]             
__________________________________________________________________________________________________
dropout_25 (Dropout)            (None, 446)          0           dense_37[0][0]                   
__________________________________________________________________________________________________
dense_38 (Dense)                (None, 111)          49617       dropout_25[0][0]                 
__________________________________________________________________________________________________
dropout_26 (Dropout)            (None, 111)          0           dense_38[0][0]                   
__________________________________________________________________________________________________
dense_39 (Dense)                (None, 8)            896         dropout_26[0][0]                 
==================================================================================================
Total params: 2,518,392
Trainable params: 2,518,392
Non-trainable params: 0
__________________________________________________________________________________________________
None

__________________________________________________________________________________________________
…
	One occurrence keys in vocabulary 1660 / 15303
	Attention: important lemmas are not in vocbulary	Embedding
==================================================================================================
	Initialisation = None
	Concatenation = False
	Lemma : 139
	POS = 46 
Deep model(Non compositional)
__________________________________________________________________________________________________
Layer (type)                    Output Shape         Param #     Connected to                     
==================================================================================================
input_27 (InputLayer)           (None, 4)            0                                            
__________________________________________________________________________________________________
input_28 (InputLayer)           (None, 4)            0                                            
__________________________________________________________________________________________________
embedding_27 (Embedding)        (None, 4, 139)       2127117     input_27[0][0]                   
__________________________________________________________________________________________________
embedding_28 (Embedding)        (None, 4, 46)        7774        input_28[0][0]                   
__________________________________________________________________________________________________
flatten_27 (Flatten)            (None, 556)          0           embedding_27[0][0]               
__________________________________________________________________________________________________
flatten_28 (Flatten)            (None, 184)          0           embedding_28[0][0]               
__________________________________________________________________________________________________
concatenate_14 (Concatenate)    (None, 740)          0           flatten_27[0][0]                 
                                                                 flatten_28[0][0]                 
__________________________________________________________________________________________________
dense_40 (Dense)                (None, 446)          330486      concatenate_14[0][0]             
__________________________________________________________________________________________________
dropout_27 (Dropout)            (None, 446)          0           dense_40[0][0]                   
__________________________________________________________________________________________________
dense_41 (Dense)                (None, 111)          49617       dropout_27[0][0]                 
__________________________________________________________________________________________________
dropout_28 (Dropout)            (None, 111)          0           dense_41[0][0]                   
__________________________________________________________________________________________________
dense_42 (Dense)                (None, 8)            896         dropout_28[0][0]                 
==================================================================================================
Total params: 2,515,890
Trainable params: 2,515,890
Non-trainable params: 0
__________________________________________________________________________________________________
None

__________________________________________________________________________________________________
…
	One occurrence keys in vocabulary 1660 / 15244
	Attention: important lemmas are not in vocbulary	Embedding
==================================================================================================
	Initialisation = None
	Concatenation = False
	Lemma : 139
	POS = 46 
Deep model(Non compositional)
__________________________________________________________________________________________________
Layer (type)                    Output Shape         Param #     Connected to                     
==================================================================================================
input_29 (InputLayer)           (None, 4)            0                                            
__________________________________________________________________________________________________
input_30 (InputLayer)           (None, 4)            0                                            
__________________________________________________________________________________________________
embedding_29 (Embedding)        (None, 4, 139)       2118916     input_29[0][0]                   
__________________________________________________________________________________________________
embedding_30 (Embedding)        (None, 4, 46)        7774        input_30[0][0]                   
__________________________________________________________________________________________________
flatten_29 (Flatten)            (None, 556)          0           embedding_29[0][0]               
__________________________________________________________________________________________________
flatten_30 (Flatten)            (None, 184)          0           embedding_30[0][0]               
__________________________________________________________________________________________________
concatenate_15 (Concatenate)    (None, 740)          0           flatten_29[0][0]                 
                                                                 flatten_30[0][0]                 
__________________________________________________________________________________________________
dense_43 (Dense)                (None, 446)          330486      concatenate_15[0][0]             
__________________________________________________________________________________________________
dropout_29 (Dropout)            (None, 446)          0           dense_43[0][0]                   
__________________________________________________________________________________________________
dense_44 (Dense)                (None, 111)          49617       dropout_29[0][0]                 
__________________________________________________________________________________________________
dropout_30 (Dropout)            (None, 111)          0           dense_44[0][0]                   
__________________________________________________________________________________________________
dense_45 (Dense)                (None, 8)            896         dropout_30[0][0]                 
==================================================================================================
Total params: 2,507,689
Trainable params: 2,507,689
Non-trainable params: 0
__________________________________________________________________________________________________
None

__________________________________________________________________________________________________
…
	Dashed keys in vocabulary 1979
	One occurrence keys in vocabulary 1979 / 12529
	Embedding
==================================================================================================
	Initialisation = None
	Concatenation = False
	Lemma : 139
	POS = 46 
Deep model(Non compositional)
__________________________________________________________________________________________________
Layer (type)                    Output Shape         Param #     Connected to                     
==================================================================================================
input_31 (InputLayer)           (None, 4)            0                                            
__________________________________________________________________________________________________
input_32 (InputLayer)           (None, 4)            0                                            
__________________________________________________________________________________________________
embedding_31 (Embedding)        (None, 4, 139)       1741531     input_31[0][0]                   
__________________________________________________________________________________________________
embedding_32 (Embedding)        (None, 4, 46)        5060        input_32[0][0]                   
__________________________________________________________________________________________________
flatten_31 (Flatten)            (None, 556)          0           embedding_31[0][0]               
__________________________________________________________________________________________________
flatten_32 (Flatten)            (None, 184)          0           embedding_32[0][0]               
__________________________________________________________________________________________________
concatenate_16 (Concatenate)    (None, 740)          0           flatten_31[0][0]                 
                                                                 flatten_32[0][0]                 
__________________________________________________________________________________________________
dense_46 (Dense)                (None, 446)          330486      concatenate_16[0][0]             
__________________________________________________________________________________________________
dropout_31 (Dropout)            (None, 446)          0           dense_46[0][0]                   
__________________________________________________________________________________________________
dense_47 (Dense)                (None, 111)          49617       dropout_31[0][0]                 
__________________________________________________________________________________________________
dropout_32 (Dropout)            (None, 111)          0           dense_47[0][0]                   
__________________________________________________________________________________________________
dense_48 (Dense)                (None, 8)            896         dropout_32[0][0]                 
==================================================================================================
Total params: 2,127,590
Trainable params: 2,127,590
Non-trainable params: 0
__________________________________________________________________________________________________
None

__________________________________________________________________________________________________
…
	Dashed keys in vocabulary 1979
	One occurrence keys in vocabulary 1979 / 12525
	Embedding
==================================================================================================
	Initialisation = None
	Concatenation = False
	Lemma : 139
	POS = 46 
Deep model(Non compositional)
__________________________________________________________________________________________________
Layer (type)                    Output Shape         Param #     Connected to                     
==================================================================================================
input_33 (InputLayer)           (None, 4)            0                                            
__________________________________________________________________________________________________
input_34 (InputLayer)           (None, 4)            0                                            
__________________________________________________________________________________________________
embedding_33 (Embedding)        (None, 4, 139)       1740975     input_33[0][0]                   
__________________________________________________________________________________________________
embedding_34 (Embedding)        (None, 4, 46)        5060        input_34[0][0]                   
__________________________________________________________________________________________________
flatten_33 (Flatten)            (None, 556)          0           embedding_33[0][0]               
__________________________________________________________________________________________________
flatten_34 (Flatten)            (None, 184)          0           embedding_34[0][0]               
__________________________________________________________________________________________________
concatenate_17 (Concatenate)    (None, 740)          0           flatten_33[0][0]                 
                                                                 flatten_34[0][0]                 
__________________________________________________________________________________________________
dense_49 (Dense)                (None, 446)          330486      concatenate_17[0][0]             
__________________________________________________________________________________________________
dropout_33 (Dropout)            (None, 446)          0           dense_49[0][0]                   
__________________________________________________________________________________________________
dense_50 (Dense)                (None, 111)          49617       dropout_33[0][0]                 
__________________________________________________________________________________________________
dropout_34 (Dropout)            (None, 111)          0           dense_50[0][0]                   
__________________________________________________________________________________________________
dense_51 (Dense)                (None, 8)            896         dropout_34[0][0]                 
==================================================================================================
Total params: 2,127,034
Trainable params: 2,127,034
Non-trainable params: 0
__________________________________________________________________________________________________
None

__________________________________________________________________________________________________
…
	Dashed keys in vocabulary 1979
	One occurrence keys in vocabulary 1979 / 12587
	Embedding
==================================================================================================
	Initialisation = None
	Concatenation = False
	Lemma : 139
	POS = 46 
Deep model(Non compositional)
__________________________________________________________________________________________________
Layer (type)                    Output Shape         Param #     Connected to                     
==================================================================================================
input_35 (InputLayer)           (None, 4)            0                                            
__________________________________________________________________________________________________
input_36 (InputLayer)           (None, 4)            0                                            
__________________________________________________________________________________________________
embedding_35 (Embedding)        (None, 4, 139)       1749593     input_35[0][0]                   
__________________________________________________________________________________________________
embedding_36 (Embedding)        (None, 4, 46)        5060        input_36[0][0]                   
__________________________________________________________________________________________________
flatten_35 (Flatten)            (None, 556)          0           embedding_35[0][0]               
__________________________________________________________________________________________________
flatten_36 (Flatten)            (None, 184)          0           embedding_36[0][0]               
__________________________________________________________________________________________________
concatenate_18 (Concatenate)    (None, 740)          0           flatten_35[0][0]                 
                                                                 flatten_36[0][0]                 
__________________________________________________________________________________________________
dense_52 (Dense)                (None, 446)          330486      concatenate_18[0][0]             
__________________________________________________________________________________________________
dropout_35 (Dropout)            (None, 446)          0           dense_52[0][0]                   
__________________________________________________________________________________________________
dense_53 (Dense)                (None, 111)          49617       dropout_35[0][0]                 
__________________________________________________________________________________________________
dropout_36 (Dropout)            (None, 111)          0           dense_53[0][0]                   
__________________________________________________________________________________________________
dense_54 (Dense)                (None, 8)            896         dropout_36[0][0]                 
==================================================================================================
Total params: 2,135,652
Trainable params: 2,135,652
Non-trainable params: 0
__________________________________________________________________________________________________
None

__________________________________________________________________________________________________
…
	Dashed keys in vocabulary 1622
	One occurrence keys in vocabulary 1622 / 2800
	Embedding
==================================================================================================
	Initialisation = None
	Concatenation = False
	Lemma : 225
	POS = 31 
Deep model(Non compositional)
__________________________________________________________________________________________________
Layer (type)                    Output Shape         Param #     Connected to                     
==================================================================================================
input_37 (InputLayer)           (None, 4)            0                                            
__________________________________________________________________________________________________
input_38 (InputLayer)           (None, 4)            0                                            
__________________________________________________________________________________________________
embedding_37 (Embedding)        (None, 4, 225)       630000      input_37[0][0]                   
__________________________________________________________________________________________________
embedding_38 (Embedding)        (None, 4, 31)        4712        input_38[0][0]                   
__________________________________________________________________________________________________
flatten_37 (Flatten)            (None, 900)          0           embedding_37[0][0]               
__________________________________________________________________________________________________
flatten_38 (Flatten)            (None, 124)          0           embedding_38[0][0]               
__________________________________________________________________________________________________
concatenate_19 (Concatenate)    (None, 1024)         0           flatten_37[0][0]                 
                                                                 flatten_38[0][0]                 
__________________________________________________________________________________________________
dense_55 (Dense)                (None, 33)           33825       concatenate_19[0][0]             
__________________________________________________________________________________________________
dropout_37 (Dropout)            (None, 33)           0           dense_55[0][0]                   
__________________________________________________________________________________________________
dense_56 (Dense)                (None, 8)            272         dropout_37[0][0]                 
__________________________________________________________________________________________________
dropout_38 (Dropout)            (None, 8)            0           dense_56[0][0]                   
__________________________________________________________________________________________________
dense_57 (Dense)                (None, 8)            72          dropout_38[0][0]                 
==================================================================================================
Total params: 668,881
Trainable params: 668,881
Non-trainable params: 0
__________________________________________________________________________________________________
None

__________________________________________________________________________________________________
…
	One occurrence keys in vocabulary 1660 / 2793
	Attention: important lemmas are not in vocbulary	Embedding
==================================================================================================
	Initialisation = None
	Concatenation = False
	Lemma : 225
	POS = 31 
Deep model(Non compositional)
__________________________________________________________________________________________________
Layer (type)                    Output Shape         Param #     Connected to                     
==================================================================================================
input_43 (InputLayer)           (None, 4)            0                                            
__________________________________________________________________________________________________
input_44 (InputLayer)           (None, 4)            0                                            
__________________________________________________________________________________________________
embedding_43 (Embedding)        (None, 4, 225)       628425      input_43[0][0]                   
__________________________________________________________________________________________________
embedding_44 (Embedding)        (None, 4, 31)        5239        input_44[0][0]                   
__________________________________________________________________________________________________
flatten_43 (Flatten)            (None, 900)          0           embedding_43[0][0]               
__________________________________________________________________________________________________
flatten_44 (Flatten)            (None, 124)          0           embedding_44[0][0]               
__________________________________________________________________________________________________
concatenate_22 (Concatenate)    (None, 1024)         0           flatten_43[0][0]                 
                                                                 flatten_44[0][0]                 
__________________________________________________________________________________________________
dense_64 (Dense)                (None, 33)           33825       concatenate_22[0][0]             
__________________________________________________________________________________________________
dropout_43 (Dropout)            (None, 33)           0           dense_64[0][0]                   
__________________________________________________________________________________________________
dense_65 (Dense)                (None, 8)            272         dropout_43[0][0]                 
__________________________________________________________________________________________________
dropout_44 (Dropout)            (None, 8)            0           dense_65[0][0]                   
__________________________________________________________________________________________________
dense_66 (Dense)                (None, 8)            72          dropout_44[0][0]                 
==================================================================================================
Total params: 667,833
Trainable params: 667,833
Non-trainable params: 0
__________________________________________________________________________________________________
None

__________________________________________________________________________________________________
…
	Dashed keys in vocabulary 1979
	One occurrence keys in vocabulary 1979 / 3181
	Embedding
==================================================================================================
	Initialisation = None
	Concatenation = False
	Lemma : 225
	POS = 31 
Deep model(Non compositional)
__________________________________________________________________________________________________
Layer (type)                    Output Shape         Param #     Connected to                     
==================================================================================================
input_49 (InputLayer)           (None, 4)            0                                            
__________________________________________________________________________________________________
input_50 (InputLayer)           (None, 4)            0                                            
__________________________________________________________________________________________________
embedding_49 (Embedding)        (None, 4, 225)       715725      input_49[0][0]                   
__________________________________________________________________________________________________
embedding_50 (Embedding)        (None, 4, 31)        3410        input_50[0][0]                   
__________________________________________________________________________________________________
flatten_49 (Flatten)            (None, 900)          0           embedding_49[0][0]               
__________________________________________________________________________________________________
flatten_50 (Flatten)            (None, 124)          0           embedding_50[0][0]               
__________________________________________________________________________________________________
concatenate_25 (Concatenate)    (None, 1024)         0           flatten_49[0][0]                 
                                                                 flatten_50[0][0]                 
__________________________________________________________________________________________________
dense_73 (Dense)                (None, 33)           33825       concatenate_25[0][0]             
__________________________________________________________________________________________________
dropout_49 (Dropout)            (None, 33)           0           dense_73[0][0]                   
__________________________________________________________________________________________________
dense_74 (Dense)                (None, 8)            272         dropout_49[0][0]                 
__________________________________________________________________________________________________
dropout_50 (Dropout)            (None, 8)            0           dense_74[0][0]                   
__________________________________________________________________________________________________
dense_75 (Dense)                (None, 8)            72          dropout_50[0][0]                 
==================================================================================================
Total params: 753,304
Trainable params: 753,304
Non-trainable params: 0
__________________________________________________________________________________________________
None

__________________________________________________________________________________________________
…
	Dashed keys in vocabulary 1622
	One occurrence keys in vocabulary 1622 / 12174
	Embedding
==================================================================================================
	Initialisation = None
	Concatenation = False
	Lemma : 371
	POS = 23 
Deep model(Non compositional)
__________________________________________________________________________________________________
Layer (type)                    Output Shape         Param #     Connected to                     
==================================================================================================
input_55 (InputLayer)           (None, 4)            0                                            
__________________________________________________________________________________________________
input_56 (InputLayer)           (None, 4)            0                                            
__________________________________________________________________________________________________
embedding_55 (Embedding)        (None, 4, 371)       4516554     input_55[0][0]                   
__________________________________________________________________________________________________
embedding_56 (Embedding)        (None, 4, 23)        3496        input_56[0][0]                   
__________________________________________________________________________________________________
flatten_55 (Flatten)            (None, 1484)         0           embedding_55[0][0]               
__________________________________________________________________________________________________
flatten_56 (Flatten)            (None, 92)           0           embedding_56[0][0]               
__________________________________________________________________________________________________
concatenate_28 (Concatenate)    (None, 1576)         0           flatten_55[0][0]                 
                                                                 flatten_56[0][0]                 
__________________________________________________________________________________________________
dense_82 (Dense)                (None, 31)           48887       concatenate_28[0][0]             
__________________________________________________________________________________________________
dropout_55 (Dropout)            (None, 31)           0           dense_82[0][0]                   
__________________________________________________________________________________________________
dense_83 (Dense)                (None, 23)           736         dropout_55[0][0]                 
__________________________________________________________________________________________________
dropout_56 (Dropout)            (None, 23)           0           dense_83[0][0]                   
__________________________________________________________________________________________________
dense_84 (Dense)                (None, 8)            192         dropout_56[0][0]                 
==================================================================================================
Total params: 4,569,865
Trainable params: 4,569,865
Non-trainable params: 0
__________________________________________________________________________________________________
None

__________________________________________________________________________________________________
…
	Dashed keys in vocabulary 1622
	One occurrence keys in vocabulary 1622 / 12142
	Embedding
==================================================================================================
	Initialisation = None
	Concatenation = False
	Lemma : 371
	POS = 23 
Deep model(Non compositional)
__________________________________________________________________________________________________
Layer (type)                    Output Shape         Param #     Connected to                     
==================================================================================================
input_57 (InputLayer)           (None, 4)            0                                            
__________________________________________________________________________________________________
input_58 (InputLayer)           (None, 4)            0                                            
__________________________________________________________________________________________________
embedding_57 (Embedding)        (None, 4, 371)       4504682     input_57[0][0]                   
__________________________________________________________________________________________________
embedding_58 (Embedding)        (None, 4, 23)        3496        input_58[0][0]                   
__________________________________________________________________________________________________
flatten_57 (Flatten)            (None, 1484)         0           embedding_57[0][0]               
__________________________________________________________________________________________________
flatten_58 (Flatten)            (None, 92)           0           embedding_58[0][0]               
__________________________________________________________________________________________________
concatenate_29 (Concatenate)    (None, 1576)         0           flatten_57[0][0]                 
                                                                 flatten_58[0][0]                 
__________________________________________________________________________________________________
dense_85 (Dense)                (None, 31)           48887       concatenate_29[0][0]             
__________________________________________________________________________________________________
dropout_57 (Dropout)            (None, 31)           0           dense_85[0][0]                   
__________________________________________________________________________________________________
dense_86 (Dense)                (None, 23)           736         dropout_57[0][0]                 
__________________________________________________________________________________________________
dropout_58 (Dropout)            (None, 23)           0           dense_86[0][0]                   
__________________________________________________________________________________________________
dense_87 (Dense)                (None, 8)            192         dropout_58[0][0]                 
==================================================================================================
Total params: 4,557,993
Trainable params: 4,557,993
Non-trainable params: 0
__________________________________________________________________________________________________
None

__________________________________________________________________________________________________
…
	Dashed keys in vocabulary 1622
	One occurrence keys in vocabulary 1622 / 12159
	Embedding
==================================================================================================
	Initialisation = None
	Concatenation = False
	Lemma : 371
	POS = 23 
Deep model(Non compositional)
__________________________________________________________________________________________________
Layer (type)                    Output Shape         Param #     Connected to                     
==================================================================================================
input_59 (InputLayer)           (None, 4)            0                                            
__________________________________________________________________________________________________
input_60 (InputLayer)           (None, 4)            0                                            
__________________________________________________________________________________________________
embedding_59 (Embedding)        (None, 4, 371)       4510989     input_59[0][0]                   
__________________________________________________________________________________________________
embedding_60 (Embedding)        (None, 4, 23)        3496        input_60[0][0]                   
__________________________________________________________________________________________________
flatten_59 (Flatten)            (None, 1484)         0           embedding_59[0][0]               
__________________________________________________________________________________________________
flatten_60 (Flatten)            (None, 92)           0           embedding_60[0][0]               
__________________________________________________________________________________________________
concatenate_30 (Concatenate)    (None, 1576)         0           flatten_59[0][0]                 
                                                                 flatten_60[0][0]                 
__________________________________________________________________________________________________
dense_88 (Dense)                (None, 31)           48887       concatenate_30[0][0]             
__________________________________________________________________________________________________
dropout_59 (Dropout)            (None, 31)           0           dense_88[0][0]                   
__________________________________________________________________________________________________
dense_89 (Dense)                (None, 23)           736         dropout_59[0][0]                 
__________________________________________________________________________________________________
dropout_60 (Dropout)            (None, 23)           0           dense_89[0][0]                   
__________________________________________________________________________________________________
dense_90 (Dense)                (None, 8)            192         dropout_60[0][0]                 
==================================================================================================
Total params: 4,564,300
Trainable params: 4,564,300
Non-trainable params: 0
__________________________________________________________________________________________________
None

__________________________________________________________________________________________________
…
	One occurrence keys in vocabulary 1660 / 15321
	Attention: important lemmas are not in vocbulary	Embedding
==================================================================================================
	Initialisation = None
	Concatenation = False
	Lemma : 371
	POS = 23 
Deep model(Non compositional)
__________________________________________________________________________________________________
Layer (type)                    Output Shape         Param #     Connected to                     
==================================================================================================
input_61 (InputLayer)           (None, 4)            0                                            
__________________________________________________________________________________________________
input_62 (InputLayer)           (None, 4)            0                                            
__________________________________________________________________________________________________
embedding_61 (Embedding)        (None, 4, 371)       5684091     input_61[0][0]                   
__________________________________________________________________________________________________
embedding_62 (Embedding)        (None, 4, 23)        3887        input_62[0][0]                   
__________________________________________________________________________________________________
flatten_61 (Flatten)            (None, 1484)         0           embedding_61[0][0]               
__________________________________________________________________________________________________
flatten_62 (Flatten)            (None, 92)           0           embedding_62[0][0]               
__________________________________________________________________________________________________
concatenate_31 (Concatenate)    (None, 1576)         0           flatten_61[0][0]                 
                                                                 flatten_62[0][0]                 
__________________________________________________________________________________________________
dense_91 (Dense)                (None, 31)           48887       concatenate_31[0][0]             
__________________________________________________________________________________________________
dropout_61 (Dropout)            (None, 31)           0           dense_91[0][0]                   
__________________________________________________________________________________________________
dense_92 (Dense)                (None, 23)           736         dropout_61[0][0]                 
__________________________________________________________________________________________________
dropout_62 (Dropout)            (None, 23)           0           dense_92[0][0]                   
__________________________________________________________________________________________________
dense_93 (Dense)                (None, 8)            192         dropout_62[0][0]                 
==================================================================================================
Total params: 5,737,793
Trainable params: 5,737,793
Non-trainable params: 0
__________________________________________________________________________________________________
None

__________________________________________________________________________________________________
…
	One occurrence keys in vocabulary 1660 / 15303
	Attention: important lemmas are not in vocbulary	Embedding
==================================================================================================
	Initialisation = None
	Concatenation = False
	Lemma : 371
	POS = 23 
Deep model(Non compositional)
__________________________________________________________________________________________________
Layer (type)                    Output Shape         Param #     Connected to                     
==================================================================================================
input_63 (InputLayer)           (None, 4)            0                                            
__________________________________________________________________________________________________
input_64 (InputLayer)           (None, 4)            0                                            
__________________________________________________________________________________________________
embedding_63 (Embedding)        (None, 4, 371)       5677413     input_63[0][0]                   
__________________________________________________________________________________________________
embedding_64 (Embedding)        (None, 4, 23)        3887        input_64[0][0]                   
__________________________________________________________________________________________________
flatten_63 (Flatten)            (None, 1484)         0           embedding_63[0][0]               
__________________________________________________________________________________________________
flatten_64 (Flatten)            (None, 92)           0           embedding_64[0][0]               
__________________________________________________________________________________________________
concatenate_32 (Concatenate)    (None, 1576)         0           flatten_63[0][0]                 
                                                                 flatten_64[0][0]                 
__________________________________________________________________________________________________
dense_94 (Dense)                (None, 31)           48887       concatenate_32[0][0]             
__________________________________________________________________________________________________
dropout_63 (Dropout)            (None, 31)           0           dense_94[0][0]                   
__________________________________________________________________________________________________
dense_95 (Dense)                (None, 23)           736         dropout_63[0][0]                 
__________________________________________________________________________________________________
dropout_64 (Dropout)            (None, 23)           0           dense_95[0][0]                   
__________________________________________________________________________________________________
dense_96 (Dense)                (None, 8)            192         dropout_64[0][0]                 
==================================================================================================
Total params: 5,731,115
Trainable params: 5,731,115
Non-trainable params: 0
__________________________________________________________________________________________________
None

__________________________________________________________________________________________________
…
	One occurrence keys in vocabulary 1660 / 15244
	Attention: important lemmas are not in vocbulary	Embedding
==================================================================================================
	Initialisation = None
	Concatenation = False
	Lemma : 371
	POS = 23 
Deep model(Non compositional)
__________________________________________________________________________________________________
Layer (type)                    Output Shape         Param #     Connected to                     
==================================================================================================
input_65 (InputLayer)           (None, 4)            0                                            
__________________________________________________________________________________________________
input_66 (InputLayer)           (None, 4)            0                                            
__________________________________________________________________________________________________
embedding_65 (Embedding)        (None, 4, 371)       5655524     input_65[0][0]                   
__________________________________________________________________________________________________
embedding_66 (Embedding)        (None, 4, 23)        3887        input_66[0][0]                   
__________________________________________________________________________________________________
flatten_65 (Flatten)            (None, 1484)         0           embedding_65[0][0]               
__________________________________________________________________________________________________
flatten_66 (Flatten)            (None, 92)           0           embedding_66[0][0]               
__________________________________________________________________________________________________
concatenate_33 (Concatenate)    (None, 1576)         0           flatten_65[0][0]                 
                                                                 flatten_66[0][0]                 
__________________________________________________________________________________________________
dense_97 (Dense)                (None, 31)           48887       concatenate_33[0][0]             
__________________________________________________________________________________________________
dropout_65 (Dropout)            (None, 31)           0           dense_97[0][0]                   
__________________________________________________________________________________________________
dense_98 (Dense)                (None, 23)           736         dropout_65[0][0]                 
__________________________________________________________________________________________________
dropout_66 (Dropout)            (None, 23)           0           dense_98[0][0]                   
__________________________________________________________________________________________________
dense_99 (Dense)                (None, 8)            192         dropout_66[0][0]                 
==================================================================================================
Total params: 5,709,226
Trainable params: 5,709,226
Non-trainable params: 0
__________________________________________________________________________________________________
None

__________________________________________________________________________________________________
…
	Dashed keys in vocabulary 1979
	One occurrence keys in vocabulary 1979 / 12529
	Embedding
==================================================================================================
	Initialisation = None
	Concatenation = False
	Lemma : 371
	POS = 23 
Deep model(Non compositional)
__________________________________________________________________________________________________
Layer (type)                    Output Shape         Param #     Connected to                     
==================================================================================================
input_67 (InputLayer)           (None, 4)            0                                            
__________________________________________________________________________________________________
input_68 (InputLayer)           (None, 4)            0                                            
__________________________________________________________________________________________________
embedding_67 (Embedding)        (None, 4, 371)       4648259     input_67[0][0]                   
__________________________________________________________________________________________________
embedding_68 (Embedding)        (None, 4, 23)        2530        input_68[0][0]                   
__________________________________________________________________________________________________
flatten_67 (Flatten)            (None, 1484)         0           embedding_67[0][0]               
__________________________________________________________________________________________________
flatten_68 (Flatten)            (None, 92)           0           embedding_68[0][0]               
__________________________________________________________________________________________________
concatenate_34 (Concatenate)    (None, 1576)         0           flatten_67[0][0]                 
                                                                 flatten_68[0][0]                 
__________________________________________________________________________________________________
dense_100 (Dense)               (None, 31)           48887       concatenate_34[0][0]             
__________________________________________________________________________________________________
dropout_67 (Dropout)            (None, 31)           0           dense_100[0][0]                  
__________________________________________________________________________________________________
dense_101 (Dense)               (None, 23)           736         dropout_67[0][0]                 
__________________________________________________________________________________________________
dropout_68 (Dropout)            (None, 23)           0           dense_101[0][0]                  
__________________________________________________________________________________________________
dense_102 (Dense)               (None, 8)            192         dropout_68[0][0]                 
==================================================================================================
Total params: 4,700,604
Trainable params: 4,700,604
Non-trainable params: 0
__________________________________________________________________________________________________
None

__________________________________________________________________________________________________
…
	Dashed keys in vocabulary 1979
	One occurrence keys in vocabulary 1979 / 12525
	Embedding
==================================================================================================
	Initialisation = None
	Concatenation = False
	Lemma : 371
	POS = 23 
Deep model(Non compositional)
__________________________________________________________________________________________________
Layer (type)                    Output Shape         Param #     Connected to                     
==================================================================================================
input_69 (InputLayer)           (None, 4)            0                                            
__________________________________________________________________________________________________
input_70 (InputLayer)           (None, 4)            0                                            
__________________________________________________________________________________________________
embedding_69 (Embedding)        (None, 4, 371)       4646775     input_69[0][0]                   
__________________________________________________________________________________________________
embedding_70 (Embedding)        (None, 4, 23)        2530        input_70[0][0]                   
__________________________________________________________________________________________________
flatten_69 (Flatten)            (None, 1484)         0           embedding_69[0][0]               
__________________________________________________________________________________________________
flatten_70 (Flatten)            (None, 92)           0           embedding_70[0][0]               
__________________________________________________________________________________________________
concatenate_35 (Concatenate)    (None, 1576)         0           flatten_69[0][0]                 
                                                                 flatten_70[0][0]                 
__________________________________________________________________________________________________
dense_103 (Dense)               (None, 31)           48887       concatenate_35[0][0]             
__________________________________________________________________________________________________
dropout_69 (Dropout)            (None, 31)           0           dense_103[0][0]                  
__________________________________________________________________________________________________
dense_104 (Dense)               (None, 23)           736         dropout_69[0][0]                 
__________________________________________________________________________________________________
dropout_70 (Dropout)            (None, 23)           0           dense_104[0][0]                  
__________________________________________________________________________________________________
dense_105 (Dense)               (None, 8)            192         dropout_70[0][0]                 
==================================================================================================
Total params: 4,699,120
Trainable params: 4,699,120
Non-trainable params: 0
__________________________________________________________________________________________________
None

__________________________________________________________________________________________________
…
	Dashed keys in vocabulary 1979
	One occurrence keys in vocabulary 1979 / 12587
	Embedding
==================================================================================================
	Initialisation = None
	Concatenation = False
	Lemma : 371
	POS = 23 
Deep model(Non compositional)
__________________________________________________________________________________________________
Layer (type)                    Output Shape         Param #     Connected to                     
==================================================================================================
input_71 (InputLayer)           (None, 4)            0                                            
__________________________________________________________________________________________________
input_72 (InputLayer)           (None, 4)            0                                            
__________________________________________________________________________________________________
embedding_71 (Embedding)        (None, 4, 371)       4669777     input_71[0][0]                   
__________________________________________________________________________________________________
embedding_72 (Embedding)        (None, 4, 23)        2530        input_72[0][0]                   
__________________________________________________________________________________________________
flatten_71 (Flatten)            (None, 1484)         0           embedding_71[0][0]               
__________________________________________________________________________________________________
flatten_72 (Flatten)            (None, 92)           0           embedding_72[0][0]               
__________________________________________________________________________________________________
concatenate_36 (Concatenate)    (None, 1576)         0           flatten_71[0][0]                 
                                                                 flatten_72[0][0]                 
__________________________________________________________________________________________________
dense_106 (Dense)               (None, 31)           48887       concatenate_36[0][0]             
__________________________________________________________________________________________________
dropout_71 (Dropout)            (None, 31)           0           dense_106[0][0]                  
__________________________________________________________________________________________________
dense_107 (Dense)               (None, 23)           736         dropout_71[0][0]                 
__________________________________________________________________________________________________
dropout_72 (Dropout)            (None, 23)           0           dense_107[0][0]                  
__________________________________________________________________________________________________
dense_108 (Dense)               (None, 8)            192         dropout_72[0][0]                 
==================================================================================================
Total params: 4,722,122
Trainable params: 4,722,122
Non-trainable params: 0
__________________________________________________________________________________________________
None

__________________________________________________________________________________________________
…
	Dashed keys in vocabulary 1622
	One occurrence keys in vocabulary 1622 / 12174
	Embedding
==================================================================================================
	Initialisation = None
	Concatenation = False
	Lemma : 149
	POS = 46 
Deep model(Non compositional)
__________________________________________________________________________________________________
Layer (type)                    Output Shape         Param #     Connected to                     
==================================================================================================
input_73 (InputLayer)           (None, 4)            0                                            
__________________________________________________________________________________________________
input_74 (InputLayer)           (None, 4)            0                                            
__________________________________________________________________________________________________
embedding_73 (Embedding)        (None, 4, 149)       1813926     input_73[0][0]                   
__________________________________________________________________________________________________
embedding_74 (Embedding)        (None, 4, 46)        6992        input_74[0][0]                   
__________________________________________________________________________________________________
flatten_73 (Flatten)            (None, 596)          0           embedding_73[0][0]               
__________________________________________________________________________________________________
flatten_74 (Flatten)            (None, 184)          0           embedding_74[0][0]               
__________________________________________________________________________________________________
concatenate_37 (Concatenate)    (None, 780)          0           flatten_73[0][0]                 
                                                                 flatten_74[0][0]                 
__________________________________________________________________________________________________
dense_109 (Dense)               (None, 19)           14839       concatenate_37[0][0]             
__________________________________________________________________________________________________
dropout_73 (Dropout)            (None, 19)           0           dense_109[0][0]                  
__________________________________________________________________________________________________
dense_110 (Dense)               (None, 68)           1360        dropout_73[0][0]                 
__________________________________________________________________________________________________
dropout_74 (Dropout)            (None, 68)           0           dense_110[0][0]                  
__________________________________________________________________________________________________
dense_111 (Dense)               (None, 8)            552         dropout_74[0][0]                 
==================================================================================================
Total params: 1,837,669
Trainable params: 1,837,669
Non-trainable params: 0
__________________________________________________________________________________________________
None

__________________________________________________________________________________________________
…
	Dashed keys in vocabulary 1622
	One occurrence keys in vocabulary 1622 / 12142
	Embedding
==================================================================================================
	Initialisation = None
	Concatenation = False
	Lemma : 149
	POS = 46 
Deep model(Non compositional)
__________________________________________________________________________________________________
Layer (type)                    Output Shape         Param #     Connected to                     
==================================================================================================
input_75 (InputLayer)           (None, 4)            0                                            
__________________________________________________________________________________________________
input_76 (InputLayer)           (None, 4)            0                                            
__________________________________________________________________________________________________
embedding_75 (Embedding)        (None, 4, 149)       1809158     input_75[0][0]                   
__________________________________________________________________________________________________
embedding_76 (Embedding)        (None, 4, 46)        6992        input_76[0][0]                   
__________________________________________________________________________________________________
flatten_75 (Flatten)            (None, 596)          0           embedding_75[0][0]               
__________________________________________________________________________________________________
flatten_76 (Flatten)            (None, 184)          0           embedding_76[0][0]               
__________________________________________________________________________________________________
concatenate_38 (Concatenate)    (None, 780)          0           flatten_75[0][0]                 
                                                                 flatten_76[0][0]                 
__________________________________________________________________________________________________
dense_112 (Dense)               (None, 19)           14839       concatenate_38[0][0]             
__________________________________________________________________________________________________
dropout_75 (Dropout)            (None, 19)           0           dense_112[0][0]                  
__________________________________________________________________________________________________
dense_113 (Dense)               (None, 68)           1360        dropout_75[0][0]                 
__________________________________________________________________________________________________
dropout_76 (Dropout)            (None, 68)           0           dense_113[0][0]                  
__________________________________________________________________________________________________
dense_114 (Dense)               (None, 8)            552         dropout_76[0][0]                 
==================================================================================================
Total params: 1,832,901
Trainable params: 1,832,901
Non-trainable params: 0
__________________________________________________________________________________________________
None

__________________________________________________________________________________________________
…
	Dashed keys in vocabulary 1622
	One occurrence keys in vocabulary 1622 / 12159
	Embedding
==================================================================================================
	Initialisation = None
	Concatenation = False
	Lemma : 149
	POS = 46 
Deep model(Non compositional)
__________________________________________________________________________________________________
Layer (type)                    Output Shape         Param #     Connected to                     
==================================================================================================
input_77 (InputLayer)           (None, 4)            0                                            
__________________________________________________________________________________________________
input_78 (InputLayer)           (None, 4)            0                                            
__________________________________________________________________________________________________
embedding_77 (Embedding)        (None, 4, 149)       1811691     input_77[0][0]                   
__________________________________________________________________________________________________
embedding_78 (Embedding)        (None, 4, 46)        6992        input_78[0][0]                   
__________________________________________________________________________________________________
flatten_77 (Flatten)            (None, 596)          0           embedding_77[0][0]               
__________________________________________________________________________________________________
flatten_78 (Flatten)            (None, 184)          0           embedding_78[0][0]               
__________________________________________________________________________________________________
concatenate_39 (Concatenate)    (None, 780)          0           flatten_77[0][0]                 
                                                                 flatten_78[0][0]                 
__________________________________________________________________________________________________
dense_115 (Dense)               (None, 19)           14839       concatenate_39[0][0]             
__________________________________________________________________________________________________
dropout_77 (Dropout)            (None, 19)           0           dense_115[0][0]                  
__________________________________________________________________________________________________
dense_116 (Dense)               (None, 68)           1360        dropout_77[0][0]                 
__________________________________________________________________________________________________
dropout_78 (Dropout)            (None, 68)           0           dense_116[0][0]                  
__________________________________________________________________________________________________
dense_117 (Dense)               (None, 8)            552         dropout_78[0][0]                 
==================================================================================================
Total params: 1,835,434
Trainable params: 1,835,434
Non-trainable params: 0
__________________________________________________________________________________________________
None

__________________________________________________________________________________________________
…
	One occurrence keys in vocabulary 1660 / 15321
	Attention: important lemmas are not in vocbulary	Embedding
==================================================================================================
	Initialisation = None
	Concatenation = False
	Lemma : 149
	POS = 46 
Deep model(Non compositional)
__________________________________________________________________________________________________
Layer (type)                    Output Shape         Param #     Connected to                     
==================================================================================================
input_79 (InputLayer)           (None, 4)            0                                            
__________________________________________________________________________________________________
input_80 (InputLayer)           (None, 4)            0                                            
__________________________________________________________________________________________________
embedding_79 (Embedding)        (None, 4, 149)       2282829     input_79[0][0]                   
__________________________________________________________________________________________________
embedding_80 (Embedding)        (None, 4, 46)        7774        input_80[0][0]                   
__________________________________________________________________________________________________
flatten_79 (Flatten)            (None, 596)          0           embedding_79[0][0]               
__________________________________________________________________________________________________
flatten_80 (Flatten)            (None, 184)          0           embedding_80[0][0]               
__________________________________________________________________________________________________
concatenate_40 (Concatenate)    (None, 780)          0           flatten_79[0][0]                 
                                                                 flatten_80[0][0]                 
__________________________________________________________________________________________________
dense_118 (Dense)               (None, 19)           14839       concatenate_40[0][0]             
__________________________________________________________________________________________________
dropout_79 (Dropout)            (None, 19)           0           dense_118[0][0]                  
__________________________________________________________________________________________________
dense_119 (Dense)               (None, 68)           1360        dropout_79[0][0]                 
__________________________________________________________________________________________________
dropout_80 (Dropout)            (None, 68)           0           dense_119[0][0]                  
__________________________________________________________________________________________________
dense_120 (Dense)               (None, 8)            552         dropout_80[0][0]                 
==================================================================================================
Total params: 2,307,354
Trainable params: 2,307,354
Non-trainable params: 0
__________________________________________________________________________________________________
None

__________________________________________________________________________________________________
…
	One occurrence keys in vocabulary 1660 / 15303
	Attention: important lemmas are not in vocbulary	Embedding
==================================================================================================
	Initialisation = None
	Concatenation = False
	Lemma : 149
	POS = 46 
Deep model(Non compositional)
__________________________________________________________________________________________________
Layer (type)                    Output Shape         Param #     Connected to                     
==================================================================================================
input_81 (InputLayer)           (None, 4)            0                                            
__________________________________________________________________________________________________
input_82 (InputLayer)           (None, 4)            0                                            
__________________________________________________________________________________________________
embedding_81 (Embedding)        (None, 4, 149)       2280147     input_81[0][0]                   
__________________________________________________________________________________________________
embedding_82 (Embedding)        (None, 4, 46)        7774        input_82[0][0]                   
__________________________________________________________________________________________________
flatten_81 (Flatten)            (None, 596)          0           embedding_81[0][0]               
__________________________________________________________________________________________________
flatten_82 (Flatten)            (None, 184)          0           embedding_82[0][0]               
__________________________________________________________________________________________________
concatenate_41 (Concatenate)    (None, 780)          0           flatten_81[0][0]                 
                                                                 flatten_82[0][0]                 
__________________________________________________________________________________________________
dense_121 (Dense)               (None, 19)           14839       concatenate_41[0][0]             
__________________________________________________________________________________________________
dropout_81 (Dropout)            (None, 19)           0           dense_121[0][0]                  
__________________________________________________________________________________________________
dense_122 (Dense)               (None, 68)           1360        dropout_81[0][0]                 
__________________________________________________________________________________________________
dropout_82 (Dropout)            (None, 68)           0           dense_122[0][0]                  
__________________________________________________________________________________________________
dense_123 (Dense)               (None, 8)            552         dropout_82[0][0]                 
==================================================================================================
Total params: 2,304,672
Trainable params: 2,304,672
Non-trainable params: 0
__________________________________________________________________________________________________
None

__________________________________________________________________________________________________
…
	One occurrence keys in vocabulary 1660 / 15244
	Attention: important lemmas are not in vocbulary	Embedding
==================================================================================================
	Initialisation = None
	Concatenation = False
	Lemma : 149
	POS = 46 
Deep model(Non compositional)
__________________________________________________________________________________________________
Layer (type)                    Output Shape         Param #     Connected to                     
==================================================================================================
input_83 (InputLayer)           (None, 4)            0                                            
__________________________________________________________________________________________________
input_84 (InputLayer)           (None, 4)            0                                            
__________________________________________________________________________________________________
embedding_83 (Embedding)        (None, 4, 149)       2271356     input_83[0][0]                   
__________________________________________________________________________________________________
embedding_84 (Embedding)        (None, 4, 46)        7774        input_84[0][0]                   
__________________________________________________________________________________________________
flatten_83 (Flatten)            (None, 596)          0           embedding_83[0][0]               
__________________________________________________________________________________________________
flatten_84 (Flatten)            (None, 184)          0           embedding_84[0][0]               
__________________________________________________________________________________________________
concatenate_42 (Concatenate)    (None, 780)          0           flatten_83[0][0]                 
                                                                 flatten_84[0][0]                 
__________________________________________________________________________________________________
dense_124 (Dense)               (None, 19)           14839       concatenate_42[0][0]             
__________________________________________________________________________________________________
dropout_83 (Dropout)            (None, 19)           0           dense_124[0][0]                  
__________________________________________________________________________________________________
dense_125 (Dense)               (None, 68)           1360        dropout_83[0][0]                 
__________________________________________________________________________________________________
dropout_84 (Dropout)            (None, 68)           0           dense_125[0][0]                  
__________________________________________________________________________________________________
dense_126 (Dense)               (None, 8)            552         dropout_84[0][0]                 
==================================================================================================
Total params: 2,295,881
Trainable params: 2,295,881
Non-trainable params: 0
__________________________________________________________________________________________________
None

__________________________________________________________________________________________________
…
	Dashed keys in vocabulary 1979
	One occurrence keys in vocabulary 1979 / 12529
	Embedding
==================================================================================================
	Initialisation = None
	Concatenation = False
	Lemma : 149
	POS = 46 
Deep model(Non compositional)
__________________________________________________________________________________________________
Layer (type)                    Output Shape         Param #     Connected to                     
==================================================================================================
input_85 (InputLayer)           (None, 4)            0                                            
__________________________________________________________________________________________________
input_86 (InputLayer)           (None, 4)            0                                            
__________________________________________________________________________________________________
embedding_85 (Embedding)        (None, 4, 149)       1866821     input_85[0][0]                   
__________________________________________________________________________________________________
embedding_86 (Embedding)        (None, 4, 46)        5060        input_86[0][0]                   
__________________________________________________________________________________________________
flatten_85 (Flatten)            (None, 596)          0           embedding_85[0][0]               
__________________________________________________________________________________________________
flatten_86 (Flatten)            (None, 184)          0           embedding_86[0][0]               
__________________________________________________________________________________________________
concatenate_43 (Concatenate)    (None, 780)          0           flatten_85[0][0]                 
                                                                 flatten_86[0][0]                 
__________________________________________________________________________________________________
dense_127 (Dense)               (None, 19)           14839       concatenate_43[0][0]             
__________________________________________________________________________________________________
dropout_85 (Dropout)            (None, 19)           0           dense_127[0][0]                  
__________________________________________________________________________________________________
dense_128 (Dense)               (None, 68)           1360        dropout_85[0][0]                 
__________________________________________________________________________________________________
dropout_86 (Dropout)            (None, 68)           0           dense_128[0][0]                  
__________________________________________________________________________________________________
dense_129 (Dense)               (None, 8)            552         dropout_86[0][0]                 
==================================================================================================
Total params: 1,888,632
Trainable params: 1,888,632
Non-trainable params: 0
__________________________________________________________________________________________________
None

__________________________________________________________________________________________________
…
	Dashed keys in vocabulary 1979
	One occurrence keys in vocabulary 1979 / 12525
	Embedding
==================================================================================================
	Initialisation = None
	Concatenation = False
	Lemma : 149
	POS = 46 
Deep model(Non compositional)
__________________________________________________________________________________________________
Layer (type)                    Output Shape         Param #     Connected to                     
==================================================================================================
input_87 (InputLayer)           (None, 4)            0                                            
__________________________________________________________________________________________________
input_88 (InputLayer)           (None, 4)            0                                            
__________________________________________________________________________________________________
embedding_87 (Embedding)        (None, 4, 149)       1866225     input_87[0][0]                   
__________________________________________________________________________________________________
embedding_88 (Embedding)        (None, 4, 46)        5060        input_88[0][0]                   
__________________________________________________________________________________________________
flatten_87 (Flatten)            (None, 596)          0           embedding_87[0][0]               
__________________________________________________________________________________________________
flatten_88 (Flatten)            (None, 184)          0           embedding_88[0][0]               
__________________________________________________________________________________________________
concatenate_44 (Concatenate)    (None, 780)          0           flatten_87[0][0]                 
                                                                 flatten_88[0][0]                 
__________________________________________________________________________________________________
dense_130 (Dense)               (None, 19)           14839       concatenate_44[0][0]             
__________________________________________________________________________________________________
dropout_87 (Dropout)            (None, 19)           0           dense_130[0][0]                  
__________________________________________________________________________________________________
dense_131 (Dense)               (None, 68)           1360        dropout_87[0][0]                 
__________________________________________________________________________________________________
dropout_88 (Dropout)            (None, 68)           0           dense_131[0][0]                  
__________________________________________________________________________________________________
dense_132 (Dense)               (None, 8)            552         dropout_88[0][0]                 
==================================================================================================
Total params: 1,888,036
Trainable params: 1,888,036
Non-trainable params: 0
__________________________________________________________________________________________________
None

__________________________________________________________________________________________________
…
	Dashed keys in vocabulary 1979
	One occurrence keys in vocabulary 1979 / 12587
	Embedding
==================================================================================================
	Initialisation = None
	Concatenation = False
	Lemma : 149
	POS = 46 
Deep model(Non compositional)
__________________________________________________________________________________________________
Layer (type)                    Output Shape         Param #     Connected to                     
==================================================================================================
input_89 (InputLayer)           (None, 4)            0                                            
__________________________________________________________________________________________________
input_90 (InputLayer)           (None, 4)            0                                            
__________________________________________________________________________________________________
embedding_89 (Embedding)        (None, 4, 149)       1875463     input_89[0][0]                   
__________________________________________________________________________________________________
embedding_90 (Embedding)        (None, 4, 46)        5060        input_90[0][0]                   
__________________________________________________________________________________________________
flatten_89 (Flatten)            (None, 596)          0           embedding_89[0][0]               
__________________________________________________________________________________________________
flatten_90 (Flatten)            (None, 184)          0           embedding_90[0][0]               
__________________________________________________________________________________________________
concatenate_45 (Concatenate)    (None, 780)          0           flatten_89[0][0]                 
                                                                 flatten_90[0][0]                 
__________________________________________________________________________________________________
dense_133 (Dense)               (None, 19)           14839       concatenate_45[0][0]             
__________________________________________________________________________________________________
dropout_89 (Dropout)            (None, 19)           0           dense_133[0][0]                  
__________________________________________________________________________________________________
dense_134 (Dense)               (None, 68)           1360        dropout_89[0][0]                 
__________________________________________________________________________________________________
dropout_90 (Dropout)            (None, 68)           0           dense_134[0][0]                  
__________________________________________________________________________________________________
dense_135 (Dense)               (None, 8)            552         dropout_90[0][0]                 
==================================================================================================
Total params: 1,897,274
Trainable params: 1,897,274
Non-trainable params: 0
__________________________________________________________________________________________________
None

__________________________________________________________________________________________________
…
	Dashed keys in vocabulary 1622
	One occurrence keys in vocabulary 1622 / 12174
	Embedding
==================================================================================================
	Initialisation = None
	Concatenation = False
	Lemma : 95
	POS = 26 
Deep model(Non compositional)
__________________________________________________________________________________________________
Layer (type)                    Output Shape         Param #     Connected to                     
==================================================================================================
input_91 (InputLayer)           (None, 4)            0                                            
__________________________________________________________________________________________________
input_92 (InputLayer)           (None, 4)            0                                            
__________________________________________________________________________________________________
embedding_91 (Embedding)        (None, 4, 95)        1156530     input_91[0][0]                   
__________________________________________________________________________________________________
embedding_92 (Embedding)        (None, 4, 26)        3952        input_92[0][0]                   
__________________________________________________________________________________________________
flatten_91 (Flatten)            (None, 380)          0           embedding_91[0][0]               
__________________________________________________________________________________________________
flatten_92 (Flatten)            (None, 104)          0           embedding_92[0][0]               
__________________________________________________________________________________________________
concatenate_46 (Concatenate)    (None, 484)          0           flatten_91[0][0]                 
                                                                 flatten_92[0][0]                 
__________________________________________________________________________________________________
dense_136 (Dense)               (None, 20)           9700        concatenate_46[0][0]             
__________________________________________________________________________________________________
dropout_91 (Dropout)            (None, 20)           0           dense_136[0][0]                  
__________________________________________________________________________________________________
dense_137 (Dense)               (None, 56)           1176        dropout_91[0][0]                 
__________________________________________________________________________________________________
dropout_92 (Dropout)            (None, 56)           0           dense_137[0][0]                  
__________________________________________________________________________________________________
dense_138 (Dense)               (None, 8)            456         dropout_92[0][0]                 
==================================================================================================
Total params: 1,171,814
Trainable params: 1,171,814
Non-trainable params: 0
__________________________________________________________________________________________________
None

__________________________________________________________________________________________________
…
	Dashed keys in vocabulary 1622
	One occurrence keys in vocabulary 1622 / 12142
	Embedding
==================================================================================================
	Initialisation = None
	Concatenation = False
	Lemma : 95
	POS = 26 
Deep model(Non compositional)
__________________________________________________________________________________________________
Layer (type)                    Output Shape         Param #     Connected to                     
==================================================================================================
input_93 (InputLayer)           (None, 4)            0                                            
__________________________________________________________________________________________________
input_94 (InputLayer)           (None, 4)            0                                            
__________________________________________________________________________________________________
embedding_93 (Embedding)        (None, 4, 95)        1153490     input_93[0][0]                   
__________________________________________________________________________________________________
embedding_94 (Embedding)        (None, 4, 26)        3952        input_94[0][0]                   
__________________________________________________________________________________________________
flatten_93 (Flatten)            (None, 380)          0           embedding_93[0][0]               
__________________________________________________________________________________________________
flatten_94 (Flatten)            (None, 104)          0           embedding_94[0][0]               
__________________________________________________________________________________________________
concatenate_47 (Concatenate)    (None, 484)          0           flatten_93[0][0]                 
                                                                 flatten_94[0][0]                 
__________________________________________________________________________________________________
dense_139 (Dense)               (None, 20)           9700        concatenate_47[0][0]             
__________________________________________________________________________________________________
dropout_93 (Dropout)            (None, 20)           0           dense_139[0][0]                  
__________________________________________________________________________________________________
dense_140 (Dense)               (None, 56)           1176        dropout_93[0][0]                 
__________________________________________________________________________________________________
dropout_94 (Dropout)            (None, 56)           0           dense_140[0][0]                  
__________________________________________________________________________________________________
dense_141 (Dense)               (None, 8)            456         dropout_94[0][0]                 
==================================================================================================
Total params: 1,168,774
Trainable params: 1,168,774
Non-trainable params: 0
__________________________________________________________________________________________________
None

__________________________________________________________________________________________________
…
	Dashed keys in vocabulary 1622
	One occurrence keys in vocabulary 1622 / 12159
	Embedding
==================================================================================================
	Initialisation = None
	Concatenation = False
	Lemma : 95
	POS = 26 
Deep model(Non compositional)
__________________________________________________________________________________________________
Layer (type)                    Output Shape         Param #     Connected to                     
==================================================================================================
input_95 (InputLayer)           (None, 4)            0                                            
__________________________________________________________________________________________________
input_96 (InputLayer)           (None, 4)            0                                            
__________________________________________________________________________________________________
embedding_95 (Embedding)        (None, 4, 95)        1155105     input_95[0][0]                   
__________________________________________________________________________________________________
embedding_96 (Embedding)        (None, 4, 26)        3952        input_96[0][0]                   
__________________________________________________________________________________________________
flatten_95 (Flatten)            (None, 380)          0           embedding_95[0][0]               
__________________________________________________________________________________________________
flatten_96 (Flatten)            (None, 104)          0           embedding_96[0][0]               
__________________________________________________________________________________________________
concatenate_48 (Concatenate)    (None, 484)          0           flatten_95[0][0]                 
                                                                 flatten_96[0][0]                 
__________________________________________________________________________________________________
dense_142 (Dense)               (None, 20)           9700        concatenate_48[0][0]             
__________________________________________________________________________________________________
dropout_95 (Dropout)            (None, 20)           0           dense_142[0][0]                  
__________________________________________________________________________________________________
dense_143 (Dense)               (None, 56)           1176        dropout_95[0][0]                 
__________________________________________________________________________________________________
dropout_96 (Dropout)            (None, 56)           0           dense_143[0][0]                  
__________________________________________________________________________________________________
dense_144 (Dense)               (None, 8)            456         dropout_96[0][0]                 
==================================================================================================
Total params: 1,170,389
Trainable params: 1,170,389
Non-trainable params: 0
__________________________________________________________________________________________________
None

__________________________________________________________________________________________________
…
	One occurrence keys in vocabulary 1660 / 15321
	Attention: important lemmas are not in vocbulary	Embedding
==================================================================================================
	Initialisation = None
	Concatenation = False
	Lemma : 95
	POS = 26 
Deep model(Non compositional)
__________________________________________________________________________________________________
Layer (type)                    Output Shape         Param #     Connected to                     
==================================================================================================
input_97 (InputLayer)           (None, 4)            0                                            
__________________________________________________________________________________________________
input_98 (InputLayer)           (None, 4)            0                                            
__________________________________________________________________________________________________
embedding_97 (Embedding)        (None, 4, 95)        1455495     input_97[0][0]                   
__________________________________________________________________________________________________
embedding_98 (Embedding)        (None, 4, 26)        4394        input_98[0][0]                   
__________________________________________________________________________________________________
flatten_97 (Flatten)            (None, 380)          0           embedding_97[0][0]               
__________________________________________________________________________________________________
flatten_98 (Flatten)            (None, 104)          0           embedding_98[0][0]               
__________________________________________________________________________________________________
concatenate_49 (Concatenate)    (None, 484)          0           flatten_97[0][0]                 
                                                                 flatten_98[0][0]                 
__________________________________________________________________________________________________
dense_145 (Dense)               (None, 20)           9700        concatenate_49[0][0]             
__________________________________________________________________________________________________
dropout_97 (Dropout)            (None, 20)           0           dense_145[0][0]                  
__________________________________________________________________________________________________
dense_146 (Dense)               (None, 56)           1176        dropout_97[0][0]                 
__________________________________________________________________________________________________
dropout_98 (Dropout)            (None, 56)           0           dense_146[0][0]                  
__________________________________________________________________________________________________
dense_147 (Dense)               (None, 8)            456         dropout_98[0][0]                 
==================================================================================================
Total params: 1,471,221
Trainable params: 1,471,221
Non-trainable params: 0
__________________________________________________________________________________________________
None

__________________________________________________________________________________________________
…
	One occurrence keys in vocabulary 1660 / 15303
	Attention: important lemmas are not in vocbulary	Embedding
==================================================================================================
	Initialisation = None
	Concatenation = False
	Lemma : 95
	POS = 26 
Deep model(Non compositional)
__________________________________________________________________________________________________
Layer (type)                    Output Shape         Param #     Connected to                     
==================================================================================================
input_99 (InputLayer)           (None, 4)            0                                            
__________________________________________________________________________________________________
input_100 (InputLayer)          (None, 4)            0                                            
__________________________________________________________________________________________________
embedding_99 (Embedding)        (None, 4, 95)        1453785     input_99[0][0]                   
__________________________________________________________________________________________________
embedding_100 (Embedding)       (None, 4, 26)        4394        input_100[0][0]                  
__________________________________________________________________________________________________
flatten_99 (Flatten)            (None, 380)          0           embedding_99[0][0]               
__________________________________________________________________________________________________
flatten_100 (Flatten)           (None, 104)          0           embedding_100[0][0]              
__________________________________________________________________________________________________
concatenate_50 (Concatenate)    (None, 484)          0           flatten_99[0][0]                 
                                                                 flatten_100[0][0]                
__________________________________________________________________________________________________
dense_148 (Dense)               (None, 20)           9700        concatenate_50[0][0]             
__________________________________________________________________________________________________
dropout_99 (Dropout)            (None, 20)           0           dense_148[0][0]                  
__________________________________________________________________________________________________
dense_149 (Dense)               (None, 56)           1176        dropout_99[0][0]                 
__________________________________________________________________________________________________
dropout_100 (Dropout)           (None, 56)           0           dense_149[0][0]                  
__________________________________________________________________________________________________
dense_150 (Dense)               (None, 8)            456         dropout_100[0][0]                
==================================================================================================
Total params: 1,469,511
Trainable params: 1,469,511
Non-trainable params: 0
__________________________________________________________________________________________________
None

__________________________________________________________________________________________________
…
	One occurrence keys in vocabulary 1660 / 15244
	Attention: important lemmas are not in vocbulary	Embedding
==================================================================================================
	Initialisation = None
	Concatenation = False
	Lemma : 95
	POS = 26 
Deep model(Non compositional)
__________________________________________________________________________________________________
Layer (type)                    Output Shape         Param #     Connected to                     
==================================================================================================
input_101 (InputLayer)          (None, 4)            0                                            
__________________________________________________________________________________________________
input_102 (InputLayer)          (None, 4)            0                                            
__________________________________________________________________________________________________
embedding_101 (Embedding)       (None, 4, 95)        1448180     input_101[0][0]                  
__________________________________________________________________________________________________
embedding_102 (Embedding)       (None, 4, 26)        4394        input_102[0][0]                  
__________________________________________________________________________________________________
flatten_101 (Flatten)           (None, 380)          0           embedding_101[0][0]              
__________________________________________________________________________________________________
flatten_102 (Flatten)           (None, 104)          0           embedding_102[0][0]              
__________________________________________________________________________________________________
concatenate_51 (Concatenate)    (None, 484)          0           flatten_101[0][0]                
                                                                 flatten_102[0][0]                
__________________________________________________________________________________________________
dense_151 (Dense)               (None, 20)           9700        concatenate_51[0][0]             
__________________________________________________________________________________________________
dropout_101 (Dropout)           (None, 20)           0           dense_151[0][0]                  
__________________________________________________________________________________________________
dense_152 (Dense)               (None, 56)           1176        dropout_101[0][0]                
__________________________________________________________________________________________________
dropout_102 (Dropout)           (None, 56)           0           dense_152[0][0]                  
__________________________________________________________________________________________________
dense_153 (Dense)               (None, 8)            456         dropout_102[0][0]                
==================================================================================================
Total params: 1,463,906
Trainable params: 1,463,906
Non-trainable params: 0
__________________________________________________________________________________________________
None

__________________________________________________________________________________________________
…
	Dashed keys in vocabulary 1979
	One occurrence keys in vocabulary 1979 / 12529
	Embedding
==================================================================================================
	Initialisation = None
	Concatenation = False
	Lemma : 95
	POS = 26 
Deep model(Non compositional)
__________________________________________________________________________________________________
Layer (type)                    Output Shape         Param #     Connected to                     
==================================================================================================
input_103 (InputLayer)          (None, 4)            0                                            
__________________________________________________________________________________________________
input_104 (InputLayer)          (None, 4)            0                                            
__________________________________________________________________________________________________
embedding_103 (Embedding)       (None, 4, 95)        1190255     input_103[0][0]                  
__________________________________________________________________________________________________
embedding_104 (Embedding)       (None, 4, 26)        2860        input_104[0][0]                  
__________________________________________________________________________________________________
flatten_103 (Flatten)           (None, 380)          0           embedding_103[0][0]              
__________________________________________________________________________________________________
flatten_104 (Flatten)           (None, 104)          0           embedding_104[0][0]              
__________________________________________________________________________________________________
concatenate_52 (Concatenate)    (None, 484)          0           flatten_103[0][0]                
                                                                 flatten_104[0][0]                
__________________________________________________________________________________________________
dense_154 (Dense)               (None, 20)           9700        concatenate_52[0][0]             
__________________________________________________________________________________________________
dropout_103 (Dropout)           (None, 20)           0           dense_154[0][0]                  
__________________________________________________________________________________________________
dense_155 (Dense)               (None, 56)           1176        dropout_103[0][0]                
__________________________________________________________________________________________________
dropout_104 (Dropout)           (None, 56)           0           dense_155[0][0]                  
__________________________________________________________________________________________________
dense_156 (Dense)               (None, 8)            456         dropout_104[0][0]                
==================================================================================================
Total params: 1,204,447
Trainable params: 1,204,447
Non-trainable params: 0
__________________________________________________________________________________________________
None

__________________________________________________________________________________________________
…
	Dashed keys in vocabulary 1979
	One occurrence keys in vocabulary 1979 / 12525
	Embedding
==================================================================================================
	Initialisation = None
	Concatenation = False
	Lemma : 95
	POS = 26 
Deep model(Non compositional)
__________________________________________________________________________________________________
Layer (type)                    Output Shape         Param #     Connected to                     
==================================================================================================
input_105 (InputLayer)          (None, 4)            0                                            
__________________________________________________________________________________________________
input_106 (InputLayer)          (None, 4)            0                                            
__________________________________________________________________________________________________
embedding_105 (Embedding)       (None, 4, 95)        1189875     input_105[0][0]                  
__________________________________________________________________________________________________
embedding_106 (Embedding)       (None, 4, 26)        2860        input_106[0][0]                  
__________________________________________________________________________________________________
flatten_105 (Flatten)           (None, 380)          0           embedding_105[0][0]              
__________________________________________________________________________________________________
flatten_106 (Flatten)           (None, 104)          0           embedding_106[0][0]              
__________________________________________________________________________________________________
concatenate_53 (Concatenate)    (None, 484)          0           flatten_105[0][0]                
                                                                 flatten_106[0][0]                
__________________________________________________________________________________________________
dense_157 (Dense)               (None, 20)           9700        concatenate_53[0][0]             
__________________________________________________________________________________________________
dropout_105 (Dropout)           (None, 20)           0           dense_157[0][0]                  
__________________________________________________________________________________________________
dense_158 (Dense)               (None, 56)           1176        dropout_105[0][0]                
__________________________________________________________________________________________________
dropout_106 (Dropout)           (None, 56)           0           dense_158[0][0]                  
__________________________________________________________________________________________________
dense_159 (Dense)               (None, 8)            456         dropout_106[0][0]                
==================================================================================================
Total params: 1,204,067
Trainable params: 1,204,067
Non-trainable params: 0
__________________________________________________________________________________________________
None

__________________________________________________________________________________________________
…
	Dashed keys in vocabulary 1979
	One occurrence keys in vocabulary 1979 / 12587
	Embedding
==================================================================================================
	Initialisation = None
	Concatenation = False
	Lemma : 95
	POS = 26 
Deep model(Non compositional)
__________________________________________________________________________________________________
Layer (type)                    Output Shape         Param #     Connected to                     
==================================================================================================
input_107 (InputLayer)          (None, 4)            0                                            
__________________________________________________________________________________________________
input_108 (InputLayer)          (None, 4)            0                                            
__________________________________________________________________________________________________
embedding_107 (Embedding)       (None, 4, 95)        1195765     input_107[0][0]                  
__________________________________________________________________________________________________
embedding_108 (Embedding)       (None, 4, 26)        2860        input_108[0][0]                  
__________________________________________________________________________________________________
flatten_107 (Flatten)           (None, 380)          0           embedding_107[0][0]              
__________________________________________________________________________________________________
flatten_108 (Flatten)           (None, 104)          0           embedding_108[0][0]              
__________________________________________________________________________________________________
concatenate_54 (Concatenate)    (None, 484)          0           flatten_107[0][0]                
                                                                 flatten_108[0][0]                
__________________________________________________________________________________________________
dense_160 (Dense)               (None, 20)           9700        concatenate_54[0][0]             
__________________________________________________________________________________________________
dropout_107 (Dropout)           (None, 20)           0           dense_160[0][0]                  
__________________________________________________________________________________________________
dense_161 (Dense)               (None, 56)           1176        dropout_107[0][0]                
__________________________________________________________________________________________________
dropout_108 (Dropout)           (None, 56)           0           dense_161[0][0]                  
__________________________________________________________________________________________________
dense_162 (Dense)               (None, 8)            456         dropout_108[0][0]                
==================================================================================================
Total params: 1,209,957
Trainable params: 1,209,957
Non-trainable params: 0
__________________________________________________________________________________________________
None

__________________________________________________________________________________________________
…
	Dashed keys in vocabulary 1622
	One occurrence keys in vocabulary 1622 / 12174
	Embedding
==================================================================================================
	Initialisation = None
	Concatenation = False
	Lemma : 185
	POS = 25 
Deep model(Non compositional)
__________________________________________________________________________________________________
Layer (type)                    Output Shape         Param #     Connected to                     
==================================================================================================
input_109 (InputLayer)          (None, 4)            0                                            
__________________________________________________________________________________________________
input_110 (InputLayer)          (None, 4)            0                                            
__________________________________________________________________________________________________
embedding_109 (Embedding)       (None, 4, 185)       2252190     input_109[0][0]                  
__________________________________________________________________________________________________
embedding_110 (Embedding)       (None, 4, 25)        3800        input_110[0][0]                  
__________________________________________________________________________________________________
flatten_109 (Flatten)           (None, 740)          0           embedding_109[0][0]              
__________________________________________________________________________________________________
flatten_110 (Flatten)           (None, 100)          0           embedding_110[0][0]              
__________________________________________________________________________________________________
concatenate_55 (Concatenate)    (None, 840)          0           flatten_109[0][0]                
                                                                 flatten_110[0][0]                
__________________________________________________________________________________________________
dense_163 (Dense)               (None, 40)           33640       concatenate_55[0][0]             
__________________________________________________________________________________________________
dropout_109 (Dropout)           (None, 40)           0           dense_163[0][0]                  
__________________________________________________________________________________________________
dense_164 (Dense)               (None, 12)           492         dropout_109[0][0]                
__________________________________________________________________________________________________
dropout_110 (Dropout)           (None, 12)           0           dense_164[0][0]                  
__________________________________________________________________________________________________
dense_165 (Dense)               (None, 8)            104         dropout_110[0][0]                
==================================================================================================
Total params: 2,290,226
Trainable params: 2,290,226
Non-trainable params: 0
__________________________________________________________________________________________________
None

__________________________________________________________________________________________________
…
	Dashed keys in vocabulary 1622
	One occurrence keys in vocabulary 1622 / 12142
	Embedding
==================================================================================================
	Initialisation = None
	Concatenation = False
	Lemma : 185
	POS = 25 
Deep model(Non compositional)
__________________________________________________________________________________________________
Layer (type)                    Output Shape         Param #     Connected to                     
==================================================================================================
input_111 (InputLayer)          (None, 4)            0                                            
__________________________________________________________________________________________________
input_112 (InputLayer)          (None, 4)            0                                            
__________________________________________________________________________________________________
embedding_111 (Embedding)       (None, 4, 185)       2246270     input_111[0][0]                  
__________________________________________________________________________________________________
embedding_112 (Embedding)       (None, 4, 25)        3800        input_112[0][0]                  
__________________________________________________________________________________________________
flatten_111 (Flatten)           (None, 740)          0           embedding_111[0][0]              
__________________________________________________________________________________________________
flatten_112 (Flatten)           (None, 100)          0           embedding_112[0][0]              
__________________________________________________________________________________________________
concatenate_56 (Concatenate)    (None, 840)          0           flatten_111[0][0]                
                                                                 flatten_112[0][0]                
__________________________________________________________________________________________________
dense_166 (Dense)               (None, 40)           33640       concatenate_56[0][0]             
__________________________________________________________________________________________________
dropout_111 (Dropout)           (None, 40)           0           dense_166[0][0]                  
__________________________________________________________________________________________________
dense_167 (Dense)               (None, 12)           492         dropout_111[0][0]                
__________________________________________________________________________________________________
dropout_112 (Dropout)           (None, 12)           0           dense_167[0][0]                  
__________________________________________________________________________________________________
dense_168 (Dense)               (None, 8)            104         dropout_112[0][0]                
==================================================================================================
Total params: 2,284,306
Trainable params: 2,284,306
Non-trainable params: 0
__________________________________________________________________________________________________
None

__________________________________________________________________________________________________
…
	Dashed keys in vocabulary 1622
	One occurrence keys in vocabulary 1622 / 12159
	Embedding
==================================================================================================
	Initialisation = None
	Concatenation = False
	Lemma : 185
	POS = 25 
Deep model(Non compositional)
__________________________________________________________________________________________________
Layer (type)                    Output Shape         Param #     Connected to                     
==================================================================================================
input_113 (InputLayer)          (None, 4)            0                                            
__________________________________________________________________________________________________
input_114 (InputLayer)          (None, 4)            0                                            
__________________________________________________________________________________________________
embedding_113 (Embedding)       (None, 4, 185)       2249415     input_113[0][0]                  
__________________________________________________________________________________________________
embedding_114 (Embedding)       (None, 4, 25)        3800        input_114[0][0]                  
__________________________________________________________________________________________________
flatten_113 (Flatten)           (None, 740)          0           embedding_113[0][0]              
__________________________________________________________________________________________________
flatten_114 (Flatten)           (None, 100)          0           embedding_114[0][0]              
__________________________________________________________________________________________________
concatenate_57 (Concatenate)    (None, 840)          0           flatten_113[0][0]                
                                                                 flatten_114[0][0]                
__________________________________________________________________________________________________
dense_169 (Dense)               (None, 40)           33640       concatenate_57[0][0]             
__________________________________________________________________________________________________
dropout_113 (Dropout)           (None, 40)           0           dense_169[0][0]                  
__________________________________________________________________________________________________
dense_170 (Dense)               (None, 12)           492         dropout_113[0][0]                
__________________________________________________________________________________________________
…
	Initialisation = None
	Concatenation = False
	Lemma : 185
	POS = 25 
Deep model(Non compositional)
__________________________________________________________________________________________________
Layer (type)                    Output Shape         Param #     Connected to                     
==================================================================================================
input_115 (InputLayer)          (None, 4)            0                                            
__________________________________________________________________________________________________
input_116 (InputLayer)          (None, 4)            0                                            
__________________________________________________________________________________________________
embedding_115 (Embedding)       (None, 4, 185)       2834385     input_115[0][0]                  
__________________________________________________________________________________________________
embedding_116 (Embedding)       (None, 4, 25)        4225        input_116[0][0]                  
__________________________________________________________________________________________________
flatten_115 (Flatten)           (None, 740)          0           embedding_115[0][0]              
__________________________________________________________________________________________________
flatten_116 (Flatten)           (None, 100)          0           embedding_116[0][0]              
__________________________________________________________________________________________________
concatenate_58 (Concatenate)    (None, 840)          0           flatten_115[0][0]                
                                                                 flatten_116[0][0]                
__________________________________________________________________________________________________
dense_172 (Dense)               (None, 40)           33640       concatenate_58[0][0]             
__________________________________________________________________________________________________
dropout_115 (Dropout)           (None, 40)           0           dense_172[0][0]                  
__________________________________________________________________________________________________
dense_173 (Dense)               (None, 12)           492         dropout_115[0][0]                
__________________________________________________________________________________________________
dropout_116 (Dropout)           (None, 12)           0           dense_173[0][0]                  
__________________________________________________________________________________________________
dense_174 (Dense)               (None, 8)            104         dropout_116[0][0]                
==================================================================================================
Total params: 2,872,846
Trainable params: 2,872,846
Non-trainable params: 0
__________________________________________________________________________________________________
None

__________________________________________________________________________________________________
…
	One occurrence keys in vocabulary 1660 / 15303
	Attention: important lemmas are not in vocbulary	Embedding
==================================================================================================
	Initialisation = None
	Concatenation = False
	Lemma : 185
	POS = 25 
Deep model(Non compositional)
__________________________________________________________________________________________________
Layer (type)                    Output Shape         Param #     Connected to                     
==================================================================================================
input_117 (InputLayer)          (None, 4)            0                                            
__________________________________________________________________________________________________
input_118 (InputLayer)          (None, 4)            0                                            
__________________________________________________________________________________________________
embedding_117 (Embedding)       (None, 4, 185)       2831055     input_117[0][0]                  
__________________________________________________________________________________________________
embedding_118 (Embedding)       (None, 4, 25)        4225        input_118[0][0]                  
__________________________________________________________________________________________________
flatten_117 (Flatten)           (None, 740)          0           embedding_117[0][0]              
__________________________________________________________________________________________________
flatten_118 (Flatten)           (None, 100)          0           embedding_118[0][0]              
__________________________________________________________________________________________________
concatenate_59 (Concatenate)    (None, 840)          0           flatten_117[0][0]                
                                                                 flatten_118[0][0]                
__________________________________________________________________________________________________
dense_175 (Dense)               (None, 40)           33640       concatenate_59[0][0]             
__________________________________________________________________________________________________
dropout_117 (Dropout)           (None, 40)           0           dense_175[0][0]                  
__________________________________________________________________________________________________
dense_176 (Dense)               (None, 12)           492         dropout_117[0][0]                
__________________________________________________________________________________________________
dropout_118 (Dropout)           (None, 12)           0           dense_176[0][0]                  
__________________________________________________________________________________________________
dense_177 (Dense)               (None, 8)            104         dropout_118[0][0]                
==================================================================================================
Total params: 2,869,516
Trainable params: 2,869,516
Non-trainable params: 0
__________________________________________________________________________________________________
None

__________________________________________________________________________________________________
…
	One occurrence keys in vocabulary 1660 / 15244
	Attention: important lemmas are not in vocbulary	Embedding
==================================================================================================
	Initialisation = None
	Concatenation = False
	Lemma : 185
	POS = 25 
Deep model(Non compositional)
__________________________________________________________________________________________________
Layer (type)                    Output Shape         Param #     Connected to                     
==================================================================================================
input_119 (InputLayer)          (None, 4)            0                                            
__________________________________________________________________________________________________
input_120 (InputLayer)          (None, 4)            0                                            
__________________________________________________________________________________________________
embedding_119 (Embedding)       (None, 4, 185)       2820140     input_119[0][0]                  
__________________________________________________________________________________________________
embedding_120 (Embedding)       (None, 4, 25)        4225        input_120[0][0]                  
__________________________________________________________________________________________________
flatten_119 (Flatten)           (None, 740)          0           embedding_119[0][0]              
__________________________________________________________________________________________________
flatten_120 (Flatten)           (None, 100)          0           embedding_120[0][0]              
__________________________________________________________________________________________________
concatenate_60 (Concatenate)    (None, 840)          0           flatten_119[0][0]                
                                                                 flatten_120[0][0]                
__________________________________________________________________________________________________
dense_178 (Dense)               (None, 40)           33640       concatenate_60[0][0]             
__________________________________________________________________________________________________
dropout_119 (Dropout)           (None, 40)           0           dense_178[0][0]                  
__________________________________________________________________________________________________
dense_179 (Dense)               (None, 12)           492         dropout_119[0][0]                
__________________________________________________________________________________________________
dropout_120 (Dropout)           (None, 12)           0           dense_179[0][0]                  
__________________________________________________________________________________________________
dense_180 (Dense)               (None, 8)            104         dropout_120[0][0]                
==================================================================================================
Total params: 2,858,601
Trainable params: 2,858,601
Non-trainable params: 0
__________________________________________________________________________________________________
None

__________________________________________________________________________________________________
…
	Dashed keys in vocabulary 1979
	One occurrence keys in vocabulary 1979 / 12529
	Embedding
==================================================================================================
	Initialisation = None
	Concatenation = False
	Lemma : 185
	POS = 25 
Deep model(Non compositional)
__________________________________________________________________________________________________
Layer (type)                    Output Shape         Param #     Connected to                     
==================================================================================================
input_121 (InputLayer)          (None, 4)            0                                            
__________________________________________________________________________________________________
input_122 (InputLayer)          (None, 4)            0                                            
__________________________________________________________________________________________________
embedding_121 (Embedding)       (None, 4, 185)       2317865     input_121[0][0]                  
__________________________________________________________________________________________________
embedding_122 (Embedding)       (None, 4, 25)        2750        input_122[0][0]                  
__________________________________________________________________________________________________
flatten_121 (Flatten)           (None, 740)          0           embedding_121[0][0]              
__________________________________________________________________________________________________
flatten_122 (Flatten)           (None, 100)          0           embedding_122[0][0]              
__________________________________________________________________________________________________
concatenate_61 (Concatenate)    (None, 840)          0           flatten_121[0][0]                
                                                                 flatten_122[0][0]                
__________________________________________________________________________________________________
dense_181 (Dense)               (None, 40)           33640       concatenate_61[0][0]             
__________________________________________________________________________________________________
dropout_121 (Dropout)           (None, 40)           0           dense_181[0][0]                  
__________________________________________________________________________________________________
dense_182 (Dense)               (None, 12)           492         dropout_121[0][0]                
__________________________________________________________________________________________________
dropout_122 (Dropout)           (None, 12)           0           dense_182[0][0]                  
__________________________________________________________________________________________________
dense_183 (Dense)               (None, 8)            104         dropout_122[0][0]                
==================================================================================================
Total params: 2,354,851
Trainable params: 2,354,851
Non-trainable params: 0
__________________________________________________________________________________________________
None

__________________________________________________________________________________________________
…
	Dashed keys in vocabulary 1979
	One occurrence keys in vocabulary 1979 / 12525
	Embedding
==================================================================================================
	Initialisation = None
	Concatenation = False
	Lemma : 185
	POS = 25 
Deep model(Non compositional)
__________________________________________________________________________________________________
Layer (type)                    Output Shape         Param #     Connected to                     
==================================================================================================
input_123 (InputLayer)          (None, 4)            0                                            
__________________________________________________________________________________________________
input_124 (InputLayer)          (None, 4)            0                                            
__________________________________________________________________________________________________
embedding_123 (Embedding)       (None, 4, 185)       2317125     input_123[0][0]                  
__________________________________________________________________________________________________
embedding_124 (Embedding)       (None, 4, 25)        2750        input_124[0][0]                  
__________________________________________________________________________________________________
flatten_123 (Flatten)           (None, 740)          0           embedding_123[0][0]              
__________________________________________________________________________________________________
flatten_124 (Flatten)           (None, 100)          0           embedding_124[0][0]              
__________________________________________________________________________________________________
concatenate_62 (Concatenate)    (None, 840)          0           flatten_123[0][0]                
                                                                 flatten_124[0][0]                
__________________________________________________________________________________________________
dense_184 (Dense)               (None, 40)           33640       concatenate_62[0][0]             
__________________________________________________________________________________________________
dropout_123 (Dropout)           (None, 40)           0           dense_184[0][0]                  
__________________________________________________________________________________________________
dense_185 (Dense)               (None, 12)           492         dropout_123[0][0]                
__________________________________________________________________________________________________
dropout_124 (Dropout)           (None, 12)           0           dense_185[0][0]                  
__________________________________________________________________________________________________
dense_186 (Dense)               (None, 8)            104         dropout_124[0][0]                
==================================================================================================
Total params: 2,354,111
Trainable params: 2,354,111
Non-trainable params: 0
__________________________________________________________________________________________________
None

__________________________________________________________________________________________________
…
	Dashed keys in vocabulary 1979
	One occurrence keys in vocabulary 1979 / 12587
	Embedding
==================================================================================================
	Initialisation = None
	Concatenation = False
	Lemma : 185
	POS = 25 
Deep model(Non compositional)
__________________________________________________________________________________________________
Layer (type)                    Output Shape         Param #     Connected to                     
==================================================================================================
input_125 (InputLayer)          (None, 4)            0                                            
__________________________________________________________________________________________________
input_126 (InputLayer)          (None, 4)            0                                            
__________________________________________________________________________________________________
embedding_125 (Embedding)       (None, 4, 185)       2328595     input_125[0][0]                  
__________________________________________________________________________________________________
embedding_126 (Embedding)       (None, 4, 25)        2750        input_126[0][0]                  
__________________________________________________________________________________________________
flatten_125 (Flatten)           (None, 740)          0           embedding_125[0][0]              
__________________________________________________________________________________________________
flatten_126 (Flatten)           (None, 100)          0           embedding_126[0][0]              
__________________________________________________________________________________________________
concatenate_63 (Concatenate)    (None, 840)          0           flatten_125[0][0]                
                                                                 flatten_126[0][0]                
__________________________________________________________________________________________________
dense_187 (Dense)               (None, 40)           33640       concatenate_63[0][0]             
__________________________________________________________________________________________________
dropout_125 (Dropout)           (None, 40)           0           dense_187[0][0]                  
__________________________________________________________________________________________________
dense_188 (Dense)               (None, 12)           492         dropout_125[0][0]                
__________________________________________________________________________________________________
dropout_126 (Dropout)           (None, 12)           0           dense_188[0][0]                  
__________________________________________________________________________________________________
dense_189 (Dense)               (None, 8)            104         dropout_126[0][0]                
==================================================================================================
Total params: 2,365,581
Trainable params: 2,365,581
Non-trainable params: 0
__________________________________________________________________________________________________
None

__________________________________________________________________________________________________
…
	Dashed keys in vocabulary 1622
	One occurrence keys in vocabulary 1622 / 12174
	Embedding
==================================================================================================
	Initialisation = None
	Concatenation = False
	Lemma : 53
	POS = 41 
Deep model(Non compositional)
__________________________________________________________________________________________________
Layer (type)                    Output Shape         Param #     Connected to                     
==================================================================================================
input_127 (InputLayer)          (None, 4)            0                                            
__________________________________________________________________________________________________
input_128 (InputLayer)          (None, 4)            0                                            
__________________________________________________________________________________________________
embedding_127 (Embedding)       (None, 4, 53)        645222      input_127[0][0]                  
__________________________________________________________________________________________________
embedding_128 (Embedding)       (None, 4, 41)        6232        input_128[0][0]                  
__________________________________________________________________________________________________
flatten_127 (Flatten)           (None, 212)          0           embedding_127[0][0]              
__________________________________________________________________________________________________
flatten_128 (Flatten)           (None, 164)          0           embedding_128[0][0]              
__________________________________________________________________________________________________
concatenate_64 (Concatenate)    (None, 376)          0           flatten_127[0][0]                
                                                                 flatten_128[0][0]                
__________________________________________________________________________________________________
dense_190 (Dense)               (None, 7)            2639        concatenate_64[0][0]             
__________________________________________________________________________________________________
dropout_127 (Dropout)           (None, 7)            0           dense_190[0][0]                  
__________________________________________________________________________________________________
dense_191 (Dense)               (None, 86)           688         dropout_127[0][0]                
__________________________________________________________________________________________________
dropout_128 (Dropout)           (None, 86)           0           dense_191[0][0]                  
__________________________________________________________________________________________________
dense_192 (Dense)               (None, 8)            696         dropout_128[0][0]                
==================================================================================================
Total params: 655,477
Trainable params: 655,477
Non-trainable params: 0
__________________________________________________________________________________________________
None

__________________________________________________________________________________________________
…
	Dashed keys in vocabulary 1622
	One occurrence keys in vocabulary 1622 / 12142
	Embedding
==================================================================================================
	Initialisation = None
	Concatenation = False
	Lemma : 53
	POS = 41 
Deep model(Non compositional)
__________________________________________________________________________________________________
Layer (type)                    Output Shape         Param #     Connected to                     
==================================================================================================
input_129 (InputLayer)          (None, 4)            0                                            
__________________________________________________________________________________________________
input_130 (InputLayer)          (None, 4)            0                                            
__________________________________________________________________________________________________
embedding_129 (Embedding)       (None, 4, 53)        643526      input_129[0][0]                  
__________________________________________________________________________________________________
embedding_130 (Embedding)       (None, 4, 41)        6232        input_130[0][0]                  
__________________________________________________________________________________________________
flatten_129 (Flatten)           (None, 212)          0           embedding_129[0][0]              
__________________________________________________________________________________________________
flatten_130 (Flatten)           (None, 164)          0           embedding_130[0][0]              
__________________________________________________________________________________________________
concatenate_65 (Concatenate)    (None, 376)          0           flatten_129[0][0]                
                                                                 flatten_130[0][0]                
__________________________________________________________________________________________________
dense_193 (Dense)               (None, 7)            2639        concatenate_65[0][0]             
__________________________________________________________________________________________________
dropout_129 (Dropout)           (None, 7)            0           dense_193[0][0]                  
__________________________________________________________________________________________________
dense_194 (Dense)               (None, 86)           688         dropout_129[0][0]                
__________________________________________________________________________________________________
dropout_130 (Dropout)           (None, 86)           0           dense_194[0][0]                  
__________________________________________________________________________________________________
dense_195 (Dense)               (None, 8)            696         dropout_130[0][0]                
==================================================================================================
Total params: 653,781
Trainable params: 653,781
Non-trainable params: 0
__________________________________________________________________________________________________
None

__________________________________________________________________________________________________
…
	Dashed keys in vocabulary 1622
	One occurrence keys in vocabulary 1622 / 12159
	Embedding
==================================================================================================
	Initialisation = None
	Concatenation = False
	Lemma : 53
	POS = 41 
Deep model(Non compositional)
__________________________________________________________________________________________________
Layer (type)                    Output Shape         Param #     Connected to                     
==================================================================================================
input_131 (InputLayer)          (None, 4)            0                                            
__________________________________________________________________________________________________
input_132 (InputLayer)          (None, 4)            0                                            
__________________________________________________________________________________________________
embedding_131 (Embedding)       (None, 4, 53)        644427      input_131[0][0]                  
__________________________________________________________________________________________________
embedding_132 (Embedding)       (None, 4, 41)        6232        input_132[0][0]                  
__________________________________________________________________________________________________
flatten_131 (Flatten)           (None, 212)          0           embedding_131[0][0]              
__________________________________________________________________________________________________
flatten_132 (Flatten)           (None, 164)          0           embedding_132[0][0]              
__________________________________________________________________________________________________
concatenate_66 (Concatenate)    (None, 376)          0           flatten_131[0][0]                
                                                                 flatten_132[0][0]                
__________________________________________________________________________________________________
dense_196 (Dense)               (None, 7)            2639        concatenate_66[0][0]             
__________________________________________________________________________________________________
dropout_131 (Dropout)           (None, 7)            0           dense_196[0][0]                  
__________________________________________________________________________________________________
dense_197 (Dense)               (None, 86)           688         dropout_131[0][0]                
__________________________________________________________________________________________________
dropout_132 (Dropout)           (None, 86)           0           dense_197[0][0]                  
__________________________________________________________________________________________________
dense_198 (Dense)               (None, 8)            696         dropout_132[0][0]                
==================================================================================================
Total params: 654,682
Trainable params: 654,682
Non-trainable params: 0
__________________________________________________________________________________________________
None

__________________________________________________________________________________________________
…
	One occurrence keys in vocabulary 1660 / 15321
	Attention: important lemmas are not in vocbulary	Embedding
==================================================================================================
	Initialisation = None
	Concatenation = False
	Lemma : 53
	POS = 41 
Deep model(Non compositional)
__________________________________________________________________________________________________
Layer (type)                    Output Shape         Param #     Connected to                     
==================================================================================================
input_133 (InputLayer)          (None, 4)            0                                            
__________________________________________________________________________________________________
input_134 (InputLayer)          (None, 4)            0                                            
__________________________________________________________________________________________________
embedding_133 (Embedding)       (None, 4, 53)        812013      input_133[0][0]                  
__________________________________________________________________________________________________
embedding_134 (Embedding)       (None, 4, 41)        6929        input_134[0][0]                  
__________________________________________________________________________________________________
flatten_133 (Flatten)           (None, 212)          0           embedding_133[0][0]              
__________________________________________________________________________________________________
flatten_134 (Flatten)           (None, 164)          0           embedding_134[0][0]              
__________________________________________________________________________________________________
concatenate_67 (Concatenate)    (None, 376)          0           flatten_133[0][0]                
                                                                 flatten_134[0][0]                
__________________________________________________________________________________________________
dense_199 (Dense)               (None, 7)            2639        concatenate_67[0][0]             
__________________________________________________________________________________________________
dropout_133 (Dropout)           (None, 7)            0           dense_199[0][0]                  
__________________________________________________________________________________________________
dense_200 (Dense)               (None, 86)           688         dropout_133[0][0]                
__________________________________________________________________________________________________
dropout_134 (Dropout)           (None, 86)           0           dense_200[0][0]                  
__________________________________________________________________________________________________
dense_201 (Dense)               (None, 8)            696         dropout_134[0][0]                
==================================================================================================
Total params: 822,965
Trainable params: 822,965
Non-trainable params: 0
__________________________________________________________________________________________________
None

__________________________________________________________________________________________________
…
	One occurrence keys in vocabulary 1660 / 15303
	Attention: important lemmas are not in vocbulary	Embedding
==================================================================================================
	Initialisation = None
	Concatenation = False
	Lemma : 53
	POS = 41 
Deep model(Non compositional)
__________________________________________________________________________________________________
Layer (type)                    Output Shape         Param #     Connected to                     
==================================================================================================
input_135 (InputLayer)          (None, 4)            0                                            
__________________________________________________________________________________________________
input_136 (InputLayer)          (None, 4)            0                                            
__________________________________________________________________________________________________
embedding_135 (Embedding)       (None, 4, 53)        811059      input_135[0][0]                  
__________________________________________________________________________________________________
embedding_136 (Embedding)       (None, 4, 41)        6929        input_136[0][0]                  
__________________________________________________________________________________________________
flatten_135 (Flatten)           (None, 212)          0           embedding_135[0][0]              
__________________________________________________________________________________________________
flatten_136 (Flatten)           (None, 164)          0           embedding_136[0][0]              
__________________________________________________________________________________________________
concatenate_68 (Concatenate)    (None, 376)          0           flatten_135[0][0]                
                                                                 flatten_136[0][0]                
__________________________________________________________________________________________________
dense_202 (Dense)               (None, 7)            2639        concatenate_68[0][0]             
__________________________________________________________________________________________________
dropout_135 (Dropout)           (None, 7)            0           dense_202[0][0]                  
__________________________________________________________________________________________________
dense_203 (Dense)               (None, 86)           688         dropout_135[0][0]                
__________________________________________________________________________________________________
dropout_136 (Dropout)           (None, 86)           0           dense_203[0][0]                  
__________________________________________________________________________________________________
dense_204 (Dense)               (None, 8)            696         dropout_136[0][0]                
==================================================================================================
Total params: 822,011
Trainable params: 822,011
Non-trainable params: 0
__________________________________________________________________________________________________
None

__________________________________________________________________________________________________
…
	One occurrence keys in vocabulary 1660 / 15244
	Attention: important lemmas are not in vocbulary	Embedding
==================================================================================================
	Initialisation = None
	Concatenation = False
	Lemma : 53
	POS = 41 
Deep model(Non compositional)
__________________________________________________________________________________________________
Layer (type)                    Output Shape         Param #     Connected to                     
==================================================================================================
input_137 (InputLayer)          (None, 4)            0                                            
__________________________________________________________________________________________________
input_138 (InputLayer)          (None, 4)            0                                            
__________________________________________________________________________________________________
embedding_137 (Embedding)       (None, 4, 53)        807932      input_137[0][0]                  
__________________________________________________________________________________________________
embedding_138 (Embedding)       (None, 4, 41)        6929        input_138[0][0]                  
__________________________________________________________________________________________________
flatten_137 (Flatten)           (None, 212)          0           embedding_137[0][0]              
__________________________________________________________________________________________________
flatten_138 (Flatten)           (None, 164)          0           embedding_138[0][0]              
__________________________________________________________________________________________________
concatenate_69 (Concatenate)    (None, 376)          0           flatten_137[0][0]                
                                                                 flatten_138[0][0]                
__________________________________________________________________________________________________
dense_205 (Dense)               (None, 7)            2639        concatenate_69[0][0]             
__________________________________________________________________________________________________
dropout_137 (Dropout)           (None, 7)            0           dense_205[0][0]                  
__________________________________________________________________________________________________
dense_206 (Dense)               (None, 86)           688         dropout_137[0][0]                
__________________________________________________________________________________________________
dropout_138 (Dropout)           (None, 86)           0           dense_206[0][0]                  
__________________________________________________________________________________________________
dense_207 (Dense)               (None, 8)            696         dropout_138[0][0]                
==================================================================================================
Total params: 818,884
Trainable params: 818,884
Non-trainable params: 0
__________________________________________________________________________________________________
None

__________________________________________________________________________________________________
…
	Dashed keys in vocabulary 1979
	One occurrence keys in vocabulary 1979 / 12529
	Embedding
==================================================================================================
	Initialisation = None
	Concatenation = False
	Lemma : 53
	POS = 41 
Deep model(Non compositional)
__________________________________________________________________________________________________
Layer (type)                    Output Shape         Param #     Connected to                     
==================================================================================================
input_139 (InputLayer)          (None, 4)            0                                            
__________________________________________________________________________________________________
input_140 (InputLayer)          (None, 4)            0                                            
__________________________________________________________________________________________________
embedding_139 (Embedding)       (None, 4, 53)        664037      input_139[0][0]                  
__________________________________________________________________________________________________
embedding_140 (Embedding)       (None, 4, 41)        4510        input_140[0][0]                  
__________________________________________________________________________________________________
flatten_139 (Flatten)           (None, 212)          0           embedding_139[0][0]              
__________________________________________________________________________________________________
flatten_140 (Flatten)           (None, 164)          0           embedding_140[0][0]              
__________________________________________________________________________________________________
concatenate_70 (Concatenate)    (None, 376)          0           flatten_139[0][0]                
                                                                 flatten_140[0][0]                
__________________________________________________________________________________________________
dense_208 (Dense)               (None, 7)            2639        concatenate_70[0][0]             
__________________________________________________________________________________________________
dropout_139 (Dropout)           (None, 7)            0           dense_208[0][0]                  
__________________________________________________________________________________________________
dense_209 (Dense)               (None, 86)           688         dropout_139[0][0]                
__________________________________________________________________________________________________
dropout_140 (Dropout)           (None, 86)           0           dense_209[0][0]                  
__________________________________________________________________________________________________
dense_210 (Dense)               (None, 8)            696         dropout_140[0][0]                
==================================================================================================
Total params: 672,570
Trainable params: 672,570
Non-trainable params: 0
__________________________________________________________________________________________________
None

__________________________________________________________________________________________________
…
	Dashed keys in vocabulary 1979
	One occurrence keys in vocabulary 1979 / 12525
	Embedding
==================================================================================================
	Initialisation = None
	Concatenation = False
	Lemma : 53
	POS = 41 
Deep model(Non compositional)
__________________________________________________________________________________________________
Layer (type)                    Output Shape         Param #     Connected to                     
==================================================================================================
input_141 (InputLayer)          (None, 4)            0                                            
__________________________________________________________________________________________________
input_142 (InputLayer)          (None, 4)            0                                            
__________________________________________________________________________________________________
embedding_141 (Embedding)       (None, 4, 53)        663825      input_141[0][0]                  
__________________________________________________________________________________________________
embedding_142 (Embedding)       (None, 4, 41)        4510        input_142[0][0]                  
__________________________________________________________________________________________________
flatten_141 (Flatten)           (None, 212)          0           embedding_141[0][0]              
__________________________________________________________________________________________________
flatten_142 (Flatten)           (None, 164)          0           embedding_142[0][0]              
__________________________________________________________________________________________________
concatenate_71 (Concatenate)    (None, 376)          0           flatten_141[0][0]                
                                                                 flatten_142[0][0]                
__________________________________________________________________________________________________
dense_211 (Dense)               (None, 7)            2639        concatenate_71[0][0]             
__________________________________________________________________________________________________
dropout_141 (Dropout)           (None, 7)            0           dense_211[0][0]                  
__________________________________________________________________________________________________
dense_212 (Dense)               (None, 86)           688         dropout_141[0][0]                
__________________________________________________________________________________________________
dropout_142 (Dropout)           (None, 86)           0           dense_212[0][0]                  
__________________________________________________________________________________________________
dense_213 (Dense)               (None, 8)            696         dropout_142[0][0]                
==================================================================================================
Total params: 672,358
Trainable params: 672,358
Non-trainable params: 0
__________________________________________________________________________________________________
None

__________________________________________________________________________________________________
…
	Dashed keys in vocabulary 1979
	One occurrence keys in vocabulary 1979 / 12587
	Embedding
==================================================================================================
	Initialisation = None
	Concatenation = False
	Lemma : 53
	POS = 41 
Deep model(Non compositional)
__________________________________________________________________________________________________
Layer (type)                    Output Shape         Param #     Connected to                     
==================================================================================================
input_143 (InputLayer)          (None, 4)            0                                            
__________________________________________________________________________________________________
input_144 (InputLayer)          (None, 4)            0                                            
__________________________________________________________________________________________________
embedding_143 (Embedding)       (None, 4, 53)        667111      input_143[0][0]                  
__________________________________________________________________________________________________
embedding_144 (Embedding)       (None, 4, 41)        4510        input_144[0][0]                  
__________________________________________________________________________________________________
flatten_143 (Flatten)           (None, 212)          0           embedding_143[0][0]              
__________________________________________________________________________________________________
flatten_144 (Flatten)           (None, 164)          0           embedding_144[0][0]              
__________________________________________________________________________________________________
concatenate_72 (Concatenate)    (None, 376)          0           flatten_143[0][0]                
                                                                 flatten_144[0][0]                
__________________________________________________________________________________________________
dense_214 (Dense)               (None, 7)            2639        concatenate_72[0][0]             
__________________________________________________________________________________________________
dropout_143 (Dropout)           (None, 7)            0           dense_214[0][0]                  
__________________________________________________________________________________________________
dense_215 (Dense)               (None, 86)           688         dropout_143[0][0]                
__________________________________________________________________________________________________
dropout_144 (Dropout)           (None, 86)           0           dense_215[0][0]                  
__________________________________________________________________________________________________
dense_216 (Dense)               (None, 8)            696         dropout_144[0][0]                
==================================================================================================
Total params: 675,644
Trainable params: 675,644
Non-trainable params: 0
__________________________________________________________________________________________________
None

__________________________________________________________________________________________________
…
