…
	Dataset : Sharedtask 1.1
	Training (Important) : 3124, Test : 1954
	MWEs in tain : 1372, occurrences : 3583
	Impotant words in tain : 1175
	MWE length mean : 2.13
	Seen MWEs : 386 (57 %)
	New MWEs : 284 (42 %)
==================================================================================================
__________________________________________________________________________________________________
Layer (type)                    Output Shape         Param #     Connected to
==================================================================================================
input_1 (InputLayer)            (None, 7)            0
__________________________________________________________________________________________________
input_2 (InputLayer)            (None, 7)            0
__________________________________________________________________________________________________
embedding_1 (Embedding)         (None, 7, 410)       482980      input_1[0][0]
__________________________________________________________________________________________________
embedding_2 (Embedding)         (None, 7, 54)        1026        input_2[0][0]
__________________________________________________________________________________________________
gru_1 (GRU)                     (None, 25)           32700       embedding_1[0][0]
__________________________________________________________________________________________________
gru_2 (GRU)                     (None, 15)           3150        embedding_2[0][0]
__________________________________________________________________________________________________
dropout_1 (Dropout)             (None, 25)           0           gru_1[0][0]
__________________________________________________________________________________________________
dropout_2 (Dropout)             (None, 15)           0           gru_2[0][0]
__________________________________________________________________________________________________
concatenate_1 (Concatenate)     (None, 40)           0           dropout_1[0][0]
                                                                 dropout_2[0][0]
__________________________________________________________________________________________________
dense_1 (Dense)                 (None, 51)           2091        concatenate_1[0][0]
__________________________________________________________________________________________________
dropout_3 (Dropout)             (None, 51)           0           dense_1[0][0]
__________________________________________________________________________________________________
dense_2 (Dense)                 (None, 4)            208         dropout_3[0][0]
==================================================================================================
Total params: 522,155
Trainable params: 522,155
Non-trainable params: 0
__________________________________________________________________________________________________
None
	data size before focused sampling = 356484
	data size after focused sampling = 510016
Train on 459014 samples, validate on 51002 samples
…
	Dataset : Sharedtask 1.1
	Training (Important) : 2305, Test : 3117
	MWEs in tain : 1396, occurrences : 2518
	Impotant words in tain : 1131
	MWE length mean : 2.22
	Seen MWEs : 340 (61 %)
	New MWEs : 213 (38 %)
==================================================================================================
__________________________________________________________________________________________________
Layer (type)                    Output Shape         Param #     Connected to
==================================================================================================
input_3 (InputLayer)            (None, 7)            0
__________________________________________________________________________________________________
input_4 (InputLayer)            (None, 7)            0
__________________________________________________________________________________________________
embedding_3 (Embedding)         (None, 7, 410)       464940      input_3[0][0]
__________________________________________________________________________________________________
embedding_4 (Embedding)         (None, 7, 54)        1026        input_4[0][0]
__________________________________________________________________________________________________
gru_3 (GRU)                     (None, 25)           32700       embedding_3[0][0]
__________________________________________________________________________________________________
gru_4 (GRU)                     (None, 15)           3150        embedding_4[0][0]
__________________________________________________________________________________________________
dropout_4 (Dropout)             (None, 25)           0           gru_3[0][0]
__________________________________________________________________________________________________
dropout_5 (Dropout)             (None, 15)           0           gru_4[0][0]
__________________________________________________________________________________________________
concatenate_2 (Concatenate)     (None, 40)           0           dropout_4[0][0]
                                                                 dropout_5[0][0]
__________________________________________________________________________________________________
dense_3 (Dense)                 (None, 51)           2091        concatenate_2[0][0]
__________________________________________________________________________________________________
dropout_6 (Dropout)             (None, 51)           0           dense_3[0][0]
__________________________________________________________________________________________________
dense_4 (Dense)                 (None, 4)            208         dropout_6[0][0]
==================================================================================================
Total params: 504,115
Trainable params: 504,115
Non-trainable params: 0
__________________________________________________________________________________________________
None
	data size before focused sampling = 241368
	data size after focused sampling = 396311
Train on 356679 samples, validate on 39632 samples
…
	Dataset : Sharedtask 1.1
	Training (Important) : 3585, Test : 1320
	MWEs in tain : 1790, occurrences : 4856
	Impotant words in tain : 1200
	MWE length mean : 2.06
	Seen MWEs : 345 (67 %)
	New MWEs : 165 (32 %)
==================================================================================================
__________________________________________________________________________________________________
Layer (type)                    Output Shape         Param #     Connected to
==================================================================================================
input_5 (InputLayer)            (None, 7)            0
__________________________________________________________________________________________________
input_6 (InputLayer)            (None, 7)            0
__________________________________________________________________________________________________
embedding_5 (Embedding)         (None, 7, 410)       493230      input_5[0][0]
__________________________________________________________________________________________________
embedding_6 (Embedding)         (None, 7, 54)        756         input_6[0][0]
__________________________________________________________________________________________________
gru_5 (GRU)                     (None, 25)           32700       embedding_5[0][0]
__________________________________________________________________________________________________
gru_6 (GRU)                     (None, 15)           3150        embedding_6[0][0]
__________________________________________________________________________________________________
dropout_7 (Dropout)             (None, 25)           0           gru_5[0][0]
__________________________________________________________________________________________________
dropout_8 (Dropout)             (None, 15)           0           gru_6[0][0]
__________________________________________________________________________________________________
concatenate_3 (Concatenate)     (None, 40)           0           dropout_7[0][0]
                                                                 dropout_8[0][0]
__________________________________________________________________________________________________
dense_5 (Dense)                 (None, 51)           2091        concatenate_3[0][0]
__________________________________________________________________________________________________
dropout_9 (Dropout)             (None, 51)           0           dense_5[0][0]
__________________________________________________________________________________________________
dense_6 (Dense)                 (None, 4)            208         dropout_9[0][0]
==================================================================================================
Total params: 532,135
Trainable params: 532,135
Non-trainable params: 0
__________________________________________________________________________________________________
None
	data size before focused sampling = 480496
	data size after focused sampling = 668676
Train on 601808 samples, validate on 66868 samples
…
