…
	Training (Important) : 3124, Test : 1954
	MWEs in tain : 1881, occurrences : 3583
	Impotant words in tain : 1880
	MWE length mean : 2.13
	Seen MWEs : 279 (41 %)
	New MWEs : 391 (58 %)
==================================================================================================
__________________________________________________________________________________________________
Layer (type)                    Output Shape         Param #     Connected to                     
==================================================================================================
input_1 (InputLayer)            (None, 7)            0                                            
__________________________________________________________________________________________________
input_2 (InputLayer)            (None, 7)            0                                            
__________________________________________________________________________________________________
embedding_1 (Embedding)         (None, 7, 51)        96033       input_1[0][0]                    
__________________________________________________________________________________________________
embedding_2 (Embedding)         (None, 7, 89)        1691        input_2[0][0]                    
__________________________________________________________________________________________________
lstm_1 (LSTM)                   (None, 84)           45696       embedding_1[0][0]                
__________________________________________________________________________________________________
lstm_2 (LSTM)                   (None, 21)           9324        embedding_2[0][0]                
__________________________________________________________________________________________________
dropout_1 (Dropout)             (None, 84)           0           lstm_1[0][0]                     
__________________________________________________________________________________________________
dropout_2 (Dropout)             (None, 21)           0           lstm_2[0][0]                     
__________________________________________________________________________________________________
concatenate_1 (Concatenate)     (None, 105)          0           dropout_1[0][0]                  
                                                                 dropout_2[0][0]                  
__________________________________________________________________________________________________
dense_1 (Dense)                 (None, 4)            424         concatenate_1[0][0]              
==================================================================================================
Total params: 153,168
Trainable params: 153,168
Non-trainable params: 0
__________________________________________________________________________________________________
None
Train on 320835 samples, validate on 35649 samples
Epoch 1/20
 - 353s - loss: 0.0660 - acc: 0.9813 - val_loss: 0.0712 - val_acc: 0.9992
…
	Training (Important) : 3124, Test : 1954
	MWEs in tain : 1881, occurrences : 3583
	Impotant words in tain : 1880
	MWE length mean : 2.13
	Seen MWEs : 279 (41 %)
	New MWEs : 391 (58 %)
==================================================================================================
__________________________________________________________________________________________________
Layer (type)                    Output Shape         Param #     Connected to                     
==================================================================================================
input_3 (InputLayer)            (None, 7)            0                                            
__________________________________________________________________________________________________
input_4 (InputLayer)            (None, 7)            0                                            
__________________________________________________________________________________________________
embedding_3 (Embedding)         (None, 7, 442)       832286      input_3[0][0]                    
__________________________________________________________________________________________________
embedding_4 (Embedding)         (None, 7, 79)        1501        input_4[0][0]                    
__________________________________________________________________________________________________
gru_1 (GRU)                     (None, 74)           114774      embedding_3[0][0]                
__________________________________________________________________________________________________
gru_2 (GRU)                     (None, 27)           8667        embedding_4[0][0]                
__________________________________________________________________________________________________
dropout_3 (Dropout)             (None, 74)           0           gru_1[0][0]                      
__________________________________________________________________________________________________
dropout_4 (Dropout)             (None, 27)           0           gru_2[0][0]                      
__________________________________________________________________________________________________
concatenate_2 (Concatenate)     (None, 101)          0           dropout_3[0][0]                  
                                                                 dropout_4[0][0]                  
__________________________________________________________________________________________________
dense_2 (Dense)                 (None, 4)            408         concatenate_2[0][0]              
==================================================================================================
Total params: 957,636
Trainable params: 957,636
Non-trainable params: 0
__________________________________________________________________________________________________
None
Train on 320835 samples, validate on 35649 samples
Epoch 1/20
 - 74s - loss: 0.0724 - acc: 0.9796 - val_loss: 0.0470 - val_acc: 1.0000
…
	Training (Important) : 3124, Test : 1954
	MWEs in tain : 1372, occurrences : 3583
	Impotant words in tain : 1175
	MWE length mean : 2.13
	Seen MWEs : 386 (57 %)
	New MWEs : 284 (42 %)
==================================================================================================
__________________________________________________________________________________________________
Layer (type)                    Output Shape         Param #     Connected to                     
==================================================================================================
input_5 (InputLayer)            (None, 7)            0                                            
__________________________________________________________________________________________________
input_6 (InputLayer)            (None, 7)            0                                            
__________________________________________________________________________________________________
embedding_5 (Embedding)         (None, 7, 433)       2565958     input_5[0][0]                    
__________________________________________________________________________________________________
embedding_6 (Embedding)         (None, 7, 96)        1824        input_6[0][0]                    
__________________________________________________________________________________________________
gru_3 (GRU)                     (None, 48)           69408       embedding_5[0][0]                
__________________________________________________________________________________________________
gru_4 (GRU)                     (None, 14)           4662        embedding_6[0][0]                
__________________________________________________________________________________________________
dropout_5 (Dropout)             (None, 48)           0           gru_3[0][0]                      
__________________________________________________________________________________________________
dropout_6 (Dropout)             (None, 14)           0           gru_4[0][0]                      
__________________________________________________________________________________________________
concatenate_3 (Concatenate)     (None, 62)           0           dropout_5[0][0]                  
                                                                 dropout_6[0][0]                  
__________________________________________________________________________________________________
dense_3 (Dense)                 (None, 16)           1008        concatenate_3[0][0]              
__________________________________________________________________________________________________
dropout_7 (Dropout)             (None, 16)           0           dense_3[0][0]                    
__________________________________________________________________________________________________
dense_4 (Dense)                 (None, 4)            68          dropout_7[0][0]                  
==================================================================================================
Total params: 2,642,928
Trainable params: 2,642,928
Non-trainable params: 0
__________________________________________________________________________________________________
None
Train on 320835 samples, validate on 35649 samples
Epoch 1/20
 - 146s - loss: 0.0786 - acc: 0.9779 - val_loss: 0.0536 - val_acc: 0.9991
…
	Training (Important) : 3124, Test : 1954
	MWEs in tain : 1372, occurrences : 3583
	Impotant words in tain : 1175
	MWE length mean : 2.13
	Seen MWEs : 386 (57 %)
	New MWEs : 284 (42 %)
==================================================================================================
__________________________________________________________________________________________________
Layer (type)                    Output Shape         Param #     Connected to                     
==================================================================================================
input_7 (InputLayer)            (None, 7)            0                                            
__________________________________________________________________________________________________
input_8 (InputLayer)            (None, 7)            0                                            
__________________________________________________________________________________________________
embedding_7 (Embedding)         (None, 7, 257)       302746      input_7[0][0]                    
__________________________________________________________________________________________________
embedding_8 (Embedding)         (None, 7, 28)        532         input_8[0][0]                    
__________________________________________________________________________________________________
gru_5 (GRU)                     (None, 22)           18480       embedding_7[0][0]                
__________________________________________________________________________________________________
gru_6 (GRU)                     (None, 14)           1806        embedding_8[0][0]                
__________________________________________________________________________________________________
dropout_8 (Dropout)             (None, 22)           0           gru_5[0][0]                      
__________________________________________________________________________________________________
dropout_9 (Dropout)             (None, 14)           0           gru_6[0][0]                      
__________________________________________________________________________________________________
concatenate_4 (Concatenate)     (None, 36)           0           dropout_8[0][0]                  
                                                                 dropout_9[0][0]                  
__________________________________________________________________________________________________
dense_5 (Dense)                 (None, 77)           2849        concatenate_4[0][0]              
__________________________________________________________________________________________________
dropout_10 (Dropout)            (None, 77)           0           dense_5[0][0]                    
__________________________________________________________________________________________________
dense_6 (Dense)                 (None, 4)            312         dropout_10[0][0]                 
==================================================================================================
Total params: 326,725
Trainable params: 326,725
Non-trainable params: 0
__________________________________________________________________________________________________
None
Train on 320835 samples, validate on 35649 samples
Epoch 1/20
 - 148s - loss: 0.0771 - acc: 0.9784 - val_loss: 0.0612 - val_acc: 0.9999
…
	Training (Important) : 3124, Test : 1954
	MWEs in tain : 1372, occurrences : 3583
	Impotant words in tain : 1175
	MWE length mean : 2.13
	Seen MWEs : 386 (57 %)
	New MWEs : 284 (42 %)
==================================================================================================
__________________________________________________________________________________________________
Layer (type)                    Output Shape         Param #     Connected to                     
==================================================================================================
input_9 (InputLayer)            (None, 7)            0                                            
__________________________________________________________________________________________________
input_10 (InputLayer)           (None, 7)            0                                            
__________________________________________________________________________________________________
embedding_9 (Embedding)         (None, 7, 199)       234422      input_9[0][0]                    
__________________________________________________________________________________________________
embedding_10 (Embedding)        (None, 7, 59)        1121        input_10[0][0]                   
__________________________________________________________________________________________________
gru_7 (GRU)                     (None, 75)           61875       embedding_9[0][0]                
__________________________________________________________________________________________________
gru_8 (GRU)                     (None, 38)           11172       embedding_10[0][0]               
__________________________________________________________________________________________________
dropout_11 (Dropout)            (None, 75)           0           gru_7[0][0]                      
__________________________________________________________________________________________________
dropout_12 (Dropout)            (None, 38)           0           gru_8[0][0]                      
__________________________________________________________________________________________________
concatenate_5 (Concatenate)     (None, 113)          0           dropout_11[0][0]                 
                                                                 dropout_12[0][0]                 
__________________________________________________________________________________________________
dense_7 (Dense)                 (None, 30)           3420        concatenate_5[0][0]              
__________________________________________________________________________________________________
dropout_13 (Dropout)            (None, 30)           0           dense_7[0][0]                    
__________________________________________________________________________________________________
dense_8 (Dense)                 (None, 4)            124         dropout_13[0][0]                 
==================================================================================================
Total params: 312,134
Trainable params: 312,134
Non-trainable params: 0
__________________________________________________________________________________________________
None
Train on 320835 samples, validate on 35649 samples
Epoch 1/20
 - 149s - loss: 0.0824 - acc: 0.9776 - val_loss: 0.0599 - val_acc: 1.0000
…
	Training (Important) : 3124, Test : 1954
	MWEs in tain : 1372, occurrences : 3583
	Impotant words in tain : 1175
	MWE length mean : 2.13
	Seen MWEs : 386 (57 %)
	New MWEs : 284 (42 %)
==================================================================================================
__________________________________________________________________________________________________
Layer (type)                    Output Shape         Param #     Connected to                     
==================================================================================================
input_11 (InputLayer)           (None, 7)            0                                            
__________________________________________________________________________________________________
input_12 (InputLayer)           (None, 7)            0                                            
__________________________________________________________________________________________________
embedding_11 (Embedding)        (None, 7, 284)       334552      input_11[0][0]                   
__________________________________________________________________________________________________
embedding_12 (Embedding)        (None, 7, 33)        627         input_12[0][0]                   
__________________________________________________________________________________________________
gru_9 (GRU)                     (None, 66)           69498       embedding_11[0][0]               
__________________________________________________________________________________________________
gru_10 (GRU)                    (None, 46)           11040       embedding_12[0][0]               
__________________________________________________________________________________________________
dropout_14 (Dropout)            (None, 66)           0           gru_9[0][0]                      
__________________________________________________________________________________________________
dropout_15 (Dropout)            (None, 46)           0           gru_10[0][0]                     
__________________________________________________________________________________________________
concatenate_6 (Concatenate)     (None, 112)          0           dropout_14[0][0]                 
                                                                 dropout_15[0][0]                 
__________________________________________________________________________________________________
dense_9 (Dense)                 (None, 79)           8927        concatenate_6[0][0]              
__________________________________________________________________________________________________
dropout_16 (Dropout)            (None, 79)           0           dense_9[0][0]                    
__________________________________________________________________________________________________
dense_10 (Dense)                (None, 4)            320         dropout_16[0][0]                 
==================================================================================================
Total params: 424,964
Trainable params: 424,964
Non-trainable params: 0
__________________________________________________________________________________________________
None
Train on 320835 samples, validate on 35649 samples
Epoch 1/20
 - 299s - loss: 0.0760 - acc: 0.9792 - val_loss: 0.0564 - val_acc: 0.9994
…
	Training (Important) : 3124, Test : 1954
	MWEs in tain : 1372, occurrences : 3583
	Impotant words in tain : 1175
	MWE length mean : 2.13
	Seen MWEs : 386 (57 %)
	New MWEs : 284 (42 %)
==================================================================================================
__________________________________________________________________________________________________
Layer (type)                    Output Shape         Param #     Connected to                     
==================================================================================================
input_13 (InputLayer)           (None, 7)            0                                            
__________________________________________________________________________________________________
input_14 (InputLayer)           (None, 7)            0                                            
__________________________________________________________________________________________________
embedding_13 (Embedding)        (None, 7, 218)       256804      input_13[0][0]                   
__________________________________________________________________________________________________
embedding_14 (Embedding)        (None, 7, 90)        1710        input_14[0][0]                   
__________________________________________________________________________________________________
gru_11 (GRU)                    (None, 8)            5448        embedding_13[0][0]               
__________________________________________________________________________________________________
gru_12 (GRU)                    (None, 19)           6270        embedding_14[0][0]               
__________________________________________________________________________________________________
dropout_17 (Dropout)            (None, 8)            0           gru_11[0][0]                     
__________________________________________________________________________________________________
dropout_18 (Dropout)            (None, 19)           0           gru_12[0][0]                     
__________________________________________________________________________________________________
concatenate_7 (Concatenate)     (None, 27)           0           dropout_17[0][0]                 
                                                                 dropout_18[0][0]                 
__________________________________________________________________________________________________
dense_11 (Dense)                (None, 92)           2576        concatenate_7[0][0]              
__________________________________________________________________________________________________
dropout_19 (Dropout)            (None, 92)           0           dense_11[0][0]                   
__________________________________________________________________________________________________
dense_12 (Dense)                (None, 4)            372         dropout_19[0][0]                 
==================================================================================================
Total params: 273,180
Trainable params: 273,180
Non-trainable params: 0
__________________________________________________________________________________________________
None
Train on 320835 samples, validate on 35649 samples
Epoch 1/20
 - 37s - loss: 0.0828 - acc: 0.9742 - val_loss: 0.0645 - val_acc: 0.9978
…
	Training (Important) : 3124, Test : 1954
	MWEs in tain : 1372, occurrences : 3583
	Impotant words in tain : 1175
	MWE length mean : 2.13
	Seen MWEs : 386 (57 %)
	New MWEs : 284 (42 %)
==================================================================================================
__________________________________________________________________________________________________
Layer (type)                    Output Shape         Param #     Connected to                     
==================================================================================================
input_15 (InputLayer)           (None, 7)            0                                            
__________________________________________________________________________________________________
input_16 (InputLayer)           (None, 7)            0                                            
__________________________________________________________________________________________________
embedding_15 (Embedding)        (None, 7, 406)       478268      input_15[0][0]                   
__________________________________________________________________________________________________
embedding_16 (Embedding)        (None, 7, 63)        1197        input_16[0][0]                   
__________________________________________________________________________________________________
lstm_3 (LSTM)                   (None, 44)           79376       embedding_15[0][0]               
__________________________________________________________________________________________________
lstm_4 (LSTM)                   (None, 46)           20240       embedding_16[0][0]               
__________________________________________________________________________________________________
dropout_20 (Dropout)            (None, 44)           0           lstm_3[0][0]                     
__________________________________________________________________________________________________
dropout_21 (Dropout)            (None, 46)           0           lstm_4[0][0]                     
__________________________________________________________________________________________________
concatenate_8 (Concatenate)     (None, 90)           0           dropout_20[0][0]                 
                                                                 dropout_21[0][0]                 
__________________________________________________________________________________________________
dense_13 (Dense)                (None, 58)           5278        concatenate_8[0][0]              
__________________________________________________________________________________________________
dropout_22 (Dropout)            (None, 58)           0           dense_13[0][0]                   
__________________________________________________________________________________________________
dense_14 (Dense)                (None, 4)            236         dropout_22[0][0]                 
==================================================================================================
Total params: 584,595
Trainable params: 584,595
Non-trainable params: 0
__________________________________________________________________________________________________
None
Train on 320835 samples, validate on 35649 samples
Epoch 1/20
 - 46s - loss: 0.0799 - acc: 0.9764 - val_loss: 0.0644 - val_acc: 0.9985
…
	Training (Important) : 3124, Test : 1954
	MWEs in tain : 1881, occurrences : 3583
	Impotant words in tain : 1880
	MWE length mean : 2.13
	Seen MWEs : 279 (41 %)
	New MWEs : 391 (58 %)
==================================================================================================
__________________________________________________________________________________________________
Layer (type)                    Output Shape         Param #     Connected to                     
==================================================================================================
input_17 (InputLayer)           (None, 7)            0                                            
__________________________________________________________________________________________________
input_18 (InputLayer)           (None, 7)            0                                            
__________________________________________________________________________________________________
embedding_17 (Embedding)        (None, 7, 253)       476399      input_17[0][0]                   
__________________________________________________________________________________________________
embedding_18 (Embedding)        (None, 7, 75)        1425        input_18[0][0]                   
__________________________________________________________________________________________________
gru_13 (GRU)                    (None, 57)           53181       embedding_17[0][0]               
__________________________________________________________________________________________________
gru_14 (GRU)                    (None, 30)           9540        embedding_18[0][0]               
__________________________________________________________________________________________________
dropout_23 (Dropout)            (None, 57)           0           gru_13[0][0]                     
__________________________________________________________________________________________________
dropout_24 (Dropout)            (None, 30)           0           gru_14[0][0]                     
__________________________________________________________________________________________________
concatenate_9 (Concatenate)     (None, 87)           0           dropout_23[0][0]                 
                                                                 dropout_24[0][0]                 
__________________________________________________________________________________________________
dense_15 (Dense)                (None, 81)           7128        concatenate_9[0][0]              
__________________________________________________________________________________________________
dropout_25 (Dropout)            (None, 81)           0           dense_15[0][0]                   
__________________________________________________________________________________________________
dense_16 (Dense)                (None, 4)            328         dropout_25[0][0]                 
==================================================================================================
Total params: 548,001
Trainable params: 548,001
Non-trainable params: 0
__________________________________________________________________________________________________
None
Train on 320835 samples, validate on 35649 samples
Epoch 1/20
 - 294s - loss: 0.0683 - acc: 0.9809 - val_loss: 0.0920 - val_acc: 0.9996
…
	Training (Important) : 3124, Test : 1954
	MWEs in tain : 1372, occurrences : 3583
	Impotant words in tain : 1175
	MWE length mean : 2.13
	Seen MWEs : 386 (57 %)
	New MWEs : 284 (42 %)
==================================================================================================
__________________________________________________________________________________________________
Layer (type)                    Output Shape         Param #     Connected to                     
==================================================================================================
input_19 (InputLayer)           (None, 7)            0                                            
__________________________________________________________________________________________________
input_20 (InputLayer)           (None, 7)            0                                            
__________________________________________________________________________________________________
embedding_19 (Embedding)        (None, 7, 314)       369892      input_19[0][0]                   
__________________________________________________________________________________________________
embedding_20 (Embedding)        (None, 7, 88)        1672        input_20[0][0]                   
__________________________________________________________________________________________________
gru_15 (GRU)                    (None, 98)           121422      embedding_19[0][0]               
__________________________________________________________________________________________________
gru_16 (GRU)                    (None, 9)            2646        embedding_20[0][0]               
__________________________________________________________________________________________________
dropout_26 (Dropout)            (None, 98)           0           gru_15[0][0]                     
__________________________________________________________________________________________________
dropout_27 (Dropout)            (None, 9)            0           gru_16[0][0]                     
__________________________________________________________________________________________________
concatenate_10 (Concatenate)    (None, 107)          0           dropout_26[0][0]                 
                                                                 dropout_27[0][0]                 
__________________________________________________________________________________________________
dense_17 (Dense)                (None, 20)           2160        concatenate_10[0][0]             
__________________________________________________________________________________________________
dropout_28 (Dropout)            (None, 20)           0           dense_17[0][0]                   
__________________________________________________________________________________________________
dense_18 (Dense)                (None, 4)            84          dropout_28[0][0]                 
==================================================================================================
Total params: 497,876
Trainable params: 497,876
Non-trainable params: 0
__________________________________________________________________________________________________
None
Train on 320835 samples, validate on 35649 samples
Epoch 1/20
 - 73s - loss: 0.1060 - acc: 0.9694 - val_loss: 0.0630 - val_acc: 0.9999
…
	Training (Important) : 3124, Test : 1954
	MWEs in tain : 1372, occurrences : 3583
	Impotant words in tain : 1175
	MWE length mean : 2.13
	Seen MWEs : 386 (57 %)
	New MWEs : 284 (42 %)
==================================================================================================
__________________________________________________________________________________________________
Layer (type)                    Output Shape         Param #     Connected to                     
==================================================================================================
input_21 (InputLayer)           (None, 7)            0                                            
__________________________________________________________________________________________________
input_22 (InputLayer)           (None, 7)            0                                            
__________________________________________________________________________________________________
embedding_21 (Embedding)        (None, 7, 390)       459420      input_21[0][0]                   
__________________________________________________________________________________________________
embedding_22 (Embedding)        (None, 7, 13)        247         input_22[0][0]                   
__________________________________________________________________________________________________
lstm_5 (LSTM)                   (None, 30)           50520       embedding_21[0][0]               
__________________________________________________________________________________________________
lstm_6 (LSTM)                   (None, 37)           7548        embedding_22[0][0]               
__________________________________________________________________________________________________
dropout_29 (Dropout)            (None, 30)           0           lstm_5[0][0]                     
__________________________________________________________________________________________________
dropout_30 (Dropout)            (None, 37)           0           lstm_6[0][0]                     
__________________________________________________________________________________________________
concatenate_11 (Concatenate)    (None, 67)           0           dropout_29[0][0]                 
                                                                 dropout_30[0][0]                 
__________________________________________________________________________________________________
dense_19 (Dense)                (None, 71)           4828        concatenate_11[0][0]             
__________________________________________________________________________________________________
dropout_31 (Dropout)            (None, 71)           0           dense_19[0][0]                   
__________________________________________________________________________________________________
dense_20 (Dense)                (None, 4)            288         dropout_31[0][0]                 
==================================================================================================
Total params: 522,851
Trainable params: 522,851
Non-trainable params: 0
__________________________________________________________________________________________________
None
Train on 320835 samples, validate on 35649 samples
Epoch 1/20
 - 359s - loss: 0.0735 - acc: 0.9791 - val_loss: 0.0748 - val_acc: 0.9986
…
	Training (Important) : 3124, Test : 1954
	MWEs in tain : 1372, occurrences : 3583
	Impotant words in tain : 1175
	MWE length mean : 2.13
	Seen MWEs : 386 (57 %)
	New MWEs : 284 (42 %)
==================================================================================================
__________________________________________________________________________________________________
Layer (type)                    Output Shape         Param #     Connected to                     
==================================================================================================
input_23 (InputLayer)           (None, 7)            0                                            
__________________________________________________________________________________________________
input_24 (InputLayer)           (None, 7)            0                                            
__________________________________________________________________________________________________
embedding_23 (Embedding)        (None, 7, 220)       1303720     input_23[0][0]                   
__________________________________________________________________________________________________
embedding_24 (Embedding)        (None, 7, 38)        722         input_24[0][0]                   
__________________________________________________________________________________________________
gru_17 (GRU)                    (None, 15)           10620       embedding_23[0][0]               
__________________________________________________________________________________________________
gru_18 (GRU)                    (None, 23)           4278        embedding_24[0][0]               
__________________________________________________________________________________________________
dropout_32 (Dropout)            (None, 15)           0           gru_17[0][0]                     
__________________________________________________________________________________________________
dropout_33 (Dropout)            (None, 23)           0           gru_18[0][0]                     
__________________________________________________________________________________________________
concatenate_12 (Concatenate)    (None, 38)           0           dropout_32[0][0]                 
                                                                 dropout_33[0][0]                 
__________________________________________________________________________________________________
dense_21 (Dense)                (None, 70)           2730        concatenate_12[0][0]             
__________________________________________________________________________________________________
dropout_34 (Dropout)            (None, 70)           0           dense_21[0][0]                   
__________________________________________________________________________________________________
dense_22 (Dense)                (None, 4)            284         dropout_34[0][0]                 
==================================================================================================
Total params: 1,322,354
Trainable params: 1,322,354
Non-trainable params: 0
__________________________________________________________________________________________________
None
Train on 320835 samples, validate on 35649 samples
Epoch 1/20
 - 38s - loss: 0.0936 - acc: 0.9730 - val_loss: 0.0773 - val_acc: 0.9979
…
	Training (Important) : 3124, Test : 1954
	MWEs in tain : 1881, occurrences : 3583
	Impotant words in tain : 1880
	MWE length mean : 2.13
	Seen MWEs : 279 (41 %)
	New MWEs : 391 (58 %)
==================================================================================================
__________________________________________________________________________________________________
Layer (type)                    Output Shape         Param #     Connected to                     
==================================================================================================
input_25 (InputLayer)           (None, 7)            0                                            
__________________________________________________________________________________________________
input_26 (InputLayer)           (None, 7)            0                                            
__________________________________________________________________________________________________
embedding_25 (Embedding)        (None, 7, 262)       493346      input_25[0][0]                   
__________________________________________________________________________________________________
embedding_26 (Embedding)        (None, 7, 30)        570         input_26[0][0]                   
__________________________________________________________________________________________________
gru_19 (GRU)                    (None, 57)           54720       embedding_25[0][0]               
__________________________________________________________________________________________________
gru_20 (GRU)                    (None, 15)           2070        embedding_26[0][0]               
__________________________________________________________________________________________________
dropout_35 (Dropout)            (None, 57)           0           gru_19[0][0]                     
__________________________________________________________________________________________________
dropout_36 (Dropout)            (None, 15)           0           gru_20[0][0]                     
__________________________________________________________________________________________________
concatenate_13 (Concatenate)    (None, 72)           0           dropout_35[0][0]                 
                                                                 dropout_36[0][0]                 
__________________________________________________________________________________________________
dense_23 (Dense)                (None, 4)            292         concatenate_13[0][0]             
==================================================================================================
Total params: 550,998
Trainable params: 550,998
Non-trainable params: 0
__________________________________________________________________________________________________
None
Train on 320835 samples, validate on 35649 samples
Epoch 1/20
 - 147s - loss: 0.0690 - acc: 0.9806 - val_loss: 0.0635 - val_acc: 0.9979
…
	Training (Important) : 3124, Test : 1954
	MWEs in tain : 1372, occurrences : 3583
	Impotant words in tain : 1175
	MWE length mean : 2.13
	Seen MWEs : 386 (57 %)
	New MWEs : 284 (42 %)
==================================================================================================
__________________________________________________________________________________________________
Layer (type)                    Output Shape         Param #     Connected to                     
==================================================================================================
input_27 (InputLayer)           (None, 7)            0                                            
__________________________________________________________________________________________________
input_28 (InputLayer)           (None, 7)            0                                            
__________________________________________________________________________________________________
embedding_27 (Embedding)        (None, 7, 194)       228532      input_27[0][0]                   
__________________________________________________________________________________________________
embedding_28 (Embedding)        (None, 7, 67)        1273        input_28[0][0]                   
__________________________________________________________________________________________________
gru_21 (GRU)                    (None, 14)           8778        embedding_27[0][0]               
__________________________________________________________________________________________________
gru_22 (GRU)                    (None, 31)           9207        embedding_28[0][0]               
__________________________________________________________________________________________________
dropout_37 (Dropout)            (None, 14)           0           gru_21[0][0]                     
__________________________________________________________________________________________________
dropout_38 (Dropout)            (None, 31)           0           gru_22[0][0]                     
__________________________________________________________________________________________________
concatenate_14 (Concatenate)    (None, 45)           0           dropout_37[0][0]                 
                                                                 dropout_38[0][0]                 
__________________________________________________________________________________________________
dense_24 (Dense)                (None, 51)           2346        concatenate_14[0][0]             
__________________________________________________________________________________________________
dropout_39 (Dropout)            (None, 51)           0           dense_24[0][0]                   
__________________________________________________________________________________________________
dense_25 (Dense)                (None, 4)            208         dropout_39[0][0]                 
==================================================================================================
Total params: 250,344
Trainable params: 250,344
Non-trainable params: 0
__________________________________________________________________________________________________
None
Train on 320835 samples, validate on 35649 samples
Epoch 1/20
 - 38s - loss: 0.0868 - acc: 0.9741 - val_loss: 0.0861 - val_acc: 0.9979
…
	Training (Important) : 3124, Test : 1954
	MWEs in tain : 1372, occurrences : 3583
	Impotant words in tain : 1175
	MWE length mean : 2.13
	Seen MWEs : 386 (57 %)
	New MWEs : 284 (42 %)
==================================================================================================
__________________________________________________________________________________________________
Layer (type)                    Output Shape         Param #     Connected to                     
==================================================================================================
input_29 (InputLayer)           (None, 7)            0                                            
__________________________________________________________________________________________________
input_30 (InputLayer)           (None, 7)            0                                            
__________________________________________________________________________________________________
embedding_29 (Embedding)        (None, 7, 474)       558372      input_29[0][0]                   
__________________________________________________________________________________________________
embedding_30 (Embedding)        (None, 7, 59)        1121        input_30[0][0]                   
__________________________________________________________________________________________________
gru_23 (GRU)                    (None, 54)           85698       embedding_29[0][0]               
__________________________________________________________________________________________________
gru_24 (GRU)                    (None, 6)            1188        embedding_30[0][0]               
__________________________________________________________________________________________________
dropout_40 (Dropout)            (None, 54)           0           gru_23[0][0]                     
__________________________________________________________________________________________________
dropout_41 (Dropout)            (None, 6)            0           gru_24[0][0]                     
__________________________________________________________________________________________________
concatenate_15 (Concatenate)    (None, 60)           0           dropout_40[0][0]                 
                                                                 dropout_41[0][0]                 
__________________________________________________________________________________________________
dense_26 (Dense)                (None, 18)           1098        concatenate_15[0][0]             
__________________________________________________________________________________________________
dropout_42 (Dropout)            (None, 18)           0           dense_26[0][0]                   
__________________________________________________________________________________________________
dense_27 (Dense)                (None, 4)            76          dropout_42[0][0]                 
==================================================================================================
Total params: 647,553
Trainable params: 647,553
Non-trainable params: 0
__________________________________________________________________________________________________
None
Train on 320835 samples, validate on 35649 samples
Epoch 1/20
 - 150s - loss: 0.0853 - acc: 0.9764 - val_loss: 0.0631 - val_acc: 0.9997
…
	Training (Important) : 3124, Test : 1954
	MWEs in tain : 1881, occurrences : 3583
	Impotant words in tain : 1880
	MWE length mean : 2.13
	Seen MWEs : 279 (41 %)
	New MWEs : 391 (58 %)
==================================================================================================
__________________________________________________________________________________________________
Layer (type)                    Output Shape         Param #     Connected to                     
==================================================================================================
input_31 (InputLayer)           (None, 7)            0                                            
__________________________________________________________________________________________________
input_32 (InputLayer)           (None, 7)            0                                            
__________________________________________________________________________________________________
embedding_31 (Embedding)        (None, 7, 312)       2909400     input_31[0][0]                   
__________________________________________________________________________________________________
embedding_32 (Embedding)        (None, 7, 14)        266         input_32[0][0]                   
__________________________________________________________________________________________________
lstm_7 (LSTM)                   (None, 46)           66056       embedding_31[0][0]               
__________________________________________________________________________________________________
lstm_8 (LSTM)                   (None, 28)           4816        embedding_32[0][0]               
__________________________________________________________________________________________________
dropout_43 (Dropout)            (None, 46)           0           lstm_7[0][0]                     
__________________________________________________________________________________________________
dropout_44 (Dropout)            (None, 28)           0           lstm_8[0][0]                     
__________________________________________________________________________________________________
concatenate_16 (Concatenate)    (None, 74)           0           dropout_43[0][0]                 
                                                                 dropout_44[0][0]                 
__________________________________________________________________________________________________
dense_28 (Dense)                (None, 29)           2175        concatenate_16[0][0]             
__________________________________________________________________________________________________
dropout_45 (Dropout)            (None, 29)           0           dense_28[0][0]                   
__________________________________________________________________________________________________
dense_29 (Dense)                (None, 4)            120         dropout_45[0][0]                 
==================================================================================================
Total params: 2,982,833
Trainable params: 2,982,833
Non-trainable params: 0
__________________________________________________________________________________________________
None
Train on 320835 samples, validate on 35649 samples
Epoch 1/20
 - 180s - loss: 0.0829 - acc: 0.9770 - val_loss: 0.1496 - val_acc: 0.9970
…
	Training (Important) : 3124, Test : 1954
	MWEs in tain : 1372, occurrences : 3583
	Impotant words in tain : 1175
	MWE length mean : 2.13
	Seen MWEs : 386 (57 %)
	New MWEs : 284 (42 %)
==================================================================================================
__________________________________________________________________________________________________
Layer (type)                    Output Shape         Param #     Connected to                     
==================================================================================================
input_33 (InputLayer)           (None, 7)            0                                            
__________________________________________________________________________________________________
input_34 (InputLayer)           (None, 7)            0                                            
__________________________________________________________________________________________________
embedding_33 (Embedding)        (None, 7, 167)       196726      input_33[0][0]                   
__________________________________________________________________________________________________
embedding_34 (Embedding)        (None, 7, 22)        418         input_34[0][0]                   
__________________________________________________________________________________________________
lstm_9 (LSTM)                   (None, 67)           62980       embedding_33[0][0]               
__________________________________________________________________________________________________
lstm_10 (LSTM)                  (None, 22)           3960        embedding_34[0][0]               
__________________________________________________________________________________________________
dropout_46 (Dropout)            (None, 67)           0           lstm_9[0][0]                     
__________________________________________________________________________________________________
dropout_47 (Dropout)            (None, 22)           0           lstm_10[0][0]                    
__________________________________________________________________________________________________
concatenate_17 (Concatenate)    (None, 89)           0           dropout_46[0][0]                 
                                                                 dropout_47[0][0]                 
__________________________________________________________________________________________________
dense_30 (Dense)                (None, 61)           5490        concatenate_17[0][0]             
__________________________________________________________________________________________________
dropout_48 (Dropout)            (None, 61)           0           dense_30[0][0]                   
__________________________________________________________________________________________________
dense_31 (Dense)                (None, 4)            248         dropout_48[0][0]                 
==================================================================================================
Total params: 269,822
Trainable params: 269,822
Non-trainable params: 0
__________________________________________________________________________________________________
None
Train on 320835 samples, validate on 35649 samples
Epoch 1/20
 - 182s - loss: 0.0821 - acc: 0.9774 - val_loss: 0.0848 - val_acc: 0.9998
…
	Training (Important) : 3124, Test : 1954
	MWEs in tain : 1372, occurrences : 3583
	Impotant words in tain : 1175
	MWE length mean : 2.13
	Seen MWEs : 386 (57 %)
	New MWEs : 284 (42 %)
==================================================================================================
__________________________________________________________________________________________________
Layer (type)                    Output Shape         Param #     Connected to                     
==================================================================================================
input_35 (InputLayer)           (None, 7)            0                                            
__________________________________________________________________________________________________
input_36 (InputLayer)           (None, 7)            0                                            
__________________________________________________________________________________________________
embedding_35 (Embedding)        (None, 7, 292)       343976      input_35[0][0]                   
__________________________________________________________________________________________________
embedding_36 (Embedding)        (None, 7, 92)        1748        input_36[0][0]                   
__________________________________________________________________________________________________
lstm_11 (LSTM)                  (None, 92)           141680      embedding_35[0][0]               
__________________________________________________________________________________________________
lstm_12 (LSTM)                  (None, 25)           11800       embedding_36[0][0]               
__________________________________________________________________________________________________
dropout_49 (Dropout)            (None, 92)           0           lstm_11[0][0]                    
__________________________________________________________________________________________________
dropout_50 (Dropout)            (None, 25)           0           lstm_12[0][0]                    
__________________________________________________________________________________________________
concatenate_18 (Concatenate)    (None, 117)          0           dropout_49[0][0]                 
                                                                 dropout_50[0][0]                 
__________________________________________________________________________________________________
dense_32 (Dense)                (None, 87)           10266       concatenate_18[0][0]             
__________________________________________________________________________________________________
dropout_51 (Dropout)            (None, 87)           0           dense_32[0][0]                   
__________________________________________________________________________________________________
dense_33 (Dense)                (None, 4)            352         dropout_51[0][0]                 
==================================================================================================
Total params: 509,822
Trainable params: 509,822
Non-trainable params: 0
__________________________________________________________________________________________________
None
Train on 320835 samples, validate on 35649 samples
Epoch 1/20
 - 46s - loss: 0.0844 - acc: 0.9755 - val_loss: 0.0809 - val_acc: 0.9992
…
	Training (Important) : 3124, Test : 1954
	MWEs in tain : 1372, occurrences : 3583
	Impotant words in tain : 1175
	MWE length mean : 2.13
	Seen MWEs : 386 (57 %)
	New MWEs : 284 (42 %)
==================================================================================================
__________________________________________________________________________________________________
Layer (type)                    Output Shape         Param #     Connected to                     
==================================================================================================
input_37 (InputLayer)           (None, 7)            0                                            
__________________________________________________________________________________________________
input_38 (InputLayer)           (None, 7)            0                                            
__________________________________________________________________________________________________
embedding_37 (Embedding)        (None, 7, 81)        95418       input_37[0][0]                   
__________________________________________________________________________________________________
embedding_38 (Embedding)        (None, 7, 15)        285         input_38[0][0]                   
__________________________________________________________________________________________________
gru_25 (GRU)                    (None, 87)           44109       embedding_37[0][0]               
__________________________________________________________________________________________________
gru_26 (GRU)                    (None, 20)           2160        embedding_38[0][0]               
__________________________________________________________________________________________________
dropout_52 (Dropout)            (None, 87)           0           gru_25[0][0]                     
__________________________________________________________________________________________________
dropout_53 (Dropout)            (None, 20)           0           gru_26[0][0]                     
__________________________________________________________________________________________________
concatenate_19 (Concatenate)    (None, 107)          0           dropout_52[0][0]                 
                                                                 dropout_53[0][0]                 
__________________________________________________________________________________________________
dense_34 (Dense)                (None, 64)           6912        concatenate_19[0][0]             
__________________________________________________________________________________________________
dropout_54 (Dropout)            (None, 64)           0           dense_34[0][0]                   
__________________________________________________________________________________________________
dense_35 (Dense)                (None, 4)            260         dropout_54[0][0]                 
==================================================================================================
Total params: 149,144
Trainable params: 149,144
Non-trainable params: 0
__________________________________________________________________________________________________
None
Train on 320835 samples, validate on 35649 samples
Epoch 1/20
 - 297s - loss: 0.0767 - acc: 0.9788 - val_loss: 0.0620 - val_acc: 0.9999
…
	Training (Important) : 3124, Test : 1954
	MWEs in tain : 1372, occurrences : 3583
	Impotant words in tain : 1175
	MWE length mean : 2.13
	Seen MWEs : 386 (57 %)
	New MWEs : 284 (42 %)
==================================================================================================
__________________________________________________________________________________________________
Layer (type)                    Output Shape         Param #     Connected to                     
==================================================================================================
input_39 (InputLayer)           (None, 7)            0                                            
__________________________________________________________________________________________________
input_40 (InputLayer)           (None, 7)            0                                            
__________________________________________________________________________________________________
embedding_39 (Embedding)        (None, 7, 454)       534812      input_39[0][0]                   
__________________________________________________________________________________________________
embedding_40 (Embedding)        (None, 7, 57)        1083        input_40[0][0]                   
__________________________________________________________________________________________________
gru_27 (GRU)                    (None, 48)           72432       embedding_39[0][0]               
__________________________________________________________________________________________________
gru_28 (GRU)                    (None, 15)           3285        embedding_40[0][0]               
__________________________________________________________________________________________________
dropout_55 (Dropout)            (None, 48)           0           gru_27[0][0]                     
__________________________________________________________________________________________________
dropout_56 (Dropout)            (None, 15)           0           gru_28[0][0]                     
__________________________________________________________________________________________________
concatenate_20 (Concatenate)    (None, 63)           0           dropout_55[0][0]                 
                                                                 dropout_56[0][0]                 
__________________________________________________________________________________________________
dense_36 (Dense)                (None, 66)           4224        concatenate_20[0][0]             
__________________________________________________________________________________________________
dropout_57 (Dropout)            (None, 66)           0           dense_36[0][0]                   
__________________________________________________________________________________________________
dense_37 (Dense)                (None, 4)            268         dropout_57[0][0]                 
==================================================================================================
Total params: 616,104
Trainable params: 616,104
Non-trainable params: 0
__________________________________________________________________________________________________
None
Train on 320835 samples, validate on 35649 samples
Epoch 1/20
 - 37s - loss: 0.0790 - acc: 0.9762 - val_loss: 0.0489 - val_acc: 0.9999
…
	Training (Important) : 3124, Test : 1954
	MWEs in tain : 1372, occurrences : 3583
	Impotant words in tain : 1175
	MWE length mean : 2.13
	Seen MWEs : 386 (57 %)
	New MWEs : 284 (42 %)
==================================================================================================
__________________________________________________________________________________________________
Layer (type)                    Output Shape         Param #     Connected to                     
==================================================================================================
input_41 (InputLayer)           (None, 7)            0                                            
__________________________________________________________________________________________________
input_42 (InputLayer)           (None, 7)            0                                            
__________________________________________________________________________________________________
embedding_41 (Embedding)        (None, 7, 264)       310992      input_41[0][0]                   
__________________________________________________________________________________________________
embedding_42 (Embedding)        (None, 7, 14)        266         input_42[0][0]                   
__________________________________________________________________________________________________
lstm_13 (LSTM)                  (None, 98)           142296      embedding_41[0][0]               
__________________________________________________________________________________________________
lstm_14 (LSTM)                  (None, 24)           3744        embedding_42[0][0]               
__________________________________________________________________________________________________
dropout_58 (Dropout)            (None, 98)           0           lstm_13[0][0]                    
__________________________________________________________________________________________________
dropout_59 (Dropout)            (None, 24)           0           lstm_14[0][0]                    
__________________________________________________________________________________________________
concatenate_21 (Concatenate)    (None, 122)          0           dropout_58[0][0]                 
                                                                 dropout_59[0][0]                 
__________________________________________________________________________________________________
dense_38 (Dense)                (None, 54)           6642        concatenate_21[0][0]             
__________________________________________________________________________________________________
dropout_60 (Dropout)            (None, 54)           0           dense_38[0][0]                   
__________________________________________________________________________________________________
dense_39 (Dense)                (None, 4)            220         dropout_60[0][0]                 
==================================================================================================
Total params: 464,160
Trainable params: 464,160
Non-trainable params: 0
__________________________________________________________________________________________________
None
Train on 320835 samples, validate on 35649 samples
Epoch 1/20
 - 90s - loss: 0.0884 - acc: 0.9740 - val_loss: 0.1094 - val_acc: 0.9992
…
	Training (Important) : 3124, Test : 1954
	MWEs in tain : 1372, occurrences : 3583
	Impotant words in tain : 1175
	MWE length mean : 2.13
	Seen MWEs : 386 (57 %)
	New MWEs : 284 (42 %)
==================================================================================================
__________________________________________________________________________________________________
Layer (type)                    Output Shape         Param #     Connected to                     
==================================================================================================
input_43 (InputLayer)           (None, 7)            0                                            
__________________________________________________________________________________________________
input_44 (InputLayer)           (None, 7)            0                                            
__________________________________________________________________________________________________
embedding_43 (Embedding)        (None, 7, 388)       2299288     input_43[0][0]                   
__________________________________________________________________________________________________
embedding_44 (Embedding)        (None, 7, 66)        1254        input_44[0][0]                   
__________________________________________________________________________________________________
gru_29 (GRU)                    (None, 79)           110916      embedding_43[0][0]               
__________________________________________________________________________________________________
gru_30 (GRU)                    (None, 22)           5874        embedding_44[0][0]               
__________________________________________________________________________________________________
dropout_61 (Dropout)            (None, 79)           0           gru_29[0][0]                     
__________________________________________________________________________________________________
dropout_62 (Dropout)            (None, 22)           0           gru_30[0][0]                     
__________________________________________________________________________________________________
concatenate_22 (Concatenate)    (None, 101)          0           dropout_61[0][0]                 
                                                                 dropout_62[0][0]                 
__________________________________________________________________________________________________
dense_40 (Dense)                (None, 40)           4080        concatenate_22[0][0]             
__________________________________________________________________________________________________
dropout_63 (Dropout)            (None, 40)           0           dense_40[0][0]                   
__________________________________________________________________________________________________
dense_41 (Dense)                (None, 4)            164         dropout_63[0][0]                 
==================================================================================================
Total params: 2,421,576
Trainable params: 2,421,576
Non-trainable params: 0
__________________________________________________________________________________________________
None
Train on 320835 samples, validate on 35649 samples
Epoch 1/20
 - 75s - loss: 0.0879 - acc: 0.9755 - val_loss: 0.0827 - val_acc: 0.9991
…
	Training (Important) : 3124, Test : 1954
	MWEs in tain : 1372, occurrences : 3583
	Impotant words in tain : 1175
	MWE length mean : 2.13
	Seen MWEs : 386 (57 %)
	New MWEs : 284 (42 %)
==================================================================================================
__________________________________________________________________________________________________
Layer (type)                    Output Shape         Param #     Connected to                     
==================================================================================================
input_45 (InputLayer)           (None, 7)            0                                            
__________________________________________________________________________________________________
input_46 (InputLayer)           (None, 7)            0                                            
__________________________________________________________________________________________________
embedding_45 (Embedding)        (None, 7, 73)        85994       input_45[0][0]                   
__________________________________________________________________________________________________
embedding_46 (Embedding)        (None, 7, 19)        361         input_46[0][0]                   
__________________________________________________________________________________________________
lstm_15 (LSTM)                  (None, 17)           6188        embedding_45[0][0]               
__________________________________________________________________________________________________
lstm_16 (LSTM)                  (None, 33)           6996        embedding_46[0][0]               
__________________________________________________________________________________________________
dropout_64 (Dropout)            (None, 17)           0           lstm_15[0][0]                    
__________________________________________________________________________________________________
dropout_65 (Dropout)            (None, 33)           0           lstm_16[0][0]                    
__________________________________________________________________________________________________
concatenate_23 (Concatenate)    (None, 50)           0           dropout_64[0][0]                 
                                                                 dropout_65[0][0]                 
__________________________________________________________________________________________________
dense_42 (Dense)                (None, 4)            204         concatenate_23[0][0]             
==================================================================================================
Total params: 99,743
Trainable params: 99,743
Non-trainable params: 0
__________________________________________________________________________________________________
None
Train on 320835 samples, validate on 35649 samples
Epoch 1/20
 - 45s - loss: 0.0830 - acc: 0.9762 - val_loss: 0.0782 - val_acc: 0.9976
…
	Training (Important) : 3124, Test : 1954
	MWEs in tain : 1881, occurrences : 3583
	Impotant words in tain : 1880
	MWE length mean : 2.13
	Seen MWEs : 279 (41 %)
	New MWEs : 391 (58 %)
==================================================================================================
__________________________________________________________________________________________________
Layer (type)                    Output Shape         Param #     Connected to                     
==================================================================================================
input_47 (InputLayer)           (None, 7)            0                                            
__________________________________________________________________________________________________
input_48 (InputLayer)           (None, 7)            0                                            
__________________________________________________________________________________________________
embedding_47 (Embedding)        (None, 7, 456)       858648      input_47[0][0]                   
__________________________________________________________________________________________________
embedding_48 (Embedding)        (None, 7, 31)        589         input_48[0][0]                   
__________________________________________________________________________________________________
gru_31 (GRU)                    (None, 22)           31614       embedding_47[0][0]               
__________________________________________________________________________________________________
gru_32 (GRU)                    (None, 44)           10032       embedding_48[0][0]               
__________________________________________________________________________________________________
dropout_66 (Dropout)            (None, 22)           0           gru_31[0][0]                     
__________________________________________________________________________________________________
dropout_67 (Dropout)            (None, 44)           0           gru_32[0][0]                     
__________________________________________________________________________________________________
concatenate_24 (Concatenate)    (None, 66)           0           dropout_66[0][0]                 
                                                                 dropout_67[0][0]                 
__________________________________________________________________________________________________
dense_43 (Dense)                (None, 4)            268         concatenate_24[0][0]             
==================================================================================================
Total params: 901,151
Trainable params: 901,151
Non-trainable params: 0
__________________________________________________________________________________________________
None
Train on 320835 samples, validate on 35649 samples
Epoch 1/20
 - 73s - loss: 0.0699 - acc: 0.9801 - val_loss: 0.0432 - val_acc: 0.9979
…
	Training (Important) : 3124, Test : 1954
	MWEs in tain : 1881, occurrences : 3583
	Impotant words in tain : 1880
	MWE length mean : 2.13
	Seen MWEs : 279 (41 %)
	New MWEs : 391 (58 %)
==================================================================================================
__________________________________________________________________________________________________
Layer (type)                    Output Shape         Param #     Connected to                     
==================================================================================================
input_49 (InputLayer)           (None, 7)            0                                            
__________________________________________________________________________________________________
input_50 (InputLayer)           (None, 7)            0                                            
__________________________________________________________________________________________________
embedding_49 (Embedding)        (None, 7, 166)       312578      input_49[0][0]                   
__________________________________________________________________________________________________
embedding_50 (Embedding)        (None, 7, 20)        380         input_50[0][0]                   
__________________________________________________________________________________________________
gru_33 (GRU)                    (None, 30)           17730       embedding_49[0][0]               
__________________________________________________________________________________________________
gru_34 (GRU)                    (None, 45)           8910        embedding_50[0][0]               
__________________________________________________________________________________________________
dropout_68 (Dropout)            (None, 30)           0           gru_33[0][0]                     
__________________________________________________________________________________________________
dropout_69 (Dropout)            (None, 45)           0           gru_34[0][0]                     
__________________________________________________________________________________________________
concatenate_25 (Concatenate)    (None, 75)           0           dropout_68[0][0]                 
                                                                 dropout_69[0][0]                 
__________________________________________________________________________________________________
dense_44 (Dense)                (None, 9)            684         concatenate_25[0][0]             
__________________________________________________________________________________________________
dropout_70 (Dropout)            (None, 9)            0           dense_44[0][0]                   
__________________________________________________________________________________________________
dense_45 (Dense)                (None, 4)            40          dropout_70[0][0]                 
==================================================================================================
Total params: 340,322
Trainable params: 340,322
Non-trainable params: 0
__________________________________________________________________________________________________
None
Train on 320835 samples, validate on 35649 samples
Epoch 1/20
 - 38s - loss: 0.1542 - acc: 0.9502 - val_loss: 0.0969 - val_acc: 0.9993
…
	Training (Important) : 3124, Test : 1954
	MWEs in tain : 1372, occurrences : 3583
	Impotant words in tain : 1175
	MWE length mean : 2.13
	Seen MWEs : 386 (57 %)
	New MWEs : 284 (42 %)
==================================================================================================
__________________________________________________________________________________________________
Layer (type)                    Output Shape         Param #     Connected to                     
==================================================================================================
input_51 (InputLayer)           (None, 7)            0                                            
__________________________________________________________________________________________________
input_52 (InputLayer)           (None, 7)            0                                            
__________________________________________________________________________________________________
embedding_51 (Embedding)        (None, 7, 360)       424080      input_51[0][0]                   
__________________________________________________________________________________________________
embedding_52 (Embedding)        (None, 7, 53)        1007        input_52[0][0]                   
__________________________________________________________________________________________________
gru_35 (GRU)                    (None, 59)           74340       embedding_51[0][0]               
__________________________________________________________________________________________________
gru_36 (GRU)                    (None, 44)           12936       embedding_52[0][0]               
__________________________________________________________________________________________________
dropout_71 (Dropout)            (None, 59)           0           gru_35[0][0]                     
__________________________________________________________________________________________________
dropout_72 (Dropout)            (None, 44)           0           gru_36[0][0]                     
__________________________________________________________________________________________________
concatenate_26 (Concatenate)    (None, 103)          0           dropout_71[0][0]                 
                                                                 dropout_72[0][0]                 
__________________________________________________________________________________________________
dense_46 (Dense)                (None, 78)           8112        concatenate_26[0][0]             
__________________________________________________________________________________________________
dropout_73 (Dropout)            (None, 78)           0           dense_46[0][0]                   
__________________________________________________________________________________________________
dense_47 (Dense)                (None, 4)            316         dropout_73[0][0]                 
==================================================================================================
Total params: 520,791
Trainable params: 520,791
Non-trainable params: 0
__________________________________________________________________________________________________
None
Train on 320835 samples, validate on 35649 samples
Epoch 1/20
 - 298s - loss: 0.0728 - acc: 0.9800 - val_loss: 0.0647 - val_acc: 1.0000
…
	Training (Important) : 3124, Test : 1954
	MWEs in tain : 1372, occurrences : 3583
	Impotant words in tain : 1175
	MWE length mean : 2.13
	Seen MWEs : 386 (57 %)
	New MWEs : 284 (42 %)
==================================================================================================
__________________________________________________________________________________________________
Layer (type)                    Output Shape         Param #     Connected to                     
==================================================================================================
input_53 (InputLayer)           (None, 7)            0                                            
__________________________________________________________________________________________________
input_54 (InputLayer)           (None, 7)            0                                            
__________________________________________________________________________________________________
embedding_53 (Embedding)        (None, 7, 230)       270940      input_53[0][0]                   
__________________________________________________________________________________________________
embedding_54 (Embedding)        (None, 7, 52)        988         input_54[0][0]                   
__________________________________________________________________________________________________
lstm_17 (LSTM)                  (None, 31)           32488       embedding_53[0][0]               
__________________________________________________________________________________________________
lstm_18 (LSTM)                  (None, 14)           3752        embedding_54[0][0]               
__________________________________________________________________________________________________
dropout_74 (Dropout)            (None, 31)           0           lstm_17[0][0]                    
__________________________________________________________________________________________________
dropout_75 (Dropout)            (None, 14)           0           lstm_18[0][0]                    
__________________________________________________________________________________________________
concatenate_27 (Concatenate)    (None, 45)           0           dropout_74[0][0]                 
                                                                 dropout_75[0][0]                 
__________________________________________________________________________________________________
dense_48 (Dense)                (None, 13)           598         concatenate_27[0][0]             
__________________________________________________________________________________________________
dropout_76 (Dropout)            (None, 13)           0           dense_48[0][0]                   
__________________________________________________________________________________________________
dense_49 (Dense)                (None, 4)            56          dropout_76[0][0]                 
==================================================================================================
Total params: 308,822
Trainable params: 308,822
Non-trainable params: 0
__________________________________________________________________________________________________
None
Train on 320835 samples, validate on 35649 samples
Epoch 1/20
 - 46s - loss: 0.1387 - acc: 0.9554 - val_loss: 0.1031 - val_acc: 0.9999
…
	Training (Important) : 3124, Test : 1954
	MWEs in tain : 1372, occurrences : 3583
	Impotant words in tain : 1175
	MWE length mean : 2.13
	Seen MWEs : 386 (57 %)
	New MWEs : 284 (42 %)
==================================================================================================
__________________________________________________________________________________________________
Layer (type)                    Output Shape         Param #     Connected to                     
==================================================================================================
input_55 (InputLayer)           (None, 7)            0                                            
__________________________________________________________________________________________________
input_56 (InputLayer)           (None, 7)            0                                            
__________________________________________________________________________________________________
embedding_55 (Embedding)        (None, 7, 231)       272118      input_55[0][0]                   
__________________________________________________________________________________________________
embedding_56 (Embedding)        (None, 7, 13)        247         input_56[0][0]                   
__________________________________________________________________________________________________
lstm_19 (LSTM)                  (None, 15)           14820       embedding_55[0][0]               
__________________________________________________________________________________________________
lstm_20 (LSTM)                  (None, 15)           1740        embedding_56[0][0]               
__________________________________________________________________________________________________
dropout_77 (Dropout)            (None, 15)           0           lstm_19[0][0]                    
__________________________________________________________________________________________________
dropout_78 (Dropout)            (None, 15)           0           lstm_20[0][0]                    
__________________________________________________________________________________________________
concatenate_28 (Concatenate)    (None, 30)           0           dropout_77[0][0]                 
                                                                 dropout_78[0][0]                 
__________________________________________________________________________________________________
dense_50 (Dense)                (None, 4)            124         concatenate_28[0][0]             
==================================================================================================
Total params: 289,049
Trainable params: 289,049
Non-trainable params: 0
__________________________________________________________________________________________________
None
Train on 320835 samples, validate on 35649 samples
Epoch 1/20
 - 178s - loss: 0.0825 - acc: 0.9780 - val_loss: 0.0668 - val_acc: 0.9976
…
	Training (Important) : 3124, Test : 1954
	MWEs in tain : 1372, occurrences : 3583
	Impotant words in tain : 1175
	MWE length mean : 2.13
	Seen MWEs : 386 (57 %)
	New MWEs : 284 (42 %)
==================================================================================================
__________________________________________________________________________________________________
Layer (type)                    Output Shape         Param #     Connected to                     
==================================================================================================
input_57 (InputLayer)           (None, 7)            0                                            
__________________________________________________________________________________________________
input_58 (InputLayer)           (None, 7)            0                                            
__________________________________________________________________________________________________
embedding_57 (Embedding)        (None, 7, 437)       514786      input_57[0][0]                   
__________________________________________________________________________________________________
embedding_58 (Embedding)        (None, 7, 72)        1368        input_58[0][0]                   
__________________________________________________________________________________________________
gru_37 (GRU)                    (None, 88)           138864      embedding_57[0][0]               
__________________________________________________________________________________________________
gru_38 (GRU)                    (None, 28)           8484        embedding_58[0][0]               
__________________________________________________________________________________________________
dropout_79 (Dropout)            (None, 88)           0           gru_37[0][0]                     
__________________________________________________________________________________________________
dropout_80 (Dropout)            (None, 28)           0           gru_38[0][0]                     
__________________________________________________________________________________________________
concatenate_29 (Concatenate)    (None, 116)          0           dropout_79[0][0]                 
                                                                 dropout_80[0][0]                 
__________________________________________________________________________________________________
dense_51 (Dense)                (None, 89)           10413       concatenate_29[0][0]             
__________________________________________________________________________________________________
dropout_81 (Dropout)            (None, 89)           0           dense_51[0][0]                   
__________________________________________________________________________________________________
dense_52 (Dense)                (None, 4)            360         dropout_81[0][0]                 
==================================================================================================
Total params: 674,275
Trainable params: 674,275
Non-trainable params: 0
__________________________________________________________________________________________________
None
Train on 320835 samples, validate on 35649 samples
Epoch 1/20
 - 75s - loss: 0.0821 - acc: 0.9774 - val_loss: 0.0500 - val_acc: 0.9997
…
	Training (Important) : 3124, Test : 1954
	MWEs in tain : 1881, occurrences : 3583
	Impotant words in tain : 1880
	MWE length mean : 2.13
	Seen MWEs : 279 (41 %)
	New MWEs : 391 (58 %)
==================================================================================================
__________________________________________________________________________________________________
Layer (type)                    Output Shape         Param #     Connected to                     
==================================================================================================
input_59 (InputLayer)           (None, 7)            0                                            
__________________________________________________________________________________________________
input_60 (InputLayer)           (None, 7)            0                                            
__________________________________________________________________________________________________
embedding_59 (Embedding)        (None, 7, 388)       730604      input_59[0][0]                   
__________________________________________________________________________________________________
embedding_60 (Embedding)        (None, 7, 38)        722         input_60[0][0]                   
__________________________________________________________________________________________________
gru_39 (GRU)                    (None, 50)           65850       embedding_59[0][0]               
__________________________________________________________________________________________________
gru_40 (GRU)                    (None, 29)           5916        embedding_60[0][0]               
__________________________________________________________________________________________________
dropout_82 (Dropout)            (None, 50)           0           gru_39[0][0]                     
__________________________________________________________________________________________________
dropout_83 (Dropout)            (None, 29)           0           gru_40[0][0]                     
__________________________________________________________________________________________________
concatenate_30 (Concatenate)    (None, 79)           0           dropout_82[0][0]                 
                                                                 dropout_83[0][0]                 
__________________________________________________________________________________________________
dense_53 (Dense)                (None, 89)           7120        concatenate_30[0][0]             
__________________________________________________________________________________________________
dropout_84 (Dropout)            (None, 89)           0           dense_53[0][0]                   
__________________________________________________________________________________________________
dense_54 (Dense)                (None, 4)            360         dropout_84[0][0]                 
==================================================================================================
Total params: 810,572
Trainable params: 810,572
Non-trainable params: 0
__________________________________________________________________________________________________
None
Train on 320835 samples, validate on 35649 samples
Epoch 1/20
 - 149s - loss: 0.0695 - acc: 0.9803 - val_loss: 0.1315 - val_acc: 1.0000
…
	Training (Important) : 3124, Test : 1954
	MWEs in tain : 1372, occurrences : 3583
	Impotant words in tain : 1175
	MWE length mean : 2.13
	Seen MWEs : 386 (57 %)
	New MWEs : 284 (42 %)
==================================================================================================
__________________________________________________________________________________________________
Layer (type)                    Output Shape         Param #     Connected to                     
==================================================================================================
input_61 (InputLayer)           (None, 7)            0                                            
__________________________________________________________________________________________________
input_62 (InputLayer)           (None, 7)            0                                            
__________________________________________________________________________________________________
embedding_61 (Embedding)        (None, 7, 108)       127224      input_61[0][0]                   
__________________________________________________________________________________________________
embedding_62 (Embedding)        (None, 7, 60)        1140        input_62[0][0]                   
__________________________________________________________________________________________________
gru_41 (GRU)                    (None, 34)           14586       embedding_61[0][0]               
__________________________________________________________________________________________________
gru_42 (GRU)                    (None, 7)            1428        embedding_62[0][0]               
__________________________________________________________________________________________________
dropout_85 (Dropout)            (None, 34)           0           gru_41[0][0]                     
__________________________________________________________________________________________________
dropout_86 (Dropout)            (None, 7)            0           gru_42[0][0]                     
__________________________________________________________________________________________________
concatenate_31 (Concatenate)    (None, 41)           0           dropout_85[0][0]                 
                                                                 dropout_86[0][0]                 
__________________________________________________________________________________________________
dense_55 (Dense)                (None, 4)            168         concatenate_31[0][0]             
==================================================================================================
Total params: 144,546
Trainable params: 144,546
Non-trainable params: 0
__________________________________________________________________________________________________
None
Train on 320835 samples, validate on 35649 samples
Epoch 1/20
 - 74s - loss: 0.0761 - acc: 0.9787 - val_loss: 0.0655 - val_acc: 0.9996
…
	Training (Important) : 3124, Test : 1954
	MWEs in tain : 1372, occurrences : 3583
	Impotant words in tain : 1175
	MWE length mean : 2.13
	Seen MWEs : 386 (57 %)
	New MWEs : 284 (42 %)
==================================================================================================
__________________________________________________________________________________________________
Layer (type)                    Output Shape         Param #     Connected to                     
==================================================================================================
input_63 (InputLayer)           (None, 7)            0                                            
__________________________________________________________________________________________________
input_64 (InputLayer)           (None, 7)            0                                            
__________________________________________________________________________________________________
embedding_63 (Embedding)        (None, 7, 488)       574864      input_63[0][0]                   
__________________________________________________________________________________________________
embedding_64 (Embedding)        (None, 7, 65)        1235        input_64[0][0]                   
__________________________________________________________________________________________________
gru_43 (GRU)                    (None, 11)           16500       embedding_63[0][0]               
__________________________________________________________________________________________________
gru_44 (GRU)                    (None, 9)            2025        embedding_64[0][0]               
__________________________________________________________________________________________________
dropout_87 (Dropout)            (None, 11)           0           gru_43[0][0]                     
__________________________________________________________________________________________________
dropout_88 (Dropout)            (None, 9)            0           gru_44[0][0]                     
__________________________________________________________________________________________________
concatenate_32 (Concatenate)    (None, 20)           0           dropout_87[0][0]                 
                                                                 dropout_88[0][0]                 
__________________________________________________________________________________________________
dense_56 (Dense)                (None, 62)           1302        concatenate_32[0][0]             
__________________________________________________________________________________________________
dropout_89 (Dropout)            (None, 62)           0           dense_56[0][0]                   
__________________________________________________________________________________________________
dense_57 (Dense)                (None, 4)            252         dropout_89[0][0]                 
==================================================================================================
Total params: 596,178
Trainable params: 596,178
Non-trainable params: 0
__________________________________________________________________________________________________
None
Train on 320835 samples, validate on 35649 samples
Epoch 1/20
 - 298s - loss: 0.0830 - acc: 0.9764 - val_loss: 0.0545 - val_acc: 0.9981
…
	Training (Important) : 3124, Test : 1954
	MWEs in tain : 1881, occurrences : 3583
	Impotant words in tain : 1880
	MWE length mean : 2.13
	Seen MWEs : 279 (41 %)
	New MWEs : 391 (58 %)
==================================================================================================
__________________________________________________________________________________________________
Layer (type)                    Output Shape         Param #     Connected to                     
==================================================================================================
input_65 (InputLayer)           (None, 7)            0                                            
__________________________________________________________________________________________________
input_66 (InputLayer)           (None, 7)            0                                            
__________________________________________________________________________________________________
embedding_65 (Embedding)        (None, 7, 458)       862414      input_65[0][0]                   
__________________________________________________________________________________________________
embedding_66 (Embedding)        (None, 7, 84)        1596        input_66[0][0]                   
__________________________________________________________________________________________________
gru_45 (GRU)                    (None, 13)           18408       embedding_65[0][0]               
__________________________________________________________________________________________________
gru_46 (GRU)                    (None, 12)           3492        embedding_66[0][0]               
__________________________________________________________________________________________________
dropout_90 (Dropout)            (None, 13)           0           gru_45[0][0]                     
__________________________________________________________________________________________________
dropout_91 (Dropout)            (None, 12)           0           gru_46[0][0]                     
__________________________________________________________________________________________________
concatenate_33 (Concatenate)    (None, 25)           0           dropout_90[0][0]                 
                                                                 dropout_91[0][0]                 
__________________________________________________________________________________________________
dense_58 (Dense)                (None, 8)            208         concatenate_33[0][0]             
__________________________________________________________________________________________________
dropout_92 (Dropout)            (None, 8)            0           dense_58[0][0]                   
__________________________________________________________________________________________________
dense_59 (Dense)                (None, 4)            36          dropout_92[0][0]                 
==================================================================================================
Total params: 886,154
Trainable params: 886,154
Non-trainable params: 0
__________________________________________________________________________________________________
None
Train on 320835 samples, validate on 35649 samples
Epoch 1/20
 - 149s - loss: 0.3042 - acc: 0.8867 - val_loss: 0.1448 - val_acc: 0.9976
…
	Training (Important) : 3124, Test : 1954
	MWEs in tain : 1372, occurrences : 3583
	Impotant words in tain : 1175
	MWE length mean : 2.13
	Seen MWEs : 386 (57 %)
	New MWEs : 284 (42 %)
==================================================================================================
__________________________________________________________________________________________________
Layer (type)                    Output Shape         Param #     Connected to                     
==================================================================================================
input_67 (InputLayer)           (None, 7)            0                                            
__________________________________________________________________________________________________
input_68 (InputLayer)           (None, 7)            0                                            
__________________________________________________________________________________________________
embedding_67 (Embedding)        (None, 7, 180)       212040      input_67[0][0]                   
__________________________________________________________________________________________________
embedding_68 (Embedding)        (None, 7, 90)        1710        input_68[0][0]                   
__________________________________________________________________________________________________
gru_47 (GRU)                    (None, 47)           32148       embedding_67[0][0]               
__________________________________________________________________________________________________
gru_48 (GRU)                    (None, 19)           6270        embedding_68[0][0]               
__________________________________________________________________________________________________
dropout_93 (Dropout)            (None, 47)           0           gru_47[0][0]                     
__________________________________________________________________________________________________
dropout_94 (Dropout)            (None, 19)           0           gru_48[0][0]                     
__________________________________________________________________________________________________
concatenate_34 (Concatenate)    (None, 66)           0           dropout_93[0][0]                 
                                                                 dropout_94[0][0]                 
__________________________________________________________________________________________________
dense_60 (Dense)                (None, 67)           4489        concatenate_34[0][0]             
__________________________________________________________________________________________________
dropout_95 (Dropout)            (None, 67)           0           dense_60[0][0]                   
__________________________________________________________________________________________________
dense_61 (Dense)                (None, 4)            272         dropout_95[0][0]                 
==================================================================================================
Total params: 256,929
Trainable params: 256,929
Non-trainable params: 0
__________________________________________________________________________________________________
None
Train on 320835 samples, validate on 35649 samples
Epoch 1/20
 - 298s - loss: 0.0740 - acc: 0.9794 - val_loss: 0.0582 - val_acc: 0.9998
…
	Training (Important) : 3124, Test : 1954
	MWEs in tain : 1372, occurrences : 3583
	Impotant words in tain : 1175
	MWE length mean : 2.13
	Seen MWEs : 386 (57 %)
	New MWEs : 284 (42 %)
==================================================================================================
__________________________________________________________________________________________________
Layer (type)                    Output Shape         Param #     Connected to                     
==================================================================================================
input_69 (InputLayer)           (None, 7)            0                                            
__________________________________________________________________________________________________
input_70 (InputLayer)           (None, 7)            0                                            
__________________________________________________________________________________________________
embedding_69 (Embedding)        (None, 7, 240)       282720      input_69[0][0]                   
__________________________________________________________________________________________________
embedding_70 (Embedding)        (None, 7, 59)        1121        input_70[0][0]                   
__________________________________________________________________________________________________
gru_49 (GRU)                    (None, 91)           90636       embedding_69[0][0]               
__________________________________________________________________________________________________
gru_50 (GRU)                    (None, 36)           10368       embedding_70[0][0]               
__________________________________________________________________________________________________
dropout_96 (Dropout)            (None, 91)           0           gru_49[0][0]                     
__________________________________________________________________________________________________
dropout_97 (Dropout)            (None, 36)           0           gru_50[0][0]                     
__________________________________________________________________________________________________
concatenate_35 (Concatenate)    (None, 127)          0           dropout_96[0][0]                 
                                                                 dropout_97[0][0]                 
__________________________________________________________________________________________________
dense_62 (Dense)                (None, 4)            512         concatenate_35[0][0]             
==================================================================================================
Total params: 385,357
Trainable params: 385,357
Non-trainable params: 0
__________________________________________________________________________________________________
None
Train on 320835 samples, validate on 35649 samples
Epoch 1/20
 - 148s - loss: 0.0724 - acc: 0.9796 - val_loss: 0.0509 - val_acc: 0.9975
…
	Training (Important) : 3124, Test : 1954
	MWEs in tain : 1372, occurrences : 3583
	Impotant words in tain : 1175
	MWE length mean : 2.13
	Seen MWEs : 386 (57 %)
	New MWEs : 284 (42 %)
==================================================================================================
__________________________________________________________________________________________________
Layer (type)                    Output Shape         Param #     Connected to                     
==================================================================================================
input_71 (InputLayer)           (None, 7)            0                                            
__________________________________________________________________________________________________
input_72 (InputLayer)           (None, 7)            0                                            
__________________________________________________________________________________________________
embedding_71 (Embedding)        (None, 7, 346)       2050396     input_71[0][0]                   
__________________________________________________________________________________________________
embedding_72 (Embedding)        (None, 7, 49)        931         input_72[0][0]                   
__________________________________________________________________________________________________
gru_51 (GRU)                    (None, 44)           51612       embedding_71[0][0]               
__________________________________________________________________________________________________
gru_52 (GRU)                    (None, 29)           6873        embedding_72[0][0]               
__________________________________________________________________________________________________
dropout_98 (Dropout)            (None, 44)           0           gru_51[0][0]                     
__________________________________________________________________________________________________
dropout_99 (Dropout)            (None, 29)           0           gru_52[0][0]                     
__________________________________________________________________________________________________
concatenate_36 (Concatenate)    (None, 73)           0           dropout_98[0][0]                 
                                                                 dropout_99[0][0]                 
__________________________________________________________________________________________________
dense_63 (Dense)                (None, 96)           7104        concatenate_36[0][0]             
__________________________________________________________________________________________________
dropout_100 (Dropout)           (None, 96)           0           dense_63[0][0]                   
__________________________________________________________________________________________________
dense_64 (Dense)                (None, 4)            388         dropout_100[0][0]                
==================================================================================================
Total params: 2,117,304
Trainable params: 2,117,304
Non-trainable params: 0
__________________________________________________________________________________________________
None
Train on 320835 samples, validate on 35649 samples
Epoch 1/20
 - 75s - loss: 0.0844 - acc: 0.9761 - val_loss: 0.0518 - val_acc: 0.9991
…
	Training (Important) : 3124, Test : 1954
	MWEs in tain : 1372, occurrences : 3583
	Impotant words in tain : 1175
	MWE length mean : 2.13
	Seen MWEs : 386 (57 %)
	New MWEs : 284 (42 %)
==================================================================================================
__________________________________________________________________________________________________
Layer (type)                    Output Shape         Param #     Connected to                     
==================================================================================================
input_73 (InputLayer)           (None, 7)            0                                            
__________________________________________________________________________________________________
input_74 (InputLayer)           (None, 7)            0                                            
__________________________________________________________________________________________________
embedding_73 (Embedding)        (None, 7, 105)       123690      input_73[0][0]                   
__________________________________________________________________________________________________
embedding_74 (Embedding)        (None, 7, 27)        513         input_74[0][0]                   
__________________________________________________________________________________________________
gru_53 (GRU)                    (None, 66)           34056       embedding_73[0][0]               
__________________________________________________________________________________________________
gru_54 (GRU)                    (None, 48)           10944       embedding_74[0][0]               
__________________________________________________________________________________________________
dropout_101 (Dropout)           (None, 66)           0           gru_53[0][0]                     
__________________________________________________________________________________________________
dropout_102 (Dropout)           (None, 48)           0           gru_54[0][0]                     
__________________________________________________________________________________________________
concatenate_37 (Concatenate)    (None, 114)          0           dropout_101[0][0]                
                                                                 dropout_102[0][0]                
__________________________________________________________________________________________________
dense_65 (Dense)                (None, 96)           11040       concatenate_37[0][0]             
__________________________________________________________________________________________________
dropout_103 (Dropout)           (None, 96)           0           dense_65[0][0]                   
__________________________________________________________________________________________________
dense_66 (Dense)                (None, 4)            388         dropout_103[0][0]                
==================================================================================================
Total params: 180,631
Trainable params: 180,631
Non-trainable params: 0
__________________________________________________________________________________________________
None
Train on 320835 samples, validate on 35649 samples
Epoch 1/20
 - 75s - loss: 0.0757 - acc: 0.9780 - val_loss: 0.0777 - val_acc: 0.9992
…
	Training (Important) : 3124, Test : 1954
	MWEs in tain : 1372, occurrences : 3583
	Impotant words in tain : 1175
	MWE length mean : 2.13
	Seen MWEs : 386 (57 %)
	New MWEs : 284 (42 %)
==================================================================================================
__________________________________________________________________________________________________
Layer (type)                    Output Shape         Param #     Connected to                     
==================================================================================================
input_75 (InputLayer)           (None, 7)            0                                            
__________________________________________________________________________________________________
input_76 (InputLayer)           (None, 7)            0                                            
__________________________________________________________________________________________________
embedding_75 (Embedding)        (None, 7, 471)       554838      input_75[0][0]                   
__________________________________________________________________________________________________
embedding_76 (Embedding)        (None, 7, 24)        456         input_76[0][0]                   
__________________________________________________________________________________________________
gru_55 (GRU)                    (None, 19)           27987       embedding_75[0][0]               
__________________________________________________________________________________________________
gru_56 (GRU)                    (None, 19)           2508        embedding_76[0][0]               
__________________________________________________________________________________________________
dropout_104 (Dropout)           (None, 19)           0           gru_55[0][0]                     
__________________________________________________________________________________________________
dropout_105 (Dropout)           (None, 19)           0           gru_56[0][0]                     
__________________________________________________________________________________________________
concatenate_38 (Concatenate)    (None, 38)           0           dropout_104[0][0]                
                                                                 dropout_105[0][0]                
__________________________________________________________________________________________________
dense_67 (Dense)                (None, 24)           936         concatenate_38[0][0]             
__________________________________________________________________________________________________
dropout_106 (Dropout)           (None, 24)           0           dense_67[0][0]                   
__________________________________________________________________________________________________
dense_68 (Dense)                (None, 4)            100         dropout_106[0][0]                
==================================================================================================
Total params: 586,825
Trainable params: 586,825
Non-trainable params: 0
__________________________________________________________________________________________________
None
Train on 320835 samples, validate on 35649 samples
Epoch 1/20
 - 75s - loss: 0.0916 - acc: 0.9750 - val_loss: 0.0742 - val_acc: 0.9985
…
	Training (Important) : 3124, Test : 1954
	MWEs in tain : 1372, occurrences : 3583
	Impotant words in tain : 1175
	MWE length mean : 2.13
	Seen MWEs : 386 (57 %)
	New MWEs : 284 (42 %)
==================================================================================================
__________________________________________________________________________________________________
Layer (type)                    Output Shape         Param #     Connected to                     
==================================================================================================
input_77 (InputLayer)           (None, 7)            0                                            
__________________________________________________________________________________________________
input_78 (InputLayer)           (None, 7)            0                                            
__________________________________________________________________________________________________
embedding_77 (Embedding)        (None, 7, 131)       776306      input_77[0][0]                   
__________________________________________________________________________________________________
embedding_78 (Embedding)        (None, 7, 90)        1710        input_78[0][0]                   
__________________________________________________________________________________________________
gru_57 (GRU)                    (None, 12)           5184        embedding_77[0][0]               
__________________________________________________________________________________________________
gru_58 (GRU)                    (None, 18)           5886        embedding_78[0][0]               
__________________________________________________________________________________________________
dropout_107 (Dropout)           (None, 12)           0           gru_57[0][0]                     
__________________________________________________________________________________________________
dropout_108 (Dropout)           (None, 18)           0           gru_58[0][0]                     
__________________________________________________________________________________________________
concatenate_39 (Concatenate)    (None, 30)           0           dropout_107[0][0]                
                                                                 dropout_108[0][0]                
__________________________________________________________________________________________________
dense_69 (Dense)                (None, 4)            124         concatenate_39[0][0]             
==================================================================================================
Total params: 789,210
Trainable params: 789,210
Non-trainable params: 0
__________________________________________________________________________________________________
None
Train on 320835 samples, validate on 35649 samples
Epoch 1/20
 - 293s - loss: 0.0884 - acc: 0.9769 - val_loss: 0.0699 - val_acc: 0.9976
…
	Training (Important) : 3124, Test : 1954
	MWEs in tain : 1372, occurrences : 3583
	Impotant words in tain : 1175
	MWE length mean : 2.13
	Seen MWEs : 386 (57 %)
	New MWEs : 284 (42 %)
==================================================================================================
__________________________________________________________________________________________________
Layer (type)                    Output Shape         Param #     Connected to                     
==================================================================================================
input_79 (InputLayer)           (None, 7)            0                                            
__________________________________________________________________________________________________
input_80 (InputLayer)           (None, 7)            0                                            
__________________________________________________________________________________________________
embedding_79 (Embedding)        (None, 7, 192)       226176      input_79[0][0]                   
__________________________________________________________________________________________________
embedding_80 (Embedding)        (None, 7, 19)        361         input_80[0][0]                   
__________________________________________________________________________________________________
gru_59 (GRU)                    (None, 66)           51282       embedding_79[0][0]               
__________________________________________________________________________________________________
gru_60 (GRU)                    (None, 19)           2223        embedding_80[0][0]               
__________________________________________________________________________________________________
dropout_109 (Dropout)           (None, 66)           0           gru_59[0][0]                     
__________________________________________________________________________________________________
dropout_110 (Dropout)           (None, 19)           0           gru_60[0][0]                     
__________________________________________________________________________________________________
concatenate_40 (Concatenate)    (None, 85)           0           dropout_109[0][0]                
                                                                 dropout_110[0][0]                
__________________________________________________________________________________________________
dense_70 (Dense)                (None, 4)            344         concatenate_40[0][0]             
==================================================================================================
Total params: 280,386
Trainable params: 280,386
Non-trainable params: 0
__________________________________________________________________________________________________
None
Train on 320835 samples, validate on 35649 samples
Epoch 1/20
 - 37s - loss: 0.0778 - acc: 0.9771 - val_loss: 0.0797 - val_acc: 0.9981
…
	Training (Important) : 3124, Test : 1954
	MWEs in tain : 1372, occurrences : 3583
	Impotant words in tain : 1175
	MWE length mean : 2.13
	Seen MWEs : 386 (57 %)
	New MWEs : 284 (42 %)
==================================================================================================
__________________________________________________________________________________________________
Layer (type)                    Output Shape         Param #     Connected to                     
==================================================================================================
input_81 (InputLayer)           (None, 7)            0                                            
__________________________________________________________________________________________________
input_82 (InputLayer)           (None, 7)            0                                            
__________________________________________________________________________________________________
embedding_81 (Embedding)        (None, 7, 290)       341620      input_81[0][0]                   
__________________________________________________________________________________________________
embedding_82 (Embedding)        (None, 7, 72)        1368        input_82[0][0]                   
__________________________________________________________________________________________________
gru_61 (GRU)                    (None, 57)           59508       embedding_81[0][0]               
__________________________________________________________________________________________________
gru_62 (GRU)                    (None, 28)           8484        embedding_82[0][0]               
__________________________________________________________________________________________________
dropout_111 (Dropout)           (None, 57)           0           gru_61[0][0]                     
__________________________________________________________________________________________________
dropout_112 (Dropout)           (None, 28)           0           gru_62[0][0]                     
__________________________________________________________________________________________________
concatenate_41 (Concatenate)    (None, 85)           0           dropout_111[0][0]                
                                                                 dropout_112[0][0]                
__________________________________________________________________________________________________
dense_71 (Dense)                (None, 4)            344         concatenate_41[0][0]             
==================================================================================================
Total params: 411,324
Trainable params: 411,324
Non-trainable params: 0
__________________________________________________________________________________________________
None
Train on 320835 samples, validate on 35649 samples
Epoch 1/20
 - 74s - loss: 0.0741 - acc: 0.9791 - val_loss: 0.0839 - val_acc: 0.9979
…
	Training (Important) : 3124, Test : 1954
	MWEs in tain : 1372, occurrences : 3583
	Impotant words in tain : 1175
	MWE length mean : 2.13
	Seen MWEs : 386 (57 %)
	New MWEs : 284 (42 %)
==================================================================================================
__________________________________________________________________________________________________
Layer (type)                    Output Shape         Param #     Connected to                     
==================================================================================================
input_83 (InputLayer)           (None, 7)            0                                            
__________________________________________________________________________________________________
input_84 (InputLayer)           (None, 7)            0                                            
__________________________________________________________________________________________________
embedding_83 (Embedding)        (None, 7, 342)       2026692     input_83[0][0]                   
__________________________________________________________________________________________________
embedding_84 (Embedding)        (None, 7, 66)        1254        input_84[0][0]                   
__________________________________________________________________________________________________
gru_63 (GRU)                    (None, 34)           38454       embedding_83[0][0]               
__________________________________________________________________________________________________
gru_64 (GRU)                    (None, 43)           14190       embedding_84[0][0]               
__________________________________________________________________________________________________
dropout_113 (Dropout)           (None, 34)           0           gru_63[0][0]                     
__________________________________________________________________________________________________
dropout_114 (Dropout)           (None, 43)           0           gru_64[0][0]                     
__________________________________________________________________________________________________
concatenate_42 (Concatenate)    (None, 77)           0           dropout_113[0][0]                
                                                                 dropout_114[0][0]                
__________________________________________________________________________________________________
dense_72 (Dense)                (None, 4)            312         concatenate_42[0][0]             
==================================================================================================
Total params: 2,080,902
Trainable params: 2,080,902
Non-trainable params: 0
__________________________________________________________________________________________________
None
Train on 320835 samples, validate on 35649 samples
Epoch 1/20
 - 148s - loss: 0.0793 - acc: 0.9782 - val_loss: 0.0652 - val_acc: 0.9979
…
	Training (Important) : 3124, Test : 1954
	MWEs in tain : 1372, occurrences : 3583
	Impotant words in tain : 1175
	MWE length mean : 2.13
	Seen MWEs : 386 (57 %)
	New MWEs : 284 (42 %)
==================================================================================================
__________________________________________________________________________________________________
Layer (type)                    Output Shape         Param #     Connected to                     
==================================================================================================
input_85 (InputLayer)           (None, 7)            0                                            
__________________________________________________________________________________________________
input_86 (InputLayer)           (None, 7)            0                                            
__________________________________________________________________________________________________
embedding_85 (Embedding)        (None, 7, 124)       146072      input_85[0][0]                   
__________________________________________________________________________________________________
embedding_86 (Embedding)        (None, 7, 74)        1406        input_86[0][0]                   
__________________________________________________________________________________________________
lstm_21 (LSTM)                  (None, 37)           23976       embedding_85[0][0]               
__________________________________________________________________________________________________
lstm_22 (LSTM)                  (None, 7)            2296        embedding_86[0][0]               
__________________________________________________________________________________________________
dropout_115 (Dropout)           (None, 37)           0           lstm_21[0][0]                    
__________________________________________________________________________________________________
dropout_116 (Dropout)           (None, 7)            0           lstm_22[0][0]                    
__________________________________________________________________________________________________
concatenate_43 (Concatenate)    (None, 44)           0           dropout_115[0][0]                
                                                                 dropout_116[0][0]                
__________________________________________________________________________________________________
dense_73 (Dense)                (None, 4)            180         concatenate_43[0][0]             
==================================================================================================
Total params: 173,930
Trainable params: 173,930
Non-trainable params: 0
__________________________________________________________________________________________________
None
Train on 320835 samples, validate on 35649 samples
Epoch 1/20
 - 354s - loss: 0.0699 - acc: 0.9801 - val_loss: 0.0781 - val_acc: 0.9999
…
	Training (Important) : 3124, Test : 1954
	MWEs in tain : 1372, occurrences : 3583
	Impotant words in tain : 1175
	MWE length mean : 2.13
	Seen MWEs : 386 (57 %)
	New MWEs : 284 (42 %)
==================================================================================================
__________________________________________________________________________________________________
Layer (type)                    Output Shape         Param #     Connected to                     
==================================================================================================
input_87 (InputLayer)           (None, 7)            0                                            
__________________________________________________________________________________________________
input_88 (InputLayer)           (None, 7)            0                                            
__________________________________________________________________________________________________
embedding_87 (Embedding)        (None, 7, 237)       1404462     input_87[0][0]                   
__________________________________________________________________________________________________
embedding_88 (Embedding)        (None, 7, 36)        684         input_88[0][0]                   
__________________________________________________________________________________________________
lstm_23 (LSTM)                  (None, 91)           119756      embedding_87[0][0]               
__________________________________________________________________________________________________
lstm_24 (LSTM)                  (None, 9)            1656        embedding_88[0][0]               
__________________________________________________________________________________________________
dropout_117 (Dropout)           (None, 91)           0           lstm_23[0][0]                    
__________________________________________________________________________________________________
dropout_118 (Dropout)           (None, 9)            0           lstm_24[0][0]                    
__________________________________________________________________________________________________
concatenate_44 (Concatenate)    (None, 100)          0           dropout_117[0][0]                
                                                                 dropout_118[0][0]                
__________________________________________________________________________________________________
dense_74 (Dense)                (None, 85)           8585        concatenate_44[0][0]             
__________________________________________________________________________________________________
dropout_119 (Dropout)           (None, 85)           0           dense_74[0][0]                   
__________________________________________________________________________________________________
dense_75 (Dense)                (None, 4)            344         dropout_119[0][0]                
==================================================================================================
Total params: 1,535,487
Trainable params: 1,535,487
Non-trainable params: 0
__________________________________________________________________________________________________
None
Train on 320835 samples, validate on 35649 samples
Epoch 1/20
 - 91s - loss: 0.0871 - acc: 0.9756 - val_loss: 0.0983 - val_acc: 0.9916
…
	Training (Important) : 3124, Test : 1954
	MWEs in tain : 1372, occurrences : 3583
	Impotant words in tain : 1175
	MWE length mean : 2.13
	Seen MWEs : 386 (57 %)
	New MWEs : 284 (42 %)
==================================================================================================
__________________________________________________________________________________________________
Layer (type)                    Output Shape         Param #     Connected to                     
==================================================================================================
input_89 (InputLayer)           (None, 7)            0                                            
__________________________________________________________________________________________________
input_90 (InputLayer)           (None, 7)            0                                            
__________________________________________________________________________________________________
embedding_89 (Embedding)        (None, 7, 439)       517142      input_89[0][0]                   
__________________________________________________________________________________________________
embedding_90 (Embedding)        (None, 7, 11)        209         input_90[0][0]                   
__________________________________________________________________________________________________
gru_65 (GRU)                    (None, 88)           139392      embedding_89[0][0]               
__________________________________________________________________________________________________
gru_66 (GRU)                    (None, 18)           1620        embedding_90[0][0]               
__________________________________________________________________________________________________
dropout_120 (Dropout)           (None, 88)           0           gru_65[0][0]                     
__________________________________________________________________________________________________
dropout_121 (Dropout)           (None, 18)           0           gru_66[0][0]                     
__________________________________________________________________________________________________
concatenate_45 (Concatenate)    (None, 106)          0           dropout_120[0][0]                
                                                                 dropout_121[0][0]                
__________________________________________________________________________________________________
dense_76 (Dense)                (None, 4)            428         concatenate_45[0][0]             
==================================================================================================
Total params: 658,791
Trainable params: 658,791
Non-trainable params: 0
__________________________________________________________________________________________________
None
Train on 320835 samples, validate on 35649 samples
Epoch 1/20
 - 76s - loss: 0.0786 - acc: 0.9784 - val_loss: 0.0480 - val_acc: 0.9996
…
	Training (Important) : 3124, Test : 1954
	MWEs in tain : 1881, occurrences : 3583
	Impotant words in tain : 1880
	MWE length mean : 2.13
	Seen MWEs : 279 (41 %)
	New MWEs : 391 (58 %)
==================================================================================================
__________________________________________________________________________________________________
Layer (type)                    Output Shape         Param #     Connected to                     
==================================================================================================
input_91 (InputLayer)           (None, 7)            0                                            
__________________________________________________________________________________________________
input_92 (InputLayer)           (None, 7)            0                                            
__________________________________________________________________________________________________
embedding_91 (Embedding)        (None, 7, 329)       619507      input_91[0][0]                   
__________________________________________________________________________________________________
embedding_92 (Embedding)        (None, 7, 98)        1862        input_92[0][0]                   
__________________________________________________________________________________________________
gru_67 (GRU)                    (None, 45)           50625       embedding_91[0][0]               
__________________________________________________________________________________________________
gru_68 (GRU)                    (None, 46)           20010       embedding_92[0][0]               
__________________________________________________________________________________________________
dropout_122 (Dropout)           (None, 45)           0           gru_67[0][0]                     
__________________________________________________________________________________________________
dropout_123 (Dropout)           (None, 46)           0           gru_68[0][0]                     
__________________________________________________________________________________________________
concatenate_46 (Concatenate)    (None, 91)           0           dropout_122[0][0]                
                                                                 dropout_123[0][0]                
__________________________________________________________________________________________________
dense_77 (Dense)                (None, 4)            368         concatenate_46[0][0]             
==================================================================================================
Total params: 692,372
Trainable params: 692,372
Non-trainable params: 0
__________________________________________________________________________________________________
None
Train on 320835 samples, validate on 35649 samples
Epoch 1/20
 - 289s - loss: 0.0656 - acc: 0.9815 - val_loss: 0.0821 - val_acc: 0.9979
…
	Training (Important) : 3124, Test : 1954
	MWEs in tain : 1372, occurrences : 3583
	Impotant words in tain : 1175
	MWE length mean : 2.13
	Seen MWEs : 386 (57 %)
	New MWEs : 284 (42 %)
==================================================================================================
__________________________________________________________________________________________________
Layer (type)                    Output Shape         Param #     Connected to                     
==================================================================================================
input_93 (InputLayer)           (None, 7)            0                                            
__________________________________________________________________________________________________
input_94 (InputLayer)           (None, 7)            0                                            
__________________________________________________________________________________________________
embedding_93 (Embedding)        (None, 7, 201)       236778      input_93[0][0]                   
__________________________________________________________________________________________________
embedding_94 (Embedding)        (None, 7, 62)        1178        input_94[0][0]                   
__________________________________________________________________________________________________
gru_69 (GRU)                    (None, 49)           36897       embedding_93[0][0]               
__________________________________________________________________________________________________
gru_70 (GRU)                    (None, 22)           5610        embedding_94[0][0]               
__________________________________________________________________________________________________
dropout_124 (Dropout)           (None, 49)           0           gru_69[0][0]                     
__________________________________________________________________________________________________
dropout_125 (Dropout)           (None, 22)           0           gru_70[0][0]                     
__________________________________________________________________________________________________
concatenate_47 (Concatenate)    (None, 71)           0           dropout_124[0][0]                
                                                                 dropout_125[0][0]                
__________________________________________________________________________________________________
dense_78 (Dense)                (None, 79)           5688        concatenate_47[0][0]             
__________________________________________________________________________________________________
dropout_126 (Dropout)           (None, 79)           0           dense_78[0][0]                   
__________________________________________________________________________________________________
dense_79 (Dense)                (None, 4)            320         dropout_126[0][0]                
==================================================================================================
Total params: 286,471
Trainable params: 286,471
Non-trainable params: 0
__________________________________________________________________________________________________
None
Train on 320835 samples, validate on 35649 samples
Epoch 1/20
 - 38s - loss: 0.0834 - acc: 0.9754 - val_loss: 0.0742 - val_acc: 0.9999
…
	Training (Important) : 3124, Test : 1954
	MWEs in tain : 1372, occurrences : 3583
	Impotant words in tain : 1175
	MWE length mean : 2.13
	Seen MWEs : 386 (57 %)
	New MWEs : 284 (42 %)
==================================================================================================
__________________________________________________________________________________________________
Layer (type)                    Output Shape         Param #     Connected to                     
==================================================================================================
input_95 (InputLayer)           (None, 7)            0                                            
__________________________________________________________________________________________________
input_96 (InputLayer)           (None, 7)            0                                            
__________________________________________________________________________________________________
embedding_95 (Embedding)        (None, 7, 264)       310992      input_95[0][0]                   
__________________________________________________________________________________________________
embedding_96 (Embedding)        (None, 7, 36)        684         input_96[0][0]                   
__________________________________________________________________________________________________
gru_71 (GRU)                    (None, 94)           101238      embedding_95[0][0]               
__________________________________________________________________________________________________
gru_72 (GRU)                    (None, 45)           11070       embedding_96[0][0]               
__________________________________________________________________________________________________
dropout_127 (Dropout)           (None, 94)           0           gru_71[0][0]                     
__________________________________________________________________________________________________
dropout_128 (Dropout)           (None, 45)           0           gru_72[0][0]                     
__________________________________________________________________________________________________
concatenate_48 (Concatenate)    (None, 139)          0           dropout_127[0][0]                
                                                                 dropout_128[0][0]                
__________________________________________________________________________________________________
dense_80 (Dense)                (None, 33)           4620        concatenate_48[0][0]             
__________________________________________________________________________________________________
dropout_129 (Dropout)           (None, 33)           0           dense_80[0][0]                   
__________________________________________________________________________________________________
dense_81 (Dense)                (None, 4)            136         dropout_129[0][0]                
==================================================================================================
Total params: 428,740
Trainable params: 428,740
Non-trainable params: 0
__________________________________________________________________________________________________
None
Train on 320835 samples, validate on 35649 samples
Epoch 1/20
 - 150s - loss: 0.0760 - acc: 0.9789 - val_loss: 0.0773 - val_acc: 0.9955
…
	Training (Important) : 3124, Test : 1954
	MWEs in tain : 1372, occurrences : 3583
	Impotant words in tain : 1175
	MWE length mean : 2.13
	Seen MWEs : 386 (57 %)
	New MWEs : 284 (42 %)
==================================================================================================
__________________________________________________________________________________________________
Layer (type)                    Output Shape         Param #     Connected to                     
==================================================================================================
input_97 (InputLayer)           (None, 7)            0                                            
__________________________________________________________________________________________________
input_98 (InputLayer)           (None, 7)            0                                            
__________________________________________________________________________________________________
embedding_97 (Embedding)        (None, 7, 173)       203794      input_97[0][0]                   
__________________________________________________________________________________________________
embedding_98 (Embedding)        (None, 7, 91)        1729        input_98[0][0]                   
__________________________________________________________________________________________________
gru_73 (GRU)                    (None, 88)           69168       embedding_97[0][0]               
__________________________________________________________________________________________________
gru_74 (GRU)                    (None, 35)           13335       embedding_98[0][0]               
__________________________________________________________________________________________________
dropout_130 (Dropout)           (None, 88)           0           gru_73[0][0]                     
__________________________________________________________________________________________________
dropout_131 (Dropout)           (None, 35)           0           gru_74[0][0]                     
__________________________________________________________________________________________________
concatenate_49 (Concatenate)    (None, 123)          0           dropout_130[0][0]                
                                                                 dropout_131[0][0]                
__________________________________________________________________________________________________
dense_82 (Dense)                (None, 4)            496         concatenate_49[0][0]             
==================================================================================================
Total params: 288,522
Trainable params: 288,522
Non-trainable params: 0
__________________________________________________________________________________________________
None
Train on 320835 samples, validate on 35649 samples
Epoch 1/20
 - 74s - loss: 0.0742 - acc: 0.9788 - val_loss: 0.0778 - val_acc: 0.9979
…
	Training (Important) : 3124, Test : 1954
	MWEs in tain : 1881, occurrences : 3583
	Impotant words in tain : 1880
	MWE length mean : 2.13
	Seen MWEs : 279 (41 %)
	New MWEs : 391 (58 %)
==================================================================================================
__________________________________________________________________________________________________
Layer (type)                    Output Shape         Param #     Connected to                     
==================================================================================================
input_99 (InputLayer)           (None, 7)            0                                            
__________________________________________________________________________________________________
input_100 (InputLayer)          (None, 7)            0                                            
__________________________________________________________________________________________________
embedding_99 (Embedding)        (None, 7, 490)       4569250     input_99[0][0]                   
__________________________________________________________________________________________________
embedding_100 (Embedding)       (None, 7, 24)        456         input_100[0][0]                  
__________________________________________________________________________________________________
lstm_25 (LSTM)                  (None, 99)           233640      embedding_99[0][0]               
__________________________________________________________________________________________________
lstm_26 (LSTM)                  (None, 23)           4416        embedding_100[0][0]              
__________________________________________________________________________________________________
dropout_132 (Dropout)           (None, 99)           0           lstm_25[0][0]                    
__________________________________________________________________________________________________
dropout_133 (Dropout)           (None, 23)           0           lstm_26[0][0]                    
__________________________________________________________________________________________________
concatenate_50 (Concatenate)    (None, 122)          0           dropout_132[0][0]                
                                                                 dropout_133[0][0]                
__________________________________________________________________________________________________
dense_83 (Dense)                (None, 82)           10086       concatenate_50[0][0]             
__________________________________________________________________________________________________
dropout_134 (Dropout)           (None, 82)           0           dense_83[0][0]                   
__________________________________________________________________________________________________
dense_84 (Dense)                (None, 4)            332         dropout_134[0][0]                
==================================================================================================
Total params: 4,818,180
Trainable params: 4,818,180
Non-trainable params: 0
__________________________________________________________________________________________________
None
Train on 320835 samples, validate on 35649 samples
Epoch 1/20
 - 362s - loss: 0.0751 - acc: 0.9788 - val_loss: 0.1154 - val_acc: 0.9993
…
	Training (Important) : 3124, Test : 1954
	MWEs in tain : 1372, occurrences : 3583
	Impotant words in tain : 1175
	MWE length mean : 2.13
	Seen MWEs : 386 (57 %)
	New MWEs : 284 (42 %)
==================================================================================================
__________________________________________________________________________________________________
Layer (type)                    Output Shape         Param #     Connected to                     
==================================================================================================
input_101 (InputLayer)          (None, 7)            0                                            
__________________________________________________________________________________________________
input_102 (InputLayer)          (None, 7)            0                                            
__________________________________________________________________________________________________
embedding_101 (Embedding)       (None, 7, 153)       906678      input_101[0][0]                  
__________________________________________________________________________________________________
embedding_102 (Embedding)       (None, 7, 70)        1330        input_102[0][0]                  
__________________________________________________________________________________________________
gru_75 (GRU)                    (None, 26)           14040       embedding_101[0][0]              
__________________________________________________________________________________________________
gru_76 (GRU)                    (None, 45)           15660       embedding_102[0][0]              
__________________________________________________________________________________________________
dropout_135 (Dropout)           (None, 26)           0           gru_75[0][0]                     
__________________________________________________________________________________________________
dropout_136 (Dropout)           (None, 45)           0           gru_76[0][0]                     
__________________________________________________________________________________________________
concatenate_51 (Concatenate)    (None, 71)           0           dropout_135[0][0]                
                                                                 dropout_136[0][0]                
__________________________________________________________________________________________________
dense_85 (Dense)                (None, 87)           6264        concatenate_51[0][0]             
__________________________________________________________________________________________________
dropout_137 (Dropout)           (None, 87)           0           dense_85[0][0]                   
__________________________________________________________________________________________________
dense_86 (Dense)                (None, 4)            352         dropout_137[0][0]                
==================================================================================================
Total params: 944,324
Trainable params: 944,324
Non-trainable params: 0
__________________________________________________________________________________________________
None
Train on 320835 samples, validate on 35649 samples
Epoch 1/20
 - 75s - loss: 0.0856 - acc: 0.9760 - val_loss: 0.0601 - val_acc: 0.9989
…
	Training (Important) : 3124, Test : 1954
	MWEs in tain : 1881, occurrences : 3583
	Impotant words in tain : 1880
	MWE length mean : 2.13
	Seen MWEs : 279 (41 %)
	New MWEs : 391 (58 %)
==================================================================================================
__________________________________________________________________________________________________
Layer (type)                    Output Shape         Param #     Connected to                     
==================================================================================================
input_103 (InputLayer)          (None, 7)            0                                            
__________________________________________________________________________________________________
input_104 (InputLayer)          (None, 7)            0                                            
__________________________________________________________________________________________________
embedding_103 (Embedding)       (None, 7, 274)       515942      input_103[0][0]                  
__________________________________________________________________________________________________
embedding_104 (Embedding)       (None, 7, 10)        190         input_104[0][0]                  
__________________________________________________________________________________________________
lstm_27 (LSTM)                  (None, 70)           96600       embedding_103[0][0]              
__________________________________________________________________________________________________
lstm_28 (LSTM)                  (None, 31)           5208        embedding_104[0][0]              
__________________________________________________________________________________________________
dropout_138 (Dropout)           (None, 70)           0           lstm_27[0][0]                    
__________________________________________________________________________________________________
dropout_139 (Dropout)           (None, 31)           0           lstm_28[0][0]                    
__________________________________________________________________________________________________
concatenate_52 (Concatenate)    (None, 101)          0           dropout_138[0][0]                
                                                                 dropout_139[0][0]                
__________________________________________________________________________________________________
dense_87 (Dense)                (None, 55)           5610        concatenate_52[0][0]             
__________________________________________________________________________________________________
dropout_140 (Dropout)           (None, 55)           0           dense_87[0][0]                   
__________________________________________________________________________________________________
dense_88 (Dense)                (None, 4)            224         dropout_140[0][0]                
==================================================================================================
Total params: 623,774
Trainable params: 623,774
Non-trainable params: 0
__________________________________________________________________________________________________
None
Train on 320835 samples, validate on 35649 samples
Epoch 1/20
 - 91s - loss: 0.0797 - acc: 0.9781 - val_loss: 0.0788 - val_acc: 1.0000
…
	Training (Important) : 3124, Test : 1954
	MWEs in tain : 1372, occurrences : 3583
	Impotant words in tain : 1175
	MWE length mean : 2.13
	Seen MWEs : 386 (57 %)
	New MWEs : 284 (42 %)
==================================================================================================
__________________________________________________________________________________________________
Layer (type)                    Output Shape         Param #     Connected to                     
==================================================================================================
input_105 (InputLayer)          (None, 7)            0                                            
__________________________________________________________________________________________________
input_106 (InputLayer)          (None, 7)            0                                            
__________________________________________________________________________________________________
embedding_105 (Embedding)       (None, 7, 287)       338086      input_105[0][0]                  
__________________________________________________________________________________________________
embedding_106 (Embedding)       (None, 7, 53)        1007        input_106[0][0]                  
__________________________________________________________________________________________________
gru_77 (GRU)                    (None, 88)           99264       embedding_105[0][0]              
__________________________________________________________________________________________________
gru_78 (GRU)                    (None, 11)           2145        embedding_106[0][0]              
__________________________________________________________________________________________________
dropout_141 (Dropout)           (None, 88)           0           gru_77[0][0]                     
__________________________________________________________________________________________________
dropout_142 (Dropout)           (None, 11)           0           gru_78[0][0]                     
__________________________________________________________________________________________________
concatenate_53 (Concatenate)    (None, 99)           0           dropout_141[0][0]                
                                                                 dropout_142[0][0]                
__________________________________________________________________________________________________
dense_89 (Dense)                (None, 63)           6300        concatenate_53[0][0]             
__________________________________________________________________________________________________
dropout_143 (Dropout)           (None, 63)           0           dense_89[0][0]                   
__________________________________________________________________________________________________
dense_90 (Dense)                (None, 4)            256         dropout_143[0][0]                
==================================================================================================
Total params: 447,058
Trainable params: 447,058
Non-trainable params: 0
__________________________________________________________________________________________________
None
Train on 320835 samples, validate on 35649 samples
Epoch 1/20
 - 150s - loss: 0.0758 - acc: 0.9781 - val_loss: 0.0847 - val_acc: 0.9985
…
	Training (Important) : 3124, Test : 1954
	MWEs in tain : 1372, occurrences : 3583
	Impotant words in tain : 1175
	MWE length mean : 2.13
	Seen MWEs : 386 (57 %)
	New MWEs : 284 (42 %)
==================================================================================================
__________________________________________________________________________________________________
Layer (type)                    Output Shape         Param #     Connected to                     
==================================================================================================
input_107 (InputLayer)          (None, 7)            0                                            
__________________________________________________________________________________________________
input_108 (InputLayer)          (None, 7)            0                                            
__________________________________________________________________________________________________
embedding_107 (Embedding)       (None, 7, 259)       1534834     input_107[0][0]                  
__________________________________________________________________________________________________
embedding_108 (Embedding)       (None, 7, 28)        532         input_108[0][0]                  
__________________________________________________________________________________________________
gru_79 (GRU)                    (None, 18)           15012       embedding_107[0][0]              
__________________________________________________________________________________________________
gru_80 (GRU)                    (None, 13)           1638        embedding_108[0][0]              
__________________________________________________________________________________________________
dropout_144 (Dropout)           (None, 18)           0           gru_79[0][0]                     
__________________________________________________________________________________________________
dropout_145 (Dropout)           (None, 13)           0           gru_80[0][0]                     
__________________________________________________________________________________________________
concatenate_54 (Concatenate)    (None, 31)           0           dropout_144[0][0]                
                                                                 dropout_145[0][0]                
__________________________________________________________________________________________________
dense_91 (Dense)                (None, 90)           2880        concatenate_54[0][0]             
__________________________________________________________________________________________________
dropout_146 (Dropout)           (None, 90)           0           dense_91[0][0]                   
__________________________________________________________________________________________________
dense_92 (Dense)                (None, 4)            364         dropout_146[0][0]                
==================================================================================================
Total params: 1,555,260
Trainable params: 1,555,260
Non-trainable params: 0
__________________________________________________________________________________________________
None
Train on 320835 samples, validate on 35649 samples
Epoch 1/20
 - 38s - loss: 0.1036 - acc: 0.9697 - val_loss: 0.0757 - val_acc: 0.9979
…
	Training (Important) : 3124, Test : 1954
	MWEs in tain : 1372, occurrences : 3583
	Impotant words in tain : 1175
	MWE length mean : 2.13
	Seen MWEs : 386 (57 %)
	New MWEs : 284 (42 %)
==================================================================================================
__________________________________________________________________________________________________
Layer (type)                    Output Shape         Param #     Connected to                     
==================================================================================================
input_109 (InputLayer)          (None, 7)            0                                            
__________________________________________________________________________________________________
input_110 (InputLayer)          (None, 7)            0                                            
__________________________________________________________________________________________________
embedding_109 (Embedding)       (None, 7, 317)       373426      input_109[0][0]                  
__________________________________________________________________________________________________
embedding_110 (Embedding)       (None, 7, 16)        304         input_110[0][0]                  
__________________________________________________________________________________________________
gru_81 (GRU)                    (None, 45)           49005       embedding_109[0][0]              
__________________________________________________________________________________________________
gru_82 (GRU)                    (None, 8)            600         embedding_110[0][0]              
__________________________________________________________________________________________________
dropout_147 (Dropout)           (None, 45)           0           gru_81[0][0]                     
__________________________________________________________________________________________________
dropout_148 (Dropout)           (None, 8)            0           gru_82[0][0]                     
__________________________________________________________________________________________________
concatenate_55 (Concatenate)    (None, 53)           0           dropout_147[0][0]                
                                                                 dropout_148[0][0]                
__________________________________________________________________________________________________
dense_93 (Dense)                (None, 4)            216         concatenate_55[0][0]             
==================================================================================================
Total params: 423,551
Trainable params: 423,551
Non-trainable params: 0
__________________________________________________________________________________________________
None
Train on 320835 samples, validate on 35649 samples
Epoch 1/20
 - 37s - loss: 0.0761 - acc: 0.9775 - val_loss: 0.0779 - val_acc: 0.9999
…
	Training (Important) : 3124, Test : 1954
	MWEs in tain : 1881, occurrences : 3583
	Impotant words in tain : 1880
	MWE length mean : 2.13
	Seen MWEs : 279 (41 %)
	New MWEs : 391 (58 %)
==================================================================================================
__________________________________________________________________________________________________
Layer (type)                    Output Shape         Param #     Connected to                     
==================================================================================================
input_111 (InputLayer)          (None, 7)            0                                            
__________________________________________________________________________________________________
input_112 (InputLayer)          (None, 7)            0                                            
__________________________________________________________________________________________________
embedding_111 (Embedding)       (None, 7, 341)       642103      input_111[0][0]                  
__________________________________________________________________________________________________
embedding_112 (Embedding)       (None, 7, 88)        1672        input_112[0][0]                  
__________________________________________________________________________________________________
gru_83 (GRU)                    (None, 29)           32277       embedding_111[0][0]              
__________________________________________________________________________________________________
gru_84 (GRU)                    (None, 25)           8550        embedding_112[0][0]              
__________________________________________________________________________________________________
dropout_149 (Dropout)           (None, 29)           0           gru_83[0][0]                     
__________________________________________________________________________________________________
dropout_150 (Dropout)           (None, 25)           0           gru_84[0][0]                     
__________________________________________________________________________________________________
concatenate_56 (Concatenate)    (None, 54)           0           dropout_149[0][0]                
                                                                 dropout_150[0][0]                
__________________________________________________________________________________________________
dense_94 (Dense)                (None, 92)           5060        concatenate_56[0][0]             
__________________________________________________________________________________________________
dropout_151 (Dropout)           (None, 92)           0           dense_94[0][0]                   
__________________________________________________________________________________________________
dense_95 (Dense)                (None, 4)            372         dropout_151[0][0]                
==================================================================================================
Total params: 690,034
Trainable params: 690,034
Non-trainable params: 0
__________________________________________________________________________________________________
None
Train on 320835 samples, validate on 35649 samples
Epoch 1/20
 - 75s - loss: 0.0804 - acc: 0.9771 - val_loss: 0.0977 - val_acc: 1.0000
…
	Training (Important) : 3124, Test : 1954
	MWEs in tain : 1372, occurrences : 3583
	Impotant words in tain : 1175
	MWE length mean : 2.13
	Seen MWEs : 386 (57 %)
	New MWEs : 284 (42 %)
==================================================================================================
__________________________________________________________________________________________________
Layer (type)                    Output Shape         Param #     Connected to                     
==================================================================================================
input_113 (InputLayer)          (None, 7)            0                                            
__________________________________________________________________________________________________
input_114 (InputLayer)          (None, 7)            0                                            
__________________________________________________________________________________________________
embedding_113 (Embedding)       (None, 7, 187)       220286      input_113[0][0]                  
__________________________________________________________________________________________________
embedding_114 (Embedding)       (None, 7, 26)        494         input_114[0][0]                  
__________________________________________________________________________________________________
lstm_29 (LSTM)                  (None, 43)           39732       embedding_113[0][0]              
__________________________________________________________________________________________________
lstm_30 (LSTM)                  (None, 27)           5832        embedding_114[0][0]              
__________________________________________________________________________________________________
dropout_152 (Dropout)           (None, 43)           0           lstm_29[0][0]                    
__________________________________________________________________________________________________
dropout_153 (Dropout)           (None, 27)           0           lstm_30[0][0]                    
__________________________________________________________________________________________________
concatenate_57 (Concatenate)    (None, 70)           0           dropout_152[0][0]                
                                                                 dropout_153[0][0]                
__________________________________________________________________________________________________
dense_96 (Dense)                (None, 58)           4118        concatenate_57[0][0]             
__________________________________________________________________________________________________
dropout_154 (Dropout)           (None, 58)           0           dense_96[0][0]                   
__________________________________________________________________________________________________
dense_97 (Dense)                (None, 4)            236         dropout_154[0][0]                
==================================================================================================
Total params: 270,698
Trainable params: 270,698
Non-trainable params: 0
__________________________________________________________________________________________________
None
Train on 320835 samples, validate on 35649 samples
Epoch 1/20
 - 179s - loss: 0.0705 - acc: 0.9797 - val_loss: 0.0813 - val_acc: 0.9999
…
	Training (Important) : 3124, Test : 1954
	MWEs in tain : 1372, occurrences : 3583
	Impotant words in tain : 1175
	MWE length mean : 2.13
	Seen MWEs : 386 (57 %)
	New MWEs : 284 (42 %)
==================================================================================================
__________________________________________________________________________________________________
Layer (type)                    Output Shape         Param #     Connected to                     
==================================================================================================
input_115 (InputLayer)          (None, 7)            0                                            
__________________________________________________________________________________________________
input_116 (InputLayer)          (None, 7)            0                                            
__________________________________________________________________________________________________
embedding_115 (Embedding)       (None, 7, 395)       465310      input_115[0][0]                  
__________________________________________________________________________________________________
embedding_116 (Embedding)       (None, 7, 13)        247         input_116[0][0]                  
__________________________________________________________________________________________________
lstm_31 (LSTM)                  (None, 25)           42100       embedding_115[0][0]              
__________________________________________________________________________________________________
lstm_32 (LSTM)                  (None, 34)           6528        embedding_116[0][0]              
__________________________________________________________________________________________________
dropout_155 (Dropout)           (None, 25)           0           lstm_31[0][0]                    
__________________________________________________________________________________________________
dropout_156 (Dropout)           (None, 34)           0           lstm_32[0][0]                    
__________________________________________________________________________________________________
concatenate_58 (Concatenate)    (None, 59)           0           dropout_155[0][0]                
                                                                 dropout_156[0][0]                
__________________________________________________________________________________________________
dense_98 (Dense)                (None, 20)           1200        concatenate_58[0][0]             
__________________________________________________________________________________________________
dropout_157 (Dropout)           (None, 20)           0           dense_98[0][0]                   
__________________________________________________________________________________________________
dense_99 (Dense)                (None, 4)            84          dropout_157[0][0]                
==================================================================================================
Total params: 515,469
Trainable params: 515,469
Non-trainable params: 0
__________________________________________________________________________________________________
None
Train on 320835 samples, validate on 35649 samples
Epoch 1/20
 - 178s - loss: 0.1043 - acc: 0.9735 - val_loss: 0.0582 - val_acc: 0.9984
…
	Training (Important) : 3124, Test : 1954
	MWEs in tain : 1372, occurrences : 3583
	Impotant words in tain : 1175
	MWE length mean : 2.13
	Seen MWEs : 386 (57 %)
	New MWEs : 284 (42 %)
==================================================================================================
__________________________________________________________________________________________________
Layer (type)                    Output Shape         Param #     Connected to                     
==================================================================================================
input_117 (InputLayer)          (None, 7)            0                                            
__________________________________________________________________________________________________
input_118 (InputLayer)          (None, 7)            0                                            
__________________________________________________________________________________________________
embedding_117 (Embedding)       (None, 7, 263)       309814      input_117[0][0]                  
__________________________________________________________________________________________________
embedding_118 (Embedding)       (None, 7, 13)        247         input_118[0][0]                  
__________________________________________________________________________________________________
gru_85 (GRU)                    (None, 39)           35451       embedding_117[0][0]              
__________________________________________________________________________________________________
gru_86 (GRU)                    (None, 39)           6201        embedding_118[0][0]              
__________________________________________________________________________________________________
dropout_158 (Dropout)           (None, 39)           0           gru_85[0][0]                     
__________________________________________________________________________________________________
dropout_159 (Dropout)           (None, 39)           0           gru_86[0][0]                     
__________________________________________________________________________________________________
concatenate_59 (Concatenate)    (None, 78)           0           dropout_158[0][0]                
                                                                 dropout_159[0][0]                
__________________________________________________________________________________________________
dense_100 (Dense)               (None, 4)            316         concatenate_59[0][0]             
==================================================================================================
Total params: 352,029
Trainable params: 352,029
Non-trainable params: 0
__________________________________________________________________________________________________
None
Train on 320835 samples, validate on 35649 samples
Epoch 1/20
 - 37s - loss: 0.0826 - acc: 0.9764 - val_loss: 0.0707 - val_acc: 0.9979
…
	Training (Important) : 3124, Test : 1954
	MWEs in tain : 1881, occurrences : 3583
	Impotant words in tain : 1880
	MWE length mean : 2.13
	Seen MWEs : 279 (41 %)
	New MWEs : 391 (58 %)
==================================================================================================
__________________________________________________________________________________________________
Layer (type)                    Output Shape         Param #     Connected to                     
==================================================================================================
input_119 (InputLayer)          (None, 7)            0                                            
__________________________________________________________________________________________________
input_120 (InputLayer)          (None, 7)            0                                            
__________________________________________________________________________________________________
embedding_119 (Embedding)       (None, 7, 156)       1454700     input_119[0][0]                  
__________________________________________________________________________________________________
embedding_120 (Embedding)       (None, 7, 13)        247         input_120[0][0]                  
__________________________________________________________________________________________________
lstm_33 (LSTM)                  (None, 39)           30576       embedding_119[0][0]              
__________________________________________________________________________________________________
lstm_34 (LSTM)                  (None, 46)           11040       embedding_120[0][0]              
__________________________________________________________________________________________________
dropout_160 (Dropout)           (None, 39)           0           lstm_33[0][0]                    
__________________________________________________________________________________________________
dropout_161 (Dropout)           (None, 46)           0           lstm_34[0][0]                    
__________________________________________________________________________________________________
concatenate_60 (Concatenate)    (None, 85)           0           dropout_160[0][0]                
                                                                 dropout_161[0][0]                
__________________________________________________________________________________________________
dense_101 (Dense)               (None, 59)           5074        concatenate_60[0][0]             
__________________________________________________________________________________________________
dropout_162 (Dropout)           (None, 59)           0           dense_101[0][0]                  
__________________________________________________________________________________________________
dense_102 (Dense)               (None, 4)            240         dropout_162[0][0]                
==================================================================================================
Total params: 1,501,877
Trainable params: 1,501,877
Non-trainable params: 0
__________________________________________________________________________________________________
None
Train on 320835 samples, validate on 35649 samples
Epoch 1/20
 - 360s - loss: 0.0729 - acc: 0.9794 - val_loss: 0.0621 - val_acc: 0.9996
…
