…
	Training (Important) : 3124, Test : 1954
	MWEs in tain : 1372, occurrences : 3583
	Impotant words in tain : 1175
	MWE length mean : 2.13
	Seen MWEs : 386 (57 %)
	New MWEs : 284 (42 %)
==================================================================================================
__________________________________________________________________________________________________
Layer (type)                    Output Shape         Param #     Connected to                     
==================================================================================================
input_1 (InputLayer)            (None, 7)            0                                            
__________________________________________________________________________________________________
input_2 (InputLayer)            (None, 7)            0                                            
__________________________________________________________________________________________________
embedding_1 (Embedding)         (None, 7, 243)       286254      input_1[0][0]                    
__________________________________________________________________________________________________
embedding_2 (Embedding)         (None, 7, 35)        665         input_2[0][0]                    
__________________________________________________________________________________________________
gru_1 (GRU)                     (None, 32)           26496       embedding_1[0][0]                
__________________________________________________________________________________________________
gru_2 (GRU)                     (None, 40)           9120        embedding_2[0][0]                
__________________________________________________________________________________________________
dropout_1 (Dropout)             (None, 32)           0           gru_1[0][0]                      
__________________________________________________________________________________________________
dropout_2 (Dropout)             (None, 40)           0           gru_2[0][0]                      
__________________________________________________________________________________________________
concatenate_1 (Concatenate)     (None, 72)           0           dropout_1[0][0]                  
                                                                 dropout_2[0][0]                  
__________________________________________________________________________________________________
dense_1 (Dense)                 (None, 44)           3212        concatenate_1[0][0]              
__________________________________________________________________________________________________
dropout_3 (Dropout)             (None, 44)           0           dense_1[0][0]                    
__________________________________________________________________________________________________
dense_2 (Dense)                 (None, 4)            180         dropout_3[0][0]                  
==================================================================================================
Total params: 325,927
Trainable params: 325,927
Non-trainable params: 0
__________________________________________________________________________________________________
None
Train on 320835 samples, validate on 35649 samples
Epoch 1/20
 - 312s - loss: 0.0731 - acc: 0.9795 - val_loss: 0.0687 - val_acc: 0.9999
…
	Training (Important) : 2305, Test : 3117
	MWEs in tain : 1396, occurrences : 2518
	Impotant words in tain : 1131
	MWE length mean : 2.22
	Seen MWEs : 340 (61 %)
	New MWEs : 213 (38 %)
==================================================================================================
__________________________________________________________________________________________________
Layer (type)                    Output Shape         Param #     Connected to                     
==================================================================================================
input_3 (InputLayer)            (None, 7)            0                                            
__________________________________________________________________________________________________
input_4 (InputLayer)            (None, 7)            0                                            
__________________________________________________________________________________________________
embedding_3 (Embedding)         (None, 7, 243)       275562      input_3[0][0]                    
__________________________________________________________________________________________________
embedding_4 (Embedding)         (None, 7, 35)        665         input_4[0][0]                    
__________________________________________________________________________________________________
gru_3 (GRU)                     (None, 32)           26496       embedding_3[0][0]                
__________________________________________________________________________________________________
gru_4 (GRU)                     (None, 40)           9120        embedding_4[0][0]                
__________________________________________________________________________________________________
dropout_4 (Dropout)             (None, 32)           0           gru_3[0][0]                      
__________________________________________________________________________________________________
dropout_5 (Dropout)             (None, 40)           0           gru_4[0][0]                      
__________________________________________________________________________________________________
concatenate_2 (Concatenate)     (None, 72)           0           dropout_4[0][0]                  
                                                                 dropout_5[0][0]                  
__________________________________________________________________________________________________
dense_3 (Dense)                 (None, 44)           3212        concatenate_2[0][0]              
__________________________________________________________________________________________________
dropout_6 (Dropout)             (None, 44)           0           dense_3[0][0]                    
__________________________________________________________________________________________________
dense_4 (Dense)                 (None, 4)            180         dropout_6[0][0]                  
==================================================================================================
Total params: 315,235
Trainable params: 315,235
Non-trainable params: 0
__________________________________________________________________________________________________
None
Train on 217231 samples, validate on 24137 samples
Epoch 1/20
 - 227s - loss: 0.0834 - acc: 0.9754 - val_loss: 0.1246 - val_acc: 0.9983
…
	Training (Important) : 3585, Test : 1320
	MWEs in tain : 1790, occurrences : 4856
	Impotant words in tain : 1200
	MWE length mean : 2.06
	Seen MWEs : 345 (67 %)
	New MWEs : 165 (32 %)
==================================================================================================
__________________________________________________________________________________________________
Layer (type)                    Output Shape         Param #     Connected to                     
==================================================================================================
input_5 (InputLayer)            (None, 7)            0                                            
__________________________________________________________________________________________________
input_6 (InputLayer)            (None, 7)            0                                            
__________________________________________________________________________________________________
embedding_5 (Embedding)         (None, 7, 243)       292329      input_5[0][0]                    
__________________________________________________________________________________________________
embedding_6 (Embedding)         (None, 7, 35)        490         input_6[0][0]                    
__________________________________________________________________________________________________
gru_5 (GRU)                     (None, 32)           26496       embedding_5[0][0]                
__________________________________________________________________________________________________
gru_6 (GRU)                     (None, 40)           9120        embedding_6[0][0]                
__________________________________________________________________________________________________
dropout_7 (Dropout)             (None, 32)           0           gru_5[0][0]                      
__________________________________________________________________________________________________
dropout_8 (Dropout)             (None, 40)           0           gru_6[0][0]                      
__________________________________________________________________________________________________
concatenate_3 (Concatenate)     (None, 72)           0           dropout_7[0][0]                  
                                                                 dropout_8[0][0]                  
__________________________________________________________________________________________________
dense_5 (Dense)                 (None, 44)           3212        concatenate_3[0][0]              
__________________________________________________________________________________________________
dropout_9 (Dropout)             (None, 44)           0           dense_5[0][0]                    
__________________________________________________________________________________________________
dense_6 (Dense)                 (None, 4)            180         dropout_9[0][0]                  
==================================================================================================
Total params: 331,827
Trainable params: 331,827
Non-trainable params: 0
__________________________________________________________________________________________________
None
Train on 432446 samples, validate on 48050 samples
Epoch 1/20
 - 461s - loss: 0.0729 - acc: 0.9784 - val_loss: 0.0761 - val_acc: 1.0000
…
	Training (Important) : 3124, Test : 1954
	MWEs in tain : 1372, occurrences : 3583
	Impotant words in tain : 1175
	MWE length mean : 2.13
	Seen MWEs : 386 (57 %)
	New MWEs : 284 (42 %)
==================================================================================================
__________________________________________________________________________________________________
Layer (type)                    Output Shape         Param #     Connected to                     
==================================================================================================
input_7 (InputLayer)            (None, 7)            0                                            
__________________________________________________________________________________________________
input_8 (InputLayer)            (None, 7)            0                                            
__________________________________________________________________________________________________
embedding_7 (Embedding)         (None, 7, 332)       391096      input_7[0][0]                    
__________________________________________________________________________________________________
embedding_8 (Embedding)         (None, 7, 15)        285         input_8[0][0]                    
__________________________________________________________________________________________________
gru_7 (GRU)                     (None, 93)           118854      embedding_7[0][0]                
__________________________________________________________________________________________________
gru_8 (GRU)                     (None, 48)           9216        embedding_8[0][0]                
__________________________________________________________________________________________________
dropout_10 (Dropout)            (None, 93)           0           gru_7[0][0]                      
__________________________________________________________________________________________________
dropout_11 (Dropout)            (None, 48)           0           gru_8[0][0]                      
__________________________________________________________________________________________________
concatenate_4 (Concatenate)     (None, 141)          0           dropout_10[0][0]                 
                                                                 dropout_11[0][0]                 
__________________________________________________________________________________________________
dense_7 (Dense)                 (None, 94)           13348       concatenate_4[0][0]              
__________________________________________________________________________________________________
dropout_12 (Dropout)            (None, 94)           0           dense_7[0][0]                    
__________________________________________________________________________________________________
dense_8 (Dense)                 (None, 4)            380         dropout_12[0][0]                 
==================================================================================================
Total params: 533,179
Trainable params: 533,179
Non-trainable params: 0
__________________________________________________________________________________________________
None
Train on 320835 samples, validate on 35649 samples
Epoch 1/20
 - 43s - loss: 0.0906 - acc: 0.9740 - val_loss: 0.0425 - val_acc: 0.9999
…
	Training (Important) : 2305, Test : 3117
	MWEs in tain : 1396, occurrences : 2518
	Impotant words in tain : 1131
	MWE length mean : 2.22
	Seen MWEs : 340 (61 %)
	New MWEs : 213 (38 %)
==================================================================================================
__________________________________________________________________________________________________
Layer (type)                    Output Shape         Param #     Connected to                     
==================================================================================================
input_9 (InputLayer)            (None, 7)            0                                            
__________________________________________________________________________________________________
input_10 (InputLayer)           (None, 7)            0                                            
__________________________________________________________________________________________________
embedding_9 (Embedding)         (None, 7, 332)       376488      input_9[0][0]                    
__________________________________________________________________________________________________
embedding_10 (Embedding)        (None, 7, 15)        285         input_10[0][0]                   
__________________________________________________________________________________________________
gru_9 (GRU)                     (None, 93)           118854      embedding_9[0][0]                
__________________________________________________________________________________________________
gru_10 (GRU)                    (None, 48)           9216        embedding_10[0][0]               
__________________________________________________________________________________________________
dropout_13 (Dropout)            (None, 93)           0           gru_9[0][0]                      
__________________________________________________________________________________________________
dropout_14 (Dropout)            (None, 48)           0           gru_10[0][0]                     
__________________________________________________________________________________________________
concatenate_5 (Concatenate)     (None, 141)          0           dropout_13[0][0]                 
                                                                 dropout_14[0][0]                 
__________________________________________________________________________________________________
dense_9 (Dense)                 (None, 94)           13348       concatenate_5[0][0]              
__________________________________________________________________________________________________
dropout_15 (Dropout)            (None, 94)           0           dense_9[0][0]                    
__________________________________________________________________________________________________
dense_10 (Dense)                (None, 4)            380         dropout_15[0][0]                 
==================================================================================================
Total params: 518,571
Trainable params: 518,571
Non-trainable params: 0
__________________________________________________________________________________________________
None
Train on 217231 samples, validate on 24137 samples
Epoch 1/20
 - 29s - loss: 0.0981 - acc: 0.9713 - val_loss: 0.0929 - val_acc: 0.9994
…
	Training (Important) : 3585, Test : 1320
	MWEs in tain : 1790, occurrences : 4856
	Impotant words in tain : 1200
	MWE length mean : 2.06
	Seen MWEs : 345 (67 %)
	New MWEs : 165 (32 %)
==================================================================================================
__________________________________________________________________________________________________
Layer (type)                    Output Shape         Param #     Connected to                     
==================================================================================================
input_11 (InputLayer)           (None, 7)            0                                            
__________________________________________________________________________________________________
input_12 (InputLayer)           (None, 7)            0                                            
__________________________________________________________________________________________________
embedding_11 (Embedding)        (None, 7, 332)       399396      input_11[0][0]                   
__________________________________________________________________________________________________
embedding_12 (Embedding)        (None, 7, 15)        210         input_12[0][0]                   
__________________________________________________________________________________________________
gru_11 (GRU)                    (None, 93)           118854      embedding_11[0][0]               
__________________________________________________________________________________________________
gru_12 (GRU)                    (None, 48)           9216        embedding_12[0][0]               
__________________________________________________________________________________________________
dropout_16 (Dropout)            (None, 93)           0           gru_11[0][0]                     
__________________________________________________________________________________________________
dropout_17 (Dropout)            (None, 48)           0           gru_12[0][0]                     
__________________________________________________________________________________________________
concatenate_6 (Concatenate)     (None, 141)          0           dropout_16[0][0]                 
                                                                 dropout_17[0][0]                 
__________________________________________________________________________________________________
dense_11 (Dense)                (None, 94)           13348       concatenate_6[0][0]              
__________________________________________________________________________________________________
dropout_18 (Dropout)            (None, 94)           0           dense_11[0][0]                   
__________________________________________________________________________________________________
dense_12 (Dense)                (None, 4)            380         dropout_18[0][0]                 
==================================================================================================
Total params: 541,404
Trainable params: 541,404
Non-trainable params: 0
__________________________________________________________________________________________________
None
Train on 432446 samples, validate on 48050 samples
Epoch 1/20
 - 58s - loss: 0.0826 - acc: 0.9757 - val_loss: 0.0700 - val_acc: 1.0000
…
	Training (Important) : 3124, Test : 1954
	MWEs in tain : 1372, occurrences : 3583
	Impotant words in tain : 1175
	MWE length mean : 2.13
	Seen MWEs : 386 (57 %)
	New MWEs : 284 (42 %)
==================================================================================================
__________________________________________________________________________________________________
Layer (type)                    Output Shape         Param #     Connected to                     
==================================================================================================
input_13 (InputLayer)           (None, 7)            0                                            
__________________________________________________________________________________________________
input_14 (InputLayer)           (None, 7)            0                                            
__________________________________________________________________________________________________
embedding_13 (Embedding)        (None, 7, 386)       454708      input_13[0][0]                   
__________________________________________________________________________________________________
embedding_14 (Embedding)        (None, 7, 47)        893         input_14[0][0]                   
__________________________________________________________________________________________________
gru_13 (GRU)                    (None, 77)           107184      embedding_13[0][0]               
__________________________________________________________________________________________________
gru_14 (GRU)                    (None, 49)           14259       embedding_14[0][0]               
__________________________________________________________________________________________________
dropout_19 (Dropout)            (None, 77)           0           gru_13[0][0]                     
__________________________________________________________________________________________________
dropout_20 (Dropout)            (None, 49)           0           gru_14[0][0]                     
__________________________________________________________________________________________________
concatenate_7 (Concatenate)     (None, 126)          0           dropout_19[0][0]                 
                                                                 dropout_20[0][0]                 
__________________________________________________________________________________________________
dense_13 (Dense)                (None, 59)           7493        concatenate_7[0][0]              
__________________________________________________________________________________________________
dropout_21 (Dropout)            (None, 59)           0           dense_13[0][0]                   
__________________________________________________________________________________________________
dense_14 (Dense)                (None, 4)            240         dropout_21[0][0]                 
==================================================================================================
Total params: 584,777
Trainable params: 584,777
Non-trainable params: 0
__________________________________________________________________________________________________
None
Train on 320835 samples, validate on 35649 samples
Epoch 1/20
 - 171s - loss: 0.0715 - acc: 0.9796 - val_loss: 0.0703 - val_acc: 0.9996
…
	Training (Important) : 2305, Test : 3117
	MWEs in tain : 1396, occurrences : 2518
	Impotant words in tain : 1131
	MWE length mean : 2.22
	Seen MWEs : 340 (61 %)
	New MWEs : 213 (38 %)
==================================================================================================
__________________________________________________________________________________________________
Layer (type)                    Output Shape         Param #     Connected to                     
==================================================================================================
input_15 (InputLayer)           (None, 7)            0                                            
__________________________________________________________________________________________________
input_16 (InputLayer)           (None, 7)            0                                            
__________________________________________________________________________________________________
embedding_15 (Embedding)        (None, 7, 386)       437724      input_15[0][0]                   
__________________________________________________________________________________________________
embedding_16 (Embedding)        (None, 7, 47)        893         input_16[0][0]                   
__________________________________________________________________________________________________
gru_15 (GRU)                    (None, 77)           107184      embedding_15[0][0]               
__________________________________________________________________________________________________
gru_16 (GRU)                    (None, 49)           14259       embedding_16[0][0]               
__________________________________________________________________________________________________
dropout_22 (Dropout)            (None, 77)           0           gru_15[0][0]                     
__________________________________________________________________________________________________
dropout_23 (Dropout)            (None, 49)           0           gru_16[0][0]                     
__________________________________________________________________________________________________
concatenate_8 (Concatenate)     (None, 126)          0           dropout_22[0][0]                 
                                                                 dropout_23[0][0]                 
__________________________________________________________________________________________________
dense_15 (Dense)                (None, 59)           7493        concatenate_8[0][0]              
__________________________________________________________________________________________________
dropout_24 (Dropout)            (None, 59)           0           dense_15[0][0]                   
__________________________________________________________________________________________________
dense_16 (Dense)                (None, 4)            240         dropout_24[0][0]                 
==================================================================================================
Total params: 567,793
Trainable params: 567,793
Non-trainable params: 0
__________________________________________________________________________________________________
None
Train on 217231 samples, validate on 24137 samples
Epoch 1/20
 - 116s - loss: 0.0821 - acc: 0.9751 - val_loss: 0.0666 - val_acc: 0.9994
…
	Training (Important) : 3585, Test : 1320
	MWEs in tain : 1790, occurrences : 4856
	Impotant words in tain : 1200
	MWE length mean : 2.06
	Seen MWEs : 345 (67 %)
	New MWEs : 165 (32 %)
==================================================================================================
__________________________________________________________________________________________________
Layer (type)                    Output Shape         Param #     Connected to                     
==================================================================================================
input_17 (InputLayer)           (None, 7)            0                                            
__________________________________________________________________________________________________
input_18 (InputLayer)           (None, 7)            0                                            
__________________________________________________________________________________________________
embedding_17 (Embedding)        (None, 7, 386)       464358      input_17[0][0]                   
__________________________________________________________________________________________________
embedding_18 (Embedding)        (None, 7, 47)        658         input_18[0][0]                   
__________________________________________________________________________________________________
gru_17 (GRU)                    (None, 77)           107184      embedding_17[0][0]               
__________________________________________________________________________________________________
gru_18 (GRU)                    (None, 49)           14259       embedding_18[0][0]               
__________________________________________________________________________________________________
dropout_25 (Dropout)            (None, 77)           0           gru_17[0][0]                     
__________________________________________________________________________________________________
dropout_26 (Dropout)            (None, 49)           0           gru_18[0][0]                     
__________________________________________________________________________________________________
concatenate_9 (Concatenate)     (None, 126)          0           dropout_25[0][0]                 
                                                                 dropout_26[0][0]                 
__________________________________________________________________________________________________
dense_17 (Dense)                (None, 59)           7493        concatenate_9[0][0]              
__________________________________________________________________________________________________
dropout_27 (Dropout)            (None, 59)           0           dense_17[0][0]                   
__________________________________________________________________________________________________
dense_18 (Dense)                (None, 4)            240         dropout_27[0][0]                 
==================================================================================================
Total params: 594,192
Trainable params: 594,192
Non-trainable params: 0
__________________________________________________________________________________________________
None
Train on 432446 samples, validate on 48050 samples
Epoch 1/20
 - 232s - loss: 0.0723 - acc: 0.9784 - val_loss: 0.0733 - val_acc: 1.0000
…
	Training (Important) : 3124, Test : 1954
	MWEs in tain : 1372, occurrences : 3583
	Impotant words in tain : 1175
	MWE length mean : 2.13
	Seen MWEs : 386 (57 %)
	New MWEs : 284 (42 %)
==================================================================================================
__________________________________________________________________________________________________
Layer (type)                    Output Shape         Param #     Connected to                     
==================================================================================================
input_19 (InputLayer)           (None, 7)            0                                            
__________________________________________________________________________________________________
input_20 (InputLayer)           (None, 7)            0                                            
__________________________________________________________________________________________________
embedding_19 (Embedding)        (None, 7, 456)       537168      input_19[0][0]                   
__________________________________________________________________________________________________
embedding_20 (Embedding)        (None, 7, 76)        1444        input_20[0][0]                   
__________________________________________________________________________________________________
gru_19 (GRU)                    (None, 31)           45384       embedding_19[0][0]               
__________________________________________________________________________________________________
gru_20 (GRU)                    (None, 40)           14040       embedding_20[0][0]               
__________________________________________________________________________________________________
dropout_28 (Dropout)            (None, 31)           0           gru_19[0][0]                     
__________________________________________________________________________________________________
dropout_29 (Dropout)            (None, 40)           0           gru_20[0][0]                     
__________________________________________________________________________________________________
concatenate_10 (Concatenate)    (None, 71)           0           dropout_28[0][0]                 
                                                                 dropout_29[0][0]                 
__________________________________________________________________________________________________
dense_19 (Dense)                (None, 85)           6120        concatenate_10[0][0]             
__________________________________________________________________________________________________
dropout_30 (Dropout)            (None, 85)           0           dense_19[0][0]                   
__________________________________________________________________________________________________
dense_20 (Dense)                (None, 4)            344         dropout_30[0][0]                 
==================================================================================================
Total params: 604,500
Trainable params: 604,500
Non-trainable params: 0
__________________________________________________________________________________________________
None
Train on 320835 samples, validate on 35649 samples
Epoch 1/20
 - 334s - loss: 0.0703 - acc: 0.9799 - val_loss: 0.0585 - val_acc: 0.9996
…
	Training (Important) : 2305, Test : 3117
	MWEs in tain : 1396, occurrences : 2518
	Impotant words in tain : 1131
	MWE length mean : 2.22
	Seen MWEs : 340 (61 %)
	New MWEs : 213 (38 %)
==================================================================================================
__________________________________________________________________________________________________
Layer (type)                    Output Shape         Param #     Connected to                     
==================================================================================================
input_21 (InputLayer)           (None, 7)            0                                            
__________________________________________________________________________________________________
input_22 (InputLayer)           (None, 7)            0                                            
__________________________________________________________________________________________________
embedding_21 (Embedding)        (None, 7, 456)       517104      input_21[0][0]                   
__________________________________________________________________________________________________
embedding_22 (Embedding)        (None, 7, 76)        1444        input_22[0][0]                   
__________________________________________________________________________________________________
gru_21 (GRU)                    (None, 31)           45384       embedding_21[0][0]               
__________________________________________________________________________________________________
gru_22 (GRU)                    (None, 40)           14040       embedding_22[0][0]               
__________________________________________________________________________________________________
dropout_31 (Dropout)            (None, 31)           0           gru_21[0][0]                     
__________________________________________________________________________________________________
dropout_32 (Dropout)            (None, 40)           0           gru_22[0][0]                     
__________________________________________________________________________________________________
concatenate_11 (Concatenate)    (None, 71)           0           dropout_31[0][0]                 
                                                                 dropout_32[0][0]                 
__________________________________________________________________________________________________
dense_21 (Dense)                (None, 85)           6120        concatenate_11[0][0]             
__________________________________________________________________________________________________
dropout_33 (Dropout)            (None, 85)           0           dense_21[0][0]                   
__________________________________________________________________________________________________
dense_22 (Dense)                (None, 4)            344         dropout_33[0][0]                 
==================================================================================================
Total params: 584,436
Trainable params: 584,436
Non-trainable params: 0
__________________________________________________________________________________________________
None
Train on 217231 samples, validate on 24137 samples
Epoch 1/20
 - 224s - loss: 0.0812 - acc: 0.9756 - val_loss: 0.0903 - val_acc: 0.9988
…
	Training (Important) : 3585, Test : 1320
	MWEs in tain : 1790, occurrences : 4856
	Impotant words in tain : 1200
	MWE length mean : 2.06
	Seen MWEs : 345 (67 %)
	New MWEs : 165 (32 %)
==================================================================================================
__________________________________________________________________________________________________
Layer (type)                    Output Shape         Param #     Connected to                     
==================================================================================================
input_23 (InputLayer)           (None, 7)            0                                            
__________________________________________________________________________________________________
input_24 (InputLayer)           (None, 7)            0                                            
__________________________________________________________________________________________________
embedding_23 (Embedding)        (None, 7, 456)       548568      input_23[0][0]                   
__________________________________________________________________________________________________
embedding_24 (Embedding)        (None, 7, 76)        1064        input_24[0][0]                   
__________________________________________________________________________________________________
gru_23 (GRU)                    (None, 31)           45384       embedding_23[0][0]               
__________________________________________________________________________________________________
gru_24 (GRU)                    (None, 40)           14040       embedding_24[0][0]               
__________________________________________________________________________________________________
dropout_34 (Dropout)            (None, 31)           0           gru_23[0][0]                     
__________________________________________________________________________________________________
dropout_35 (Dropout)            (None, 40)           0           gru_24[0][0]                     
__________________________________________________________________________________________________
concatenate_12 (Concatenate)    (None, 71)           0           dropout_34[0][0]                 
                                                                 dropout_35[0][0]                 
__________________________________________________________________________________________________
dense_23 (Dense)                (None, 85)           6120        concatenate_12[0][0]             
__________________________________________________________________________________________________
dropout_36 (Dropout)            (None, 85)           0           dense_23[0][0]                   
__________________________________________________________________________________________________
dense_24 (Dense)                (None, 4)            344         dropout_36[0][0]                 
==================================================================================================
Total params: 615,520
Trainable params: 615,520
Non-trainable params: 0
__________________________________________________________________________________________________
None
Train on 432446 samples, validate on 48050 samples
Epoch 1/20
 - 455s - loss: 0.0707 - acc: 0.9787 - val_loss: 0.0854 - val_acc: 1.0000
…
	Training (Important) : 3124, Test : 1954
	MWEs in tain : 1372, occurrences : 3583
	Impotant words in tain : 1175
	MWE length mean : 2.13
	Seen MWEs : 386 (57 %)
	New MWEs : 284 (42 %)
==================================================================================================
__________________________________________________________________________________________________
Layer (type)                    Output Shape         Param #     Connected to                     
==================================================================================================
input_25 (InputLayer)           (None, 7)            0                                            
__________________________________________________________________________________________________
input_26 (InputLayer)           (None, 7)            0                                            
__________________________________________________________________________________________________
embedding_25 (Embedding)        (None, 7, 269)       316882      input_25[0][0]                   
__________________________________________________________________________________________________
embedding_26 (Embedding)        (None, 7, 13)        247         input_26[0][0]                   
__________________________________________________________________________________________________
gru_25 (GRU)                    (None, 66)           66528       embedding_25[0][0]               
__________________________________________________________________________________________________
gru_26 (GRU)                    (None, 29)           3741        embedding_26[0][0]               
__________________________________________________________________________________________________
dropout_37 (Dropout)            (None, 66)           0           gru_25[0][0]                     
__________________________________________________________________________________________________
dropout_38 (Dropout)            (None, 29)           0           gru_26[0][0]                     
__________________________________________________________________________________________________
concatenate_13 (Concatenate)    (None, 95)           0           dropout_37[0][0]                 
                                                                 dropout_38[0][0]                 
__________________________________________________________________________________________________
dense_25 (Dense)                (None, 91)           8736        concatenate_13[0][0]             
__________________________________________________________________________________________________
dropout_39 (Dropout)            (None, 91)           0           dense_25[0][0]                   
__________________________________________________________________________________________________
dense_26 (Dense)                (None, 4)            368         dropout_39[0][0]                 
==================================================================================================
Total params: 396,502
Trainable params: 396,502
Non-trainable params: 0
__________________________________________________________________________________________________
None
Train on 320835 samples, validate on 35649 samples
Epoch 1/20
 - 342s - loss: 0.0700 - acc: 0.9804 - val_loss: 0.0894 - val_acc: 0.9996
…
	Training (Important) : 2305, Test : 3117
	MWEs in tain : 1396, occurrences : 2518
	Impotant words in tain : 1131
	MWE length mean : 2.22
	Seen MWEs : 340 (61 %)
	New MWEs : 213 (38 %)
==================================================================================================
__________________________________________________________________________________________________
Layer (type)                    Output Shape         Param #     Connected to                     
==================================================================================================
input_27 (InputLayer)           (None, 7)            0                                            
__________________________________________________________________________________________________
input_28 (InputLayer)           (None, 7)            0                                            
__________________________________________________________________________________________________
embedding_27 (Embedding)        (None, 7, 269)       305046      input_27[0][0]                   
__________________________________________________________________________________________________
embedding_28 (Embedding)        (None, 7, 13)        247         input_28[0][0]                   
__________________________________________________________________________________________________
gru_27 (GRU)                    (None, 66)           66528       embedding_27[0][0]               
__________________________________________________________________________________________________
gru_28 (GRU)                    (None, 29)           3741        embedding_28[0][0]               
__________________________________________________________________________________________________
dropout_40 (Dropout)            (None, 66)           0           gru_27[0][0]                     
__________________________________________________________________________________________________
dropout_41 (Dropout)            (None, 29)           0           gru_28[0][0]                     
__________________________________________________________________________________________________
concatenate_14 (Concatenate)    (None, 95)           0           dropout_40[0][0]                 
                                                                 dropout_41[0][0]                 
__________________________________________________________________________________________________
dense_27 (Dense)                (None, 91)           8736        concatenate_14[0][0]             
__________________________________________________________________________________________________
dropout_42 (Dropout)            (None, 91)           0           dense_27[0][0]                   
__________________________________________________________________________________________________
dense_28 (Dense)                (None, 4)            368         dropout_42[0][0]                 
==================================================================================================
Total params: 384,666
Trainable params: 384,666
Non-trainable params: 0
__________________________________________________________________________________________________
None
Train on 217231 samples, validate on 24137 samples
Epoch 1/20
 - 232s - loss: 0.0786 - acc: 0.9765 - val_loss: 0.1041 - val_acc: 0.9988
…
	Training (Important) : 3585, Test : 1320
	MWEs in tain : 1790, occurrences : 4856
	Impotant words in tain : 1200
	MWE length mean : 2.06
	Seen MWEs : 345 (67 %)
	New MWEs : 165 (32 %)
==================================================================================================
__________________________________________________________________________________________________
Layer (type)                    Output Shape         Param #     Connected to                     
==================================================================================================
input_29 (InputLayer)           (None, 7)            0                                            
__________________________________________________________________________________________________
input_30 (InputLayer)           (None, 7)            0                                            
__________________________________________________________________________________________________
embedding_29 (Embedding)        (None, 7, 269)       323607      input_29[0][0]                   
__________________________________________________________________________________________________
embedding_30 (Embedding)        (None, 7, 13)        182         input_30[0][0]                   
__________________________________________________________________________________________________
gru_29 (GRU)                    (None, 66)           66528       embedding_29[0][0]               
__________________________________________________________________________________________________
gru_30 (GRU)                    (None, 29)           3741        embedding_30[0][0]               
__________________________________________________________________________________________________
dropout_43 (Dropout)            (None, 66)           0           gru_29[0][0]                     
__________________________________________________________________________________________________
dropout_44 (Dropout)            (None, 29)           0           gru_30[0][0]                     
__________________________________________________________________________________________________
concatenate_15 (Concatenate)    (None, 95)           0           dropout_43[0][0]                 
                                                                 dropout_44[0][0]                 
__________________________________________________________________________________________________
dense_29 (Dense)                (None, 91)           8736        concatenate_15[0][0]             
__________________________________________________________________________________________________
dropout_45 (Dropout)            (None, 91)           0           dense_29[0][0]                   
__________________________________________________________________________________________________
dense_30 (Dense)                (None, 4)            368         dropout_45[0][0]                 
==================================================================================================
Total params: 403,162
Trainable params: 403,162
Non-trainable params: 0
__________________________________________________________________________________________________
None
Train on 432446 samples, validate on 48050 samples
Epoch 1/20
 - 434s - loss: 0.0716 - acc: 0.9786 - val_loss: 0.0548 - val_acc: 0.9998
…
	Training (Important) : 3124, Test : 1954
	MWEs in tain : 1372, occurrences : 3583
	Impotant words in tain : 1175
	MWE length mean : 2.13
	Seen MWEs : 386 (57 %)
	New MWEs : 284 (42 %)
==================================================================================================
__________________________________________________________________________________________________
Layer (type)                    Output Shape         Param #     Connected to                     
==================================================================================================
input_31 (InputLayer)           (None, 7)            0                                            
__________________________________________________________________________________________________
input_32 (InputLayer)           (None, 7)            0                                            
__________________________________________________________________________________________________
embedding_31 (Embedding)        (None, 7, 205)       241490      input_31[0][0]                   
__________________________________________________________________________________________________
embedding_32 (Embedding)        (None, 7, 59)        1121        input_32[0][0]                   
__________________________________________________________________________________________________
gru_31 (GRU)                    (None, 65)           52845       embedding_31[0][0]               
__________________________________________________________________________________________________
gru_32 (GRU)                    (None, 25)           6375        embedding_32[0][0]               
__________________________________________________________________________________________________
dropout_46 (Dropout)            (None, 65)           0           gru_31[0][0]                     
__________________________________________________________________________________________________
dropout_47 (Dropout)            (None, 25)           0           gru_32[0][0]                     
__________________________________________________________________________________________________
concatenate_16 (Concatenate)    (None, 90)           0           dropout_46[0][0]                 
                                                                 dropout_47[0][0]                 
__________________________________________________________________________________________________
dense_31 (Dense)                (None, 78)           7098        concatenate_16[0][0]             
__________________________________________________________________________________________________
dropout_48 (Dropout)            (None, 78)           0           dense_31[0][0]                   
__________________________________________________________________________________________________
dense_32 (Dense)                (None, 4)            316         dropout_48[0][0]                 
==================================================================================================
Total params: 309,245
Trainable params: 309,245
Non-trainable params: 0
__________________________________________________________________________________________________
None
Train on 320835 samples, validate on 35649 samples
Epoch 1/20
 - 44s - loss: 0.0818 - acc: 0.9759 - val_loss: 0.0750 - val_acc: 0.9996
…
	Training (Important) : 2305, Test : 3117
	MWEs in tain : 1396, occurrences : 2518
	Impotant words in tain : 1131
	MWE length mean : 2.22
	Seen MWEs : 340 (61 %)
	New MWEs : 213 (38 %)
==================================================================================================
__________________________________________________________________________________________________
Layer (type)                    Output Shape         Param #     Connected to                     
==================================================================================================
input_33 (InputLayer)           (None, 7)            0                                            
__________________________________________________________________________________________________
input_34 (InputLayer)           (None, 7)            0                                            
__________________________________________________________________________________________________
embedding_33 (Embedding)        (None, 7, 205)       232470      input_33[0][0]                   
__________________________________________________________________________________________________
embedding_34 (Embedding)        (None, 7, 59)        1121        input_34[0][0]                   
__________________________________________________________________________________________________
gru_33 (GRU)                    (None, 65)           52845       embedding_33[0][0]               
__________________________________________________________________________________________________
gru_34 (GRU)                    (None, 25)           6375        embedding_34[0][0]               
__________________________________________________________________________________________________
dropout_49 (Dropout)            (None, 65)           0           gru_33[0][0]                     
__________________________________________________________________________________________________
dropout_50 (Dropout)            (None, 25)           0           gru_34[0][0]                     
__________________________________________________________________________________________________
concatenate_17 (Concatenate)    (None, 90)           0           dropout_49[0][0]                 
                                                                 dropout_50[0][0]                 
__________________________________________________________________________________________________
dense_33 (Dense)                (None, 78)           7098        concatenate_17[0][0]             
__________________________________________________________________________________________________
dropout_51 (Dropout)            (None, 78)           0           dense_33[0][0]                   
__________________________________________________________________________________________________
dense_34 (Dense)                (None, 4)            316         dropout_51[0][0]                 
==================================================================================================
Total params: 300,225
Trainable params: 300,225
Non-trainable params: 0
__________________________________________________________________________________________________
None
Train on 217231 samples, validate on 24137 samples
Epoch 1/20
 - 29s - loss: 0.1005 - acc: 0.9680 - val_loss: 0.0679 - val_acc: 0.9986
…
	Training (Important) : 3585, Test : 1320
	MWEs in tain : 1790, occurrences : 4856
	Impotant words in tain : 1200
	MWE length mean : 2.06
	Seen MWEs : 345 (67 %)
	New MWEs : 165 (32 %)
==================================================================================================
__________________________________________________________________________________________________
Layer (type)                    Output Shape         Param #     Connected to                     
==================================================================================================
input_35 (InputLayer)           (None, 7)            0                                            
__________________________________________________________________________________________________
input_36 (InputLayer)           (None, 7)            0                                            
__________________________________________________________________________________________________
embedding_35 (Embedding)        (None, 7, 205)       246615      input_35[0][0]                   
__________________________________________________________________________________________________
embedding_36 (Embedding)        (None, 7, 59)        826         input_36[0][0]                   
__________________________________________________________________________________________________
gru_35 (GRU)                    (None, 65)           52845       embedding_35[0][0]               
__________________________________________________________________________________________________
gru_36 (GRU)                    (None, 25)           6375        embedding_36[0][0]               
__________________________________________________________________________________________________
dropout_52 (Dropout)            (None, 65)           0           gru_35[0][0]                     
__________________________________________________________________________________________________
dropout_53 (Dropout)            (None, 25)           0           gru_36[0][0]                     
__________________________________________________________________________________________________
concatenate_18 (Concatenate)    (None, 90)           0           dropout_52[0][0]                 
                                                                 dropout_53[0][0]                 
__________________________________________________________________________________________________
dense_35 (Dense)                (None, 78)           7098        concatenate_18[0][0]             
__________________________________________________________________________________________________
dropout_54 (Dropout)            (None, 78)           0           dense_35[0][0]                   
__________________________________________________________________________________________________
dense_36 (Dense)                (None, 4)            316         dropout_54[0][0]                 
==================================================================================================
Total params: 314,075
Trainable params: 314,075
Non-trainable params: 0
__________________________________________________________________________________________________
None
Train on 432446 samples, validate on 48050 samples
Epoch 1/20
 - 57s - loss: 0.0804 - acc: 0.9751 - val_loss: 0.0938 - val_acc: 1.0000
…
	Training (Important) : 3124, Test : 1954
	MWEs in tain : 1372, occurrences : 3583
	Impotant words in tain : 1175
	MWE length mean : 2.13
	Seen MWEs : 386 (57 %)
	New MWEs : 284 (42 %)
==================================================================================================
__________________________________________________________________________________________________
Layer (type)                    Output Shape         Param #     Connected to                     
==================================================================================================
input_37 (InputLayer)           (None, 7)            0                                            
__________________________________________________________________________________________________
input_38 (InputLayer)           (None, 7)            0                                            
__________________________________________________________________________________________________
embedding_37 (Embedding)        (None, 7, 364)       428792      input_37[0][0]                   
__________________________________________________________________________________________________
embedding_38 (Embedding)        (None, 7, 85)        1615        input_38[0][0]                   
__________________________________________________________________________________________________
gru_37 (GRU)                    (None, 55)           69300       embedding_37[0][0]               
__________________________________________________________________________________________________
gru_38 (GRU)                    (None, 21)           6741        embedding_38[0][0]               
__________________________________________________________________________________________________
dropout_55 (Dropout)            (None, 55)           0           gru_37[0][0]                     
__________________________________________________________________________________________________
dropout_56 (Dropout)            (None, 21)           0           gru_38[0][0]                     
__________________________________________________________________________________________________
concatenate_19 (Concatenate)    (None, 76)           0           dropout_55[0][0]                 
                                                                 dropout_56[0][0]                 
__________________________________________________________________________________________________
dense_37 (Dense)                (None, 69)           5313        concatenate_19[0][0]             
__________________________________________________________________________________________________
dropout_57 (Dropout)            (None, 69)           0           dense_37[0][0]                   
__________________________________________________________________________________________________
dense_38 (Dense)                (None, 4)            280         dropout_57[0][0]                 
==================================================================================================
Total params: 512,041
Trainable params: 512,041
Non-trainable params: 0
__________________________________________________________________________________________________
None
Train on 320835 samples, validate on 35649 samples
Epoch 1/20
 - 163s - loss: 0.0735 - acc: 0.9791 - val_loss: 0.0714 - val_acc: 0.9998
…
	Training (Important) : 2305, Test : 3117
	MWEs in tain : 1396, occurrences : 2518
	Impotant words in tain : 1131
	MWE length mean : 2.22
	Seen MWEs : 340 (61 %)
	New MWEs : 213 (38 %)
==================================================================================================
__________________________________________________________________________________________________
Layer (type)                    Output Shape         Param #     Connected to                     
==================================================================================================
input_39 (InputLayer)           (None, 7)            0                                            
__________________________________________________________________________________________________
input_40 (InputLayer)           (None, 7)            0                                            
__________________________________________________________________________________________________
embedding_39 (Embedding)        (None, 7, 364)       412776      input_39[0][0]                   
__________________________________________________________________________________________________
embedding_40 (Embedding)        (None, 7, 85)        1615        input_40[0][0]                   
__________________________________________________________________________________________________
gru_39 (GRU)                    (None, 55)           69300       embedding_39[0][0]               
__________________________________________________________________________________________________
gru_40 (GRU)                    (None, 21)           6741        embedding_40[0][0]               
__________________________________________________________________________________________________
dropout_58 (Dropout)            (None, 55)           0           gru_39[0][0]                     
__________________________________________________________________________________________________
dropout_59 (Dropout)            (None, 21)           0           gru_40[0][0]                     
__________________________________________________________________________________________________
concatenate_20 (Concatenate)    (None, 76)           0           dropout_58[0][0]                 
                                                                 dropout_59[0][0]                 
__________________________________________________________________________________________________
dense_39 (Dense)                (None, 69)           5313        concatenate_20[0][0]             
__________________________________________________________________________________________________
dropout_60 (Dropout)            (None, 69)           0           dense_39[0][0]                   
__________________________________________________________________________________________________
dense_40 (Dense)                (None, 4)            280         dropout_60[0][0]                 
==================================================================================================
Total params: 496,025
Trainable params: 496,025
Non-trainable params: 0
__________________________________________________________________________________________________
None
Train on 217231 samples, validate on 24137 samples
Epoch 1/20
 - 114s - loss: 0.0819 - acc: 0.9752 - val_loss: 0.0740 - val_acc: 0.9994
…
	Training (Important) : 3585, Test : 1320
	MWEs in tain : 1790, occurrences : 4856
	Impotant words in tain : 1200
	MWE length mean : 2.06
	Seen MWEs : 345 (67 %)
	New MWEs : 165 (32 %)
==================================================================================================
__________________________________________________________________________________________________
Layer (type)                    Output Shape         Param #     Connected to                     
==================================================================================================
input_41 (InputLayer)           (None, 7)            0                                            
__________________________________________________________________________________________________
input_42 (InputLayer)           (None, 7)            0                                            
__________________________________________________________________________________________________
embedding_41 (Embedding)        (None, 7, 364)       437892      input_41[0][0]                   
__________________________________________________________________________________________________
embedding_42 (Embedding)        (None, 7, 85)        1190        input_42[0][0]                   
__________________________________________________________________________________________________
gru_41 (GRU)                    (None, 55)           69300       embedding_41[0][0]               
__________________________________________________________________________________________________
gru_42 (GRU)                    (None, 21)           6741        embedding_42[0][0]               
__________________________________________________________________________________________________
dropout_61 (Dropout)            (None, 55)           0           gru_41[0][0]                     
__________________________________________________________________________________________________
dropout_62 (Dropout)            (None, 21)           0           gru_42[0][0]                     
__________________________________________________________________________________________________
concatenate_21 (Concatenate)    (None, 76)           0           dropout_61[0][0]                 
                                                                 dropout_62[0][0]                 
__________________________________________________________________________________________________
dense_41 (Dense)                (None, 69)           5313        concatenate_21[0][0]             
__________________________________________________________________________________________________
dropout_63 (Dropout)            (None, 69)           0           dense_41[0][0]                   
__________________________________________________________________________________________________
dense_42 (Dense)                (None, 4)            280         dropout_63[0][0]                 
==================================================================================================
Total params: 520,716
Trainable params: 520,716
Non-trainable params: 0
__________________________________________________________________________________________________
None
Train on 432446 samples, validate on 48050 samples
Epoch 1/20
 - 227s - loss: 0.0737 - acc: 0.9777 - val_loss: 0.0775 - val_acc: 1.0000
…
	Training (Important) : 3124, Test : 1954
	MWEs in tain : 1372, occurrences : 3583
	Impotant words in tain : 1175
	MWE length mean : 2.13
	Seen MWEs : 386 (57 %)
	New MWEs : 284 (42 %)
==================================================================================================
__________________________________________________________________________________________________
Layer (type)                    Output Shape         Param #     Connected to                     
==================================================================================================
input_43 (InputLayer)           (None, 7)            0                                            
__________________________________________________________________________________________________
input_44 (InputLayer)           (None, 7)            0                                            
__________________________________________________________________________________________________
embedding_43 (Embedding)        (None, 7, 403)       474734      input_43[0][0]                   
__________________________________________________________________________________________________
embedding_44 (Embedding)        (None, 7, 39)        741         input_44[0][0]                   
__________________________________________________________________________________________________
gru_43 (GRU)                    (None, 65)           91455       embedding_43[0][0]               
__________________________________________________________________________________________________
gru_44 (GRU)                    (None, 32)           6912        embedding_44[0][0]               
__________________________________________________________________________________________________
dropout_64 (Dropout)            (None, 65)           0           gru_43[0][0]                     
__________________________________________________________________________________________________
dropout_65 (Dropout)            (None, 32)           0           gru_44[0][0]                     
__________________________________________________________________________________________________
concatenate_22 (Concatenate)    (None, 97)           0           dropout_64[0][0]                 
                                                                 dropout_65[0][0]                 
__________________________________________________________________________________________________
dense_43 (Dense)                (None, 43)           4214        concatenate_22[0][0]             
__________________________________________________________________________________________________
dropout_66 (Dropout)            (None, 43)           0           dense_43[0][0]                   
__________________________________________________________________________________________________
dense_44 (Dense)                (None, 4)            176         dropout_66[0][0]                 
==================================================================================================
Total params: 578,232
Trainable params: 578,232
Non-trainable params: 0
__________________________________________________________________________________________________
None
Train on 320835 samples, validate on 35649 samples
Epoch 1/20
 - 42s - loss: 0.0806 - acc: 0.9763 - val_loss: 0.0805 - val_acc: 0.9999
…
	Training (Important) : 2305, Test : 3117
	MWEs in tain : 1396, occurrences : 2518
	Impotant words in tain : 1131
	MWE length mean : 2.22
	Seen MWEs : 340 (61 %)
	New MWEs : 213 (38 %)
==================================================================================================
__________________________________________________________________________________________________
Layer (type)                    Output Shape         Param #     Connected to                     
==================================================================================================
input_45 (InputLayer)           (None, 7)            0                                            
__________________________________________________________________________________________________
input_46 (InputLayer)           (None, 7)            0                                            
__________________________________________________________________________________________________
embedding_45 (Embedding)        (None, 7, 403)       457002      input_45[0][0]                   
__________________________________________________________________________________________________
embedding_46 (Embedding)        (None, 7, 39)        741         input_46[0][0]                   
__________________________________________________________________________________________________
gru_45 (GRU)                    (None, 65)           91455       embedding_45[0][0]               
__________________________________________________________________________________________________
gru_46 (GRU)                    (None, 32)           6912        embedding_46[0][0]               
__________________________________________________________________________________________________
dropout_67 (Dropout)            (None, 65)           0           gru_45[0][0]                     
__________________________________________________________________________________________________
dropout_68 (Dropout)            (None, 32)           0           gru_46[0][0]                     
__________________________________________________________________________________________________
concatenate_23 (Concatenate)    (None, 97)           0           dropout_67[0][0]                 
                                                                 dropout_68[0][0]                 
__________________________________________________________________________________________________
dense_45 (Dense)                (None, 43)           4214        concatenate_23[0][0]             
__________________________________________________________________________________________________
dropout_69 (Dropout)            (None, 43)           0           dense_45[0][0]                   
__________________________________________________________________________________________________
dense_46 (Dense)                (None, 4)            176         dropout_69[0][0]                 
==================================================================================================
Total params: 560,500
Trainable params: 560,500
Non-trainable params: 0
__________________________________________________________________________________________________
None
Train on 217231 samples, validate on 24137 samples
Epoch 1/20
 - 29s - loss: 0.0944 - acc: 0.9706 - val_loss: 0.0857 - val_acc: 0.9994
…
	Training (Important) : 3585, Test : 1320
	MWEs in tain : 1790, occurrences : 4856
	Impotant words in tain : 1200
	MWE length mean : 2.06
	Seen MWEs : 345 (67 %)
	New MWEs : 165 (32 %)
==================================================================================================
__________________________________________________________________________________________________
Layer (type)                    Output Shape         Param #     Connected to                     
==================================================================================================
input_47 (InputLayer)           (None, 7)            0                                            
__________________________________________________________________________________________________
input_48 (InputLayer)           (None, 7)            0                                            
__________________________________________________________________________________________________
embedding_47 (Embedding)        (None, 7, 403)       484809      input_47[0][0]                   
__________________________________________________________________________________________________
embedding_48 (Embedding)        (None, 7, 39)        546         input_48[0][0]                   
__________________________________________________________________________________________________
gru_47 (GRU)                    (None, 65)           91455       embedding_47[0][0]               
__________________________________________________________________________________________________
gru_48 (GRU)                    (None, 32)           6912        embedding_48[0][0]               
__________________________________________________________________________________________________
dropout_70 (Dropout)            (None, 65)           0           gru_47[0][0]                     
__________________________________________________________________________________________________
dropout_71 (Dropout)            (None, 32)           0           gru_48[0][0]                     
__________________________________________________________________________________________________
concatenate_24 (Concatenate)    (None, 97)           0           dropout_70[0][0]                 
                                                                 dropout_71[0][0]                 
__________________________________________________________________________________________________
dense_47 (Dense)                (None, 43)           4214        concatenate_24[0][0]             
__________________________________________________________________________________________________
dropout_72 (Dropout)            (None, 43)           0           dense_47[0][0]                   
__________________________________________________________________________________________________
dense_48 (Dense)                (None, 4)            176         dropout_72[0][0]                 
==================================================================================================
Total params: 588,112
Trainable params: 588,112
Non-trainable params: 0
__________________________________________________________________________________________________
None
Train on 432446 samples, validate on 48050 samples
Epoch 1/20
 - 57s - loss: 0.0804 - acc: 0.9747 - val_loss: 0.0505 - val_acc: 1.0000
…
	Training (Important) : 3124, Test : 1954
	MWEs in tain : 1372, occurrences : 3583
	Impotant words in tain : 1175
	MWE length mean : 2.13
	Seen MWEs : 386 (57 %)
	New MWEs : 284 (42 %)
==================================================================================================
__________________________________________________________________________________________________
Layer (type)                    Output Shape         Param #     Connected to                     
==================================================================================================
input_49 (InputLayer)           (None, 7)            0                                            
__________________________________________________________________________________________________
input_50 (InputLayer)           (None, 7)            0                                            
__________________________________________________________________________________________________
embedding_49 (Embedding)        (None, 7, 408)       480624      input_49[0][0]                   
__________________________________________________________________________________________________
embedding_50 (Embedding)        (None, 7, 29)        551         input_50[0][0]                   
__________________________________________________________________________________________________
gru_49 (GRU)                    (None, 5)            6210        embedding_49[0][0]               
__________________________________________________________________________________________________
gru_50 (GRU)                    (None, 20)           3000        embedding_50[0][0]               
__________________________________________________________________________________________________
dropout_73 (Dropout)            (None, 5)            0           gru_49[0][0]                     
__________________________________________________________________________________________________
dropout_74 (Dropout)            (None, 20)           0           gru_50[0][0]                     
__________________________________________________________________________________________________
concatenate_25 (Concatenate)    (None, 25)           0           dropout_73[0][0]                 
                                                                 dropout_74[0][0]                 
__________________________________________________________________________________________________
dense_49 (Dense)                (None, 46)           1196        concatenate_25[0][0]             
__________________________________________________________________________________________________
dropout_75 (Dropout)            (None, 46)           0           dense_49[0][0]                   
__________________________________________________________________________________________________
dense_50 (Dense)                (None, 4)            188         dropout_75[0][0]                 
==================================================================================================
Total params: 491,769
Trainable params: 491,769
Non-trainable params: 0
__________________________________________________________________________________________________
None
Train on 320835 samples, validate on 35649 samples
Epoch 1/20
 - 170s - loss: 0.0862 - acc: 0.9758 - val_loss: 0.0723 - val_acc: 0.9979
…
	Training (Important) : 2305, Test : 3117
	MWEs in tain : 1396, occurrences : 2518
	Impotant words in tain : 1131
	MWE length mean : 2.22
	Seen MWEs : 340 (61 %)
	New MWEs : 213 (38 %)
==================================================================================================
__________________________________________________________________________________________________
Layer (type)                    Output Shape         Param #     Connected to                     
==================================================================================================
input_51 (InputLayer)           (None, 7)            0                                            
__________________________________________________________________________________________________
input_52 (InputLayer)           (None, 7)            0                                            
__________________________________________________________________________________________________
embedding_51 (Embedding)        (None, 7, 408)       462672      input_51[0][0]                   
__________________________________________________________________________________________________
embedding_52 (Embedding)        (None, 7, 29)        551         input_52[0][0]                   
__________________________________________________________________________________________________
gru_51 (GRU)                    (None, 5)            6210        embedding_51[0][0]               
__________________________________________________________________________________________________
gru_52 (GRU)                    (None, 20)           3000        embedding_52[0][0]               
__________________________________________________________________________________________________
dropout_76 (Dropout)            (None, 5)            0           gru_51[0][0]                     
__________________________________________________________________________________________________
dropout_77 (Dropout)            (None, 20)           0           gru_52[0][0]                     
__________________________________________________________________________________________________
concatenate_26 (Concatenate)    (None, 25)           0           dropout_76[0][0]                 
                                                                 dropout_77[0][0]                 
__________________________________________________________________________________________________
dense_51 (Dense)                (None, 46)           1196        concatenate_26[0][0]             
__________________________________________________________________________________________________
dropout_78 (Dropout)            (None, 46)           0           dense_51[0][0]                   
__________________________________________________________________________________________________
dense_52 (Dense)                (None, 4)            188         dropout_78[0][0]                 
==================================================================================================
Total params: 473,817
Trainable params: 473,817
Non-trainable params: 0
__________________________________________________________________________________________________
None
Train on 217231 samples, validate on 24137 samples
Epoch 1/20
 - 115s - loss: 0.1018 - acc: 0.9691 - val_loss: 0.0800 - val_acc: 0.9981
…
	Training (Important) : 3585, Test : 1320
	MWEs in tain : 1790, occurrences : 4856
	Impotant words in tain : 1200
	MWE length mean : 2.06
	Seen MWEs : 345 (67 %)
	New MWEs : 165 (32 %)
==================================================================================================
__________________________________________________________________________________________________
Layer (type)                    Output Shape         Param #     Connected to                     
==================================================================================================
input_53 (InputLayer)           (None, 7)            0                                            
__________________________________________________________________________________________________
input_54 (InputLayer)           (None, 7)            0                                            
__________________________________________________________________________________________________
embedding_53 (Embedding)        (None, 7, 408)       490824      input_53[0][0]                   
__________________________________________________________________________________________________
embedding_54 (Embedding)        (None, 7, 29)        406         input_54[0][0]                   
__________________________________________________________________________________________________
gru_53 (GRU)                    (None, 5)            6210        embedding_53[0][0]               
__________________________________________________________________________________________________
gru_54 (GRU)                    (None, 20)           3000        embedding_54[0][0]               
__________________________________________________________________________________________________
dropout_79 (Dropout)            (None, 5)            0           gru_53[0][0]                     
__________________________________________________________________________________________________
dropout_80 (Dropout)            (None, 20)           0           gru_54[0][0]                     
__________________________________________________________________________________________________
concatenate_27 (Concatenate)    (None, 25)           0           dropout_79[0][0]                 
                                                                 dropout_80[0][0]                 
__________________________________________________________________________________________________
dense_53 (Dense)                (None, 46)           1196        concatenate_27[0][0]             
__________________________________________________________________________________________________
dropout_81 (Dropout)            (None, 46)           0           dense_53[0][0]                   
__________________________________________________________________________________________________
dense_54 (Dense)                (None, 4)            188         dropout_81[0][0]                 
==================================================================================================
Total params: 501,824
Trainable params: 501,824
Non-trainable params: 0
__________________________________________________________________________________________________
None
Train on 432446 samples, validate on 48050 samples
Epoch 1/20
 - 229s - loss: 0.0881 - acc: 0.9734 - val_loss: 0.0726 - val_acc: 1.0000
…
	Training (Important) : 3124, Test : 1954
	MWEs in tain : 1372, occurrences : 3583
	Impotant words in tain : 1175
	MWE length mean : 2.13
	Seen MWEs : 386 (57 %)
	New MWEs : 284 (42 %)
==================================================================================================
__________________________________________________________________________________________________
Layer (type)                    Output Shape         Param #     Connected to                     
==================================================================================================
input_55 (InputLayer)           (None, 7)            0                                            
__________________________________________________________________________________________________
input_56 (InputLayer)           (None, 7)            0                                            
__________________________________________________________________________________________________
embedding_55 (Embedding)        (None, 7, 260)       306280      input_55[0][0]                   
__________________________________________________________________________________________________
embedding_56 (Embedding)        (None, 7, 12)        228         input_56[0][0]                   
__________________________________________________________________________________________________
gru_55 (GRU)                    (None, 66)           64746       embedding_55[0][0]               
__________________________________________________________________________________________________
gru_56 (GRU)                    (None, 29)           3654        embedding_56[0][0]               
__________________________________________________________________________________________________
dropout_82 (Dropout)            (None, 66)           0           gru_55[0][0]                     
__________________________________________________________________________________________________
dropout_83 (Dropout)            (None, 29)           0           gru_56[0][0]                     
__________________________________________________________________________________________________
concatenate_28 (Concatenate)    (None, 95)           0           dropout_82[0][0]                 
                                                                 dropout_83[0][0]                 
__________________________________________________________________________________________________
dense_55 (Dense)                (None, 12)           1152        concatenate_28[0][0]             
__________________________________________________________________________________________________
dropout_84 (Dropout)            (None, 12)           0           dense_55[0][0]                   
__________________________________________________________________________________________________
dense_56 (Dense)                (None, 4)            52          dropout_84[0][0]                 
==================================================================================================
Total params: 376,112
Trainable params: 376,112
Non-trainable params: 0
__________________________________________________________________________________________________
None
Train on 320835 samples, validate on 35649 samples
Epoch 1/20
 - 340s - loss: 0.0964 - acc: 0.9713 - val_loss: 0.0814 - val_acc: 0.9999
…
	Training (Important) : 2305, Test : 3117
	MWEs in tain : 1396, occurrences : 2518
	Impotant words in tain : 1131
	MWE length mean : 2.22
	Seen MWEs : 340 (61 %)
	New MWEs : 213 (38 %)
==================================================================================================
__________________________________________________________________________________________________
Layer (type)                    Output Shape         Param #     Connected to                     
==================================================================================================
input_57 (InputLayer)           (None, 7)            0                                            
__________________________________________________________________________________________________
input_58 (InputLayer)           (None, 7)            0                                            
__________________________________________________________________________________________________
embedding_57 (Embedding)        (None, 7, 260)       294840      input_57[0][0]                   
__________________________________________________________________________________________________
embedding_58 (Embedding)        (None, 7, 12)        228         input_58[0][0]                   
__________________________________________________________________________________________________
gru_57 (GRU)                    (None, 66)           64746       embedding_57[0][0]               
__________________________________________________________________________________________________
gru_58 (GRU)                    (None, 29)           3654        embedding_58[0][0]               
__________________________________________________________________________________________________
dropout_85 (Dropout)            (None, 66)           0           gru_57[0][0]                     
__________________________________________________________________________________________________
dropout_86 (Dropout)            (None, 29)           0           gru_58[0][0]                     
__________________________________________________________________________________________________
concatenate_29 (Concatenate)    (None, 95)           0           dropout_85[0][0]                 
                                                                 dropout_86[0][0]                 
__________________________________________________________________________________________________
dense_57 (Dense)                (None, 12)           1152        concatenate_29[0][0]             
__________________________________________________________________________________________________
dropout_87 (Dropout)            (None, 12)           0           dense_57[0][0]                   
__________________________________________________________________________________________________
dense_58 (Dense)                (None, 4)            52          dropout_87[0][0]                 
==================================================================================================
Total params: 364,672
Trainable params: 364,672
Non-trainable params: 0
__________________________________________________________________________________________________
None
Train on 217231 samples, validate on 24137 samples
Epoch 1/20
 - 232s - loss: 0.1100 - acc: 0.9666 - val_loss: 0.0954 - val_acc: 0.9997
…
	Training (Important) : 3585, Test : 1320
	MWEs in tain : 1790, occurrences : 4856
	Impotant words in tain : 1200
	MWE length mean : 2.06
	Seen MWEs : 345 (67 %)
	New MWEs : 165 (32 %)
==================================================================================================
__________________________________________________________________________________________________
Layer (type)                    Output Shape         Param #     Connected to                     
==================================================================================================
input_59 (InputLayer)           (None, 7)            0                                            
__________________________________________________________________________________________________
input_60 (InputLayer)           (None, 7)            0                                            
__________________________________________________________________________________________________
embedding_59 (Embedding)        (None, 7, 260)       312780      input_59[0][0]                   
__________________________________________________________________________________________________
embedding_60 (Embedding)        (None, 7, 12)        168         input_60[0][0]                   
__________________________________________________________________________________________________
gru_59 (GRU)                    (None, 66)           64746       embedding_59[0][0]               
__________________________________________________________________________________________________
gru_60 (GRU)                    (None, 29)           3654        embedding_60[0][0]               
__________________________________________________________________________________________________
dropout_88 (Dropout)            (None, 66)           0           gru_59[0][0]                     
__________________________________________________________________________________________________
dropout_89 (Dropout)            (None, 29)           0           gru_60[0][0]                     
__________________________________________________________________________________________________
concatenate_30 (Concatenate)    (None, 95)           0           dropout_88[0][0]                 
                                                                 dropout_89[0][0]                 
__________________________________________________________________________________________________
dense_59 (Dense)                (None, 12)           1152        concatenate_30[0][0]             
__________________________________________________________________________________________________
dropout_90 (Dropout)            (None, 12)           0           dense_59[0][0]                   
__________________________________________________________________________________________________
dense_60 (Dense)                (None, 4)            52          dropout_90[0][0]                 
==================================================================================================
Total params: 382,552
Trainable params: 382,552
Non-trainable params: 0
__________________________________________________________________________________________________
None
Train on 432446 samples, validate on 48050 samples
Epoch 1/20
 - 452s - loss: 0.0881 - acc: 0.9736 - val_loss: 0.0606 - val_acc: 1.0000
…
	Training (Important) : 3124, Test : 1954
	MWEs in tain : 1372, occurrences : 3583
	Impotant words in tain : 1175
	MWE length mean : 2.13
	Seen MWEs : 386 (57 %)
	New MWEs : 284 (42 %)
==================================================================================================
__________________________________________________________________________________________________
Layer (type)                    Output Shape         Param #     Connected to                     
==================================================================================================
input_61 (InputLayer)           (None, 7)            0                                            
__________________________________________________________________________________________________
input_62 (InputLayer)           (None, 7)            0                                            
__________________________________________________________________________________________________
embedding_61 (Embedding)        (None, 7, 307)       361646      input_61[0][0]                   
__________________________________________________________________________________________________
embedding_62 (Embedding)        (None, 7, 76)        1444        input_62[0][0]                   
__________________________________________________________________________________________________
gru_61 (GRU)                    (None, 17)           16575       embedding_61[0][0]               
__________________________________________________________________________________________________
gru_62 (GRU)                    (None, 44)           15972       embedding_62[0][0]               
__________________________________________________________________________________________________
dropout_91 (Dropout)            (None, 17)           0           gru_61[0][0]                     
__________________________________________________________________________________________________
dropout_92 (Dropout)            (None, 44)           0           gru_62[0][0]                     
__________________________________________________________________________________________________
concatenate_31 (Concatenate)    (None, 61)           0           dropout_91[0][0]                 
                                                                 dropout_92[0][0]                 
__________________________________________________________________________________________________
dense_61 (Dense)                (None, 28)           1736        concatenate_31[0][0]             
__________________________________________________________________________________________________
dropout_93 (Dropout)            (None, 28)           0           dense_61[0][0]                   
__________________________________________________________________________________________________
dense_62 (Dense)                (None, 4)            116         dropout_93[0][0]                 
==================================================================================================
Total params: 397,489
Trainable params: 397,489
Non-trainable params: 0
__________________________________________________________________________________________________
None
Train on 320835 samples, validate on 35649 samples
Epoch 1/20
 - 79s - loss: 0.0838 - acc: 0.9769 - val_loss: 0.0624 - val_acc: 0.9992
…
	Training (Important) : 2305, Test : 3117
	MWEs in tain : 1396, occurrences : 2518
	Impotant words in tain : 1131
	MWE length mean : 2.22
	Seen MWEs : 340 (61 %)
	New MWEs : 213 (38 %)
==================================================================================================
__________________________________________________________________________________________________
Layer (type)                    Output Shape         Param #     Connected to                     
==================================================================================================
input_63 (InputLayer)           (None, 7)            0                                            
__________________________________________________________________________________________________
input_64 (InputLayer)           (None, 7)            0                                            
__________________________________________________________________________________________________
embedding_63 (Embedding)        (None, 7, 307)       348138      input_63[0][0]                   
__________________________________________________________________________________________________
embedding_64 (Embedding)        (None, 7, 76)        1444        input_64[0][0]                   
__________________________________________________________________________________________________
gru_63 (GRU)                    (None, 17)           16575       embedding_63[0][0]               
__________________________________________________________________________________________________
gru_64 (GRU)                    (None, 44)           15972       embedding_64[0][0]               
__________________________________________________________________________________________________
dropout_94 (Dropout)            (None, 17)           0           gru_63[0][0]                     
__________________________________________________________________________________________________
dropout_95 (Dropout)            (None, 44)           0           gru_64[0][0]                     
__________________________________________________________________________________________________
concatenate_32 (Concatenate)    (None, 61)           0           dropout_94[0][0]                 
                                                                 dropout_95[0][0]                 
__________________________________________________________________________________________________
dense_63 (Dense)                (None, 28)           1736        concatenate_32[0][0]             
__________________________________________________________________________________________________
dropout_96 (Dropout)            (None, 28)           0           dense_63[0][0]                   
__________________________________________________________________________________________________
dense_64 (Dense)                (None, 4)            116         dropout_96[0][0]                 
==================================================================================================
Total params: 383,981
Trainable params: 383,981
Non-trainable params: 0
__________________________________________________________________________________________________
None
Train on 217231 samples, validate on 24137 samples
Epoch 1/20
 - 58s - loss: 0.0967 - acc: 0.9712 - val_loss: 0.0896 - val_acc: 0.9983
…
	Training (Important) : 3585, Test : 1320
	MWEs in tain : 1790, occurrences : 4856
	Impotant words in tain : 1200
	MWE length mean : 2.06
	Seen MWEs : 345 (67 %)
	New MWEs : 165 (32 %)
==================================================================================================
__________________________________________________________________________________________________
Layer (type)                    Output Shape         Param #     Connected to                     
==================================================================================================
input_65 (InputLayer)           (None, 7)            0                                            
__________________________________________________________________________________________________
input_66 (InputLayer)           (None, 7)            0                                            
__________________________________________________________________________________________________
embedding_65 (Embedding)        (None, 7, 307)       369321      input_65[0][0]                   
__________________________________________________________________________________________________
embedding_66 (Embedding)        (None, 7, 76)        1064        input_66[0][0]                   
__________________________________________________________________________________________________
gru_65 (GRU)                    (None, 17)           16575       embedding_65[0][0]               
__________________________________________________________________________________________________
gru_66 (GRU)                    (None, 44)           15972       embedding_66[0][0]               
__________________________________________________________________________________________________
dropout_97 (Dropout)            (None, 17)           0           gru_65[0][0]                     
__________________________________________________________________________________________________
dropout_98 (Dropout)            (None, 44)           0           gru_66[0][0]                     
__________________________________________________________________________________________________
concatenate_33 (Concatenate)    (None, 61)           0           dropout_97[0][0]                 
                                                                 dropout_98[0][0]                 
__________________________________________________________________________________________________
dense_65 (Dense)                (None, 28)           1736        concatenate_33[0][0]             
__________________________________________________________________________________________________
dropout_99 (Dropout)            (None, 28)           0           dense_65[0][0]                   
__________________________________________________________________________________________________
dense_66 (Dense)                (None, 4)            116         dropout_99[0][0]                 
==================================================================================================
Total params: 404,784
Trainable params: 404,784
Non-trainable params: 0
__________________________________________________________________________________________________
None
Train on 432446 samples, validate on 48050 samples
Epoch 1/20
 - 116s - loss: 0.0850 - acc: 0.9749 - val_loss: 0.0530 - val_acc: 1.0000
…
	Training (Important) : 3124, Test : 1954
	MWEs in tain : 1372, occurrences : 3583
	Impotant words in tain : 1175
	MWE length mean : 2.13
	Seen MWEs : 386 (57 %)
	New MWEs : 284 (42 %)
==================================================================================================
__________________________________________________________________________________________________
Layer (type)                    Output Shape         Param #     Connected to                     
==================================================================================================
input_67 (InputLayer)           (None, 7)            0                                            
__________________________________________________________________________________________________
input_68 (InputLayer)           (None, 7)            0                                            
__________________________________________________________________________________________________
embedding_67 (Embedding)        (None, 7, 282)       332196      input_67[0][0]                   
__________________________________________________________________________________________________
embedding_68 (Embedding)        (None, 7, 29)        551         input_68[0][0]                   
__________________________________________________________________________________________________
gru_67 (GRU)                    (None, 26)           24102       embedding_67[0][0]               
__________________________________________________________________________________________________
gru_68 (GRU)                    (None, 48)           11232       embedding_68[0][0]               
__________________________________________________________________________________________________
dropout_100 (Dropout)           (None, 26)           0           gru_67[0][0]                     
__________________________________________________________________________________________________
dropout_101 (Dropout)           (None, 48)           0           gru_68[0][0]                     
__________________________________________________________________________________________________
concatenate_34 (Concatenate)    (None, 74)           0           dropout_100[0][0]                
                                                                 dropout_101[0][0]                
__________________________________________________________________________________________________
dense_67 (Dense)                (None, 49)           3675        concatenate_34[0][0]             
__________________________________________________________________________________________________
dropout_102 (Dropout)           (None, 49)           0           dense_67[0][0]                   
__________________________________________________________________________________________________
dense_68 (Dense)                (None, 4)            200         dropout_102[0][0]                
==================================================================================================
Total params: 371,956
Trainable params: 371,956
Non-trainable params: 0
__________________________________________________________________________________________________
None
Train on 320835 samples, validate on 35649 samples
Epoch 1/20
 - 340s - loss: 0.0717 - acc: 0.9797 - val_loss: 0.0625 - val_acc: 1.0000
…
	Training (Important) : 2305, Test : 3117
	MWEs in tain : 1396, occurrences : 2518
	Impotant words in tain : 1131
	MWE length mean : 2.22
	Seen MWEs : 340 (61 %)
	New MWEs : 213 (38 %)
==================================================================================================
__________________________________________________________________________________________________
Layer (type)                    Output Shape         Param #     Connected to                     
==================================================================================================
input_69 (InputLayer)           (None, 7)            0                                            
__________________________________________________________________________________________________
input_70 (InputLayer)           (None, 7)            0                                            
__________________________________________________________________________________________________
embedding_69 (Embedding)        (None, 7, 282)       319788      input_69[0][0]                   
__________________________________________________________________________________________________
embedding_70 (Embedding)        (None, 7, 29)        551         input_70[0][0]                   
__________________________________________________________________________________________________
gru_69 (GRU)                    (None, 26)           24102       embedding_69[0][0]               
__________________________________________________________________________________________________
gru_70 (GRU)                    (None, 48)           11232       embedding_70[0][0]               
__________________________________________________________________________________________________
dropout_103 (Dropout)           (None, 26)           0           gru_69[0][0]                     
__________________________________________________________________________________________________
dropout_104 (Dropout)           (None, 48)           0           gru_70[0][0]                     
__________________________________________________________________________________________________
concatenate_35 (Concatenate)    (None, 74)           0           dropout_103[0][0]                
                                                                 dropout_104[0][0]                
__________________________________________________________________________________________________
dense_69 (Dense)                (None, 49)           3675        concatenate_35[0][0]             
__________________________________________________________________________________________________
dropout_105 (Dropout)           (None, 49)           0           dense_69[0][0]                   
__________________________________________________________________________________________________
dense_70 (Dense)                (None, 4)            200         dropout_105[0][0]                
==================================================================================================
Total params: 359,548
Trainable params: 359,548
Non-trainable params: 0
__________________________________________________________________________________________________
None
Train on 217231 samples, validate on 24137 samples
Epoch 1/20
 - 227s - loss: 0.0830 - acc: 0.9752 - val_loss: 0.0567 - val_acc: 0.9988
…
	Training (Important) : 3585, Test : 1320
	MWEs in tain : 1790, occurrences : 4856
	Impotant words in tain : 1200
	MWE length mean : 2.06
	Seen MWEs : 345 (67 %)
	New MWEs : 165 (32 %)
==================================================================================================
__________________________________________________________________________________________________
Layer (type)                    Output Shape         Param #     Connected to                     
==================================================================================================
input_71 (InputLayer)           (None, 7)            0                                            
__________________________________________________________________________________________________
input_72 (InputLayer)           (None, 7)            0                                            
__________________________________________________________________________________________________
embedding_71 (Embedding)        (None, 7, 282)       339246      input_71[0][0]                   
__________________________________________________________________________________________________
embedding_72 (Embedding)        (None, 7, 29)        406         input_72[0][0]                   
__________________________________________________________________________________________________
gru_71 (GRU)                    (None, 26)           24102       embedding_71[0][0]               
__________________________________________________________________________________________________
gru_72 (GRU)                    (None, 48)           11232       embedding_72[0][0]               
__________________________________________________________________________________________________
dropout_106 (Dropout)           (None, 26)           0           gru_71[0][0]                     
__________________________________________________________________________________________________
dropout_107 (Dropout)           (None, 48)           0           gru_72[0][0]                     
__________________________________________________________________________________________________
concatenate_36 (Concatenate)    (None, 74)           0           dropout_106[0][0]                
                                                                 dropout_107[0][0]                
__________________________________________________________________________________________________
dense_71 (Dense)                (None, 49)           3675        concatenate_36[0][0]             
__________________________________________________________________________________________________
dropout_108 (Dropout)           (None, 49)           0           dense_71[0][0]                   
__________________________________________________________________________________________________
dense_72 (Dense)                (None, 4)            200         dropout_108[0][0]                
==================================================================================================
Total params: 378,861
Trainable params: 378,861
Non-trainable params: 0
__________________________________________________________________________________________________
None
Train on 432446 samples, validate on 48050 samples
Epoch 1/20
 - 447s - loss: 0.0715 - acc: 0.9784 - val_loss: 0.0502 - val_acc: 1.0000
…
	Training (Important) : 3124, Test : 1954
	MWEs in tain : 1372, occurrences : 3583
	Impotant words in tain : 1175
	MWE length mean : 2.13
	Seen MWEs : 386 (57 %)
	New MWEs : 284 (42 %)
==================================================================================================
__________________________________________________________________________________________________
Layer (type)                    Output Shape         Param #     Connected to                     
==================================================================================================
input_73 (InputLayer)           (None, 7)            0                                            
__________________________________________________________________________________________________
input_74 (InputLayer)           (None, 7)            0                                            
__________________________________________________________________________________________________
embedding_73 (Embedding)        (None, 7, 413)       486514      input_73[0][0]                   
__________________________________________________________________________________________________
embedding_74 (Embedding)        (None, 7, 50)        950         input_74[0][0]                   
__________________________________________________________________________________________________
gru_73 (GRU)                    (None, 6)            7560        embedding_73[0][0]               
__________________________________________________________________________________________________
gru_74 (GRU)                    (None, 43)           12126       embedding_74[0][0]               
__________________________________________________________________________________________________
dropout_109 (Dropout)           (None, 6)            0           gru_73[0][0]                     
__________________________________________________________________________________________________
dropout_110 (Dropout)           (None, 43)           0           gru_74[0][0]                     
__________________________________________________________________________________________________
concatenate_37 (Concatenate)    (None, 49)           0           dropout_109[0][0]                
                                                                 dropout_110[0][0]                
__________________________________________________________________________________________________
dense_73 (Dense)                (None, 71)           3550        concatenate_37[0][0]             
__________________________________________________________________________________________________
dropout_111 (Dropout)           (None, 71)           0           dense_73[0][0]                   
__________________________________________________________________________________________________
dense_74 (Dense)                (None, 4)            288         dropout_111[0][0]                
==================================================================================================
Total params: 510,988
Trainable params: 510,988
Non-trainable params: 0
__________________________________________________________________________________________________
None
Train on 320835 samples, validate on 35649 samples
Epoch 1/20
 - 40s - loss: 0.0849 - acc: 0.9753 - val_loss: 0.1017 - val_acc: 0.9976
…
	Training (Important) : 2305, Test : 3117
	MWEs in tain : 1396, occurrences : 2518
	Impotant words in tain : 1131
	MWE length mean : 2.22
	Seen MWEs : 340 (61 %)
	New MWEs : 213 (38 %)
==================================================================================================
__________________________________________________________________________________________________
Layer (type)                    Output Shape         Param #     Connected to                     
==================================================================================================
input_75 (InputLayer)           (None, 7)            0                                            
__________________________________________________________________________________________________
input_76 (InputLayer)           (None, 7)            0                                            
__________________________________________________________________________________________________
embedding_75 (Embedding)        (None, 7, 413)       468342      input_75[0][0]                   
__________________________________________________________________________________________________
embedding_76 (Embedding)        (None, 7, 50)        950         input_76[0][0]                   
__________________________________________________________________________________________________
gru_75 (GRU)                    (None, 6)            7560        embedding_75[0][0]               
__________________________________________________________________________________________________
gru_76 (GRU)                    (None, 43)           12126       embedding_76[0][0]               
__________________________________________________________________________________________________
dropout_112 (Dropout)           (None, 6)            0           gru_75[0][0]                     
__________________________________________________________________________________________________
dropout_113 (Dropout)           (None, 43)           0           gru_76[0][0]                     
__________________________________________________________________________________________________
concatenate_38 (Concatenate)    (None, 49)           0           dropout_112[0][0]                
                                                                 dropout_113[0][0]                
__________________________________________________________________________________________________
dense_75 (Dense)                (None, 71)           3550        concatenate_38[0][0]             
__________________________________________________________________________________________________
dropout_114 (Dropout)           (None, 71)           0           dense_75[0][0]                   
__________________________________________________________________________________________________
dense_76 (Dense)                (None, 4)            288         dropout_114[0][0]                
==================================================================================================
Total params: 492,816
Trainable params: 492,816
Non-trainable params: 0
__________________________________________________________________________________________________
None
Train on 217231 samples, validate on 24137 samples
Epoch 1/20
 - 29s - loss: 0.1024 - acc: 0.9679 - val_loss: 0.1314 - val_acc: 0.9981
…
	Training (Important) : 3585, Test : 1320
	MWEs in tain : 1790, occurrences : 4856
	Impotant words in tain : 1200
	MWE length mean : 2.06
	Seen MWEs : 345 (67 %)
	New MWEs : 165 (32 %)
==================================================================================================
__________________________________________________________________________________________________
Layer (type)                    Output Shape         Param #     Connected to                     
==================================================================================================
input_77 (InputLayer)           (None, 7)            0                                            
__________________________________________________________________________________________________
input_78 (InputLayer)           (None, 7)            0                                            
__________________________________________________________________________________________________
embedding_77 (Embedding)        (None, 7, 413)       496839      input_77[0][0]                   
__________________________________________________________________________________________________
embedding_78 (Embedding)        (None, 7, 50)        700         input_78[0][0]                   
__________________________________________________________________________________________________
gru_77 (GRU)                    (None, 6)            7560        embedding_77[0][0]               
__________________________________________________________________________________________________
gru_78 (GRU)                    (None, 43)           12126       embedding_78[0][0]               
__________________________________________________________________________________________________
dropout_115 (Dropout)           (None, 6)            0           gru_77[0][0]                     
__________________________________________________________________________________________________
dropout_116 (Dropout)           (None, 43)           0           gru_78[0][0]                     
__________________________________________________________________________________________________
concatenate_39 (Concatenate)    (None, 49)           0           dropout_115[0][0]                
                                                                 dropout_116[0][0]                
__________________________________________________________________________________________________
dense_77 (Dense)                (None, 71)           3550        concatenate_39[0][0]             
__________________________________________________________________________________________________
dropout_117 (Dropout)           (None, 71)           0           dense_77[0][0]                   
__________________________________________________________________________________________________
dense_78 (Dense)                (None, 4)            288         dropout_117[0][0]                
==================================================================================================
Total params: 521,063
Trainable params: 521,063
Non-trainable params: 0
__________________________________________________________________________________________________
None
Train on 432446 samples, validate on 48050 samples
Epoch 1/20
 - 54s - loss: 0.0862 - acc: 0.9744 - val_loss: 0.0800 - val_acc: 0.9996
…
	Training (Important) : 3124, Test : 1954
	MWEs in tain : 1372, occurrences : 3583
	Impotant words in tain : 1175
	MWE length mean : 2.13
	Seen MWEs : 386 (57 %)
	New MWEs : 284 (42 %)
==================================================================================================
__________________________________________________________________________________________________
Layer (type)                    Output Shape         Param #     Connected to                     
==================================================================================================
input_79 (InputLayer)           (None, 7)            0                                            
__________________________________________________________________________________________________
input_80 (InputLayer)           (None, 7)            0                                            
__________________________________________________________________________________________________
embedding_79 (Embedding)        (None, 7, 408)       480624      input_79[0][0]                   
__________________________________________________________________________________________________
embedding_80 (Embedding)        (None, 7, 52)        988         input_80[0][0]                   
__________________________________________________________________________________________________
gru_79 (GRU)                    (None, 50)           68850       embedding_79[0][0]               
__________________________________________________________________________________________________
gru_80 (GRU)                    (None, 40)           11160       embedding_80[0][0]               
__________________________________________________________________________________________________
dropout_118 (Dropout)           (None, 50)           0           gru_79[0][0]                     
__________________________________________________________________________________________________
dropout_119 (Dropout)           (None, 40)           0           gru_80[0][0]                     
__________________________________________________________________________________________________
concatenate_40 (Concatenate)    (None, 90)           0           dropout_118[0][0]                
                                                                 dropout_119[0][0]                
__________________________________________________________________________________________________
dense_79 (Dense)                (None, 87)           7917        concatenate_40[0][0]             
__________________________________________________________________________________________________
dropout_120 (Dropout)           (None, 87)           0           dense_79[0][0]                   
__________________________________________________________________________________________________
dense_80 (Dense)                (None, 4)            352         dropout_120[0][0]                
==================================================================================================
Total params: 569,891
Trainable params: 569,891
Non-trainable params: 0
__________________________________________________________________________________________________
None
Train on 320835 samples, validate on 35649 samples
Epoch 1/20
 - 309s - loss: 0.0714 - acc: 0.9802 - val_loss: 0.0789 - val_acc: 1.0000
…
	Training (Important) : 2305, Test : 3117
	MWEs in tain : 1396, occurrences : 2518
	Impotant words in tain : 1131
	MWE length mean : 2.22
	Seen MWEs : 340 (61 %)
	New MWEs : 213 (38 %)
==================================================================================================
__________________________________________________________________________________________________
Layer (type)                    Output Shape         Param #     Connected to                     
==================================================================================================
input_81 (InputLayer)           (None, 7)            0                                            
__________________________________________________________________________________________________
input_82 (InputLayer)           (None, 7)            0                                            
__________________________________________________________________________________________________
embedding_81 (Embedding)        (None, 7, 408)       462672      input_81[0][0]                   
__________________________________________________________________________________________________
embedding_82 (Embedding)        (None, 7, 52)        988         input_82[0][0]                   
__________________________________________________________________________________________________
gru_81 (GRU)                    (None, 50)           68850       embedding_81[0][0]               
__________________________________________________________________________________________________
gru_82 (GRU)                    (None, 40)           11160       embedding_82[0][0]               
__________________________________________________________________________________________________
dropout_121 (Dropout)           (None, 50)           0           gru_81[0][0]                     
__________________________________________________________________________________________________
dropout_122 (Dropout)           (None, 40)           0           gru_82[0][0]                     
__________________________________________________________________________________________________
concatenate_41 (Concatenate)    (None, 90)           0           dropout_121[0][0]                
                                                                 dropout_122[0][0]                
__________________________________________________________________________________________________
dense_81 (Dense)                (None, 87)           7917        concatenate_41[0][0]             
__________________________________________________________________________________________________
dropout_123 (Dropout)           (None, 87)           0           dense_81[0][0]                   
__________________________________________________________________________________________________
dense_82 (Dense)                (None, 4)            352         dropout_123[0][0]                
==================================================================================================
Total params: 551,939
Trainable params: 551,939
Non-trainable params: 0
__________________________________________________________________________________________________
None
Train on 217231 samples, validate on 24137 samples
Epoch 1/20
 - 231s - loss: 0.0819 - acc: 0.9762 - val_loss: 0.0727 - val_acc: 0.9988
…
	Training (Important) : 3585, Test : 1320
	MWEs in tain : 1790, occurrences : 4856
	Impotant words in tain : 1200
	MWE length mean : 2.06
	Seen MWEs : 345 (67 %)
	New MWEs : 165 (32 %)
==================================================================================================
__________________________________________________________________________________________________
Layer (type)                    Output Shape         Param #     Connected to                     
==================================================================================================
input_83 (InputLayer)           (None, 7)            0                                            
__________________________________________________________________________________________________
input_84 (InputLayer)           (None, 7)            0                                            
__________________________________________________________________________________________________
embedding_83 (Embedding)        (None, 7, 408)       490824      input_83[0][0]                   
__________________________________________________________________________________________________
embedding_84 (Embedding)        (None, 7, 52)        728         input_84[0][0]                   
__________________________________________________________________________________________________
gru_83 (GRU)                    (None, 50)           68850       embedding_83[0][0]               
__________________________________________________________________________________________________
gru_84 (GRU)                    (None, 40)           11160       embedding_84[0][0]               
__________________________________________________________________________________________________
dropout_124 (Dropout)           (None, 50)           0           gru_83[0][0]                     
__________________________________________________________________________________________________
dropout_125 (Dropout)           (None, 40)           0           gru_84[0][0]                     
__________________________________________________________________________________________________
concatenate_42 (Concatenate)    (None, 90)           0           dropout_124[0][0]                
                                                                 dropout_125[0][0]                
__________________________________________________________________________________________________
dense_83 (Dense)                (None, 87)           7917        concatenate_42[0][0]             
__________________________________________________________________________________________________
dropout_126 (Dropout)           (None, 87)           0           dense_83[0][0]                   
__________________________________________________________________________________________________
dense_84 (Dense)                (None, 4)            352         dropout_126[0][0]                
==================================================================================================
Total params: 579,831
Trainable params: 579,831
Non-trainable params: 0
__________________________________________________________________________________________________
None
Train on 432446 samples, validate on 48050 samples
Epoch 1/20
 - 432s - loss: 0.0716 - acc: 0.9786 - val_loss: 0.0922 - val_acc: 1.0000
…
	Training (Important) : 3124, Test : 1954
	MWEs in tain : 1372, occurrences : 3583
	Impotant words in tain : 1175
	MWE length mean : 2.13
	Seen MWEs : 386 (57 %)
	New MWEs : 284 (42 %)
==================================================================================================
__________________________________________________________________________________________________
Layer (type)                    Output Shape         Param #     Connected to                     
==================================================================================================
input_85 (InputLayer)           (None, 7)            0                                            
__________________________________________________________________________________________________
input_86 (InputLayer)           (None, 7)            0                                            
__________________________________________________________________________________________________
embedding_85 (Embedding)        (None, 7, 343)       404054      input_85[0][0]                   
__________________________________________________________________________________________________
embedding_86 (Embedding)        (None, 7, 65)        1235        input_86[0][0]                   
__________________________________________________________________________________________________
gru_85 (GRU)                    (None, 61)           74115       embedding_85[0][0]               
__________________________________________________________________________________________________
gru_86 (GRU)                    (None, 5)            1065        embedding_86[0][0]               
__________________________________________________________________________________________________
dropout_127 (Dropout)           (None, 61)           0           gru_85[0][0]                     
__________________________________________________________________________________________________
dropout_128 (Dropout)           (None, 5)            0           gru_86[0][0]                     
__________________________________________________________________________________________________
concatenate_43 (Concatenate)    (None, 66)           0           dropout_127[0][0]                
                                                                 dropout_128[0][0]                
__________________________________________________________________________________________________
dense_85 (Dense)                (None, 22)           1474        concatenate_43[0][0]             
__________________________________________________________________________________________________
dropout_129 (Dropout)           (None, 22)           0           dense_85[0][0]                   
__________________________________________________________________________________________________
dense_86 (Dense)                (None, 4)            92          dropout_129[0][0]                
==================================================================================================
Total params: 482,035
Trainable params: 482,035
Non-trainable params: 0
__________________________________________________________________________________________________
None
Train on 320835 samples, validate on 35649 samples
Epoch 1/20
 - 167s - loss: 0.0694 - acc: 0.9801 - val_loss: 0.0876 - val_acc: 0.9992
…
	Training (Important) : 2305, Test : 3117
	MWEs in tain : 1396, occurrences : 2518
	Impotant words in tain : 1131
	MWE length mean : 2.22
	Seen MWEs : 340 (61 %)
	New MWEs : 213 (38 %)
==================================================================================================
__________________________________________________________________________________________________
Layer (type)                    Output Shape         Param #     Connected to                     
==================================================================================================
input_87 (InputLayer)           (None, 7)            0                                            
__________________________________________________________________________________________________
input_88 (InputLayer)           (None, 7)            0                                            
__________________________________________________________________________________________________
embedding_87 (Embedding)        (None, 7, 343)       388962      input_87[0][0]                   
__________________________________________________________________________________________________
embedding_88 (Embedding)        (None, 7, 65)        1235        input_88[0][0]                   
__________________________________________________________________________________________________
gru_87 (GRU)                    (None, 61)           74115       embedding_87[0][0]               
__________________________________________________________________________________________________
gru_88 (GRU)                    (None, 5)            1065        embedding_88[0][0]               
__________________________________________________________________________________________________
dropout_130 (Dropout)           (None, 61)           0           gru_87[0][0]                     
__________________________________________________________________________________________________
dropout_131 (Dropout)           (None, 5)            0           gru_88[0][0]                     
__________________________________________________________________________________________________
concatenate_44 (Concatenate)    (None, 66)           0           dropout_130[0][0]                
                                                                 dropout_131[0][0]                
__________________________________________________________________________________________________
dense_87 (Dense)                (None, 22)           1474        concatenate_44[0][0]             
__________________________________________________________________________________________________
dropout_132 (Dropout)           (None, 22)           0           dense_87[0][0]                   
__________________________________________________________________________________________________
dense_88 (Dense)                (None, 4)            92          dropout_132[0][0]                
==================================================================================================
Total params: 466,943
Trainable params: 466,943
Non-trainable params: 0
__________________________________________________________________________________________________
None
Train on 217231 samples, validate on 24137 samples
Epoch 1/20
 - 116s - loss: 0.0812 - acc: 0.9752 - val_loss: 0.0981 - val_acc: 0.9993
…
	Training (Important) : 3585, Test : 1320
	MWEs in tain : 1790, occurrences : 4856
	Impotant words in tain : 1200
	MWE length mean : 2.06
	Seen MWEs : 345 (67 %)
	New MWEs : 165 (32 %)
==================================================================================================
__________________________________________________________________________________________________
Layer (type)                    Output Shape         Param #     Connected to                     
==================================================================================================
input_89 (InputLayer)           (None, 7)            0                                            
__________________________________________________________________________________________________
input_90 (InputLayer)           (None, 7)            0                                            
__________________________________________________________________________________________________
embedding_89 (Embedding)        (None, 7, 343)       412629      input_89[0][0]                   
__________________________________________________________________________________________________
embedding_90 (Embedding)        (None, 7, 65)        910         input_90[0][0]                   
__________________________________________________________________________________________________
gru_89 (GRU)                    (None, 61)           74115       embedding_89[0][0]               
__________________________________________________________________________________________________
gru_90 (GRU)                    (None, 5)            1065        embedding_90[0][0]               
__________________________________________________________________________________________________
dropout_133 (Dropout)           (None, 61)           0           gru_89[0][0]                     
__________________________________________________________________________________________________
dropout_134 (Dropout)           (None, 5)            0           gru_90[0][0]                     
__________________________________________________________________________________________________
concatenate_45 (Concatenate)    (None, 66)           0           dropout_133[0][0]                
                                                                 dropout_134[0][0]                
__________________________________________________________________________________________________
dense_89 (Dense)                (None, 22)           1474        concatenate_45[0][0]             
__________________________________________________________________________________________________
dropout_135 (Dropout)           (None, 22)           0           dense_89[0][0]                   
__________________________________________________________________________________________________
dense_90 (Dense)                (None, 4)            92          dropout_135[0][0]                
==================================================================================================
Total params: 490,285
Trainable params: 490,285
Non-trainable params: 0
__________________________________________________________________________________________________
None
Train on 432446 samples, validate on 48050 samples
Epoch 1/20
 - 216s - loss: 0.0718 - acc: 0.9779 - val_loss: 0.0685 - val_acc: 1.0000
…
	Training (Important) : 3124, Test : 1954
	MWEs in tain : 1372, occurrences : 3583
	Impotant words in tain : 1175
	MWE length mean : 2.13
	Seen MWEs : 386 (57 %)
	New MWEs : 284 (42 %)
==================================================================================================
__________________________________________________________________________________________________
Layer (type)                    Output Shape         Param #     Connected to                     
==================================================================================================
input_91 (InputLayer)           (None, 7)            0                                            
__________________________________________________________________________________________________
input_92 (InputLayer)           (None, 7)            0                                            
__________________________________________________________________________________________________
embedding_91 (Embedding)        (None, 7, 265)       312170      input_91[0][0]                   
__________________________________________________________________________________________________
embedding_92 (Embedding)        (None, 7, 25)        475         input_92[0][0]                   
__________________________________________________________________________________________________
gru_91 (GRU)                    (None, 74)           75480       embedding_91[0][0]               
__________________________________________________________________________________________________
gru_92 (GRU)                    (None, 12)           1368        embedding_92[0][0]               
__________________________________________________________________________________________________
dropout_136 (Dropout)           (None, 74)           0           gru_91[0][0]                     
__________________________________________________________________________________________________
dropout_137 (Dropout)           (None, 12)           0           gru_92[0][0]                     
__________________________________________________________________________________________________
concatenate_46 (Concatenate)    (None, 86)           0           dropout_136[0][0]                
                                                                 dropout_137[0][0]                
__________________________________________________________________________________________________
dense_91 (Dense)                (None, 81)           7047        concatenate_46[0][0]             
__________________________________________________________________________________________________
dropout_138 (Dropout)           (None, 81)           0           dense_91[0][0]                   
__________________________________________________________________________________________________
dense_92 (Dense)                (None, 4)            328         dropout_138[0][0]                
==================================================================================================
Total params: 396,868
Trainable params: 396,868
Non-trainable params: 0
__________________________________________________________________________________________________
None
Train on 320835 samples, validate on 35649 samples
Epoch 1/20
 - 172s - loss: 0.0737 - acc: 0.9796 - val_loss: 0.0518 - val_acc: 0.9999
…
	Training (Important) : 2305, Test : 3117
	MWEs in tain : 1396, occurrences : 2518
	Impotant words in tain : 1131
	MWE length mean : 2.22
	Seen MWEs : 340 (61 %)
	New MWEs : 213 (38 %)
==================================================================================================
__________________________________________________________________________________________________
Layer (type)                    Output Shape         Param #     Connected to                     
==================================================================================================
input_93 (InputLayer)           (None, 7)            0                                            
__________________________________________________________________________________________________
input_94 (InputLayer)           (None, 7)            0                                            
__________________________________________________________________________________________________
embedding_93 (Embedding)        (None, 7, 265)       300510      input_93[0][0]                   
__________________________________________________________________________________________________
embedding_94 (Embedding)        (None, 7, 25)        475         input_94[0][0]                   
__________________________________________________________________________________________________
gru_93 (GRU)                    (None, 74)           75480       embedding_93[0][0]               
__________________________________________________________________________________________________
gru_94 (GRU)                    (None, 12)           1368        embedding_94[0][0]               
__________________________________________________________________________________________________
dropout_139 (Dropout)           (None, 74)           0           gru_93[0][0]                     
__________________________________________________________________________________________________
dropout_140 (Dropout)           (None, 12)           0           gru_94[0][0]                     
__________________________________________________________________________________________________
concatenate_47 (Concatenate)    (None, 86)           0           dropout_139[0][0]                
                                                                 dropout_140[0][0]                
__________________________________________________________________________________________________
dense_93 (Dense)                (None, 81)           7047        concatenate_47[0][0]             
__________________________________________________________________________________________________
dropout_141 (Dropout)           (None, 81)           0           dense_93[0][0]                   
__________________________________________________________________________________________________
dense_94 (Dense)                (None, 4)            328         dropout_141[0][0]                
==================================================================================================
Total params: 385,208
Trainable params: 385,208
Non-trainable params: 0
__________________________________________________________________________________________________
None
Train on 217231 samples, validate on 24137 samples
Epoch 1/20
 - 127s - loss: 0.0874 - acc: 0.9742 - val_loss: 0.0742 - val_acc: 0.9994
…
	Training (Important) : 3585, Test : 1320
	MWEs in tain : 1790, occurrences : 4856
	Impotant words in tain : 1200
	MWE length mean : 2.06
	Seen MWEs : 345 (67 %)
	New MWEs : 165 (32 %)
==================================================================================================
__________________________________________________________________________________________________
Layer (type)                    Output Shape         Param #     Connected to                     
==================================================================================================
input_95 (InputLayer)           (None, 7)            0                                            
__________________________________________________________________________________________________
input_96 (InputLayer)           (None, 7)            0                                            
__________________________________________________________________________________________________
embedding_95 (Embedding)        (None, 7, 265)       318795      input_95[0][0]                   
__________________________________________________________________________________________________
embedding_96 (Embedding)        (None, 7, 25)        350         input_96[0][0]                   
__________________________________________________________________________________________________
gru_95 (GRU)                    (None, 74)           75480       embedding_95[0][0]               
__________________________________________________________________________________________________
gru_96 (GRU)                    (None, 12)           1368        embedding_96[0][0]               
__________________________________________________________________________________________________
dropout_142 (Dropout)           (None, 74)           0           gru_95[0][0]                     
__________________________________________________________________________________________________
dropout_143 (Dropout)           (None, 12)           0           gru_96[0][0]                     
__________________________________________________________________________________________________
concatenate_48 (Concatenate)    (None, 86)           0           dropout_142[0][0]                
                                                                 dropout_143[0][0]                
__________________________________________________________________________________________________
dense_95 (Dense)                (None, 81)           7047        concatenate_48[0][0]             
__________________________________________________________________________________________________
dropout_144 (Dropout)           (None, 81)           0           dense_95[0][0]                   
__________________________________________________________________________________________________
dense_96 (Dense)                (None, 4)            328         dropout_144[0][0]                
==================================================================================================
Total params: 403,368
Trainable params: 403,368
Non-trainable params: 0
__________________________________________________________________________________________________
None
Train on 432446 samples, validate on 48050 samples
Epoch 1/20
 - 252s - loss: 0.0746 - acc: 0.9780 - val_loss: 0.0673 - val_acc: 1.0000
…
	Training (Important) : 3124, Test : 1954
	MWEs in tain : 1372, occurrences : 3583
	Impotant words in tain : 1175
	MWE length mean : 2.13
	Seen MWEs : 386 (57 %)
	New MWEs : 284 (42 %)
==================================================================================================
__________________________________________________________________________________________________
Layer (type)                    Output Shape         Param #     Connected to                     
==================================================================================================
input_97 (InputLayer)           (None, 7)            0                                            
__________________________________________________________________________________________________
input_98 (InputLayer)           (None, 7)            0                                            
__________________________________________________________________________________________________
embedding_97 (Embedding)        (None, 7, 441)       519498      input_97[0][0]                   
__________________________________________________________________________________________________
embedding_98 (Embedding)        (None, 7, 95)        1805        input_98[0][0]                   
__________________________________________________________________________________________________
gru_97 (GRU)                    (None, 19)           26277       embedding_97[0][0]               
__________________________________________________________________________________________________
gru_98 (GRU)                    (None, 35)           13755       embedding_98[0][0]               
__________________________________________________________________________________________________
dropout_145 (Dropout)           (None, 19)           0           gru_97[0][0]                     
__________________________________________________________________________________________________
dropout_146 (Dropout)           (None, 35)           0           gru_98[0][0]                     
__________________________________________________________________________________________________
concatenate_49 (Concatenate)    (None, 54)           0           dropout_145[0][0]                
                                                                 dropout_146[0][0]                
__________________________________________________________________________________________________
dense_97 (Dense)                (None, 43)           2365        concatenate_49[0][0]             
__________________________________________________________________________________________________
dropout_147 (Dropout)           (None, 43)           0           dense_97[0][0]                   
__________________________________________________________________________________________________
dense_98 (Dense)                (None, 4)            176         dropout_147[0][0]                
==================================================================================================
Total params: 563,876
Trainable params: 563,876
Non-trainable params: 0
__________________________________________________________________________________________________
None
Train on 320835 samples, validate on 35649 samples
Epoch 1/20
 - 43s - loss: 0.0882 - acc: 0.9740 - val_loss: 0.1106 - val_acc: 0.9991
…
	Training (Important) : 2305, Test : 3117
	MWEs in tain : 1396, occurrences : 2518
	Impotant words in tain : 1131
	MWE length mean : 2.22
	Seen MWEs : 340 (61 %)
	New MWEs : 213 (38 %)
==================================================================================================
__________________________________________________________________________________________________
Layer (type)                    Output Shape         Param #     Connected to                     
==================================================================================================
input_99 (InputLayer)           (None, 7)            0                                            
__________________________________________________________________________________________________
input_100 (InputLayer)          (None, 7)            0                                            
__________________________________________________________________________________________________
embedding_99 (Embedding)        (None, 7, 441)       500094      input_99[0][0]                   
__________________________________________________________________________________________________
embedding_100 (Embedding)       (None, 7, 95)        1805        input_100[0][0]                  
__________________________________________________________________________________________________
gru_99 (GRU)                    (None, 19)           26277       embedding_99[0][0]               
__________________________________________________________________________________________________
gru_100 (GRU)                   (None, 35)           13755       embedding_100[0][0]              
__________________________________________________________________________________________________
dropout_148 (Dropout)           (None, 19)           0           gru_99[0][0]                     
__________________________________________________________________________________________________
dropout_149 (Dropout)           (None, 35)           0           gru_100[0][0]                    
__________________________________________________________________________________________________
concatenate_50 (Concatenate)    (None, 54)           0           dropout_148[0][0]                
                                                                 dropout_149[0][0]                
__________________________________________________________________________________________________
dense_99 (Dense)                (None, 43)           2365        concatenate_50[0][0]             
__________________________________________________________________________________________________
dropout_150 (Dropout)           (None, 43)           0           dense_99[0][0]                   
__________________________________________________________________________________________________
dense_100 (Dense)               (None, 4)            176         dropout_150[0][0]                
==================================================================================================
Total params: 544,472
Trainable params: 544,472
Non-trainable params: 0
__________________________________________________________________________________________________
None
Train on 217231 samples, validate on 24137 samples
Epoch 1/20
 - 30s - loss: 0.1023 - acc: 0.9686 - val_loss: 0.0906 - val_acc: 0.9983
…
	Training (Important) : 3585, Test : 1320
	MWEs in tain : 1790, occurrences : 4856
	Impotant words in tain : 1200
	MWE length mean : 2.06
	Seen MWEs : 345 (67 %)
	New MWEs : 165 (32 %)
==================================================================================================
__________________________________________________________________________________________________
Layer (type)                    Output Shape         Param #     Connected to                     
==================================================================================================
input_101 (InputLayer)          (None, 7)            0                                            
__________________________________________________________________________________________________
input_102 (InputLayer)          (None, 7)            0                                            
__________________________________________________________________________________________________
embedding_101 (Embedding)       (None, 7, 441)       530523      input_101[0][0]                  
__________________________________________________________________________________________________
embedding_102 (Embedding)       (None, 7, 95)        1330        input_102[0][0]                  
__________________________________________________________________________________________________
gru_101 (GRU)                   (None, 19)           26277       embedding_101[0][0]              
__________________________________________________________________________________________________
gru_102 (GRU)                   (None, 35)           13755       embedding_102[0][0]              
__________________________________________________________________________________________________
dropout_151 (Dropout)           (None, 19)           0           gru_101[0][0]                    
__________________________________________________________________________________________________
dropout_152 (Dropout)           (None, 35)           0           gru_102[0][0]                    
__________________________________________________________________________________________________
concatenate_51 (Concatenate)    (None, 54)           0           dropout_151[0][0]                
                                                                 dropout_152[0][0]                
__________________________________________________________________________________________________
dense_101 (Dense)               (None, 43)           2365        concatenate_51[0][0]             
__________________________________________________________________________________________________
dropout_153 (Dropout)           (None, 43)           0           dense_101[0][0]                  
__________________________________________________________________________________________________
dense_102 (Dense)               (None, 4)            176         dropout_153[0][0]                
==================================================================================================
Total params: 574,426
Trainable params: 574,426
Non-trainable params: 0
__________________________________________________________________________________________________
None
Train on 432446 samples, validate on 48050 samples
Epoch 1/20
 - 59s - loss: 0.0863 - acc: 0.9736 - val_loss: 0.0713 - val_acc: 1.0000
…
	Training (Important) : 3124, Test : 1954
	MWEs in tain : 1372, occurrences : 3583
	Impotant words in tain : 1175
	MWE length mean : 2.13
	Seen MWEs : 386 (57 %)
	New MWEs : 284 (42 %)
==================================================================================================
__________________________________________________________________________________________________
Layer (type)                    Output Shape         Param #     Connected to                     
==================================================================================================
input_103 (InputLayer)          (None, 7)            0                                            
__________________________________________________________________________________________________
input_104 (InputLayer)          (None, 7)            0                                            
__________________________________________________________________________________________________
embedding_103 (Embedding)       (None, 7, 245)       288610      input_103[0][0]                  
__________________________________________________________________________________________________
embedding_104 (Embedding)       (None, 7, 48)        912         input_104[0][0]                  
__________________________________________________________________________________________________
gru_103 (GRU)                   (None, 46)           40296       embedding_103[0][0]              
__________________________________________________________________________________________________
gru_104 (GRU)                   (None, 10)           1770        embedding_104[0][0]              
__________________________________________________________________________________________________
dropout_154 (Dropout)           (None, 46)           0           gru_103[0][0]                    
__________________________________________________________________________________________________
dropout_155 (Dropout)           (None, 10)           0           gru_104[0][0]                    
__________________________________________________________________________________________________
concatenate_52 (Concatenate)    (None, 56)           0           dropout_154[0][0]                
                                                                 dropout_155[0][0]                
__________________________________________________________________________________________________
dense_103 (Dense)               (None, 9)            513         concatenate_52[0][0]             
__________________________________________________________________________________________________
dropout_156 (Dropout)           (None, 9)            0           dense_103[0][0]                  
__________________________________________________________________________________________________
dense_104 (Dense)               (None, 4)            40          dropout_156[0][0]                
==================================================================================================
Total params: 332,141
Trainable params: 332,141
Non-trainable params: 0
__________________________________________________________________________________________________
None
Train on 320835 samples, validate on 35649 samples
Epoch 1/20
 - 85s - loss: 0.1606 - acc: 0.9386 - val_loss: 0.1199 - val_acc: 0.9985
…
	Training (Important) : 2305, Test : 3117
	MWEs in tain : 1396, occurrences : 2518
	Impotant words in tain : 1131
	MWE length mean : 2.22
	Seen MWEs : 340 (61 %)
	New MWEs : 213 (38 %)
==================================================================================================
__________________________________________________________________________________________________
Layer (type)                    Output Shape         Param #     Connected to                     
==================================================================================================
input_105 (InputLayer)          (None, 7)            0                                            
__________________________________________________________________________________________________
input_106 (InputLayer)          (None, 7)            0                                            
__________________________________________________________________________________________________
embedding_105 (Embedding)       (None, 7, 245)       277830      input_105[0][0]                  
__________________________________________________________________________________________________
embedding_106 (Embedding)       (None, 7, 48)        912         input_106[0][0]                  
__________________________________________________________________________________________________
gru_105 (GRU)                   (None, 46)           40296       embedding_105[0][0]              
__________________________________________________________________________________________________
gru_106 (GRU)                   (None, 10)           1770        embedding_106[0][0]              
__________________________________________________________________________________________________
dropout_157 (Dropout)           (None, 46)           0           gru_105[0][0]                    
__________________________________________________________________________________________________
dropout_158 (Dropout)           (None, 10)           0           gru_106[0][0]                    
__________________________________________________________________________________________________
concatenate_53 (Concatenate)    (None, 56)           0           dropout_157[0][0]                
                                                                 dropout_158[0][0]                
__________________________________________________________________________________________________
dense_105 (Dense)               (None, 9)            513         concatenate_53[0][0]             
__________________________________________________________________________________________________
dropout_159 (Dropout)           (None, 9)            0           dense_105[0][0]                  
__________________________________________________________________________________________________
dense_106 (Dense)               (None, 4)            40          dropout_159[0][0]                
==================================================================================================
Total params: 321,361
Trainable params: 321,361
Non-trainable params: 0
__________________________________________________________________________________________________
None
Train on 217231 samples, validate on 24137 samples
Epoch 1/20
 - 59s - loss: 0.1881 - acc: 0.9315 - val_loss: 0.1135 - val_acc: 1.0000
…
	Training (Important) : 3585, Test : 1320
	MWEs in tain : 1790, occurrences : 4856
	Impotant words in tain : 1200
	MWE length mean : 2.06
	Seen MWEs : 345 (67 %)
	New MWEs : 165 (32 %)
==================================================================================================
__________________________________________________________________________________________________
Layer (type)                    Output Shape         Param #     Connected to                     
==================================================================================================
input_107 (InputLayer)          (None, 7)            0                                            
__________________________________________________________________________________________________
input_108 (InputLayer)          (None, 7)            0                                            
__________________________________________________________________________________________________
embedding_107 (Embedding)       (None, 7, 245)       294735      input_107[0][0]                  
__________________________________________________________________________________________________
embedding_108 (Embedding)       (None, 7, 48)        672         input_108[0][0]                  
__________________________________________________________________________________________________
gru_107 (GRU)                   (None, 46)           40296       embedding_107[0][0]              
__________________________________________________________________________________________________
gru_108 (GRU)                   (None, 10)           1770        embedding_108[0][0]              
__________________________________________________________________________________________________
dropout_160 (Dropout)           (None, 46)           0           gru_107[0][0]                    
__________________________________________________________________________________________________
dropout_161 (Dropout)           (None, 10)           0           gru_108[0][0]                    
__________________________________________________________________________________________________
concatenate_54 (Concatenate)    (None, 56)           0           dropout_160[0][0]                
                                                                 dropout_161[0][0]                
__________________________________________________________________________________________________
dense_107 (Dense)               (None, 9)            513         concatenate_54[0][0]             
__________________________________________________________________________________________________
dropout_162 (Dropout)           (None, 9)            0           dense_107[0][0]                  
__________________________________________________________________________________________________
dense_108 (Dense)               (None, 4)            40          dropout_162[0][0]                
==================================================================================================
Total params: 338,026
Trainable params: 338,026
Non-trainable params: 0
__________________________________________________________________________________________________
None
Train on 432446 samples, validate on 48050 samples
Epoch 1/20
 - 105s - loss: 0.1386 - acc: 0.9596 - val_loss: 0.0826 - val_acc: 1.0000
…
