…
	Training (Important) : 3124, Test : 1954
	MWEs in tain : 1372, occurrences : 3583
	Impotant words in tain : 1175
	MWE length mean : 2.13
	Seen MWEs : 386 (57 %)
	New MWEs : 284 (42 %)
==================================================================================================
__________________________________________________________________________________________________
Layer (type)                    Output Shape         Param #     Connected to                     
==================================================================================================
input_1 (InputLayer)            (None, 7)            0                                            
__________________________________________________________________________________________________
input_2 (InputLayer)            (None, 7)            0                                            
__________________________________________________________________________________________________
embedding_1 (Embedding)         (None, 7, 391)       460598      input_1[0][0]                    
__________________________________________________________________________________________________
embedding_2 (Embedding)         (None, 7, 58)        1102        input_2[0][0]                    
__________________________________________________________________________________________________
gru_1 (GRU)                     (None, 66)           90684       embedding_1[0][0]                
__________________________________________________________________________________________________
gru_2 (GRU)                     (None, 22)           5346        embedding_2[0][0]                
__________________________________________________________________________________________________
dropout_1 (Dropout)             (None, 66)           0           gru_1[0][0]                      
__________________________________________________________________________________________________
dropout_2 (Dropout)             (None, 22)           0           gru_2[0][0]                      
__________________________________________________________________________________________________
concatenate_1 (Concatenate)     (None, 88)           0           dropout_1[0][0]                  
                                                                 dropout_2[0][0]                  
__________________________________________________________________________________________________
dense_1 (Dense)                 (None, 54)           4806        concatenate_1[0][0]              
__________________________________________________________________________________________________
dropout_3 (Dropout)             (None, 54)           0           dense_1[0][0]                    
__________________________________________________________________________________________________
dense_2 (Dense)                 (None, 4)            220         dropout_3[0][0]                  
==================================================================================================
Total params: 562,756
Trainable params: 562,756
Non-trainable params: 0
__________________________________________________________________________________________________
None
Train on 320835 samples, validate on 35649 samples
Epoch 1/20
 - 80s - loss: 0.0782 - acc: 0.9783 - val_loss: 0.0707 - val_acc: 0.9990
…
	Training (Important) : 2305, Test : 3117
	MWEs in tain : 1396, occurrences : 2518
	Impotant words in tain : 1131
	MWE length mean : 2.22
	Seen MWEs : 340 (61 %)
	New MWEs : 213 (38 %)
==================================================================================================
__________________________________________________________________________________________________
Layer (type)                    Output Shape         Param #     Connected to                     
==================================================================================================
input_3 (InputLayer)            (None, 7)            0                                            
__________________________________________________________________________________________________
input_4 (InputLayer)            (None, 7)            0                                            
__________________________________________________________________________________________________
embedding_3 (Embedding)         (None, 7, 391)       443394      input_3[0][0]                    
__________________________________________________________________________________________________
embedding_4 (Embedding)         (None, 7, 58)        1102        input_4[0][0]                    
__________________________________________________________________________________________________
gru_3 (GRU)                     (None, 66)           90684       embedding_3[0][0]                
__________________________________________________________________________________________________
gru_4 (GRU)                     (None, 22)           5346        embedding_4[0][0]                
__________________________________________________________________________________________________
dropout_4 (Dropout)             (None, 66)           0           gru_3[0][0]                      
__________________________________________________________________________________________________
dropout_5 (Dropout)             (None, 22)           0           gru_4[0][0]                      
__________________________________________________________________________________________________
concatenate_2 (Concatenate)     (None, 88)           0           dropout_4[0][0]                  
                                                                 dropout_5[0][0]                  
__________________________________________________________________________________________________
dense_3 (Dense)                 (None, 54)           4806        concatenate_2[0][0]              
__________________________________________________________________________________________________
dropout_6 (Dropout)             (None, 54)           0           dense_3[0][0]                    
__________________________________________________________________________________________________
dense_4 (Dense)                 (None, 4)            220         dropout_6[0][0]                  
==================================================================================================
Total params: 545,552
Trainable params: 545,552
Non-trainable params: 0
__________________________________________________________________________________________________
None
Train on 217231 samples, validate on 24137 samples
Epoch 1/20
 - 55s - loss: 0.0935 - acc: 0.9734 - val_loss: 0.0874 - val_acc: 1.0000
…
	Training (Important) : 3585, Test : 1320
	MWEs in tain : 1790, occurrences : 4856
	Impotant words in tain : 1200
	MWE length mean : 2.06
	Seen MWEs : 345 (67 %)
	New MWEs : 165 (32 %)
==================================================================================================
__________________________________________________________________________________________________
Layer (type)                    Output Shape         Param #     Connected to                     
==================================================================================================
input_5 (InputLayer)            (None, 7)            0                                            
__________________________________________________________________________________________________
input_6 (InputLayer)            (None, 7)            0                                            
__________________________________________________________________________________________________
embedding_5 (Embedding)         (None, 7, 391)       470373      input_5[0][0]                    
__________________________________________________________________________________________________
embedding_6 (Embedding)         (None, 7, 58)        812         input_6[0][0]                    
__________________________________________________________________________________________________
gru_5 (GRU)                     (None, 66)           90684       embedding_5[0][0]                
__________________________________________________________________________________________________
gru_6 (GRU)                     (None, 22)           5346        embedding_6[0][0]                
__________________________________________________________________________________________________
dropout_7 (Dropout)             (None, 66)           0           gru_5[0][0]                      
__________________________________________________________________________________________________
dropout_8 (Dropout)             (None, 22)           0           gru_6[0][0]                      
__________________________________________________________________________________________________
concatenate_3 (Concatenate)     (None, 88)           0           dropout_7[0][0]                  
                                                                 dropout_8[0][0]                  
__________________________________________________________________________________________________
dense_5 (Dense)                 (None, 54)           4806        concatenate_3[0][0]              
__________________________________________________________________________________________________
dropout_9 (Dropout)             (None, 54)           0           dense_5[0][0]                    
__________________________________________________________________________________________________
dense_6 (Dense)                 (None, 4)            220         dropout_9[0][0]                  
==================================================================================================
Total params: 572,241
Trainable params: 572,241
Non-trainable params: 0
__________________________________________________________________________________________________
None
Train on 432446 samples, validate on 48050 samples
Epoch 1/20
 - 110s - loss: 0.0809 - acc: 0.9757 - val_loss: 0.0514 - val_acc: 1.0000
…
	Training (Important) : 3124, Test : 1954
	MWEs in tain : 1372, occurrences : 3583
	Impotant words in tain : 1175
	MWE length mean : 2.13
	Seen MWEs : 386 (57 %)
	New MWEs : 284 (42 %)
==================================================================================================
__________________________________________________________________________________________________
Layer (type)                    Output Shape         Param #     Connected to                     
==================================================================================================
input_7 (InputLayer)            (None, 7)            0                                            
__________________________________________________________________________________________________
input_8 (InputLayer)            (None, 7)            0                                            
__________________________________________________________________________________________________
embedding_7 (Embedding)         (None, 7, 462)       544236      input_7[0][0]                    
__________________________________________________________________________________________________
embedding_8 (Embedding)         (None, 7, 79)        1501        input_8[0][0]                    
__________________________________________________________________________________________________
gru_7 (GRU)                     (None, 68)           108324      embedding_7[0][0]                
__________________________________________________________________________________________________
gru_8 (GRU)                     (None, 43)           15867       embedding_8[0][0]                
__________________________________________________________________________________________________
dropout_10 (Dropout)            (None, 68)           0           gru_7[0][0]                      
__________________________________________________________________________________________________
dropout_11 (Dropout)            (None, 43)           0           gru_8[0][0]                      
__________________________________________________________________________________________________
concatenate_4 (Concatenate)     (None, 111)          0           dropout_10[0][0]                 
                                                                 dropout_11[0][0]                 
__________________________________________________________________________________________________
dense_7 (Dense)                 (None, 95)           10640       concatenate_4[0][0]              
__________________________________________________________________________________________________
dropout_12 (Dropout)            (None, 95)           0           dense_7[0][0]                    
__________________________________________________________________________________________________
dense_8 (Dense)                 (None, 4)            384         dropout_12[0][0]                 
==================================================================================================
Total params: 680,952
Trainable params: 680,952
Non-trainable params: 0
__________________________________________________________________________________________________
None
Train on 320835 samples, validate on 35649 samples
Epoch 1/20
 - 156s - loss: 0.0747 - acc: 0.9792 - val_loss: 0.0524 - val_acc: 0.9996
…
	Training (Important) : 2305, Test : 3117
	MWEs in tain : 1396, occurrences : 2518
	Impotant words in tain : 1131
	MWE length mean : 2.22
	Seen MWEs : 340 (61 %)
	New MWEs : 213 (38 %)
==================================================================================================
__________________________________________________________________________________________________
Layer (type)                    Output Shape         Param #     Connected to                     
==================================================================================================
input_9 (InputLayer)            (None, 7)            0                                            
__________________________________________________________________________________________________
input_10 (InputLayer)           (None, 7)            0                                            
__________________________________________________________________________________________________
embedding_9 (Embedding)         (None, 7, 462)       523908      input_9[0][0]                    
__________________________________________________________________________________________________
embedding_10 (Embedding)        (None, 7, 79)        1501        input_10[0][0]                   
__________________________________________________________________________________________________
gru_9 (GRU)                     (None, 68)           108324      embedding_9[0][0]                
__________________________________________________________________________________________________
gru_10 (GRU)                    (None, 43)           15867       embedding_10[0][0]               
__________________________________________________________________________________________________
dropout_13 (Dropout)            (None, 68)           0           gru_9[0][0]                      
__________________________________________________________________________________________________
dropout_14 (Dropout)            (None, 43)           0           gru_10[0][0]                     
__________________________________________________________________________________________________
concatenate_5 (Concatenate)     (None, 111)          0           dropout_13[0][0]                 
                                                                 dropout_14[0][0]                 
__________________________________________________________________________________________________
dense_9 (Dense)                 (None, 95)           10640       concatenate_5[0][0]              
__________________________________________________________________________________________________
dropout_15 (Dropout)            (None, 95)           0           dense_9[0][0]                    
__________________________________________________________________________________________________
dense_10 (Dense)                (None, 4)            384         dropout_15[0][0]                 
==================================================================================================
Total params: 660,624
Trainable params: 660,624
Non-trainable params: 0
__________________________________________________________________________________________________
None
Train on 217231 samples, validate on 24137 samples
Epoch 1/20
 - 107s - loss: 0.0892 - acc: 0.9735 - val_loss: 0.0634 - val_acc: 0.9997
…
	Training (Important) : 3585, Test : 1320
	MWEs in tain : 1790, occurrences : 4856
	Impotant words in tain : 1200
	MWE length mean : 2.06
	Seen MWEs : 345 (67 %)
	New MWEs : 165 (32 %)
==================================================================================================
__________________________________________________________________________________________________
Layer (type)                    Output Shape         Param #     Connected to                     
==================================================================================================
input_11 (InputLayer)           (None, 7)            0                                            
__________________________________________________________________________________________________
input_12 (InputLayer)           (None, 7)            0                                            
__________________________________________________________________________________________________
embedding_11 (Embedding)        (None, 7, 462)       555786      input_11[0][0]                   
__________________________________________________________________________________________________
embedding_12 (Embedding)        (None, 7, 79)        1106        input_12[0][0]                   
__________________________________________________________________________________________________
gru_11 (GRU)                    (None, 68)           108324      embedding_11[0][0]               
__________________________________________________________________________________________________
gru_12 (GRU)                    (None, 43)           15867       embedding_12[0][0]               
__________________________________________________________________________________________________
dropout_16 (Dropout)            (None, 68)           0           gru_11[0][0]                     
__________________________________________________________________________________________________
dropout_17 (Dropout)            (None, 43)           0           gru_12[0][0]                     
__________________________________________________________________________________________________
concatenate_6 (Concatenate)     (None, 111)          0           dropout_16[0][0]                 
                                                                 dropout_17[0][0]                 
__________________________________________________________________________________________________
dense_11 (Dense)                (None, 95)           10640       concatenate_6[0][0]              
__________________________________________________________________________________________________
dropout_18 (Dropout)            (None, 95)           0           dense_11[0][0]                   
__________________________________________________________________________________________________
dense_12 (Dense)                (None, 4)            384         dropout_18[0][0]                 
==================================================================================================
Total params: 692,107
Trainable params: 692,107
Non-trainable params: 0
__________________________________________________________________________________________________
None
Train on 432446 samples, validate on 48050 samples
Epoch 1/20
 - 221s - loss: 0.0743 - acc: 0.9776 - val_loss: 0.0750 - val_acc: 1.0000
…
	Training (Important) : 3124, Test : 1954
	MWEs in tain : 1372, occurrences : 3583
	Impotant words in tain : 1175
	MWE length mean : 2.13
	Seen MWEs : 386 (57 %)
	New MWEs : 284 (42 %)
==================================================================================================
__________________________________________________________________________________________________
Layer (type)                    Output Shape         Param #     Connected to                     
==================================================================================================
input_13 (InputLayer)           (None, 7)            0                                            
__________________________________________________________________________________________________
input_14 (InputLayer)           (None, 7)            0                                            
__________________________________________________________________________________________________
embedding_13 (Embedding)        (None, 7, 417)       491226      input_13[0][0]                   
__________________________________________________________________________________________________
embedding_14 (Embedding)        (None, 7, 53)        1007        input_14[0][0]                   
__________________________________________________________________________________________________
gru_13 (GRU)                    (None, 31)           41757       embedding_13[0][0]               
__________________________________________________________________________________________________
gru_14 (GRU)                    (None, 16)           3360        embedding_14[0][0]               
__________________________________________________________________________________________________
dropout_19 (Dropout)            (None, 31)           0           gru_13[0][0]                     
__________________________________________________________________________________________________
dropout_20 (Dropout)            (None, 16)           0           gru_14[0][0]                     
__________________________________________________________________________________________________
concatenate_7 (Concatenate)     (None, 47)           0           dropout_19[0][0]                 
                                                                 dropout_20[0][0]                 
__________________________________________________________________________________________________
dense_13 (Dense)                (None, 43)           2064        concatenate_7[0][0]              
__________________________________________________________________________________________________
dropout_21 (Dropout)            (None, 43)           0           dense_13[0][0]                   
__________________________________________________________________________________________________
dense_14 (Dense)                (None, 4)            176         dropout_21[0][0]                 
==================================================================================================
Total params: 539,590
Trainable params: 539,590
Non-trainable params: 0
__________________________________________________________________________________________________
None
Train on 320835 samples, validate on 35649 samples
Epoch 1/20
 - 78s - loss: 0.0807 - acc: 0.9768 - val_loss: 0.0771 - val_acc: 1.0000
…
	Training (Important) : 2305, Test : 3117
	MWEs in tain : 1396, occurrences : 2518
	Impotant words in tain : 1131
	MWE length mean : 2.22
	Seen MWEs : 340 (61 %)
	New MWEs : 213 (38 %)
==================================================================================================
__________________________________________________________________________________________________
Layer (type)                    Output Shape         Param #     Connected to                     
==================================================================================================
input_15 (InputLayer)           (None, 7)            0                                            
__________________________________________________________________________________________________
input_16 (InputLayer)           (None, 7)            0                                            
__________________________________________________________________________________________________
embedding_15 (Embedding)        (None, 7, 417)       472878      input_15[0][0]                   
__________________________________________________________________________________________________
embedding_16 (Embedding)        (None, 7, 53)        1007        input_16[0][0]                   
__________________________________________________________________________________________________
gru_15 (GRU)                    (None, 31)           41757       embedding_15[0][0]               
__________________________________________________________________________________________________
gru_16 (GRU)                    (None, 16)           3360        embedding_16[0][0]               
__________________________________________________________________________________________________
dropout_22 (Dropout)            (None, 31)           0           gru_15[0][0]                     
__________________________________________________________________________________________________
dropout_23 (Dropout)            (None, 16)           0           gru_16[0][0]                     
__________________________________________________________________________________________________
concatenate_8 (Concatenate)     (None, 47)           0           dropout_22[0][0]                 
                                                                 dropout_23[0][0]                 
__________________________________________________________________________________________________
dense_15 (Dense)                (None, 43)           2064        concatenate_8[0][0]              
__________________________________________________________________________________________________
dropout_24 (Dropout)            (None, 43)           0           dense_15[0][0]                   
__________________________________________________________________________________________________
dense_16 (Dense)                (None, 4)            176         dropout_24[0][0]                 
==================================================================================================
Total params: 521,242
Trainable params: 521,242
Non-trainable params: 0
__________________________________________________________________________________________________
None
Train on 217231 samples, validate on 24137 samples
Epoch 1/20
 - 53s - loss: 0.0922 - acc: 0.9719 - val_loss: 0.0470 - val_acc: 0.9994
…
	Training (Important) : 3585, Test : 1320
	MWEs in tain : 1790, occurrences : 4856
	Impotant words in tain : 1200
	MWE length mean : 2.06
	Seen MWEs : 345 (67 %)
	New MWEs : 165 (32 %)
==================================================================================================
__________________________________________________________________________________________________
Layer (type)                    Output Shape         Param #     Connected to                     
==================================================================================================
input_17 (InputLayer)           (None, 7)            0                                            
__________________________________________________________________________________________________
input_18 (InputLayer)           (None, 7)            0                                            
__________________________________________________________________________________________________
embedding_17 (Embedding)        (None, 7, 417)       501651      input_17[0][0]                   
__________________________________________________________________________________________________
embedding_18 (Embedding)        (None, 7, 53)        742         input_18[0][0]                   
__________________________________________________________________________________________________
gru_17 (GRU)                    (None, 31)           41757       embedding_17[0][0]               
__________________________________________________________________________________________________
gru_18 (GRU)                    (None, 16)           3360        embedding_18[0][0]               
__________________________________________________________________________________________________
dropout_25 (Dropout)            (None, 31)           0           gru_17[0][0]                     
__________________________________________________________________________________________________
dropout_26 (Dropout)            (None, 16)           0           gru_18[0][0]                     
__________________________________________________________________________________________________
concatenate_9 (Concatenate)     (None, 47)           0           dropout_25[0][0]                 
                                                                 dropout_26[0][0]                 
__________________________________________________________________________________________________
dense_17 (Dense)                (None, 43)           2064        concatenate_9[0][0]              
__________________________________________________________________________________________________
dropout_27 (Dropout)            (None, 43)           0           dense_17[0][0]                   
__________________________________________________________________________________________________
dense_18 (Dense)                (None, 4)            176         dropout_27[0][0]                 
==================================================================================================
Total params: 549,750
Trainable params: 549,750
Non-trainable params: 0
__________________________________________________________________________________________________
None
Train on 432446 samples, validate on 48050 samples
Epoch 1/20
 - 111s - loss: 0.0802 - acc: 0.9758 - val_loss: 0.0878 - val_acc: 1.0000
…
	Training (Important) : 3124, Test : 1954
	MWEs in tain : 1372, occurrences : 3583
	Impotant words in tain : 1175
	MWE length mean : 2.13
	Seen MWEs : 386 (57 %)
	New MWEs : 284 (42 %)
==================================================================================================
__________________________________________________________________________________________________
Layer (type)                    Output Shape         Param #     Connected to                     
==================================================================================================
input_19 (InputLayer)           (None, 7)            0                                            
__________________________________________________________________________________________________
input_20 (InputLayer)           (None, 7)            0                                            
__________________________________________________________________________________________________
embedding_19 (Embedding)        (None, 7, 284)       334552      input_19[0][0]                   
__________________________________________________________________________________________________
embedding_20 (Embedding)        (None, 7, 98)        1862        input_20[0][0]                   
__________________________________________________________________________________________________
gru_19 (GRU)                    (None, 25)           23250       embedding_19[0][0]               
__________________________________________________________________________________________________
gru_20 (GRU)                    (None, 47)           20586       embedding_20[0][0]               
__________________________________________________________________________________________________
dropout_28 (Dropout)            (None, 25)           0           gru_19[0][0]                     
__________________________________________________________________________________________________
dropout_29 (Dropout)            (None, 47)           0           gru_20[0][0]                     
__________________________________________________________________________________________________
concatenate_10 (Concatenate)    (None, 72)           0           dropout_28[0][0]                 
                                                                 dropout_29[0][0]                 
__________________________________________________________________________________________________
dense_19 (Dense)                (None, 74)           5402        concatenate_10[0][0]             
__________________________________________________________________________________________________
dropout_30 (Dropout)            (None, 74)           0           dense_19[0][0]                   
__________________________________________________________________________________________________
dense_20 (Dense)                (None, 4)            300         dropout_30[0][0]                 
==================================================================================================
Total params: 385,952
Trainable params: 385,952
Non-trainable params: 0
__________________________________________________________________________________________________
None
Train on 320835 samples, validate on 35649 samples
Epoch 1/20
 - 40s - loss: 0.0788 - acc: 0.9767 - val_loss: 0.0648 - val_acc: 0.9996
…
	Training (Important) : 2305, Test : 3117
	MWEs in tain : 1396, occurrences : 2518
	Impotant words in tain : 1131
	MWE length mean : 2.22
	Seen MWEs : 340 (61 %)
	New MWEs : 213 (38 %)
==================================================================================================
__________________________________________________________________________________________________
Layer (type)                    Output Shape         Param #     Connected to                     
==================================================================================================
input_21 (InputLayer)           (None, 7)            0                                            
__________________________________________________________________________________________________
input_22 (InputLayer)           (None, 7)            0                                            
__________________________________________________________________________________________________
embedding_21 (Embedding)        (None, 7, 284)       322056      input_21[0][0]                   
__________________________________________________________________________________________________
embedding_22 (Embedding)        (None, 7, 98)        1862        input_22[0][0]                   
__________________________________________________________________________________________________
gru_21 (GRU)                    (None, 25)           23250       embedding_21[0][0]               
__________________________________________________________________________________________________
gru_22 (GRU)                    (None, 47)           20586       embedding_22[0][0]               
__________________________________________________________________________________________________
dropout_31 (Dropout)            (None, 25)           0           gru_21[0][0]                     
__________________________________________________________________________________________________
dropout_32 (Dropout)            (None, 47)           0           gru_22[0][0]                     
__________________________________________________________________________________________________
concatenate_11 (Concatenate)    (None, 72)           0           dropout_31[0][0]                 
                                                                 dropout_32[0][0]                 
__________________________________________________________________________________________________
dense_21 (Dense)                (None, 74)           5402        concatenate_11[0][0]             
__________________________________________________________________________________________________
dropout_33 (Dropout)            (None, 74)           0           dense_21[0][0]                   
__________________________________________________________________________________________________
dense_22 (Dense)                (None, 4)            300         dropout_33[0][0]                 
==================================================================================================
Total params: 373,456
Trainable params: 373,456
Non-trainable params: 0
__________________________________________________________________________________________________
None
Train on 217231 samples, validate on 24137 samples
Epoch 1/20
 - 28s - loss: 0.0937 - acc: 0.9703 - val_loss: 0.1537 - val_acc: 0.9994
…
	Training (Important) : 3585, Test : 1320
	MWEs in tain : 1790, occurrences : 4856
	Impotant words in tain : 1200
	MWE length mean : 2.06
	Seen MWEs : 345 (67 %)
	New MWEs : 165 (32 %)
==================================================================================================
__________________________________________________________________________________________________
Layer (type)                    Output Shape         Param #     Connected to                     
==================================================================================================
input_23 (InputLayer)           (None, 7)            0                                            
__________________________________________________________________________________________________
input_24 (InputLayer)           (None, 7)            0                                            
__________________________________________________________________________________________________
embedding_23 (Embedding)        (None, 7, 284)       341652      input_23[0][0]                   
__________________________________________________________________________________________________
embedding_24 (Embedding)        (None, 7, 98)        1372        input_24[0][0]                   
__________________________________________________________________________________________________
gru_23 (GRU)                    (None, 25)           23250       embedding_23[0][0]               
__________________________________________________________________________________________________
gru_24 (GRU)                    (None, 47)           20586       embedding_24[0][0]               
__________________________________________________________________________________________________
dropout_34 (Dropout)            (None, 25)           0           gru_23[0][0]                     
__________________________________________________________________________________________________
dropout_35 (Dropout)            (None, 47)           0           gru_24[0][0]                     
__________________________________________________________________________________________________
concatenate_12 (Concatenate)    (None, 72)           0           dropout_34[0][0]                 
                                                                 dropout_35[0][0]                 
__________________________________________________________________________________________________
dense_23 (Dense)                (None, 74)           5402        concatenate_12[0][0]             
__________________________________________________________________________________________________
dropout_36 (Dropout)            (None, 74)           0           dense_23[0][0]                   
__________________________________________________________________________________________________
dense_24 (Dense)                (None, 4)            300         dropout_36[0][0]                 
==================================================================================================
Total params: 392,562
Trainable params: 392,562
Non-trainable params: 0
__________________________________________________________________________________________________
None
Train on 432446 samples, validate on 48050 samples
Epoch 1/20
 - 55s - loss: 0.0767 - acc: 0.9763 - val_loss: 0.0598 - val_acc: 1.0000
…
	Training (Important) : 3124, Test : 1954
	MWEs in tain : 1372, occurrences : 3583
	Impotant words in tain : 1175
	MWE length mean : 2.13
	Seen MWEs : 386 (57 %)
	New MWEs : 284 (42 %)
==================================================================================================
__________________________________________________________________________________________________
Layer (type)                    Output Shape         Param #     Connected to                     
==================================================================================================
input_25 (InputLayer)           (None, 7)            0                                            
__________________________________________________________________________________________________
input_26 (InputLayer)           (None, 7)            0                                            
__________________________________________________________________________________________________
embedding_25 (Embedding)        (None, 7, 392)       461776      input_25[0][0]                   
__________________________________________________________________________________________________
embedding_26 (Embedding)        (None, 7, 25)        475         input_26[0][0]                   
__________________________________________________________________________________________________
gru_25 (GRU)                    (None, 77)           108570      embedding_25[0][0]               
__________________________________________________________________________________________________
gru_26 (GRU)                    (None, 34)           6120        embedding_26[0][0]               
__________________________________________________________________________________________________
dropout_37 (Dropout)            (None, 77)           0           gru_25[0][0]                     
__________________________________________________________________________________________________
dropout_38 (Dropout)            (None, 34)           0           gru_26[0][0]                     
__________________________________________________________________________________________________
concatenate_13 (Concatenate)    (None, 111)          0           dropout_37[0][0]                 
                                                                 dropout_38[0][0]                 
__________________________________________________________________________________________________
dense_25 (Dense)                (None, 43)           4816        concatenate_13[0][0]             
__________________________________________________________________________________________________
dropout_39 (Dropout)            (None, 43)           0           dense_25[0][0]                   
__________________________________________________________________________________________________
dense_26 (Dense)                (None, 4)            176         dropout_39[0][0]                 
==================================================================================================
Total params: 581,933
Trainable params: 581,933
Non-trainable params: 0
__________________________________________________________________________________________________
None
Train on 320835 samples, validate on 35649 samples
Epoch 1/20
 - 162s - loss: 0.0741 - acc: 0.9794 - val_loss: 0.0605 - val_acc: 0.9999
…
	Training (Important) : 2305, Test : 3117
	MWEs in tain : 1396, occurrences : 2518
	Impotant words in tain : 1131
	MWE length mean : 2.22
	Seen MWEs : 340 (61 %)
	New MWEs : 213 (38 %)
==================================================================================================
__________________________________________________________________________________________________
Layer (type)                    Output Shape         Param #     Connected to                     
==================================================================================================
input_27 (InputLayer)           (None, 7)            0                                            
__________________________________________________________________________________________________
input_28 (InputLayer)           (None, 7)            0                                            
__________________________________________________________________________________________________
embedding_27 (Embedding)        (None, 7, 392)       444528      input_27[0][0]                   
__________________________________________________________________________________________________
embedding_28 (Embedding)        (None, 7, 25)        475         input_28[0][0]                   
__________________________________________________________________________________________________
gru_27 (GRU)                    (None, 77)           108570      embedding_27[0][0]               
__________________________________________________________________________________________________
gru_28 (GRU)                    (None, 34)           6120        embedding_28[0][0]               
__________________________________________________________________________________________________
dropout_40 (Dropout)            (None, 77)           0           gru_27[0][0]                     
__________________________________________________________________________________________________
dropout_41 (Dropout)            (None, 34)           0           gru_28[0][0]                     
__________________________________________________________________________________________________
concatenate_14 (Concatenate)    (None, 111)          0           dropout_40[0][0]                 
                                                                 dropout_41[0][0]                 
__________________________________________________________________________________________________
dense_27 (Dense)                (None, 43)           4816        concatenate_14[0][0]             
__________________________________________________________________________________________________
dropout_42 (Dropout)            (None, 43)           0           dense_27[0][0]                   
__________________________________________________________________________________________________
dense_28 (Dense)                (None, 4)            176         dropout_42[0][0]                 
==================================================================================================
Total params: 564,685
Trainable params: 564,685
Non-trainable params: 0
__________________________________________________________________________________________________
None
Train on 217231 samples, validate on 24137 samples
Epoch 1/20
 - 111s - loss: 0.0864 - acc: 0.9745 - val_loss: 0.0802 - val_acc: 0.9994
…
	Training (Important) : 3585, Test : 1320
	MWEs in tain : 1790, occurrences : 4856
	Impotant words in tain : 1200
	MWE length mean : 2.06
	Seen MWEs : 345 (67 %)
	New MWEs : 165 (32 %)
==================================================================================================
__________________________________________________________________________________________________
Layer (type)                    Output Shape         Param #     Connected to                     
==================================================================================================
input_29 (InputLayer)           (None, 7)            0                                            
__________________________________________________________________________________________________
input_30 (InputLayer)           (None, 7)            0                                            
__________________________________________________________________________________________________
embedding_29 (Embedding)        (None, 7, 392)       471576      input_29[0][0]                   
__________________________________________________________________________________________________
embedding_30 (Embedding)        (None, 7, 25)        350         input_30[0][0]                   
__________________________________________________________________________________________________
gru_29 (GRU)                    (None, 77)           108570      embedding_29[0][0]               
__________________________________________________________________________________________________
gru_30 (GRU)                    (None, 34)           6120        embedding_30[0][0]               
__________________________________________________________________________________________________
dropout_43 (Dropout)            (None, 77)           0           gru_29[0][0]                     
__________________________________________________________________________________________________
dropout_44 (Dropout)            (None, 34)           0           gru_30[0][0]                     
__________________________________________________________________________________________________
concatenate_15 (Concatenate)    (None, 111)          0           dropout_43[0][0]                 
                                                                 dropout_44[0][0]                 
__________________________________________________________________________________________________
dense_29 (Dense)                (None, 43)           4816        concatenate_15[0][0]             
__________________________________________________________________________________________________
dropout_45 (Dropout)            (None, 43)           0           dense_29[0][0]                   
__________________________________________________________________________________________________
dense_30 (Dense)                (None, 4)            176         dropout_45[0][0]                 
==================================================================================================
Total params: 591,608
Trainable params: 591,608
Non-trainable params: 0
__________________________________________________________________________________________________
None
Train on 432446 samples, validate on 48050 samples
Epoch 1/20
 - 220s - loss: 0.0747 - acc: 0.9773 - val_loss: 0.0697 - val_acc: 1.0000
…
	Training (Important) : 3124, Test : 1954
	MWEs in tain : 1372, occurrences : 3583
	Impotant words in tain : 1175
	MWE length mean : 2.13
	Seen MWEs : 386 (57 %)
	New MWEs : 284 (42 %)
==================================================================================================
__________________________________________________________________________________________________
Layer (type)                    Output Shape         Param #     Connected to                     
==================================================================================================
input_31 (InputLayer)           (None, 7)            0                                            
__________________________________________________________________________________________________
input_32 (InputLayer)           (None, 7)            0                                            
__________________________________________________________________________________________________
embedding_31 (Embedding)        (None, 7, 329)       387562      input_31[0][0]                   
__________________________________________________________________________________________________
embedding_32 (Embedding)        (None, 7, 66)        1254        input_32[0][0]                   
__________________________________________________________________________________________________
gru_31 (GRU)                    (None, 37)           40737       embedding_31[0][0]               
__________________________________________________________________________________________________
gru_32 (GRU)                    (None, 27)           7614        embedding_32[0][0]               
__________________________________________________________________________________________________
dropout_46 (Dropout)            (None, 37)           0           gru_31[0][0]                     
__________________________________________________________________________________________________
dropout_47 (Dropout)            (None, 27)           0           gru_32[0][0]                     
__________________________________________________________________________________________________
concatenate_16 (Concatenate)    (None, 64)           0           dropout_46[0][0]                 
                                                                 dropout_47[0][0]                 
__________________________________________________________________________________________________
dense_31 (Dense)                (None, 37)           2405        concatenate_16[0][0]             
__________________________________________________________________________________________________
dropout_48 (Dropout)            (None, 37)           0           dense_31[0][0]                   
__________________________________________________________________________________________________
dense_32 (Dense)                (None, 4)            152         dropout_48[0][0]                 
==================================================================================================
Total params: 439,724
Trainable params: 439,724
Non-trainable params: 0
__________________________________________________________________________________________________
None
Train on 320835 samples, validate on 35649 samples
Epoch 1/20
 - 160s - loss: 0.0727 - acc: 0.9794 - val_loss: 0.0729 - val_acc: 1.0000
…
	Training (Important) : 2305, Test : 3117
	MWEs in tain : 1396, occurrences : 2518
	Impotant words in tain : 1131
	MWE length mean : 2.22
	Seen MWEs : 340 (61 %)
	New MWEs : 213 (38 %)
==================================================================================================
__________________________________________________________________________________________________
Layer (type)                    Output Shape         Param #     Connected to                     
==================================================================================================
input_33 (InputLayer)           (None, 7)            0                                            
__________________________________________________________________________________________________
input_34 (InputLayer)           (None, 7)            0                                            
__________________________________________________________________________________________________
embedding_33 (Embedding)        (None, 7, 329)       373086      input_33[0][0]                   
__________________________________________________________________________________________________
embedding_34 (Embedding)        (None, 7, 66)        1254        input_34[0][0]                   
__________________________________________________________________________________________________
gru_33 (GRU)                    (None, 37)           40737       embedding_33[0][0]               
__________________________________________________________________________________________________
gru_34 (GRU)                    (None, 27)           7614        embedding_34[0][0]               
__________________________________________________________________________________________________
dropout_49 (Dropout)            (None, 37)           0           gru_33[0][0]                     
__________________________________________________________________________________________________
dropout_50 (Dropout)            (None, 27)           0           gru_34[0][0]                     
__________________________________________________________________________________________________
concatenate_17 (Concatenate)    (None, 64)           0           dropout_49[0][0]                 
                                                                 dropout_50[0][0]                 
__________________________________________________________________________________________________
dense_33 (Dense)                (None, 37)           2405        concatenate_17[0][0]             
__________________________________________________________________________________________________
dropout_51 (Dropout)            (None, 37)           0           dense_33[0][0]                   
__________________________________________________________________________________________________
dense_34 (Dense)                (None, 4)            152         dropout_51[0][0]                 
==================================================================================================
Total params: 425,248
Trainable params: 425,248
Non-trainable params: 0
__________________________________________________________________________________________________
None
Train on 217231 samples, validate on 24137 samples
Epoch 1/20
 - 108s - loss: 0.0852 - acc: 0.9745 - val_loss: 0.0752 - val_acc: 0.9983
…
	Training (Important) : 3585, Test : 1320
	MWEs in tain : 1790, occurrences : 4856
	Impotant words in tain : 1200
	MWE length mean : 2.06
	Seen MWEs : 345 (67 %)
	New MWEs : 165 (32 %)
==================================================================================================
__________________________________________________________________________________________________
Layer (type)                    Output Shape         Param #     Connected to                     
==================================================================================================
input_35 (InputLayer)           (None, 7)            0                                            
__________________________________________________________________________________________________
input_36 (InputLayer)           (None, 7)            0                                            
__________________________________________________________________________________________________
embedding_35 (Embedding)        (None, 7, 329)       395787      input_35[0][0]                   
__________________________________________________________________________________________________
embedding_36 (Embedding)        (None, 7, 66)        924         input_36[0][0]                   
__________________________________________________________________________________________________
gru_35 (GRU)                    (None, 37)           40737       embedding_35[0][0]               
__________________________________________________________________________________________________
gru_36 (GRU)                    (None, 27)           7614        embedding_36[0][0]               
__________________________________________________________________________________________________
dropout_52 (Dropout)            (None, 37)           0           gru_35[0][0]                     
__________________________________________________________________________________________________
dropout_53 (Dropout)            (None, 27)           0           gru_36[0][0]                     
__________________________________________________________________________________________________
concatenate_18 (Concatenate)    (None, 64)           0           dropout_52[0][0]                 
                                                                 dropout_53[0][0]                 
__________________________________________________________________________________________________
dense_35 (Dense)                (None, 37)           2405        concatenate_18[0][0]             
__________________________________________________________________________________________________
dropout_54 (Dropout)            (None, 37)           0           dense_35[0][0]                   
__________________________________________________________________________________________________
dense_36 (Dense)                (None, 4)            152         dropout_54[0][0]                 
==================================================================================================
Total params: 447,619
Trainable params: 447,619
Non-trainable params: 0
__________________________________________________________________________________________________
None
Train on 432446 samples, validate on 48050 samples
Epoch 1/20
 - 215s - loss: 0.0744 - acc: 0.9775 - val_loss: 0.0828 - val_acc: 1.0000
…
	Training (Important) : 3124, Test : 1954
	MWEs in tain : 1372, occurrences : 3583
	Impotant words in tain : 1175
	MWE length mean : 2.13
	Seen MWEs : 386 (57 %)
	New MWEs : 284 (42 %)
==================================================================================================
__________________________________________________________________________________________________
Layer (type)                    Output Shape         Param #     Connected to                     
==================================================================================================
input_37 (InputLayer)           (None, 7)            0                                            
__________________________________________________________________________________________________
input_38 (InputLayer)           (None, 7)            0                                            
__________________________________________________________________________________________________
embedding_37 (Embedding)        (None, 7, 220)       259160      input_37[0][0]                   
__________________________________________________________________________________________________
embedding_38 (Embedding)        (None, 7, 39)        741         input_38[0][0]                   
__________________________________________________________________________________________________
gru_37 (GRU)                    (None, 52)           42588       embedding_37[0][0]               
__________________________________________________________________________________________________
gru_38 (GRU)                    (None, 41)           9963        embedding_38[0][0]               
__________________________________________________________________________________________________
dropout_55 (Dropout)            (None, 52)           0           gru_37[0][0]                     
__________________________________________________________________________________________________
dropout_56 (Dropout)            (None, 41)           0           gru_38[0][0]                     
__________________________________________________________________________________________________
concatenate_19 (Concatenate)    (None, 93)           0           dropout_55[0][0]                 
                                                                 dropout_56[0][0]                 
__________________________________________________________________________________________________
dense_37 (Dense)                (None, 97)           9118        concatenate_19[0][0]             
__________________________________________________________________________________________________
dropout_57 (Dropout)            (None, 97)           0           dense_37[0][0]                   
__________________________________________________________________________________________________
dense_38 (Dense)                (None, 4)            392         dropout_57[0][0]                 
==================================================================================================
Total params: 321,962
Trainable params: 321,962
Non-trainable params: 0
__________________________________________________________________________________________________
None
Train on 320835 samples, validate on 35649 samples
Epoch 1/20
 - 157s - loss: 0.0695 - acc: 0.9798 - val_loss: 0.0759 - val_acc: 0.9992
…
	Training (Important) : 2305, Test : 3117
	MWEs in tain : 1396, occurrences : 2518
	Impotant words in tain : 1131
	MWE length mean : 2.22
	Seen MWEs : 340 (61 %)
	New MWEs : 213 (38 %)
==================================================================================================
__________________________________________________________________________________________________
Layer (type)                    Output Shape         Param #     Connected to                     
==================================================================================================
input_39 (InputLayer)           (None, 7)            0                                            
__________________________________________________________________________________________________
input_40 (InputLayer)           (None, 7)            0                                            
__________________________________________________________________________________________________
embedding_39 (Embedding)        (None, 7, 220)       249480      input_39[0][0]                   
__________________________________________________________________________________________________
embedding_40 (Embedding)        (None, 7, 39)        741         input_40[0][0]                   
__________________________________________________________________________________________________
gru_39 (GRU)                    (None, 52)           42588       embedding_39[0][0]               
__________________________________________________________________________________________________
gru_40 (GRU)                    (None, 41)           9963        embedding_40[0][0]               
__________________________________________________________________________________________________
dropout_58 (Dropout)            (None, 52)           0           gru_39[0][0]                     
__________________________________________________________________________________________________
dropout_59 (Dropout)            (None, 41)           0           gru_40[0][0]                     
__________________________________________________________________________________________________
concatenate_20 (Concatenate)    (None, 93)           0           dropout_58[0][0]                 
                                                                 dropout_59[0][0]                 
__________________________________________________________________________________________________
dense_39 (Dense)                (None, 97)           9118        concatenate_20[0][0]             
__________________________________________________________________________________________________
dropout_60 (Dropout)            (None, 97)           0           dense_39[0][0]                   
__________________________________________________________________________________________________
dense_40 (Dense)                (None, 4)            392         dropout_60[0][0]                 
==================================================================================================
Total params: 312,282
Trainable params: 312,282
Non-trainable params: 0
__________________________________________________________________________________________________
None
Train on 217231 samples, validate on 24137 samples
Epoch 1/20
 - 104s - loss: 0.0783 - acc: 0.9761 - val_loss: 0.0577 - val_acc: 0.9988
…
	Training (Important) : 3585, Test : 1320
	MWEs in tain : 1790, occurrences : 4856
	Impotant words in tain : 1200
	MWE length mean : 2.06
	Seen MWEs : 345 (67 %)
	New MWEs : 165 (32 %)
==================================================================================================
__________________________________________________________________________________________________
Layer (type)                    Output Shape         Param #     Connected to                     
==================================================================================================
input_41 (InputLayer)           (None, 7)            0                                            
__________________________________________________________________________________________________
input_42 (InputLayer)           (None, 7)            0                                            
__________________________________________________________________________________________________
embedding_41 (Embedding)        (None, 7, 220)       264660      input_41[0][0]                   
__________________________________________________________________________________________________
embedding_42 (Embedding)        (None, 7, 39)        546         input_42[0][0]                   
__________________________________________________________________________________________________
gru_41 (GRU)                    (None, 52)           42588       embedding_41[0][0]               
__________________________________________________________________________________________________
gru_42 (GRU)                    (None, 41)           9963        embedding_42[0][0]               
__________________________________________________________________________________________________
dropout_61 (Dropout)            (None, 52)           0           gru_41[0][0]                     
__________________________________________________________________________________________________
dropout_62 (Dropout)            (None, 41)           0           gru_42[0][0]                     
__________________________________________________________________________________________________
concatenate_21 (Concatenate)    (None, 93)           0           dropout_61[0][0]                 
                                                                 dropout_62[0][0]                 
__________________________________________________________________________________________________
dense_41 (Dense)                (None, 97)           9118        concatenate_21[0][0]             
__________________________________________________________________________________________________
dropout_63 (Dropout)            (None, 97)           0           dense_41[0][0]                   
__________________________________________________________________________________________________
dense_42 (Dense)                (None, 4)            392         dropout_63[0][0]                 
==================================================================================================
Total params: 327,267
Trainable params: 327,267
Non-trainable params: 0
__________________________________________________________________________________________________
None
Train on 432446 samples, validate on 48050 samples
Epoch 1/20
 - 211s - loss: 0.0699 - acc: 0.9787 - val_loss: 0.0930 - val_acc: 1.0000
…
	Training (Important) : 3124, Test : 1954
	MWEs in tain : 1372, occurrences : 3583
	Impotant words in tain : 1175
	MWE length mean : 2.13
	Seen MWEs : 386 (57 %)
	New MWEs : 284 (42 %)
==================================================================================================
__________________________________________________________________________________________________
Layer (type)                    Output Shape         Param #     Connected to                     
==================================================================================================
input_43 (InputLayer)           (None, 7)            0                                            
__________________________________________________________________________________________________
input_44 (InputLayer)           (None, 7)            0                                            
__________________________________________________________________________________________________
embedding_43 (Embedding)        (None, 7, 446)       525388      input_43[0][0]                   
__________________________________________________________________________________________________
embedding_44 (Embedding)        (None, 7, 51)        969         input_44[0][0]                   
__________________________________________________________________________________________________
gru_43 (GRU)                    (None, 21)           29484       embedding_43[0][0]               
__________________________________________________________________________________________________
gru_44 (GRU)                    (None, 30)           7380        embedding_44[0][0]               
__________________________________________________________________________________________________
dropout_64 (Dropout)            (None, 21)           0           gru_43[0][0]                     
__________________________________________________________________________________________________
dropout_65 (Dropout)            (None, 30)           0           gru_44[0][0]                     
__________________________________________________________________________________________________
concatenate_22 (Concatenate)    (None, 51)           0           dropout_64[0][0]                 
                                                                 dropout_65[0][0]                 
__________________________________________________________________________________________________
dense_43 (Dense)                (None, 45)           2340        concatenate_22[0][0]             
__________________________________________________________________________________________________
dropout_66 (Dropout)            (None, 45)           0           dense_43[0][0]                   
__________________________________________________________________________________________________
dense_44 (Dense)                (None, 4)            184         dropout_66[0][0]                 
==================================================================================================
Total params: 565,745
Trainable params: 565,745
Non-trainable params: 0
__________________________________________________________________________________________________
None
Train on 320835 samples, validate on 35649 samples
Epoch 1/20
 - 81s - loss: 0.0772 - acc: 0.9777 - val_loss: 0.0697 - val_acc: 0.9985
…
	Training (Important) : 2305, Test : 3117
	MWEs in tain : 1396, occurrences : 2518
	Impotant words in tain : 1131
	MWE length mean : 2.22
	Seen MWEs : 340 (61 %)
	New MWEs : 213 (38 %)
==================================================================================================
__________________________________________________________________________________________________
Layer (type)                    Output Shape         Param #     Connected to                     
==================================================================================================
input_45 (InputLayer)           (None, 7)            0                                            
__________________________________________________________________________________________________
input_46 (InputLayer)           (None, 7)            0                                            
__________________________________________________________________________________________________
embedding_45 (Embedding)        (None, 7, 446)       505764      input_45[0][0]                   
__________________________________________________________________________________________________
embedding_46 (Embedding)        (None, 7, 51)        969         input_46[0][0]                   
__________________________________________________________________________________________________
gru_45 (GRU)                    (None, 21)           29484       embedding_45[0][0]               
__________________________________________________________________________________________________
gru_46 (GRU)                    (None, 30)           7380        embedding_46[0][0]               
__________________________________________________________________________________________________
dropout_67 (Dropout)            (None, 21)           0           gru_45[0][0]                     
__________________________________________________________________________________________________
dropout_68 (Dropout)            (None, 30)           0           gru_46[0][0]                     
__________________________________________________________________________________________________
concatenate_23 (Concatenate)    (None, 51)           0           dropout_67[0][0]                 
                                                                 dropout_68[0][0]                 
__________________________________________________________________________________________________
dense_45 (Dense)                (None, 45)           2340        concatenate_23[0][0]             
__________________________________________________________________________________________________
dropout_69 (Dropout)            (None, 45)           0           dense_45[0][0]                   
__________________________________________________________________________________________________
dense_46 (Dense)                (None, 4)            184         dropout_69[0][0]                 
==================================================================================================
Total params: 546,121
Trainable params: 546,121
Non-trainable params: 0
__________________________________________________________________________________________________
None
Train on 217231 samples, validate on 24137 samples
Epoch 1/20
 - 55s - loss: 0.0873 - acc: 0.9737 - val_loss: 0.0568 - val_acc: 0.9991
…
	Training (Important) : 3585, Test : 1320
	MWEs in tain : 1790, occurrences : 4856
	Impotant words in tain : 1200
	MWE length mean : 2.06
	Seen MWEs : 345 (67 %)
	New MWEs : 165 (32 %)
==================================================================================================
__________________________________________________________________________________________________
Layer (type)                    Output Shape         Param #     Connected to                     
==================================================================================================
input_47 (InputLayer)           (None, 7)            0                                            
__________________________________________________________________________________________________
input_48 (InputLayer)           (None, 7)            0                                            
__________________________________________________________________________________________________
embedding_47 (Embedding)        (None, 7, 446)       536538      input_47[0][0]                   
__________________________________________________________________________________________________
embedding_48 (Embedding)        (None, 7, 51)        714         input_48[0][0]                   
__________________________________________________________________________________________________
gru_47 (GRU)                    (None, 21)           29484       embedding_47[0][0]               
__________________________________________________________________________________________________
gru_48 (GRU)                    (None, 30)           7380        embedding_48[0][0]               
__________________________________________________________________________________________________
dropout_70 (Dropout)            (None, 21)           0           gru_47[0][0]                     
__________________________________________________________________________________________________
dropout_71 (Dropout)            (None, 30)           0           gru_48[0][0]                     
__________________________________________________________________________________________________
concatenate_24 (Concatenate)    (None, 51)           0           dropout_70[0][0]                 
                                                                 dropout_71[0][0]                 
__________________________________________________________________________________________________
dense_47 (Dense)                (None, 45)           2340        concatenate_24[0][0]             
__________________________________________________________________________________________________
dropout_72 (Dropout)            (None, 45)           0           dense_47[0][0]                   
__________________________________________________________________________________________________
dense_48 (Dense)                (None, 4)            184         dropout_72[0][0]                 
==================================================================================================
Total params: 576,640
Trainable params: 576,640
Non-trainable params: 0
__________________________________________________________________________________________________
None
Train on 432446 samples, validate on 48050 samples
Epoch 1/20
 - 110s - loss: 0.0766 - acc: 0.9764 - val_loss: 0.0472 - val_acc: 1.0000
…
	Training (Important) : 3124, Test : 1954
	MWEs in tain : 1372, occurrences : 3583
	Impotant words in tain : 1175
	MWE length mean : 2.13
	Seen MWEs : 386 (57 %)
	New MWEs : 284 (42 %)
==================================================================================================
__________________________________________________________________________________________________
Layer (type)                    Output Shape         Param #     Connected to                     
==================================================================================================
input_49 (InputLayer)           (None, 7)            0                                            
__________________________________________________________________________________________________
input_50 (InputLayer)           (None, 7)            0                                            
__________________________________________________________________________________________________
embedding_49 (Embedding)        (None, 7, 408)       480624      input_49[0][0]                   
__________________________________________________________________________________________________
embedding_50 (Embedding)        (None, 7, 70)        1330        input_50[0][0]                   
__________________________________________________________________________________________________
gru_49 (GRU)                    (None, 49)           67326       embedding_49[0][0]               
__________________________________________________________________________________________________
gru_50 (GRU)                    (None, 47)           16638       embedding_50[0][0]               
__________________________________________________________________________________________________
dropout_73 (Dropout)            (None, 49)           0           gru_49[0][0]                     
__________________________________________________________________________________________________
dropout_74 (Dropout)            (None, 47)           0           gru_50[0][0]                     
__________________________________________________________________________________________________
concatenate_25 (Concatenate)    (None, 96)           0           dropout_73[0][0]                 
                                                                 dropout_74[0][0]                 
__________________________________________________________________________________________________
dense_49 (Dense)                (None, 16)           1552        concatenate_25[0][0]             
__________________________________________________________________________________________________
dropout_75 (Dropout)            (None, 16)           0           dense_49[0][0]                   
__________________________________________________________________________________________________
dense_50 (Dense)                (None, 4)            68          dropout_75[0][0]                 
==================================================================================================
Total params: 567,538
Trainable params: 567,538
Non-trainable params: 0
__________________________________________________________________________________________________
None
Train on 320835 samples, validate on 35649 samples
Epoch 1/20
 - 161s - loss: 0.0731 - acc: 0.9789 - val_loss: 0.0798 - val_acc: 0.9988
…
	Training (Important) : 2305, Test : 3117
	MWEs in tain : 1396, occurrences : 2518
	Impotant words in tain : 1131
	MWE length mean : 2.22
	Seen MWEs : 340 (61 %)
	New MWEs : 213 (38 %)
==================================================================================================
__________________________________________________________________________________________________
Layer (type)                    Output Shape         Param #     Connected to                     
==================================================================================================
input_51 (InputLayer)           (None, 7)            0                                            
__________________________________________________________________________________________________
input_52 (InputLayer)           (None, 7)            0                                            
__________________________________________________________________________________________________
embedding_51 (Embedding)        (None, 7, 408)       462672      input_51[0][0]                   
__________________________________________________________________________________________________
embedding_52 (Embedding)        (None, 7, 70)        1330        input_52[0][0]                   
__________________________________________________________________________________________________
gru_51 (GRU)                    (None, 49)           67326       embedding_51[0][0]               
__________________________________________________________________________________________________
gru_52 (GRU)                    (None, 47)           16638       embedding_52[0][0]               
__________________________________________________________________________________________________
dropout_76 (Dropout)            (None, 49)           0           gru_51[0][0]                     
__________________________________________________________________________________________________
dropout_77 (Dropout)            (None, 47)           0           gru_52[0][0]                     
__________________________________________________________________________________________________
concatenate_26 (Concatenate)    (None, 96)           0           dropout_76[0][0]                 
                                                                 dropout_77[0][0]                 
__________________________________________________________________________________________________
dense_51 (Dense)                (None, 16)           1552        concatenate_26[0][0]             
__________________________________________________________________________________________________
dropout_78 (Dropout)            (None, 16)           0           dense_51[0][0]                   
__________________________________________________________________________________________________
dense_52 (Dense)                (None, 4)            68          dropout_78[0][0]                 
==================================================================================================
Total params: 549,586
Trainable params: 549,586
Non-trainable params: 0
__________________________________________________________________________________________________
None
Train on 217231 samples, validate on 24137 samples
Epoch 1/20
 - 111s - loss: 0.0826 - acc: 0.9748 - val_loss: 0.1093 - val_acc: 0.9991
…
	Training (Important) : 3585, Test : 1320
	MWEs in tain : 1790, occurrences : 4856
	Impotant words in tain : 1200
	MWE length mean : 2.06
	Seen MWEs : 345 (67 %)
	New MWEs : 165 (32 %)
==================================================================================================
__________________________________________________________________________________________________
Layer (type)                    Output Shape         Param #     Connected to                     
==================================================================================================
input_53 (InputLayer)           (None, 7)            0                                            
__________________________________________________________________________________________________
input_54 (InputLayer)           (None, 7)            0                                            
__________________________________________________________________________________________________
embedding_53 (Embedding)        (None, 7, 408)       490824      input_53[0][0]                   
__________________________________________________________________________________________________
embedding_54 (Embedding)        (None, 7, 70)        980         input_54[0][0]                   
__________________________________________________________________________________________________
gru_53 (GRU)                    (None, 49)           67326       embedding_53[0][0]               
__________________________________________________________________________________________________
gru_54 (GRU)                    (None, 47)           16638       embedding_54[0][0]               
__________________________________________________________________________________________________
dropout_79 (Dropout)            (None, 49)           0           gru_53[0][0]                     
__________________________________________________________________________________________________
dropout_80 (Dropout)            (None, 47)           0           gru_54[0][0]                     
__________________________________________________________________________________________________
concatenate_27 (Concatenate)    (None, 96)           0           dropout_79[0][0]                 
                                                                 dropout_80[0][0]                 
__________________________________________________________________________________________________
dense_53 (Dense)                (None, 16)           1552        concatenate_27[0][0]             
__________________________________________________________________________________________________
dropout_81 (Dropout)            (None, 16)           0           dense_53[0][0]                   
__________________________________________________________________________________________________
dense_54 (Dense)                (None, 4)            68          dropout_81[0][0]                 
==================================================================================================
Total params: 577,388
Trainable params: 577,388
Non-trainable params: 0
__________________________________________________________________________________________________
None
Train on 432446 samples, validate on 48050 samples
Epoch 1/20
 - 240s - loss: 0.0724 - acc: 0.9782 - val_loss: 0.0602 - val_acc: 1.0000
…
	Training (Important) : 3124, Test : 1954
	MWEs in tain : 1372, occurrences : 3583
	Impotant words in tain : 1175
	MWE length mean : 2.13
	Seen MWEs : 386 (57 %)
	New MWEs : 284 (42 %)
==================================================================================================
__________________________________________________________________________________________________
Layer (type)                    Output Shape         Param #     Connected to                     
==================================================================================================
input_55 (InputLayer)           (None, 7)            0                                            
__________________________________________________________________________________________________
input_56 (InputLayer)           (None, 7)            0                                            
__________________________________________________________________________________________________
embedding_55 (Embedding)        (None, 7, 457)       538346      input_55[0][0]                   
__________________________________________________________________________________________________
embedding_56 (Embedding)        (None, 7, 36)        684         input_56[0][0]                   
__________________________________________________________________________________________________
gru_55 (GRU)                    (None, 24)           34704       embedding_55[0][0]               
__________________________________________________________________________________________________
gru_56 (GRU)                    (None, 13)           1950        embedding_56[0][0]               
__________________________________________________________________________________________________
dropout_82 (Dropout)            (None, 24)           0           gru_55[0][0]                     
__________________________________________________________________________________________________
dropout_83 (Dropout)            (None, 13)           0           gru_56[0][0]                     
__________________________________________________________________________________________________
concatenate_28 (Concatenate)    (None, 37)           0           dropout_82[0][0]                 
                                                                 dropout_83[0][0]                 
__________________________________________________________________________________________________
dense_55 (Dense)                (None, 71)           2698        concatenate_28[0][0]             
__________________________________________________________________________________________________
dropout_84 (Dropout)            (None, 71)           0           dense_55[0][0]                   
__________________________________________________________________________________________________
dense_56 (Dense)                (None, 4)            288         dropout_84[0][0]                 
==================================================================================================
Total params: 578,670
Trainable params: 578,670
Non-trainable params: 0
__________________________________________________________________________________________________
None
Train on 320835 samples, validate on 35649 samples
Epoch 1/20
 - 163s - loss: 0.0794 - acc: 0.9776 - val_loss: 0.0762 - val_acc: 0.9999
…
	Training (Important) : 2305, Test : 3117
	MWEs in tain : 1396, occurrences : 2518
	Impotant words in tain : 1131
	MWE length mean : 2.22
	Seen MWEs : 340 (61 %)
	New MWEs : 213 (38 %)
==================================================================================================
__________________________________________________________________________________________________
Layer (type)                    Output Shape         Param #     Connected to                     
==================================================================================================
input_57 (InputLayer)           (None, 7)            0                                            
__________________________________________________________________________________________________
input_58 (InputLayer)           (None, 7)            0                                            
__________________________________________________________________________________________________
embedding_57 (Embedding)        (None, 7, 457)       518238      input_57[0][0]                   
__________________________________________________________________________________________________
embedding_58 (Embedding)        (None, 7, 36)        684         input_58[0][0]                   
__________________________________________________________________________________________________
gru_57 (GRU)                    (None, 24)           34704       embedding_57[0][0]               
__________________________________________________________________________________________________
gru_58 (GRU)                    (None, 13)           1950        embedding_58[0][0]               
__________________________________________________________________________________________________
dropout_85 (Dropout)            (None, 24)           0           gru_57[0][0]                     
__________________________________________________________________________________________________
dropout_86 (Dropout)            (None, 13)           0           gru_58[0][0]                     
__________________________________________________________________________________________________
concatenate_29 (Concatenate)    (None, 37)           0           dropout_85[0][0]                 
                                                                 dropout_86[0][0]                 
__________________________________________________________________________________________________
dense_57 (Dense)                (None, 71)           2698        concatenate_29[0][0]             
__________________________________________________________________________________________________
dropout_87 (Dropout)            (None, 71)           0           dense_57[0][0]                   
__________________________________________________________________________________________________
dense_58 (Dense)                (None, 4)            288         dropout_87[0][0]                 
==================================================================================================
Total params: 558,562
Trainable params: 558,562
Non-trainable params: 0
__________________________________________________________________________________________________
None
Train on 217231 samples, validate on 24137 samples
Epoch 1/20
 - 105s - loss: 0.0920 - acc: 0.9726 - val_loss: 0.0870 - val_acc: 0.9988
…
	Training (Important) : 3585, Test : 1320
	MWEs in tain : 1790, occurrences : 4856
	Impotant words in tain : 1200
	MWE length mean : 2.06
	Seen MWEs : 345 (67 %)
	New MWEs : 165 (32 %)
==================================================================================================
__________________________________________________________________________________________________
Layer (type)                    Output Shape         Param #     Connected to                     
==================================================================================================
input_59 (InputLayer)           (None, 7)            0                                            
__________________________________________________________________________________________________
input_60 (InputLayer)           (None, 7)            0                                            
__________________________________________________________________________________________________
embedding_59 (Embedding)        (None, 7, 457)       549771      input_59[0][0]                   
__________________________________________________________________________________________________
embedding_60 (Embedding)        (None, 7, 36)        504         input_60[0][0]                   
__________________________________________________________________________________________________
gru_59 (GRU)                    (None, 24)           34704       embedding_59[0][0]               
__________________________________________________________________________________________________
gru_60 (GRU)                    (None, 13)           1950        embedding_60[0][0]               
__________________________________________________________________________________________________
dropout_88 (Dropout)            (None, 24)           0           gru_59[0][0]                     
__________________________________________________________________________________________________
dropout_89 (Dropout)            (None, 13)           0           gru_60[0][0]                     
__________________________________________________________________________________________________
concatenate_30 (Concatenate)    (None, 37)           0           dropout_88[0][0]                 
                                                                 dropout_89[0][0]                 
__________________________________________________________________________________________________
dense_59 (Dense)                (None, 71)           2698        concatenate_30[0][0]             
__________________________________________________________________________________________________
dropout_90 (Dropout)            (None, 71)           0           dense_59[0][0]                   
__________________________________________________________________________________________________
dense_60 (Dense)                (None, 4)            288         dropout_90[0][0]                 
==================================================================================================
Total params: 589,915
Trainable params: 589,915
Non-trainable params: 0
__________________________________________________________________________________________________
None
Train on 432446 samples, validate on 48050 samples
Epoch 1/20
 - 212s - loss: 0.0806 - acc: 0.9759 - val_loss: 0.0970 - val_acc: 1.0000
…
	Training (Important) : 3124, Test : 1954
	MWEs in tain : 1372, occurrences : 3583
	Impotant words in tain : 1175
	MWE length mean : 2.13
	Seen MWEs : 386 (57 %)
	New MWEs : 284 (42 %)
==================================================================================================
__________________________________________________________________________________________________
Layer (type)                    Output Shape         Param #     Connected to                     
==================================================================================================
input_61 (InputLayer)           (None, 7)            0                                            
__________________________________________________________________________________________________
input_62 (InputLayer)           (None, 7)            0                                            
__________________________________________________________________________________________________
embedding_61 (Embedding)        (None, 7, 205)       241490      input_61[0][0]                   
__________________________________________________________________________________________________
embedding_62 (Embedding)        (None, 7, 76)        1444        input_62[0][0]                   
__________________________________________________________________________________________________
gru_61 (GRU)                    (None, 66)           53856       embedding_61[0][0]               
__________________________________________________________________________________________________
gru_62 (GRU)                    (None, 35)           11760       embedding_62[0][0]               
__________________________________________________________________________________________________
dropout_91 (Dropout)            (None, 66)           0           gru_61[0][0]                     
__________________________________________________________________________________________________
dropout_92 (Dropout)            (None, 35)           0           gru_62[0][0]                     
__________________________________________________________________________________________________
concatenate_31 (Concatenate)    (None, 101)          0           dropout_91[0][0]                 
                                                                 dropout_92[0][0]                 
__________________________________________________________________________________________________
dense_61 (Dense)                (None, 19)           1938        concatenate_31[0][0]             
__________________________________________________________________________________________________
dropout_93 (Dropout)            (None, 19)           0           dense_61[0][0]                   
__________________________________________________________________________________________________
dense_62 (Dense)                (None, 4)            80          dropout_93[0][0]                 
==================================================================================================
Total params: 310,568
Trainable params: 310,568
Non-trainable params: 0
__________________________________________________________________________________________________
None
Train on 320835 samples, validate on 35649 samples
Epoch 1/20
 - 157s - loss: 0.0776 - acc: 0.9773 - val_loss: 0.0604 - val_acc: 0.9998
…
	Training (Important) : 2305, Test : 3117
	MWEs in tain : 1396, occurrences : 2518
	Impotant words in tain : 1131
	MWE length mean : 2.22
	Seen MWEs : 340 (61 %)
	New MWEs : 213 (38 %)
==================================================================================================
__________________________________________________________________________________________________
Layer (type)                    Output Shape         Param #     Connected to                     
==================================================================================================
input_63 (InputLayer)           (None, 7)            0                                            
__________________________________________________________________________________________________
input_64 (InputLayer)           (None, 7)            0                                            
__________________________________________________________________________________________________
embedding_63 (Embedding)        (None, 7, 205)       232470      input_63[0][0]                   
__________________________________________________________________________________________________
embedding_64 (Embedding)        (None, 7, 76)        1444        input_64[0][0]                   
__________________________________________________________________________________________________
gru_63 (GRU)                    (None, 66)           53856       embedding_63[0][0]               
__________________________________________________________________________________________________
gru_64 (GRU)                    (None, 35)           11760       embedding_64[0][0]               
__________________________________________________________________________________________________
dropout_94 (Dropout)            (None, 66)           0           gru_63[0][0]                     
__________________________________________________________________________________________________
dropout_95 (Dropout)            (None, 35)           0           gru_64[0][0]                     
__________________________________________________________________________________________________
concatenate_32 (Concatenate)    (None, 101)          0           dropout_94[0][0]                 
                                                                 dropout_95[0][0]                 
__________________________________________________________________________________________________
dense_63 (Dense)                (None, 19)           1938        concatenate_32[0][0]             
__________________________________________________________________________________________________
dropout_96 (Dropout)            (None, 19)           0           dense_63[0][0]                   
__________________________________________________________________________________________________
dense_64 (Dense)                (None, 4)            80          dropout_96[0][0]                 
==================================================================================================
Total params: 301,548
Trainable params: 301,548
Non-trainable params: 0
__________________________________________________________________________________________________
None
Train on 217231 samples, validate on 24137 samples
Epoch 1/20
 - 107s - loss: 0.0848 - acc: 0.9748 - val_loss: 0.0877 - val_acc: 0.9994
…
	Training (Important) : 3585, Test : 1320
	MWEs in tain : 1790, occurrences : 4856
	Impotant words in tain : 1200
	MWE length mean : 2.06
	Seen MWEs : 345 (67 %)
	New MWEs : 165 (32 %)
==================================================================================================
__________________________________________________________________________________________________
Layer (type)                    Output Shape         Param #     Connected to                     
==================================================================================================
input_65 (InputLayer)           (None, 7)            0                                            
__________________________________________________________________________________________________
input_66 (InputLayer)           (None, 7)            0                                            
__________________________________________________________________________________________________
embedding_65 (Embedding)        (None, 7, 205)       246615      input_65[0][0]                   
__________________________________________________________________________________________________
embedding_66 (Embedding)        (None, 7, 76)        1064        input_66[0][0]                   
__________________________________________________________________________________________________
gru_65 (GRU)                    (None, 66)           53856       embedding_65[0][0]               
__________________________________________________________________________________________________
gru_66 (GRU)                    (None, 35)           11760       embedding_66[0][0]               
__________________________________________________________________________________________________
dropout_97 (Dropout)            (None, 66)           0           gru_65[0][0]                     
__________________________________________________________________________________________________
dropout_98 (Dropout)            (None, 35)           0           gru_66[0][0]                     
__________________________________________________________________________________________________
concatenate_33 (Concatenate)    (None, 101)          0           dropout_97[0][0]                 
                                                                 dropout_98[0][0]                 
__________________________________________________________________________________________________
dense_65 (Dense)                (None, 19)           1938        concatenate_33[0][0]             
__________________________________________________________________________________________________
dropout_99 (Dropout)            (None, 19)           0           dense_65[0][0]                   
__________________________________________________________________________________________________
dense_66 (Dense)                (None, 4)            80          dropout_99[0][0]                 
==================================================================================================
Total params: 315,313
Trainable params: 315,313
Non-trainable params: 0
__________________________________________________________________________________________________
None
Train on 432446 samples, validate on 48050 samples
Epoch 1/20
 - 212s - loss: 0.0760 - acc: 0.9771 - val_loss: 0.0507 - val_acc: 1.0000
…
	Training (Important) : 3124, Test : 1954
	MWEs in tain : 1372, occurrences : 3583
	Impotant words in tain : 1175
	MWE length mean : 2.13
	Seen MWEs : 386 (57 %)
	New MWEs : 284 (42 %)
==================================================================================================
__________________________________________________________________________________________________
Layer (type)                    Output Shape         Param #     Connected to                     
==================================================================================================
input_67 (InputLayer)           (None, 7)            0                                            
__________________________________________________________________________________________________
input_68 (InputLayer)           (None, 7)            0                                            
__________________________________________________________________________________________________
embedding_67 (Embedding)        (None, 7, 250)       294500      input_67[0][0]                   
__________________________________________________________________________________________________
embedding_68 (Embedding)        (None, 7, 25)        475         input_68[0][0]                   
__________________________________________________________________________________________________
gru_67 (GRU)                    (None, 71)           68586       embedding_67[0][0]               
__________________________________________________________________________________________________
gru_68 (GRU)                    (None, 13)           1521        embedding_68[0][0]               
__________________________________________________________________________________________________
dropout_100 (Dropout)           (None, 71)           0           gru_67[0][0]                     
__________________________________________________________________________________________________
dropout_101 (Dropout)           (None, 13)           0           gru_68[0][0]                     
__________________________________________________________________________________________________
concatenate_34 (Concatenate)    (None, 84)           0           dropout_100[0][0]                
                                                                 dropout_101[0][0]                
__________________________________________________________________________________________________
dense_67 (Dense)                (None, 34)           2890        concatenate_34[0][0]             
__________________________________________________________________________________________________
dropout_102 (Dropout)           (None, 34)           0           dense_67[0][0]                   
__________________________________________________________________________________________________
dense_68 (Dense)                (None, 4)            140         dropout_102[0][0]                
==================================================================================================
Total params: 368,112
Trainable params: 368,112
Non-trainable params: 0
__________________________________________________________________________________________________
None
Train on 320835 samples, validate on 35649 samples
Epoch 1/20
 - 83s - loss: 0.0795 - acc: 0.9777 - val_loss: 0.0638 - val_acc: 0.9997
…
	Training (Important) : 2305, Test : 3117
	MWEs in tain : 1396, occurrences : 2518
	Impotant words in tain : 1131
	MWE length mean : 2.22
	Seen MWEs : 340 (61 %)
	New MWEs : 213 (38 %)
==================================================================================================
__________________________________________________________________________________________________
Layer (type)                    Output Shape         Param #     Connected to                     
==================================================================================================
input_69 (InputLayer)           (None, 7)            0                                            
__________________________________________________________________________________________________
input_70 (InputLayer)           (None, 7)            0                                            
__________________________________________________________________________________________________
embedding_69 (Embedding)        (None, 7, 250)       283500      input_69[0][0]                   
__________________________________________________________________________________________________
embedding_70 (Embedding)        (None, 7, 25)        475         input_70[0][0]                   
__________________________________________________________________________________________________
gru_69 (GRU)                    (None, 71)           68586       embedding_69[0][0]               
__________________________________________________________________________________________________
gru_70 (GRU)                    (None, 13)           1521        embedding_70[0][0]               
__________________________________________________________________________________________________
dropout_103 (Dropout)           (None, 71)           0           gru_69[0][0]                     
__________________________________________________________________________________________________
dropout_104 (Dropout)           (None, 13)           0           gru_70[0][0]                     
__________________________________________________________________________________________________
concatenate_35 (Concatenate)    (None, 84)           0           dropout_103[0][0]                
                                                                 dropout_104[0][0]                
__________________________________________________________________________________________________
dense_69 (Dense)                (None, 34)           2890        concatenate_35[0][0]             
__________________________________________________________________________________________________
dropout_105 (Dropout)           (None, 34)           0           dense_69[0][0]                   
__________________________________________________________________________________________________
dense_70 (Dense)                (None, 4)            140         dropout_105[0][0]                
==================================================================================================
Total params: 357,112
Trainable params: 357,112
Non-trainable params: 0
__________________________________________________________________________________________________
None
Train on 217231 samples, validate on 24137 samples
Epoch 1/20
 - 55s - loss: 0.0896 - acc: 0.9730 - val_loss: 0.1043 - val_acc: 0.9994
…
	Training (Important) : 3585, Test : 1320
	MWEs in tain : 1790, occurrences : 4856
	Impotant words in tain : 1200
	MWE length mean : 2.06
	Seen MWEs : 345 (67 %)
	New MWEs : 165 (32 %)
==================================================================================================
__________________________________________________________________________________________________
Layer (type)                    Output Shape         Param #     Connected to                     
==================================================================================================
input_71 (InputLayer)           (None, 7)            0                                            
__________________________________________________________________________________________________
input_72 (InputLayer)           (None, 7)            0                                            
__________________________________________________________________________________________________
embedding_71 (Embedding)        (None, 7, 250)       300750      input_71[0][0]                   
__________________________________________________________________________________________________
embedding_72 (Embedding)        (None, 7, 25)        350         input_72[0][0]                   
__________________________________________________________________________________________________
gru_71 (GRU)                    (None, 71)           68586       embedding_71[0][0]               
__________________________________________________________________________________________________
gru_72 (GRU)                    (None, 13)           1521        embedding_72[0][0]               
__________________________________________________________________________________________________
dropout_106 (Dropout)           (None, 71)           0           gru_71[0][0]                     
__________________________________________________________________________________________________
dropout_107 (Dropout)           (None, 13)           0           gru_72[0][0]                     
__________________________________________________________________________________________________
concatenate_36 (Concatenate)    (None, 84)           0           dropout_106[0][0]                
                                                                 dropout_107[0][0]                
__________________________________________________________________________________________________
dense_71 (Dense)                (None, 34)           2890        concatenate_36[0][0]             
__________________________________________________________________________________________________
dropout_108 (Dropout)           (None, 34)           0           dense_71[0][0]                   
__________________________________________________________________________________________________
dense_72 (Dense)                (None, 4)            140         dropout_108[0][0]                
==================================================================================================
Total params: 374,237
Trainable params: 374,237
Non-trainable params: 0
__________________________________________________________________________________________________
None
Train on 432446 samples, validate on 48050 samples
Epoch 1/20
 - 106s - loss: 0.0762 - acc: 0.9771 - val_loss: 0.0748 - val_acc: 1.0000
…
	Training (Important) : 3124, Test : 1954
	MWEs in tain : 1372, occurrences : 3583
	Impotant words in tain : 1175
	MWE length mean : 2.13
	Seen MWEs : 386 (57 %)
	New MWEs : 284 (42 %)
==================================================================================================
__________________________________________________________________________________________________
Layer (type)                    Output Shape         Param #     Connected to                     
==================================================================================================
input_73 (InputLayer)           (None, 7)            0                                            
__________________________________________________________________________________________________
input_74 (InputLayer)           (None, 7)            0                                            
__________________________________________________________________________________________________
embedding_73 (Embedding)        (None, 7, 453)       533634      input_73[0][0]                   
__________________________________________________________________________________________________
embedding_74 (Embedding)        (None, 7, 39)        741         input_74[0][0]                   
__________________________________________________________________________________________________
gru_73 (GRU)                    (None, 73)           115413      embedding_73[0][0]               
__________________________________________________________________________________________________
gru_74 (GRU)                    (None, 17)           2907        embedding_74[0][0]               
__________________________________________________________________________________________________
dropout_109 (Dropout)           (None, 73)           0           gru_73[0][0]                     
__________________________________________________________________________________________________
dropout_110 (Dropout)           (None, 17)           0           gru_74[0][0]                     
__________________________________________________________________________________________________
concatenate_37 (Concatenate)    (None, 90)           0           dropout_109[0][0]                
                                                                 dropout_110[0][0]                
__________________________________________________________________________________________________
dense_73 (Dense)                (None, 32)           2912        concatenate_37[0][0]             
__________________________________________________________________________________________________
dropout_111 (Dropout)           (None, 32)           0           dense_73[0][0]                   
__________________________________________________________________________________________________
dense_74 (Dense)                (None, 4)            132         dropout_111[0][0]                
==================================================================================================
Total params: 655,739
Trainable params: 655,739
Non-trainable params: 0
__________________________________________________________________________________________________
None
Train on 320835 samples, validate on 35649 samples
Epoch 1/20
 - 156s - loss: 0.0755 - acc: 0.9783 - val_loss: 0.0508 - val_acc: 0.9994
…
	Training (Important) : 2305, Test : 3117
	MWEs in tain : 1396, occurrences : 2518
	Impotant words in tain : 1131
	MWE length mean : 2.22
	Seen MWEs : 340 (61 %)
	New MWEs : 213 (38 %)
==================================================================================================
__________________________________________________________________________________________________
Layer (type)                    Output Shape         Param #     Connected to                     
==================================================================================================
input_75 (InputLayer)           (None, 7)            0                                            
__________________________________________________________________________________________________
input_76 (InputLayer)           (None, 7)            0                                            
__________________________________________________________________________________________________
embedding_75 (Embedding)        (None, 7, 453)       513702      input_75[0][0]                   
__________________________________________________________________________________________________
embedding_76 (Embedding)        (None, 7, 39)        741         input_76[0][0]                   
__________________________________________________________________________________________________
gru_75 (GRU)                    (None, 73)           115413      embedding_75[0][0]               
__________________________________________________________________________________________________
gru_76 (GRU)                    (None, 17)           2907        embedding_76[0][0]               
__________________________________________________________________________________________________
dropout_112 (Dropout)           (None, 73)           0           gru_75[0][0]                     
__________________________________________________________________________________________________
dropout_113 (Dropout)           (None, 17)           0           gru_76[0][0]                     
__________________________________________________________________________________________________
concatenate_38 (Concatenate)    (None, 90)           0           dropout_112[0][0]                
                                                                 dropout_113[0][0]                
__________________________________________________________________________________________________
dense_75 (Dense)                (None, 32)           2912        concatenate_38[0][0]             
__________________________________________________________________________________________________
dropout_114 (Dropout)           (None, 32)           0           dense_75[0][0]                   
__________________________________________________________________________________________________
dense_76 (Dense)                (None, 4)            132         dropout_114[0][0]                
==================================================================================================
Total params: 635,807
Trainable params: 635,807
Non-trainable params: 0
__________________________________________________________________________________________________
None
Train on 217231 samples, validate on 24137 samples
Epoch 1/20
 - 115s - loss: 0.0879 - acc: 0.9732 - val_loss: 0.0773 - val_acc: 0.9987
…
	Training (Important) : 3585, Test : 1320
	MWEs in tain : 1790, occurrences : 4856
	Impotant words in tain : 1200
	MWE length mean : 2.06
	Seen MWEs : 345 (67 %)
	New MWEs : 165 (32 %)
==================================================================================================
__________________________________________________________________________________________________
Layer (type)                    Output Shape         Param #     Connected to                     
==================================================================================================
input_77 (InputLayer)           (None, 7)            0                                            
__________________________________________________________________________________________________
input_78 (InputLayer)           (None, 7)            0                                            
__________________________________________________________________________________________________
embedding_77 (Embedding)        (None, 7, 453)       544959      input_77[0][0]                   
__________________________________________________________________________________________________
embedding_78 (Embedding)        (None, 7, 39)        546         input_78[0][0]                   
__________________________________________________________________________________________________
gru_77 (GRU)                    (None, 73)           115413      embedding_77[0][0]               
__________________________________________________________________________________________________
gru_78 (GRU)                    (None, 17)           2907        embedding_78[0][0]               
__________________________________________________________________________________________________
dropout_115 (Dropout)           (None, 73)           0           gru_77[0][0]                     
__________________________________________________________________________________________________
dropout_116 (Dropout)           (None, 17)           0           gru_78[0][0]                     
__________________________________________________________________________________________________
concatenate_39 (Concatenate)    (None, 90)           0           dropout_115[0][0]                
                                                                 dropout_116[0][0]                
__________________________________________________________________________________________________
dense_77 (Dense)                (None, 32)           2912        concatenate_39[0][0]             
__________________________________________________________________________________________________
dropout_117 (Dropout)           (None, 32)           0           dense_77[0][0]                   
__________________________________________________________________________________________________
dense_78 (Dense)                (None, 4)            132         dropout_117[0][0]                
==================================================================================================
Total params: 666,869
Trainable params: 666,869
Non-trainable params: 0
__________________________________________________________________________________________________
None
Train on 432446 samples, validate on 48050 samples
Epoch 1/20
 - 215s - loss: 0.0760 - acc: 0.9774 - val_loss: 0.0618 - val_acc: 1.0000
…
	Training (Important) : 3124, Test : 1954
	MWEs in tain : 1372, occurrences : 3583
	Impotant words in tain : 1175
	MWE length mean : 2.13
	Seen MWEs : 386 (57 %)
	New MWEs : 284 (42 %)
==================================================================================================
__________________________________________________________________________________________________
Layer (type)                    Output Shape         Param #     Connected to                     
==================================================================================================
input_79 (InputLayer)           (None, 7)            0                                            
__________________________________________________________________________________________________
input_80 (InputLayer)           (None, 7)            0                                            
__________________________________________________________________________________________________
embedding_79 (Embedding)        (None, 7, 393)       462954      input_79[0][0]                   
__________________________________________________________________________________________________
embedding_80 (Embedding)        (None, 7, 25)        475         input_80[0][0]                   
__________________________________________________________________________________________________
gru_79 (GRU)                    (None, 39)           50661       embedding_79[0][0]               
__________________________________________________________________________________________________
gru_80 (GRU)                    (None, 18)           2376        embedding_80[0][0]               
__________________________________________________________________________________________________
dropout_118 (Dropout)           (None, 39)           0           gru_79[0][0]                     
__________________________________________________________________________________________________
dropout_119 (Dropout)           (None, 18)           0           gru_80[0][0]                     
__________________________________________________________________________________________________
concatenate_40 (Concatenate)    (None, 57)           0           dropout_118[0][0]                
                                                                 dropout_119[0][0]                
__________________________________________________________________________________________________
dense_79 (Dense)                (None, 87)           5046        concatenate_40[0][0]             
__________________________________________________________________________________________________
dropout_120 (Dropout)           (None, 87)           0           dense_79[0][0]                   
__________________________________________________________________________________________________
dense_80 (Dense)                (None, 4)            352         dropout_120[0][0]                
==================================================================================================
Total params: 521,864
Trainable params: 521,864
Non-trainable params: 0
__________________________________________________________________________________________________
None
Train on 320835 samples, validate on 35649 samples
Epoch 1/20
 - 325s - loss: 0.0723 - acc: 0.9795 - val_loss: 0.1183 - val_acc: 1.0000
…
	Training (Important) : 2305, Test : 3117
	MWEs in tain : 1396, occurrences : 2518
	Impotant words in tain : 1131
	MWE length mean : 2.22
	Seen MWEs : 340 (61 %)
	New MWEs : 213 (38 %)
==================================================================================================
__________________________________________________________________________________________________
Layer (type)                    Output Shape         Param #     Connected to                     
==================================================================================================
input_81 (InputLayer)           (None, 7)            0                                            
__________________________________________________________________________________________________
input_82 (InputLayer)           (None, 7)            0                                            
__________________________________________________________________________________________________
embedding_81 (Embedding)        (None, 7, 393)       445662      input_81[0][0]                   
__________________________________________________________________________________________________
embedding_82 (Embedding)        (None, 7, 25)        475         input_82[0][0]                   
__________________________________________________________________________________________________
gru_81 (GRU)                    (None, 39)           50661       embedding_81[0][0]               
__________________________________________________________________________________________________
gru_82 (GRU)                    (None, 18)           2376        embedding_82[0][0]               
__________________________________________________________________________________________________
dropout_121 (Dropout)           (None, 39)           0           gru_81[0][0]                     
__________________________________________________________________________________________________
dropout_122 (Dropout)           (None, 18)           0           gru_82[0][0]                     
__________________________________________________________________________________________________
concatenate_41 (Concatenate)    (None, 57)           0           dropout_121[0][0]                
                                                                 dropout_122[0][0]                
__________________________________________________________________________________________________
dense_81 (Dense)                (None, 87)           5046        concatenate_41[0][0]             
__________________________________________________________________________________________________
dropout_123 (Dropout)           (None, 87)           0           dense_81[0][0]                   
__________________________________________________________________________________________________
dense_82 (Dense)                (None, 4)            352         dropout_123[0][0]                
==================================================================================================
Total params: 504,572
Trainable params: 504,572
Non-trainable params: 0
__________________________________________________________________________________________________
None
Train on 217231 samples, validate on 24137 samples
Epoch 1/20
 - 223s - loss: 0.0819 - acc: 0.9755 - val_loss: 0.1029 - val_acc: 0.9994
…
	Training (Important) : 3585, Test : 1320
	MWEs in tain : 1790, occurrences : 4856
	Impotant words in tain : 1200
	MWE length mean : 2.06
	Seen MWEs : 345 (67 %)
	New MWEs : 165 (32 %)
==================================================================================================
__________________________________________________________________________________________________
Layer (type)                    Output Shape         Param #     Connected to                     
==================================================================================================
input_83 (InputLayer)           (None, 7)            0                                            
__________________________________________________________________________________________________
input_84 (InputLayer)           (None, 7)            0                                            
__________________________________________________________________________________________________
embedding_83 (Embedding)        (None, 7, 393)       472779      input_83[0][0]                   
__________________________________________________________________________________________________
embedding_84 (Embedding)        (None, 7, 25)        350         input_84[0][0]                   
__________________________________________________________________________________________________
gru_83 (GRU)                    (None, 39)           50661       embedding_83[0][0]               
__________________________________________________________________________________________________
gru_84 (GRU)                    (None, 18)           2376        embedding_84[0][0]               
__________________________________________________________________________________________________
dropout_124 (Dropout)           (None, 39)           0           gru_83[0][0]                     
__________________________________________________________________________________________________
dropout_125 (Dropout)           (None, 18)           0           gru_84[0][0]                     
__________________________________________________________________________________________________
concatenate_42 (Concatenate)    (None, 57)           0           dropout_124[0][0]                
                                                                 dropout_125[0][0]                
__________________________________________________________________________________________________
dense_83 (Dense)                (None, 87)           5046        concatenate_42[0][0]             
__________________________________________________________________________________________________
dropout_126 (Dropout)           (None, 87)           0           dense_83[0][0]                   
__________________________________________________________________________________________________
dense_84 (Dense)                (None, 4)            352         dropout_126[0][0]                
==================================================================================================
Total params: 531,564
Trainable params: 531,564
Non-trainable params: 0
__________________________________________________________________________________________________
None
Train on 432446 samples, validate on 48050 samples
Epoch 1/20
 - 425s - loss: 0.0737 - acc: 0.9779 - val_loss: 0.0579 - val_acc: 1.0000
…
	Training (Important) : 3124, Test : 1954
	MWEs in tain : 1372, occurrences : 3583
	Impotant words in tain : 1175
	MWE length mean : 2.13
	Seen MWEs : 386 (57 %)
	New MWEs : 284 (42 %)
==================================================================================================
__________________________________________________________________________________________________
Layer (type)                    Output Shape         Param #     Connected to                     
==================================================================================================
input_85 (InputLayer)           (None, 7)            0                                            
__________________________________________________________________________________________________
input_86 (InputLayer)           (None, 7)            0                                            
__________________________________________________________________________________________________
embedding_85 (Embedding)        (None, 7, 210)       247380      input_85[0][0]                   
__________________________________________________________________________________________________
embedding_86 (Embedding)        (None, 7, 55)        1045        input_86[0][0]                   
__________________________________________________________________________________________________
gru_85 (GRU)                    (None, 54)           42930       embedding_85[0][0]               
__________________________________________________________________________________________________
gru_86 (GRU)                    (None, 5)            915         embedding_86[0][0]               
__________________________________________________________________________________________________
dropout_127 (Dropout)           (None, 54)           0           gru_85[0][0]                     
__________________________________________________________________________________________________
dropout_128 (Dropout)           (None, 5)            0           gru_86[0][0]                     
__________________________________________________________________________________________________
concatenate_43 (Concatenate)    (None, 59)           0           dropout_127[0][0]                
                                                                 dropout_128[0][0]                
__________________________________________________________________________________________________
dense_85 (Dense)                (None, 90)           5400        concatenate_43[0][0]             
__________________________________________________________________________________________________
dropout_129 (Dropout)           (None, 90)           0           dense_85[0][0]                   
__________________________________________________________________________________________________
dense_86 (Dense)                (None, 4)            364         dropout_129[0][0]                
==================================================================================================
Total params: 298,034
Trainable params: 298,034
Non-trainable params: 0
__________________________________________________________________________________________________
None
Train on 320835 samples, validate on 35649 samples
Epoch 1/20
 - 347s - loss: 0.0714 - acc: 0.9796 - val_loss: 0.0642 - val_acc: 0.9999
…
	Training (Important) : 2305, Test : 3117
	MWEs in tain : 1396, occurrences : 2518
	Impotant words in tain : 1131
	MWE length mean : 2.22
	Seen MWEs : 340 (61 %)
	New MWEs : 213 (38 %)
==================================================================================================
__________________________________________________________________________________________________
Layer (type)                    Output Shape         Param #     Connected to                     
==================================================================================================
input_87 (InputLayer)           (None, 7)            0                                            
__________________________________________________________________________________________________
input_88 (InputLayer)           (None, 7)            0                                            
__________________________________________________________________________________________________
embedding_87 (Embedding)        (None, 7, 210)       238140      input_87[0][0]                   
__________________________________________________________________________________________________
embedding_88 (Embedding)        (None, 7, 55)        1045        input_88[0][0]                   
__________________________________________________________________________________________________
gru_87 (GRU)                    (None, 54)           42930       embedding_87[0][0]               
__________________________________________________________________________________________________
gru_88 (GRU)                    (None, 5)            915         embedding_88[0][0]               
__________________________________________________________________________________________________
dropout_130 (Dropout)           (None, 54)           0           gru_87[0][0]                     
__________________________________________________________________________________________________
dropout_131 (Dropout)           (None, 5)            0           gru_88[0][0]                     
__________________________________________________________________________________________________
concatenate_44 (Concatenate)    (None, 59)           0           dropout_130[0][0]                
                                                                 dropout_131[0][0]                
__________________________________________________________________________________________________
dense_87 (Dense)                (None, 90)           5400        concatenate_44[0][0]             
__________________________________________________________________________________________________
dropout_132 (Dropout)           (None, 90)           0           dense_87[0][0]                   
__________________________________________________________________________________________________
dense_88 (Dense)                (None, 4)            364         dropout_132[0][0]                
==================================================================================================
Total params: 288,794
Trainable params: 288,794
Non-trainable params: 0
__________________________________________________________________________________________________
None
Train on 217231 samples, validate on 24137 samples
Epoch 1/20
 - 214s - loss: 0.0842 - acc: 0.9749 - val_loss: 0.0641 - val_acc: 0.9994
…
	Training (Important) : 3585, Test : 1320
	MWEs in tain : 1790, occurrences : 4856
	Impotant words in tain : 1200
	MWE length mean : 2.06
	Seen MWEs : 345 (67 %)
	New MWEs : 165 (32 %)
==================================================================================================
__________________________________________________________________________________________________
Layer (type)                    Output Shape         Param #     Connected to                     
==================================================================================================
input_89 (InputLayer)           (None, 7)            0                                            
__________________________________________________________________________________________________
input_90 (InputLayer)           (None, 7)            0                                            
__________________________________________________________________________________________________
embedding_89 (Embedding)        (None, 7, 210)       252630      input_89[0][0]                   
__________________________________________________________________________________________________
embedding_90 (Embedding)        (None, 7, 55)        770         input_90[0][0]                   
__________________________________________________________________________________________________
gru_89 (GRU)                    (None, 54)           42930       embedding_89[0][0]               
__________________________________________________________________________________________________
gru_90 (GRU)                    (None, 5)            915         embedding_90[0][0]               
…
==================================================================================================
input_95 (InputLayer)           (None, 7)            0                                            
__________________________________________________________________________________________________
input_96 (InputLayer)           (None, 7)            0                                            
__________________________________________________________________________________________________
embedding_95 (Embedding)        (None, 7, 242)       291126      input_95[0][0]                   
__________________________________________________________________________________________________
embedding_96 (Embedding)        (None, 7, 84)        1176        input_96[0][0]                   
__________________________________________________________________________________________________
gru_95 (GRU)                    (None, 99)           101574      embedding_95[0][0]               
__________________________________________________________________________________________________
gru_96 (GRU)                    (None, 36)           13068       embedding_96[0][0]               
__________________________________________________________________________________________________
dropout_142 (Dropout)           (None, 99)           0           gru_95[0][0]                     
__________________________________________________________________________________________________
dropout_143 (Dropout)           (None, 36)           0           gru_96[0][0]                     
__________________________________________________________________________________________________
concatenate_48 (Concatenate)    (None, 135)          0           dropout_142[0][0]                
                                                                 dropout_143[0][0]                
__________________________________________________________________________________________________
dense_95 (Dense)                (None, 15)           2040        concatenate_48[0][0]             
__________________________________________________________________________________________________
dropout_144 (Dropout)           (None, 15)           0           dense_95[0][0]                   
__________________________________________________________________________________________________
dense_96 (Dense)                (None, 4)            64          dropout_144[0][0]                
==================================================================================================
Total params: 409,048
Trainable params: 409,048
Non-trainable params: 0
__________________________________________________________________________________________________
None
Train on 432446 samples, validate on 48050 samples
Epoch 1/20
 - 214s - loss: 0.0778 - acc: 0.9762 - val_loss: 0.0583 - val_acc: 1.0000
…
	Training (Important) : 3124, Test : 1954
	MWEs in tain : 1372, occurrences : 3583
	Impotant words in tain : 1175
	MWE length mean : 2.13
	Seen MWEs : 386 (57 %)
	New MWEs : 284 (42 %)
==================================================================================================
__________________________________________________________________________________________________
Layer (type)                    Output Shape         Param #     Connected to                     
==================================================================================================
input_97 (InputLayer)           (None, 7)            0                                            
__________________________________________________________________________________________________
input_98 (InputLayer)           (None, 7)            0                                            
__________________________________________________________________________________________________
embedding_97 (Embedding)        (None, 7, 253)       298034      input_97[0][0]                   
__________________________________________________________________________________________________
embedding_98 (Embedding)        (None, 7, 48)        912         input_98[0][0]                   
__________________________________________________________________________________________________
gru_97 (GRU)                    (None, 8)            6288        embedding_97[0][0]               
__________________________________________________________________________________________________
gru_98 (GRU)                    (None, 27)           6156        embedding_98[0][0]               
__________________________________________________________________________________________________
dropout_145 (Dropout)           (None, 8)            0           gru_97[0][0]                     
__________________________________________________________________________________________________
dropout_146 (Dropout)           (None, 27)           0           gru_98[0][0]                     
__________________________________________________________________________________________________
concatenate_49 (Concatenate)    (None, 35)           0           dropout_145[0][0]                
                                                                 dropout_146[0][0]                
__________________________________________________________________________________________________
dense_97 (Dense)                (None, 49)           1764        concatenate_49[0][0]             
__________________________________________________________________________________________________
dropout_147 (Dropout)           (None, 49)           0           dense_97[0][0]                   
__________________________________________________________________________________________________
dense_98 (Dense)                (None, 4)            200         dropout_147[0][0]                
==================================================================================================
Total params: 313,354
Trainable params: 313,354
Non-trainable params: 0
__________________________________________________________________________________________________
None
Train on 320835 samples, validate on 35649 samples
Epoch 1/20
 - 78s - loss: 0.0844 - acc: 0.9756 - val_loss: 0.0843 - val_acc: 0.9979
…
	Training (Important) : 2305, Test : 3117
	MWEs in tain : 1396, occurrences : 2518
	Impotant words in tain : 1131
	MWE length mean : 2.22
	Seen MWEs : 340 (61 %)
	New MWEs : 213 (38 %)
==================================================================================================
__________________________________________________________________________________________________
Layer (type)                    Output Shape         Param #     Connected to                     
==================================================================================================
input_99 (InputLayer)           (None, 7)            0                                            
__________________________________________________________________________________________________
input_100 (InputLayer)          (None, 7)            0                                            
__________________________________________________________________________________________________
embedding_99 (Embedding)        (None, 7, 253)       286902      input_99[0][0]                   
__________________________________________________________________________________________________
embedding_100 (Embedding)       (None, 7, 48)        912         input_100[0][0]                  
__________________________________________________________________________________________________
gru_99 (GRU)                    (None, 8)            6288        embedding_99[0][0]               
__________________________________________________________________________________________________
gru_100 (GRU)                   (None, 27)           6156        embedding_100[0][0]              
__________________________________________________________________________________________________
dropout_148 (Dropout)           (None, 8)            0           gru_99[0][0]                     
__________________________________________________________________________________________________
dropout_149 (Dropout)           (None, 27)           0           gru_100[0][0]                    
__________________________________________________________________________________________________
concatenate_50 (Concatenate)    (None, 35)           0           dropout_148[0][0]                
                                                                 dropout_149[0][0]                
__________________________________________________________________________________________________
dense_99 (Dense)                (None, 49)           1764        concatenate_50[0][0]             
__________________________________________________________________________________________________
dropout_150 (Dropout)           (None, 49)           0           dense_99[0][0]                   
__________________________________________________________________________________________________
dense_100 (Dense)               (None, 4)            200         dropout_150[0][0]                
==================================================================================================
Total params: 302,222
Trainable params: 302,222
Non-trainable params: 0
__________________________________________________________________________________________________
None
Train on 217231 samples, validate on 24137 samples
Epoch 1/20
 - 54s - loss: 0.0961 - acc: 0.9709 - val_loss: 0.1014 - val_acc: 0.9982
…
	Training (Important) : 3585, Test : 1320
	MWEs in tain : 1790, occurrences : 4856
	Impotant words in tain : 1200
	MWE length mean : 2.06
	Seen MWEs : 345 (67 %)
	New MWEs : 165 (32 %)
==================================================================================================
__________________________________________________________________________________________________
Layer (type)                    Output Shape         Param #     Connected to                     
==================================================================================================
input_101 (InputLayer)          (None, 7)            0                                            
__________________________________________________________________________________________________
input_102 (InputLayer)          (None, 7)            0                                            
__________________________________________________________________________________________________
embedding_101 (Embedding)       (None, 7, 253)       304359      input_101[0][0]                  
__________________________________________________________________________________________________
embedding_102 (Embedding)       (None, 7, 48)        672         input_102[0][0]                  
__________________________________________________________________________________________________
gru_101 (GRU)                   (None, 8)            6288        embedding_101[0][0]              
__________________________________________________________________________________________________
gru_102 (GRU)                   (None, 27)           6156        embedding_102[0][0]              
__________________________________________________________________________________________________
dropout_151 (Dropout)           (None, 8)            0           gru_101[0][0]                    
__________________________________________________________________________________________________
dropout_152 (Dropout)           (None, 27)           0           gru_102[0][0]                    
__________________________________________________________________________________________________
concatenate_51 (Concatenate)    (None, 35)           0           dropout_151[0][0]                
                                                                 dropout_152[0][0]                
__________________________________________________________________________________________________
dense_101 (Dense)               (None, 49)           1764        concatenate_51[0][0]             
__________________________________________________________________________________________________
dropout_153 (Dropout)           (None, 49)           0           dense_101[0][0]                  
__________________________________________________________________________________________________
dense_102 (Dense)               (None, 4)            200         dropout_153[0][0]                
==================================================================================================
Total params: 319,439
Trainable params: 319,439
Non-trainable params: 0
__________________________________________________________________________________________________
None
Train on 432446 samples, validate on 48050 samples
Epoch 1/20
 - 107s - loss: 0.0826 - acc: 0.9744 - val_loss: 0.0780 - val_acc: 1.0000
…
	Training (Important) : 3124, Test : 1954
	MWEs in tain : 1372, occurrences : 3583
	Impotant words in tain : 1175
	MWE length mean : 2.13
	Seen MWEs : 386 (57 %)
	New MWEs : 284 (42 %)
==================================================================================================
__________________________________________________________________________________________________
Layer (type)                    Output Shape         Param #     Connected to                     
==================================================================================================
input_103 (InputLayer)          (None, 7)            0                                            
__________________________________________________________________________________________________
input_104 (InputLayer)          (None, 7)            0                                            
__________________________________________________________________________________________________
embedding_103 (Embedding)       (None, 7, 455)       535990      input_103[0][0]                  
__________________________________________________________________________________________________
embedding_104 (Embedding)       (None, 7, 92)        1748        input_104[0][0]                  
__________________________________________________________________________________________________
gru_103 (GRU)                   (None, 31)           45291       embedding_103[0][0]              
__________________________________________________________________________________________________
gru_104 (GRU)                   (None, 7)            2100        embedding_104[0][0]              
__________________________________________________________________________________________________
dropout_154 (Dropout)           (None, 31)           0           gru_103[0][0]                    
__________________________________________________________________________________________________
dropout_155 (Dropout)           (None, 7)            0           gru_104[0][0]                    
__________________________________________________________________________________________________
concatenate_52 (Concatenate)    (None, 38)           0           dropout_154[0][0]                
                                                                 dropout_155[0][0]                
__________________________________________________________________________________________________
dense_103 (Dense)               (None, 23)           897         concatenate_52[0][0]             
__________________________________________________________________________________________________
dropout_156 (Dropout)           (None, 23)           0           dense_103[0][0]                  
__________________________________________________________________________________________________
dense_104 (Dense)               (None, 4)            96          dropout_156[0][0]                
==================================================================================================
Total params: 586,122
Trainable params: 586,122
Non-trainable params: 0
__________________________________________________________________________________________________
None
Train on 320835 samples, validate on 35649 samples
Epoch 1/20
 - 45s - loss: 0.0860 - acc: 0.9744 - val_loss: 0.0783 - val_acc: 0.9994
…
	Training (Important) : 2305, Test : 3117
	MWEs in tain : 1396, occurrences : 2518
	Impotant words in tain : 1131
	MWE length mean : 2.22
	Seen MWEs : 340 (61 %)
	New MWEs : 213 (38 %)
==================================================================================================
__________________________________________________________________________________________________
Layer (type)                    Output Shape         Param #     Connected to                     
==================================================================================================
input_105 (InputLayer)          (None, 7)            0                                            
__________________________________________________________________________________________________
input_106 (InputLayer)          (None, 7)            0                                            
__________________________________________________________________________________________________
embedding_105 (Embedding)       (None, 7, 455)       515970      input_105[0][0]                  
__________________________________________________________________________________________________
embedding_106 (Embedding)       (None, 7, 92)        1748        input_106[0][0]                  
__________________________________________________________________________________________________
gru_105 (GRU)                   (None, 31)           45291       embedding_105[0][0]              
__________________________________________________________________________________________________
gru_106 (GRU)                   (None, 7)            2100        embedding_106[0][0]              
__________________________________________________________________________________________________
dropout_157 (Dropout)           (None, 31)           0           gru_105[0][0]                    
__________________________________________________________________________________________________
dropout_158 (Dropout)           (None, 7)            0           gru_106[0][0]                    
__________________________________________________________________________________________________
concatenate_53 (Concatenate)    (None, 38)           0           dropout_157[0][0]                
                                                                 dropout_158[0][0]                
__________________________________________________________________________________________________
dense_105 (Dense)               (None, 23)           897         concatenate_53[0][0]             
__________________________________________________________________________________________________
dropout_159 (Dropout)           (None, 23)           0           dense_105[0][0]                  
__________________________________________________________________________________________________
dense_106 (Dense)               (None, 4)            96          dropout_159[0][0]                
==================================================================================================
Total params: 566,102
Trainable params: 566,102
Non-trainable params: 0
__________________________________________________________________________________________________
None
Train on 217231 samples, validate on 24137 samples
Epoch 1/20
 - 27s - loss: 0.1072 - acc: 0.9661 - val_loss: 0.0604 - val_acc: 1.0000
…
	Training (Important) : 3585, Test : 1320
	MWEs in tain : 1790, occurrences : 4856
	Impotant words in tain : 1200
	MWE length mean : 2.06
	Seen MWEs : 345 (67 %)
	New MWEs : 165 (32 %)
==================================================================================================
__________________________________________________________________________________________________
Layer (type)                    Output Shape         Param #     Connected to                     
==================================================================================================
input_107 (InputLayer)          (None, 7)            0                                            
__________________________________________________________________________________________________
input_108 (InputLayer)          (None, 7)            0                                            
__________________________________________________________________________________________________
embedding_107 (Embedding)       (None, 7, 455)       547365      input_107[0][0]                  
__________________________________________________________________________________________________
embedding_108 (Embedding)       (None, 7, 92)        1288        input_108[0][0]                  
__________________________________________________________________________________________________
gru_107 (GRU)                   (None, 31)           45291       embedding_107[0][0]              
__________________________________________________________________________________________________
gru_108 (GRU)                   (None, 7)            2100        embedding_108[0][0]              
__________________________________________________________________________________________________
dropout_160 (Dropout)           (None, 31)           0           gru_107[0][0]                    
__________________________________________________________________________________________________
dropout_161 (Dropout)           (None, 7)            0           gru_108[0][0]                    
__________________________________________________________________________________________________
concatenate_54 (Concatenate)    (None, 38)           0           dropout_160[0][0]                
                                                                 dropout_161[0][0]                
__________________________________________________________________________________________________
dense_107 (Dense)               (None, 23)           897         concatenate_54[0][0]             
__________________________________________________________________________________________________
dropout_162 (Dropout)           (None, 23)           0           dense_107[0][0]                  
__________________________________________________________________________________________________
dense_108 (Dense)               (None, 4)            96          dropout_162[0][0]                
==================================================================================================
Total params: 597,037
Trainable params: 597,037
Non-trainable params: 0
__________________________________________________________________________________________________
None
Train on 432446 samples, validate on 48050 samples
Epoch 1/20
 - 55s - loss: 0.0873 - acc: 0.9727 - val_loss: 0.0702 - val_acc: 1.0000
…
	Training (Important) : 3124, Test : 1954
	MWEs in tain : 1372, occurrences : 3583
	Impotant words in tain : 1175
	MWE length mean : 2.13
	Seen MWEs : 386 (57 %)
	New MWEs : 284 (42 %)
==================================================================================================
__________________________________________________________________________________________________
Layer (type)                    Output Shape         Param #     Connected to                     
==================================================================================================
input_109 (InputLayer)          (None, 7)            0                                            
__________________________________________________________________________________________________
input_110 (InputLayer)          (None, 7)            0                                            
__________________________________________________________________________________________________
embedding_109 (Embedding)       (None, 7, 216)       254448      input_109[0][0]                  
__________________________________________________________________________________________________
embedding_110 (Embedding)       (None, 7, 96)        1824        input_110[0][0]                  
__________________________________________________________________________________________________
gru_109 (GRU)                   (None, 79)           70152       embedding_109[0][0]              
__________________________________________________________________________________________________
gru_110 (GRU)                   (None, 29)           10962       embedding_110[0][0]              
__________________________________________________________________________________________________
dropout_163 (Dropout)           (None, 79)           0           gru_109[0][0]                    
__________________________________________________________________________________________________
dropout_164 (Dropout)           (None, 29)           0           gru_110[0][0]                    
__________________________________________________________________________________________________
concatenate_55 (Concatenate)    (None, 108)          0           dropout_163[0][0]                
                                                                 dropout_164[0][0]                
__________________________________________________________________________________________________
dense_109 (Dense)               (None, 93)           10137       concatenate_55[0][0]             
__________________________________________________________________________________________________
dropout_165 (Dropout)           (None, 93)           0           dense_109[0][0]                  
__________________________________________________________________________________________________
dense_110 (Dense)               (None, 4)            376         dropout_165[0][0]                
==================================================================================================
Total params: 347,899
Trainable params: 347,899
Non-trainable params: 0
__________________________________________________________________________________________________
None
Train on 320835 samples, validate on 35649 samples
Epoch 1/20
 - 39s - loss: 0.0877 - acc: 0.9753 - val_loss: 0.0552 - val_acc: 0.9999
…
	Training (Important) : 2305, Test : 3117
	MWEs in tain : 1396, occurrences : 2518
	Impotant words in tain : 1131
	MWE length mean : 2.22
	Seen MWEs : 340 (61 %)
	New MWEs : 213 (38 %)
==================================================================================================
__________________________________________________________________________________________________
Layer (type)                    Output Shape         Param #     Connected to                     
==================================================================================================
input_111 (InputLayer)          (None, 7)            0                                            
__________________________________________________________________________________________________
input_112 (InputLayer)          (None, 7)            0                                            
__________________________________________________________________________________________________
embedding_111 (Embedding)       (None, 7, 216)       244944      input_111[0][0]                  
__________________________________________________________________________________________________
embedding_112 (Embedding)       (None, 7, 96)        1824        input_112[0][0]                  
__________________________________________________________________________________________________
gru_111 (GRU)                   (None, 79)           70152       embedding_111[0][0]              
__________________________________________________________________________________________________
gru_112 (GRU)                   (None, 29)           10962       embedding_112[0][0]              
__________________________________________________________________________________________________
dropout_166 (Dropout)           (None, 79)           0           gru_111[0][0]                    
__________________________________________________________________________________________________
dropout_167 (Dropout)           (None, 29)           0           gru_112[0][0]                    
__________________________________________________________________________________________________
concatenate_56 (Concatenate)    (None, 108)          0           dropout_166[0][0]                
                                                                 dropout_167[0][0]                
__________________________________________________________________________________________________
dense_111 (Dense)               (None, 93)           10137       concatenate_56[0][0]             
__________________________________________________________________________________________________
dropout_168 (Dropout)           (None, 93)           0           dense_111[0][0]                  
__________________________________________________________________________________________________
dense_112 (Dense)               (None, 4)            376         dropout_168[0][0]                
==================================================================================================
Total params: 338,395
Trainable params: 338,395
Non-trainable params: 0
__________________________________________________________________________________________________
None
Train on 217231 samples, validate on 24137 samples
Epoch 1/20
 - 27s - loss: 0.0950 - acc: 0.9719 - val_loss: 0.0598 - val_acc: 0.9991
…
	Training (Important) : 3585, Test : 1320
	MWEs in tain : 1790, occurrences : 4856
	Impotant words in tain : 1200
	MWE length mean : 2.06
	Seen MWEs : 345 (67 %)
	New MWEs : 165 (32 %)
==================================================================================================
__________________________________________________________________________________________________
Layer (type)                    Output Shape         Param #     Connected to                     
==================================================================================================
input_113 (InputLayer)          (None, 7)            0                                            
__________________________________________________________________________________________________
input_114 (InputLayer)          (None, 7)            0                                            
__________________________________________________________________________________________________
embedding_113 (Embedding)       (None, 7, 216)       259848      input_113[0][0]                  
__________________________________________________________________________________________________
embedding_114 (Embedding)       (None, 7, 96)        1344        input_114[0][0]                  
__________________________________________________________________________________________________
gru_113 (GRU)                   (None, 79)           70152       embedding_113[0][0]              
__________________________________________________________________________________________________
gru_114 (GRU)                   (None, 29)           10962       embedding_114[0][0]              
__________________________________________________________________________________________________
dropout_169 (Dropout)           (None, 79)           0           gru_113[0][0]                    
__________________________________________________________________________________________________
dropout_170 (Dropout)           (None, 29)           0           gru_114[0][0]                    
__________________________________________________________________________________________________
concatenate_57 (Concatenate)    (None, 108)          0           dropout_169[0][0]                
                                                                 dropout_170[0][0]                
__________________________________________________________________________________________________
dense_113 (Dense)               (None, 93)           10137       concatenate_57[0][0]             
__________________________________________________________________________________________________
dropout_171 (Dropout)           (None, 93)           0           dense_113[0][0]                  
__________________________________________________________________________________________________
dense_114 (Dense)               (None, 4)            376         dropout_171[0][0]                
==================================================================================================
Total params: 352,819
Trainable params: 352,819
Non-trainable params: 0
__________________________________________________________________________________________________
None
Train on 432446 samples, validate on 48050 samples
Epoch 1/20
 - 54s - loss: 0.0843 - acc: 0.9741 - val_loss: 0.0699 - val_acc: 0.9998
…
	Training (Important) : 3124, Test : 1954
	MWEs in tain : 1372, occurrences : 3583
	Impotant words in tain : 1175
	MWE length mean : 2.13
	Seen MWEs : 386 (57 %)
	New MWEs : 284 (42 %)
==================================================================================================
__________________________________________________________________________________________________
Layer (type)                    Output Shape         Param #     Connected to                     
==================================================================================================
input_115 (InputLayer)          (None, 7)            0                                            
__________________________________________________________________________________________________
input_116 (InputLayer)          (None, 7)            0                                            
__________________________________________________________________________________________________
embedding_115 (Embedding)       (None, 7, 219)       257982      input_115[0][0]                  
__________________________________________________________________________________________________
embedding_116 (Embedding)       (None, 7, 18)        342         input_116[0][0]                  
__________________________________________________________________________________________________
gru_115 (GRU)                   (None, 17)           12087       embedding_115[0][0]              
__________________________________________________________________________________________________
gru_116 (GRU)                   (None, 45)           8640        embedding_116[0][0]              
__________________________________________________________________________________________________
dropout_172 (Dropout)           (None, 17)           0           gru_115[0][0]                    
__________________________________________________________________________________________________
dropout_173 (Dropout)           (None, 45)           0           gru_116[0][0]                    
__________________________________________________________________________________________________
concatenate_58 (Concatenate)    (None, 62)           0           dropout_172[0][0]                
                                                                 dropout_173[0][0]                
__________________________________________________________________________________________________
dense_115 (Dense)               (None, 40)           2520        concatenate_58[0][0]             
__________________________________________________________________________________________________
dropout_174 (Dropout)           (None, 40)           0           dense_115[0][0]                  
__________________________________________________________________________________________________
dense_116 (Dense)               (None, 4)            164         dropout_174[0][0]                
==================================================================================================
Total params: 281,735
Trainable params: 281,735
Non-trainable params: 0
__________________________________________________________________________________________________
None
Train on 320835 samples, validate on 35649 samples
Epoch 1/20
 - 174s - loss: 0.0765 - acc: 0.9785 - val_loss: 0.0606 - val_acc: 0.9996
…
	Training (Important) : 2305, Test : 3117
	MWEs in tain : 1396, occurrences : 2518
	Impotant words in tain : 1131
	MWE length mean : 2.22
	Seen MWEs : 340 (61 %)
	New MWEs : 213 (38 %)
==================================================================================================
__________________________________________________________________________________________________
Layer (type)                    Output Shape         Param #     Connected to                     
==================================================================================================
input_117 (InputLayer)          (None, 7)            0                                            
__________________________________________________________________________________________________
input_118 (InputLayer)          (None, 7)            0                                            
__________________________________________________________________________________________________
embedding_117 (Embedding)       (None, 7, 219)       248346      input_117[0][0]                  
__________________________________________________________________________________________________
embedding_118 (Embedding)       (None, 7, 18)        342         input_118[0][0]                  
__________________________________________________________________________________________________
gru_117 (GRU)                   (None, 17)           12087       embedding_117[0][0]              
__________________________________________________________________________________________________
gru_118 (GRU)                   (None, 45)           8640        embedding_118[0][0]              
__________________________________________________________________________________________________
dropout_175 (Dropout)           (None, 17)           0           gru_117[0][0]                    
__________________________________________________________________________________________________
dropout_176 (Dropout)           (None, 45)           0           gru_118[0][0]                    
__________________________________________________________________________________________________
concatenate_59 (Concatenate)    (None, 62)           0           dropout_175[0][0]                
                                                                 dropout_176[0][0]                
__________________________________________________________________________________________________
dense_117 (Dense)               (None, 40)           2520        concatenate_59[0][0]             
__________________________________________________________________________________________________
dropout_177 (Dropout)           (None, 40)           0           dense_117[0][0]                  
__________________________________________________________________________________________________
dense_118 (Dense)               (None, 4)            164         dropout_177[0][0]                
==================================================================================================
Total params: 272,099
Trainable params: 272,099
Non-trainable params: 0
__________________________________________________________________________________________________
None
Train on 217231 samples, validate on 24137 samples
Epoch 1/20
 - 107s - loss: 0.0862 - acc: 0.9746 - val_loss: 0.0709 - val_acc: 0.9988
…
	Training (Important) : 3585, Test : 1320
	MWEs in tain : 1790, occurrences : 4856
	Impotant words in tain : 1200
	MWE length mean : 2.06
	Seen MWEs : 345 (67 %)
	New MWEs : 165 (32 %)
==================================================================================================
__________________________________________________________________________________________________
Layer (type)                    Output Shape         Param #     Connected to                     
==================================================================================================
input_119 (InputLayer)          (None, 7)            0                                            
__________________________________________________________________________________________________
input_120 (InputLayer)          (None, 7)            0                                            
__________________________________________________________________________________________________
embedding_119 (Embedding)       (None, 7, 219)       263457      input_119[0][0]                  
__________________________________________________________________________________________________
embedding_120 (Embedding)       (None, 7, 18)        252         input_120[0][0]                  
__________________________________________________________________________________________________
gru_119 (GRU)                   (None, 17)           12087       embedding_119[0][0]              
__________________________________________________________________________________________________
gru_120 (GRU)                   (None, 45)           8640        embedding_120[0][0]              
__________________________________________________________________________________________________
dropout_178 (Dropout)           (None, 17)           0           gru_119[0][0]                    
__________________________________________________________________________________________________
dropout_179 (Dropout)           (None, 45)           0           gru_120[0][0]                    
__________________________________________________________________________________________________
concatenate_60 (Concatenate)    (None, 62)           0           dropout_178[0][0]                
                                                                 dropout_179[0][0]                
__________________________________________________________________________________________________
dense_119 (Dense)               (None, 40)           2520        concatenate_60[0][0]             
__________________________________________________________________________________________________
dropout_180 (Dropout)           (None, 40)           0           dense_119[0][0]                  
__________________________________________________________________________________________________
dense_120 (Dense)               (None, 4)            164         dropout_180[0][0]                
==================================================================================================
Total params: 287,120
Trainable params: 287,120
Non-trainable params: 0
__________________________________________________________________________________________________
None
Train on 432446 samples, validate on 48050 samples
Epoch 1/20
 - 213s - loss: 0.0754 - acc: 0.9769 - val_loss: 0.0983 - val_acc: 1.0000
…
	Training (Important) : 3124, Test : 1954
	MWEs in tain : 1372, occurrences : 3583
	Impotant words in tain : 1175
	MWE length mean : 2.13
	Seen MWEs : 386 (57 %)
	New MWEs : 284 (42 %)
==================================================================================================
__________________________________________________________________________________________________
Layer (type)                    Output Shape         Param #     Connected to                     
==================================================================================================
input_121 (InputLayer)          (None, 7)            0                                            
__________________________________________________________________________________________________
input_122 (InputLayer)          (None, 7)            0                                            
__________________________________________________________________________________________________
embedding_121 (Embedding)       (None, 7, 255)       300390      input_121[0][0]                  
__________________________________________________________________________________________________
embedding_122 (Embedding)       (None, 7, 25)        475         input_122[0][0]                  
__________________________________________________________________________________________________
gru_121 (GRU)                   (None, 73)           72051       embedding_121[0][0]              
__________________________________________________________________________________________________
gru_122 (GRU)                   (None, 38)           7296        embedding_122[0][0]              
__________________________________________________________________________________________________
dropout_181 (Dropout)           (None, 73)           0           gru_121[0][0]                    
__________________________________________________________________________________________________
dropout_182 (Dropout)           (None, 38)           0           gru_122[0][0]                    
__________________________________________________________________________________________________
concatenate_61 (Concatenate)    (None, 111)          0           dropout_181[0][0]                
                                                                 dropout_182[0][0]                
__________________________________________________________________________________________________
dense_121 (Dense)               (None, 42)           4704        concatenate_61[0][0]             
__________________________________________________________________________________________________
dropout_183 (Dropout)           (None, 42)           0           dense_121[0][0]                  
__________________________________________________________________________________________________
dense_122 (Dense)               (None, 4)            172         dropout_183[0][0]                
==================================================================================================
Total params: 385,088
Trainable params: 385,088
Non-trainable params: 0
__________________________________________________________________________________________________
None
Train on 320835 samples, validate on 35649 samples
Epoch 1/20
 - 303s - loss: 0.0718 - acc: 0.9797 - val_loss: 0.0644 - val_acc: 0.9996
…
	Training (Important) : 2305, Test : 3117
	MWEs in tain : 1396, occurrences : 2518
	Impotant words in tain : 1131
	MWE length mean : 2.22
	Seen MWEs : 340 (61 %)
	New MWEs : 213 (38 %)
==================================================================================================
__________________________________________________________________________________________________
Layer (type)                    Output Shape         Param #     Connected to                     
==================================================================================================
input_123 (InputLayer)          (None, 7)            0                                            
__________________________________________________________________________________________________
input_124 (InputLayer)          (None, 7)            0                                            
__________________________________________________________________________________________________
embedding_123 (Embedding)       (None, 7, 255)       289170      input_123[0][0]                  
__________________________________________________________________________________________________
embedding_124 (Embedding)       (None, 7, 25)        475         input_124[0][0]                  
__________________________________________________________________________________________________
gru_123 (GRU)                   (None, 73)           72051       embedding_123[0][0]              
__________________________________________________________________________________________________
gru_124 (GRU)                   (None, 38)           7296        embedding_124[0][0]              
__________________________________________________________________________________________________
dropout_184 (Dropout)           (None, 73)           0           gru_123[0][0]                    
__________________________________________________________________________________________________
dropout_185 (Dropout)           (None, 38)           0           gru_124[0][0]                    
__________________________________________________________________________________________________
concatenate_62 (Concatenate)    (None, 111)          0           dropout_184[0][0]                
                                                                 dropout_185[0][0]                
__________________________________________________________________________________________________
dense_123 (Dense)               (None, 42)           4704        concatenate_62[0][0]             
__________________________________________________________________________________________________
dropout_186 (Dropout)           (None, 42)           0           dense_123[0][0]                  
__________________________________________________________________________________________________
dense_124 (Dense)               (None, 4)            172         dropout_186[0][0]                
==================================================================================================
Total params: 373,868
Trainable params: 373,868
Non-trainable params: 0
__________________________________________________________________________________________________
None
Train on 217231 samples, validate on 24137 samples
Epoch 1/20
 - 213s - loss: 0.0835 - acc: 0.9757 - val_loss: 0.0844 - val_acc: 0.9985
…
