…
	Dashed keys in vocabulary 1622
	One occurrence keys in vocabulary 1622 / 12174
	Embedding
==================================================================================================
	Initialisation = None
	Concatenation = False
	Lemma : 195
	POS = 39 
Deep model(Non compositional)
__________________________________________________________________________________________________
Layer (type)                    Output Shape         Param #     Connected to                     
==================================================================================================
input_1 (InputLayer)            (None, 4)            0                                            
__________________________________________________________________________________________________
input_2 (InputLayer)            (None, 4)            0                                            
__________________________________________________________________________________________________
embedding_1 (Embedding)         (None, 4, 195)       2373930     input_1[0][0]                    
__________________________________________________________________________________________________
embedding_2 (Embedding)         (None, 4, 39)        5928        input_2[0][0]                    
__________________________________________________________________________________________________
flatten_1 (Flatten)             (None, 780)          0           embedding_1[0][0]                
__________________________________________________________________________________________________
flatten_2 (Flatten)             (None, 156)          0           embedding_2[0][0]                
__________________________________________________________________________________________________
concatenate_1 (Concatenate)     (None, 936)          0           flatten_1[0][0]                  
                                                                 flatten_2[0][0]                  
__________________________________________________________________________________________________
dense_1 (Dense)                 (None, 40)           37480       concatenate_1[0][0]              
__________________________________________________________________________________________________
dropout_1 (Dropout)             (None, 40)           0           dense_1[0][0]                    
__________________________________________________________________________________________________
dense_2 (Dense)                 (None, 23)           943         dropout_1[0][0]                  
__________________________________________________________________________________________________
dropout_2 (Dropout)             (None, 23)           0           dense_2[0][0]                    
__________________________________________________________________________________________________
dense_3 (Dense)                 (None, 8)            192         dropout_2[0][0]                  
==================================================================================================
Total params: 2,418,473
Trainable params: 2,418,473
Non-trainable params: 0
__________________________________________________________________________________________________
None

__________________________________________________________________________________________________
…
	Dashed keys in vocabulary 1622
	One occurrence keys in vocabulary 1622 / 12142
	Embedding
==================================================================================================
	Initialisation = None
	Concatenation = False
	Lemma : 195
	POS = 39 
Deep model(Non compositional)
__________________________________________________________________________________________________
Layer (type)                    Output Shape         Param #     Connected to                     
==================================================================================================
input_3 (InputLayer)            (None, 4)            0                                            
__________________________________________________________________________________________________
input_4 (InputLayer)            (None, 4)            0                                            
__________________________________________________________________________________________________
embedding_3 (Embedding)         (None, 4, 195)       2367690     input_3[0][0]                    
__________________________________________________________________________________________________
embedding_4 (Embedding)         (None, 4, 39)        5928        input_4[0][0]                    
__________________________________________________________________________________________________
flatten_3 (Flatten)             (None, 780)          0           embedding_3[0][0]                
__________________________________________________________________________________________________
flatten_4 (Flatten)             (None, 156)          0           embedding_4[0][0]                
__________________________________________________________________________________________________
concatenate_2 (Concatenate)     (None, 936)          0           flatten_3[0][0]                  
                                                                 flatten_4[0][0]                  
__________________________________________________________________________________________________
dense_4 (Dense)                 (None, 40)           37480       concatenate_2[0][0]              
__________________________________________________________________________________________________
dropout_3 (Dropout)             (None, 40)           0           dense_4[0][0]                    
__________________________________________________________________________________________________
dense_5 (Dense)                 (None, 23)           943         dropout_3[0][0]                  
__________________________________________________________________________________________________
dropout_4 (Dropout)             (None, 23)           0           dense_5[0][0]                    
__________________________________________________________________________________________________
dense_6 (Dense)                 (None, 8)            192         dropout_4[0][0]                  
==================================================================================================
Total params: 2,412,233
Trainable params: 2,412,233
Non-trainable params: 0
__________________________________________________________________________________________________
None

__________________________________________________________________________________________________
…
	Dashed keys in vocabulary 1622
	One occurrence keys in vocabulary 1622 / 12159
	Embedding
==================================================================================================
	Initialisation = None
	Concatenation = False
	Lemma : 195
	POS = 39 
Deep model(Non compositional)
__________________________________________________________________________________________________
Layer (type)                    Output Shape         Param #     Connected to                     
==================================================================================================
input_5 (InputLayer)            (None, 4)            0                                            
__________________________________________________________________________________________________
input_6 (InputLayer)            (None, 4)            0                                            
__________________________________________________________________________________________________
embedding_5 (Embedding)         (None, 4, 195)       2371005     input_5[0][0]                    
__________________________________________________________________________________________________
embedding_6 (Embedding)         (None, 4, 39)        5928        input_6[0][0]                    
__________________________________________________________________________________________________
flatten_5 (Flatten)             (None, 780)          0           embedding_5[0][0]                
__________________________________________________________________________________________________
flatten_6 (Flatten)             (None, 156)          0           embedding_6[0][0]                
__________________________________________________________________________________________________
concatenate_3 (Concatenate)     (None, 936)          0           flatten_5[0][0]                  
                                                                 flatten_6[0][0]                  
__________________________________________________________________________________________________
dense_7 (Dense)                 (None, 40)           37480       concatenate_3[0][0]              
__________________________________________________________________________________________________
dropout_5 (Dropout)             (None, 40)           0           dense_7[0][0]                    
__________________________________________________________________________________________________
dense_8 (Dense)                 (None, 23)           943         dropout_5[0][0]                  
__________________________________________________________________________________________________
dropout_6 (Dropout)             (None, 23)           0           dense_8[0][0]                    
__________________________________________________________________________________________________
dense_9 (Dense)                 (None, 8)            192         dropout_6[0][0]                  
==================================================================================================
Total params: 2,415,548
Trainable params: 2,415,548
Non-trainable params: 0
__________________________________________________________________________________________________
None

__________________________________________________________________________________________________
…
	One occurrence keys in vocabulary 1660 / 15321
	Attention: important lemmas are not in vocbulary	Embedding
==================================================================================================
	Initialisation = None
	Concatenation = False
	Lemma : 195
	POS = 39 
Deep model(Non compositional)
__________________________________________________________________________________________________
Layer (type)                    Output Shape         Param #     Connected to                     
==================================================================================================
input_7 (InputLayer)            (None, 4)            0                                            
__________________________________________________________________________________________________
input_8 (InputLayer)            (None, 4)            0                                            
__________________________________________________________________________________________________
embedding_7 (Embedding)         (None, 4, 195)       2987595     input_7[0][0]                    
__________________________________________________________________________________________________
embedding_8 (Embedding)         (None, 4, 39)        6591        input_8[0][0]                    
__________________________________________________________________________________________________
flatten_7 (Flatten)             (None, 780)          0           embedding_7[0][0]                
__________________________________________________________________________________________________
flatten_8 (Flatten)             (None, 156)          0           embedding_8[0][0]                
__________________________________________________________________________________________________
concatenate_4 (Concatenate)     (None, 936)          0           flatten_7[0][0]                  
                                                                 flatten_8[0][0]                  
__________________________________________________________________________________________________
dense_10 (Dense)                (None, 40)           37480       concatenate_4[0][0]              
__________________________________________________________________________________________________
dropout_7 (Dropout)             (None, 40)           0           dense_10[0][0]                   
__________________________________________________________________________________________________
dense_11 (Dense)                (None, 23)           943         dropout_7[0][0]                  
__________________________________________________________________________________________________
dropout_8 (Dropout)             (None, 23)           0           dense_11[0][0]                   
__________________________________________________________________________________________________
dense_12 (Dense)                (None, 8)            192         dropout_8[0][0]                  
==================================================================================================
Total params: 3,032,801
Trainable params: 3,032,801
Non-trainable params: 0
__________________________________________________________________________________________________
None

__________________________________________________________________________________________________
…
	One occurrence keys in vocabulary 1660 / 15303
	Attention: important lemmas are not in vocbulary	Embedding
==================================================================================================
	Initialisation = None
	Concatenation = False
	Lemma : 195
	POS = 39 
Deep model(Non compositional)
__________________________________________________________________________________________________
Layer (type)                    Output Shape         Param #     Connected to                     
==================================================================================================
input_9 (InputLayer)            (None, 4)            0                                            
__________________________________________________________________________________________________
input_10 (InputLayer)           (None, 4)            0                                            
__________________________________________________________________________________________________
embedding_9 (Embedding)         (None, 4, 195)       2984085     input_9[0][0]                    
__________________________________________________________________________________________________
embedding_10 (Embedding)        (None, 4, 39)        6591        input_10[0][0]                   
__________________________________________________________________________________________________
flatten_9 (Flatten)             (None, 780)          0           embedding_9[0][0]                
__________________________________________________________________________________________________
flatten_10 (Flatten)            (None, 156)          0           embedding_10[0][0]               
__________________________________________________________________________________________________
concatenate_5 (Concatenate)     (None, 936)          0           flatten_9[0][0]                  
                                                                 flatten_10[0][0]                 
__________________________________________________________________________________________________
dense_13 (Dense)                (None, 40)           37480       concatenate_5[0][0]              
__________________________________________________________________________________________________
dropout_9 (Dropout)             (None, 40)           0           dense_13[0][0]                   
__________________________________________________________________________________________________
dense_14 (Dense)                (None, 23)           943         dropout_9[0][0]                  
__________________________________________________________________________________________________
dropout_10 (Dropout)            (None, 23)           0           dense_14[0][0]                   
__________________________________________________________________________________________________
dense_15 (Dense)                (None, 8)            192         dropout_10[0][0]                 
==================================================================================================
Total params: 3,029,291
Trainable params: 3,029,291
Non-trainable params: 0
__________________________________________________________________________________________________
None

__________________________________________________________________________________________________
…
	One occurrence keys in vocabulary 1660 / 15244
	Attention: important lemmas are not in vocbulary	Embedding
==================================================================================================
	Initialisation = None
	Concatenation = False
	Lemma : 195
	POS = 39 
Deep model(Non compositional)
__________________________________________________________________________________________________
Layer (type)                    Output Shape         Param #     Connected to                     
==================================================================================================
input_11 (InputLayer)           (None, 4)            0                                            
__________________________________________________________________________________________________
input_12 (InputLayer)           (None, 4)            0                                            
__________________________________________________________________________________________________
embedding_11 (Embedding)        (None, 4, 195)       2972580     input_11[0][0]                   
__________________________________________________________________________________________________
embedding_12 (Embedding)        (None, 4, 39)        6591        input_12[0][0]                   
__________________________________________________________________________________________________
flatten_11 (Flatten)            (None, 780)          0           embedding_11[0][0]               
__________________________________________________________________________________________________
flatten_12 (Flatten)            (None, 156)          0           embedding_12[0][0]               
__________________________________________________________________________________________________
concatenate_6 (Concatenate)     (None, 936)          0           flatten_11[0][0]                 
                                                                 flatten_12[0][0]                 
__________________________________________________________________________________________________
dense_16 (Dense)                (None, 40)           37480       concatenate_6[0][0]              
__________________________________________________________________________________________________
dropout_11 (Dropout)            (None, 40)           0           dense_16[0][0]                   
__________________________________________________________________________________________________
dense_17 (Dense)                (None, 23)           943         dropout_11[0][0]                 
__________________________________________________________________________________________________
dropout_12 (Dropout)            (None, 23)           0           dense_17[0][0]                   
__________________________________________________________________________________________________
dense_18 (Dense)                (None, 8)            192         dropout_12[0][0]                 
==================================================================================================
Total params: 3,017,786
Trainable params: 3,017,786
Non-trainable params: 0
__________________________________________________________________________________________________
None

__________________________________________________________________________________________________
…
	Dashed keys in vocabulary 1979
	One occurrence keys in vocabulary 1979 / 12529
	Embedding
==================================================================================================
	Initialisation = None
	Concatenation = False
	Lemma : 195
	POS = 39 
Deep model(Non compositional)
__________________________________________________________________________________________________
Layer (type)                    Output Shape         Param #     Connected to                     
==================================================================================================
input_13 (InputLayer)           (None, 4)            0                                            
__________________________________________________________________________________________________
input_14 (InputLayer)           (None, 4)            0                                            
__________________________________________________________________________________________________
embedding_13 (Embedding)        (None, 4, 195)       2443155     input_13[0][0]                   
__________________________________________________________________________________________________
embedding_14 (Embedding)        (None, 4, 39)        4290        input_14[0][0]                   
__________________________________________________________________________________________________
flatten_13 (Flatten)            (None, 780)          0           embedding_13[0][0]               
__________________________________________________________________________________________________
flatten_14 (Flatten)            (None, 156)          0           embedding_14[0][0]               
__________________________________________________________________________________________________
concatenate_7 (Concatenate)     (None, 936)          0           flatten_13[0][0]                 
                                                                 flatten_14[0][0]                 
__________________________________________________________________________________________________
dense_19 (Dense)                (None, 40)           37480       concatenate_7[0][0]              
__________________________________________________________________________________________________
dropout_13 (Dropout)            (None, 40)           0           dense_19[0][0]                   
__________________________________________________________________________________________________
dense_20 (Dense)                (None, 23)           943         dropout_13[0][0]                 
__________________________________________________________________________________________________
dropout_14 (Dropout)            (None, 23)           0           dense_20[0][0]                   
__________________________________________________________________________________________________
dense_21 (Dense)                (None, 8)            192         dropout_14[0][0]                 
==================================================================================================
Total params: 2,486,060
Trainable params: 2,486,060
Non-trainable params: 0
__________________________________________________________________________________________________
None

__________________________________________________________________________________________________
…
	Dashed keys in vocabulary 1979
	One occurrence keys in vocabulary 1979 / 12525
	Embedding
==================================================================================================
	Initialisation = None
	Concatenation = False
	Lemma : 195
	POS = 39 
Deep model(Non compositional)
__________________________________________________________________________________________________
Layer (type)                    Output Shape         Param #     Connected to                     
==================================================================================================
input_15 (InputLayer)           (None, 4)            0                                            
__________________________________________________________________________________________________
input_16 (InputLayer)           (None, 4)            0                                            
__________________________________________________________________________________________________
embedding_15 (Embedding)        (None, 4, 195)       2442375     input_15[0][0]                   
__________________________________________________________________________________________________
embedding_16 (Embedding)        (None, 4, 39)        4290        input_16[0][0]                   
__________________________________________________________________________________________________
flatten_15 (Flatten)            (None, 780)          0           embedding_15[0][0]               
__________________________________________________________________________________________________
flatten_16 (Flatten)            (None, 156)          0           embedding_16[0][0]               
__________________________________________________________________________________________________
concatenate_8 (Concatenate)     (None, 936)          0           flatten_15[0][0]                 
                                                                 flatten_16[0][0]                 
__________________________________________________________________________________________________
dense_22 (Dense)                (None, 40)           37480       concatenate_8[0][0]              
__________________________________________________________________________________________________
dropout_15 (Dropout)            (None, 40)           0           dense_22[0][0]                   
__________________________________________________________________________________________________
dense_23 (Dense)                (None, 23)           943         dropout_15[0][0]                 
__________________________________________________________________________________________________
dropout_16 (Dropout)            (None, 23)           0           dense_23[0][0]                   
__________________________________________________________________________________________________
dense_24 (Dense)                (None, 8)            192         dropout_16[0][0]                 
==================================================================================================
Total params: 2,485,280
Trainable params: 2,485,280
Non-trainable params: 0
__________________________________________________________________________________________________
None

__________________________________________________________________________________________________
…
	Dashed keys in vocabulary 1979
	One occurrence keys in vocabulary 1979 / 12587
	Embedding
==================================================================================================
	Initialisation = None
	Concatenation = False
	Lemma : 195
	POS = 39 
Deep model(Non compositional)
__________________________________________________________________________________________________
Layer (type)                    Output Shape         Param #     Connected to                     
==================================================================================================
input_17 (InputLayer)           (None, 4)            0                                            
__________________________________________________________________________________________________
input_18 (InputLayer)           (None, 4)            0                                            
__________________________________________________________________________________________________
embedding_17 (Embedding)        (None, 4, 195)       2454465     input_17[0][0]                   
__________________________________________________________________________________________________
embedding_18 (Embedding)        (None, 4, 39)        4290        input_18[0][0]                   
__________________________________________________________________________________________________
flatten_17 (Flatten)            (None, 780)          0           embedding_17[0][0]               
__________________________________________________________________________________________________
flatten_18 (Flatten)            (None, 156)          0           embedding_18[0][0]               
__________________________________________________________________________________________________
concatenate_9 (Concatenate)     (None, 936)          0           flatten_17[0][0]                 
                                                                 flatten_18[0][0]                 
__________________________________________________________________________________________________
dense_25 (Dense)                (None, 40)           37480       concatenate_9[0][0]              
__________________________________________________________________________________________________
dropout_17 (Dropout)            (None, 40)           0           dense_25[0][0]                   
__________________________________________________________________________________________________
dense_26 (Dense)                (None, 23)           943         dropout_17[0][0]                 
__________________________________________________________________________________________________
dropout_18 (Dropout)            (None, 23)           0           dense_26[0][0]                   
__________________________________________________________________________________________________
dense_27 (Dense)                (None, 8)            192         dropout_18[0][0]                 
==================================================================================================
Total params: 2,497,370
Trainable params: 2,497,370
Non-trainable params: 0
__________________________________________________________________________________________________
None

__________________________________________________________________________________________________
…
	Dashed keys in vocabulary 1622
	One occurrence keys in vocabulary 1622 / 12174
	Embedding
==================================================================================================
	Initialisation = None
	Concatenation = False
	Lemma : 230
	POS = 186 
Deep model(Non compositional)
__________________________________________________________________________________________________
Layer (type)                    Output Shape         Param #     Connected to                     
==================================================================================================
input_19 (InputLayer)           (None, 4)            0                                            
__________________________________________________________________________________________________
input_20 (InputLayer)           (None, 4)            0                                            
__________________________________________________________________________________________________
embedding_19 (Embedding)        (None, 4, 230)       2800020     input_19[0][0]                   
__________________________________________________________________________________________________
embedding_20 (Embedding)        (None, 4, 186)       28272       input_20[0][0]                   
__________________________________________________________________________________________________
flatten_19 (Flatten)            (None, 920)          0           embedding_19[0][0]               
__________________________________________________________________________________________________
flatten_20 (Flatten)            (None, 744)          0           embedding_20[0][0]               
__________________________________________________________________________________________________
concatenate_10 (Concatenate)    (None, 1664)         0           flatten_19[0][0]                 
                                                                 flatten_20[0][0]                 
__________________________________________________________________________________________________
dense_28 (Dense)                (None, 354)          589410      concatenate_10[0][0]             
__________________________________________________________________________________________________
dropout_19 (Dropout)            (None, 354)          0           dense_28[0][0]                   
__________________________________________________________________________________________________
dense_29 (Dense)                (None, 14)           4970        dropout_19[0][0]                 
__________________________________________________________________________________________________
dropout_20 (Dropout)            (None, 14)           0           dense_29[0][0]                   
__________________________________________________________________________________________________
dense_30 (Dense)                (None, 8)            120         dropout_20[0][0]                 
==================================================================================================
Total params: 3,422,792
Trainable params: 3,422,792
Non-trainable params: 0
__________________________________________________________________________________________________
None

__________________________________________________________________________________________________
…
	Dashed keys in vocabulary 1622
	One occurrence keys in vocabulary 1622 / 12142
	Embedding
==================================================================================================
	Initialisation = None
	Concatenation = False
	Lemma : 230
	POS = 186 
Deep model(Non compositional)
__________________________________________________________________________________________________
Layer (type)                    Output Shape         Param #     Connected to                     
==================================================================================================
input_21 (InputLayer)           (None, 4)            0                                            
__________________________________________________________________________________________________
input_22 (InputLayer)           (None, 4)            0                                            
__________________________________________________________________________________________________
embedding_21 (Embedding)        (None, 4, 230)       2792660     input_21[0][0]                   
__________________________________________________________________________________________________
embedding_22 (Embedding)        (None, 4, 186)       28272       input_22[0][0]                   
__________________________________________________________________________________________________
flatten_21 (Flatten)            (None, 920)          0           embedding_21[0][0]               
__________________________________________________________________________________________________
flatten_22 (Flatten)            (None, 744)          0           embedding_22[0][0]               
__________________________________________________________________________________________________
concatenate_11 (Concatenate)    (None, 1664)         0           flatten_21[0][0]                 
                                                                 flatten_22[0][0]                 
__________________________________________________________________________________________________
dense_31 (Dense)                (None, 354)          589410      concatenate_11[0][0]             
__________________________________________________________________________________________________
dropout_21 (Dropout)            (None, 354)          0           dense_31[0][0]                   
__________________________________________________________________________________________________
dense_32 (Dense)                (None, 14)           4970        dropout_21[0][0]                 
__________________________________________________________________________________________________
dropout_22 (Dropout)            (None, 14)           0           dense_32[0][0]                   
__________________________________________________________________________________________________
dense_33 (Dense)                (None, 8)            120         dropout_22[0][0]                 
==================================================================================================
Total params: 3,415,432
Trainable params: 3,415,432
Non-trainable params: 0
__________________________________________________________________________________________________
None

__________________________________________________________________________________________________
…
	Dashed keys in vocabulary 1622
	One occurrence keys in vocabulary 1622 / 12159
	Embedding
==================================================================================================
	Initialisation = None
	Concatenation = False
	Lemma : 230
	POS = 186 
Deep model(Non compositional)
__________________________________________________________________________________________________
Layer (type)                    Output Shape         Param #     Connected to                     
==================================================================================================
input_23 (InputLayer)           (None, 4)            0                                            
__________________________________________________________________________________________________
input_24 (InputLayer)           (None, 4)            0                                            
__________________________________________________________________________________________________
embedding_23 (Embedding)        (None, 4, 230)       2796570     input_23[0][0]                   
__________________________________________________________________________________________________
embedding_24 (Embedding)        (None, 4, 186)       28272       input_24[0][0]                   
__________________________________________________________________________________________________
flatten_23 (Flatten)            (None, 920)          0           embedding_23[0][0]               
__________________________________________________________________________________________________
flatten_24 (Flatten)            (None, 744)          0           embedding_24[0][0]               
__________________________________________________________________________________________________
concatenate_12 (Concatenate)    (None, 1664)         0           flatten_23[0][0]                 
                                                                 flatten_24[0][0]                 
__________________________________________________________________________________________________
dense_34 (Dense)                (None, 354)          589410      concatenate_12[0][0]             
__________________________________________________________________________________________________
dropout_23 (Dropout)            (None, 354)          0           dense_34[0][0]                   
__________________________________________________________________________________________________
dense_35 (Dense)                (None, 14)           4970        dropout_23[0][0]                 
__________________________________________________________________________________________________
dropout_24 (Dropout)            (None, 14)           0           dense_35[0][0]                   
__________________________________________________________________________________________________
dense_36 (Dense)                (None, 8)            120         dropout_24[0][0]                 
==================================================================================================
Total params: 3,419,342
Trainable params: 3,419,342
Non-trainable params: 0
__________________________________________________________________________________________________
None

__________________________________________________________________________________________________
…
	One occurrence keys in vocabulary 1660 / 15321
	Attention: important lemmas are not in vocbulary	Embedding
==================================================================================================
	Initialisation = None
	Concatenation = False
	Lemma : 230
	POS = 186 
Deep model(Non compositional)
__________________________________________________________________________________________________
Layer (type)                    Output Shape         Param #     Connected to                     
==================================================================================================
input_25 (InputLayer)           (None, 4)            0                                            
__________________________________________________________________________________________________
input_26 (InputLayer)           (None, 4)            0                                            
__________________________________________________________________________________________________
embedding_25 (Embedding)        (None, 4, 230)       3523830     input_25[0][0]                   
__________________________________________________________________________________________________
embedding_26 (Embedding)        (None, 4, 186)       31434       input_26[0][0]                   
__________________________________________________________________________________________________
flatten_25 (Flatten)            (None, 920)          0           embedding_25[0][0]               
__________________________________________________________________________________________________
flatten_26 (Flatten)            (None, 744)          0           embedding_26[0][0]               
__________________________________________________________________________________________________
concatenate_13 (Concatenate)    (None, 1664)         0           flatten_25[0][0]                 
                                                                 flatten_26[0][0]                 
__________________________________________________________________________________________________
dense_37 (Dense)                (None, 354)          589410      concatenate_13[0][0]             
__________________________________________________________________________________________________
dropout_25 (Dropout)            (None, 354)          0           dense_37[0][0]                   
__________________________________________________________________________________________________
dense_38 (Dense)                (None, 14)           4970        dropout_25[0][0]                 
__________________________________________________________________________________________________
dropout_26 (Dropout)            (None, 14)           0           dense_38[0][0]                   
__________________________________________________________________________________________________
dense_39 (Dense)                (None, 8)            120         dropout_26[0][0]                 
==================================================================================================
Total params: 4,149,764
Trainable params: 4,149,764
Non-trainable params: 0
__________________________________________________________________________________________________
None

__________________________________________________________________________________________________
…
	One occurrence keys in vocabulary 1660 / 15303
	Attention: important lemmas are not in vocbulary	Embedding
==================================================================================================
	Initialisation = None
	Concatenation = False
	Lemma : 230
	POS = 186 
Deep model(Non compositional)
__________________________________________________________________________________________________
Layer (type)                    Output Shape         Param #     Connected to                     
==================================================================================================
input_27 (InputLayer)           (None, 4)            0                                            
__________________________________________________________________________________________________
input_28 (InputLayer)           (None, 4)            0                                            
__________________________________________________________________________________________________
embedding_27 (Embedding)        (None, 4, 230)       3519690     input_27[0][0]                   
__________________________________________________________________________________________________
embedding_28 (Embedding)        (None, 4, 186)       31434       input_28[0][0]                   
__________________________________________________________________________________________________
flatten_27 (Flatten)            (None, 920)          0           embedding_27[0][0]               
__________________________________________________________________________________________________
flatten_28 (Flatten)            (None, 744)          0           embedding_28[0][0]               
__________________________________________________________________________________________________
concatenate_14 (Concatenate)    (None, 1664)         0           flatten_27[0][0]                 
                                                                 flatten_28[0][0]                 
__________________________________________________________________________________________________
dense_40 (Dense)                (None, 354)          589410      concatenate_14[0][0]             
__________________________________________________________________________________________________
dropout_27 (Dropout)            (None, 354)          0           dense_40[0][0]                   
__________________________________________________________________________________________________
dense_41 (Dense)                (None, 14)           4970        dropout_27[0][0]                 
__________________________________________________________________________________________________
dropout_28 (Dropout)            (None, 14)           0           dense_41[0][0]                   
__________________________________________________________________________________________________
dense_42 (Dense)                (None, 8)            120         dropout_28[0][0]                 
==================================================================================================
Total params: 4,145,624
Trainable params: 4,145,624
Non-trainable params: 0
__________________________________________________________________________________________________
None

__________________________________________________________________________________________________
…
	One occurrence keys in vocabulary 1660 / 15244
	Attention: important lemmas are not in vocbulary	Embedding
==================================================================================================
	Initialisation = None
	Concatenation = False
	Lemma : 230
	POS = 186 
Deep model(Non compositional)
__________________________________________________________________________________________________
Layer (type)                    Output Shape         Param #     Connected to                     
==================================================================================================
input_29 (InputLayer)           (None, 4)            0                                            
__________________________________________________________________________________________________
input_30 (InputLayer)           (None, 4)            0                                            
__________________________________________________________________________________________________
embedding_29 (Embedding)        (None, 4, 230)       3506120     input_29[0][0]                   
__________________________________________________________________________________________________
embedding_30 (Embedding)        (None, 4, 186)       31434       input_30[0][0]                   
__________________________________________________________________________________________________
flatten_29 (Flatten)            (None, 920)          0           embedding_29[0][0]               
__________________________________________________________________________________________________
flatten_30 (Flatten)            (None, 744)          0           embedding_30[0][0]               
__________________________________________________________________________________________________
concatenate_15 (Concatenate)    (None, 1664)         0           flatten_29[0][0]                 
                                                                 flatten_30[0][0]                 
__________________________________________________________________________________________________
dense_43 (Dense)                (None, 354)          589410      concatenate_15[0][0]             
__________________________________________________________________________________________________
dropout_29 (Dropout)            (None, 354)          0           dense_43[0][0]                   
__________________________________________________________________________________________________
dense_44 (Dense)                (None, 14)           4970        dropout_29[0][0]                 
__________________________________________________________________________________________________
dropout_30 (Dropout)            (None, 14)           0           dense_44[0][0]                   
__________________________________________________________________________________________________
dense_45 (Dense)                (None, 8)            120         dropout_30[0][0]                 
==================================================================================================
Total params: 4,132,054
Trainable params: 4,132,054
Non-trainable params: 0
__________________________________________________________________________________________________
None

__________________________________________________________________________________________________
…
	Dashed keys in vocabulary 1979
	One occurrence keys in vocabulary 1979 / 12529
	Embedding
==================================================================================================
	Initialisation = None
	Concatenation = False
	Lemma : 230
	POS = 186 
Deep model(Non compositional)
__________________________________________________________________________________________________
Layer (type)                    Output Shape         Param #     Connected to                     
==================================================================================================
input_31 (InputLayer)           (None, 4)            0                                            
__________________________________________________________________________________________________
input_32 (InputLayer)           (None, 4)            0                                            
__________________________________________________________________________________________________
embedding_31 (Embedding)        (None, 4, 230)       2881670     input_31[0][0]                   
__________________________________________________________________________________________________
embedding_32 (Embedding)        (None, 4, 186)       20460       input_32[0][0]                   
__________________________________________________________________________________________________
flatten_31 (Flatten)            (None, 920)          0           embedding_31[0][0]               
__________________________________________________________________________________________________
flatten_32 (Flatten)            (None, 744)          0           embedding_32[0][0]               
__________________________________________________________________________________________________
concatenate_16 (Concatenate)    (None, 1664)         0           flatten_31[0][0]                 
                                                                 flatten_32[0][0]                 
__________________________________________________________________________________________________
dense_46 (Dense)                (None, 354)          589410      concatenate_16[0][0]             
__________________________________________________________________________________________________
dropout_31 (Dropout)            (None, 354)          0           dense_46[0][0]                   
__________________________________________________________________________________________________
dense_47 (Dense)                (None, 14)           4970        dropout_31[0][0]                 
__________________________________________________________________________________________________
dropout_32 (Dropout)            (None, 14)           0           dense_47[0][0]                   
__________________________________________________________________________________________________
dense_48 (Dense)                (None, 8)            120         dropout_32[0][0]                 
==================================================================================================
Total params: 3,496,630
Trainable params: 3,496,630
Non-trainable params: 0
__________________________________________________________________________________________________
None

__________________________________________________________________________________________________
…
	Dashed keys in vocabulary 1979
	One occurrence keys in vocabulary 1979 / 12525
	Embedding
==================================================================================================
	Initialisation = None
	Concatenation = False
	Lemma : 230
	POS = 186 
Deep model(Non compositional)
__________________________________________________________________________________________________
Layer (type)                    Output Shape         Param #     Connected to                     
==================================================================================================
input_33 (InputLayer)           (None, 4)            0                                            
__________________________________________________________________________________________________
input_34 (InputLayer)           (None, 4)            0                                            
__________________________________________________________________________________________________
embedding_33 (Embedding)        (None, 4, 230)       2880750     input_33[0][0]                   
__________________________________________________________________________________________________
embedding_34 (Embedding)        (None, 4, 186)       20460       input_34[0][0]                   
__________________________________________________________________________________________________
flatten_33 (Flatten)            (None, 920)          0           embedding_33[0][0]               
__________________________________________________________________________________________________
flatten_34 (Flatten)            (None, 744)          0           embedding_34[0][0]               
__________________________________________________________________________________________________
concatenate_17 (Concatenate)    (None, 1664)         0           flatten_33[0][0]                 
                                                                 flatten_34[0][0]                 
__________________________________________________________________________________________________
dense_49 (Dense)                (None, 354)          589410      concatenate_17[0][0]             
__________________________________________________________________________________________________
dropout_33 (Dropout)            (None, 354)          0           dense_49[0][0]                   
__________________________________________________________________________________________________
dense_50 (Dense)                (None, 14)           4970        dropout_33[0][0]                 
__________________________________________________________________________________________________
dropout_34 (Dropout)            (None, 14)           0           dense_50[0][0]                   
__________________________________________________________________________________________________
dense_51 (Dense)                (None, 8)            120         dropout_34[0][0]                 
==================================================================================================
Total params: 3,495,710
Trainable params: 3,495,710
Non-trainable params: 0
__________________________________________________________________________________________________
None

__________________________________________________________________________________________________
…
	Dashed keys in vocabulary 1979
	One occurrence keys in vocabulary 1979 / 12587
	Embedding
==================================================================================================
	Initialisation = None
	Concatenation = False
	Lemma : 230
	POS = 186 
Deep model(Non compositional)
__________________________________________________________________________________________________
Layer (type)                    Output Shape         Param #     Connected to                     
==================================================================================================
input_35 (InputLayer)           (None, 4)            0                                            
__________________________________________________________________________________________________
input_36 (InputLayer)           (None, 4)            0                                            
__________________________________________________________________________________________________
embedding_35 (Embedding)        (None, 4, 230)       2895010     input_35[0][0]                   
__________________________________________________________________________________________________
embedding_36 (Embedding)        (None, 4, 186)       20460       input_36[0][0]                   
__________________________________________________________________________________________________
flatten_35 (Flatten)            (None, 920)          0           embedding_35[0][0]               
__________________________________________________________________________________________________
flatten_36 (Flatten)            (None, 744)          0           embedding_36[0][0]               
__________________________________________________________________________________________________
concatenate_18 (Concatenate)    (None, 1664)         0           flatten_35[0][0]                 
                                                                 flatten_36[0][0]                 
__________________________________________________________________________________________________
dense_52 (Dense)                (None, 354)          589410      concatenate_18[0][0]             
__________________________________________________________________________________________________
dropout_35 (Dropout)            (None, 354)          0           dense_52[0][0]                   
__________________________________________________________________________________________________
dense_53 (Dense)                (None, 14)           4970        dropout_35[0][0]                 
__________________________________________________________________________________________________
dropout_36 (Dropout)            (None, 14)           0           dense_53[0][0]                   
__________________________________________________________________________________________________
dense_54 (Dense)                (None, 8)            120         dropout_36[0][0]                 
==================================================================================================
Total params: 3,509,970
Trainable params: 3,509,970
Non-trainable params: 0
__________________________________________________________________________________________________
None

__________________________________________________________________________________________________
…
	Dashed keys in vocabulary 1622
	One occurrence keys in vocabulary 1622 / 12174
	Embedding
==================================================================================================
	Initialisation = None
	Concatenation = False
	Lemma : 382
	POS = 19 
Deep model(Non compositional)
__________________________________________________________________________________________________
Layer (type)                    Output Shape         Param #     Connected to                     
==================================================================================================
input_37 (InputLayer)           (None, 4)            0                                            
__________________________________________________________________________________________________
input_38 (InputLayer)           (None, 4)            0                                            
__________________________________________________________________________________________________
embedding_37 (Embedding)        (None, 4, 382)       4650468     input_37[0][0]                   
__________________________________________________________________________________________________
embedding_38 (Embedding)        (None, 4, 19)        2888        input_38[0][0]                   
__________________________________________________________________________________________________
flatten_37 (Flatten)            (None, 1528)         0           embedding_37[0][0]               
__________________________________________________________________________________________________
flatten_38 (Flatten)            (None, 76)           0           embedding_38[0][0]               
__________________________________________________________________________________________________
concatenate_19 (Concatenate)    (None, 1604)         0           flatten_37[0][0]                 
                                                                 flatten_38[0][0]                 
__________________________________________________________________________________________________
dense_55 (Dense)                (None, 23)           36915       concatenate_19[0][0]             
__________________________________________________________________________________________________
dropout_37 (Dropout)            (None, 23)           0           dense_55[0][0]                   
__________________________________________________________________________________________________
dense_56 (Dense)                (None, 55)           1320        dropout_37[0][0]                 
__________________________________________________________________________________________________
dropout_38 (Dropout)            (None, 55)           0           dense_56[0][0]                   
__________________________________________________________________________________________________
dense_57 (Dense)                (None, 8)            448         dropout_38[0][0]                 
==================================================================================================
Total params: 4,692,039
Trainable params: 4,692,039
Non-trainable params: 0
__________________________________________________________________________________________________
None

__________________________________________________________________________________________________
…
	Dashed keys in vocabulary 1622
	One occurrence keys in vocabulary 1622 / 12142
	Embedding
==================================================================================================
	Initialisation = None
	Concatenation = False
	Lemma : 382
	POS = 19 
Deep model(Non compositional)
__________________________________________________________________________________________________
Layer (type)                    Output Shape         Param #     Connected to                     
==================================================================================================
input_39 (InputLayer)           (None, 4)            0                                            
__________________________________________________________________________________________________
input_40 (InputLayer)           (None, 4)            0                                            
__________________________________________________________________________________________________
embedding_39 (Embedding)        (None, 4, 382)       4638244     input_39[0][0]                   
__________________________________________________________________________________________________
embedding_40 (Embedding)        (None, 4, 19)        2888        input_40[0][0]                   
__________________________________________________________________________________________________
flatten_39 (Flatten)            (None, 1528)         0           embedding_39[0][0]               
__________________________________________________________________________________________________
flatten_40 (Flatten)            (None, 76)           0           embedding_40[0][0]               
__________________________________________________________________________________________________
concatenate_20 (Concatenate)    (None, 1604)         0           flatten_39[0][0]                 
                                                                 flatten_40[0][0]                 
__________________________________________________________________________________________________
dense_58 (Dense)                (None, 23)           36915       concatenate_20[0][0]             
__________________________________________________________________________________________________
dropout_39 (Dropout)            (None, 23)           0           dense_58[0][0]                   
__________________________________________________________________________________________________
dense_59 (Dense)                (None, 55)           1320        dropout_39[0][0]                 
__________________________________________________________________________________________________
dropout_40 (Dropout)            (None, 55)           0           dense_59[0][0]                   
__________________________________________________________________________________________________
dense_60 (Dense)                (None, 8)            448         dropout_40[0][0]                 
==================================================================================================
Total params: 4,679,815
Trainable params: 4,679,815
Non-trainable params: 0
__________________________________________________________________________________________________
None

__________________________________________________________________________________________________
…
	Dashed keys in vocabulary 1622
	One occurrence keys in vocabulary 1622 / 12159
	Embedding
==================================================================================================
	Initialisation = None
	Concatenation = False
	Lemma : 382
	POS = 19 
Deep model(Non compositional)
__________________________________________________________________________________________________
Layer (type)                    Output Shape         Param #     Connected to                     
==================================================================================================
input_41 (InputLayer)           (None, 4)            0                                            
__________________________________________________________________________________________________
input_42 (InputLayer)           (None, 4)            0                                            
__________________________________________________________________________________________________
embedding_41 (Embedding)        (None, 4, 382)       4644738     input_41[0][0]                   
__________________________________________________________________________________________________
embedding_42 (Embedding)        (None, 4, 19)        2888        input_42[0][0]                   
__________________________________________________________________________________________________
flatten_41 (Flatten)            (None, 1528)         0           embedding_41[0][0]               
__________________________________________________________________________________________________
flatten_42 (Flatten)            (None, 76)           0           embedding_42[0][0]               
__________________________________________________________________________________________________
concatenate_21 (Concatenate)    (None, 1604)         0           flatten_41[0][0]                 
                                                                 flatten_42[0][0]                 
__________________________________________________________________________________________________
dense_61 (Dense)                (None, 23)           36915       concatenate_21[0][0]             
__________________________________________________________________________________________________
dropout_41 (Dropout)            (None, 23)           0           dense_61[0][0]                   
__________________________________________________________________________________________________
dense_62 (Dense)                (None, 55)           1320        dropout_41[0][0]                 
__________________________________________________________________________________________________
dropout_42 (Dropout)            (None, 55)           0           dense_62[0][0]                   
__________________________________________________________________________________________________
dense_63 (Dense)                (None, 8)            448         dropout_42[0][0]                 
==================================================================================================
Total params: 4,686,309
Trainable params: 4,686,309
Non-trainable params: 0
__________________________________________________________________________________________________
None

__________________________________________________________________________________________________
…
	One occurrence keys in vocabulary 1660 / 15321
	Attention: important lemmas are not in vocbulary	Embedding
==================================================================================================
	Initialisation = None
	Concatenation = False
	Lemma : 382
	POS = 19 
Deep model(Non compositional)
__________________________________________________________________________________________________
Layer (type)                    Output Shape         Param #     Connected to                     
==================================================================================================
input_43 (InputLayer)           (None, 4)            0                                            
__________________________________________________________________________________________________
input_44 (InputLayer)           (None, 4)            0                                            
__________________________________________________________________________________________________
embedding_43 (Embedding)        (None, 4, 382)       5852622     input_43[0][0]                   
__________________________________________________________________________________________________
embedding_44 (Embedding)        (None, 4, 19)        3211        input_44[0][0]                   
__________________________________________________________________________________________________
flatten_43 (Flatten)            (None, 1528)         0           embedding_43[0][0]               
__________________________________________________________________________________________________
flatten_44 (Flatten)            (None, 76)           0           embedding_44[0][0]               
__________________________________________________________________________________________________
concatenate_22 (Concatenate)    (None, 1604)         0           flatten_43[0][0]                 
                                                                 flatten_44[0][0]                 
__________________________________________________________________________________________________
dense_64 (Dense)                (None, 23)           36915       concatenate_22[0][0]             
__________________________________________________________________________________________________
dropout_43 (Dropout)            (None, 23)           0           dense_64[0][0]                   
__________________________________________________________________________________________________
dense_65 (Dense)                (None, 55)           1320        dropout_43[0][0]                 
__________________________________________________________________________________________________
dropout_44 (Dropout)            (None, 55)           0           dense_65[0][0]                   
__________________________________________________________________________________________________
dense_66 (Dense)                (None, 8)            448         dropout_44[0][0]                 
==================================================================================================
Total params: 5,894,516
Trainable params: 5,894,516
Non-trainable params: 0
__________________________________________________________________________________________________
None

__________________________________________________________________________________________________
…
	One occurrence keys in vocabulary 1660 / 15303
	Attention: important lemmas are not in vocbulary	Embedding
==================================================================================================
	Initialisation = None
	Concatenation = False
	Lemma : 382
	POS = 19 
Deep model(Non compositional)
__________________________________________________________________________________________________
Layer (type)                    Output Shape         Param #     Connected to                     
==================================================================================================
input_45 (InputLayer)           (None, 4)            0                                            
__________________________________________________________________________________________________
input_46 (InputLayer)           (None, 4)            0                                            
__________________________________________________________________________________________________
embedding_45 (Embedding)        (None, 4, 382)       5845746     input_45[0][0]                   
__________________________________________________________________________________________________
embedding_46 (Embedding)        (None, 4, 19)        3211        input_46[0][0]                   
__________________________________________________________________________________________________
flatten_45 (Flatten)            (None, 1528)         0           embedding_45[0][0]               
__________________________________________________________________________________________________
flatten_46 (Flatten)            (None, 76)           0           embedding_46[0][0]               
__________________________________________________________________________________________________
concatenate_23 (Concatenate)    (None, 1604)         0           flatten_45[0][0]                 
                                                                 flatten_46[0][0]                 
__________________________________________________________________________________________________
dense_67 (Dense)                (None, 23)           36915       concatenate_23[0][0]             
__________________________________________________________________________________________________
dropout_45 (Dropout)            (None, 23)           0           dense_67[0][0]                   
__________________________________________________________________________________________________
dense_68 (Dense)                (None, 55)           1320        dropout_45[0][0]                 
__________________________________________________________________________________________________
dropout_46 (Dropout)            (None, 55)           0           dense_68[0][0]                   
__________________________________________________________________________________________________
dense_69 (Dense)                (None, 8)            448         dropout_46[0][0]                 
==================================================================================================
Total params: 5,887,640
Trainable params: 5,887,640
Non-trainable params: 0
__________________________________________________________________________________________________
None

__________________________________________________________________________________________________
…
	One occurrence keys in vocabulary 1660 / 15244
	Attention: important lemmas are not in vocbulary	Embedding
==================================================================================================
	Initialisation = None
	Concatenation = False
	Lemma : 382
	POS = 19 
Deep model(Non compositional)
__________________________________________________________________________________________________
Layer (type)                    Output Shape         Param #     Connected to                     
==================================================================================================
input_47 (InputLayer)           (None, 4)            0                                            
__________________________________________________________________________________________________
input_48 (InputLayer)           (None, 4)            0                                            
__________________________________________________________________________________________________
embedding_47 (Embedding)        (None, 4, 382)       5823208     input_47[0][0]                   
__________________________________________________________________________________________________
embedding_48 (Embedding)        (None, 4, 19)        3211        input_48[0][0]                   
__________________________________________________________________________________________________
flatten_47 (Flatten)            (None, 1528)         0           embedding_47[0][0]               
__________________________________________________________________________________________________
flatten_48 (Flatten)            (None, 76)           0           embedding_48[0][0]               
__________________________________________________________________________________________________
concatenate_24 (Concatenate)    (None, 1604)         0           flatten_47[0][0]                 
                                                                 flatten_48[0][0]                 
__________________________________________________________________________________________________
dense_70 (Dense)                (None, 23)           36915       concatenate_24[0][0]             
__________________________________________________________________________________________________
dropout_47 (Dropout)            (None, 23)           0           dense_70[0][0]                   
__________________________________________________________________________________________________
dense_71 (Dense)                (None, 55)           1320        dropout_47[0][0]                 
__________________________________________________________________________________________________
dropout_48 (Dropout)            (None, 55)           0           dense_71[0][0]                   
__________________________________________________________________________________________________
dense_72 (Dense)                (None, 8)            448         dropout_48[0][0]                 
==================================================================================================
Total params: 5,865,102
Trainable params: 5,865,102
Non-trainable params: 0
__________________________________________________________________________________________________
None

__________________________________________________________________________________________________
…
	Dashed keys in vocabulary 1979
	One occurrence keys in vocabulary 1979 / 12529
	Embedding
==================================================================================================
	Initialisation = None
	Concatenation = False
	Lemma : 382
	POS = 19 
Deep model(Non compositional)
__________________________________________________________________________________________________
Layer (type)                    Output Shape         Param #     Connected to                     
==================================================================================================
input_49 (InputLayer)           (None, 4)            0                                            
__________________________________________________________________________________________________
input_50 (InputLayer)           (None, 4)            0                                            
__________________________________________________________________________________________________
embedding_49 (Embedding)        (None, 4, 382)       4786078     input_49[0][0]                   
__________________________________________________________________________________________________
embedding_50 (Embedding)        (None, 4, 19)        2090        input_50[0][0]                   
__________________________________________________________________________________________________
flatten_49 (Flatten)            (None, 1528)         0           embedding_49[0][0]               
__________________________________________________________________________________________________
flatten_50 (Flatten)            (None, 76)           0           embedding_50[0][0]               
__________________________________________________________________________________________________
concatenate_25 (Concatenate)    (None, 1604)         0           flatten_49[0][0]                 
                                                                 flatten_50[0][0]                 
__________________________________________________________________________________________________
dense_73 (Dense)                (None, 23)           36915       concatenate_25[0][0]             
__________________________________________________________________________________________________
dropout_49 (Dropout)            (None, 23)           0           dense_73[0][0]                   
__________________________________________________________________________________________________
dense_74 (Dense)                (None, 55)           1320        dropout_49[0][0]                 
__________________________________________________________________________________________________
dropout_50 (Dropout)            (None, 55)           0           dense_74[0][0]                   
__________________________________________________________________________________________________
dense_75 (Dense)                (None, 8)            448         dropout_50[0][0]                 
==================================================================================================
Total params: 4,826,851
Trainable params: 4,826,851
Non-trainable params: 0
__________________________________________________________________________________________________
None

__________________________________________________________________________________________________
…
	Dashed keys in vocabulary 1979
	One occurrence keys in vocabulary 1979 / 12525
	Embedding
==================================================================================================
	Initialisation = None
	Concatenation = False
	Lemma : 382
	POS = 19 
Deep model(Non compositional)
__________________________________________________________________________________________________
Layer (type)                    Output Shape         Param #     Connected to                     
==================================================================================================
input_51 (InputLayer)           (None, 4)            0                                            
__________________________________________________________________________________________________
input_52 (InputLayer)           (None, 4)            0                                            
__________________________________________________________________________________________________
embedding_51 (Embedding)        (None, 4, 382)       4784550     input_51[0][0]                   
__________________________________________________________________________________________________
embedding_52 (Embedding)        (None, 4, 19)        2090        input_52[0][0]                   
__________________________________________________________________________________________________
flatten_51 (Flatten)            (None, 1528)         0           embedding_51[0][0]               
__________________________________________________________________________________________________
flatten_52 (Flatten)            (None, 76)           0           embedding_52[0][0]               
__________________________________________________________________________________________________
concatenate_26 (Concatenate)    (None, 1604)         0           flatten_51[0][0]                 
                                                                 flatten_52[0][0]                 
__________________________________________________________________________________________________
dense_76 (Dense)                (None, 23)           36915       concatenate_26[0][0]             
__________________________________________________________________________________________________
dropout_51 (Dropout)            (None, 23)           0           dense_76[0][0]                   
__________________________________________________________________________________________________
dense_77 (Dense)                (None, 55)           1320        dropout_51[0][0]                 
__________________________________________________________________________________________________
dropout_52 (Dropout)            (None, 55)           0           dense_77[0][0]                   
__________________________________________________________________________________________________
dense_78 (Dense)                (None, 8)            448         dropout_52[0][0]                 
==================================================================================================
Total params: 4,825,323
Trainable params: 4,825,323
Non-trainable params: 0
__________________________________________________________________________________________________
None

__________________________________________________________________________________________________
…
	Dashed keys in vocabulary 1979
	One occurrence keys in vocabulary 1979 / 12587
	Embedding
==================================================================================================
	Initialisation = None
	Concatenation = False
	Lemma : 382
	POS = 19 
Deep model(Non compositional)
__________________________________________________________________________________________________
Layer (type)                    Output Shape         Param #     Connected to                     
==================================================================================================
input_53 (InputLayer)           (None, 4)            0                                            
__________________________________________________________________________________________________
input_54 (InputLayer)           (None, 4)            0                                            
__________________________________________________________________________________________________
embedding_53 (Embedding)        (None, 4, 382)       4808234     input_53[0][0]                   
__________________________________________________________________________________________________
embedding_54 (Embedding)        (None, 4, 19)        2090        input_54[0][0]                   
__________________________________________________________________________________________________
flatten_53 (Flatten)            (None, 1528)         0           embedding_53[0][0]               
__________________________________________________________________________________________________
flatten_54 (Flatten)            (None, 76)           0           embedding_54[0][0]               
__________________________________________________________________________________________________
concatenate_27 (Concatenate)    (None, 1604)         0           flatten_53[0][0]                 
                                                                 flatten_54[0][0]                 
__________________________________________________________________________________________________
dense_79 (Dense)                (None, 23)           36915       concatenate_27[0][0]             
__________________________________________________________________________________________________
dropout_53 (Dropout)            (None, 23)           0           dense_79[0][0]                   
__________________________________________________________________________________________________
dense_80 (Dense)                (None, 55)           1320        dropout_53[0][0]                 
__________________________________________________________________________________________________
dropout_54 (Dropout)            (None, 55)           0           dense_80[0][0]                   
__________________________________________________________________________________________________
dense_81 (Dense)                (None, 8)            448         dropout_54[0][0]                 
==================================================================================================
Total params: 4,849,007
Trainable params: 4,849,007
Non-trainable params: 0
__________________________________________________________________________________________________
None

__________________________________________________________________________________________________
…
	Dashed keys in vocabulary 1622
	One occurrence keys in vocabulary 1622 / 12174
	Embedding
==================================================================================================
	Initialisation = None
	Concatenation = False
	Lemma : 192
	POS = 10 
Deep model(Non compositional)
__________________________________________________________________________________________________
Layer (type)                    Output Shape         Param #     Connected to                     
==================================================================================================
input_55 (InputLayer)           (None, 4)            0                                            
__________________________________________________________________________________________________
input_56 (InputLayer)           (None, 4)            0                                            
__________________________________________________________________________________________________
embedding_55 (Embedding)        (None, 4, 192)       2337408     input_55[0][0]                   
__________________________________________________________________________________________________
embedding_56 (Embedding)        (None, 4, 10)        1520        input_56[0][0]                   
__________________________________________________________________________________________________
flatten_55 (Flatten)            (None, 768)          0           embedding_55[0][0]               
__________________________________________________________________________________________________
flatten_56 (Flatten)            (None, 40)           0           embedding_56[0][0]               
__________________________________________________________________________________________________
concatenate_28 (Concatenate)    (None, 808)          0           flatten_55[0][0]                 
                                                                 flatten_56[0][0]                 
__________________________________________________________________________________________________
dense_82 (Dense)                (None, 26)           21034       concatenate_28[0][0]             
__________________________________________________________________________________________________
dropout_55 (Dropout)            (None, 26)           0           dense_82[0][0]                   
__________________________________________________________________________________________________
dense_83 (Dense)                (None, 106)          2862        dropout_55[0][0]                 
__________________________________________________________________________________________________
dropout_56 (Dropout)            (None, 106)          0           dense_83[0][0]                   
__________________________________________________________________________________________________
dense_84 (Dense)                (None, 8)            856         dropout_56[0][0]                 
==================================================================================================
Total params: 2,363,680
Trainable params: 2,363,680
Non-trainable params: 0
__________________________________________________________________________________________________
None

__________________________________________________________________________________________________
…
	Dashed keys in vocabulary 1622
	One occurrence keys in vocabulary 1622 / 12142
	Embedding
==================================================================================================
	Initialisation = None
	Concatenation = False
	Lemma : 192
	POS = 10 
Deep model(Non compositional)
__________________________________________________________________________________________________
Layer (type)                    Output Shape         Param #     Connected to                     
==================================================================================================
input_57 (InputLayer)           (None, 4)            0                                            
__________________________________________________________________________________________________
input_58 (InputLayer)           (None, 4)            0                                            
__________________________________________________________________________________________________
embedding_57 (Embedding)        (None, 4, 192)       2331264     input_57[0][0]                   
__________________________________________________________________________________________________
embedding_58 (Embedding)        (None, 4, 10)        1520        input_58[0][0]                   
__________________________________________________________________________________________________
flatten_57 (Flatten)            (None, 768)          0           embedding_57[0][0]               
__________________________________________________________________________________________________
flatten_58 (Flatten)            (None, 40)           0           embedding_58[0][0]               
__________________________________________________________________________________________________
concatenate_29 (Concatenate)    (None, 808)          0           flatten_57[0][0]                 
                                                                 flatten_58[0][0]                 
__________________________________________________________________________________________________
dense_85 (Dense)                (None, 26)           21034       concatenate_29[0][0]             
__________________________________________________________________________________________________
dropout_57 (Dropout)            (None, 26)           0           dense_85[0][0]                   
__________________________________________________________________________________________________
dense_86 (Dense)                (None, 106)          2862        dropout_57[0][0]                 
__________________________________________________________________________________________________
dropout_58 (Dropout)            (None, 106)          0           dense_86[0][0]                   
__________________________________________________________________________________________________
dense_87 (Dense)                (None, 8)            856         dropout_58[0][0]                 
==================================================================================================
Total params: 2,357,536
Trainable params: 2,357,536
Non-trainable params: 0
__________________________________________________________________________________________________
None

__________________________________________________________________________________________________
…
	Dashed keys in vocabulary 1622
	One occurrence keys in vocabulary 1622 / 12159
	Embedding
==================================================================================================
	Initialisation = None
	Concatenation = False
	Lemma : 192
	POS = 10 
Deep model(Non compositional)
__________________________________________________________________________________________________
Layer (type)                    Output Shape         Param #     Connected to                     
==================================================================================================
input_59 (InputLayer)           (None, 4)            0                                            
__________________________________________________________________________________________________
input_60 (InputLayer)           (None, 4)            0                                            
__________________________________________________________________________________________________
embedding_59 (Embedding)        (None, 4, 192)       2334528     input_59[0][0]                   
__________________________________________________________________________________________________
embedding_60 (Embedding)        (None, 4, 10)        1520        input_60[0][0]                   
__________________________________________________________________________________________________
flatten_59 (Flatten)            (None, 768)          0           embedding_59[0][0]               
__________________________________________________________________________________________________
flatten_60 (Flatten)            (None, 40)           0           embedding_60[0][0]               
__________________________________________________________________________________________________
concatenate_30 (Concatenate)    (None, 808)          0           flatten_59[0][0]                 
                                                                 flatten_60[0][0]                 
__________________________________________________________________________________________________
dense_88 (Dense)                (None, 26)           21034       concatenate_30[0][0]             
__________________________________________________________________________________________________
dropout_59 (Dropout)            (None, 26)           0           dense_88[0][0]                   
__________________________________________________________________________________________________
dense_89 (Dense)                (None, 106)          2862        dropout_59[0][0]                 
__________________________________________________________________________________________________
dropout_60 (Dropout)            (None, 106)          0           dense_89[0][0]                   
__________________________________________________________________________________________________
dense_90 (Dense)                (None, 8)            856         dropout_60[0][0]                 
==================================================================================================
Total params: 2,360,800
Trainable params: 2,360,800
Non-trainable params: 0
__________________________________________________________________________________________________
None

__________________________________________________________________________________________________
…
	One occurrence keys in vocabulary 1660 / 15321
	Attention: important lemmas are not in vocbulary	Embedding
==================================================================================================
	Initialisation = None
	Concatenation = False
	Lemma : 192
	POS = 10 
Deep model(Non compositional)
__________________________________________________________________________________________________
Layer (type)                    Output Shape         Param #     Connected to                     
==================================================================================================
input_61 (InputLayer)           (None, 4)            0                                            
__________________________________________________________________________________________________
input_62 (InputLayer)           (None, 4)            0                                            
__________________________________________________________________________________________________
embedding_61 (Embedding)        (None, 4, 192)       2941632     input_61[0][0]                   
__________________________________________________________________________________________________
embedding_62 (Embedding)        (None, 4, 10)        1690        input_62[0][0]                   
__________________________________________________________________________________________________
flatten_61 (Flatten)            (None, 768)          0           embedding_61[0][0]               
__________________________________________________________________________________________________
flatten_62 (Flatten)            (None, 40)           0           embedding_62[0][0]               
__________________________________________________________________________________________________
concatenate_31 (Concatenate)    (None, 808)          0           flatten_61[0][0]                 
                                                                 flatten_62[0][0]                 
__________________________________________________________________________________________________
dense_91 (Dense)                (None, 26)           21034       concatenate_31[0][0]             
__________________________________________________________________________________________________
dropout_61 (Dropout)            (None, 26)           0           dense_91[0][0]                   
__________________________________________________________________________________________________
dense_92 (Dense)                (None, 106)          2862        dropout_61[0][0]                 
__________________________________________________________________________________________________
dropout_62 (Dropout)            (None, 106)          0           dense_92[0][0]                   
__________________________________________________________________________________________________
dense_93 (Dense)                (None, 8)            856         dropout_62[0][0]                 
==================================================================================================
Total params: 2,968,074
Trainable params: 2,968,074
Non-trainable params: 0
__________________________________________________________________________________________________
None

__________________________________________________________________________________________________
…
	One occurrence keys in vocabulary 1660 / 15303
	Attention: important lemmas are not in vocbulary	Embedding
==================================================================================================
	Initialisation = None
	Concatenation = False
	Lemma : 192
	POS = 10 
Deep model(Non compositional)
__________________________________________________________________________________________________
Layer (type)                    Output Shape         Param #     Connected to                     
==================================================================================================
input_63 (InputLayer)           (None, 4)            0                                            
__________________________________________________________________________________________________
input_64 (InputLayer)           (None, 4)            0                                            
__________________________________________________________________________________________________
embedding_63 (Embedding)        (None, 4, 192)       2938176     input_63[0][0]                   
__________________________________________________________________________________________________
embedding_64 (Embedding)        (None, 4, 10)        1690        input_64[0][0]                   
__________________________________________________________________________________________________
flatten_63 (Flatten)            (None, 768)          0           embedding_63[0][0]               
__________________________________________________________________________________________________
flatten_64 (Flatten)            (None, 40)           0           embedding_64[0][0]               
__________________________________________________________________________________________________
concatenate_32 (Concatenate)    (None, 808)          0           flatten_63[0][0]                 
                                                                 flatten_64[0][0]                 
__________________________________________________________________________________________________
dense_94 (Dense)                (None, 26)           21034       concatenate_32[0][0]             
__________________________________________________________________________________________________
dropout_63 (Dropout)            (None, 26)           0           dense_94[0][0]                   
__________________________________________________________________________________________________
dense_95 (Dense)                (None, 106)          2862        dropout_63[0][0]                 
__________________________________________________________________________________________________
dropout_64 (Dropout)            (None, 106)          0           dense_95[0][0]                   
__________________________________________________________________________________________________
dense_96 (Dense)                (None, 8)            856         dropout_64[0][0]                 
==================================================================================================
Total params: 2,964,618
Trainable params: 2,964,618
Non-trainable params: 0
__________________________________________________________________________________________________
None

__________________________________________________________________________________________________
…
	One occurrence keys in vocabulary 1660 / 15244
	Attention: important lemmas are not in vocbulary	Embedding
==================================================================================================
	Initialisation = None
	Concatenation = False
	Lemma : 192
	POS = 10 
Deep model(Non compositional)
__________________________________________________________________________________________________
Layer (type)                    Output Shape         Param #     Connected to                     
==================================================================================================
input_65 (InputLayer)           (None, 4)            0                                            
__________________________________________________________________________________________________
input_66 (InputLayer)           (None, 4)            0                                            
__________________________________________________________________________________________________
embedding_65 (Embedding)        (None, 4, 192)       2926848     input_65[0][0]                   
__________________________________________________________________________________________________
embedding_66 (Embedding)        (None, 4, 10)        1690        input_66[0][0]                   
__________________________________________________________________________________________________
flatten_65 (Flatten)            (None, 768)          0           embedding_65[0][0]               
__________________________________________________________________________________________________
flatten_66 (Flatten)            (None, 40)           0           embedding_66[0][0]               
__________________________________________________________________________________________________
concatenate_33 (Concatenate)    (None, 808)          0           flatten_65[0][0]                 
                                                                 flatten_66[0][0]                 
__________________________________________________________________________________________________
dense_97 (Dense)                (None, 26)           21034       concatenate_33[0][0]             
__________________________________________________________________________________________________
dropout_65 (Dropout)            (None, 26)           0           dense_97[0][0]                   
__________________________________________________________________________________________________
dense_98 (Dense)                (None, 106)          2862        dropout_65[0][0]                 
__________________________________________________________________________________________________
dropout_66 (Dropout)            (None, 106)          0           dense_98[0][0]                   
__________________________________________________________________________________________________
dense_99 (Dense)                (None, 8)            856         dropout_66[0][0]                 
==================================================================================================
Total params: 2,953,290
Trainable params: 2,953,290
Non-trainable params: 0
__________________________________________________________________________________________________
None

__________________________________________________________________________________________________
…
	Dashed keys in vocabulary 1979
	One occurrence keys in vocabulary 1979 / 12529
	Embedding
==================================================================================================
	Initialisation = None
	Concatenation = False
	Lemma : 192
	POS = 10 
Deep model(Non compositional)
__________________________________________________________________________________________________
Layer (type)                    Output Shape         Param #     Connected to                     
==================================================================================================
input_67 (InputLayer)           (None, 4)            0                                            
__________________________________________________________________________________________________
input_68 (InputLayer)           (None, 4)            0                                            
__________________________________________________________________________________________________
embedding_67 (Embedding)        (None, 4, 192)       2405568     input_67[0][0]                   
__________________________________________________________________________________________________
embedding_68 (Embedding)        (None, 4, 10)        1100        input_68[0][0]                   
__________________________________________________________________________________________________
flatten_67 (Flatten)            (None, 768)          0           embedding_67[0][0]               
__________________________________________________________________________________________________
flatten_68 (Flatten)            (None, 40)           0           embedding_68[0][0]               
__________________________________________________________________________________________________
concatenate_34 (Concatenate)    (None, 808)          0           flatten_67[0][0]                 
                                                                 flatten_68[0][0]                 
__________________________________________________________________________________________________
dense_100 (Dense)               (None, 26)           21034       concatenate_34[0][0]             
__________________________________________________________________________________________________
dropout_67 (Dropout)            (None, 26)           0           dense_100[0][0]                  
__________________________________________________________________________________________________
dense_101 (Dense)               (None, 106)          2862        dropout_67[0][0]                 
__________________________________________________________________________________________________
dropout_68 (Dropout)            (None, 106)          0           dense_101[0][0]                  
__________________________________________________________________________________________________
dense_102 (Dense)               (None, 8)            856         dropout_68[0][0]                 
==================================================================================================
Total params: 2,431,420
Trainable params: 2,431,420
Non-trainable params: 0
__________________________________________________________________________________________________
None

__________________________________________________________________________________________________
…
	Dashed keys in vocabulary 1979
	One occurrence keys in vocabulary 1979 / 12525
	Embedding
==================================================================================================
	Initialisation = None
	Concatenation = False
	Lemma : 192
	POS = 10 
Deep model(Non compositional)
__________________________________________________________________________________________________
Layer (type)                    Output Shape         Param #     Connected to                     
==================================================================================================
input_69 (InputLayer)           (None, 4)            0                                            
__________________________________________________________________________________________________
input_70 (InputLayer)           (None, 4)            0                                            
__________________________________________________________________________________________________
embedding_69 (Embedding)        (None, 4, 192)       2404800     input_69[0][0]                   
__________________________________________________________________________________________________
embedding_70 (Embedding)        (None, 4, 10)        1100        input_70[0][0]                   
__________________________________________________________________________________________________
flatten_69 (Flatten)            (None, 768)          0           embedding_69[0][0]               
__________________________________________________________________________________________________
flatten_70 (Flatten)            (None, 40)           0           embedding_70[0][0]               
__________________________________________________________________________________________________
concatenate_35 (Concatenate)    (None, 808)          0           flatten_69[0][0]                 
                                                                 flatten_70[0][0]                 
__________________________________________________________________________________________________
dense_103 (Dense)               (None, 26)           21034       concatenate_35[0][0]             
__________________________________________________________________________________________________
dropout_69 (Dropout)            (None, 26)           0           dense_103[0][0]                  
__________________________________________________________________________________________________
dense_104 (Dense)               (None, 106)          2862        dropout_69[0][0]                 
__________________________________________________________________________________________________
dropout_70 (Dropout)            (None, 106)          0           dense_104[0][0]                  
__________________________________________________________________________________________________
dense_105 (Dense)               (None, 8)            856         dropout_70[0][0]                 
==================================================================================================
Total params: 2,430,652
Trainable params: 2,430,652
Non-trainable params: 0
__________________________________________________________________________________________________
None

__________________________________________________________________________________________________
…
	Dashed keys in vocabulary 1979
	One occurrence keys in vocabulary 1979 / 12587
	Embedding
==================================================================================================
	Initialisation = None
	Concatenation = False
	Lemma : 192
	POS = 10 
Deep model(Non compositional)
__________________________________________________________________________________________________
Layer (type)                    Output Shape         Param #     Connected to                     
==================================================================================================
input_71 (InputLayer)           (None, 4)            0                                            
__________________________________________________________________________________________________
input_72 (InputLayer)           (None, 4)            0                                            
__________________________________________________________________________________________________
embedding_71 (Embedding)        (None, 4, 192)       2416704     input_71[0][0]                   
__________________________________________________________________________________________________
embedding_72 (Embedding)        (None, 4, 10)        1100        input_72[0][0]                   
__________________________________________________________________________________________________
flatten_71 (Flatten)            (None, 768)          0           embedding_71[0][0]               
__________________________________________________________________________________________________
flatten_72 (Flatten)            (None, 40)           0           embedding_72[0][0]               
__________________________________________________________________________________________________
concatenate_36 (Concatenate)    (None, 808)          0           flatten_71[0][0]                 
                                                                 flatten_72[0][0]                 
__________________________________________________________________________________________________
dense_106 (Dense)               (None, 26)           21034       concatenate_36[0][0]             
__________________________________________________________________________________________________
dropout_71 (Dropout)            (None, 26)           0           dense_106[0][0]                  
__________________________________________________________________________________________________
dense_107 (Dense)               (None, 106)          2862        dropout_71[0][0]                 
__________________________________________________________________________________________________
dropout_72 (Dropout)            (None, 106)          0           dense_107[0][0]                  
__________________________________________________________________________________________________
dense_108 (Dense)               (None, 8)            856         dropout_72[0][0]                 
==================================================================================================
Total params: 2,442,556
Trainable params: 2,442,556
Non-trainable params: 0
__________________________________________________________________________________________________
None

__________________________________________________________________________________________________
…
	Dashed keys in vocabulary 1622
	One occurrence keys in vocabulary 1622 / 12174
	Embedding
==================================================================================================
	Initialisation = None
	Concatenation = False
	Lemma : 291
	POS = 5 
Deep model(Non compositional)
__________________________________________________________________________________________________
Layer (type)                    Output Shape         Param #     Connected to                     
==================================================================================================
input_73 (InputLayer)           (None, 4)            0                                            
__________________________________________________________________________________________________
input_74 (InputLayer)           (None, 4)            0                                            
__________________________________________________________________________________________________
embedding_73 (Embedding)        (None, 4, 291)       3542634     input_73[0][0]                   
__________________________________________________________________________________________________
embedding_74 (Embedding)        (None, 4, 5)         760         input_74[0][0]                   
__________________________________________________________________________________________________
flatten_73 (Flatten)            (None, 1164)         0           embedding_73[0][0]               
__________________________________________________________________________________________________
flatten_74 (Flatten)            (None, 20)           0           embedding_74[0][0]               
__________________________________________________________________________________________________
concatenate_37 (Concatenate)    (None, 1184)         0           flatten_73[0][0]                 
                                                                 flatten_74[0][0]                 
__________________________________________________________________________________________________
dense_109 (Dense)               (None, 23)           27255       concatenate_37[0][0]             
__________________________________________________________________________________________________
dropout_73 (Dropout)            (None, 23)           0           dense_109[0][0]                  
__________________________________________________________________________________________________
dense_110 (Dense)               (None, 82)           1968        dropout_73[0][0]                 
__________________________________________________________________________________________________
dropout_74 (Dropout)            (None, 82)           0           dense_110[0][0]                  
__________________________________________________________________________________________________
dense_111 (Dense)               (None, 8)            664         dropout_74[0][0]                 
==================================================================================================
Total params: 3,573,281
Trainable params: 3,573,281
Non-trainable params: 0
__________________________________________________________________________________________________
None

__________________________________________________________________________________________________
…
	Dashed keys in vocabulary 1622
	One occurrence keys in vocabulary 1622 / 12142
	Embedding
==================================================================================================
	Initialisation = None
	Concatenation = False
	Lemma : 291
	POS = 5 
Deep model(Non compositional)
__________________________________________________________________________________________________
Layer (type)                    Output Shape         Param #     Connected to                     
==================================================================================================
input_75 (InputLayer)           (None, 4)            0                                            
__________________________________________________________________________________________________
input_76 (InputLayer)           (None, 4)            0                                            
__________________________________________________________________________________________________
embedding_75 (Embedding)        (None, 4, 291)       3533322     input_75[0][0]                   
__________________________________________________________________________________________________
embedding_76 (Embedding)        (None, 4, 5)         760         input_76[0][0]                   
__________________________________________________________________________________________________
flatten_75 (Flatten)            (None, 1164)         0           embedding_75[0][0]               
__________________________________________________________________________________________________
flatten_76 (Flatten)            (None, 20)           0           embedding_76[0][0]               
__________________________________________________________________________________________________
concatenate_38 (Concatenate)    (None, 1184)         0           flatten_75[0][0]                 
                                                                 flatten_76[0][0]                 
__________________________________________________________________________________________________
dense_112 (Dense)               (None, 23)           27255       concatenate_38[0][0]             
__________________________________________________________________________________________________
dropout_75 (Dropout)            (None, 23)           0           dense_112[0][0]                  
__________________________________________________________________________________________________
dense_113 (Dense)               (None, 82)           1968        dropout_75[0][0]                 
__________________________________________________________________________________________________
dropout_76 (Dropout)            (None, 82)           0           dense_113[0][0]                  
__________________________________________________________________________________________________
dense_114 (Dense)               (None, 8)            664         dropout_76[0][0]                 
==================================================================================================
Total params: 3,563,969
Trainable params: 3,563,969
Non-trainable params: 0
__________________________________________________________________________________________________
None

__________________________________________________________________________________________________
…
	Dashed keys in vocabulary 1622
	One occurrence keys in vocabulary 1622 / 12159
	Embedding
==================================================================================================
	Initialisation = None
	Concatenation = False
	Lemma : 291
	POS = 5 
Deep model(Non compositional)
__________________________________________________________________________________________________
Layer (type)                    Output Shape         Param #     Connected to                     
==================================================================================================
input_77 (InputLayer)           (None, 4)            0                                            
__________________________________________________________________________________________________
input_78 (InputLayer)           (None, 4)            0                                            
__________________________________________________________________________________________________
embedding_77 (Embedding)        (None, 4, 291)       3538269     input_77[0][0]                   
__________________________________________________________________________________________________
embedding_78 (Embedding)        (None, 4, 5)         760         input_78[0][0]                   
__________________________________________________________________________________________________
flatten_77 (Flatten)            (None, 1164)         0           embedding_77[0][0]               
__________________________________________________________________________________________________
flatten_78 (Flatten)            (None, 20)           0           embedding_78[0][0]               
__________________________________________________________________________________________________
concatenate_39 (Concatenate)    (None, 1184)         0           flatten_77[0][0]                 
                                                                 flatten_78[0][0]                 
__________________________________________________________________________________________________
dense_115 (Dense)               (None, 23)           27255       concatenate_39[0][0]             
__________________________________________________________________________________________________
dropout_77 (Dropout)            (None, 23)           0           dense_115[0][0]                  
__________________________________________________________________________________________________
dense_116 (Dense)               (None, 82)           1968        dropout_77[0][0]                 
__________________________________________________________________________________________________
dropout_78 (Dropout)            (None, 82)           0           dense_116[0][0]                  
__________________________________________________________________________________________________
dense_117 (Dense)               (None, 8)            664         dropout_78[0][0]                 
==================================================================================================
Total params: 3,568,916
Trainable params: 3,568,916
Non-trainable params: 0
__________________________________________________________________________________________________
None

__________________________________________________________________________________________________
…
	One occurrence keys in vocabulary 1660 / 15321
	Attention: important lemmas are not in vocbulary	Embedding
==================================================================================================
	Initialisation = None
	Concatenation = False
	Lemma : 291
	POS = 5 
Deep model(Non compositional)
__________________________________________________________________________________________________
Layer (type)                    Output Shape         Param #     Connected to                     
==================================================================================================
input_79 (InputLayer)           (None, 4)            0                                            
__________________________________________________________________________________________________
input_80 (InputLayer)           (None, 4)            0                                            
__________________________________________________________________________________________________
embedding_79 (Embedding)        (None, 4, 291)       4458411     input_79[0][0]                   
__________________________________________________________________________________________________
embedding_80 (Embedding)        (None, 4, 5)         845         input_80[0][0]                   
__________________________________________________________________________________________________
flatten_79 (Flatten)            (None, 1164)         0           embedding_79[0][0]               
__________________________________________________________________________________________________
flatten_80 (Flatten)            (None, 20)           0           embedding_80[0][0]               
__________________________________________________________________________________________________
concatenate_40 (Concatenate)    (None, 1184)         0           flatten_79[0][0]                 
                                                                 flatten_80[0][0]                 
__________________________________________________________________________________________________
dense_118 (Dense)               (None, 23)           27255       concatenate_40[0][0]             
__________________________________________________________________________________________________
dropout_79 (Dropout)            (None, 23)           0           dense_118[0][0]                  
__________________________________________________________________________________________________
dense_119 (Dense)               (None, 82)           1968        dropout_79[0][0]                 
__________________________________________________________________________________________________
dropout_80 (Dropout)            (None, 82)           0           dense_119[0][0]                  
__________________________________________________________________________________________________
dense_120 (Dense)               (None, 8)            664         dropout_80[0][0]                 
==================================================================================================
Total params: 4,489,143
Trainable params: 4,489,143
Non-trainable params: 0
__________________________________________________________________________________________________
None

__________________________________________________________________________________________________
…
	One occurrence keys in vocabulary 1660 / 15303
	Attention: important lemmas are not in vocbulary	Embedding
==================================================================================================
	Initialisation = None
	Concatenation = False
	Lemma : 291
	POS = 5 
Deep model(Non compositional)
__________________________________________________________________________________________________
Layer (type)                    Output Shape         Param #     Connected to                     
==================================================================================================
input_81 (InputLayer)           (None, 4)            0                                            
__________________________________________________________________________________________________
input_82 (InputLayer)           (None, 4)            0                                            
__________________________________________________________________________________________________
embedding_81 (Embedding)        (None, 4, 291)       4453173     input_81[0][0]                   
__________________________________________________________________________________________________
embedding_82 (Embedding)        (None, 4, 5)         845         input_82[0][0]                   
__________________________________________________________________________________________________
flatten_81 (Flatten)            (None, 1164)         0           embedding_81[0][0]               
__________________________________________________________________________________________________
flatten_82 (Flatten)            (None, 20)           0           embedding_82[0][0]               
__________________________________________________________________________________________________
concatenate_41 (Concatenate)    (None, 1184)         0           flatten_81[0][0]                 
                                                                 flatten_82[0][0]                 
__________________________________________________________________________________________________
dense_121 (Dense)               (None, 23)           27255       concatenate_41[0][0]             
__________________________________________________________________________________________________
dropout_81 (Dropout)            (None, 23)           0           dense_121[0][0]                  
__________________________________________________________________________________________________
dense_122 (Dense)               (None, 82)           1968        dropout_81[0][0]                 
__________________________________________________________________________________________________
dropout_82 (Dropout)            (None, 82)           0           dense_122[0][0]                  
__________________________________________________________________________________________________
dense_123 (Dense)               (None, 8)            664         dropout_82[0][0]                 
==================================================================================================
Total params: 4,483,905
Trainable params: 4,483,905
Non-trainable params: 0
__________________________________________________________________________________________________
None

__________________________________________________________________________________________________
…
	One occurrence keys in vocabulary 1660 / 15244
	Attention: important lemmas are not in vocbulary	Embedding
==================================================================================================
	Initialisation = None
	Concatenation = False
	Lemma : 291
	POS = 5 
Deep model(Non compositional)
__________________________________________________________________________________________________
Layer (type)                    Output Shape         Param #     Connected to                     
==================================================================================================
input_83 (InputLayer)           (None, 4)            0                                            
__________________________________________________________________________________________________
input_84 (InputLayer)           (None, 4)            0                                            
__________________________________________________________________________________________________
embedding_83 (Embedding)        (None, 4, 291)       4436004     input_83[0][0]                   
__________________________________________________________________________________________________
embedding_84 (Embedding)        (None, 4, 5)         845         input_84[0][0]                   
__________________________________________________________________________________________________
flatten_83 (Flatten)            (None, 1164)         0           embedding_83[0][0]               
__________________________________________________________________________________________________
flatten_84 (Flatten)            (None, 20)           0           embedding_84[0][0]               
__________________________________________________________________________________________________
concatenate_42 (Concatenate)    (None, 1184)         0           flatten_83[0][0]                 
                                                                 flatten_84[0][0]                 
__________________________________________________________________________________________________
dense_124 (Dense)               (None, 23)           27255       concatenate_42[0][0]             
__________________________________________________________________________________________________
dropout_83 (Dropout)            (None, 23)           0           dense_124[0][0]                  
__________________________________________________________________________________________________
dense_125 (Dense)               (None, 82)           1968        dropout_83[0][0]                 
__________________________________________________________________________________________________
dropout_84 (Dropout)            (None, 82)           0           dense_125[0][0]                  
__________________________________________________________________________________________________
dense_126 (Dense)               (None, 8)            664         dropout_84[0][0]                 
==================================================================================================
Total params: 4,466,736
Trainable params: 4,466,736
Non-trainable params: 0
__________________________________________________________________________________________________
None

__________________________________________________________________________________________________
…
	Dashed keys in vocabulary 1979
	One occurrence keys in vocabulary 1979 / 12529
	Embedding
==================================================================================================
	Initialisation = None
	Concatenation = False
	Lemma : 291
	POS = 5 
Deep model(Non compositional)
__________________________________________________________________________________________________
Layer (type)                    Output Shape         Param #     Connected to                     
==================================================================================================
input_85 (InputLayer)           (None, 4)            0                                            
__________________________________________________________________________________________________
input_86 (InputLayer)           (None, 4)            0                                            
__________________________________________________________________________________________________
embedding_85 (Embedding)        (None, 4, 291)       3645939     input_85[0][0]                   
__________________________________________________________________________________________________
embedding_86 (Embedding)        (None, 4, 5)         550         input_86[0][0]                   
__________________________________________________________________________________________________
flatten_85 (Flatten)            (None, 1164)         0           embedding_85[0][0]               
__________________________________________________________________________________________________
flatten_86 (Flatten)            (None, 20)           0           embedding_86[0][0]               
__________________________________________________________________________________________________
concatenate_43 (Concatenate)    (None, 1184)         0           flatten_85[0][0]                 
                                                                 flatten_86[0][0]                 
__________________________________________________________________________________________________
dense_127 (Dense)               (None, 23)           27255       concatenate_43[0][0]             
__________________________________________________________________________________________________
dropout_85 (Dropout)            (None, 23)           0           dense_127[0][0]                  
__________________________________________________________________________________________________
dense_128 (Dense)               (None, 82)           1968        dropout_85[0][0]                 
__________________________________________________________________________________________________
dropout_86 (Dropout)            (None, 82)           0           dense_128[0][0]                  
__________________________________________________________________________________________________
dense_129 (Dense)               (None, 8)            664         dropout_86[0][0]                 
==================================================================================================
Total params: 3,676,376
Trainable params: 3,676,376
Non-trainable params: 0
__________________________________________________________________________________________________
None

__________________________________________________________________________________________________
…
	Dashed keys in vocabulary 1979
	One occurrence keys in vocabulary 1979 / 12525
	Embedding
==================================================================================================
	Initialisation = None
	Concatenation = False
	Lemma : 291
	POS = 5 
Deep model(Non compositional)
__________________________________________________________________________________________________
Layer (type)                    Output Shape         Param #     Connected to                     
==================================================================================================
input_87 (InputLayer)           (None, 4)            0                                            
__________________________________________________________________________________________________
input_88 (InputLayer)           (None, 4)            0                                            
__________________________________________________________________________________________________
embedding_87 (Embedding)        (None, 4, 291)       3644775     input_87[0][0]                   
__________________________________________________________________________________________________
embedding_88 (Embedding)        (None, 4, 5)         550         input_88[0][0]                   
__________________________________________________________________________________________________
flatten_87 (Flatten)            (None, 1164)         0           embedding_87[0][0]               
__________________________________________________________________________________________________
flatten_88 (Flatten)            (None, 20)           0           embedding_88[0][0]               
__________________________________________________________________________________________________
concatenate_44 (Concatenate)    (None, 1184)         0           flatten_87[0][0]                 
                                                                 flatten_88[0][0]                 
__________________________________________________________________________________________________
dense_130 (Dense)               (None, 23)           27255       concatenate_44[0][0]             
__________________________________________________________________________________________________
dropout_87 (Dropout)            (None, 23)           0           dense_130[0][0]                  
__________________________________________________________________________________________________
dense_131 (Dense)               (None, 82)           1968        dropout_87[0][0]                 
__________________________________________________________________________________________________
dropout_88 (Dropout)            (None, 82)           0           dense_131[0][0]                  
__________________________________________________________________________________________________
dense_132 (Dense)               (None, 8)            664         dropout_88[0][0]                 
==================================================================================================
Total params: 3,675,212
Trainable params: 3,675,212
Non-trainable params: 0
__________________________________________________________________________________________________
None

__________________________________________________________________________________________________
…
	Dashed keys in vocabulary 1979
	One occurrence keys in vocabulary 1979 / 12587
	Embedding
==================================================================================================
	Initialisation = None
	Concatenation = False
	Lemma : 291
	POS = 5 
Deep model(Non compositional)
__________________________________________________________________________________________________
Layer (type)                    Output Shape         Param #     Connected to                     
==================================================================================================
input_89 (InputLayer)           (None, 4)            0                                            
__________________________________________________________________________________________________
input_90 (InputLayer)           (None, 4)            0                                            
__________________________________________________________________________________________________
embedding_89 (Embedding)        (None, 4, 291)       3662817     input_89[0][0]                   
__________________________________________________________________________________________________
embedding_90 (Embedding)        (None, 4, 5)         550         input_90[0][0]                   
__________________________________________________________________________________________________
flatten_89 (Flatten)            (None, 1164)         0           embedding_89[0][0]               
__________________________________________________________________________________________________
flatten_90 (Flatten)            (None, 20)           0           embedding_90[0][0]               
__________________________________________________________________________________________________
concatenate_45 (Concatenate)    (None, 1184)         0           flatten_89[0][0]                 
                                                                 flatten_90[0][0]                 
__________________________________________________________________________________________________
dense_133 (Dense)               (None, 23)           27255       concatenate_45[0][0]             
__________________________________________________________________________________________________
dropout_89 (Dropout)            (None, 23)           0           dense_133[0][0]                  
__________________________________________________________________________________________________
dense_134 (Dense)               (None, 82)           1968        dropout_89[0][0]                 
…
	Concatenation = False
	Lemma : 238
	POS = 40 
Deep model(Non compositional)
__________________________________________________________________________________________________
Layer (type)                    Output Shape         Param #     Connected to                     
==================================================================================================
input_103 (InputLayer)          (None, 4)            0                                            
__________________________________________________________________________________________________
input_104 (InputLayer)          (None, 4)            0                                            
__________________________________________________________________________________________________
embedding_103 (Embedding)       (None, 4, 238)       2981902     input_103[0][0]                  
__________________________________________________________________________________________________
embedding_104 (Embedding)       (None, 4, 40)        4400        input_104[0][0]                  
__________________________________________________________________________________________________
flatten_103 (Flatten)           (None, 952)          0           embedding_103[0][0]              
__________________________________________________________________________________________________
flatten_104 (Flatten)           (None, 160)          0           embedding_104[0][0]              
__________________________________________________________________________________________________
concatenate_52 (Concatenate)    (None, 1112)         0           flatten_103[0][0]                
                                                                 flatten_104[0][0]                
__________________________________________________________________________________________________
dense_154 (Dense)               (None, 24)           26712       concatenate_52[0][0]             
__________________________________________________________________________________________________
dropout_103 (Dropout)           (None, 24)           0           dense_154[0][0]                  
__________________________________________________________________________________________________
dense_155 (Dense)               (None, 111)          2775        dropout_103[0][0]                
__________________________________________________________________________________________________
dropout_104 (Dropout)           (None, 111)          0           dense_155[0][0]                  
__________________________________________________________________________________________________
dense_156 (Dense)               (None, 8)            896         dropout_104[0][0]                
==================================================================================================
Total params: 3,016,685
Trainable params: 3,016,685
Non-trainable params: 0
__________________________________________________________________________________________________
None

__________________________________________________________________________________________________
…
	Dashed keys in vocabulary 1979
	One occurrence keys in vocabulary 1979 / 12525
	Embedding
==================================================================================================
	Initialisation = None
	Concatenation = False
	Lemma : 238
	POS = 40 
Deep model(Non compositional)
__________________________________________________________________________________________________
Layer (type)                    Output Shape         Param #     Connected to                     
==================================================================================================
input_105 (InputLayer)          (None, 4)            0                                            
__________________________________________________________________________________________________
input_106 (InputLayer)          (None, 4)            0                                            
__________________________________________________________________________________________________
embedding_105 (Embedding)       (None, 4, 238)       2980950     input_105[0][0]                  
__________________________________________________________________________________________________
embedding_106 (Embedding)       (None, 4, 40)        4400        input_106[0][0]                  
__________________________________________________________________________________________________
flatten_105 (Flatten)           (None, 952)          0           embedding_105[0][0]              
__________________________________________________________________________________________________
flatten_106 (Flatten)           (None, 160)          0           embedding_106[0][0]              
__________________________________________________________________________________________________
concatenate_53 (Concatenate)    (None, 1112)         0           flatten_105[0][0]                
                                                                 flatten_106[0][0]                
__________________________________________________________________________________________________
dense_157 (Dense)               (None, 24)           26712       concatenate_53[0][0]             
__________________________________________________________________________________________________
dropout_105 (Dropout)           (None, 24)           0           dense_157[0][0]                  
__________________________________________________________________________________________________
dense_158 (Dense)               (None, 111)          2775        dropout_105[0][0]                
__________________________________________________________________________________________________
dropout_106 (Dropout)           (None, 111)          0           dense_158[0][0]                  
__________________________________________________________________________________________________
dense_159 (Dense)               (None, 8)            896         dropout_106[0][0]                
==================================================================================================
Total params: 3,015,733
Trainable params: 3,015,733
Non-trainable params: 0
__________________________________________________________________________________________________
None

__________________________________________________________________________________________________
…
	Dashed keys in vocabulary 1979
	One occurrence keys in vocabulary 1979 / 12587
	Embedding
==================================================================================================
	Initialisation = None
	Concatenation = False
	Lemma : 238
	POS = 40 
Deep model(Non compositional)
__________________________________________________________________________________________________
Layer (type)                    Output Shape         Param #     Connected to                     
==================================================================================================
input_107 (InputLayer)          (None, 4)            0                                            
__________________________________________________________________________________________________
input_108 (InputLayer)          (None, 4)            0                                            
__________________________________________________________________________________________________
embedding_107 (Embedding)       (None, 4, 238)       2995706     input_107[0][0]                  
__________________________________________________________________________________________________
embedding_108 (Embedding)       (None, 4, 40)        4400        input_108[0][0]                  
__________________________________________________________________________________________________
flatten_107 (Flatten)           (None, 952)          0           embedding_107[0][0]              
__________________________________________________________________________________________________
flatten_108 (Flatten)           (None, 160)          0           embedding_108[0][0]              
__________________________________________________________________________________________________
concatenate_54 (Concatenate)    (None, 1112)         0           flatten_107[0][0]                
                                                                 flatten_108[0][0]                
__________________________________________________________________________________________________
dense_160 (Dense)               (None, 24)           26712       concatenate_54[0][0]             
__________________________________________________________________________________________________
dropout_107 (Dropout)           (None, 24)           0           dense_160[0][0]                  
__________________________________________________________________________________________________
dense_161 (Dense)               (None, 111)          2775        dropout_107[0][0]                
__________________________________________________________________________________________________
dropout_108 (Dropout)           (None, 111)          0           dense_161[0][0]                  
__________________________________________________________________________________________________
dense_162 (Dense)               (None, 8)            896         dropout_108[0][0]                
==================================================================================================
Total params: 3,030,489
Trainable params: 3,030,489
Non-trainable params: 0
__________________________________________________________________________________________________
None

__________________________________________________________________________________________________
…
	Dashed keys in vocabulary 1622
	One occurrence keys in vocabulary 1622 / 2800
	Embedding
==================================================================================================
	Initialisation = None
	Concatenation = False
	Lemma : 123
	POS = 40 
Deep model(Non compositional)
__________________________________________________________________________________________________
Layer (type)                    Output Shape         Param #     Connected to                     
==================================================================================================
input_109 (InputLayer)          (None, 4)            0                                            
__________________________________________________________________________________________________
input_110 (InputLayer)          (None, 4)            0                                            
__________________________________________________________________________________________________
embedding_109 (Embedding)       (None, 4, 123)       344400      input_109[0][0]                  
__________________________________________________________________________________________________
embedding_110 (Embedding)       (None, 4, 40)        6080        input_110[0][0]                  
__________________________________________________________________________________________________
flatten_109 (Flatten)           (None, 492)          0           embedding_109[0][0]              
__________________________________________________________________________________________________
flatten_110 (Flatten)           (None, 160)          0           embedding_110[0][0]              
__________________________________________________________________________________________________
concatenate_55 (Concatenate)    (None, 652)          0           flatten_109[0][0]                
                                                                 flatten_110[0][0]                
__________________________________________________________________________________________________
dense_163 (Dense)               (None, 11)           7183        concatenate_55[0][0]             
__________________________________________________________________________________________________
dropout_109 (Dropout)           (None, 11)           0           dense_163[0][0]                  
__________________________________________________________________________________________________
dense_164 (Dense)               (None, 9)            108         dropout_109[0][0]                
__________________________________________________________________________________________________
dropout_110 (Dropout)           (None, 9)            0           dense_164[0][0]                  
__________________________________________________________________________________________________
dense_165 (Dense)               (None, 8)            80          dropout_110[0][0]                
==================================================================================================
Total params: 357,851
Trainable params: 357,851
Non-trainable params: 0
__________________________________________________________________________________________________
None

__________________________________________________________________________________________________
…
	One occurrence keys in vocabulary 1660 / 2793
	Attention: important lemmas are not in vocbulary	Embedding
==================================================================================================
	Initialisation = None
	Concatenation = False
	Lemma : 123
	POS = 40 
Deep model(Non compositional)
__________________________________________________________________________________________________
Layer (type)                    Output Shape         Param #     Connected to                     
==================================================================================================
input_115 (InputLayer)          (None, 4)            0                                            
__________________________________________________________________________________________________
input_116 (InputLayer)          (None, 4)            0                                            
__________________________________________________________________________________________________
embedding_115 (Embedding)       (None, 4, 123)       343539      input_115[0][0]                  
__________________________________________________________________________________________________
embedding_116 (Embedding)       (None, 4, 40)        6760        input_116[0][0]                  
__________________________________________________________________________________________________
flatten_115 (Flatten)           (None, 492)          0           embedding_115[0][0]              
__________________________________________________________________________________________________
flatten_116 (Flatten)           (None, 160)          0           embedding_116[0][0]              
__________________________________________________________________________________________________
concatenate_58 (Concatenate)    (None, 652)          0           flatten_115[0][0]                
                                                                 flatten_116[0][0]                
__________________________________________________________________________________________________
dense_172 (Dense)               (None, 11)           7183        concatenate_58[0][0]             
__________________________________________________________________________________________________
dropout_115 (Dropout)           (None, 11)           0           dense_172[0][0]                  
__________________________________________________________________________________________________
dense_173 (Dense)               (None, 9)            108         dropout_115[0][0]                
__________________________________________________________________________________________________
dropout_116 (Dropout)           (None, 9)            0           dense_173[0][0]                  
__________________________________________________________________________________________________
dense_174 (Dense)               (None, 8)            80          dropout_116[0][0]                
==================================================================================================
Total params: 357,670
Trainable params: 357,670
Non-trainable params: 0
__________________________________________________________________________________________________
None

__________________________________________________________________________________________________
…
	Dashed keys in vocabulary 1979
	One occurrence keys in vocabulary 1979 / 3181
	Embedding
==================================================================================================
	Initialisation = None
	Concatenation = False
	Lemma : 123
	POS = 40 
Deep model(Non compositional)
__________________________________________________________________________________________________
Layer (type)                    Output Shape         Param #     Connected to                     
==================================================================================================
input_121 (InputLayer)          (None, 4)            0                                            
__________________________________________________________________________________________________
input_122 (InputLayer)          (None, 4)            0                                            
__________________________________________________________________________________________________
embedding_121 (Embedding)       (None, 4, 123)       391263      input_121[0][0]                  
__________________________________________________________________________________________________
embedding_122 (Embedding)       (None, 4, 40)        4400        input_122[0][0]                  
__________________________________________________________________________________________________
flatten_121 (Flatten)           (None, 492)          0           embedding_121[0][0]              
__________________________________________________________________________________________________
flatten_122 (Flatten)           (None, 160)          0           embedding_122[0][0]              
__________________________________________________________________________________________________
concatenate_61 (Concatenate)    (None, 652)          0           flatten_121[0][0]                
                                                                 flatten_122[0][0]                
__________________________________________________________________________________________________
dense_181 (Dense)               (None, 11)           7183        concatenate_61[0][0]             
__________________________________________________________________________________________________
dropout_121 (Dropout)           (None, 11)           0           dense_181[0][0]                  
__________________________________________________________________________________________________
dense_182 (Dense)               (None, 9)            108         dropout_121[0][0]                
__________________________________________________________________________________________________
dropout_122 (Dropout)           (None, 9)            0           dense_182[0][0]                  
__________________________________________________________________________________________________
dense_183 (Dense)               (None, 8)            80          dropout_122[0][0]                
==================================================================================================
Total params: 403,034
Trainable params: 403,034
Non-trainable params: 0
__________________________________________________________________________________________________
None

__________________________________________________________________________________________________
…
	Dashed keys in vocabulary 1622
	One occurrence keys in vocabulary 1622 / 12174
	Embedding
==================================================================================================
	Initialisation = None
	Concatenation = False
	Lemma : 227
	POS = 22 
Deep model(Non compositional)
__________________________________________________________________________________________________
Layer (type)                    Output Shape         Param #     Connected to                     
==================================================================================================
input_127 (InputLayer)          (None, 4)            0                                            
__________________________________________________________________________________________________
input_128 (InputLayer)          (None, 4)            0                                            
__________________________________________________________________________________________________
embedding_127 (Embedding)       (None, 4, 227)       2763498     input_127[0][0]                  
__________________________________________________________________________________________________
embedding_128 (Embedding)       (None, 4, 22)        3344        input_128[0][0]                  
__________________________________________________________________________________________________
flatten_127 (Flatten)           (None, 908)          0           embedding_127[0][0]              
__________________________________________________________________________________________________
flatten_128 (Flatten)           (None, 88)           0           embedding_128[0][0]              
__________________________________________________________________________________________________
concatenate_64 (Concatenate)    (None, 996)          0           flatten_127[0][0]                
                                                                 flatten_128[0][0]                
__________________________________________________________________________________________________
dense_190 (Dense)               (None, 27)           26919       concatenate_64[0][0]             
__________________________________________________________________________________________________
dropout_127 (Dropout)           (None, 27)           0           dense_190[0][0]                  
__________________________________________________________________________________________________
dense_191 (Dense)               (None, 8)            224         dropout_127[0][0]                
__________________________________________________________________________________________________
dropout_128 (Dropout)           (None, 8)            0           dense_191[0][0]                  
__________________________________________________________________________________________________
dense_192 (Dense)               (None, 8)            72          dropout_128[0][0]                
==================================================================================================
Total params: 2,794,057
Trainable params: 2,794,057
Non-trainable params: 0
__________________________________________________________________________________________________
None

__________________________________________________________________________________________________
…
	Dashed keys in vocabulary 1622
	One occurrence keys in vocabulary 1622 / 12142
	Embedding
==================================================================================================
	Initialisation = None
	Concatenation = False
	Lemma : 227
	POS = 22 
Deep model(Non compositional)
__________________________________________________________________________________________________
Layer (type)                    Output Shape         Param #     Connected to                     
==================================================================================================
input_129 (InputLayer)          (None, 4)            0                                            
__________________________________________________________________________________________________
input_130 (InputLayer)          (None, 4)            0                                            
__________________________________________________________________________________________________
embedding_129 (Embedding)       (None, 4, 227)       2756234     input_129[0][0]                  
__________________________________________________________________________________________________
embedding_130 (Embedding)       (None, 4, 22)        3344        input_130[0][0]                  
__________________________________________________________________________________________________
flatten_129 (Flatten)           (None, 908)          0           embedding_129[0][0]              
__________________________________________________________________________________________________
flatten_130 (Flatten)           (None, 88)           0           embedding_130[0][0]              
__________________________________________________________________________________________________
concatenate_65 (Concatenate)    (None, 996)          0           flatten_129[0][0]                
                                                                 flatten_130[0][0]                
__________________________________________________________________________________________________
dense_193 (Dense)               (None, 27)           26919       concatenate_65[0][0]             
__________________________________________________________________________________________________
dropout_129 (Dropout)           (None, 27)           0           dense_193[0][0]                  
__________________________________________________________________________________________________
dense_194 (Dense)               (None, 8)            224         dropout_129[0][0]                
__________________________________________________________________________________________________
dropout_130 (Dropout)           (None, 8)            0           dense_194[0][0]                  
__________________________________________________________________________________________________
dense_195 (Dense)               (None, 8)            72          dropout_130[0][0]                
==================================================================================================
Total params: 2,786,793
Trainable params: 2,786,793
Non-trainable params: 0
__________________________________________________________________________________________________
None

__________________________________________________________________________________________________
…
	Dashed keys in vocabulary 1622
	One occurrence keys in vocabulary 1622 / 12159
	Embedding
==================================================================================================
	Initialisation = None
	Concatenation = False
	Lemma : 227
	POS = 22 
Deep model(Non compositional)
__________________________________________________________________________________________________
Layer (type)                    Output Shape         Param #     Connected to                     
==================================================================================================
input_131 (InputLayer)          (None, 4)            0                                            
__________________________________________________________________________________________________
input_132 (InputLayer)          (None, 4)            0                                            
__________________________________________________________________________________________________
embedding_131 (Embedding)       (None, 4, 227)       2760093     input_131[0][0]                  
__________________________________________________________________________________________________
embedding_132 (Embedding)       (None, 4, 22)        3344        input_132[0][0]                  
__________________________________________________________________________________________________
flatten_131 (Flatten)           (None, 908)          0           embedding_131[0][0]              
__________________________________________________________________________________________________
flatten_132 (Flatten)           (None, 88)           0           embedding_132[0][0]              
__________________________________________________________________________________________________
concatenate_66 (Concatenate)    (None, 996)          0           flatten_131[0][0]                
                                                                 flatten_132[0][0]                
__________________________________________________________________________________________________
dense_196 (Dense)               (None, 27)           26919       concatenate_66[0][0]             
__________________________________________________________________________________________________
dropout_131 (Dropout)           (None, 27)           0           dense_196[0][0]                  
__________________________________________________________________________________________________
dense_197 (Dense)               (None, 8)            224         dropout_131[0][0]                
__________________________________________________________________________________________________
dropout_132 (Dropout)           (None, 8)            0           dense_197[0][0]                  
__________________________________________________________________________________________________
dense_198 (Dense)               (None, 8)            72          dropout_132[0][0]                
==================================================================================================
Total params: 2,790,652
Trainable params: 2,790,652
Non-trainable params: 0
__________________________________________________________________________________________________
None

__________________________________________________________________________________________________
…
	One occurrence keys in vocabulary 1660 / 15321
	Attention: important lemmas are not in vocbulary	Embedding
==================================================================================================
	Initialisation = None
	Concatenation = False
	Lemma : 227
	POS = 22 
Deep model(Non compositional)
__________________________________________________________________________________________________
Layer (type)                    Output Shape         Param #     Connected to                     
==================================================================================================
input_133 (InputLayer)          (None, 4)            0                                            
__________________________________________________________________________________________________
input_134 (InputLayer)          (None, 4)            0                                            
__________________________________________________________________________________________________
embedding_133 (Embedding)       (None, 4, 227)       3477867     input_133[0][0]                  
__________________________________________________________________________________________________
embedding_134 (Embedding)       (None, 4, 22)        3718        input_134[0][0]                  
__________________________________________________________________________________________________
flatten_133 (Flatten)           (None, 908)          0           embedding_133[0][0]              
__________________________________________________________________________________________________
flatten_134 (Flatten)           (None, 88)           0           embedding_134[0][0]              
__________________________________________________________________________________________________
concatenate_67 (Concatenate)    (None, 996)          0           flatten_133[0][0]                
                                                                 flatten_134[0][0]                
__________________________________________________________________________________________________
dense_199 (Dense)               (None, 27)           26919       concatenate_67[0][0]             
__________________________________________________________________________________________________
dropout_133 (Dropout)           (None, 27)           0           dense_199[0][0]                  
__________________________________________________________________________________________________
dense_200 (Dense)               (None, 8)            224         dropout_133[0][0]                
__________________________________________________________________________________________________
dropout_134 (Dropout)           (None, 8)            0           dense_200[0][0]                  
__________________________________________________________________________________________________
dense_201 (Dense)               (None, 8)            72          dropout_134[0][0]                
==================================================================================================
Total params: 3,508,800
Trainable params: 3,508,800
Non-trainable params: 0
__________________________________________________________________________________________________
None

__________________________________________________________________________________________________
…
	One occurrence keys in vocabulary 1660 / 15303
	Attention: important lemmas are not in vocbulary	Embedding
==================================================================================================
	Initialisation = None
	Concatenation = False
	Lemma : 227
	POS = 22 
Deep model(Non compositional)
__________________________________________________________________________________________________
Layer (type)                    Output Shape         Param #     Connected to                     
==================================================================================================
input_135 (InputLayer)          (None, 4)            0                                            
__________________________________________________________________________________________________
input_136 (InputLayer)          (None, 4)            0                                            
__________________________________________________________________________________________________
embedding_135 (Embedding)       (None, 4, 227)       3473781     input_135[0][0]                  
__________________________________________________________________________________________________
embedding_136 (Embedding)       (None, 4, 22)        3718        input_136[0][0]                  
__________________________________________________________________________________________________
flatten_135 (Flatten)           (None, 908)          0           embedding_135[0][0]              
__________________________________________________________________________________________________
flatten_136 (Flatten)           (None, 88)           0           embedding_136[0][0]              
__________________________________________________________________________________________________
concatenate_68 (Concatenate)    (None, 996)          0           flatten_135[0][0]                
                                                                 flatten_136[0][0]                
__________________________________________________________________________________________________
dense_202 (Dense)               (None, 27)           26919       concatenate_68[0][0]             
__________________________________________________________________________________________________
dropout_135 (Dropout)           (None, 27)           0           dense_202[0][0]                  
__________________________________________________________________________________________________
dense_203 (Dense)               (None, 8)            224         dropout_135[0][0]                
__________________________________________________________________________________________________
dropout_136 (Dropout)           (None, 8)            0           dense_203[0][0]                  
__________________________________________________________________________________________________
dense_204 (Dense)               (None, 8)            72          dropout_136[0][0]                
==================================================================================================
Total params: 3,504,714
Trainable params: 3,504,714
Non-trainable params: 0
__________________________________________________________________________________________________
None

__________________________________________________________________________________________________
…
	One occurrence keys in vocabulary 1660 / 15244
	Attention: important lemmas are not in vocbulary	Embedding
==================================================================================================
	Initialisation = None
	Concatenation = False
	Lemma : 227
	POS = 22 
Deep model(Non compositional)
__________________________________________________________________________________________________
Layer (type)                    Output Shape         Param #     Connected to                     
==================================================================================================
input_137 (InputLayer)          (None, 4)            0                                            
__________________________________________________________________________________________________
input_138 (InputLayer)          (None, 4)            0                                            
__________________________________________________________________________________________________
embedding_137 (Embedding)       (None, 4, 227)       3460388     input_137[0][0]                  
__________________________________________________________________________________________________
embedding_138 (Embedding)       (None, 4, 22)        3718        input_138[0][0]                  
__________________________________________________________________________________________________
flatten_137 (Flatten)           (None, 908)          0           embedding_137[0][0]              
__________________________________________________________________________________________________
flatten_138 (Flatten)           (None, 88)           0           embedding_138[0][0]              
__________________________________________________________________________________________________
concatenate_69 (Concatenate)    (None, 996)          0           flatten_137[0][0]                
                                                                 flatten_138[0][0]                
__________________________________________________________________________________________________
dense_205 (Dense)               (None, 27)           26919       concatenate_69[0][0]             
__________________________________________________________________________________________________
dropout_137 (Dropout)           (None, 27)           0           dense_205[0][0]                  
__________________________________________________________________________________________________
dense_206 (Dense)               (None, 8)            224         dropout_137[0][0]                
__________________________________________________________________________________________________
dropout_138 (Dropout)           (None, 8)            0           dense_206[0][0]                  
__________________________________________________________________________________________________
dense_207 (Dense)               (None, 8)            72          dropout_138[0][0]                
==================================================================================================
Total params: 3,491,321
Trainable params: 3,491,321
Non-trainable params: 0
__________________________________________________________________________________________________
None

__________________________________________________________________________________________________
…
	Dashed keys in vocabulary 1979
	One occurrence keys in vocabulary 1979 / 12529
	Embedding
==================================================================================================
	Initialisation = None
	Concatenation = False
	Lemma : 227
	POS = 22 
Deep model(Non compositional)
__________________________________________________________________________________________________
Layer (type)                    Output Shape         Param #     Connected to                     
==================================================================================================
input_139 (InputLayer)          (None, 4)            0                                            
__________________________________________________________________________________________________
input_140 (InputLayer)          (None, 4)            0                                            
__________________________________________________________________________________________________
embedding_139 (Embedding)       (None, 4, 227)       2844083     input_139[0][0]                  
__________________________________________________________________________________________________
embedding_140 (Embedding)       (None, 4, 22)        2420        input_140[0][0]                  
__________________________________________________________________________________________________
flatten_139 (Flatten)           (None, 908)          0           embedding_139[0][0]              
__________________________________________________________________________________________________
flatten_140 (Flatten)           (None, 88)           0           embedding_140[0][0]              
__________________________________________________________________________________________________
concatenate_70 (Concatenate)    (None, 996)          0           flatten_139[0][0]                
                                                                 flatten_140[0][0]                
__________________________________________________________________________________________________
dense_208 (Dense)               (None, 27)           26919       concatenate_70[0][0]             
__________________________________________________________________________________________________
dropout_139 (Dropout)           (None, 27)           0           dense_208[0][0]                  
__________________________________________________________________________________________________
dense_209 (Dense)               (None, 8)            224         dropout_139[0][0]                
__________________________________________________________________________________________________
dropout_140 (Dropout)           (None, 8)            0           dense_209[0][0]                  
__________________________________________________________________________________________________
dense_210 (Dense)               (None, 8)            72          dropout_140[0][0]                
==================================================================================================
Total params: 2,873,718
Trainable params: 2,873,718
Non-trainable params: 0
__________________________________________________________________________________________________
None

__________________________________________________________________________________________________
…
	Dashed keys in vocabulary 1979
	One occurrence keys in vocabulary 1979 / 12525
	Embedding
==================================================================================================
	Initialisation = None
	Concatenation = False
	Lemma : 227
	POS = 22 
Deep model(Non compositional)
__________________________________________________________________________________________________
Layer (type)                    Output Shape         Param #     Connected to                     
==================================================================================================
input_141 (InputLayer)          (None, 4)            0                                            
__________________________________________________________________________________________________
input_142 (InputLayer)          (None, 4)            0                                            
__________________________________________________________________________________________________
embedding_141 (Embedding)       (None, 4, 227)       2843175     input_141[0][0]                  
__________________________________________________________________________________________________
embedding_142 (Embedding)       (None, 4, 22)        2420        input_142[0][0]                  
__________________________________________________________________________________________________
flatten_141 (Flatten)           (None, 908)          0           embedding_141[0][0]              
__________________________________________________________________________________________________
flatten_142 (Flatten)           (None, 88)           0           embedding_142[0][0]              
__________________________________________________________________________________________________
concatenate_71 (Concatenate)    (None, 996)          0           flatten_141[0][0]                
                                                                 flatten_142[0][0]                
__________________________________________________________________________________________________
dense_211 (Dense)               (None, 27)           26919       concatenate_71[0][0]             
__________________________________________________________________________________________________
dropout_141 (Dropout)           (None, 27)           0           dense_211[0][0]                  
__________________________________________________________________________________________________
dense_212 (Dense)               (None, 8)            224         dropout_141[0][0]                
__________________________________________________________________________________________________
dropout_142 (Dropout)           (None, 8)            0           dense_212[0][0]                  
__________________________________________________________________________________________________
dense_213 (Dense)               (None, 8)            72          dropout_142[0][0]                
==================================================================================================
Total params: 2,872,810
Trainable params: 2,872,810
Non-trainable params: 0
__________________________________________________________________________________________________
None

__________________________________________________________________________________________________
…
	Dashed keys in vocabulary 1979
	One occurrence keys in vocabulary 1979 / 12587
	Embedding
==================================================================================================
	Initialisation = None
	Concatenation = False
	Lemma : 227
	POS = 22 
Deep model(Non compositional)
__________________________________________________________________________________________________
Layer (type)                    Output Shape         Param #     Connected to                     
==================================================================================================
input_143 (InputLayer)          (None, 4)            0                                            
__________________________________________________________________________________________________
input_144 (InputLayer)          (None, 4)            0                                            
__________________________________________________________________________________________________
embedding_143 (Embedding)       (None, 4, 227)       2857249     input_143[0][0]                  
__________________________________________________________________________________________________
embedding_144 (Embedding)       (None, 4, 22)        2420        input_144[0][0]                  
__________________________________________________________________________________________________
flatten_143 (Flatten)           (None, 908)          0           embedding_143[0][0]              
__________________________________________________________________________________________________
flatten_144 (Flatten)           (None, 88)           0           embedding_144[0][0]              
__________________________________________________________________________________________________
concatenate_72 (Concatenate)    (None, 996)          0           flatten_143[0][0]                
                                                                 flatten_144[0][0]                
__________________________________________________________________________________________________
dense_214 (Dense)               (None, 27)           26919       concatenate_72[0][0]             
__________________________________________________________________________________________________
dropout_143 (Dropout)           (None, 27)           0           dense_214[0][0]                  
__________________________________________________________________________________________________
dense_215 (Dense)               (None, 8)            224         dropout_143[0][0]                
__________________________________________________________________________________________________
dropout_144 (Dropout)           (None, 8)            0           dense_215[0][0]                  
__________________________________________________________________________________________________
dense_216 (Dense)               (None, 8)            72          dropout_144[0][0]                
==================================================================================================
Total params: 2,886,884
Trainable params: 2,886,884
Non-trainable params: 0
__________________________________________________________________________________________________
None

__________________________________________________________________________________________________
…
