…
	Dashed keys in vocabulary 1622
	One occurrence keys in vocabulary 1622 / 12174
	Embedding
==================================================================================================
	Initialisation = None
	Concatenation = False
	Lemma : 172
	POS = 16 
Deep model(Non compositional)
__________________________________________________________________________________________________
Layer (type)                    Output Shape         Param #     Connected to                     
==================================================================================================
input_1 (InputLayer)            (None, 4)            0                                            
__________________________________________________________________________________________________
input_2 (InputLayer)            (None, 4)            0                                            
__________________________________________________________________________________________________
embedding_1 (Embedding)         (None, 4, 172)       2093928     input_1[0][0]                    
__________________________________________________________________________________________________
embedding_2 (Embedding)         (None, 4, 16)        2432        input_2[0][0]                    
__________________________________________________________________________________________________
flatten_1 (Flatten)             (None, 688)          0           embedding_1[0][0]                
__________________________________________________________________________________________________
flatten_2 (Flatten)             (None, 64)           0           embedding_2[0][0]                
__________________________________________________________________________________________________
concatenate_1 (Concatenate)     (None, 752)          0           flatten_1[0][0]                  
                                                                 flatten_2[0][0]                  
__________________________________________________________________________________________________
dense_1 (Dense)                 (None, 21)           15813       concatenate_1[0][0]              
__________________________________________________________________________________________________
dropout_1 (Dropout)             (None, 21)           0           dense_1[0][0]                    
__________________________________________________________________________________________________
dense_2 (Dense)                 (None, 12)           264         dropout_1[0][0]                  
__________________________________________________________________________________________________
dropout_2 (Dropout)             (None, 12)           0           dense_2[0][0]                    
__________________________________________________________________________________________________
dense_3 (Dense)                 (None, 8)            104         dropout_2[0][0]                  
==================================================================================================
Total params: 2,112,541
Trainable params: 2,112,541
Non-trainable params: 0
__________________________________________________________________________________________________
None

__________________________________________________________________________________________________
…
	Dashed keys in vocabulary 1622
	One occurrence keys in vocabulary 1622 / 12142
	Embedding
==================================================================================================
	Initialisation = None
	Concatenation = False
	Lemma : 172
	POS = 16 
Deep model(Non compositional)
__________________________________________________________________________________________________
Layer (type)                    Output Shape         Param #     Connected to                     
==================================================================================================
input_3 (InputLayer)            (None, 4)            0                                            
__________________________________________________________________________________________________
input_4 (InputLayer)            (None, 4)            0                                            
__________________________________________________________________________________________________
embedding_3 (Embedding)         (None, 4, 172)       2088424     input_3[0][0]                    
__________________________________________________________________________________________________
embedding_4 (Embedding)         (None, 4, 16)        2432        input_4[0][0]                    
__________________________________________________________________________________________________
flatten_3 (Flatten)             (None, 688)          0           embedding_3[0][0]                
__________________________________________________________________________________________________
flatten_4 (Flatten)             (None, 64)           0           embedding_4[0][0]                
__________________________________________________________________________________________________
concatenate_2 (Concatenate)     (None, 752)          0           flatten_3[0][0]                  
                                                                 flatten_4[0][0]                  
__________________________________________________________________________________________________
dense_4 (Dense)                 (None, 21)           15813       concatenate_2[0][0]              
__________________________________________________________________________________________________
dropout_3 (Dropout)             (None, 21)           0           dense_4[0][0]                    
__________________________________________________________________________________________________
dense_5 (Dense)                 (None, 12)           264         dropout_3[0][0]                  
__________________________________________________________________________________________________
dropout_4 (Dropout)             (None, 12)           0           dense_5[0][0]                    
__________________________________________________________________________________________________
dense_6 (Dense)                 (None, 8)            104         dropout_4[0][0]                  
==================================================================================================
Total params: 2,107,037
Trainable params: 2,107,037
Non-trainable params: 0
__________________________________________________________________________________________________
None

__________________________________________________________________________________________________
…
	Dashed keys in vocabulary 1622
	One occurrence keys in vocabulary 1622 / 12159
	Embedding
==================================================================================================
	Initialisation = None
	Concatenation = False
	Lemma : 172
	POS = 16 
Deep model(Non compositional)
__________________________________________________________________________________________________
Layer (type)                    Output Shape         Param #     Connected to                     
==================================================================================================
input_5 (InputLayer)            (None, 4)            0                                            
__________________________________________________________________________________________________
input_6 (InputLayer)            (None, 4)            0                                            
__________________________________________________________________________________________________
embedding_5 (Embedding)         (None, 4, 172)       2091348     input_5[0][0]                    
__________________________________________________________________________________________________
embedding_6 (Embedding)         (None, 4, 16)        2432        input_6[0][0]                    
__________________________________________________________________________________________________
flatten_5 (Flatten)             (None, 688)          0           embedding_5[0][0]                
__________________________________________________________________________________________________
flatten_6 (Flatten)             (None, 64)           0           embedding_6[0][0]                
__________________________________________________________________________________________________
concatenate_3 (Concatenate)     (None, 752)          0           flatten_5[0][0]                  
                                                                 flatten_6[0][0]                  
__________________________________________________________________________________________________
dense_7 (Dense)                 (None, 21)           15813       concatenate_3[0][0]              
__________________________________________________________________________________________________
dropout_5 (Dropout)             (None, 21)           0           dense_7[0][0]                    
__________________________________________________________________________________________________
dense_8 (Dense)                 (None, 12)           264         dropout_5[0][0]                  
__________________________________________________________________________________________________
dropout_6 (Dropout)             (None, 12)           0           dense_8[0][0]                    
__________________________________________________________________________________________________
dense_9 (Dense)                 (None, 8)            104         dropout_6[0][0]                  
==================================================================================================
Total params: 2,109,961
Trainable params: 2,109,961
Non-trainable params: 0
__________________________________________________________________________________________________
None

__________________________________________________________________________________________________
…
	One occurrence keys in vocabulary 1660 / 15321
	Attention: important lemmas are not in vocbulary	Embedding
==================================================================================================
	Initialisation = None
	Concatenation = False
	Lemma : 172
	POS = 16 
Deep model(Non compositional)
__________________________________________________________________________________________________
Layer (type)                    Output Shape         Param #     Connected to                     
==================================================================================================
input_7 (InputLayer)            (None, 4)            0                                            
__________________________________________________________________________________________________
input_8 (InputLayer)            (None, 4)            0                                            
__________________________________________________________________________________________________
embedding_7 (Embedding)         (None, 4, 172)       2635212     input_7[0][0]                    
__________________________________________________________________________________________________
embedding_8 (Embedding)         (None, 4, 16)        2704        input_8[0][0]                    
__________________________________________________________________________________________________
flatten_7 (Flatten)             (None, 688)          0           embedding_7[0][0]                
__________________________________________________________________________________________________
flatten_8 (Flatten)             (None, 64)           0           embedding_8[0][0]                
__________________________________________________________________________________________________
concatenate_4 (Concatenate)     (None, 752)          0           flatten_7[0][0]                  
                                                                 flatten_8[0][0]                  
__________________________________________________________________________________________________
dense_10 (Dense)                (None, 21)           15813       concatenate_4[0][0]              
__________________________________________________________________________________________________
dropout_7 (Dropout)             (None, 21)           0           dense_10[0][0]                   
__________________________________________________________________________________________________
dense_11 (Dense)                (None, 12)           264         dropout_7[0][0]                  
__________________________________________________________________________________________________
dropout_8 (Dropout)             (None, 12)           0           dense_11[0][0]                   
__________________________________________________________________________________________________
dense_12 (Dense)                (None, 8)            104         dropout_8[0][0]                  
==================================================================================================
Total params: 2,654,097
Trainable params: 2,654,097
Non-trainable params: 0
__________________________________________________________________________________________________
None

__________________________________________________________________________________________________
…
	One occurrence keys in vocabulary 1660 / 15303
	Attention: important lemmas are not in vocbulary	Embedding
==================================================================================================
	Initialisation = None
	Concatenation = False
	Lemma : 172
	POS = 16 
Deep model(Non compositional)
__________________________________________________________________________________________________
Layer (type)                    Output Shape         Param #     Connected to                     
==================================================================================================
input_9 (InputLayer)            (None, 4)            0                                            
__________________________________________________________________________________________________
input_10 (InputLayer)           (None, 4)            0                                            
__________________________________________________________________________________________________
embedding_9 (Embedding)         (None, 4, 172)       2632116     input_9[0][0]                    
__________________________________________________________________________________________________
embedding_10 (Embedding)        (None, 4, 16)        2704        input_10[0][0]                   
__________________________________________________________________________________________________
flatten_9 (Flatten)             (None, 688)          0           embedding_9[0][0]                
__________________________________________________________________________________________________
flatten_10 (Flatten)            (None, 64)           0           embedding_10[0][0]               
__________________________________________________________________________________________________
concatenate_5 (Concatenate)     (None, 752)          0           flatten_9[0][0]                  
                                                                 flatten_10[0][0]                 
__________________________________________________________________________________________________
dense_13 (Dense)                (None, 21)           15813       concatenate_5[0][0]              
__________________________________________________________________________________________________
dropout_9 (Dropout)             (None, 21)           0           dense_13[0][0]                   
__________________________________________________________________________________________________
dense_14 (Dense)                (None, 12)           264         dropout_9[0][0]                  
__________________________________________________________________________________________________
dropout_10 (Dropout)            (None, 12)           0           dense_14[0][0]                   
__________________________________________________________________________________________________
dense_15 (Dense)                (None, 8)            104         dropout_10[0][0]                 
==================================================================================================
Total params: 2,651,001
Trainable params: 2,651,001
Non-trainable params: 0
__________________________________________________________________________________________________
None

__________________________________________________________________________________________________
…
	One occurrence keys in vocabulary 1660 / 15244
	Attention: important lemmas are not in vocbulary	Embedding
==================================================================================================
	Initialisation = None
	Concatenation = False
	Lemma : 172
	POS = 16 
Deep model(Non compositional)
__________________________________________________________________________________________________
Layer (type)                    Output Shape         Param #     Connected to                     
==================================================================================================
input_11 (InputLayer)           (None, 4)            0                                            
__________________________________________________________________________________________________
input_12 (InputLayer)           (None, 4)            0                                            
__________________________________________________________________________________________________
embedding_11 (Embedding)        (None, 4, 172)       2621968     input_11[0][0]                   
__________________________________________________________________________________________________
embedding_12 (Embedding)        (None, 4, 16)        2704        input_12[0][0]                   
__________________________________________________________________________________________________
flatten_11 (Flatten)            (None, 688)          0           embedding_11[0][0]               
__________________________________________________________________________________________________
flatten_12 (Flatten)            (None, 64)           0           embedding_12[0][0]               
__________________________________________________________________________________________________
concatenate_6 (Concatenate)     (None, 752)          0           flatten_11[0][0]                 
                                                                 flatten_12[0][0]                 
__________________________________________________________________________________________________
dense_16 (Dense)                (None, 21)           15813       concatenate_6[0][0]              
__________________________________________________________________________________________________
dropout_11 (Dropout)            (None, 21)           0           dense_16[0][0]                   
__________________________________________________________________________________________________
dense_17 (Dense)                (None, 12)           264         dropout_11[0][0]                 
__________________________________________________________________________________________________
dropout_12 (Dropout)            (None, 12)           0           dense_17[0][0]                   
__________________________________________________________________________________________________
dense_18 (Dense)                (None, 8)            104         dropout_12[0][0]                 
==================================================================================================
Total params: 2,640,853
Trainable params: 2,640,853
Non-trainable params: 0
__________________________________________________________________________________________________
None

__________________________________________________________________________________________________
…
	Dashed keys in vocabulary 1979
	One occurrence keys in vocabulary 1979 / 12529
	Embedding
==================================================================================================
	Initialisation = None
	Concatenation = False
	Lemma : 172
	POS = 16 
Deep model(Non compositional)
__________________________________________________________________________________________________
Layer (type)                    Output Shape         Param #     Connected to                     
==================================================================================================
input_13 (InputLayer)           (None, 4)            0                                            
__________________________________________________________________________________________________
input_14 (InputLayer)           (None, 4)            0                                            
__________________________________________________________________________________________________
embedding_13 (Embedding)        (None, 4, 172)       2154988     input_13[0][0]                   
__________________________________________________________________________________________________
embedding_14 (Embedding)        (None, 4, 16)        1760        input_14[0][0]                   
__________________________________________________________________________________________________
flatten_13 (Flatten)            (None, 688)          0           embedding_13[0][0]               
__________________________________________________________________________________________________
flatten_14 (Flatten)            (None, 64)           0           embedding_14[0][0]               
__________________________________________________________________________________________________
concatenate_7 (Concatenate)     (None, 752)          0           flatten_13[0][0]                 
                                                                 flatten_14[0][0]                 
__________________________________________________________________________________________________
dense_19 (Dense)                (None, 21)           15813       concatenate_7[0][0]              
__________________________________________________________________________________________________
dropout_13 (Dropout)            (None, 21)           0           dense_19[0][0]                   
__________________________________________________________________________________________________
dense_20 (Dense)                (None, 12)           264         dropout_13[0][0]                 
__________________________________________________________________________________________________
dropout_14 (Dropout)            (None, 12)           0           dense_20[0][0]                   
__________________________________________________________________________________________________
dense_21 (Dense)                (None, 8)            104         dropout_14[0][0]                 
==================================================================================================
Total params: 2,172,929
Trainable params: 2,172,929
Non-trainable params: 0
__________________________________________________________________________________________________
None

__________________________________________________________________________________________________
…
	Dashed keys in vocabulary 1979
	One occurrence keys in vocabulary 1979 / 12525
	Embedding
==================================================================================================
	Initialisation = None
	Concatenation = False
	Lemma : 172
	POS = 16 
Deep model(Non compositional)
__________________________________________________________________________________________________
Layer (type)                    Output Shape         Param #     Connected to                     
==================================================================================================
input_15 (InputLayer)           (None, 4)            0                                            
__________________________________________________________________________________________________
input_16 (InputLayer)           (None, 4)            0                                            
__________________________________________________________________________________________________
embedding_15 (Embedding)        (None, 4, 172)       2154300     input_15[0][0]                   
__________________________________________________________________________________________________
embedding_16 (Embedding)        (None, 4, 16)        1760        input_16[0][0]                   
__________________________________________________________________________________________________
flatten_15 (Flatten)            (None, 688)          0           embedding_15[0][0]               
__________________________________________________________________________________________________
flatten_16 (Flatten)            (None, 64)           0           embedding_16[0][0]               
__________________________________________________________________________________________________
concatenate_8 (Concatenate)     (None, 752)          0           flatten_15[0][0]                 
                                                                 flatten_16[0][0]                 
__________________________________________________________________________________________________
dense_22 (Dense)                (None, 21)           15813       concatenate_8[0][0]              
__________________________________________________________________________________________________
dropout_15 (Dropout)            (None, 21)           0           dense_22[0][0]                   
__________________________________________________________________________________________________
dense_23 (Dense)                (None, 12)           264         dropout_15[0][0]                 
__________________________________________________________________________________________________
dropout_16 (Dropout)            (None, 12)           0           dense_23[0][0]                   
__________________________________________________________________________________________________
dense_24 (Dense)                (None, 8)            104         dropout_16[0][0]                 
==================================================================================================
Total params: 2,172,241
Trainable params: 2,172,241
Non-trainable params: 0
__________________________________________________________________________________________________
None

__________________________________________________________________________________________________
…
	Dashed keys in vocabulary 1979
	One occurrence keys in vocabulary 1979 / 12587
	Embedding
==================================================================================================
	Initialisation = None
	Concatenation = False
	Lemma : 172
	POS = 16 
Deep model(Non compositional)
__________________________________________________________________________________________________
Layer (type)                    Output Shape         Param #     Connected to                     
==================================================================================================
input_17 (InputLayer)           (None, 4)            0                                            
__________________________________________________________________________________________________
input_18 (InputLayer)           (None, 4)            0                                            
__________________________________________________________________________________________________
embedding_17 (Embedding)        (None, 4, 172)       2164964     input_17[0][0]                   
__________________________________________________________________________________________________
embedding_18 (Embedding)        (None, 4, 16)        1760        input_18[0][0]                   
__________________________________________________________________________________________________
flatten_17 (Flatten)            (None, 688)          0           embedding_17[0][0]               
__________________________________________________________________________________________________
flatten_18 (Flatten)            (None, 64)           0           embedding_18[0][0]               
__________________________________________________________________________________________________
concatenate_9 (Concatenate)     (None, 752)          0           flatten_17[0][0]                 
                                                                 flatten_18[0][0]                 
__________________________________________________________________________________________________
dense_25 (Dense)                (None, 21)           15813       concatenate_9[0][0]              
__________________________________________________________________________________________________
dropout_17 (Dropout)            (None, 21)           0           dense_25[0][0]                   
__________________________________________________________________________________________________
dense_26 (Dense)                (None, 12)           264         dropout_17[0][0]                 
__________________________________________________________________________________________________
dropout_18 (Dropout)            (None, 12)           0           dense_26[0][0]                   
__________________________________________________________________________________________________
dense_27 (Dense)                (None, 8)            104         dropout_18[0][0]                 
==================================================================================================
Total params: 2,182,905
Trainable params: 2,182,905
Non-trainable params: 0
__________________________________________________________________________________________________
None

__________________________________________________________________________________________________
…
	Dashed keys in vocabulary 1622
	One occurrence keys in vocabulary 1622 / 12174
	Embedding
==================================================================================================
	Initialisation = None
	Concatenation = False
	Lemma : 245
	POS = 15 
Deep model(Non compositional)
__________________________________________________________________________________________________
Layer (type)                    Output Shape         Param #     Connected to                     
==================================================================================================
input_19 (InputLayer)           (None, 4)            0                                            
__________________________________________________________________________________________________
input_20 (InputLayer)           (None, 4)            0                                            
__________________________________________________________________________________________________
embedding_19 (Embedding)        (None, 4, 245)       2982630     input_19[0][0]                   
__________________________________________________________________________________________________
embedding_20 (Embedding)        (None, 4, 15)        2280        input_20[0][0]                   
__________________________________________________________________________________________________
flatten_19 (Flatten)            (None, 980)          0           embedding_19[0][0]               
__________________________________________________________________________________________________
flatten_20 (Flatten)            (None, 60)           0           embedding_20[0][0]               
__________________________________________________________________________________________________
concatenate_10 (Concatenate)    (None, 1040)         0           flatten_19[0][0]                 
                                                                 flatten_20[0][0]                 
__________________________________________________________________________________________________
dense_28 (Dense)                (None, 11)           11451       concatenate_10[0][0]             
__________________________________________________________________________________________________
dropout_19 (Dropout)            (None, 11)           0           dense_28[0][0]                   
__________________________________________________________________________________________________
dense_29 (Dense)                (None, 117)          1404        dropout_19[0][0]                 
__________________________________________________________________________________________________
dropout_20 (Dropout)            (None, 117)          0           dense_29[0][0]                   
__________________________________________________________________________________________________
dense_30 (Dense)                (None, 8)            944         dropout_20[0][0]                 
==================================================================================================
Total params: 2,998,709
Trainable params: 2,998,709
Non-trainable params: 0
__________________________________________________________________________________________________
None

__________________________________________________________________________________________________
…
	Dashed keys in vocabulary 1622
	One occurrence keys in vocabulary 1622 / 12142
	Embedding
==================================================================================================
	Initialisation = None
	Concatenation = False
	Lemma : 245
	POS = 15 
Deep model(Non compositional)
__________________________________________________________________________________________________
Layer (type)                    Output Shape         Param #     Connected to                     
==================================================================================================
input_21 (InputLayer)           (None, 4)            0                                            
__________________________________________________________________________________________________
input_22 (InputLayer)           (None, 4)            0                                            
__________________________________________________________________________________________________
embedding_21 (Embedding)        (None, 4, 245)       2974790     input_21[0][0]                   
__________________________________________________________________________________________________
embedding_22 (Embedding)        (None, 4, 15)        2280        input_22[0][0]                   
__________________________________________________________________________________________________
flatten_21 (Flatten)            (None, 980)          0           embedding_21[0][0]               
__________________________________________________________________________________________________
flatten_22 (Flatten)            (None, 60)           0           embedding_22[0][0]               
__________________________________________________________________________________________________
concatenate_11 (Concatenate)    (None, 1040)         0           flatten_21[0][0]                 
                                                                 flatten_22[0][0]                 
__________________________________________________________________________________________________
dense_31 (Dense)                (None, 11)           11451       concatenate_11[0][0]             
__________________________________________________________________________________________________
dropout_21 (Dropout)            (None, 11)           0           dense_31[0][0]                   
__________________________________________________________________________________________________
dense_32 (Dense)                (None, 117)          1404        dropout_21[0][0]                 
__________________________________________________________________________________________________
dropout_22 (Dropout)            (None, 117)          0           dense_32[0][0]                   
__________________________________________________________________________________________________
dense_33 (Dense)                (None, 8)            944         dropout_22[0][0]                 
==================================================================================================
Total params: 2,990,869
Trainable params: 2,990,869
Non-trainable params: 0
__________________________________________________________________________________________________
None

__________________________________________________________________________________________________
…
	Dashed keys in vocabulary 1622
	One occurrence keys in vocabulary 1622 / 12159
	Embedding
==================================================================================================
	Initialisation = None
	Concatenation = False
	Lemma : 245
	POS = 15 
Deep model(Non compositional)
__________________________________________________________________________________________________
Layer (type)                    Output Shape         Param #     Connected to                     
==================================================================================================
input_23 (InputLayer)           (None, 4)            0                                            
__________________________________________________________________________________________________
input_24 (InputLayer)           (None, 4)            0                                            
__________________________________________________________________________________________________
embedding_23 (Embedding)        (None, 4, 245)       2978955     input_23[0][0]                   
__________________________________________________________________________________________________
embedding_24 (Embedding)        (None, 4, 15)        2280        input_24[0][0]                   
__________________________________________________________________________________________________
flatten_23 (Flatten)            (None, 980)          0           embedding_23[0][0]               
__________________________________________________________________________________________________
flatten_24 (Flatten)            (None, 60)           0           embedding_24[0][0]               
__________________________________________________________________________________________________
concatenate_12 (Concatenate)    (None, 1040)         0           flatten_23[0][0]                 
                                                                 flatten_24[0][0]                 
__________________________________________________________________________________________________
dense_34 (Dense)                (None, 11)           11451       concatenate_12[0][0]             
__________________________________________________________________________________________________
dropout_23 (Dropout)            (None, 11)           0           dense_34[0][0]                   
__________________________________________________________________________________________________
dense_35 (Dense)                (None, 117)          1404        dropout_23[0][0]                 
__________________________________________________________________________________________________
dropout_24 (Dropout)            (None, 117)          0           dense_35[0][0]                   
__________________________________________________________________________________________________
dense_36 (Dense)                (None, 8)            944         dropout_24[0][0]                 
==================================================================================================
Total params: 2,995,034
Trainable params: 2,995,034
Non-trainable params: 0
__________________________________________________________________________________________________
None

__________________________________________________________________________________________________
…
	One occurrence keys in vocabulary 1660 / 15321
	Attention: important lemmas are not in vocbulary	Embedding
==================================================================================================
	Initialisation = None
	Concatenation = False
	Lemma : 245
	POS = 15 
Deep model(Non compositional)
__________________________________________________________________________________________________
Layer (type)                    Output Shape         Param #     Connected to                     
==================================================================================================
input_25 (InputLayer)           (None, 4)            0                                            
__________________________________________________________________________________________________
input_26 (InputLayer)           (None, 4)            0                                            
__________________________________________________________________________________________________
embedding_25 (Embedding)        (None, 4, 245)       3753645     input_25[0][0]                   
__________________________________________________________________________________________________
embedding_26 (Embedding)        (None, 4, 15)        2535        input_26[0][0]                   
__________________________________________________________________________________________________
flatten_25 (Flatten)            (None, 980)          0           embedding_25[0][0]               
__________________________________________________________________________________________________
flatten_26 (Flatten)            (None, 60)           0           embedding_26[0][0]               
__________________________________________________________________________________________________
concatenate_13 (Concatenate)    (None, 1040)         0           flatten_25[0][0]                 
                                                                 flatten_26[0][0]                 
__________________________________________________________________________________________________
dense_37 (Dense)                (None, 11)           11451       concatenate_13[0][0]             
__________________________________________________________________________________________________
dropout_25 (Dropout)            (None, 11)           0           dense_37[0][0]                   
__________________________________________________________________________________________________
dense_38 (Dense)                (None, 117)          1404        dropout_25[0][0]                 
__________________________________________________________________________________________________
dropout_26 (Dropout)            (None, 117)          0           dense_38[0][0]                   
__________________________________________________________________________________________________
dense_39 (Dense)                (None, 8)            944         dropout_26[0][0]                 
==================================================================================================
Total params: 3,769,979
Trainable params: 3,769,979
Non-trainable params: 0
__________________________________________________________________________________________________
None

__________________________________________________________________________________________________
…
	One occurrence keys in vocabulary 1660 / 15303
	Attention: important lemmas are not in vocbulary	Embedding
==================================================================================================
	Initialisation = None
	Concatenation = False
	Lemma : 245
	POS = 15 
Deep model(Non compositional)
__________________________________________________________________________________________________
Layer (type)                    Output Shape         Param #     Connected to                     
==================================================================================================
input_27 (InputLayer)           (None, 4)            0                                            
__________________________________________________________________________________________________
input_28 (InputLayer)           (None, 4)            0                                            
__________________________________________________________________________________________________
embedding_27 (Embedding)        (None, 4, 245)       3749235     input_27[0][0]                   
__________________________________________________________________________________________________
embedding_28 (Embedding)        (None, 4, 15)        2535        input_28[0][0]                   
__________________________________________________________________________________________________
flatten_27 (Flatten)            (None, 980)          0           embedding_27[0][0]               
__________________________________________________________________________________________________
flatten_28 (Flatten)            (None, 60)           0           embedding_28[0][0]               
__________________________________________________________________________________________________
concatenate_14 (Concatenate)    (None, 1040)         0           flatten_27[0][0]                 
                                                                 flatten_28[0][0]                 
__________________________________________________________________________________________________
dense_40 (Dense)                (None, 11)           11451       concatenate_14[0][0]             
__________________________________________________________________________________________________
dropout_27 (Dropout)            (None, 11)           0           dense_40[0][0]                   
__________________________________________________________________________________________________
dense_41 (Dense)                (None, 117)          1404        dropout_27[0][0]                 
__________________________________________________________________________________________________
dropout_28 (Dropout)            (None, 117)          0           dense_41[0][0]                   
__________________________________________________________________________________________________
dense_42 (Dense)                (None, 8)            944         dropout_28[0][0]                 
==================================================================================================
Total params: 3,765,569
Trainable params: 3,765,569
Non-trainable params: 0
__________________________________________________________________________________________________
None

__________________________________________________________________________________________________
…
	One occurrence keys in vocabulary 1660 / 15244
	Attention: important lemmas are not in vocbulary	Embedding
==================================================================================================
	Initialisation = None
	Concatenation = False
	Lemma : 245
	POS = 15 
Deep model(Non compositional)
__________________________________________________________________________________________________
Layer (type)                    Output Shape         Param #     Connected to                     
==================================================================================================
input_29 (InputLayer)           (None, 4)            0                                            
__________________________________________________________________________________________________
input_30 (InputLayer)           (None, 4)            0                                            
__________________________________________________________________________________________________
embedding_29 (Embedding)        (None, 4, 245)       3734780     input_29[0][0]                   
__________________________________________________________________________________________________
embedding_30 (Embedding)        (None, 4, 15)        2535        input_30[0][0]                   
__________________________________________________________________________________________________
flatten_29 (Flatten)            (None, 980)          0           embedding_29[0][0]               
__________________________________________________________________________________________________
flatten_30 (Flatten)            (None, 60)           0           embedding_30[0][0]               
__________________________________________________________________________________________________
concatenate_15 (Concatenate)    (None, 1040)         0           flatten_29[0][0]                 
                                                                 flatten_30[0][0]                 
__________________________________________________________________________________________________
dense_43 (Dense)                (None, 11)           11451       concatenate_15[0][0]             
__________________________________________________________________________________________________
dropout_29 (Dropout)            (None, 11)           0           dense_43[0][0]                   
__________________________________________________________________________________________________
dense_44 (Dense)                (None, 117)          1404        dropout_29[0][0]                 
__________________________________________________________________________________________________
dropout_30 (Dropout)            (None, 117)          0           dense_44[0][0]                   
__________________________________________________________________________________________________
dense_45 (Dense)                (None, 8)            944         dropout_30[0][0]                 
==================================================================================================
Total params: 3,751,114
Trainable params: 3,751,114
Non-trainable params: 0
__________________________________________________________________________________________________
None

__________________________________________________________________________________________________
…
	Dashed keys in vocabulary 1979
	One occurrence keys in vocabulary 1979 / 12529
	Embedding
==================================================================================================
	Initialisation = None
	Concatenation = False
	Lemma : 245
	POS = 15 
Deep model(Non compositional)
__________________________________________________________________________________________________
Layer (type)                    Output Shape         Param #     Connected to                     
==================================================================================================
input_31 (InputLayer)           (None, 4)            0                                            
__________________________________________________________________________________________________
input_32 (InputLayer)           (None, 4)            0                                            
__________________________________________________________________________________________________
embedding_31 (Embedding)        (None, 4, 245)       3069605     input_31[0][0]                   
__________________________________________________________________________________________________
embedding_32 (Embedding)        (None, 4, 15)        1650        input_32[0][0]                   
__________________________________________________________________________________________________
flatten_31 (Flatten)            (None, 980)          0           embedding_31[0][0]               
__________________________________________________________________________________________________
flatten_32 (Flatten)            (None, 60)           0           embedding_32[0][0]               
__________________________________________________________________________________________________
concatenate_16 (Concatenate)    (None, 1040)         0           flatten_31[0][0]                 
                                                                 flatten_32[0][0]                 
__________________________________________________________________________________________________
dense_46 (Dense)                (None, 11)           11451       concatenate_16[0][0]             
__________________________________________________________________________________________________
dropout_31 (Dropout)            (None, 11)           0           dense_46[0][0]                   
__________________________________________________________________________________________________
dense_47 (Dense)                (None, 117)          1404        dropout_31[0][0]                 
__________________________________________________________________________________________________
dropout_32 (Dropout)            (None, 117)          0           dense_47[0][0]                   
__________________________________________________________________________________________________
dense_48 (Dense)                (None, 8)            944         dropout_32[0][0]                 
==================================================================================================
Total params: 3,085,054
Trainable params: 3,085,054
Non-trainable params: 0
__________________________________________________________________________________________________
None

__________________________________________________________________________________________________
…
	Dashed keys in vocabulary 1979
	One occurrence keys in vocabulary 1979 / 12525
	Embedding
==================================================================================================
	Initialisation = None
	Concatenation = False
	Lemma : 245
	POS = 15 
Deep model(Non compositional)
__________________________________________________________________________________________________
Layer (type)                    Output Shape         Param #     Connected to                     
==================================================================================================
input_33 (InputLayer)           (None, 4)            0                                            
__________________________________________________________________________________________________
input_34 (InputLayer)           (None, 4)            0                                            
__________________________________________________________________________________________________
embedding_33 (Embedding)        (None, 4, 245)       3068625     input_33[0][0]                   
__________________________________________________________________________________________________
embedding_34 (Embedding)        (None, 4, 15)        1650        input_34[0][0]                   
__________________________________________________________________________________________________
flatten_33 (Flatten)            (None, 980)          0           embedding_33[0][0]               
__________________________________________________________________________________________________
flatten_34 (Flatten)            (None, 60)           0           embedding_34[0][0]               
__________________________________________________________________________________________________
concatenate_17 (Concatenate)    (None, 1040)         0           flatten_33[0][0]                 
                                                                 flatten_34[0][0]                 
__________________________________________________________________________________________________
dense_49 (Dense)                (None, 11)           11451       concatenate_17[0][0]             
__________________________________________________________________________________________________
dropout_33 (Dropout)            (None, 11)           0           dense_49[0][0]                   
__________________________________________________________________________________________________
dense_50 (Dense)                (None, 117)          1404        dropout_33[0][0]                 
__________________________________________________________________________________________________
dropout_34 (Dropout)            (None, 117)          0           dense_50[0][0]                   
__________________________________________________________________________________________________
dense_51 (Dense)                (None, 8)            944         dropout_34[0][0]                 
==================================================================================================
Total params: 3,084,074
Trainable params: 3,084,074
Non-trainable params: 0
__________________________________________________________________________________________________
None

__________________________________________________________________________________________________
…
	Dashed keys in vocabulary 1979
	One occurrence keys in vocabulary 1979 / 12587
	Embedding
==================================================================================================
	Initialisation = None
	Concatenation = False
	Lemma : 245
	POS = 15 
Deep model(Non compositional)
__________________________________________________________________________________________________
Layer (type)                    Output Shape         Param #     Connected to                     
==================================================================================================
input_35 (InputLayer)           (None, 4)            0                                            
__________________________________________________________________________________________________
input_36 (InputLayer)           (None, 4)            0                                            
__________________________________________________________________________________________________
embedding_35 (Embedding)        (None, 4, 245)       3083815     input_35[0][0]                   
__________________________________________________________________________________________________
embedding_36 (Embedding)        (None, 4, 15)        1650        input_36[0][0]                   
__________________________________________________________________________________________________
flatten_35 (Flatten)            (None, 980)          0           embedding_35[0][0]               
__________________________________________________________________________________________________
flatten_36 (Flatten)            (None, 60)           0           embedding_36[0][0]               
__________________________________________________________________________________________________
concatenate_18 (Concatenate)    (None, 1040)         0           flatten_35[0][0]                 
                                                                 flatten_36[0][0]                 
__________________________________________________________________________________________________
dense_52 (Dense)                (None, 11)           11451       concatenate_18[0][0]             
__________________________________________________________________________________________________
dropout_35 (Dropout)            (None, 11)           0           dense_52[0][0]                   
__________________________________________________________________________________________________
dense_53 (Dense)                (None, 117)          1404        dropout_35[0][0]                 
__________________________________________________________________________________________________
dropout_36 (Dropout)            (None, 117)          0           dense_53[0][0]                   
__________________________________________________________________________________________________
dense_54 (Dense)                (None, 8)            944         dropout_36[0][0]                 
==================================================================================================
Total params: 3,099,264
Trainable params: 3,099,264
Non-trainable params: 0
__________________________________________________________________________________________________
None

__________________________________________________________________________________________________
…
	Dashed keys in vocabulary 1622
	One occurrence keys in vocabulary 1622 / 12174
	Embedding
==================================================================================================
	Initialisation = None
	Concatenation = False
	Lemma : 387
	POS = 22 
Deep model(Non compositional)
__________________________________________________________________________________________________
Layer (type)                    Output Shape         Param #     Connected to                     
==================================================================================================
input_37 (InputLayer)           (None, 4)            0                                            
__________________________________________________________________________________________________
input_38 (InputLayer)           (None, 4)            0                                            
__________________________________________________________________________________________________
embedding_37 (Embedding)        (None, 4, 387)       4711338     input_37[0][0]                   
__________________________________________________________________________________________________
embedding_38 (Embedding)        (None, 4, 22)        3344        input_38[0][0]                   
__________________________________________________________________________________________________
flatten_37 (Flatten)            (None, 1548)         0           embedding_37[0][0]               
__________________________________________________________________________________________________
flatten_38 (Flatten)            (None, 88)           0           embedding_38[0][0]               
__________________________________________________________________________________________________
concatenate_19 (Concatenate)    (None, 1636)         0           flatten_37[0][0]                 
                                                                 flatten_38[0][0]                 
__________________________________________________________________________________________________
dense_55 (Dense)                (None, 233)          381421      concatenate_19[0][0]             
__________________________________________________________________________________________________
dropout_37 (Dropout)            (None, 233)          0           dense_55[0][0]                   
__________________________________________________________________________________________________
dense_56 (Dense)                (None, 42)           9828        dropout_37[0][0]                 
__________________________________________________________________________________________________
dropout_38 (Dropout)            (None, 42)           0           dense_56[0][0]                   
__________________________________________________________________________________________________
dense_57 (Dense)                (None, 8)            344         dropout_38[0][0]                 
==================================================================================================
Total params: 5,106,275
Trainable params: 5,106,275
Non-trainable params: 0
__________________________________________________________________________________________________
None

__________________________________________________________________________________________________
…
	Dashed keys in vocabulary 1622
	One occurrence keys in vocabulary 1622 / 12142
	Embedding
==================================================================================================
	Initialisation = None
	Concatenation = False
	Lemma : 387
	POS = 22 
Deep model(Non compositional)
__________________________________________________________________________________________________
Layer (type)                    Output Shape         Param #     Connected to                     
==================================================================================================
input_39 (InputLayer)           (None, 4)            0                                            
__________________________________________________________________________________________________
input_40 (InputLayer)           (None, 4)            0                                            
__________________________________________________________________________________________________
embedding_39 (Embedding)        (None, 4, 387)       4698954     input_39[0][0]                   
__________________________________________________________________________________________________
embedding_40 (Embedding)        (None, 4, 22)        3344        input_40[0][0]                   
__________________________________________________________________________________________________
flatten_39 (Flatten)            (None, 1548)         0           embedding_39[0][0]               
__________________________________________________________________________________________________
flatten_40 (Flatten)            (None, 88)           0           embedding_40[0][0]               
__________________________________________________________________________________________________
concatenate_20 (Concatenate)    (None, 1636)         0           flatten_39[0][0]                 
                                                                 flatten_40[0][0]                 
__________________________________________________________________________________________________
dense_58 (Dense)                (None, 233)          381421      concatenate_20[0][0]             
__________________________________________________________________________________________________
dropout_39 (Dropout)            (None, 233)          0           dense_58[0][0]                   
__________________________________________________________________________________________________
dense_59 (Dense)                (None, 42)           9828        dropout_39[0][0]                 
__________________________________________________________________________________________________
dropout_40 (Dropout)            (None, 42)           0           dense_59[0][0]                   
__________________________________________________________________________________________________
dense_60 (Dense)                (None, 8)            344         dropout_40[0][0]                 
==================================================================================================
Total params: 5,093,891
Trainable params: 5,093,891
Non-trainable params: 0
__________________________________________________________________________________________________
None

__________________________________________________________________________________________________
…
	Dashed keys in vocabulary 1622
	One occurrence keys in vocabulary 1622 / 12159
	Embedding
==================================================================================================
	Initialisation = None
	Concatenation = False
	Lemma : 387
	POS = 22 
Deep model(Non compositional)
__________________________________________________________________________________________________
Layer (type)                    Output Shape         Param #     Connected to                     
==================================================================================================
input_41 (InputLayer)           (None, 4)            0                                            
__________________________________________________________________________________________________
input_42 (InputLayer)           (None, 4)            0                                            
__________________________________________________________________________________________________
embedding_41 (Embedding)        (None, 4, 387)       4705533     input_41[0][0]                   
__________________________________________________________________________________________________
embedding_42 (Embedding)        (None, 4, 22)        3344        input_42[0][0]                   
__________________________________________________________________________________________________
flatten_41 (Flatten)            (None, 1548)         0           embedding_41[0][0]               
__________________________________________________________________________________________________
flatten_42 (Flatten)            (None, 88)           0           embedding_42[0][0]               
__________________________________________________________________________________________________
concatenate_21 (Concatenate)    (None, 1636)         0           flatten_41[0][0]                 
                                                                 flatten_42[0][0]                 
__________________________________________________________________________________________________
dense_61 (Dense)                (None, 233)          381421      concatenate_21[0][0]             
__________________________________________________________________________________________________
dropout_41 (Dropout)            (None, 233)          0           dense_61[0][0]                   
__________________________________________________________________________________________________
dense_62 (Dense)                (None, 42)           9828        dropout_41[0][0]                 
__________________________________________________________________________________________________
dropout_42 (Dropout)            (None, 42)           0           dense_62[0][0]                   
__________________________________________________________________________________________________
dense_63 (Dense)                (None, 8)            344         dropout_42[0][0]                 
==================================================================================================
Total params: 5,100,470
Trainable params: 5,100,470
Non-trainable params: 0
__________________________________________________________________________________________________
None

__________________________________________________________________________________________________
…
	One occurrence keys in vocabulary 1660 / 15321
	Attention: important lemmas are not in vocbulary	Embedding
==================================================================================================
	Initialisation = None
	Concatenation = False
	Lemma : 387
	POS = 22 
Deep model(Non compositional)
__________________________________________________________________________________________________
Layer (type)                    Output Shape         Param #     Connected to                     
==================================================================================================
input_43 (InputLayer)           (None, 4)            0                                            
__________________________________________________________________________________________________
input_44 (InputLayer)           (None, 4)            0                                            
__________________________________________________________________________________________________
embedding_43 (Embedding)        (None, 4, 387)       5929227     input_43[0][0]                   
__________________________________________________________________________________________________
embedding_44 (Embedding)        (None, 4, 22)        3718        input_44[0][0]                   
__________________________________________________________________________________________________
flatten_43 (Flatten)            (None, 1548)         0           embedding_43[0][0]               
__________________________________________________________________________________________________
flatten_44 (Flatten)            (None, 88)           0           embedding_44[0][0]               
__________________________________________________________________________________________________
concatenate_22 (Concatenate)    (None, 1636)         0           flatten_43[0][0]                 
                                                                 flatten_44[0][0]                 
__________________________________________________________________________________________________
dense_64 (Dense)                (None, 233)          381421      concatenate_22[0][0]             
__________________________________________________________________________________________________
dropout_43 (Dropout)            (None, 233)          0           dense_64[0][0]                   
__________________________________________________________________________________________________
dense_65 (Dense)                (None, 42)           9828        dropout_43[0][0]                 
__________________________________________________________________________________________________
dropout_44 (Dropout)            (None, 42)           0           dense_65[0][0]                   
__________________________________________________________________________________________________
dense_66 (Dense)                (None, 8)            344         dropout_44[0][0]                 
==================================================================================================
Total params: 6,324,538
Trainable params: 6,324,538
Non-trainable params: 0
__________________________________________________________________________________________________
None

__________________________________________________________________________________________________
…
	One occurrence keys in vocabulary 1660 / 15303
	Attention: important lemmas are not in vocbulary	Embedding
==================================================================================================
	Initialisation = None
	Concatenation = False
	Lemma : 387
	POS = 22 
Deep model(Non compositional)
__________________________________________________________________________________________________
Layer (type)                    Output Shape         Param #     Connected to                     
==================================================================================================
input_45 (InputLayer)           (None, 4)            0                                            
__________________________________________________________________________________________________
input_46 (InputLayer)           (None, 4)            0                                            
__________________________________________________________________________________________________
embedding_45 (Embedding)        (None, 4, 387)       5922261     input_45[0][0]                   
__________________________________________________________________________________________________
embedding_46 (Embedding)        (None, 4, 22)        3718        input_46[0][0]                   
__________________________________________________________________________________________________
flatten_45 (Flatten)            (None, 1548)         0           embedding_45[0][0]               
__________________________________________________________________________________________________
flatten_46 (Flatten)            (None, 88)           0           embedding_46[0][0]               
__________________________________________________________________________________________________
concatenate_23 (Concatenate)    (None, 1636)         0           flatten_45[0][0]                 
                                                                 flatten_46[0][0]                 
__________________________________________________________________________________________________
dense_67 (Dense)                (None, 233)          381421      concatenate_23[0][0]             
__________________________________________________________________________________________________
dropout_45 (Dropout)            (None, 233)          0           dense_67[0][0]                   
__________________________________________________________________________________________________
dense_68 (Dense)                (None, 42)           9828        dropout_45[0][0]                 
__________________________________________________________________________________________________
dropout_46 (Dropout)            (None, 42)           0           dense_68[0][0]                   
__________________________________________________________________________________________________
dense_69 (Dense)                (None, 8)            344         dropout_46[0][0]                 
==================================================================================================
Total params: 6,317,572
Trainable params: 6,317,572
Non-trainable params: 0
__________________________________________________________________________________________________
None

__________________________________________________________________________________________________
…
	One occurrence keys in vocabulary 1660 / 15244
	Attention: important lemmas are not in vocbulary	Embedding
==================================================================================================
	Initialisation = None
	Concatenation = False
	Lemma : 387
	POS = 22 
Deep model(Non compositional)
__________________________________________________________________________________________________
Layer (type)                    Output Shape         Param #     Connected to                     
==================================================================================================
input_47 (InputLayer)           (None, 4)            0                                            
__________________________________________________________________________________________________
input_48 (InputLayer)           (None, 4)            0                                            
__________________________________________________________________________________________________
embedding_47 (Embedding)        (None, 4, 387)       5899428     input_47[0][0]                   
__________________________________________________________________________________________________
embedding_48 (Embedding)        (None, 4, 22)        3718        input_48[0][0]                   
__________________________________________________________________________________________________
flatten_47 (Flatten)            (None, 1548)         0           embedding_47[0][0]               
__________________________________________________________________________________________________
flatten_48 (Flatten)            (None, 88)           0           embedding_48[0][0]               
__________________________________________________________________________________________________
concatenate_24 (Concatenate)    (None, 1636)         0           flatten_47[0][0]                 
                                                                 flatten_48[0][0]                 
__________________________________________________________________________________________________
dense_70 (Dense)                (None, 233)          381421      concatenate_24[0][0]             
__________________________________________________________________________________________________
dropout_47 (Dropout)            (None, 233)          0           dense_70[0][0]                   
__________________________________________________________________________________________________
dense_71 (Dense)                (None, 42)           9828        dropout_47[0][0]                 
__________________________________________________________________________________________________
dropout_48 (Dropout)            (None, 42)           0           dense_71[0][0]                   
__________________________________________________________________________________________________
dense_72 (Dense)                (None, 8)            344         dropout_48[0][0]                 
==================================================================================================
Total params: 6,294,739
Trainable params: 6,294,739
Non-trainable params: 0
__________________________________________________________________________________________________
None

__________________________________________________________________________________________________
…
	Dashed keys in vocabulary 1979
	One occurrence keys in vocabulary 1979 / 12529
	Embedding
==================================================================================================
	Initialisation = None
	Concatenation = False
	Lemma : 387
	POS = 22 
Deep model(Non compositional)
__________________________________________________________________________________________________
Layer (type)                    Output Shape         Param #     Connected to                     
==================================================================================================
input_49 (InputLayer)           (None, 4)            0                                            
__________________________________________________________________________________________________
input_50 (InputLayer)           (None, 4)            0                                            
__________________________________________________________________________________________________
embedding_49 (Embedding)        (None, 4, 387)       4848723     input_49[0][0]                   
__________________________________________________________________________________________________
embedding_50 (Embedding)        (None, 4, 22)        2420        input_50[0][0]                   
__________________________________________________________________________________________________
flatten_49 (Flatten)            (None, 1548)         0           embedding_49[0][0]               
__________________________________________________________________________________________________
flatten_50 (Flatten)            (None, 88)           0           embedding_50[0][0]               
__________________________________________________________________________________________________
concatenate_25 (Concatenate)    (None, 1636)         0           flatten_49[0][0]                 
                                                                 flatten_50[0][0]                 
__________________________________________________________________________________________________
dense_73 (Dense)                (None, 233)          381421      concatenate_25[0][0]             
__________________________________________________________________________________________________
dropout_49 (Dropout)            (None, 233)          0           dense_73[0][0]                   
__________________________________________________________________________________________________
dense_74 (Dense)                (None, 42)           9828        dropout_49[0][0]                 
__________________________________________________________________________________________________
dropout_50 (Dropout)            (None, 42)           0           dense_74[0][0]                   
__________________________________________________________________________________________________
dense_75 (Dense)                (None, 8)            344         dropout_50[0][0]                 
==================================================================================================
Total params: 5,242,736
Trainable params: 5,242,736
Non-trainable params: 0
__________________________________________________________________________________________________
None

__________________________________________________________________________________________________
…
	Dashed keys in vocabulary 1979
	One occurrence keys in vocabulary 1979 / 12525
	Embedding
==================================================================================================
	Initialisation = None
	Concatenation = False
	Lemma : 387
	POS = 22 
Deep model(Non compositional)
__________________________________________________________________________________________________
Layer (type)                    Output Shape         Param #     Connected to                     
==================================================================================================
input_51 (InputLayer)           (None, 4)            0                                            
__________________________________________________________________________________________________
input_52 (InputLayer)           (None, 4)            0                                            
__________________________________________________________________________________________________
embedding_51 (Embedding)        (None, 4, 387)       4847175     input_51[0][0]                   
__________________________________________________________________________________________________
embedding_52 (Embedding)        (None, 4, 22)        2420        input_52[0][0]                   
__________________________________________________________________________________________________
flatten_51 (Flatten)            (None, 1548)         0           embedding_51[0][0]               
__________________________________________________________________________________________________
flatten_52 (Flatten)            (None, 88)           0           embedding_52[0][0]               
__________________________________________________________________________________________________
concatenate_26 (Concatenate)    (None, 1636)         0           flatten_51[0][0]                 
                                                                 flatten_52[0][0]                 
__________________________________________________________________________________________________
dense_76 (Dense)                (None, 233)          381421      concatenate_26[0][0]             
__________________________________________________________________________________________________
dropout_51 (Dropout)            (None, 233)          0           dense_76[0][0]                   
__________________________________________________________________________________________________
dense_77 (Dense)                (None, 42)           9828        dropout_51[0][0]                 
__________________________________________________________________________________________________
dropout_52 (Dropout)            (None, 42)           0           dense_77[0][0]                   
__________________________________________________________________________________________________
dense_78 (Dense)                (None, 8)            344         dropout_52[0][0]                 
==================================================================================================
Total params: 5,241,188
Trainable params: 5,241,188
Non-trainable params: 0
__________________________________________________________________________________________________
None

__________________________________________________________________________________________________
…
	Dashed keys in vocabulary 1979
	One occurrence keys in vocabulary 1979 / 12587
	Embedding
==================================================================================================
	Initialisation = None
	Concatenation = False
	Lemma : 387
	POS = 22 
Deep model(Non compositional)
__________________________________________________________________________________________________
Layer (type)                    Output Shape         Param #     Connected to                     
==================================================================================================
input_53 (InputLayer)           (None, 4)            0                                            
__________________________________________________________________________________________________
input_54 (InputLayer)           (None, 4)            0                                            
__________________________________________________________________________________________________
embedding_53 (Embedding)        (None, 4, 387)       4871169     input_53[0][0]                   
__________________________________________________________________________________________________
embedding_54 (Embedding)        (None, 4, 22)        2420        input_54[0][0]                   
__________________________________________________________________________________________________
flatten_53 (Flatten)            (None, 1548)         0           embedding_53[0][0]               
__________________________________________________________________________________________________
flatten_54 (Flatten)            (None, 88)           0           embedding_54[0][0]               
__________________________________________________________________________________________________
concatenate_27 (Concatenate)    (None, 1636)         0           flatten_53[0][0]                 
                                                                 flatten_54[0][0]                 
__________________________________________________________________________________________________
dense_79 (Dense)                (None, 233)          381421      concatenate_27[0][0]             
__________________________________________________________________________________________________
dropout_53 (Dropout)            (None, 233)          0           dense_79[0][0]                   
__________________________________________________________________________________________________
dense_80 (Dense)                (None, 42)           9828        dropout_53[0][0]                 
__________________________________________________________________________________________________
dropout_54 (Dropout)            (None, 42)           0           dense_80[0][0]                   
__________________________________________________________________________________________________
dense_81 (Dense)                (None, 8)            344         dropout_54[0][0]                 
==================================================================================================
Total params: 5,265,182
Trainable params: 5,265,182
Non-trainable params: 0
__________________________________________________________________________________________________
None

__________________________________________________________________________________________________
…
	Dashed keys in vocabulary 1622
	One occurrence keys in vocabulary 1622 / 12174
	Embedding
==================================================================================================
	Initialisation = None
	Concatenation = False
	Lemma : 198
	POS = 12 
Deep model(Non compositional)
__________________________________________________________________________________________________
Layer (type)                    Output Shape         Param #     Connected to                     
==================================================================================================
input_55 (InputLayer)           (None, 4)            0                                            
__________________________________________________________________________________________________
input_56 (InputLayer)           (None, 4)            0                                            
__________________________________________________________________________________________________
embedding_55 (Embedding)        (None, 4, 198)       2410452     input_55[0][0]                   
__________________________________________________________________________________________________
embedding_56 (Embedding)        (None, 4, 12)        1824        input_56[0][0]                   
__________________________________________________________________________________________________
flatten_55 (Flatten)            (None, 792)          0           embedding_55[0][0]               
__________________________________________________________________________________________________
flatten_56 (Flatten)            (None, 48)           0           embedding_56[0][0]               
__________________________________________________________________________________________________
concatenate_28 (Concatenate)    (None, 840)          0           flatten_55[0][0]                 
                                                                 flatten_56[0][0]                 
__________________________________________________________________________________________________
dense_82 (Dense)                (None, 35)           29435       concatenate_28[0][0]             
__________________________________________________________________________________________________
dropout_55 (Dropout)            (None, 35)           0           dense_82[0][0]                   
__________________________________________________________________________________________________
dense_83 (Dense)                (None, 14)           504         dropout_55[0][0]                 
__________________________________________________________________________________________________
dropout_56 (Dropout)            (None, 14)           0           dense_83[0][0]                   
__________________________________________________________________________________________________
dense_84 (Dense)                (None, 8)            120         dropout_56[0][0]                 
==================================================================================================
Total params: 2,442,335
Trainable params: 2,442,335
Non-trainable params: 0
__________________________________________________________________________________________________
None

__________________________________________________________________________________________________
…
	Dashed keys in vocabulary 1622
	One occurrence keys in vocabulary 1622 / 12142
	Embedding
==================================================================================================
	Initialisation = None
	Concatenation = False
	Lemma : 198
	POS = 12 
Deep model(Non compositional)
__________________________________________________________________________________________________
Layer (type)                    Output Shape         Param #     Connected to                     
==================================================================================================
input_57 (InputLayer)           (None, 4)            0                                            
__________________________________________________________________________________________________
input_58 (InputLayer)           (None, 4)            0                                            
__________________________________________________________________________________________________
embedding_57 (Embedding)        (None, 4, 198)       2404116     input_57[0][0]                   
__________________________________________________________________________________________________
embedding_58 (Embedding)        (None, 4, 12)        1824        input_58[0][0]                   
__________________________________________________________________________________________________
flatten_57 (Flatten)            (None, 792)          0           embedding_57[0][0]               
__________________________________________________________________________________________________
flatten_58 (Flatten)            (None, 48)           0           embedding_58[0][0]               
__________________________________________________________________________________________________
concatenate_29 (Concatenate)    (None, 840)          0           flatten_57[0][0]                 
                                                                 flatten_58[0][0]                 
__________________________________________________________________________________________________
dense_85 (Dense)                (None, 35)           29435       concatenate_29[0][0]             
__________________________________________________________________________________________________
dropout_57 (Dropout)            (None, 35)           0           dense_85[0][0]                   
__________________________________________________________________________________________________
dense_86 (Dense)                (None, 14)           504         dropout_57[0][0]                 
__________________________________________________________________________________________________
dropout_58 (Dropout)            (None, 14)           0           dense_86[0][0]                   
__________________________________________________________________________________________________
dense_87 (Dense)                (None, 8)            120         dropout_58[0][0]                 
==================================================================================================
Total params: 2,435,999
Trainable params: 2,435,999
Non-trainable params: 0
__________________________________________________________________________________________________
None

__________________________________________________________________________________________________
…
	Dashed keys in vocabulary 1622
	One occurrence keys in vocabulary 1622 / 12159
	Embedding
==================================================================================================
	Initialisation = None
	Concatenation = False
	Lemma : 198
	POS = 12 
Deep model(Non compositional)
__________________________________________________________________________________________________
Layer (type)                    Output Shape         Param #     Connected to                     
==================================================================================================
input_59 (InputLayer)           (None, 4)            0                                            
__________________________________________________________________________________________________
input_60 (InputLayer)           (None, 4)            0                                            
__________________________________________________________________________________________________
embedding_59 (Embedding)        (None, 4, 198)       2407482     input_59[0][0]                   
__________________________________________________________________________________________________
embedding_60 (Embedding)        (None, 4, 12)        1824        input_60[0][0]                   
__________________________________________________________________________________________________
flatten_59 (Flatten)            (None, 792)          0           embedding_59[0][0]               
__________________________________________________________________________________________________
flatten_60 (Flatten)            (None, 48)           0           embedding_60[0][0]               
__________________________________________________________________________________________________
concatenate_30 (Concatenate)    (None, 840)          0           flatten_59[0][0]                 
                                                                 flatten_60[0][0]                 
__________________________________________________________________________________________________
dense_88 (Dense)                (None, 35)           29435       concatenate_30[0][0]             
__________________________________________________________________________________________________
dropout_59 (Dropout)            (None, 35)           0           dense_88[0][0]                   
__________________________________________________________________________________________________
dense_89 (Dense)                (None, 14)           504         dropout_59[0][0]                 
__________________________________________________________________________________________________
dropout_60 (Dropout)            (None, 14)           0           dense_89[0][0]                   
__________________________________________________________________________________________________
dense_90 (Dense)                (None, 8)            120         dropout_60[0][0]                 
==================================================================================================
Total params: 2,439,365
Trainable params: 2,439,365
Non-trainable params: 0
__________________________________________________________________________________________________
None

__________________________________________________________________________________________________
…
	One occurrence keys in vocabulary 1660 / 15321
	Attention: important lemmas are not in vocbulary	Embedding
==================================================================================================
	Initialisation = None
	Concatenation = False
	Lemma : 198
	POS = 12 
Deep model(Non compositional)
__________________________________________________________________________________________________
Layer (type)                    Output Shape         Param #     Connected to                     
==================================================================================================
input_61 (InputLayer)           (None, 4)            0                                            
__________________________________________________________________________________________________
input_62 (InputLayer)           (None, 4)            0                                            
__________________________________________________________________________________________________
embedding_61 (Embedding)        (None, 4, 198)       3033558     input_61[0][0]                   
__________________________________________________________________________________________________
embedding_62 (Embedding)        (None, 4, 12)        2028        input_62[0][0]                   
__________________________________________________________________________________________________
flatten_61 (Flatten)            (None, 792)          0           embedding_61[0][0]               
__________________________________________________________________________________________________
flatten_62 (Flatten)            (None, 48)           0           embedding_62[0][0]               
__________________________________________________________________________________________________
concatenate_31 (Concatenate)    (None, 840)          0           flatten_61[0][0]                 
                                                                 flatten_62[0][0]                 
__________________________________________________________________________________________________
dense_91 (Dense)                (None, 35)           29435       concatenate_31[0][0]             
__________________________________________________________________________________________________
dropout_61 (Dropout)            (None, 35)           0           dense_91[0][0]                   
__________________________________________________________________________________________________
dense_92 (Dense)                (None, 14)           504         dropout_61[0][0]                 
__________________________________________________________________________________________________
dropout_62 (Dropout)            (None, 14)           0           dense_92[0][0]                   
__________________________________________________________________________________________________
dense_93 (Dense)                (None, 8)            120         dropout_62[0][0]                 
==================================================================================================
Total params: 3,065,645
Trainable params: 3,065,645
Non-trainable params: 0
__________________________________________________________________________________________________
None

__________________________________________________________________________________________________
…
	One occurrence keys in vocabulary 1660 / 15303
	Attention: important lemmas are not in vocbulary	Embedding
==================================================================================================
	Initialisation = None
	Concatenation = False
	Lemma : 198
	POS = 12 
Deep model(Non compositional)
__________________________________________________________________________________________________
Layer (type)                    Output Shape         Param #     Connected to                     
==================================================================================================
input_63 (InputLayer)           (None, 4)            0                                            
__________________________________________________________________________________________________
input_64 (InputLayer)           (None, 4)            0                                            
__________________________________________________________________________________________________
embedding_63 (Embedding)        (None, 4, 198)       3029994     input_63[0][0]                   
__________________________________________________________________________________________________
embedding_64 (Embedding)        (None, 4, 12)        2028        input_64[0][0]                   
__________________________________________________________________________________________________
flatten_63 (Flatten)            (None, 792)          0           embedding_63[0][0]               
__________________________________________________________________________________________________
flatten_64 (Flatten)            (None, 48)           0           embedding_64[0][0]               
__________________________________________________________________________________________________
concatenate_32 (Concatenate)    (None, 840)          0           flatten_63[0][0]                 
                                                                 flatten_64[0][0]                 
__________________________________________________________________________________________________
dense_94 (Dense)                (None, 35)           29435       concatenate_32[0][0]             
__________________________________________________________________________________________________
dropout_63 (Dropout)            (None, 35)           0           dense_94[0][0]                   
__________________________________________________________________________________________________
dense_95 (Dense)                (None, 14)           504         dropout_63[0][0]                 
__________________________________________________________________________________________________
dropout_64 (Dropout)            (None, 14)           0           dense_95[0][0]                   
__________________________________________________________________________________________________
dense_96 (Dense)                (None, 8)            120         dropout_64[0][0]                 
==================================================================================================
Total params: 3,062,081
Trainable params: 3,062,081
Non-trainable params: 0
__________________________________________________________________________________________________
None

__________________________________________________________________________________________________
…
	One occurrence keys in vocabulary 1660 / 15244
	Attention: important lemmas are not in vocbulary	Embedding
==================================================================================================
	Initialisation = None
	Concatenation = False
	Lemma : 198
	POS = 12 
Deep model(Non compositional)
__________________________________________________________________________________________________
Layer (type)                    Output Shape         Param #     Connected to                     
==================================================================================================
input_65 (InputLayer)           (None, 4)            0                                            
__________________________________________________________________________________________________
input_66 (InputLayer)           (None, 4)            0                                            
__________________________________________________________________________________________________
embedding_65 (Embedding)        (None, 4, 198)       3018312     input_65[0][0]                   
__________________________________________________________________________________________________
embedding_66 (Embedding)        (None, 4, 12)        2028        input_66[0][0]                   
__________________________________________________________________________________________________
flatten_65 (Flatten)            (None, 792)          0           embedding_65[0][0]               
__________________________________________________________________________________________________
flatten_66 (Flatten)            (None, 48)           0           embedding_66[0][0]               
__________________________________________________________________________________________________
concatenate_33 (Concatenate)    (None, 840)          0           flatten_65[0][0]                 
                                                                 flatten_66[0][0]                 
__________________________________________________________________________________________________
dense_97 (Dense)                (None, 35)           29435       concatenate_33[0][0]             
__________________________________________________________________________________________________
dropout_65 (Dropout)            (None, 35)           0           dense_97[0][0]                   
__________________________________________________________________________________________________
dense_98 (Dense)                (None, 14)           504         dropout_65[0][0]                 
__________________________________________________________________________________________________
dropout_66 (Dropout)            (None, 14)           0           dense_98[0][0]                   
__________________________________________________________________________________________________
dense_99 (Dense)                (None, 8)            120         dropout_66[0][0]                 
==================================================================================================
Total params: 3,050,399
Trainable params: 3,050,399
Non-trainable params: 0
__________________________________________________________________________________________________
None

__________________________________________________________________________________________________
…
	Dashed keys in vocabulary 1979
	One occurrence keys in vocabulary 1979 / 12529
	Embedding
==================================================================================================
	Initialisation = None
	Concatenation = False
	Lemma : 198
	POS = 12 
Deep model(Non compositional)
__________________________________________________________________________________________________
Layer (type)                    Output Shape         Param #     Connected to                     
==================================================================================================
input_67 (InputLayer)           (None, 4)            0                                            
__________________________________________________________________________________________________
input_68 (InputLayer)           (None, 4)            0                                            
__________________________________________________________________________________________________
embedding_67 (Embedding)        (None, 4, 198)       2480742     input_67[0][0]                   
__________________________________________________________________________________________________
embedding_68 (Embedding)        (None, 4, 12)        1320        input_68[0][0]                   
__________________________________________________________________________________________________
flatten_67 (Flatten)            (None, 792)          0           embedding_67[0][0]               
__________________________________________________________________________________________________
flatten_68 (Flatten)            (None, 48)           0           embedding_68[0][0]               
__________________________________________________________________________________________________
concatenate_34 (Concatenate)    (None, 840)          0           flatten_67[0][0]                 
                                                                 flatten_68[0][0]                 
__________________________________________________________________________________________________
dense_100 (Dense)               (None, 35)           29435       concatenate_34[0][0]             
__________________________________________________________________________________________________
dropout_67 (Dropout)            (None, 35)           0           dense_100[0][0]                  
__________________________________________________________________________________________________
dense_101 (Dense)               (None, 14)           504         dropout_67[0][0]                 
__________________________________________________________________________________________________
dropout_68 (Dropout)            (None, 14)           0           dense_101[0][0]                  
__________________________________________________________________________________________________
dense_102 (Dense)               (None, 8)            120         dropout_68[0][0]                 
==================================================================================================
Total params: 2,512,121
Trainable params: 2,512,121
Non-trainable params: 0
__________________________________________________________________________________________________
None

__________________________________________________________________________________________________
…
	Dashed keys in vocabulary 1979
	One occurrence keys in vocabulary 1979 / 12525
	Embedding
==================================================================================================
	Initialisation = None
	Concatenation = False
	Lemma : 198
	POS = 12 
Deep model(Non compositional)
__________________________________________________________________________________________________
Layer (type)                    Output Shape         Param #     Connected to                     
==================================================================================================
input_69 (InputLayer)           (None, 4)            0                                            
__________________________________________________________________________________________________
input_70 (InputLayer)           (None, 4)            0                                            
__________________________________________________________________________________________________
embedding_69 (Embedding)        (None, 4, 198)       2479950     input_69[0][0]                   
__________________________________________________________________________________________________
embedding_70 (Embedding)        (None, 4, 12)        1320        input_70[0][0]                   
__________________________________________________________________________________________________
flatten_69 (Flatten)            (None, 792)          0           embedding_69[0][0]               
__________________________________________________________________________________________________
flatten_70 (Flatten)            (None, 48)           0           embedding_70[0][0]               
__________________________________________________________________________________________________
concatenate_35 (Concatenate)    (None, 840)          0           flatten_69[0][0]                 
                                                                 flatten_70[0][0]                 
__________________________________________________________________________________________________
dense_103 (Dense)               (None, 35)           29435       concatenate_35[0][0]             
__________________________________________________________________________________________________
dropout_69 (Dropout)            (None, 35)           0           dense_103[0][0]                  
__________________________________________________________________________________________________
dense_104 (Dense)               (None, 14)           504         dropout_69[0][0]                 
__________________________________________________________________________________________________
dropout_70 (Dropout)            (None, 14)           0           dense_104[0][0]                  
__________________________________________________________________________________________________
dense_105 (Dense)               (None, 8)            120         dropout_70[0][0]                 
==================================================================================================
Total params: 2,511,329
Trainable params: 2,511,329
Non-trainable params: 0
__________________________________________________________________________________________________
None

__________________________________________________________________________________________________
…
	Dashed keys in vocabulary 1979
	One occurrence keys in vocabulary 1979 / 12587
	Embedding
==================================================================================================
	Initialisation = None
	Concatenation = False
	Lemma : 198
	POS = 12 
Deep model(Non compositional)
__________________________________________________________________________________________________
Layer (type)                    Output Shape         Param #     Connected to                     
==================================================================================================
input_71 (InputLayer)           (None, 4)            0                                            
__________________________________________________________________________________________________
input_72 (InputLayer)           (None, 4)            0                                            
__________________________________________________________________________________________________
embedding_71 (Embedding)        (None, 4, 198)       2492226     input_71[0][0]                   
__________________________________________________________________________________________________
embedding_72 (Embedding)        (None, 4, 12)        1320        input_72[0][0]                   
__________________________________________________________________________________________________
flatten_71 (Flatten)            (None, 792)          0           embedding_71[0][0]               
__________________________________________________________________________________________________
flatten_72 (Flatten)            (None, 48)           0           embedding_72[0][0]               
__________________________________________________________________________________________________
concatenate_36 (Concatenate)    (None, 840)          0           flatten_71[0][0]                 
                                                                 flatten_72[0][0]                 
__________________________________________________________________________________________________
dense_106 (Dense)               (None, 35)           29435       concatenate_36[0][0]             
__________________________________________________________________________________________________
dropout_71 (Dropout)            (None, 35)           0           dense_106[0][0]                  
__________________________________________________________________________________________________
dense_107 (Dense)               (None, 14)           504         dropout_71[0][0]                 
__________________________________________________________________________________________________
dropout_72 (Dropout)            (None, 14)           0           dense_107[0][0]                  
__________________________________________________________________________________________________
dense_108 (Dense)               (None, 8)            120         dropout_72[0][0]                 
==================================================================================================
Total params: 2,523,605
Trainable params: 2,523,605
Non-trainable params: 0
__________________________________________________________________________________________________
None

__________________________________________________________________________________________________
…
	Dashed keys in vocabulary 1622
	One occurrence keys in vocabulary 1622 / 12174
	Embedding
==================================================================================================
	Initialisation = None
	Concatenation = False
	Lemma : 110
	POS = 16 
Deep model(Non compositional)
__________________________________________________________________________________________________
Layer (type)                    Output Shape         Param #     Connected to                     
==================================================================================================
input_73 (InputLayer)           (None, 4)            0                                            
__________________________________________________________________________________________________
input_74 (InputLayer)           (None, 4)            0                                            
__________________________________________________________________________________________________
embedding_73 (Embedding)        (None, 4, 110)       1339140     input_73[0][0]                   
__________________________________________________________________________________________________
embedding_74 (Embedding)        (None, 4, 16)        2432        input_74[0][0]                   
__________________________________________________________________________________________________
flatten_73 (Flatten)            (None, 440)          0           embedding_73[0][0]               
__________________________________________________________________________________________________
flatten_74 (Flatten)            (None, 64)           0           embedding_74[0][0]               
__________________________________________________________________________________________________
concatenate_37 (Concatenate)    (None, 504)          0           flatten_73[0][0]                 
                                                                 flatten_74[0][0]                 
__________________________________________________________________________________________________
dense_109 (Dense)               (None, 8)            4040        concatenate_37[0][0]             
__________________________________________________________________________________________________
dropout_73 (Dropout)            (None, 8)            0           dense_109[0][0]                  
__________________________________________________________________________________________________
dense_110 (Dense)               (None, 68)           612         dropout_73[0][0]                 
__________________________________________________________________________________________________
dropout_74 (Dropout)            (None, 68)           0           dense_110[0][0]                  
__________________________________________________________________________________________________
dense_111 (Dense)               (None, 8)            552         dropout_74[0][0]                 
==================================================================================================
Total params: 1,346,776
Trainable params: 1,346,776
Non-trainable params: 0
__________________________________________________________________________________________________
None

__________________________________________________________________________________________________
…
	Dashed keys in vocabulary 1622
	One occurrence keys in vocabulary 1622 / 12142
	Embedding
==================================================================================================
	Initialisation = None
	Concatenation = False
	Lemma : 110
	POS = 16 
Deep model(Non compositional)
__________________________________________________________________________________________________
Layer (type)                    Output Shape         Param #     Connected to                     
==================================================================================================
input_75 (InputLayer)           (None, 4)            0                                            
__________________________________________________________________________________________________
input_76 (InputLayer)           (None, 4)            0                                            
__________________________________________________________________________________________________
embedding_75 (Embedding)        (None, 4, 110)       1335620     input_75[0][0]                   
__________________________________________________________________________________________________
embedding_76 (Embedding)        (None, 4, 16)        2432        input_76[0][0]                   
__________________________________________________________________________________________________
flatten_75 (Flatten)            (None, 440)          0           embedding_75[0][0]               
__________________________________________________________________________________________________
flatten_76 (Flatten)            (None, 64)           0           embedding_76[0][0]               
__________________________________________________________________________________________________
concatenate_38 (Concatenate)    (None, 504)          0           flatten_75[0][0]                 
                                                                 flatten_76[0][0]                 
__________________________________________________________________________________________________
dense_112 (Dense)               (None, 8)            4040        concatenate_38[0][0]             
__________________________________________________________________________________________________
dropout_75 (Dropout)            (None, 8)            0           dense_112[0][0]                  
__________________________________________________________________________________________________
dense_113 (Dense)               (None, 68)           612         dropout_75[0][0]                 
__________________________________________________________________________________________________
dropout_76 (Dropout)            (None, 68)           0           dense_113[0][0]                  
__________________________________________________________________________________________________
dense_114 (Dense)               (None, 8)            552         dropout_76[0][0]                 
==================================================================================================
Total params: 1,343,256
Trainable params: 1,343,256
Non-trainable params: 0
__________________________________________________________________________________________________
None

__________________________________________________________________________________________________
…
	Dashed keys in vocabulary 1622
	One occurrence keys in vocabulary 1622 / 12159
	Embedding
==================================================================================================
	Initialisation = None
	Concatenation = False
	Lemma : 110
	POS = 16 
Deep model(Non compositional)
__________________________________________________________________________________________________
Layer (type)                    Output Shape         Param #     Connected to                     
==================================================================================================
input_77 (InputLayer)           (None, 4)            0                                            
__________________________________________________________________________________________________
input_78 (InputLayer)           (None, 4)            0                                            
__________________________________________________________________________________________________
embedding_77 (Embedding)        (None, 4, 110)       1337490     input_77[0][0]                   
__________________________________________________________________________________________________
embedding_78 (Embedding)        (None, 4, 16)        2432        input_78[0][0]                   
__________________________________________________________________________________________________
flatten_77 (Flatten)            (None, 440)          0           embedding_77[0][0]               
__________________________________________________________________________________________________
flatten_78 (Flatten)            (None, 64)           0           embedding_78[0][0]               
__________________________________________________________________________________________________
concatenate_39 (Concatenate)    (None, 504)          0           flatten_77[0][0]                 
                                                                 flatten_78[0][0]                 
__________________________________________________________________________________________________
dense_115 (Dense)               (None, 8)            4040        concatenate_39[0][0]             
__________________________________________________________________________________________________
dropout_77 (Dropout)            (None, 8)            0           dense_115[0][0]                  
__________________________________________________________________________________________________
dense_116 (Dense)               (None, 68)           612         dropout_77[0][0]                 
__________________________________________________________________________________________________
dropout_78 (Dropout)            (None, 68)           0           dense_116[0][0]                  
__________________________________________________________________________________________________
dense_117 (Dense)               (None, 8)            552         dropout_78[0][0]                 
==================================================================================================
Total params: 1,345,126
Trainable params: 1,345,126
Non-trainable params: 0
__________________________________________________________________________________________________
None

__________________________________________________________________________________________________
…
	One occurrence keys in vocabulary 1660 / 15321
	Attention: important lemmas are not in vocbulary	Embedding
==================================================================================================
	Initialisation = None
	Concatenation = False
	Lemma : 110
	POS = 16 
Deep model(Non compositional)
__________________________________________________________________________________________________
Layer (type)                    Output Shape         Param #     Connected to                     
==================================================================================================
input_79 (InputLayer)           (None, 4)            0                                            
__________________________________________________________________________________________________
input_80 (InputLayer)           (None, 4)            0                                            
__________________________________________________________________________________________________
embedding_79 (Embedding)        (None, 4, 110)       1685310     input_79[0][0]                   
__________________________________________________________________________________________________
embedding_80 (Embedding)        (None, 4, 16)        2704        input_80[0][0]                   
__________________________________________________________________________________________________
flatten_79 (Flatten)            (None, 440)          0           embedding_79[0][0]               
__________________________________________________________________________________________________
flatten_80 (Flatten)            (None, 64)           0           embedding_80[0][0]               
__________________________________________________________________________________________________
concatenate_40 (Concatenate)    (None, 504)          0           flatten_79[0][0]                 
                                                                 flatten_80[0][0]                 
__________________________________________________________________________________________________
dense_118 (Dense)               (None, 8)            4040        concatenate_40[0][0]             
__________________________________________________________________________________________________
dropout_79 (Dropout)            (None, 8)            0           dense_118[0][0]                  
__________________________________________________________________________________________________
dense_119 (Dense)               (None, 68)           612         dropout_79[0][0]                 
__________________________________________________________________________________________________
dropout_80 (Dropout)            (None, 68)           0           dense_119[0][0]                  
__________________________________________________________________________________________________
dense_120 (Dense)               (None, 8)            552         dropout_80[0][0]                 
==================================================================================================
Total params: 1,693,218
Trainable params: 1,693,218
Non-trainable params: 0
__________________________________________________________________________________________________
None

__________________________________________________________________________________________________
…
	One occurrence keys in vocabulary 1660 / 15303
	Attention: important lemmas are not in vocbulary	Embedding
==================================================================================================
	Initialisation = None
	Concatenation = False
	Lemma : 110
	POS = 16 
Deep model(Non compositional)
__________________________________________________________________________________________________
Layer (type)                    Output Shape         Param #     Connected to                     
==================================================================================================
input_81 (InputLayer)           (None, 4)            0                                            
__________________________________________________________________________________________________
input_82 (InputLayer)           (None, 4)            0                                            
__________________________________________________________________________________________________
embedding_81 (Embedding)        (None, 4, 110)       1683330     input_81[0][0]                   
__________________________________________________________________________________________________
embedding_82 (Embedding)        (None, 4, 16)        2704        input_82[0][0]                   
__________________________________________________________________________________________________
flatten_81 (Flatten)            (None, 440)          0           embedding_81[0][0]               
__________________________________________________________________________________________________
flatten_82 (Flatten)            (None, 64)           0           embedding_82[0][0]               
__________________________________________________________________________________________________
concatenate_41 (Concatenate)    (None, 504)          0           flatten_81[0][0]                 
                                                                 flatten_82[0][0]                 
__________________________________________________________________________________________________
dense_121 (Dense)               (None, 8)            4040        concatenate_41[0][0]             
__________________________________________________________________________________________________
dropout_81 (Dropout)            (None, 8)            0           dense_121[0][0]                  
__________________________________________________________________________________________________
dense_122 (Dense)               (None, 68)           612         dropout_81[0][0]                 
__________________________________________________________________________________________________
dropout_82 (Dropout)            (None, 68)           0           dense_122[0][0]                  
__________________________________________________________________________________________________
dense_123 (Dense)               (None, 8)            552         dropout_82[0][0]                 
==================================================================================================
Total params: 1,691,238
Trainable params: 1,691,238
Non-trainable params: 0
__________________________________________________________________________________________________
None

__________________________________________________________________________________________________
…
	One occurrence keys in vocabulary 1660 / 15244
	Attention: important lemmas are not in vocbulary	Embedding
==================================================================================================
	Initialisation = None
	Concatenation = False
	Lemma : 110
	POS = 16 
Deep model(Non compositional)
__________________________________________________________________________________________________
Layer (type)                    Output Shape         Param #     Connected to                     
==================================================================================================
input_83 (InputLayer)           (None, 4)            0                                            
__________________________________________________________________________________________________
input_84 (InputLayer)           (None, 4)            0                                            
__________________________________________________________________________________________________
embedding_83 (Embedding)        (None, 4, 110)       1676840     input_83[0][0]                   
__________________________________________________________________________________________________
embedding_84 (Embedding)        (None, 4, 16)        2704        input_84[0][0]                   
__________________________________________________________________________________________________
flatten_83 (Flatten)            (None, 440)          0           embedding_83[0][0]               
__________________________________________________________________________________________________
flatten_84 (Flatten)            (None, 64)           0           embedding_84[0][0]               
__________________________________________________________________________________________________
concatenate_42 (Concatenate)    (None, 504)          0           flatten_83[0][0]                 
                                                                 flatten_84[0][0]                 
__________________________________________________________________________________________________
dense_124 (Dense)               (None, 8)            4040        concatenate_42[0][0]             
__________________________________________________________________________________________________
dropout_83 (Dropout)            (None, 8)            0           dense_124[0][0]                  
__________________________________________________________________________________________________
dense_125 (Dense)               (None, 68)           612         dropout_83[0][0]                 
__________________________________________________________________________________________________
dropout_84 (Dropout)            (None, 68)           0           dense_125[0][0]                  
__________________________________________________________________________________________________
dense_126 (Dense)               (None, 8)            552         dropout_84[0][0]                 
==================================================================================================
Total params: 1,684,748
Trainable params: 1,684,748
Non-trainable params: 0
__________________________________________________________________________________________________
None

__________________________________________________________________________________________________
…
	Dashed keys in vocabulary 1979
	One occurrence keys in vocabulary 1979 / 12529
	Embedding
==================================================================================================
	Initialisation = None
	Concatenation = False
	Lemma : 110
	POS = 16 
Deep model(Non compositional)
__________________________________________________________________________________________________
Layer (type)                    Output Shape         Param #     Connected to                     
==================================================================================================
input_85 (InputLayer)           (None, 4)            0                                            
__________________________________________________________________________________________________
input_86 (InputLayer)           (None, 4)            0                                            
__________________________________________________________________________________________________
embedding_85 (Embedding)        (None, 4, 110)       1378190     input_85[0][0]                   
__________________________________________________________________________________________________
embedding_86 (Embedding)        (None, 4, 16)        1760        input_86[0][0]                   
__________________________________________________________________________________________________
flatten_85 (Flatten)            (None, 440)          0           embedding_85[0][0]               
__________________________________________________________________________________________________
flatten_86 (Flatten)            (None, 64)           0           embedding_86[0][0]               
__________________________________________________________________________________________________
concatenate_43 (Concatenate)    (None, 504)          0           flatten_85[0][0]                 
                                                                 flatten_86[0][0]                 
__________________________________________________________________________________________________
dense_127 (Dense)               (None, 8)            4040        concatenate_43[0][0]             
__________________________________________________________________________________________________
dropout_85 (Dropout)            (None, 8)            0           dense_127[0][0]                  
__________________________________________________________________________________________________
dense_128 (Dense)               (None, 68)           612         dropout_85[0][0]                 
__________________________________________________________________________________________________
dropout_86 (Dropout)            (None, 68)           0           dense_128[0][0]                  
__________________________________________________________________________________________________
dense_129 (Dense)               (None, 8)            552         dropout_86[0][0]                 
==================================================================================================
Total params: 1,385,154
Trainable params: 1,385,154
Non-trainable params: 0
__________________________________________________________________________________________________
None

__________________________________________________________________________________________________
…
	Dashed keys in vocabulary 1979
	One occurrence keys in vocabulary 1979 / 12525
	Embedding
==================================================================================================
	Initialisation = None
	Concatenation = False
	Lemma : 110
	POS = 16 
Deep model(Non compositional)
__________________________________________________________________________________________________
Layer (type)                    Output Shape         Param #     Connected to                     
==================================================================================================
input_87 (InputLayer)           (None, 4)            0                                            
__________________________________________________________________________________________________
input_88 (InputLayer)           (None, 4)            0                                            
__________________________________________________________________________________________________
embedding_87 (Embedding)        (None, 4, 110)       1377750     input_87[0][0]                   
__________________________________________________________________________________________________
embedding_88 (Embedding)        (None, 4, 16)        1760        input_88[0][0]                   
__________________________________________________________________________________________________
flatten_87 (Flatten)            (None, 440)          0           embedding_87[0][0]               
__________________________________________________________________________________________________
flatten_88 (Flatten)            (None, 64)           0           embedding_88[0][0]               
__________________________________________________________________________________________________
concatenate_44 (Concatenate)    (None, 504)          0           flatten_87[0][0]                 
                                                                 flatten_88[0][0]                 
__________________________________________________________________________________________________
dense_130 (Dense)               (None, 8)            4040        concatenate_44[0][0]             
__________________________________________________________________________________________________
dropout_87 (Dropout)            (None, 8)            0           dense_130[0][0]                  
__________________________________________________________________________________________________
dense_131 (Dense)               (None, 68)           612         dropout_87[0][0]                 
__________________________________________________________________________________________________
dropout_88 (Dropout)            (None, 68)           0           dense_131[0][0]                  
__________________________________________________________________________________________________
dense_132 (Dense)               (None, 8)            552         dropout_88[0][0]                 
==================================================================================================
Total params: 1,384,714
Trainable params: 1,384,714
Non-trainable params: 0
__________________________________________________________________________________________________
None

__________________________________________________________________________________________________
…
	Dashed keys in vocabulary 1979
	One occurrence keys in vocabulary 1979 / 12587
	Embedding
==================================================================================================
	Initialisation = None
	Concatenation = False
	Lemma : 110
	POS = 16 
Deep model(Non compositional)
__________________________________________________________________________________________________
Layer (type)                    Output Shape         Param #     Connected to                     
==================================================================================================
input_89 (InputLayer)           (None, 4)            0                                            
__________________________________________________________________________________________________
input_90 (InputLayer)           (None, 4)            0                                            
__________________________________________________________________________________________________
embedding_89 (Embedding)        (None, 4, 110)       1384570     input_89[0][0]                   
__________________________________________________________________________________________________
embedding_90 (Embedding)        (None, 4, 16)        1760        input_90[0][0]                   
__________________________________________________________________________________________________
flatten_89 (Flatten)            (None, 440)          0           embedding_89[0][0]               
__________________________________________________________________________________________________
flatten_90 (Flatten)            (None, 64)           0           embedding_90[0][0]               
__________________________________________________________________________________________________
concatenate_45 (Concatenate)    (None, 504)          0           flatten_89[0][0]                 
                                                                 flatten_90[0][0]                 
__________________________________________________________________________________________________
dense_133 (Dense)               (None, 8)            4040        concatenate_45[0][0]             
__________________________________________________________________________________________________
dropout_89 (Dropout)            (None, 8)            0           dense_133[0][0]                  
__________________________________________________________________________________________________
dense_134 (Dense)               (None, 68)           612         dropout_89[0][0]                 
…
flatten_96 (Flatten)            (None, 684)          0           embedding_96[0][0]               
__________________________________________________________________________________________________
concatenate_48 (Concatenate)    (None, 1032)         0           flatten_95[0][0]                 
                                                                 flatten_96[0][0]                 
__________________________________________________________________________________________________
dense_142 (Dense)               (None, 212)          218996      concatenate_48[0][0]             
__________________________________________________________________________________________________
dropout_95 (Dropout)            (None, 212)          0           dense_142[0][0]                  
__________________________________________________________________________________________________
dense_143 (Dense)               (None, 8)            1704        dropout_95[0][0]                 
__________________________________________________________________________________________________
dropout_96 (Dropout)            (None, 8)            0           dense_143[0][0]                  
__________________________________________________________________________________________________
dense_144 (Dense)               (None, 8)            72          dropout_96[0][0]                 
==================================================================================================
Total params: 1,304,597
Trainable params: 1,304,597
Non-trainable params: 0
__________________________________________________________________________________________________
None

__________________________________________________________________________________________________
…
	One occurrence keys in vocabulary 1660 / 15321
	Attention: important lemmas are not in vocbulary	Embedding
==================================================================================================
	Initialisation = None
	Concatenation = False
	Lemma : 87
	POS = 171 
Deep model(Non compositional)
__________________________________________________________________________________________________
Layer (type)                    Output Shape         Param #     Connected to                     
==================================================================================================
input_97 (InputLayer)           (None, 4)            0                                            
__________________________________________________________________________________________________
input_98 (InputLayer)           (None, 4)            0                                            
__________________________________________________________________________________________________
embedding_97 (Embedding)        (None, 4, 87)        1332927     input_97[0][0]                   
__________________________________________________________________________________________________
embedding_98 (Embedding)        (None, 4, 171)       28899       input_98[0][0]                   
__________________________________________________________________________________________________
flatten_97 (Flatten)            (None, 348)          0           embedding_97[0][0]               
__________________________________________________________________________________________________
flatten_98 (Flatten)            (None, 684)          0           embedding_98[0][0]               
__________________________________________________________________________________________________
concatenate_49 (Concatenate)    (None, 1032)         0           flatten_97[0][0]                 
                                                                 flatten_98[0][0]                 
__________________________________________________________________________________________________
dense_145 (Dense)               (None, 212)          218996      concatenate_49[0][0]             
__________________________________________________________________________________________________
dropout_97 (Dropout)            (None, 212)          0           dense_145[0][0]                  
__________________________________________________________________________________________________
dense_146 (Dense)               (None, 8)            1704        dropout_97[0][0]                 
__________________________________________________________________________________________________
dropout_98 (Dropout)            (None, 8)            0           dense_146[0][0]                  
__________________________________________________________________________________________________
dense_147 (Dense)               (None, 8)            72          dropout_98[0][0]                 
==================================================================================================
Total params: 1,582,598
Trainable params: 1,582,598
Non-trainable params: 0
__________________________________________________________________________________________________
None

__________________________________________________________________________________________________
…
	One occurrence keys in vocabulary 1660 / 15303
	Attention: important lemmas are not in vocbulary	Embedding
==================================================================================================
	Initialisation = None
	Concatenation = False
	Lemma : 87
	POS = 171 
Deep model(Non compositional)
__________________________________________________________________________________________________
Layer (type)                    Output Shape         Param #     Connected to                     
==================================================================================================
input_99 (InputLayer)           (None, 4)            0                                            
__________________________________________________________________________________________________
input_100 (InputLayer)          (None, 4)            0                                            
__________________________________________________________________________________________________
embedding_99 (Embedding)        (None, 4, 87)        1331361     input_99[0][0]                   
__________________________________________________________________________________________________
embedding_100 (Embedding)       (None, 4, 171)       28899       input_100[0][0]                  
__________________________________________________________________________________________________
flatten_99 (Flatten)            (None, 348)          0           embedding_99[0][0]               
__________________________________________________________________________________________________
flatten_100 (Flatten)           (None, 684)          0           embedding_100[0][0]              
__________________________________________________________________________________________________
concatenate_50 (Concatenate)    (None, 1032)         0           flatten_99[0][0]                 
                                                                 flatten_100[0][0]                
__________________________________________________________________________________________________
dense_148 (Dense)               (None, 212)          218996      concatenate_50[0][0]             
__________________________________________________________________________________________________
dropout_99 (Dropout)            (None, 212)          0           dense_148[0][0]                  
__________________________________________________________________________________________________
dense_149 (Dense)               (None, 8)            1704        dropout_99[0][0]                 
__________________________________________________________________________________________________
dropout_100 (Dropout)           (None, 8)            0           dense_149[0][0]                  
__________________________________________________________________________________________________
dense_150 (Dense)               (None, 8)            72          dropout_100[0][0]                
==================================================================================================
Total params: 1,581,032
Trainable params: 1,581,032
Non-trainable params: 0
__________________________________________________________________________________________________
None

__________________________________________________________________________________________________
…
	One occurrence keys in vocabulary 1660 / 15244
	Attention: important lemmas are not in vocbulary	Embedding
==================================================================================================
	Initialisation = None
	Concatenation = False
	Lemma : 87
	POS = 171 
Deep model(Non compositional)
__________________________________________________________________________________________________
Layer (type)                    Output Shape         Param #     Connected to                     
==================================================================================================
input_101 (InputLayer)          (None, 4)            0                                            
__________________________________________________________________________________________________
input_102 (InputLayer)          (None, 4)            0                                            
__________________________________________________________________________________________________
embedding_101 (Embedding)       (None, 4, 87)        1326228     input_101[0][0]                  
__________________________________________________________________________________________________
embedding_102 (Embedding)       (None, 4, 171)       28899       input_102[0][0]                  
__________________________________________________________________________________________________
flatten_101 (Flatten)           (None, 348)          0           embedding_101[0][0]              
__________________________________________________________________________________________________
flatten_102 (Flatten)           (None, 684)          0           embedding_102[0][0]              
__________________________________________________________________________________________________
concatenate_51 (Concatenate)    (None, 1032)         0           flatten_101[0][0]                
                                                                 flatten_102[0][0]                
__________________________________________________________________________________________________
dense_151 (Dense)               (None, 212)          218996      concatenate_51[0][0]             
__________________________________________________________________________________________________
dropout_101 (Dropout)           (None, 212)          0           dense_151[0][0]                  
__________________________________________________________________________________________________
dense_152 (Dense)               (None, 8)            1704        dropout_101[0][0]                
__________________________________________________________________________________________________
dropout_102 (Dropout)           (None, 8)            0           dense_152[0][0]                  
__________________________________________________________________________________________________
dense_153 (Dense)               (None, 8)            72          dropout_102[0][0]                
==================================================================================================
Total params: 1,575,899
Trainable params: 1,575,899
Non-trainable params: 0
__________________________________________________________________________________________________
None

__________________________________________________________________________________________________
…
	Dashed keys in vocabulary 1979
	One occurrence keys in vocabulary 1979 / 12529
	Embedding
==================================================================================================
	Initialisation = None
	Concatenation = False
	Lemma : 87
	POS = 171 
Deep model(Non compositional)
__________________________________________________________________________________________________
Layer (type)                    Output Shape         Param #     Connected to                     
==================================================================================================
input_103 (InputLayer)          (None, 4)            0                                            
__________________________________________________________________________________________________
input_104 (InputLayer)          (None, 4)            0                                            
__________________________________________________________________________________________________
embedding_103 (Embedding)       (None, 4, 87)        1090023     input_103[0][0]                  
__________________________________________________________________________________________________
embedding_104 (Embedding)       (None, 4, 171)       18810       input_104[0][0]                  
__________________________________________________________________________________________________
flatten_103 (Flatten)           (None, 348)          0           embedding_103[0][0]              
__________________________________________________________________________________________________
flatten_104 (Flatten)           (None, 684)          0           embedding_104[0][0]              
__________________________________________________________________________________________________
concatenate_52 (Concatenate)    (None, 1032)         0           flatten_103[0][0]                
                                                                 flatten_104[0][0]                
__________________________________________________________________________________________________
dense_154 (Dense)               (None, 212)          218996      concatenate_52[0][0]             
__________________________________________________________________________________________________
dropout_103 (Dropout)           (None, 212)          0           dense_154[0][0]                  
__________________________________________________________________________________________________
dense_155 (Dense)               (None, 8)            1704        dropout_103[0][0]                
__________________________________________________________________________________________________
dropout_104 (Dropout)           (None, 8)            0           dense_155[0][0]                  
__________________________________________________________________________________________________
dense_156 (Dense)               (None, 8)            72          dropout_104[0][0]                
==================================================================================================
Total params: 1,329,605
Trainable params: 1,329,605
Non-trainable params: 0
__________________________________________________________________________________________________
None

__________________________________________________________________________________________________
…
	Dashed keys in vocabulary 1979
	One occurrence keys in vocabulary 1979 / 12525
	Embedding
==================================================================================================
	Initialisation = None
	Concatenation = False
	Lemma : 87
	POS = 171 
Deep model(Non compositional)
__________________________________________________________________________________________________
Layer (type)                    Output Shape         Param #     Connected to                     
==================================================================================================
input_105 (InputLayer)          (None, 4)            0                                            
__________________________________________________________________________________________________
input_106 (InputLayer)          (None, 4)            0                                            
__________________________________________________________________________________________________
embedding_105 (Embedding)       (None, 4, 87)        1089675     input_105[0][0]                  
__________________________________________________________________________________________________
embedding_106 (Embedding)       (None, 4, 171)       18810       input_106[0][0]                  
__________________________________________________________________________________________________
flatten_105 (Flatten)           (None, 348)          0           embedding_105[0][0]              
__________________________________________________________________________________________________
flatten_106 (Flatten)           (None, 684)          0           embedding_106[0][0]              
__________________________________________________________________________________________________
concatenate_53 (Concatenate)    (None, 1032)         0           flatten_105[0][0]                
                                                                 flatten_106[0][0]                
__________________________________________________________________________________________________
dense_157 (Dense)               (None, 212)          218996      concatenate_53[0][0]             
__________________________________________________________________________________________________
dropout_105 (Dropout)           (None, 212)          0           dense_157[0][0]                  
__________________________________________________________________________________________________
dense_158 (Dense)               (None, 8)            1704        dropout_105[0][0]                
__________________________________________________________________________________________________
dropout_106 (Dropout)           (None, 8)            0           dense_158[0][0]                  
__________________________________________________________________________________________________
dense_159 (Dense)               (None, 8)            72          dropout_106[0][0]                
==================================================================================================
Total params: 1,329,257
Trainable params: 1,329,257
Non-trainable params: 0
__________________________________________________________________________________________________
None

__________________________________________________________________________________________________
…
	Dashed keys in vocabulary 1979
	One occurrence keys in vocabulary 1979 / 12587
	Embedding
==================================================================================================
	Initialisation = None
	Concatenation = False
	Lemma : 87
	POS = 171 
Deep model(Non compositional)
__________________________________________________________________________________________________
Layer (type)                    Output Shape         Param #     Connected to                     
==================================================================================================
input_107 (InputLayer)          (None, 4)            0                                            
__________________________________________________________________________________________________
input_108 (InputLayer)          (None, 4)            0                                            
__________________________________________________________________________________________________
embedding_107 (Embedding)       (None, 4, 87)        1095069     input_107[0][0]                  
__________________________________________________________________________________________________
embedding_108 (Embedding)       (None, 4, 171)       18810       input_108[0][0]                  
__________________________________________________________________________________________________
flatten_107 (Flatten)           (None, 348)          0           embedding_107[0][0]              
__________________________________________________________________________________________________
flatten_108 (Flatten)           (None, 684)          0           embedding_108[0][0]              
__________________________________________________________________________________________________
concatenate_54 (Concatenate)    (None, 1032)         0           flatten_107[0][0]                
                                                                 flatten_108[0][0]                
__________________________________________________________________________________________________
dense_160 (Dense)               (None, 212)          218996      concatenate_54[0][0]             
__________________________________________________________________________________________________
dropout_107 (Dropout)           (None, 212)          0           dense_160[0][0]                  
__________________________________________________________________________________________________
dense_161 (Dense)               (None, 8)            1704        dropout_107[0][0]                
__________________________________________________________________________________________________
dropout_108 (Dropout)           (None, 8)            0           dense_161[0][0]                  
__________________________________________________________________________________________________
dense_162 (Dense)               (None, 8)            72          dropout_108[0][0]                
==================================================================================================
Total params: 1,334,651
Trainable params: 1,334,651
Non-trainable params: 0
__________________________________________________________________________________________________
None

__________________________________________________________________________________________________
…
__________________________________________________________________________________________________
	Dashed keys in vocabulary 1622
	One occurrence keys in vocabulary 1622 / 12174
	Embedding
==================================================================================================
	Initialisation = None
	Concatenation = False
	Lemma : 406
	POS = 41
Deep model(Non compositional)
__________________________________________________________________________________________________
Layer (type)                    Output Shape         Param #     Connected to
==================================================================================================
input_109 (InputLayer)          (None, 4)            0
__________________________________________________________________________________________________
input_110 (InputLayer)          (None, 4)            0
__________________________________________________________________________________________________
embedding_109 (Embedding)       (None, 4, 406)       4942644     input_109[0][0]
__________________________________________________________________________________________________
embedding_110 (Embedding)       (None, 4, 41)        6232        input_110[0][0]
__________________________________________________________________________________________________
flatten_109 (Flatten)           (None, 1624)         0           embedding_109[0][0]
__________________________________________________________________________________________________
flatten_110 (Flatten)           (None, 164)          0           embedding_110[0][0]
__________________________________________________________________________________________________
concatenate_55 (Concatenate)    (None, 1788)         0           flatten_109[0][0]
                                                                 flatten_110[0][0]
__________________________________________________________________________________________________
dense_163 (Dense)               (None, 465)          831885      concatenate_55[0][0]
__________________________________________________________________________________________________
dropout_109 (Dropout)           (None, 465)          0           dense_163[0][0]
__________________________________________________________________________________________________
dense_164 (Dense)               (None, 89)           41474       dropout_109[0][0]
__________________________________________________________________________________________________
dropout_110 (Dropout)           (None, 89)           0           dense_164[0][0]
__________________________________________________________________________________________________
dense_165 (Dense)               (None, 8)            720         dropout_110[0][0]
==================================================================================================
Total params: 5,822,955
Trainable params: 5,822,955
Non-trainable params: 0
__________________________________________________________________________________________________
None

__________________________________________________________________________________________________
…
__________________________________________________________________________________________________
	Dashed keys in vocabulary 1622
	One occurrence keys in vocabulary 1622 / 12142
	Embedding
==================================================================================================
	Initialisation = None
	Concatenation = False
	Lemma : 406
	POS = 41
Deep model(Non compositional)
__________________________________________________________________________________________________
Layer (type)                    Output Shape         Param #     Connected to
==================================================================================================
input_111 (InputLayer)          (None, 4)            0
__________________________________________________________________________________________________
input_112 (InputLayer)          (None, 4)            0
__________________________________________________________________________________________________
embedding_111 (Embedding)       (None, 4, 406)       4929652     input_111[0][0]
__________________________________________________________________________________________________
embedding_112 (Embedding)       (None, 4, 41)        6232        input_112[0][0]
__________________________________________________________________________________________________
flatten_111 (Flatten)           (None, 1624)         0           embedding_111[0][0]
__________________________________________________________________________________________________
flatten_112 (Flatten)           (None, 164)          0           embedding_112[0][0]
__________________________________________________________________________________________________
concatenate_56 (Concatenate)    (None, 1788)         0           flatten_111[0][0]
                                                                 flatten_112[0][0]
__________________________________________________________________________________________________
dense_166 (Dense)               (None, 465)          831885      concatenate_56[0][0]
__________________________________________________________________________________________________
dropout_111 (Dropout)           (None, 465)          0           dense_166[0][0]
__________________________________________________________________________________________________
dense_167 (Dense)               (None, 89)           41474       dropout_111[0][0]
__________________________________________________________________________________________________
dropout_112 (Dropout)           (None, 89)           0           dense_167[0][0]
__________________________________________________________________________________________________
dense_168 (Dense)               (None, 8)            720         dropout_112[0][0]
==================================================================================================
Total params: 5,809,963
Trainable params: 5,809,963
Non-trainable params: 0
__________________________________________________________________________________________________
None

__________________________________________________________________________________________________
…
__________________________________________________________________________________________________
	Dashed keys in vocabulary 1622
	One occurrence keys in vocabulary 1622 / 12159
	Embedding
==================================================================================================
	Initialisation = None
	Concatenation = False
	Lemma : 406
	POS = 41
Deep model(Non compositional)
__________________________________________________________________________________________________
Layer (type)                    Output Shape         Param #     Connected to
==================================================================================================
input_113 (InputLayer)          (None, 4)            0
__________________________________________________________________________________________________
input_114 (InputLayer)          (None, 4)            0
__________________________________________________________________________________________________
embedding_113 (Embedding)       (None, 4, 406)       4936554     input_113[0][0]
__________________________________________________________________________________________________
embedding_114 (Embedding)       (None, 4, 41)        6232        input_114[0][0]
__________________________________________________________________________________________________
flatten_113 (Flatten)           (None, 1624)         0           embedding_113[0][0]
__________________________________________________________________________________________________
flatten_114 (Flatten)           (None, 164)          0           embedding_114[0][0]
__________________________________________________________________________________________________
concatenate_57 (Concatenate)    (None, 1788)         0           flatten_113[0][0]
                                                                 flatten_114[0][0]
__________________________________________________________________________________________________
dense_169 (Dense)               (None, 465)          831885      concatenate_57[0][0]
__________________________________________________________________________________________________
dropout_113 (Dropout)           (None, 465)          0           dense_169[0][0]
__________________________________________________________________________________________________
dense_170 (Dense)               (None, 89)           41474       dropout_113[0][0]
__________________________________________________________________________________________________
dropout_114 (Dropout)           (None, 89)           0           dense_170[0][0]
__________________________________________________________________________________________________
dense_171 (Dense)               (None, 8)            720         dropout_114[0][0]
==================================================================================================
Total params: 5,816,865
Trainable params: 5,816,865
Non-trainable params: 0
__________________________________________________________________________________________________
None

__________________________________________________________________________________________________
…
	One occurrence keys in vocabulary 1660 / 15321
	Attention: important lemmas are not in vocbulary	Embedding
==================================================================================================
	Initialisation = None
	Concatenation = False
	Lemma : 406
	POS = 41
Deep model(Non compositional)
__________________________________________________________________________________________________
Layer (type)                    Output Shape         Param #     Connected to
==================================================================================================
input_115 (InputLayer)          (None, 4)            0
__________________________________________________________________________________________________
input_116 (InputLayer)          (None, 4)            0
__________________________________________________________________________________________________
embedding_115 (Embedding)       (None, 4, 406)       6220326     input_115[0][0]
__________________________________________________________________________________________________
embedding_116 (Embedding)       (None, 4, 41)        6929        input_116[0][0]
__________________________________________________________________________________________________
flatten_115 (Flatten)           (None, 1624)         0           embedding_115[0][0]
__________________________________________________________________________________________________
flatten_116 (Flatten)           (None, 164)          0           embedding_116[0][0]
__________________________________________________________________________________________________
concatenate_58 (Concatenate)    (None, 1788)         0           flatten_115[0][0]
                                                                 flatten_116[0][0]
__________________________________________________________________________________________________
dense_172 (Dense)               (None, 465)          831885      concatenate_58[0][0]
__________________________________________________________________________________________________
dropout_115 (Dropout)           (None, 465)          0           dense_172[0][0]
__________________________________________________________________________________________________
dense_173 (Dense)               (None, 89)           41474       dropout_115[0][0]
__________________________________________________________________________________________________
dropout_116 (Dropout)           (None, 89)           0           dense_173[0][0]
__________________________________________________________________________________________________
dense_174 (Dense)               (None, 8)            720         dropout_116[0][0]
==================================================================================================
Total params: 7,101,334
Trainable params: 7,101,334
Non-trainable params: 0
__________________________________________________________________________________________________
None

__________________________________________________________________________________________________
…
	One occurrence keys in vocabulary 1660 / 15303
	Attention: important lemmas are not in vocbulary	Embedding
==================================================================================================
	Initialisation = None
	Concatenation = False
	Lemma : 406
	POS = 41
Deep model(Non compositional)
__________________________________________________________________________________________________
Layer (type)                    Output Shape         Param #     Connected to
==================================================================================================
input_117 (InputLayer)          (None, 4)            0
__________________________________________________________________________________________________
input_118 (InputLayer)          (None, 4)            0
__________________________________________________________________________________________________
embedding_117 (Embedding)       (None, 4, 406)       6213018     input_117[0][0]
__________________________________________________________________________________________________
embedding_118 (Embedding)       (None, 4, 41)        6929        input_118[0][0]
__________________________________________________________________________________________________
flatten_117 (Flatten)           (None, 1624)         0           embedding_117[0][0]
__________________________________________________________________________________________________
flatten_118 (Flatten)           (None, 164)          0           embedding_118[0][0]
__________________________________________________________________________________________________
concatenate_59 (Concatenate)    (None, 1788)         0           flatten_117[0][0]
                                                                 flatten_118[0][0]
__________________________________________________________________________________________________
dense_175 (Dense)               (None, 465)          831885      concatenate_59[0][0]
__________________________________________________________________________________________________
dropout_117 (Dropout)           (None, 465)          0           dense_175[0][0]
__________________________________________________________________________________________________
dense_176 (Dense)               (None, 89)           41474       dropout_117[0][0]
__________________________________________________________________________________________________
dropout_118 (Dropout)           (None, 89)           0           dense_176[0][0]
__________________________________________________________________________________________________
dense_177 (Dense)               (None, 8)            720         dropout_118[0][0]
==================================================================================================
Total params: 7,094,026
Trainable params: 7,094,026
Non-trainable params: 0
__________________________________________________________________________________________________
None

__________________________________________________________________________________________________
…
	One occurrence keys in vocabulary 1660 / 15244
	Attention: important lemmas are not in vocbulary	Embedding
==================================================================================================
	Initialisation = None
	Concatenation = False
	Lemma : 406
	POS = 41
Deep model(Non compositional)
__________________________________________________________________________________________________
Layer (type)                    Output Shape         Param #     Connected to
==================================================================================================
input_119 (InputLayer)          (None, 4)            0
__________________________________________________________________________________________________
input_120 (InputLayer)          (None, 4)            0
__________________________________________________________________________________________________
embedding_119 (Embedding)       (None, 4, 406)       6189064     input_119[0][0]
__________________________________________________________________________________________________
embedding_120 (Embedding)       (None, 4, 41)        6929        input_120[0][0]
__________________________________________________________________________________________________
flatten_119 (Flatten)           (None, 1624)         0           embedding_119[0][0]
__________________________________________________________________________________________________
flatten_120 (Flatten)           (None, 164)          0           embedding_120[0][0]
__________________________________________________________________________________________________
concatenate_60 (Concatenate)    (None, 1788)         0           flatten_119[0][0]
                                                                 flatten_120[0][0]
__________________________________________________________________________________________________
dense_178 (Dense)               (None, 465)          831885      concatenate_60[0][0]
__________________________________________________________________________________________________
dropout_119 (Dropout)           (None, 465)          0           dense_178[0][0]
__________________________________________________________________________________________________
dense_179 (Dense)               (None, 89)           41474       dropout_119[0][0]
__________________________________________________________________________________________________
dropout_120 (Dropout)           (None, 89)           0           dense_179[0][0]
__________________________________________________________________________________________________
dense_180 (Dense)               (None, 8)            720         dropout_120[0][0]
==================================================================================================
Total params: 7,070,072
Trainable params: 7,070,072
Non-trainable params: 0
__________________________________________________________________________________________________
None

__________________________________________________________________________________________________
…
__________________________________________________________________________________________________
	Dashed keys in vocabulary 1979
	One occurrence keys in vocabulary 1979 / 12529
	Embedding
==================================================================================================
	Initialisation = None
	Concatenation = False
	Lemma : 406
	POS = 41
Deep model(Non compositional)
__________________________________________________________________________________________________
Layer (type)                    Output Shape         Param #     Connected to
==================================================================================================
input_121 (InputLayer)          (None, 4)            0
__________________________________________________________________________________________________
input_122 (InputLayer)          (None, 4)            0
__________________________________________________________________________________________________
embedding_121 (Embedding)       (None, 4, 406)       5086774     input_121[0][0]
__________________________________________________________________________________________________
embedding_122 (Embedding)       (None, 4, 41)        4510        input_122[0][0]
__________________________________________________________________________________________________
flatten_121 (Flatten)           (None, 1624)         0           embedding_121[0][0]
__________________________________________________________________________________________________
flatten_122 (Flatten)           (None, 164)          0           embedding_122[0][0]
__________________________________________________________________________________________________
concatenate_61 (Concatenate)    (None, 1788)         0           flatten_121[0][0]
                                                                 flatten_122[0][0]
__________________________________________________________________________________________________
dense_181 (Dense)               (None, 465)          831885      concatenate_61[0][0]
__________________________________________________________________________________________________
dropout_121 (Dropout)           (None, 465)          0           dense_181[0][0]
__________________________________________________________________________________________________
dense_182 (Dense)               (None, 89)           41474       dropout_121[0][0]
__________________________________________________________________________________________________
dropout_122 (Dropout)           (None, 89)           0           dense_182[0][0]
__________________________________________________________________________________________________
dense_183 (Dense)               (None, 8)            720         dropout_122[0][0]
==================================================================================================
Total params: 5,965,363
Trainable params: 5,965,363
Non-trainable params: 0
__________________________________________________________________________________________________
None

__________________________________________________________________________________________________
…
__________________________________________________________________________________________________
	Dashed keys in vocabulary 1979
	One occurrence keys in vocabulary 1979 / 12525
	Embedding
==================================================================================================
	Initialisation = None
	Concatenation = False
	Lemma : 406
	POS = 41
Deep model(Non compositional)
__________________________________________________________________________________________________
Layer (type)                    Output Shape         Param #     Connected to
==================================================================================================
input_123 (InputLayer)          (None, 4)            0
__________________________________________________________________________________________________
input_124 (InputLayer)          (None, 4)            0
__________________________________________________________________________________________________
embedding_123 (Embedding)       (None, 4, 406)       5085150     input_123[0][0]
__________________________________________________________________________________________________
embedding_124 (Embedding)       (None, 4, 41)        4510        input_124[0][0]
__________________________________________________________________________________________________
flatten_123 (Flatten)           (None, 1624)         0           embedding_123[0][0]
__________________________________________________________________________________________________
flatten_124 (Flatten)           (None, 164)          0           embedding_124[0][0]
__________________________________________________________________________________________________
concatenate_62 (Concatenate)    (None, 1788)         0           flatten_123[0][0]
                                                                 flatten_124[0][0]
__________________________________________________________________________________________________
dense_184 (Dense)               (None, 465)          831885      concatenate_62[0][0]
__________________________________________________________________________________________________
dropout_123 (Dropout)           (None, 465)          0           dense_184[0][0]
__________________________________________________________________________________________________
dense_185 (Dense)               (None, 89)           41474       dropout_123[0][0]
__________________________________________________________________________________________________
dropout_124 (Dropout)           (None, 89)           0           dense_185[0][0]
__________________________________________________________________________________________________
dense_186 (Dense)               (None, 8)            720         dropout_124[0][0]
==================================================================================================
Total params: 5,963,739
Trainable params: 5,963,739
Non-trainable params: 0
__________________________________________________________________________________________________
None

__________________________________________________________________________________________________
…
__________________________________________________________________________________________________
	Dashed keys in vocabulary 1979
	One occurrence keys in vocabulary 1979 / 12587
	Embedding
==================================================================================================
	Initialisation = None
	Concatenation = False
	Lemma : 406
	POS = 41
Deep model(Non compositional)
__________________________________________________________________________________________________
Layer (type)                    Output Shape         Param #     Connected to
==================================================================================================
input_125 (InputLayer)          (None, 4)            0
__________________________________________________________________________________________________
input_126 (InputLayer)          (None, 4)            0
__________________________________________________________________________________________________
embedding_125 (Embedding)       (None, 4, 406)       5110322     input_125[0][0]
__________________________________________________________________________________________________
embedding_126 (Embedding)       (None, 4, 41)        4510        input_126[0][0]
__________________________________________________________________________________________________
flatten_125 (Flatten)           (None, 1624)         0           embedding_125[0][0]
__________________________________________________________________________________________________
flatten_126 (Flatten)           (None, 164)          0           embedding_126[0][0]
__________________________________________________________________________________________________
concatenate_63 (Concatenate)    (None, 1788)         0           flatten_125[0][0]
                                                                 flatten_126[0][0]
__________________________________________________________________________________________________
dense_187 (Dense)               (None, 465)          831885      concatenate_63[0][0]
__________________________________________________________________________________________________
dropout_125 (Dropout)           (None, 465)          0           dense_187[0][0]
__________________________________________________________________________________________________
dense_188 (Dense)               (None, 89)           41474       dropout_125[0][0]
__________________________________________________________________________________________________
dropout_126 (Dropout)           (None, 89)           0           dense_188[0][0]
__________________________________________________________________________________________________
dense_189 (Dense)               (None, 8)            720         dropout_126[0][0]
==================================================================================================
Total params: 5,988,911
Trainable params: 5,988,911
Non-trainable params: 0
__________________________________________________________________________________________________
None

__________________________________________________________________________________________________
…
