…
	Dashed keys in vocabulary 1622
	One occurrence keys in vocabulary 1622 / 12174
	Embedding
==================================================================================================
	Initialisation = None
	Concatenation = False
	Lemma : 170
	POS = 39 
Deep model(Non compositional)
__________________________________________________________________________________________________
Layer (type)                    Output Shape         Param #     Connected to                     
==================================================================================================
input_1 (InputLayer)            (None, 4)            0                                            
__________________________________________________________________________________________________
input_2 (InputLayer)            (None, 4)            0                                            
__________________________________________________________________________________________________
embedding_1 (Embedding)         (None, 4, 170)       2069580     input_1[0][0]                    
__________________________________________________________________________________________________
embedding_2 (Embedding)         (None, 4, 39)        5928        input_2[0][0]                    
__________________________________________________________________________________________________
flatten_1 (Flatten)             (None, 680)          0           embedding_1[0][0]                
__________________________________________________________________________________________________
flatten_2 (Flatten)             (None, 156)          0           embedding_2[0][0]                
__________________________________________________________________________________________________
concatenate_1 (Concatenate)     (None, 836)          0           flatten_1[0][0]                  
                                                                 flatten_2[0][0]                  
__________________________________________________________________________________________________
dense_1 (Dense)                 (None, 34)           28458       concatenate_1[0][0]              
__________________________________________________________________________________________________
dropout_1 (Dropout)             (None, 34)           0           dense_1[0][0]                    
__________________________________________________________________________________________________
dense_2 (Dense)                 (None, 21)           735         dropout_1[0][0]                  
__________________________________________________________________________________________________
dropout_2 (Dropout)             (None, 21)           0           dense_2[0][0]                    
__________________________________________________________________________________________________
dense_3 (Dense)                 (None, 8)            176         dropout_2[0][0]                  
==================================================================================================
Total params: 2,104,877
Trainable params: 2,104,877
Non-trainable params: 0
__________________________________________________________________________________________________
None

__________________________________________________________________________________________________
…
	Dashed keys in vocabulary 1622
	One occurrence keys in vocabulary 1622 / 12142
	Embedding
==================================================================================================
	Initialisation = None
	Concatenation = False
	Lemma : 170
	POS = 39 
Deep model(Non compositional)
__________________________________________________________________________________________________
Layer (type)                    Output Shape         Param #     Connected to                     
==================================================================================================
input_3 (InputLayer)            (None, 4)            0                                            
__________________________________________________________________________________________________
input_4 (InputLayer)            (None, 4)            0                                            
__________________________________________________________________________________________________
embedding_3 (Embedding)         (None, 4, 170)       2064140     input_3[0][0]                    
__________________________________________________________________________________________________
embedding_4 (Embedding)         (None, 4, 39)        5928        input_4[0][0]                    
__________________________________________________________________________________________________
flatten_3 (Flatten)             (None, 680)          0           embedding_3[0][0]                
__________________________________________________________________________________________________
flatten_4 (Flatten)             (None, 156)          0           embedding_4[0][0]                
__________________________________________________________________________________________________
concatenate_2 (Concatenate)     (None, 836)          0           flatten_3[0][0]                  
                                                                 flatten_4[0][0]                  
__________________________________________________________________________________________________
dense_4 (Dense)                 (None, 34)           28458       concatenate_2[0][0]              
__________________________________________________________________________________________________
dropout_3 (Dropout)             (None, 34)           0           dense_4[0][0]                    
__________________________________________________________________________________________________
dense_5 (Dense)                 (None, 21)           735         dropout_3[0][0]                  
__________________________________________________________________________________________________
dropout_4 (Dropout)             (None, 21)           0           dense_5[0][0]                    
__________________________________________________________________________________________________
dense_6 (Dense)                 (None, 8)            176         dropout_4[0][0]                  
==================================================================================================
Total params: 2,099,437
Trainable params: 2,099,437
Non-trainable params: 0
__________________________________________________________________________________________________
None

__________________________________________________________________________________________________
…
	Dashed keys in vocabulary 1622
	One occurrence keys in vocabulary 1622 / 12159
	Embedding
==================================================================================================
	Initialisation = None
	Concatenation = False
	Lemma : 170
	POS = 39 
Deep model(Non compositional)
__________________________________________________________________________________________________
Layer (type)                    Output Shape         Param #     Connected to                     
==================================================================================================
input_5 (InputLayer)            (None, 4)            0                                            
__________________________________________________________________________________________________
input_6 (InputLayer)            (None, 4)            0                                            
__________________________________________________________________________________________________
embedding_5 (Embedding)         (None, 4, 170)       2067030     input_5[0][0]                    
__________________________________________________________________________________________________
embedding_6 (Embedding)         (None, 4, 39)        5928        input_6[0][0]                    
__________________________________________________________________________________________________
flatten_5 (Flatten)             (None, 680)          0           embedding_5[0][0]                
__________________________________________________________________________________________________
flatten_6 (Flatten)             (None, 156)          0           embedding_6[0][0]                
__________________________________________________________________________________________________
concatenate_3 (Concatenate)     (None, 836)          0           flatten_5[0][0]                  
                                                                 flatten_6[0][0]                  
__________________________________________________________________________________________________
dense_7 (Dense)                 (None, 34)           28458       concatenate_3[0][0]              
__________________________________________________________________________________________________
dropout_5 (Dropout)             (None, 34)           0           dense_7[0][0]                    
__________________________________________________________________________________________________
dense_8 (Dense)                 (None, 21)           735         dropout_5[0][0]                  
__________________________________________________________________________________________________
dropout_6 (Dropout)             (None, 21)           0           dense_8[0][0]                    
__________________________________________________________________________________________________
dense_9 (Dense)                 (None, 8)            176         dropout_6[0][0]                  
==================================================================================================
Total params: 2,102,327
Trainable params: 2,102,327
Non-trainable params: 0
__________________________________________________________________________________________________
None

__________________________________________________________________________________________________
…
	One occurrence keys in vocabulary 1660 / 15321
	Attention: important lemmas are not in vocbulary	Embedding
==================================================================================================
	Initialisation = None
	Concatenation = False
	Lemma : 170
	POS = 39 
Deep model(Non compositional)
__________________________________________________________________________________________________
Layer (type)                    Output Shape         Param #     Connected to                     
==================================================================================================
input_7 (InputLayer)            (None, 4)            0                                            
__________________________________________________________________________________________________
input_8 (InputLayer)            (None, 4)            0                                            
__________________________________________________________________________________________________
embedding_7 (Embedding)         (None, 4, 170)       2604570     input_7[0][0]                    
__________________________________________________________________________________________________
embedding_8 (Embedding)         (None, 4, 39)        6591        input_8[0][0]                    
__________________________________________________________________________________________________
flatten_7 (Flatten)             (None, 680)          0           embedding_7[0][0]                
__________________________________________________________________________________________________
flatten_8 (Flatten)             (None, 156)          0           embedding_8[0][0]                
__________________________________________________________________________________________________
concatenate_4 (Concatenate)     (None, 836)          0           flatten_7[0][0]                  
                                                                 flatten_8[0][0]                  
__________________________________________________________________________________________________
dense_10 (Dense)                (None, 34)           28458       concatenate_4[0][0]              
__________________________________________________________________________________________________
dropout_7 (Dropout)             (None, 34)           0           dense_10[0][0]                   
__________________________________________________________________________________________________
dense_11 (Dense)                (None, 21)           735         dropout_7[0][0]                  
__________________________________________________________________________________________________
dropout_8 (Dropout)             (None, 21)           0           dense_11[0][0]                   
__________________________________________________________________________________________________
dense_12 (Dense)                (None, 8)            176         dropout_8[0][0]                  
==================================================================================================
Total params: 2,640,530
Trainable params: 2,640,530
Non-trainable params: 0
__________________________________________________________________________________________________
None

__________________________________________________________________________________________________
…
	One occurrence keys in vocabulary 1660 / 15303
	Attention: important lemmas are not in vocbulary	Embedding
==================================================================================================
	Initialisation = None
	Concatenation = False
	Lemma : 170
	POS = 39 
Deep model(Non compositional)
__________________________________________________________________________________________________
Layer (type)                    Output Shape         Param #     Connected to                     
==================================================================================================
input_9 (InputLayer)            (None, 4)            0                                            
__________________________________________________________________________________________________
input_10 (InputLayer)           (None, 4)            0                                            
__________________________________________________________________________________________________
embedding_9 (Embedding)         (None, 4, 170)       2601510     input_9[0][0]                    
__________________________________________________________________________________________________
embedding_10 (Embedding)        (None, 4, 39)        6591        input_10[0][0]                   
__________________________________________________________________________________________________
flatten_9 (Flatten)             (None, 680)          0           embedding_9[0][0]                
__________________________________________________________________________________________________
flatten_10 (Flatten)            (None, 156)          0           embedding_10[0][0]               
__________________________________________________________________________________________________
concatenate_5 (Concatenate)     (None, 836)          0           flatten_9[0][0]                  
                                                                 flatten_10[0][0]                 
__________________________________________________________________________________________________
dense_13 (Dense)                (None, 34)           28458       concatenate_5[0][0]              
__________________________________________________________________________________________________
dropout_9 (Dropout)             (None, 34)           0           dense_13[0][0]                   
__________________________________________________________________________________________________
dense_14 (Dense)                (None, 21)           735         dropout_9[0][0]                  
__________________________________________________________________________________________________
dropout_10 (Dropout)            (None, 21)           0           dense_14[0][0]                   
__________________________________________________________________________________________________
dense_15 (Dense)                (None, 8)            176         dropout_10[0][0]                 
==================================================================================================
Total params: 2,637,470
Trainable params: 2,637,470
Non-trainable params: 0
__________________________________________________________________________________________________
None

__________________________________________________________________________________________________
…
	One occurrence keys in vocabulary 1660 / 15244
	Attention: important lemmas are not in vocbulary	Embedding
==================================================================================================
	Initialisation = None
	Concatenation = False
	Lemma : 170
	POS = 39 
Deep model(Non compositional)
__________________________________________________________________________________________________
Layer (type)                    Output Shape         Param #     Connected to                     
==================================================================================================
input_11 (InputLayer)           (None, 4)            0                                            
__________________________________________________________________________________________________
input_12 (InputLayer)           (None, 4)            0                                            
__________________________________________________________________________________________________
embedding_11 (Embedding)        (None, 4, 170)       2591480     input_11[0][0]                   
__________________________________________________________________________________________________
embedding_12 (Embedding)        (None, 4, 39)        6591        input_12[0][0]                   
__________________________________________________________________________________________________
flatten_11 (Flatten)            (None, 680)          0           embedding_11[0][0]               
__________________________________________________________________________________________________
flatten_12 (Flatten)            (None, 156)          0           embedding_12[0][0]               
__________________________________________________________________________________________________
concatenate_6 (Concatenate)     (None, 836)          0           flatten_11[0][0]                 
                                                                 flatten_12[0][0]                 
__________________________________________________________________________________________________
dense_16 (Dense)                (None, 34)           28458       concatenate_6[0][0]              
__________________________________________________________________________________________________
dropout_11 (Dropout)            (None, 34)           0           dense_16[0][0]                   
__________________________________________________________________________________________________
dense_17 (Dense)                (None, 21)           735         dropout_11[0][0]                 
__________________________________________________________________________________________________
dropout_12 (Dropout)            (None, 21)           0           dense_17[0][0]                   
__________________________________________________________________________________________________
dense_18 (Dense)                (None, 8)            176         dropout_12[0][0]                 
==================================================================================================
Total params: 2,627,440
Trainable params: 2,627,440
Non-trainable params: 0
__________________________________________________________________________________________________
None

__________________________________________________________________________________________________
…
	Dashed keys in vocabulary 1979
	One occurrence keys in vocabulary 1979 / 12529
	Embedding
==================================================================================================
	Initialisation = None
	Concatenation = False
	Lemma : 170
	POS = 39 
Deep model(Non compositional)
__________________________________________________________________________________________________
Layer (type)                    Output Shape         Param #     Connected to                     
==================================================================================================
input_13 (InputLayer)           (None, 4)            0                                            
__________________________________________________________________________________________________
input_14 (InputLayer)           (None, 4)            0                                            
__________________________________________________________________________________________________
embedding_13 (Embedding)        (None, 4, 170)       2129930     input_13[0][0]                   
__________________________________________________________________________________________________
embedding_14 (Embedding)        (None, 4, 39)        4290        input_14[0][0]                   
__________________________________________________________________________________________________
flatten_13 (Flatten)            (None, 680)          0           embedding_13[0][0]               
__________________________________________________________________________________________________
flatten_14 (Flatten)            (None, 156)          0           embedding_14[0][0]               
__________________________________________________________________________________________________
concatenate_7 (Concatenate)     (None, 836)          0           flatten_13[0][0]                 
                                                                 flatten_14[0][0]                 
__________________________________________________________________________________________________
dense_19 (Dense)                (None, 34)           28458       concatenate_7[0][0]              
__________________________________________________________________________________________________
dropout_13 (Dropout)            (None, 34)           0           dense_19[0][0]                   
__________________________________________________________________________________________________
dense_20 (Dense)                (None, 21)           735         dropout_13[0][0]                 
__________________________________________________________________________________________________
dropout_14 (Dropout)            (None, 21)           0           dense_20[0][0]                   
__________________________________________________________________________________________________
dense_21 (Dense)                (None, 8)            176         dropout_14[0][0]                 
==================================================================================================
Total params: 2,163,589
Trainable params: 2,163,589
Non-trainable params: 0
__________________________________________________________________________________________________
None

__________________________________________________________________________________________________
…
	Dashed keys in vocabulary 1979
	One occurrence keys in vocabulary 1979 / 12525
	Embedding
==================================================================================================
	Initialisation = None
	Concatenation = False
	Lemma : 170
	POS = 39 
Deep model(Non compositional)
__________________________________________________________________________________________________
Layer (type)                    Output Shape         Param #     Connected to                     
==================================================================================================
input_15 (InputLayer)           (None, 4)            0                                            
__________________________________________________________________________________________________
input_16 (InputLayer)           (None, 4)            0                                            
__________________________________________________________________________________________________
embedding_15 (Embedding)        (None, 4, 170)       2129250     input_15[0][0]                   
__________________________________________________________________________________________________
embedding_16 (Embedding)        (None, 4, 39)        4290        input_16[0][0]                   
__________________________________________________________________________________________________
flatten_15 (Flatten)            (None, 680)          0           embedding_15[0][0]               
__________________________________________________________________________________________________
flatten_16 (Flatten)            (None, 156)          0           embedding_16[0][0]               
__________________________________________________________________________________________________
concatenate_8 (Concatenate)     (None, 836)          0           flatten_15[0][0]                 
                                                                 flatten_16[0][0]                 
__________________________________________________________________________________________________
dense_22 (Dense)                (None, 34)           28458       concatenate_8[0][0]              
__________________________________________________________________________________________________
dropout_15 (Dropout)            (None, 34)           0           dense_22[0][0]                   
__________________________________________________________________________________________________
dense_23 (Dense)                (None, 21)           735         dropout_15[0][0]                 
__________________________________________________________________________________________________
dropout_16 (Dropout)            (None, 21)           0           dense_23[0][0]                   
__________________________________________________________________________________________________
dense_24 (Dense)                (None, 8)            176         dropout_16[0][0]                 
==================================================================================================
Total params: 2,162,909
Trainable params: 2,162,909
Non-trainable params: 0
__________________________________________________________________________________________________
None

__________________________________________________________________________________________________
…
	Dashed keys in vocabulary 1979
	One occurrence keys in vocabulary 1979 / 12587
	Embedding
==================================================================================================
	Initialisation = None
	Concatenation = False
	Lemma : 170
	POS = 39 
Deep model(Non compositional)
__________________________________________________________________________________________________
Layer (type)                    Output Shape         Param #     Connected to                     
==================================================================================================
input_17 (InputLayer)           (None, 4)            0                                            
__________________________________________________________________________________________________
input_18 (InputLayer)           (None, 4)            0                                            
__________________________________________________________________________________________________
embedding_17 (Embedding)        (None, 4, 170)       2139790     input_17[0][0]                   
__________________________________________________________________________________________________
embedding_18 (Embedding)        (None, 4, 39)        4290        input_18[0][0]                   
__________________________________________________________________________________________________
flatten_17 (Flatten)            (None, 680)          0           embedding_17[0][0]               
__________________________________________________________________________________________________
flatten_18 (Flatten)            (None, 156)          0           embedding_18[0][0]               
__________________________________________________________________________________________________
concatenate_9 (Concatenate)     (None, 836)          0           flatten_17[0][0]                 
                                                                 flatten_18[0][0]                 
__________________________________________________________________________________________________
dense_25 (Dense)                (None, 34)           28458       concatenate_9[0][0]              
__________________________________________________________________________________________________
dropout_17 (Dropout)            (None, 34)           0           dense_25[0][0]                   
__________________________________________________________________________________________________
dense_26 (Dense)                (None, 21)           735         dropout_17[0][0]                 
__________________________________________________________________________________________________
dropout_18 (Dropout)            (None, 21)           0           dense_26[0][0]                   
__________________________________________________________________________________________________
dense_27 (Dense)                (None, 8)            176         dropout_18[0][0]                 
==================================================================================================
Total params: 2,173,449
Trainable params: 2,173,449
Non-trainable params: 0
__________________________________________________________________________________________________
None

__________________________________________________________________________________________________
…
	Dashed keys in vocabulary 1622
	One occurrence keys in vocabulary 1622 / 12174
	Embedding
==================================================================================================
	Initialisation = None
	Concatenation = False
	Lemma : 327
	POS = 23 
Deep model(Non compositional)
__________________________________________________________________________________________________
Layer (type)                    Output Shape         Param #     Connected to                     
==================================================================================================
input_19 (InputLayer)           (None, 4)            0                                            
__________________________________________________________________________________________________
input_20 (InputLayer)           (None, 4)            0                                            
__________________________________________________________________________________________________
embedding_19 (Embedding)        (None, 4, 327)       3980898     input_19[0][0]                   
__________________________________________________________________________________________________
embedding_20 (Embedding)        (None, 4, 23)        3496        input_20[0][0]                   
__________________________________________________________________________________________________
flatten_19 (Flatten)            (None, 1308)         0           embedding_19[0][0]               
__________________________________________________________________________________________________
flatten_20 (Flatten)            (None, 92)           0           embedding_20[0][0]               
__________________________________________________________________________________________________
concatenate_10 (Concatenate)    (None, 1400)         0           flatten_19[0][0]                 
                                                                 flatten_20[0][0]                 
__________________________________________________________________________________________________
dense_28 (Dense)                (None, 34)           47634       concatenate_10[0][0]             
__________________________________________________________________________________________________
dropout_19 (Dropout)            (None, 34)           0           dense_28[0][0]                   
__________________________________________________________________________________________________
dense_29 (Dense)                (None, 106)          3710        dropout_19[0][0]                 
__________________________________________________________________________________________________
dropout_20 (Dropout)            (None, 106)          0           dense_29[0][0]                   
__________________________________________________________________________________________________
dense_30 (Dense)                (None, 8)            856         dropout_20[0][0]                 
==================================================================================================
Total params: 4,036,594
Trainable params: 4,036,594
Non-trainable params: 0
__________________________________________________________________________________________________
None

__________________________________________________________________________________________________
…
	Dashed keys in vocabulary 1622
	One occurrence keys in vocabulary 1622 / 12142
	Embedding
==================================================================================================
	Initialisation = None
	Concatenation = False
	Lemma : 327
	POS = 23 
Deep model(Non compositional)
__________________________________________________________________________________________________
Layer (type)                    Output Shape         Param #     Connected to                     
==================================================================================================
input_21 (InputLayer)           (None, 4)            0                                            
__________________________________________________________________________________________________
input_22 (InputLayer)           (None, 4)            0                                            
__________________________________________________________________________________________________
embedding_21 (Embedding)        (None, 4, 327)       3970434     input_21[0][0]                   
__________________________________________________________________________________________________
embedding_22 (Embedding)        (None, 4, 23)        3496        input_22[0][0]                   
__________________________________________________________________________________________________
flatten_21 (Flatten)            (None, 1308)         0           embedding_21[0][0]               
__________________________________________________________________________________________________
flatten_22 (Flatten)            (None, 92)           0           embedding_22[0][0]               
__________________________________________________________________________________________________
concatenate_11 (Concatenate)    (None, 1400)         0           flatten_21[0][0]                 
                                                                 flatten_22[0][0]                 
__________________________________________________________________________________________________
dense_31 (Dense)                (None, 34)           47634       concatenate_11[0][0]             
__________________________________________________________________________________________________
dropout_21 (Dropout)            (None, 34)           0           dense_31[0][0]                   
__________________________________________________________________________________________________
dense_32 (Dense)                (None, 106)          3710        dropout_21[0][0]                 
__________________________________________________________________________________________________
dropout_22 (Dropout)            (None, 106)          0           dense_32[0][0]                   
__________________________________________________________________________________________________
dense_33 (Dense)                (None, 8)            856         dropout_22[0][0]                 
==================================================================================================
Total params: 4,026,130
Trainable params: 4,026,130
Non-trainable params: 0
__________________________________________________________________________________________________
None

__________________________________________________________________________________________________
…
	Dashed keys in vocabulary 1622
	One occurrence keys in vocabulary 1622 / 12159
	Embedding
==================================================================================================
	Initialisation = None
	Concatenation = False
	Lemma : 327
	POS = 23 
Deep model(Non compositional)
__________________________________________________________________________________________________
Layer (type)                    Output Shape         Param #     Connected to                     
==================================================================================================
input_23 (InputLayer)           (None, 4)            0                                            
__________________________________________________________________________________________________
input_24 (InputLayer)           (None, 4)            0                                            
__________________________________________________________________________________________________
embedding_23 (Embedding)        (None, 4, 327)       3975993     input_23[0][0]                   
__________________________________________________________________________________________________
embedding_24 (Embedding)        (None, 4, 23)        3496        input_24[0][0]                   
__________________________________________________________________________________________________
flatten_23 (Flatten)            (None, 1308)         0           embedding_23[0][0]               
__________________________________________________________________________________________________
flatten_24 (Flatten)            (None, 92)           0           embedding_24[0][0]               
__________________________________________________________________________________________________
concatenate_12 (Concatenate)    (None, 1400)         0           flatten_23[0][0]                 
                                                                 flatten_24[0][0]                 
__________________________________________________________________________________________________
dense_34 (Dense)                (None, 34)           47634       concatenate_12[0][0]             
__________________________________________________________________________________________________
dropout_23 (Dropout)            (None, 34)           0           dense_34[0][0]                   
__________________________________________________________________________________________________
dense_35 (Dense)                (None, 106)          3710        dropout_23[0][0]                 
__________________________________________________________________________________________________
dropout_24 (Dropout)            (None, 106)          0           dense_35[0][0]                   
__________________________________________________________________________________________________
dense_36 (Dense)                (None, 8)            856         dropout_24[0][0]                 
==================================================================================================
Total params: 4,031,689
Trainable params: 4,031,689
Non-trainable params: 0
__________________________________________________________________________________________________
None

__________________________________________________________________________________________________
…
	One occurrence keys in vocabulary 1660 / 15321
	Attention: important lemmas are not in vocbulary	Embedding
==================================================================================================
	Initialisation = None
	Concatenation = False
	Lemma : 327
	POS = 23 
Deep model(Non compositional)
__________________________________________________________________________________________________
Layer (type)                    Output Shape         Param #     Connected to                     
==================================================================================================
input_25 (InputLayer)           (None, 4)            0                                            
__________________________________________________________________________________________________
input_26 (InputLayer)           (None, 4)            0                                            
__________________________________________________________________________________________________
embedding_25 (Embedding)        (None, 4, 327)       5009967     input_25[0][0]                   
__________________________________________________________________________________________________
embedding_26 (Embedding)        (None, 4, 23)        3887        input_26[0][0]                   
__________________________________________________________________________________________________
flatten_25 (Flatten)            (None, 1308)         0           embedding_25[0][0]               
__________________________________________________________________________________________________
flatten_26 (Flatten)            (None, 92)           0           embedding_26[0][0]               
__________________________________________________________________________________________________
concatenate_13 (Concatenate)    (None, 1400)         0           flatten_25[0][0]                 
                                                                 flatten_26[0][0]                 
__________________________________________________________________________________________________
dense_37 (Dense)                (None, 34)           47634       concatenate_13[0][0]             
__________________________________________________________________________________________________
dropout_25 (Dropout)            (None, 34)           0           dense_37[0][0]                   
__________________________________________________________________________________________________
dense_38 (Dense)                (None, 106)          3710        dropout_25[0][0]                 
__________________________________________________________________________________________________
dropout_26 (Dropout)            (None, 106)          0           dense_38[0][0]                   
__________________________________________________________________________________________________
dense_39 (Dense)                (None, 8)            856         dropout_26[0][0]                 
==================================================================================================
Total params: 5,066,054
Trainable params: 5,066,054
Non-trainable params: 0
__________________________________________________________________________________________________
None

__________________________________________________________________________________________________
…
	One occurrence keys in vocabulary 1660 / 15303
	Attention: important lemmas are not in vocbulary	Embedding
==================================================================================================
	Initialisation = None
	Concatenation = False
	Lemma : 327
	POS = 23 
Deep model(Non compositional)
__________________________________________________________________________________________________
Layer (type)                    Output Shape         Param #     Connected to                     
==================================================================================================
input_27 (InputLayer)           (None, 4)            0                                            
__________________________________________________________________________________________________
input_28 (InputLayer)           (None, 4)            0                                            
__________________________________________________________________________________________________
embedding_27 (Embedding)        (None, 4, 327)       5004081     input_27[0][0]                   
__________________________________________________________________________________________________
embedding_28 (Embedding)        (None, 4, 23)        3887        input_28[0][0]                   
__________________________________________________________________________________________________
flatten_27 (Flatten)            (None, 1308)         0           embedding_27[0][0]               
__________________________________________________________________________________________________
flatten_28 (Flatten)            (None, 92)           0           embedding_28[0][0]               
__________________________________________________________________________________________________
concatenate_14 (Concatenate)    (None, 1400)         0           flatten_27[0][0]                 
                                                                 flatten_28[0][0]                 
__________________________________________________________________________________________________
dense_40 (Dense)                (None, 34)           47634       concatenate_14[0][0]             
__________________________________________________________________________________________________
dropout_27 (Dropout)            (None, 34)           0           dense_40[0][0]                   
__________________________________________________________________________________________________
dense_41 (Dense)                (None, 106)          3710        dropout_27[0][0]                 
__________________________________________________________________________________________________
dropout_28 (Dropout)            (None, 106)          0           dense_41[0][0]                   
__________________________________________________________________________________________________
dense_42 (Dense)                (None, 8)            856         dropout_28[0][0]                 
==================================================================================================
Total params: 5,060,168
Trainable params: 5,060,168
Non-trainable params: 0
__________________________________________________________________________________________________
None

__________________________________________________________________________________________________
…
	One occurrence keys in vocabulary 1660 / 15244
	Attention: important lemmas are not in vocbulary	Embedding
==================================================================================================
	Initialisation = None
	Concatenation = False
	Lemma : 327
	POS = 23 
Deep model(Non compositional)
__________________________________________________________________________________________________
Layer (type)                    Output Shape         Param #     Connected to                     
==================================================================================================
input_29 (InputLayer)           (None, 4)            0                                            
__________________________________________________________________________________________________
input_30 (InputLayer)           (None, 4)            0                                            
__________________________________________________________________________________________________
embedding_29 (Embedding)        (None, 4, 327)       4984788     input_29[0][0]                   
__________________________________________________________________________________________________
embedding_30 (Embedding)        (None, 4, 23)        3887        input_30[0][0]                   
__________________________________________________________________________________________________
flatten_29 (Flatten)            (None, 1308)         0           embedding_29[0][0]               
__________________________________________________________________________________________________
flatten_30 (Flatten)            (None, 92)           0           embedding_30[0][0]               
__________________________________________________________________________________________________
concatenate_15 (Concatenate)    (None, 1400)         0           flatten_29[0][0]                 
                                                                 flatten_30[0][0]                 
__________________________________________________________________________________________________
dense_43 (Dense)                (None, 34)           47634       concatenate_15[0][0]             
__________________________________________________________________________________________________
dropout_29 (Dropout)            (None, 34)           0           dense_43[0][0]                   
__________________________________________________________________________________________________
dense_44 (Dense)                (None, 106)          3710        dropout_29[0][0]                 
__________________________________________________________________________________________________
dropout_30 (Dropout)            (None, 106)          0           dense_44[0][0]                   
__________________________________________________________________________________________________
dense_45 (Dense)                (None, 8)            856         dropout_30[0][0]                 
==================================================================================================
Total params: 5,040,875
Trainable params: 5,040,875
Non-trainable params: 0
__________________________________________________________________________________________________
None

__________________________________________________________________________________________________
…
	Dashed keys in vocabulary 1979
	One occurrence keys in vocabulary 1979 / 12529
	Embedding
==================================================================================================
	Initialisation = None
	Concatenation = False
	Lemma : 327
	POS = 23 
Deep model(Non compositional)
__________________________________________________________________________________________________
Layer (type)                    Output Shape         Param #     Connected to                     
==================================================================================================
input_31 (InputLayer)           (None, 4)            0                                            
__________________________________________________________________________________________________
input_32 (InputLayer)           (None, 4)            0                                            
__________________________________________________________________________________________________
embedding_31 (Embedding)        (None, 4, 327)       4096983     input_31[0][0]                   
__________________________________________________________________________________________________
embedding_32 (Embedding)        (None, 4, 23)        2530        input_32[0][0]                   
__________________________________________________________________________________________________
flatten_31 (Flatten)            (None, 1308)         0           embedding_31[0][0]               
__________________________________________________________________________________________________
flatten_32 (Flatten)            (None, 92)           0           embedding_32[0][0]               
__________________________________________________________________________________________________
concatenate_16 (Concatenate)    (None, 1400)         0           flatten_31[0][0]                 
                                                                 flatten_32[0][0]                 
__________________________________________________________________________________________________
dense_46 (Dense)                (None, 34)           47634       concatenate_16[0][0]             
__________________________________________________________________________________________________
dropout_31 (Dropout)            (None, 34)           0           dense_46[0][0]                   
__________________________________________________________________________________________________
dense_47 (Dense)                (None, 106)          3710        dropout_31[0][0]                 
__________________________________________________________________________________________________
dropout_32 (Dropout)            (None, 106)          0           dense_47[0][0]                   
__________________________________________________________________________________________________
dense_48 (Dense)                (None, 8)            856         dropout_32[0][0]                 
==================================================================================================
Total params: 4,151,713
Trainable params: 4,151,713
Non-trainable params: 0
__________________________________________________________________________________________________
None

__________________________________________________________________________________________________
…
	Dashed keys in vocabulary 1979
	One occurrence keys in vocabulary 1979 / 12525
	Embedding
==================================================================================================
	Initialisation = None
	Concatenation = False
	Lemma : 327
	POS = 23 
Deep model(Non compositional)
__________________________________________________________________________________________________
Layer (type)                    Output Shape         Param #     Connected to                     
==================================================================================================
input_33 (InputLayer)           (None, 4)            0                                            
__________________________________________________________________________________________________
input_34 (InputLayer)           (None, 4)            0                                            
__________________________________________________________________________________________________
embedding_33 (Embedding)        (None, 4, 327)       4095675     input_33[0][0]                   
__________________________________________________________________________________________________
embedding_34 (Embedding)        (None, 4, 23)        2530        input_34[0][0]                   
__________________________________________________________________________________________________
flatten_33 (Flatten)            (None, 1308)         0           embedding_33[0][0]               
__________________________________________________________________________________________________
flatten_34 (Flatten)            (None, 92)           0           embedding_34[0][0]               
__________________________________________________________________________________________________
concatenate_17 (Concatenate)    (None, 1400)         0           flatten_33[0][0]                 
                                                                 flatten_34[0][0]                 
__________________________________________________________________________________________________
dense_49 (Dense)                (None, 34)           47634       concatenate_17[0][0]             
__________________________________________________________________________________________________
dropout_33 (Dropout)            (None, 34)           0           dense_49[0][0]                   
__________________________________________________________________________________________________
dense_50 (Dense)                (None, 106)          3710        dropout_33[0][0]                 
__________________________________________________________________________________________________
dropout_34 (Dropout)            (None, 106)          0           dense_50[0][0]                   
__________________________________________________________________________________________________
dense_51 (Dense)                (None, 8)            856         dropout_34[0][0]                 
==================================================================================================
Total params: 4,150,405
Trainable params: 4,150,405
Non-trainable params: 0
__________________________________________________________________________________________________
None

__________________________________________________________________________________________________
…
	Dashed keys in vocabulary 1979
	One occurrence keys in vocabulary 1979 / 12587
	Embedding
==================================================================================================
	Initialisation = None
	Concatenation = False
	Lemma : 327
	POS = 23 
Deep model(Non compositional)
__________________________________________________________________________________________________
Layer (type)                    Output Shape         Param #     Connected to                     
==================================================================================================
input_35 (InputLayer)           (None, 4)            0                                            
__________________________________________________________________________________________________
input_36 (InputLayer)           (None, 4)            0                                            
__________________________________________________________________________________________________
embedding_35 (Embedding)        (None, 4, 327)       4115949     input_35[0][0]                   
__________________________________________________________________________________________________
embedding_36 (Embedding)        (None, 4, 23)        2530        input_36[0][0]                   
__________________________________________________________________________________________________
flatten_35 (Flatten)            (None, 1308)         0           embedding_35[0][0]               
__________________________________________________________________________________________________
flatten_36 (Flatten)            (None, 92)           0           embedding_36[0][0]               
__________________________________________________________________________________________________
concatenate_18 (Concatenate)    (None, 1400)         0           flatten_35[0][0]                 
                                                                 flatten_36[0][0]                 
__________________________________________________________________________________________________
dense_52 (Dense)                (None, 34)           47634       concatenate_18[0][0]             
__________________________________________________________________________________________________
dropout_35 (Dropout)            (None, 34)           0           dense_52[0][0]                   
__________________________________________________________________________________________________
dense_53 (Dense)                (None, 106)          3710        dropout_35[0][0]                 
__________________________________________________________________________________________________
dropout_36 (Dropout)            (None, 106)          0           dense_53[0][0]                   
__________________________________________________________________________________________________
dense_54 (Dense)                (None, 8)            856         dropout_36[0][0]                 
==================================================================================================
Total params: 4,170,679
Trainable params: 4,170,679
Non-trainable params: 0
__________________________________________________________________________________________________
None

__________________________________________________________________________________________________
…
	Dashed keys in vocabulary 1622
	One occurrence keys in vocabulary 1622 / 12174
	Embedding
==================================================================================================
	Initialisation = None
	Concatenation = False
	Lemma : 230
	POS = 183 
Deep model(Non compositional)
__________________________________________________________________________________________________
Layer (type)                    Output Shape         Param #     Connected to                     
==================================================================================================
input_37 (InputLayer)           (None, 4)            0                                            
__________________________________________________________________________________________________
input_38 (InputLayer)           (None, 4)            0                                            
__________________________________________________________________________________________________
embedding_37 (Embedding)        (None, 4, 230)       2800020     input_37[0][0]                   
__________________________________________________________________________________________________
embedding_38 (Embedding)        (None, 4, 183)       27816       input_38[0][0]                   
__________________________________________________________________________________________________
flatten_37 (Flatten)            (None, 920)          0           embedding_37[0][0]               
__________________________________________________________________________________________________
flatten_38 (Flatten)            (None, 732)          0           embedding_38[0][0]               
__________________________________________________________________________________________________
concatenate_19 (Concatenate)    (None, 1652)         0           flatten_37[0][0]                 
                                                                 flatten_38[0][0]                 
__________________________________________________________________________________________________
dense_55 (Dense)                (None, 17)           28101       concatenate_19[0][0]             
__________________________________________________________________________________________________
dropout_37 (Dropout)            (None, 17)           0           dense_55[0][0]                   
__________________________________________________________________________________________________
dense_56 (Dense)                (None, 8)            144         dropout_37[0][0]                 
__________________________________________________________________________________________________
dropout_38 (Dropout)            (None, 8)            0           dense_56[0][0]                   
__________________________________________________________________________________________________
dense_57 (Dense)                (None, 8)            72          dropout_38[0][0]                 
==================================================================================================
Total params: 2,856,153
Trainable params: 2,856,153
Non-trainable params: 0
__________________________________________________________________________________________________
None

__________________________________________________________________________________________________
…
	Dashed keys in vocabulary 1622
	One occurrence keys in vocabulary 1622 / 12142
	Embedding
==================================================================================================
	Initialisation = None
	Concatenation = False
	Lemma : 230
	POS = 183 
Deep model(Non compositional)
__________________________________________________________________________________________________
Layer (type)                    Output Shape         Param #     Connected to                     
==================================================================================================
input_39 (InputLayer)           (None, 4)            0                                            
__________________________________________________________________________________________________
input_40 (InputLayer)           (None, 4)            0                                            
__________________________________________________________________________________________________
embedding_39 (Embedding)        (None, 4, 230)       2792660     input_39[0][0]                   
__________________________________________________________________________________________________
embedding_40 (Embedding)        (None, 4, 183)       27816       input_40[0][0]                   
__________________________________________________________________________________________________
flatten_39 (Flatten)            (None, 920)          0           embedding_39[0][0]               
__________________________________________________________________________________________________
flatten_40 (Flatten)            (None, 732)          0           embedding_40[0][0]               
__________________________________________________________________________________________________
concatenate_20 (Concatenate)    (None, 1652)         0           flatten_39[0][0]                 
                                                                 flatten_40[0][0]                 
__________________________________________________________________________________________________
dense_58 (Dense)                (None, 17)           28101       concatenate_20[0][0]             
__________________________________________________________________________________________________
dropout_39 (Dropout)            (None, 17)           0           dense_58[0][0]                   
__________________________________________________________________________________________________
dense_59 (Dense)                (None, 8)            144         dropout_39[0][0]                 
__________________________________________________________________________________________________
dropout_40 (Dropout)            (None, 8)            0           dense_59[0][0]                   
__________________________________________________________________________________________________
dense_60 (Dense)                (None, 8)            72          dropout_40[0][0]                 
==================================================================================================
Total params: 2,848,793
Trainable params: 2,848,793
Non-trainable params: 0
__________________________________________________________________________________________________
None

__________________________________________________________________________________________________
…
	Dashed keys in vocabulary 1622
	One occurrence keys in vocabulary 1622 / 12159
	Embedding
==================================================================================================
	Initialisation = None
	Concatenation = False
	Lemma : 230
	POS = 183 
Deep model(Non compositional)
__________________________________________________________________________________________________
Layer (type)                    Output Shape         Param #     Connected to                     
==================================================================================================
input_41 (InputLayer)           (None, 4)            0                                            
__________________________________________________________________________________________________
input_42 (InputLayer)           (None, 4)            0                                            
__________________________________________________________________________________________________
embedding_41 (Embedding)        (None, 4, 230)       2796570     input_41[0][0]                   
__________________________________________________________________________________________________
embedding_42 (Embedding)        (None, 4, 183)       27816       input_42[0][0]                   
__________________________________________________________________________________________________
flatten_41 (Flatten)            (None, 920)          0           embedding_41[0][0]               
__________________________________________________________________________________________________
flatten_42 (Flatten)            (None, 732)          0           embedding_42[0][0]               
__________________________________________________________________________________________________
concatenate_21 (Concatenate)    (None, 1652)         0           flatten_41[0][0]                 
                                                                 flatten_42[0][0]                 
__________________________________________________________________________________________________
dense_61 (Dense)                (None, 17)           28101       concatenate_21[0][0]             
__________________________________________________________________________________________________
dropout_41 (Dropout)            (None, 17)           0           dense_61[0][0]                   
__________________________________________________________________________________________________
dense_62 (Dense)                (None, 8)            144         dropout_41[0][0]                 
__________________________________________________________________________________________________
dropout_42 (Dropout)            (None, 8)            0           dense_62[0][0]                   
__________________________________________________________________________________________________
dense_63 (Dense)                (None, 8)            72          dropout_42[0][0]                 
==================================================================================================
Total params: 2,852,703
Trainable params: 2,852,703
Non-trainable params: 0
__________________________________________________________________________________________________
None

__________________________________________________________________________________________________
…
	One occurrence keys in vocabulary 1660 / 15321
	Attention: important lemmas are not in vocbulary	Embedding
==================================================================================================
	Initialisation = None
	Concatenation = False
	Lemma : 230
	POS = 183 
Deep model(Non compositional)
__________________________________________________________________________________________________
Layer (type)                    Output Shape         Param #     Connected to                     
==================================================================================================
input_43 (InputLayer)           (None, 4)            0                                            
__________________________________________________________________________________________________
input_44 (InputLayer)           (None, 4)            0                                            
__________________________________________________________________________________________________
embedding_43 (Embedding)        (None, 4, 230)       3523830     input_43[0][0]                   
__________________________________________________________________________________________________
embedding_44 (Embedding)        (None, 4, 183)       30927       input_44[0][0]                   
__________________________________________________________________________________________________
flatten_43 (Flatten)            (None, 920)          0           embedding_43[0][0]               
__________________________________________________________________________________________________
flatten_44 (Flatten)            (None, 732)          0           embedding_44[0][0]               
__________________________________________________________________________________________________
concatenate_22 (Concatenate)    (None, 1652)         0           flatten_43[0][0]                 
                                                                 flatten_44[0][0]                 
__________________________________________________________________________________________________
dense_64 (Dense)                (None, 17)           28101       concatenate_22[0][0]             
__________________________________________________________________________________________________
dropout_43 (Dropout)            (None, 17)           0           dense_64[0][0]                   
__________________________________________________________________________________________________
dense_65 (Dense)                (None, 8)            144         dropout_43[0][0]                 
__________________________________________________________________________________________________
dropout_44 (Dropout)            (None, 8)            0           dense_65[0][0]                   
__________________________________________________________________________________________________
dense_66 (Dense)                (None, 8)            72          dropout_44[0][0]                 
==================================================================================================
Total params: 3,583,074
Trainable params: 3,583,074
Non-trainable params: 0
__________________________________________________________________________________________________
None

__________________________________________________________________________________________________
…
	One occurrence keys in vocabulary 1660 / 15303
	Attention: important lemmas are not in vocbulary	Embedding
==================================================================================================
	Initialisation = None
	Concatenation = False
	Lemma : 230
	POS = 183 
Deep model(Non compositional)
__________________________________________________________________________________________________
Layer (type)                    Output Shape         Param #     Connected to                     
==================================================================================================
input_45 (InputLayer)           (None, 4)            0                                            
__________________________________________________________________________________________________
input_46 (InputLayer)           (None, 4)            0                                            
__________________________________________________________________________________________________
embedding_45 (Embedding)        (None, 4, 230)       3519690     input_45[0][0]                   
__________________________________________________________________________________________________
embedding_46 (Embedding)        (None, 4, 183)       30927       input_46[0][0]                   
__________________________________________________________________________________________________
flatten_45 (Flatten)            (None, 920)          0           embedding_45[0][0]               
__________________________________________________________________________________________________
flatten_46 (Flatten)            (None, 732)          0           embedding_46[0][0]               
__________________________________________________________________________________________________
concatenate_23 (Concatenate)    (None, 1652)         0           flatten_45[0][0]                 
                                                                 flatten_46[0][0]                 
__________________________________________________________________________________________________
dense_67 (Dense)                (None, 17)           28101       concatenate_23[0][0]             
__________________________________________________________________________________________________
dropout_45 (Dropout)            (None, 17)           0           dense_67[0][0]                   
__________________________________________________________________________________________________
dense_68 (Dense)                (None, 8)            144         dropout_45[0][0]                 
__________________________________________________________________________________________________
dropout_46 (Dropout)            (None, 8)            0           dense_68[0][0]                   
__________________________________________________________________________________________________
dense_69 (Dense)                (None, 8)            72          dropout_46[0][0]                 
==================================================================================================
Total params: 3,578,934
Trainable params: 3,578,934
Non-trainable params: 0
__________________________________________________________________________________________________
None

__________________________________________________________________________________________________
…
	One occurrence keys in vocabulary 1660 / 15244
	Attention: important lemmas are not in vocbulary	Embedding
==================================================================================================
	Initialisation = None
	Concatenation = False
	Lemma : 230
	POS = 183 
Deep model(Non compositional)
__________________________________________________________________________________________________
Layer (type)                    Output Shape         Param #     Connected to                     
==================================================================================================
input_47 (InputLayer)           (None, 4)            0                                            
__________________________________________________________________________________________________
input_48 (InputLayer)           (None, 4)            0                                            
__________________________________________________________________________________________________
embedding_47 (Embedding)        (None, 4, 230)       3506120     input_47[0][0]                   
__________________________________________________________________________________________________
embedding_48 (Embedding)        (None, 4, 183)       30927       input_48[0][0]                   
__________________________________________________________________________________________________
flatten_47 (Flatten)            (None, 920)          0           embedding_47[0][0]               
__________________________________________________________________________________________________
flatten_48 (Flatten)            (None, 732)          0           embedding_48[0][0]               
__________________________________________________________________________________________________
concatenate_24 (Concatenate)    (None, 1652)         0           flatten_47[0][0]                 
                                                                 flatten_48[0][0]                 
__________________________________________________________________________________________________
dense_70 (Dense)                (None, 17)           28101       concatenate_24[0][0]             
__________________________________________________________________________________________________
dropout_47 (Dropout)            (None, 17)           0           dense_70[0][0]                   
__________________________________________________________________________________________________
dense_71 (Dense)                (None, 8)            144         dropout_47[0][0]                 
__________________________________________________________________________________________________
dropout_48 (Dropout)            (None, 8)            0           dense_71[0][0]                   
__________________________________________________________________________________________________
dense_72 (Dense)                (None, 8)            72          dropout_48[0][0]                 
==================================================================================================
Total params: 3,565,364
Trainable params: 3,565,364
Non-trainable params: 0
__________________________________________________________________________________________________
None

__________________________________________________________________________________________________
…
	Dashed keys in vocabulary 1979
	One occurrence keys in vocabulary 1979 / 12529
	Embedding
==================================================================================================
	Initialisation = None
	Concatenation = False
	Lemma : 230
	POS = 183 
Deep model(Non compositional)
__________________________________________________________________________________________________
Layer (type)                    Output Shape         Param #     Connected to                     
==================================================================================================
input_49 (InputLayer)           (None, 4)            0                                            
__________________________________________________________________________________________________
input_50 (InputLayer)           (None, 4)            0                                            
__________________________________________________________________________________________________
embedding_49 (Embedding)        (None, 4, 230)       2881670     input_49[0][0]                   
__________________________________________________________________________________________________
embedding_50 (Embedding)        (None, 4, 183)       20130       input_50[0][0]                   
__________________________________________________________________________________________________
flatten_49 (Flatten)            (None, 920)          0           embedding_49[0][0]               
__________________________________________________________________________________________________
flatten_50 (Flatten)            (None, 732)          0           embedding_50[0][0]               
__________________________________________________________________________________________________
concatenate_25 (Concatenate)    (None, 1652)         0           flatten_49[0][0]                 
                                                                 flatten_50[0][0]                 
__________________________________________________________________________________________________
dense_73 (Dense)                (None, 17)           28101       concatenate_25[0][0]             
__________________________________________________________________________________________________
dropout_49 (Dropout)            (None, 17)           0           dense_73[0][0]                   
__________________________________________________________________________________________________
dense_74 (Dense)                (None, 8)            144         dropout_49[0][0]                 
__________________________________________________________________________________________________
dropout_50 (Dropout)            (None, 8)            0           dense_74[0][0]                   
__________________________________________________________________________________________________
dense_75 (Dense)                (None, 8)            72          dropout_50[0][0]                 
==================================================================================================
Total params: 2,930,117
Trainable params: 2,930,117
Non-trainable params: 0
__________________________________________________________________________________________________
None

__________________________________________________________________________________________________
…
	Dashed keys in vocabulary 1979
	One occurrence keys in vocabulary 1979 / 12525
	Embedding
==================================================================================================
	Initialisation = None
	Concatenation = False
	Lemma : 230
	POS = 183 
Deep model(Non compositional)
__________________________________________________________________________________________________
Layer (type)                    Output Shape         Param #     Connected to                     
==================================================================================================
input_51 (InputLayer)           (None, 4)            0                                            
__________________________________________________________________________________________________
input_52 (InputLayer)           (None, 4)            0                                            
__________________________________________________________________________________________________
embedding_51 (Embedding)        (None, 4, 230)       2880750     input_51[0][0]                   
__________________________________________________________________________________________________
embedding_52 (Embedding)        (None, 4, 183)       20130       input_52[0][0]                   
__________________________________________________________________________________________________
flatten_51 (Flatten)            (None, 920)          0           embedding_51[0][0]               
__________________________________________________________________________________________________
flatten_52 (Flatten)            (None, 732)          0           embedding_52[0][0]               
__________________________________________________________________________________________________
concatenate_26 (Concatenate)    (None, 1652)         0           flatten_51[0][0]                 
                                                                 flatten_52[0][0]                 
__________________________________________________________________________________________________
dense_76 (Dense)                (None, 17)           28101       concatenate_26[0][0]             
__________________________________________________________________________________________________
dropout_51 (Dropout)            (None, 17)           0           dense_76[0][0]                   
__________________________________________________________________________________________________
dense_77 (Dense)                (None, 8)            144         dropout_51[0][0]                 
__________________________________________________________________________________________________
dropout_52 (Dropout)            (None, 8)            0           dense_77[0][0]                   
__________________________________________________________________________________________________
dense_78 (Dense)                (None, 8)            72          dropout_52[0][0]                 
==================================================================================================
Total params: 2,929,197
Trainable params: 2,929,197
Non-trainable params: 0
__________________________________________________________________________________________________
None

__________________________________________________________________________________________________
…
	Dashed keys in vocabulary 1979
	One occurrence keys in vocabulary 1979 / 12587
	Embedding
==================================================================================================
	Initialisation = None
	Concatenation = False
	Lemma : 230
	POS = 183 
Deep model(Non compositional)
__________________________________________________________________________________________________
Layer (type)                    Output Shape         Param #     Connected to                     
==================================================================================================
input_53 (InputLayer)           (None, 4)            0                                            
__________________________________________________________________________________________________
input_54 (InputLayer)           (None, 4)            0                                            
__________________________________________________________________________________________________
embedding_53 (Embedding)        (None, 4, 230)       2895010     input_53[0][0]                   
__________________________________________________________________________________________________
embedding_54 (Embedding)        (None, 4, 183)       20130       input_54[0][0]                   
__________________________________________________________________________________________________
flatten_53 (Flatten)            (None, 920)          0           embedding_53[0][0]               
__________________________________________________________________________________________________
flatten_54 (Flatten)            (None, 732)          0           embedding_54[0][0]               
__________________________________________________________________________________________________
concatenate_27 (Concatenate)    (None, 1652)         0           flatten_53[0][0]                 
                                                                 flatten_54[0][0]                 
__________________________________________________________________________________________________
dense_79 (Dense)                (None, 17)           28101       concatenate_27[0][0]             
__________________________________________________________________________________________________
dropout_53 (Dropout)            (None, 17)           0           dense_79[0][0]                   
__________________________________________________________________________________________________
dense_80 (Dense)                (None, 8)            144         dropout_53[0][0]                 
__________________________________________________________________________________________________
dropout_54 (Dropout)            (None, 8)            0           dense_80[0][0]                   
__________________________________________________________________________________________________
dense_81 (Dense)                (None, 8)            72          dropout_54[0][0]                 
==================================================================================================
Total params: 2,943,457
Trainable params: 2,943,457
Non-trainable params: 0
__________________________________________________________________________________________________
None

__________________________________________________________________________________________________
…
	Dashed keys in vocabulary 1622
	One occurrence keys in vocabulary 1622 / 12174
	Embedding
==================================================================================================
	Initialisation = None
	Concatenation = False
	Lemma : 77
	POS = 45 
Deep model(Non compositional)
__________________________________________________________________________________________________
Layer (type)                    Output Shape         Param #     Connected to                     
==================================================================================================
input_55 (InputLayer)           (None, 4)            0                                            
__________________________________________________________________________________________________
input_56 (InputLayer)           (None, 4)            0                                            
__________________________________________________________________________________________________
embedding_55 (Embedding)        (None, 4, 77)        937398      input_55[0][0]                   
__________________________________________________________________________________________________
embedding_56 (Embedding)        (None, 4, 45)        6840        input_56[0][0]                   
__________________________________________________________________________________________________
flatten_55 (Flatten)            (None, 308)          0           embedding_55[0][0]               
__________________________________________________________________________________________________
flatten_56 (Flatten)            (None, 180)          0           embedding_56[0][0]               
__________________________________________________________________________________________________
concatenate_28 (Concatenate)    (None, 488)          0           flatten_55[0][0]                 
                                                                 flatten_56[0][0]                 
__________________________________________________________________________________________________
dense_82 (Dense)                (None, 143)          69927       concatenate_28[0][0]             
__________________________________________________________________________________________________
dropout_55 (Dropout)            (None, 143)          0           dense_82[0][0]                   
__________________________________________________________________________________________________
dense_83 (Dense)                (None, 56)           8064        dropout_55[0][0]                 
__________________________________________________________________________________________________
dropout_56 (Dropout)            (None, 56)           0           dense_83[0][0]                   
__________________________________________________________________________________________________
dense_84 (Dense)                (None, 8)            456         dropout_56[0][0]                 
==================================================================================================
Total params: 1,022,685
Trainable params: 1,022,685
Non-trainable params: 0
__________________________________________________________________________________________________
None

__________________________________________________________________________________________________
…
	Dashed keys in vocabulary 1622
	One occurrence keys in vocabulary 1622 / 12142
	Embedding
==================================================================================================
	Initialisation = None
	Concatenation = False
	Lemma : 77
	POS = 45 
Deep model(Non compositional)
__________________________________________________________________________________________________
Layer (type)                    Output Shape         Param #     Connected to                     
==================================================================================================
input_57 (InputLayer)           (None, 4)            0                                            
__________________________________________________________________________________________________
input_58 (InputLayer)           (None, 4)            0                                            
__________________________________________________________________________________________________
embedding_57 (Embedding)        (None, 4, 77)        934934      input_57[0][0]                   
__________________________________________________________________________________________________
embedding_58 (Embedding)        (None, 4, 45)        6840        input_58[0][0]                   
__________________________________________________________________________________________________
flatten_57 (Flatten)            (None, 308)          0           embedding_57[0][0]               
__________________________________________________________________________________________________
flatten_58 (Flatten)            (None, 180)          0           embedding_58[0][0]               
__________________________________________________________________________________________________
concatenate_29 (Concatenate)    (None, 488)          0           flatten_57[0][0]                 
                                                                 flatten_58[0][0]                 
__________________________________________________________________________________________________
dense_85 (Dense)                (None, 143)          69927       concatenate_29[0][0]             
__________________________________________________________________________________________________
dropout_57 (Dropout)            (None, 143)          0           dense_85[0][0]                   
__________________________________________________________________________________________________
dense_86 (Dense)                (None, 56)           8064        dropout_57[0][0]                 
__________________________________________________________________________________________________
dropout_58 (Dropout)            (None, 56)           0           dense_86[0][0]                   
__________________________________________________________________________________________________
dense_87 (Dense)                (None, 8)            456         dropout_58[0][0]                 
==================================================================================================
Total params: 1,020,221
Trainable params: 1,020,221
Non-trainable params: 0
__________________________________________________________________________________________________
None

__________________________________________________________________________________________________
…
	Dashed keys in vocabulary 1622
	One occurrence keys in vocabulary 1622 / 12159
	Embedding
==================================================================================================
	Initialisation = None
	Concatenation = False
	Lemma : 77
	POS = 45 
Deep model(Non compositional)
__________________________________________________________________________________________________
Layer (type)                    Output Shape         Param #     Connected to                     
==================================================================================================
input_59 (InputLayer)           (None, 4)            0                                            
__________________________________________________________________________________________________
input_60 (InputLayer)           (None, 4)            0                                            
__________________________________________________________________________________________________
embedding_59 (Embedding)        (None, 4, 77)        936243      input_59[0][0]                   
__________________________________________________________________________________________________
embedding_60 (Embedding)        (None, 4, 45)        6840        input_60[0][0]                   
__________________________________________________________________________________________________
flatten_59 (Flatten)            (None, 308)          0           embedding_59[0][0]               
__________________________________________________________________________________________________
flatten_60 (Flatten)            (None, 180)          0           embedding_60[0][0]               
__________________________________________________________________________________________________
concatenate_30 (Concatenate)    (None, 488)          0           flatten_59[0][0]                 
                                                                 flatten_60[0][0]                 
__________________________________________________________________________________________________
dense_88 (Dense)                (None, 143)          69927       concatenate_30[0][0]             
__________________________________________________________________________________________________
dropout_59 (Dropout)            (None, 143)          0           dense_88[0][0]                   
__________________________________________________________________________________________________
dense_89 (Dense)                (None, 56)           8064        dropout_59[0][0]                 
__________________________________________________________________________________________________
dropout_60 (Dropout)            (None, 56)           0           dense_89[0][0]                   
__________________________________________________________________________________________________
dense_90 (Dense)                (None, 8)            456         dropout_60[0][0]                 
==================================================================================================
Total params: 1,021,530
Trainable params: 1,021,530
Non-trainable params: 0
__________________________________________________________________________________________________
None

__________________________________________________________________________________________________
…
	One occurrence keys in vocabulary 1660 / 15321
	Attention: important lemmas are not in vocbulary	Embedding
==================================================================================================
	Initialisation = None
	Concatenation = False
	Lemma : 77
	POS = 45 
Deep model(Non compositional)
__________________________________________________________________________________________________
Layer (type)                    Output Shape         Param #     Connected to                     
==================================================================================================
input_61 (InputLayer)           (None, 4)            0                                            
__________________________________________________________________________________________________
input_62 (InputLayer)           (None, 4)            0                                            
__________________________________________________________________________________________________
embedding_61 (Embedding)        (None, 4, 77)        1179717     input_61[0][0]                   
__________________________________________________________________________________________________
embedding_62 (Embedding)        (None, 4, 45)        7605        input_62[0][0]                   
__________________________________________________________________________________________________
flatten_61 (Flatten)            (None, 308)          0           embedding_61[0][0]               
__________________________________________________________________________________________________
flatten_62 (Flatten)            (None, 180)          0           embedding_62[0][0]               
__________________________________________________________________________________________________
concatenate_31 (Concatenate)    (None, 488)          0           flatten_61[0][0]                 
                                                                 flatten_62[0][0]                 
__________________________________________________________________________________________________
dense_91 (Dense)                (None, 143)          69927       concatenate_31[0][0]             
__________________________________________________________________________________________________
dropout_61 (Dropout)            (None, 143)          0           dense_91[0][0]                   
__________________________________________________________________________________________________
dense_92 (Dense)                (None, 56)           8064        dropout_61[0][0]                 
__________________________________________________________________________________________________
dropout_62 (Dropout)            (None, 56)           0           dense_92[0][0]                   
__________________________________________________________________________________________________
dense_93 (Dense)                (None, 8)            456         dropout_62[0][0]                 
==================================================================================================
Total params: 1,265,769
Trainable params: 1,265,769
Non-trainable params: 0
__________________________________________________________________________________________________
None

__________________________________________________________________________________________________
…
	One occurrence keys in vocabulary 1660 / 15303
	Attention: important lemmas are not in vocbulary	Embedding
==================================================================================================
	Initialisation = None
	Concatenation = False
	Lemma : 77
	POS = 45 
Deep model(Non compositional)
__________________________________________________________________________________________________
Layer (type)                    Output Shape         Param #     Connected to                     
==================================================================================================
input_63 (InputLayer)           (None, 4)            0                                            
__________________________________________________________________________________________________
input_64 (InputLayer)           (None, 4)            0                                            
__________________________________________________________________________________________________
embedding_63 (Embedding)        (None, 4, 77)        1178331     input_63[0][0]                   
__________________________________________________________________________________________________
embedding_64 (Embedding)        (None, 4, 45)        7605        input_64[0][0]                   
__________________________________________________________________________________________________
flatten_63 (Flatten)            (None, 308)          0           embedding_63[0][0]               
__________________________________________________________________________________________________
flatten_64 (Flatten)            (None, 180)          0           embedding_64[0][0]               
__________________________________________________________________________________________________
concatenate_32 (Concatenate)    (None, 488)          0           flatten_63[0][0]                 
                                                                 flatten_64[0][0]                 
__________________________________________________________________________________________________
dense_94 (Dense)                (None, 143)          69927       concatenate_32[0][0]             
__________________________________________________________________________________________________
dropout_63 (Dropout)            (None, 143)          0           dense_94[0][0]                   
__________________________________________________________________________________________________
dense_95 (Dense)                (None, 56)           8064        dropout_63[0][0]                 
__________________________________________________________________________________________________
dropout_64 (Dropout)            (None, 56)           0           dense_95[0][0]                   
__________________________________________________________________________________________________
dense_96 (Dense)                (None, 8)            456         dropout_64[0][0]                 
==================================================================================================
Total params: 1,264,383
Trainable params: 1,264,383
Non-trainable params: 0
__________________________________________________________________________________________________
None

__________________________________________________________________________________________________
…
	One occurrence keys in vocabulary 1660 / 15244
	Attention: important lemmas are not in vocbulary	Embedding
==================================================================================================
	Initialisation = None
	Concatenation = False
	Lemma : 77
	POS = 45 
Deep model(Non compositional)
__________________________________________________________________________________________________
Layer (type)                    Output Shape         Param #     Connected to                     
==================================================================================================
input_65 (InputLayer)           (None, 4)            0                                            
__________________________________________________________________________________________________
input_66 (InputLayer)           (None, 4)            0                                            
__________________________________________________________________________________________________
embedding_65 (Embedding)        (None, 4, 77)        1173788     input_65[0][0]                   
__________________________________________________________________________________________________
embedding_66 (Embedding)        (None, 4, 45)        7605        input_66[0][0]                   
__________________________________________________________________________________________________
flatten_65 (Flatten)            (None, 308)          0           embedding_65[0][0]               
__________________________________________________________________________________________________
flatten_66 (Flatten)            (None, 180)          0           embedding_66[0][0]               
__________________________________________________________________________________________________
concatenate_33 (Concatenate)    (None, 488)          0           flatten_65[0][0]                 
                                                                 flatten_66[0][0]                 
__________________________________________________________________________________________________
dense_97 (Dense)                (None, 143)          69927       concatenate_33[0][0]             
__________________________________________________________________________________________________
dropout_65 (Dropout)            (None, 143)          0           dense_97[0][0]                   
__________________________________________________________________________________________________
dense_98 (Dense)                (None, 56)           8064        dropout_65[0][0]                 
__________________________________________________________________________________________________
dropout_66 (Dropout)            (None, 56)           0           dense_98[0][0]                   
__________________________________________________________________________________________________
dense_99 (Dense)                (None, 8)            456         dropout_66[0][0]                 
==================================================================================================
Total params: 1,259,840
Trainable params: 1,259,840
Non-trainable params: 0
__________________________________________________________________________________________________
None

__________________________________________________________________________________________________
…
	Dashed keys in vocabulary 1979
	One occurrence keys in vocabulary 1979 / 12529
	Embedding
==================================================================================================
	Initialisation = None
	Concatenation = False
	Lemma : 77
	POS = 45 
Deep model(Non compositional)
__________________________________________________________________________________________________
Layer (type)                    Output Shape         Param #     Connected to                     
==================================================================================================
input_67 (InputLayer)           (None, 4)            0                                            
__________________________________________________________________________________________________
input_68 (InputLayer)           (None, 4)            0                                            
__________________________________________________________________________________________________
embedding_67 (Embedding)        (None, 4, 77)        964733      input_67[0][0]                   
__________________________________________________________________________________________________
embedding_68 (Embedding)        (None, 4, 45)        4950        input_68[0][0]                   
__________________________________________________________________________________________________
flatten_67 (Flatten)            (None, 308)          0           embedding_67[0][0]               
__________________________________________________________________________________________________
flatten_68 (Flatten)            (None, 180)          0           embedding_68[0][0]               
__________________________________________________________________________________________________
concatenate_34 (Concatenate)    (None, 488)          0           flatten_67[0][0]                 
                                                                 flatten_68[0][0]                 
__________________________________________________________________________________________________
dense_100 (Dense)               (None, 143)          69927       concatenate_34[0][0]             
__________________________________________________________________________________________________
dropout_67 (Dropout)            (None, 143)          0           dense_100[0][0]                  
__________________________________________________________________________________________________
dense_101 (Dense)               (None, 56)           8064        dropout_67[0][0]                 
__________________________________________________________________________________________________
dropout_68 (Dropout)            (None, 56)           0           dense_101[0][0]                  
__________________________________________________________________________________________________
dense_102 (Dense)               (None, 8)            456         dropout_68[0][0]                 
==================================================================================================
Total params: 1,048,130
Trainable params: 1,048,130
Non-trainable params: 0
__________________________________________________________________________________________________
None

__________________________________________________________________________________________________
…
	Dashed keys in vocabulary 1979
	One occurrence keys in vocabulary 1979 / 12525
	Embedding
==================================================================================================
	Initialisation = None
	Concatenation = False
	Lemma : 77
	POS = 45 
Deep model(Non compositional)
__________________________________________________________________________________________________
Layer (type)                    Output Shape         Param #     Connected to                     
==================================================================================================
input_69 (InputLayer)           (None, 4)            0                                            
__________________________________________________________________________________________________
input_70 (InputLayer)           (None, 4)            0                                            
__________________________________________________________________________________________________
embedding_69 (Embedding)        (None, 4, 77)        964425      input_69[0][0]                   
__________________________________________________________________________________________________
embedding_70 (Embedding)        (None, 4, 45)        4950        input_70[0][0]                   
__________________________________________________________________________________________________
flatten_69 (Flatten)            (None, 308)          0           embedding_69[0][0]               
__________________________________________________________________________________________________
flatten_70 (Flatten)            (None, 180)          0           embedding_70[0][0]               
__________________________________________________________________________________________________
concatenate_35 (Concatenate)    (None, 488)          0           flatten_69[0][0]                 
                                                                 flatten_70[0][0]                 
__________________________________________________________________________________________________
dense_103 (Dense)               (None, 143)          69927       concatenate_35[0][0]             
__________________________________________________________________________________________________
dropout_69 (Dropout)            (None, 143)          0           dense_103[0][0]                  
__________________________________________________________________________________________________
dense_104 (Dense)               (None, 56)           8064        dropout_69[0][0]                 
__________________________________________________________________________________________________
dropout_70 (Dropout)            (None, 56)           0           dense_104[0][0]                  
__________________________________________________________________________________________________
dense_105 (Dense)               (None, 8)            456         dropout_70[0][0]                 
==================================================================================================
Total params: 1,047,822
Trainable params: 1,047,822
Non-trainable params: 0
__________________________________________________________________________________________________
None

__________________________________________________________________________________________________
…
	Dashed keys in vocabulary 1979
	One occurrence keys in vocabulary 1979 / 12587
	Embedding
==================================================================================================
	Initialisation = None
	Concatenation = False
	Lemma : 77
	POS = 45 
Deep model(Non compositional)
__________________________________________________________________________________________________
Layer (type)                    Output Shape         Param #     Connected to                     
==================================================================================================
input_71 (InputLayer)           (None, 4)            0                                            
__________________________________________________________________________________________________
input_72 (InputLayer)           (None, 4)            0                                            
__________________________________________________________________________________________________
embedding_71 (Embedding)        (None, 4, 77)        969199      input_71[0][0]                   
__________________________________________________________________________________________________
embedding_72 (Embedding)        (None, 4, 45)        4950        input_72[0][0]                   
__________________________________________________________________________________________________
flatten_71 (Flatten)            (None, 308)          0           embedding_71[0][0]               
__________________________________________________________________________________________________
flatten_72 (Flatten)            (None, 180)          0           embedding_72[0][0]               
__________________________________________________________________________________________________
concatenate_36 (Concatenate)    (None, 488)          0           flatten_71[0][0]                 
                                                                 flatten_72[0][0]                 
__________________________________________________________________________________________________
dense_106 (Dense)               (None, 143)          69927       concatenate_36[0][0]             
__________________________________________________________________________________________________
dropout_71 (Dropout)            (None, 143)          0           dense_106[0][0]                  
__________________________________________________________________________________________________
dense_107 (Dense)               (None, 56)           8064        dropout_71[0][0]                 
__________________________________________________________________________________________________
dropout_72 (Dropout)            (None, 56)           0           dense_107[0][0]                  
__________________________________________________________________________________________________
dense_108 (Dense)               (None, 8)            456         dropout_72[0][0]                 
==================================================================================================
Total params: 1,052,596
Trainable params: 1,052,596
Non-trainable params: 0
__________________________________________________________________________________________________
None

__________________________________________________________________________________________________
…
	Dashed keys in vocabulary 1622
	One occurrence keys in vocabulary 1622 / 12174
	Embedding
==================================================================================================
	Initialisation = None
	Concatenation = False
	Lemma : 97
	POS = 25 
Deep model(Non compositional)
__________________________________________________________________________________________________
Layer (type)                    Output Shape         Param #     Connected to                     
==================================================================================================
input_73 (InputLayer)           (None, 4)            0                                            
__________________________________________________________________________________________________
input_74 (InputLayer)           (None, 4)            0                                            
__________________________________________________________________________________________________
embedding_73 (Embedding)        (None, 4, 97)        1180878     input_73[0][0]                   
__________________________________________________________________________________________________
embedding_74 (Embedding)        (None, 4, 25)        3800        input_74[0][0]                   
__________________________________________________________________________________________________
flatten_73 (Flatten)            (None, 388)          0           embedding_73[0][0]               
__________________________________________________________________________________________________
flatten_74 (Flatten)            (None, 100)          0           embedding_74[0][0]               
__________________________________________________________________________________________________
concatenate_37 (Concatenate)    (None, 488)          0           flatten_73[0][0]                 
                                                                 flatten_74[0][0]                 
__________________________________________________________________________________________________
dense_109 (Dense)               (None, 36)           17604       concatenate_37[0][0]             
__________________________________________________________________________________________________
dropout_73 (Dropout)            (None, 36)           0           dense_109[0][0]                  
__________________________________________________________________________________________________
dense_110 (Dense)               (None, 25)           925         dropout_73[0][0]                 
__________________________________________________________________________________________________
dropout_74 (Dropout)            (None, 25)           0           dense_110[0][0]                  
__________________________________________________________________________________________________
dense_111 (Dense)               (None, 8)            208         dropout_74[0][0]                 
==================================================================================================
Total params: 1,203,415
Trainable params: 1,203,415
Non-trainable params: 0
__________________________________________________________________________________________________
None

__________________________________________________________________________________________________
…
	Dashed keys in vocabulary 1622
	One occurrence keys in vocabulary 1622 / 12142
	Embedding
==================================================================================================
	Initialisation = None
	Concatenation = False
	Lemma : 97
	POS = 25 
Deep model(Non compositional)
__________________________________________________________________________________________________
Layer (type)                    Output Shape         Param #     Connected to                     
==================================================================================================
input_75 (InputLayer)           (None, 4)            0                                            
__________________________________________________________________________________________________
input_76 (InputLayer)           (None, 4)            0                                            
__________________________________________________________________________________________________
embedding_75 (Embedding)        (None, 4, 97)        1177774     input_75[0][0]                   
__________________________________________________________________________________________________
embedding_76 (Embedding)        (None, 4, 25)        3800        input_76[0][0]                   
__________________________________________________________________________________________________
flatten_75 (Flatten)            (None, 388)          0           embedding_75[0][0]               
__________________________________________________________________________________________________
flatten_76 (Flatten)            (None, 100)          0           embedding_76[0][0]               
__________________________________________________________________________________________________
concatenate_38 (Concatenate)    (None, 488)          0           flatten_75[0][0]                 
                                                                 flatten_76[0][0]                 
__________________________________________________________________________________________________
dense_112 (Dense)               (None, 36)           17604       concatenate_38[0][0]             
__________________________________________________________________________________________________
dropout_75 (Dropout)            (None, 36)           0           dense_112[0][0]                  
__________________________________________________________________________________________________
dense_113 (Dense)               (None, 25)           925         dropout_75[0][0]                 
__________________________________________________________________________________________________
dropout_76 (Dropout)            (None, 25)           0           dense_113[0][0]                  
__________________________________________________________________________________________________
dense_114 (Dense)               (None, 8)            208         dropout_76[0][0]                 
==================================================================================================
Total params: 1,200,311
Trainable params: 1,200,311
Non-trainable params: 0
__________________________________________________________________________________________________
None

__________________________________________________________________________________________________
…
	Dashed keys in vocabulary 1622
	One occurrence keys in vocabulary 1622 / 12159
	Embedding
==================================================================================================
	Initialisation = None
	Concatenation = False
	Lemma : 97
	POS = 25 
Deep model(Non compositional)
__________________________________________________________________________________________________
Layer (type)                    Output Shape         Param #     Connected to                     
==================================================================================================
input_77 (InputLayer)           (None, 4)            0                                            
__________________________________________________________________________________________________
input_78 (InputLayer)           (None, 4)            0                                            
__________________________________________________________________________________________________
embedding_77 (Embedding)        (None, 4, 97)        1179423     input_77[0][0]                   
__________________________________________________________________________________________________
embedding_78 (Embedding)        (None, 4, 25)        3800        input_78[0][0]                   
__________________________________________________________________________________________________
flatten_77 (Flatten)            (None, 388)          0           embedding_77[0][0]               
__________________________________________________________________________________________________
flatten_78 (Flatten)            (None, 100)          0           embedding_78[0][0]               
__________________________________________________________________________________________________
concatenate_39 (Concatenate)    (None, 488)          0           flatten_77[0][0]                 
                                                                 flatten_78[0][0]                 
__________________________________________________________________________________________________
dense_115 (Dense)               (None, 36)           17604       concatenate_39[0][0]             
__________________________________________________________________________________________________
dropout_77 (Dropout)            (None, 36)           0           dense_115[0][0]                  
__________________________________________________________________________________________________
dense_116 (Dense)               (None, 25)           925         dropout_77[0][0]                 
__________________________________________________________________________________________________
dropout_78 (Dropout)            (None, 25)           0           dense_116[0][0]                  
__________________________________________________________________________________________________
dense_117 (Dense)               (None, 8)            208         dropout_78[0][0]                 
==================================================================================================
Total params: 1,201,960
Trainable params: 1,201,960
Non-trainable params: 0
__________________________________________________________________________________________________
None

__________________________________________________________________________________________________
…
	One occurrence keys in vocabulary 1660 / 15321
	Attention: important lemmas are not in vocbulary	Embedding
==================================================================================================
	Initialisation = None
	Concatenation = False
	Lemma : 97
	POS = 25 
Deep model(Non compositional)
__________________________________________________________________________________________________
Layer (type)                    Output Shape         Param #     Connected to                     
==================================================================================================
input_79 (InputLayer)           (None, 4)            0                                            
__________________________________________________________________________________________________
input_80 (InputLayer)           (None, 4)            0                                            
__________________________________________________________________________________________________
embedding_79 (Embedding)        (None, 4, 97)        1486137     input_79[0][0]                   
__________________________________________________________________________________________________
embedding_80 (Embedding)        (None, 4, 25)        4225        input_80[0][0]                   
__________________________________________________________________________________________________
flatten_79 (Flatten)            (None, 388)          0           embedding_79[0][0]               
__________________________________________________________________________________________________
flatten_80 (Flatten)            (None, 100)          0           embedding_80[0][0]               
__________________________________________________________________________________________________
concatenate_40 (Concatenate)    (None, 488)          0           flatten_79[0][0]                 
                                                                 flatten_80[0][0]                 
__________________________________________________________________________________________________
dense_118 (Dense)               (None, 36)           17604       concatenate_40[0][0]             
__________________________________________________________________________________________________
dropout_79 (Dropout)            (None, 36)           0           dense_118[0][0]                  
__________________________________________________________________________________________________
dense_119 (Dense)               (None, 25)           925         dropout_79[0][0]                 
__________________________________________________________________________________________________
dropout_80 (Dropout)            (None, 25)           0           dense_119[0][0]                  
__________________________________________________________________________________________________
dense_120 (Dense)               (None, 8)            208         dropout_80[0][0]                 
==================================================================================================
Total params: 1,509,099
Trainable params: 1,509,099
Non-trainable params: 0
__________________________________________________________________________________________________
None

__________________________________________________________________________________________________
…
	One occurrence keys in vocabulary 1660 / 15303
	Attention: important lemmas are not in vocbulary	Embedding
==================================================================================================
	Initialisation = None
	Concatenation = False
	Lemma : 97
	POS = 25 
Deep model(Non compositional)
__________________________________________________________________________________________________
Layer (type)                    Output Shape         Param #     Connected to                     
==================================================================================================
input_81 (InputLayer)           (None, 4)            0                                            
__________________________________________________________________________________________________
input_82 (InputLayer)           (None, 4)            0                                            
__________________________________________________________________________________________________
embedding_81 (Embedding)        (None, 4, 97)        1484391     input_81[0][0]                   
__________________________________________________________________________________________________
embedding_82 (Embedding)        (None, 4, 25)        4225        input_82[0][0]                   
__________________________________________________________________________________________________
flatten_81 (Flatten)            (None, 388)          0           embedding_81[0][0]               
__________________________________________________________________________________________________
flatten_82 (Flatten)            (None, 100)          0           embedding_82[0][0]               
__________________________________________________________________________________________________
concatenate_41 (Concatenate)    (None, 488)          0           flatten_81[0][0]                 
                                                                 flatten_82[0][0]                 
__________________________________________________________________________________________________
dense_121 (Dense)               (None, 36)           17604       concatenate_41[0][0]             
__________________________________________________________________________________________________
dropout_81 (Dropout)            (None, 36)           0           dense_121[0][0]                  
__________________________________________________________________________________________________
dense_122 (Dense)               (None, 25)           925         dropout_81[0][0]                 
__________________________________________________________________________________________________
dropout_82 (Dropout)            (None, 25)           0           dense_122[0][0]                  
__________________________________________________________________________________________________
dense_123 (Dense)               (None, 8)            208         dropout_82[0][0]                 
==================================================================================================
Total params: 1,507,353
Trainable params: 1,507,353
Non-trainable params: 0
__________________________________________________________________________________________________
None

__________________________________________________________________________________________________
…
	One occurrence keys in vocabulary 1660 / 15244
	Attention: important lemmas are not in vocbulary	Embedding
==================================================================================================
	Initialisation = None
	Concatenation = False
	Lemma : 97
	POS = 25 
Deep model(Non compositional)
__________________________________________________________________________________________________
Layer (type)                    Output Shape         Param #     Connected to                     
==================================================================================================
input_83 (InputLayer)           (None, 4)            0                                            
__________________________________________________________________________________________________
input_84 (InputLayer)           (None, 4)            0                                            
__________________________________________________________________________________________________
embedding_83 (Embedding)        (None, 4, 97)        1478668     input_83[0][0]                   
__________________________________________________________________________________________________
embedding_84 (Embedding)        (None, 4, 25)        4225        input_84[0][0]                   
__________________________________________________________________________________________________
flatten_83 (Flatten)            (None, 388)          0           embedding_83[0][0]               
__________________________________________________________________________________________________
flatten_84 (Flatten)            (None, 100)          0           embedding_84[0][0]               
__________________________________________________________________________________________________
concatenate_42 (Concatenate)    (None, 488)          0           flatten_83[0][0]                 
                                                                 flatten_84[0][0]                 
__________________________________________________________________________________________________
dense_124 (Dense)               (None, 36)           17604       concatenate_42[0][0]             
__________________________________________________________________________________________________
dropout_83 (Dropout)            (None, 36)           0           dense_124[0][0]                  
__________________________________________________________________________________________________
dense_125 (Dense)               (None, 25)           925         dropout_83[0][0]                 
__________________________________________________________________________________________________
dropout_84 (Dropout)            (None, 25)           0           dense_125[0][0]                  
__________________________________________________________________________________________________
dense_126 (Dense)               (None, 8)            208         dropout_84[0][0]                 
==================================================================================================
Total params: 1,501,630
Trainable params: 1,501,630
Non-trainable params: 0
__________________________________________________________________________________________________
None

__________________________________________________________________________________________________
…
	Dashed keys in vocabulary 1979
	One occurrence keys in vocabulary 1979 / 12529
	Embedding
==================================================================================================
	Initialisation = None
	Concatenation = False
	Lemma : 97
	POS = 25 
Deep model(Non compositional)
__________________________________________________________________________________________________
Layer (type)                    Output Shape         Param #     Connected to                     
==================================================================================================
input_85 (InputLayer)           (None, 4)            0                                            
__________________________________________________________________________________________________
input_86 (InputLayer)           (None, 4)            0                                            
__________________________________________________________________________________________________
embedding_85 (Embedding)        (None, 4, 97)        1215313     input_85[0][0]                   
__________________________________________________________________________________________________
embedding_86 (Embedding)        (None, 4, 25)        2750        input_86[0][0]                   
__________________________________________________________________________________________________
flatten_85 (Flatten)            (None, 388)          0           embedding_85[0][0]               
__________________________________________________________________________________________________
flatten_86 (Flatten)            (None, 100)          0           embedding_86[0][0]               
__________________________________________________________________________________________________
concatenate_43 (Concatenate)    (None, 488)          0           flatten_85[0][0]                 
                                                                 flatten_86[0][0]                 
__________________________________________________________________________________________________
dense_127 (Dense)               (None, 36)           17604       concatenate_43[0][0]             
__________________________________________________________________________________________________
dropout_85 (Dropout)            (None, 36)           0           dense_127[0][0]                  
__________________________________________________________________________________________________
dense_128 (Dense)               (None, 25)           925         dropout_85[0][0]                 
__________________________________________________________________________________________________
dropout_86 (Dropout)            (None, 25)           0           dense_128[0][0]                  
__________________________________________________________________________________________________
dense_129 (Dense)               (None, 8)            208         dropout_86[0][0]                 
==================================================================================================
Total params: 1,236,800
Trainable params: 1,236,800
Non-trainable params: 0
__________________________________________________________________________________________________
None

__________________________________________________________________________________________________
…
	Dashed keys in vocabulary 1979
	One occurrence keys in vocabulary 1979 / 12525
	Embedding
==================================================================================================
	Initialisation = None
	Concatenation = False
	Lemma : 97
	POS = 25 
Deep model(Non compositional)
__________________________________________________________________________________________________
Layer (type)                    Output Shape         Param #     Connected to                     
==================================================================================================
input_87 (InputLayer)           (None, 4)            0                                            
__________________________________________________________________________________________________
input_88 (InputLayer)           (None, 4)            0                                            
__________________________________________________________________________________________________
embedding_87 (Embedding)        (None, 4, 97)        1214925     input_87[0][0]                   
__________________________________________________________________________________________________
embedding_88 (Embedding)        (None, 4, 25)        2750        input_88[0][0]                   
__________________________________________________________________________________________________
flatten_87 (Flatten)            (None, 388)          0           embedding_87[0][0]               
__________________________________________________________________________________________________
flatten_88 (Flatten)            (None, 100)          0           embedding_88[0][0]               
__________________________________________________________________________________________________
concatenate_44 (Concatenate)    (None, 488)          0           flatten_87[0][0]                 
                                                                 flatten_88[0][0]                 
__________________________________________________________________________________________________
dense_130 (Dense)               (None, 36)           17604       concatenate_44[0][0]             
__________________________________________________________________________________________________
dropout_87 (Dropout)            (None, 36)           0           dense_130[0][0]                  
__________________________________________________________________________________________________
dense_131 (Dense)               (None, 25)           925         dropout_87[0][0]                 
__________________________________________________________________________________________________
dropout_88 (Dropout)            (None, 25)           0           dense_131[0][0]                  
__________________________________________________________________________________________________
dense_132 (Dense)               (None, 8)            208         dropout_88[0][0]                 
==================================================================================================
Total params: 1,236,412
Trainable params: 1,236,412
Non-trainable params: 0
__________________________________________________________________________________________________
None

__________________________________________________________________________________________________
…
	Dashed keys in vocabulary 1979
	One occurrence keys in vocabulary 1979 / 12587
	Embedding
==================================================================================================
	Initialisation = None
	Concatenation = False
	Lemma : 97
	POS = 25 
Deep model(Non compositional)
__________________________________________________________________________________________________
Layer (type)                    Output Shape         Param #     Connected to                     
==================================================================================================
input_89 (InputLayer)           (None, 4)            0                                            
__________________________________________________________________________________________________
input_90 (InputLayer)           (None, 4)            0                                            
__________________________________________________________________________________________________
embedding_89 (Embedding)        (None, 4, 97)        1220939     input_89[0][0]                   
__________________________________________________________________________________________________
embedding_90 (Embedding)        (None, 4, 25)        2750        input_90[0][0]                   
__________________________________________________________________________________________________
flatten_89 (Flatten)            (None, 388)          0           embedding_89[0][0]               
__________________________________________________________________________________________________
flatten_90 (Flatten)            (None, 100)          0           embedding_90[0][0]               
__________________________________________________________________________________________________
concatenate_45 (Concatenate)    (None, 488)          0           flatten_89[0][0]                 
                                                                 flatten_90[0][0]                 
__________________________________________________________________________________________________
dense_133 (Dense)               (None, 36)           17604       concatenate_45[0][0]             
__________________________________________________________________________________________________
dropout_89 (Dropout)            (None, 36)           0           dense_133[0][0]                  
__________________________________________________________________________________________________
dense_134 (Dense)               (None, 25)           925         dropout_89[0][0]                 
…
	Concatenation = False
	Lemma : 51
	POS = 38 
Deep model(Non compositional)
__________________________________________________________________________________________________
Layer (type)                    Output Shape         Param #     Connected to                     
==================================================================================================
input_457 (InputLayer)          (None, 4)            0                                            
__________________________________________________________________________________________________
input_458 (InputLayer)          (None, 4)            0                                            
__________________________________________________________________________________________________
embedding_457 (Embedding)       (None, 4, 51)        781371      input_457[0][0]                  
__________________________________________________________________________________________________
embedding_458 (Embedding)       (None, 4, 38)        6422        input_458[0][0]                  
__________________________________________________________________________________________________
flatten_457 (Flatten)           (None, 204)          0           embedding_457[0][0]              
__________________________________________________________________________________________________
flatten_458 (Flatten)           (None, 152)          0           embedding_458[0][0]              
__________________________________________________________________________________________________
concatenate_229 (Concatenate)   (None, 356)          0           flatten_457[0][0]                
                                                                 flatten_458[0][0]                
__________________________________________________________________________________________________
dense_685 (Dense)               (None, 468)          167076      concatenate_229[0][0]            
__________________________________________________________________________________________________
dropout_457 (Dropout)           (None, 468)          0           dense_685[0][0]                  
__________________________________________________________________________________________________
dense_686 (Dense)               (None, 21)           9849        dropout_457[0][0]                
__________________________________________________________________________________________________
dropout_458 (Dropout)           (None, 21)           0           dense_686[0][0]                  
__________________________________________________________________________________________________
dense_687 (Dense)               (None, 8)            176         dropout_458[0][0]                
==================================================================================================
Total params: 964,894
Trainable params: 964,894
Non-trainable params: 0
__________________________________________________________________________________________________
None

__________________________________________________________________________________________________
…
	One occurrence keys in vocabulary 1660 / 15303
	Attention: important lemmas are not in vocbulary	Embedding
==================================================================================================
	Initialisation = None
	Concatenation = False
	Lemma : 51
	POS = 38 
Deep model(Non compositional)
__________________________________________________________________________________________________
Layer (type)                    Output Shape         Param #     Connected to                     
==================================================================================================
input_459 (InputLayer)          (None, 4)            0                                            
__________________________________________________________________________________________________
input_460 (InputLayer)          (None, 4)            0                                            
__________________________________________________________________________________________________
embedding_459 (Embedding)       (None, 4, 51)        780453      input_459[0][0]                  
__________________________________________________________________________________________________
embedding_460 (Embedding)       (None, 4, 38)        6422        input_460[0][0]                  
__________________________________________________________________________________________________
flatten_459 (Flatten)           (None, 204)          0           embedding_459[0][0]              
__________________________________________________________________________________________________
flatten_460 (Flatten)           (None, 152)          0           embedding_460[0][0]              
__________________________________________________________________________________________________
concatenate_230 (Concatenate)   (None, 356)          0           flatten_459[0][0]                
                                                                 flatten_460[0][0]                
__________________________________________________________________________________________________
dense_688 (Dense)               (None, 468)          167076      concatenate_230[0][0]            
__________________________________________________________________________________________________
dropout_459 (Dropout)           (None, 468)          0           dense_688[0][0]                  
__________________________________________________________________________________________________
dense_689 (Dense)               (None, 21)           9849        dropout_459[0][0]                
__________________________________________________________________________________________________
dropout_460 (Dropout)           (None, 21)           0           dense_689[0][0]                  
__________________________________________________________________________________________________
dense_690 (Dense)               (None, 8)            176         dropout_460[0][0]                
==================================================================================================
Total params: 963,976
Trainable params: 963,976
Non-trainable params: 0
__________________________________________________________________________________________________
None

__________________________________________________________________________________________________
…
	One occurrence keys in vocabulary 1660 / 15244
	Attention: important lemmas are not in vocbulary	Embedding
==================================================================================================
	Initialisation = None
	Concatenation = False
	Lemma : 51
	POS = 38 
Deep model(Non compositional)
__________________________________________________________________________________________________
Layer (type)                    Output Shape         Param #     Connected to                     
==================================================================================================
input_461 (InputLayer)          (None, 4)            0                                            
__________________________________________________________________________________________________
input_462 (InputLayer)          (None, 4)            0                                            
__________________________________________________________________________________________________
embedding_461 (Embedding)       (None, 4, 51)        777444      input_461[0][0]                  
__________________________________________________________________________________________________
embedding_462 (Embedding)       (None, 4, 38)        6422        input_462[0][0]                  
__________________________________________________________________________________________________
flatten_461 (Flatten)           (None, 204)          0           embedding_461[0][0]              
__________________________________________________________________________________________________
flatten_462 (Flatten)           (None, 152)          0           embedding_462[0][0]              
__________________________________________________________________________________________________
concatenate_231 (Concatenate)   (None, 356)          0           flatten_461[0][0]                
                                                                 flatten_462[0][0]                
__________________________________________________________________________________________________
dense_691 (Dense)               (None, 468)          167076      concatenate_231[0][0]            
__________________________________________________________________________________________________
dropout_461 (Dropout)           (None, 468)          0           dense_691[0][0]                  
__________________________________________________________________________________________________
dense_692 (Dense)               (None, 21)           9849        dropout_461[0][0]                
__________________________________________________________________________________________________
dropout_462 (Dropout)           (None, 21)           0           dense_692[0][0]                  
__________________________________________________________________________________________________
dense_693 (Dense)               (None, 8)            176         dropout_462[0][0]                
==================================================================================================
Total params: 960,967
Trainable params: 960,967
Non-trainable params: 0
__________________________________________________________________________________________________
None

__________________________________________________________________________________________________
…
	Dashed keys in vocabulary 1979
	One occurrence keys in vocabulary 1979 / 12529
	Embedding
==================================================================================================
	Initialisation = None
	Concatenation = False
	Lemma : 51
	POS = 38 
Deep model(Non compositional)
__________________________________________________________________________________________________
Layer (type)                    Output Shape         Param #     Connected to                     
==================================================================================================
input_463 (InputLayer)          (None, 4)            0                                            
__________________________________________________________________________________________________
input_464 (InputLayer)          (None, 4)            0                                            
__________________________________________________________________________________________________
embedding_463 (Embedding)       (None, 4, 51)        638979      input_463[0][0]                  
__________________________________________________________________________________________________
embedding_464 (Embedding)       (None, 4, 38)        4180        input_464[0][0]                  
__________________________________________________________________________________________________
flatten_463 (Flatten)           (None, 204)          0           embedding_463[0][0]              
__________________________________________________________________________________________________
flatten_464 (Flatten)           (None, 152)          0           embedding_464[0][0]              
__________________________________________________________________________________________________
concatenate_232 (Concatenate)   (None, 356)          0           flatten_463[0][0]                
                                                                 flatten_464[0][0]                
__________________________________________________________________________________________________
dense_694 (Dense)               (None, 468)          167076      concatenate_232[0][0]            
__________________________________________________________________________________________________
dropout_463 (Dropout)           (None, 468)          0           dense_694[0][0]                  
__________________________________________________________________________________________________
dense_695 (Dense)               (None, 21)           9849        dropout_463[0][0]                
__________________________________________________________________________________________________
dropout_464 (Dropout)           (None, 21)           0           dense_695[0][0]                  
__________________________________________________________________________________________________
dense_696 (Dense)               (None, 8)            176         dropout_464[0][0]                
==================================================================================================
Total params: 820,260
Trainable params: 820,260
Non-trainable params: 0
__________________________________________________________________________________________________
None

__________________________________________________________________________________________________
…
	Dashed keys in vocabulary 1979
	One occurrence keys in vocabulary 1979 / 12525
	Embedding
==================================================================================================
	Initialisation = None
	Concatenation = False
	Lemma : 51
	POS = 38 
Deep model(Non compositional)
__________________________________________________________________________________________________
Layer (type)                    Output Shape         Param #     Connected to                     
==================================================================================================
input_465 (InputLayer)          (None, 4)            0                                            
__________________________________________________________________________________________________
input_466 (InputLayer)          (None, 4)            0                                            
__________________________________________________________________________________________________
embedding_465 (Embedding)       (None, 4, 51)        638775      input_465[0][0]                  
__________________________________________________________________________________________________
embedding_466 (Embedding)       (None, 4, 38)        4180        input_466[0][0]                  
__________________________________________________________________________________________________
flatten_465 (Flatten)           (None, 204)          0           embedding_465[0][0]              
__________________________________________________________________________________________________
flatten_466 (Flatten)           (None, 152)          0           embedding_466[0][0]              
__________________________________________________________________________________________________
concatenate_233 (Concatenate)   (None, 356)          0           flatten_465[0][0]                
                                                                 flatten_466[0][0]                
__________________________________________________________________________________________________
dense_697 (Dense)               (None, 468)          167076      concatenate_233[0][0]            
__________________________________________________________________________________________________
dropout_465 (Dropout)           (None, 468)          0           dense_697[0][0]                  
__________________________________________________________________________________________________
dense_698 (Dense)               (None, 21)           9849        dropout_465[0][0]                
__________________________________________________________________________________________________
dropout_466 (Dropout)           (None, 21)           0           dense_698[0][0]                  
__________________________________________________________________________________________________
dense_699 (Dense)               (None, 8)            176         dropout_466[0][0]                
==================================================================================================
Total params: 820,056
Trainable params: 820,056
Non-trainable params: 0
__________________________________________________________________________________________________
None

__________________________________________________________________________________________________
…
	Dashed keys in vocabulary 1979
	One occurrence keys in vocabulary 1979 / 12587
	Embedding
==================================================================================================
	Initialisation = None
	Concatenation = False
	Lemma : 51
	POS = 38 
Deep model(Non compositional)
__________________________________________________________________________________________________
Layer (type)                    Output Shape         Param #     Connected to                     
==================================================================================================
input_467 (InputLayer)          (None, 4)            0                                            
__________________________________________________________________________________________________
input_468 (InputLayer)          (None, 4)            0                                            
__________________________________________________________________________________________________
embedding_467 (Embedding)       (None, 4, 51)        641937      input_467[0][0]                  
__________________________________________________________________________________________________
embedding_468 (Embedding)       (None, 4, 38)        4180        input_468[0][0]                  
__________________________________________________________________________________________________
flatten_467 (Flatten)           (None, 204)          0           embedding_467[0][0]              
__________________________________________________________________________________________________
flatten_468 (Flatten)           (None, 152)          0           embedding_468[0][0]              
__________________________________________________________________________________________________
concatenate_234 (Concatenate)   (None, 356)          0           flatten_467[0][0]                
                                                                 flatten_468[0][0]                
__________________________________________________________________________________________________
dense_700 (Dense)               (None, 468)          167076      concatenate_234[0][0]            
__________________________________________________________________________________________________
dropout_467 (Dropout)           (None, 468)          0           dense_700[0][0]                  
__________________________________________________________________________________________________
dense_701 (Dense)               (None, 21)           9849        dropout_467[0][0]                
__________________________________________________________________________________________________
dropout_468 (Dropout)           (None, 21)           0           dense_701[0][0]                  
__________________________________________________________________________________________________
dense_702 (Dense)               (None, 8)            176         dropout_468[0][0]                
==================================================================================================
Total params: 823,218
Trainable params: 823,218
Non-trainable params: 0
__________________________________________________________________________________________________
None

__________________________________________________________________________________________________
…
	Dashed keys in vocabulary 1622
	One occurrence keys in vocabulary 1622 / 12174
	Embedding
==================================================================================================
	Initialisation = None
	Concatenation = False
	Lemma : 376
	POS = 49 
Deep model(Non compositional)
__________________________________________________________________________________________________
Layer (type)                    Output Shape         Param #     Connected to                     
==================================================================================================
input_469 (InputLayer)          (None, 4)            0                                            
__________________________________________________________________________________________________
input_470 (InputLayer)          (None, 4)            0                                            
__________________________________________________________________________________________________
embedding_469 (Embedding)       (None, 4, 376)       4577424     input_469[0][0]                  
__________________________________________________________________________________________________
embedding_470 (Embedding)       (None, 4, 49)        7448        input_470[0][0]                  
__________________________________________________________________________________________________
flatten_469 (Flatten)           (None, 1504)         0           embedding_469[0][0]              
__________________________________________________________________________________________________
flatten_470 (Flatten)           (None, 196)          0           embedding_470[0][0]              
__________________________________________________________________________________________________
concatenate_235 (Concatenate)   (None, 1700)         0           flatten_469[0][0]                
                                                                 flatten_470[0][0]                
__________________________________________________________________________________________________
dense_703 (Dense)               (None, 14)           23814       concatenate_235[0][0]            
__________________________________________________________________________________________________
dropout_469 (Dropout)           (None, 14)           0           dense_703[0][0]                  
__________________________________________________________________________________________________
dense_704 (Dense)               (None, 10)           150         dropout_469[0][0]                
__________________________________________________________________________________________________
dropout_470 (Dropout)           (None, 10)           0           dense_704[0][0]                  
__________________________________________________________________________________________________
dense_705 (Dense)               (None, 8)            88          dropout_470[0][0]                
==================================================================================================
Total params: 4,608,924
Trainable params: 4,608,924
Non-trainable params: 0
__________________________________________________________________________________________________
None

__________________________________________________________________________________________________
…
	Dashed keys in vocabulary 1622
	One occurrence keys in vocabulary 1622 / 12142
	Embedding
==================================================================================================
	Initialisation = None
	Concatenation = False
	Lemma : 376
	POS = 49 
Deep model(Non compositional)
__________________________________________________________________________________________________
Layer (type)                    Output Shape         Param #     Connected to                     
==================================================================================================
input_471 (InputLayer)          (None, 4)            0                                            
__________________________________________________________________________________________________
input_472 (InputLayer)          (None, 4)            0                                            
__________________________________________________________________________________________________
embedding_471 (Embedding)       (None, 4, 376)       4565392     input_471[0][0]                  
__________________________________________________________________________________________________
embedding_472 (Embedding)       (None, 4, 49)        7448        input_472[0][0]                  
__________________________________________________________________________________________________
flatten_471 (Flatten)           (None, 1504)         0           embedding_471[0][0]              
__________________________________________________________________________________________________
flatten_472 (Flatten)           (None, 196)          0           embedding_472[0][0]              
__________________________________________________________________________________________________
concatenate_236 (Concatenate)   (None, 1700)         0           flatten_471[0][0]                
                                                                 flatten_472[0][0]                
__________________________________________________________________________________________________
dense_706 (Dense)               (None, 14)           23814       concatenate_236[0][0]            
__________________________________________________________________________________________________
dropout_471 (Dropout)           (None, 14)           0           dense_706[0][0]                  
__________________________________________________________________________________________________
dense_707 (Dense)               (None, 10)           150         dropout_471[0][0]                
__________________________________________________________________________________________________
dropout_472 (Dropout)           (None, 10)           0           dense_707[0][0]                  
__________________________________________________________________________________________________
dense_708 (Dense)               (None, 8)            88          dropout_472[0][0]                
==================================================================================================
Total params: 4,596,892
Trainable params: 4,596,892
Non-trainable params: 0
__________________________________________________________________________________________________
None

__________________________________________________________________________________________________
…
	Dashed keys in vocabulary 1622
	One occurrence keys in vocabulary 1622 / 12159
	Embedding
==================================================================================================
	Initialisation = None
	Concatenation = False
	Lemma : 376
	POS = 49 
Deep model(Non compositional)
__________________________________________________________________________________________________
Layer (type)                    Output Shape         Param #     Connected to                     
==================================================================================================
input_473 (InputLayer)          (None, 4)            0                                            
__________________________________________________________________________________________________
input_474 (InputLayer)          (None, 4)            0                                            
__________________________________________________________________________________________________
embedding_473 (Embedding)       (None, 4, 376)       4571784     input_473[0][0]                  
__________________________________________________________________________________________________
embedding_474 (Embedding)       (None, 4, 49)        7448        input_474[0][0]                  
__________________________________________________________________________________________________
flatten_473 (Flatten)           (None, 1504)         0           embedding_473[0][0]              
__________________________________________________________________________________________________
flatten_474 (Flatten)           (None, 196)          0           embedding_474[0][0]              
__________________________________________________________________________________________________
concatenate_237 (Concatenate)   (None, 1700)         0           flatten_473[0][0]                
                                                                 flatten_474[0][0]                
__________________________________________________________________________________________________
dense_709 (Dense)               (None, 14)           23814       concatenate_237[0][0]            
__________________________________________________________________________________________________
dropout_473 (Dropout)           (None, 14)           0           dense_709[0][0]                  
__________________________________________________________________________________________________
dense_710 (Dense)               (None, 10)           150         dropout_473[0][0]                
__________________________________________________________________________________________________
dropout_474 (Dropout)           (None, 10)           0           dense_710[0][0]                  
__________________________________________________________________________________________________
dense_711 (Dense)               (None, 8)            88          dropout_474[0][0]                
==================================================================================================
Total params: 4,603,284
Trainable params: 4,603,284
Non-trainable params: 0
__________________________________________________________________________________________________
None

__________________________________________________________________________________________________
…
	One occurrence keys in vocabulary 1660 / 15321
	Attention: important lemmas are not in vocbulary	Embedding
==================================================================================================
	Initialisation = None
	Concatenation = False
	Lemma : 376
	POS = 49 
Deep model(Non compositional)
__________________________________________________________________________________________________
Layer (type)                    Output Shape         Param #     Connected to                     
==================================================================================================
input_475 (InputLayer)          (None, 4)            0                                            
__________________________________________________________________________________________________
input_476 (InputLayer)          (None, 4)            0                                            
__________________________________________________________________________________________________
embedding_475 (Embedding)       (None, 4, 376)       5760696     input_475[0][0]                  
__________________________________________________________________________________________________
embedding_476 (Embedding)       (None, 4, 49)        8281        input_476[0][0]                  
__________________________________________________________________________________________________
flatten_475 (Flatten)           (None, 1504)         0           embedding_475[0][0]              
__________________________________________________________________________________________________
flatten_476 (Flatten)           (None, 196)          0           embedding_476[0][0]              
__________________________________________________________________________________________________
concatenate_238 (Concatenate)   (None, 1700)         0           flatten_475[0][0]                
                                                                 flatten_476[0][0]                
__________________________________________________________________________________________________
dense_712 (Dense)               (None, 14)           23814       concatenate_238[0][0]            
__________________________________________________________________________________________________
dropout_475 (Dropout)           (None, 14)           0           dense_712[0][0]                  
__________________________________________________________________________________________________
dense_713 (Dense)               (None, 10)           150         dropout_475[0][0]                
__________________________________________________________________________________________________
dropout_476 (Dropout)           (None, 10)           0           dense_713[0][0]                  
__________________________________________________________________________________________________
dense_714 (Dense)               (None, 8)            88          dropout_476[0][0]                
==================================================================================================
Total params: 5,793,029
Trainable params: 5,793,029
Non-trainable params: 0
__________________________________________________________________________________________________
None

__________________________________________________________________________________________________
…
	One occurrence keys in vocabulary 1660 / 15303
	Attention: important lemmas are not in vocbulary	Embedding
==================================================================================================
	Initialisation = None
	Concatenation = False
	Lemma : 376
	POS = 49 
Deep model(Non compositional)
__________________________________________________________________________________________________
Layer (type)                    Output Shape         Param #     Connected to                     
==================================================================================================
input_477 (InputLayer)          (None, 4)            0                                            
__________________________________________________________________________________________________
input_478 (InputLayer)          (None, 4)            0                                            
__________________________________________________________________________________________________
embedding_477 (Embedding)       (None, 4, 376)       5753928     input_477[0][0]                  
__________________________________________________________________________________________________
embedding_478 (Embedding)       (None, 4, 49)        8281        input_478[0][0]                  
__________________________________________________________________________________________________
flatten_477 (Flatten)           (None, 1504)         0           embedding_477[0][0]              
__________________________________________________________________________________________________
flatten_478 (Flatten)           (None, 196)          0           embedding_478[0][0]              
__________________________________________________________________________________________________
concatenate_239 (Concatenate)   (None, 1700)         0           flatten_477[0][0]                
                                                                 flatten_478[0][0]                
__________________________________________________________________________________________________
dense_715 (Dense)               (None, 14)           23814       concatenate_239[0][0]            
__________________________________________________________________________________________________
dropout_477 (Dropout)           (None, 14)           0           dense_715[0][0]                  
__________________________________________________________________________________________________
dense_716 (Dense)               (None, 10)           150         dropout_477[0][0]                
__________________________________________________________________________________________________
dropout_478 (Dropout)           (None, 10)           0           dense_716[0][0]                  
__________________________________________________________________________________________________
dense_717 (Dense)               (None, 8)            88          dropout_478[0][0]                
==================================================================================================
Total params: 5,786,261
Trainable params: 5,786,261
Non-trainable params: 0
__________________________________________________________________________________________________
None

__________________________________________________________________________________________________
…
	One occurrence keys in vocabulary 1660 / 15244
	Attention: important lemmas are not in vocbulary	Embedding
==================================================================================================
	Initialisation = None
	Concatenation = False
	Lemma : 376
	POS = 49 
Deep model(Non compositional)
__________________________________________________________________________________________________
Layer (type)                    Output Shape         Param #     Connected to                     
==================================================================================================
input_479 (InputLayer)          (None, 4)            0                                            
__________________________________________________________________________________________________
input_480 (InputLayer)          (None, 4)            0                                            
__________________________________________________________________________________________________
embedding_479 (Embedding)       (None, 4, 376)       5731744     input_479[0][0]                  
__________________________________________________________________________________________________
embedding_480 (Embedding)       (None, 4, 49)        8281        input_480[0][0]                  
__________________________________________________________________________________________________
flatten_479 (Flatten)           (None, 1504)         0           embedding_479[0][0]              
__________________________________________________________________________________________________
flatten_480 (Flatten)           (None, 196)          0           embedding_480[0][0]              
__________________________________________________________________________________________________
concatenate_240 (Concatenate)   (None, 1700)         0           flatten_479[0][0]                
                                                                 flatten_480[0][0]                
__________________________________________________________________________________________________
dense_718 (Dense)               (None, 14)           23814       concatenate_240[0][0]            
__________________________________________________________________________________________________
dropout_479 (Dropout)           (None, 14)           0           dense_718[0][0]                  
__________________________________________________________________________________________________
dense_719 (Dense)               (None, 10)           150         dropout_479[0][0]                
__________________________________________________________________________________________________
dropout_480 (Dropout)           (None, 10)           0           dense_719[0][0]                  
__________________________________________________________________________________________________
dense_720 (Dense)               (None, 8)            88          dropout_480[0][0]                
==================================================================================================
Total params: 5,764,077
Trainable params: 5,764,077
Non-trainable params: 0
__________________________________________________________________________________________________
None

__________________________________________________________________________________________________
…
	Dashed keys in vocabulary 1979
	One occurrence keys in vocabulary 1979 / 12529
	Embedding
==================================================================================================
	Initialisation = None
	Concatenation = False
	Lemma : 376
	POS = 49 
Deep model(Non compositional)
__________________________________________________________________________________________________
Layer (type)                    Output Shape         Param #     Connected to                     
==================================================================================================
input_481 (InputLayer)          (None, 4)            0                                            
__________________________________________________________________________________________________
input_482 (InputLayer)          (None, 4)            0                                            
__________________________________________________________________________________________________
embedding_481 (Embedding)       (None, 4, 376)       4710904     input_481[0][0]                  
__________________________________________________________________________________________________
embedding_482 (Embedding)       (None, 4, 49)        5390        input_482[0][0]                  
__________________________________________________________________________________________________
flatten_481 (Flatten)           (None, 1504)         0           embedding_481[0][0]              
__________________________________________________________________________________________________
flatten_482 (Flatten)           (None, 196)          0           embedding_482[0][0]              
__________________________________________________________________________________________________
concatenate_241 (Concatenate)   (None, 1700)         0           flatten_481[0][0]                
                                                                 flatten_482[0][0]                
__________________________________________________________________________________________________
dense_721 (Dense)               (None, 14)           23814       concatenate_241[0][0]            
__________________________________________________________________________________________________
dropout_481 (Dropout)           (None, 14)           0           dense_721[0][0]                  
__________________________________________________________________________________________________
dense_722 (Dense)               (None, 10)           150         dropout_481[0][0]                
__________________________________________________________________________________________________
dropout_482 (Dropout)           (None, 10)           0           dense_722[0][0]                  
__________________________________________________________________________________________________
dense_723 (Dense)               (None, 8)            88          dropout_482[0][0]                
==================================================================================================
Total params: 4,740,346
Trainable params: 4,740,346
Non-trainable params: 0
__________________________________________________________________________________________________
None

__________________________________________________________________________________________________
…
	Dashed keys in vocabulary 1979
	One occurrence keys in vocabulary 1979 / 12525
	Embedding
==================================================================================================
	Initialisation = None
	Concatenation = False
	Lemma : 376
	POS = 49 
Deep model(Non compositional)
__________________________________________________________________________________________________
Layer (type)                    Output Shape         Param #     Connected to                     
==================================================================================================
input_483 (InputLayer)          (None, 4)            0                                            
__________________________________________________________________________________________________
input_484 (InputLayer)          (None, 4)            0                                            
__________________________________________________________________________________________________
embedding_483 (Embedding)       (None, 4, 376)       4709400     input_483[0][0]                  
__________________________________________________________________________________________________
embedding_484 (Embedding)       (None, 4, 49)        5390        input_484[0][0]                  
__________________________________________________________________________________________________
flatten_483 (Flatten)           (None, 1504)         0           embedding_483[0][0]              
__________________________________________________________________________________________________
flatten_484 (Flatten)           (None, 196)          0           embedding_484[0][0]              
__________________________________________________________________________________________________
concatenate_242 (Concatenate)   (None, 1700)         0           flatten_483[0][0]                
                                                                 flatten_484[0][0]                
__________________________________________________________________________________________________
dense_724 (Dense)               (None, 14)           23814       concatenate_242[0][0]            
__________________________________________________________________________________________________
dropout_483 (Dropout)           (None, 14)           0           dense_724[0][0]                  
__________________________________________________________________________________________________
dense_725 (Dense)               (None, 10)           150         dropout_483[0][0]                
__________________________________________________________________________________________________
dropout_484 (Dropout)           (None, 10)           0           dense_725[0][0]                  
__________________________________________________________________________________________________
dense_726 (Dense)               (None, 8)            88          dropout_484[0][0]                
==================================================================================================
Total params: 4,738,842
Trainable params: 4,738,842
Non-trainable params: 0
__________________________________________________________________________________________________
None

__________________________________________________________________________________________________
…
	Dashed keys in vocabulary 1979
	One occurrence keys in vocabulary 1979 / 12587
	Embedding
==================================================================================================
	Initialisation = None
	Concatenation = False
	Lemma : 376
	POS = 49 
Deep model(Non compositional)
__________________________________________________________________________________________________
Layer (type)                    Output Shape         Param #     Connected to                     
==================================================================================================
input_485 (InputLayer)          (None, 4)            0                                            
__________________________________________________________________________________________________
input_486 (InputLayer)          (None, 4)            0                                            
__________________________________________________________________________________________________
embedding_485 (Embedding)       (None, 4, 376)       4732712     input_485[0][0]                  
__________________________________________________________________________________________________
embedding_486 (Embedding)       (None, 4, 49)        5390        input_486[0][0]                  
__________________________________________________________________________________________________
flatten_485 (Flatten)           (None, 1504)         0           embedding_485[0][0]              
__________________________________________________________________________________________________
flatten_486 (Flatten)           (None, 196)          0           embedding_486[0][0]              
__________________________________________________________________________________________________
concatenate_243 (Concatenate)   (None, 1700)         0           flatten_485[0][0]                
                                                                 flatten_486[0][0]                
__________________________________________________________________________________________________
dense_727 (Dense)               (None, 14)           23814       concatenate_243[0][0]            
__________________________________________________________________________________________________
dropout_485 (Dropout)           (None, 14)           0           dense_727[0][0]                  
__________________________________________________________________________________________________
dense_728 (Dense)               (None, 10)           150         dropout_485[0][0]                
__________________________________________________________________________________________________
dropout_486 (Dropout)           (None, 10)           0           dense_728[0][0]                  
__________________________________________________________________________________________________
dense_729 (Dense)               (None, 8)            88          dropout_486[0][0]                
==================================================================================================
Total params: 4,762,154
Trainable params: 4,762,154
Non-trainable params: 0
__________________________________________________________________________________________________
None

__________________________________________________________________________________________________
…
