…
	Dashed keys in vocabulary 1622
	One occurrence keys in vocabulary 1622 / 2800
	Embedding
==================================================================================================
	Initialisation = None
	Concatenation = False
	Lemma : 284
	POS = 65 
Deep model(Non compositional)
__________________________________________________________________________________________________
Layer (type)                    Output Shape         Param #     Connected to                     
==================================================================================================
input_1 (InputLayer)            (None, 4)            0                                            
__________________________________________________________________________________________________
input_2 (InputLayer)            (None, 4)            0                                            
__________________________________________________________________________________________________
embedding_1 (Embedding)         (None, 4, 284)       795200      input_1[0][0]                    
__________________________________________________________________________________________________
embedding_2 (Embedding)         (None, 4, 65)        9880        input_2[0][0]                    
__________________________________________________________________________________________________
flatten_1 (Flatten)             (None, 1136)         0           embedding_1[0][0]                
__________________________________________________________________________________________________
flatten_2 (Flatten)             (None, 260)          0           embedding_2[0][0]                
__________________________________________________________________________________________________
concatenate_1 (Concatenate)     (None, 1396)         0           flatten_1[0][0]                  
                                                                 flatten_2[0][0]                  
__________________________________________________________________________________________________
dense_1 (Dense)                 (None, 13)           18161       concatenate_1[0][0]              
__________________________________________________________________________________________________
dropout_1 (Dropout)             (None, 13)           0           dense_1[0][0]                    
__________________________________________________________________________________________________
dense_2 (Dense)                 (None, 12)           168         dropout_1[0][0]                  
__________________________________________________________________________________________________
dropout_2 (Dropout)             (None, 12)           0           dense_2[0][0]                    
__________________________________________________________________________________________________
dense_3 (Dense)                 (None, 8)            104         dropout_2[0][0]                  
==================================================================================================
Total params: 823,513
Trainable params: 823,513
Non-trainable params: 0
__________________________________________________________________________________________________
None

__________________________________________________________________________________________________
…
	One occurrence keys in vocabulary 1660 / 2793
	Attention: important lemmas are not in vocbulary	Embedding
==================================================================================================
	Initialisation = None
	Concatenation = False
	Lemma : 284
	POS = 65 
Deep model(Non compositional)
__________________________________________________________________________________________________
Layer (type)                    Output Shape         Param #     Connected to                     
==================================================================================================
input_7 (InputLayer)            (None, 4)            0                                            
__________________________________________________________________________________________________
input_8 (InputLayer)            (None, 4)            0                                            
__________________________________________________________________________________________________
embedding_7 (Embedding)         (None, 4, 284)       793212      input_7[0][0]                    
__________________________________________________________________________________________________
embedding_8 (Embedding)         (None, 4, 65)        10985       input_8[0][0]                    
__________________________________________________________________________________________________
flatten_7 (Flatten)             (None, 1136)         0           embedding_7[0][0]                
__________________________________________________________________________________________________
flatten_8 (Flatten)             (None, 260)          0           embedding_8[0][0]                
__________________________________________________________________________________________________
concatenate_4 (Concatenate)     (None, 1396)         0           flatten_7[0][0]                  
                                                                 flatten_8[0][0]                  
__________________________________________________________________________________________________
dense_10 (Dense)                (None, 13)           18161       concatenate_4[0][0]              
__________________________________________________________________________________________________
dropout_7 (Dropout)             (None, 13)           0           dense_10[0][0]                   
__________________________________________________________________________________________________
dense_11 (Dense)                (None, 12)           168         dropout_7[0][0]                  
__________________________________________________________________________________________________
dropout_8 (Dropout)             (None, 12)           0           dense_11[0][0]                   
__________________________________________________________________________________________________
dense_12 (Dense)                (None, 8)            104         dropout_8[0][0]                  
==================================================================================================
Total params: 822,630
Trainable params: 822,630
Non-trainable params: 0
__________________________________________________________________________________________________
None

__________________________________________________________________________________________________
…
	Dashed keys in vocabulary 1979
	One occurrence keys in vocabulary 1979 / 3181
	Embedding
==================================================================================================
	Initialisation = None
	Concatenation = False
	Lemma : 284
	POS = 65 
Deep model(Non compositional)
__________________________________________________________________________________________________
Layer (type)                    Output Shape         Param #     Connected to                     
==================================================================================================
input_13 (InputLayer)           (None, 4)            0                                            
__________________________________________________________________________________________________
input_14 (InputLayer)           (None, 4)            0                                            
__________________________________________________________________________________________________
embedding_13 (Embedding)        (None, 4, 284)       903404      input_13[0][0]                   
__________________________________________________________________________________________________
embedding_14 (Embedding)        (None, 4, 65)        7150        input_14[0][0]                   
__________________________________________________________________________________________________
flatten_13 (Flatten)            (None, 1136)         0           embedding_13[0][0]               
__________________________________________________________________________________________________
flatten_14 (Flatten)            (None, 260)          0           embedding_14[0][0]               
__________________________________________________________________________________________________
concatenate_7 (Concatenate)     (None, 1396)         0           flatten_13[0][0]                 
                                                                 flatten_14[0][0]                 
__________________________________________________________________________________________________
dense_19 (Dense)                (None, 13)           18161       concatenate_7[0][0]              
__________________________________________________________________________________________________
dropout_13 (Dropout)            (None, 13)           0           dense_19[0][0]                   
__________________________________________________________________________________________________
dense_20 (Dense)                (None, 12)           168         dropout_13[0][0]                 
__________________________________________________________________________________________________
dropout_14 (Dropout)            (None, 12)           0           dense_20[0][0]                   
__________________________________________________________________________________________________
dense_21 (Dense)                (None, 8)            104         dropout_14[0][0]                 
==================================================================================================
Total params: 928,987
Trainable params: 928,987
Non-trainable params: 0
__________________________________________________________________________________________________
None

__________________________________________________________________________________________________
…
	Dashed keys in vocabulary 1622
	One occurrence keys in vocabulary 1622 / 12174
	Embedding
==================================================================================================
	Initialisation = None
	Concatenation = False
	Lemma : 24
	POS = 39 
Deep model(Non compositional)
__________________________________________________________________________________________________
Layer (type)                    Output Shape         Param #     Connected to                     
==================================================================================================
input_19 (InputLayer)           (None, 4)            0                                            
__________________________________________________________________________________________________
input_20 (InputLayer)           (None, 4)            0                                            
__________________________________________________________________________________________________
embedding_19 (Embedding)        (None, 4, 24)        292176      input_19[0][0]                   
__________________________________________________________________________________________________
embedding_20 (Embedding)        (None, 4, 39)        5928        input_20[0][0]                   
__________________________________________________________________________________________________
flatten_19 (Flatten)            (None, 96)           0           embedding_19[0][0]               
__________________________________________________________________________________________________
flatten_20 (Flatten)            (None, 156)          0           embedding_20[0][0]               
__________________________________________________________________________________________________
concatenate_10 (Concatenate)    (None, 252)          0           flatten_19[0][0]                 
                                                                 flatten_20[0][0]                 
__________________________________________________________________________________________________
dense_28 (Dense)                (None, 32)           8096        concatenate_10[0][0]             
__________________________________________________________________________________________________
dropout_19 (Dropout)            (None, 32)           0           dense_28[0][0]                   
__________________________________________________________________________________________________
dense_29 (Dense)                (None, 86)           2838        dropout_19[0][0]                 
__________________________________________________________________________________________________
dropout_20 (Dropout)            (None, 86)           0           dense_29[0][0]                   
__________________________________________________________________________________________________
dense_30 (Dense)                (None, 8)            696         dropout_20[0][0]                 
==================================================================================================
Total params: 309,734
Trainable params: 309,734
Non-trainable params: 0
__________________________________________________________________________________________________
None

__________________________________________________________________________________________________
…
	Dashed keys in vocabulary 1622
	One occurrence keys in vocabulary 1622 / 12142
	Embedding
==================================================================================================
	Initialisation = None
	Concatenation = False
	Lemma : 24
	POS = 39 
Deep model(Non compositional)
__________________________________________________________________________________________________
Layer (type)                    Output Shape         Param #     Connected to                     
==================================================================================================
input_21 (InputLayer)           (None, 4)            0                                            
__________________________________________________________________________________________________
input_22 (InputLayer)           (None, 4)            0                                            
__________________________________________________________________________________________________
embedding_21 (Embedding)        (None, 4, 24)        291408      input_21[0][0]                   
__________________________________________________________________________________________________
embedding_22 (Embedding)        (None, 4, 39)        5928        input_22[0][0]                   
__________________________________________________________________________________________________
flatten_21 (Flatten)            (None, 96)           0           embedding_21[0][0]               
__________________________________________________________________________________________________
flatten_22 (Flatten)            (None, 156)          0           embedding_22[0][0]               
__________________________________________________________________________________________________
concatenate_11 (Concatenate)    (None, 252)          0           flatten_21[0][0]                 
                                                                 flatten_22[0][0]                 
__________________________________________________________________________________________________
dense_31 (Dense)                (None, 32)           8096        concatenate_11[0][0]             
__________________________________________________________________________________________________
dropout_21 (Dropout)            (None, 32)           0           dense_31[0][0]                   
__________________________________________________________________________________________________
dense_32 (Dense)                (None, 86)           2838        dropout_21[0][0]                 
__________________________________________________________________________________________________
dropout_22 (Dropout)            (None, 86)           0           dense_32[0][0]                   
__________________________________________________________________________________________________
dense_33 (Dense)                (None, 8)            696         dropout_22[0][0]                 
==================================================================================================
Total params: 308,966
Trainable params: 308,966
Non-trainable params: 0
__________________________________________________________________________________________________
None

__________________________________________________________________________________________________
…
	Dashed keys in vocabulary 1622
	One occurrence keys in vocabulary 1622 / 12159
	Embedding
==================================================================================================
	Initialisation = None
	Concatenation = False
	Lemma : 24
	POS = 39 
Deep model(Non compositional)
__________________________________________________________________________________________________
Layer (type)                    Output Shape         Param #     Connected to                     
==================================================================================================
input_23 (InputLayer)           (None, 4)            0                                            
__________________________________________________________________________________________________
input_24 (InputLayer)           (None, 4)            0                                            
__________________________________________________________________________________________________
embedding_23 (Embedding)        (None, 4, 24)        291816      input_23[0][0]                   
__________________________________________________________________________________________________
embedding_24 (Embedding)        (None, 4, 39)        5928        input_24[0][0]                   
__________________________________________________________________________________________________
flatten_23 (Flatten)            (None, 96)           0           embedding_23[0][0]               
__________________________________________________________________________________________________
flatten_24 (Flatten)            (None, 156)          0           embedding_24[0][0]               
__________________________________________________________________________________________________
concatenate_12 (Concatenate)    (None, 252)          0           flatten_23[0][0]                 
                                                                 flatten_24[0][0]                 
__________________________________________________________________________________________________
dense_34 (Dense)                (None, 32)           8096        concatenate_12[0][0]             
__________________________________________________________________________________________________
dropout_23 (Dropout)            (None, 32)           0           dense_34[0][0]                   
__________________________________________________________________________________________________
dense_35 (Dense)                (None, 86)           2838        dropout_23[0][0]                 
__________________________________________________________________________________________________
dropout_24 (Dropout)            (None, 86)           0           dense_35[0][0]                   
__________________________________________________________________________________________________
dense_36 (Dense)                (None, 8)            696         dropout_24[0][0]                 
==================================================================================================
Total params: 309,374
Trainable params: 309,374
Non-trainable params: 0
__________________________________________________________________________________________________
None

__________________________________________________________________________________________________
…
	One occurrence keys in vocabulary 1660 / 15321
	Attention: important lemmas are not in vocbulary	Embedding
==================================================================================================
	Initialisation = None
	Concatenation = False
	Lemma : 24
	POS = 39 
Deep model(Non compositional)
__________________________________________________________________________________________________
Layer (type)                    Output Shape         Param #     Connected to                     
==================================================================================================
input_25 (InputLayer)           (None, 4)            0                                            
__________________________________________________________________________________________________
input_26 (InputLayer)           (None, 4)            0                                            
__________________________________________________________________________________________________
embedding_25 (Embedding)        (None, 4, 24)        367704      input_25[0][0]                   
__________________________________________________________________________________________________
embedding_26 (Embedding)        (None, 4, 39)        6591        input_26[0][0]                   
__________________________________________________________________________________________________
flatten_25 (Flatten)            (None, 96)           0           embedding_25[0][0]               
__________________________________________________________________________________________________
flatten_26 (Flatten)            (None, 156)          0           embedding_26[0][0]               
__________________________________________________________________________________________________
concatenate_13 (Concatenate)    (None, 252)          0           flatten_25[0][0]                 
                                                                 flatten_26[0][0]                 
__________________________________________________________________________________________________
dense_37 (Dense)                (None, 32)           8096        concatenate_13[0][0]             
__________________________________________________________________________________________________
dropout_25 (Dropout)            (None, 32)           0           dense_37[0][0]                   
__________________________________________________________________________________________________
dense_38 (Dense)                (None, 86)           2838        dropout_25[0][0]                 
__________________________________________________________________________________________________
dropout_26 (Dropout)            (None, 86)           0           dense_38[0][0]                   
__________________________________________________________________________________________________
dense_39 (Dense)                (None, 8)            696         dropout_26[0][0]                 
==================================================================================================
Total params: 385,925
Trainable params: 385,925
Non-trainable params: 0
__________________________________________________________________________________________________
None

__________________________________________________________________________________________________
…
	One occurrence keys in vocabulary 1660 / 15303
	Attention: important lemmas are not in vocbulary	Embedding
==================================================================================================
	Initialisation = None
	Concatenation = False
	Lemma : 24
	POS = 39 
Deep model(Non compositional)
__________________________________________________________________________________________________
Layer (type)                    Output Shape         Param #     Connected to                     
==================================================================================================
input_27 (InputLayer)           (None, 4)            0                                            
__________________________________________________________________________________________________
input_28 (InputLayer)           (None, 4)            0                                            
__________________________________________________________________________________________________
embedding_27 (Embedding)        (None, 4, 24)        367272      input_27[0][0]                   
__________________________________________________________________________________________________
embedding_28 (Embedding)        (None, 4, 39)        6591        input_28[0][0]                   
__________________________________________________________________________________________________
flatten_27 (Flatten)            (None, 96)           0           embedding_27[0][0]               
__________________________________________________________________________________________________
flatten_28 (Flatten)            (None, 156)          0           embedding_28[0][0]               
__________________________________________________________________________________________________
concatenate_14 (Concatenate)    (None, 252)          0           flatten_27[0][0]                 
                                                                 flatten_28[0][0]                 
__________________________________________________________________________________________________
dense_40 (Dense)                (None, 32)           8096        concatenate_14[0][0]             
__________________________________________________________________________________________________
dropout_27 (Dropout)            (None, 32)           0           dense_40[0][0]                   
__________________________________________________________________________________________________
dense_41 (Dense)                (None, 86)           2838        dropout_27[0][0]                 
__________________________________________________________________________________________________
dropout_28 (Dropout)            (None, 86)           0           dense_41[0][0]                   
__________________________________________________________________________________________________
dense_42 (Dense)                (None, 8)            696         dropout_28[0][0]                 
==================================================================================================
Total params: 385,493
Trainable params: 385,493
Non-trainable params: 0
__________________________________________________________________________________________________
None

__________________________________________________________________________________________________
…
	One occurrence keys in vocabulary 1660 / 15244
	Attention: important lemmas are not in vocbulary	Embedding
==================================================================================================
	Initialisation = None
	Concatenation = False
	Lemma : 24
	POS = 39 
Deep model(Non compositional)
__________________________________________________________________________________________________
Layer (type)                    Output Shape         Param #     Connected to                     
==================================================================================================
input_29 (InputLayer)           (None, 4)            0                                            
__________________________________________________________________________________________________
input_30 (InputLayer)           (None, 4)            0                                            
__________________________________________________________________________________________________
embedding_29 (Embedding)        (None, 4, 24)        365856      input_29[0][0]                   
__________________________________________________________________________________________________
embedding_30 (Embedding)        (None, 4, 39)        6591        input_30[0][0]                   
__________________________________________________________________________________________________
flatten_29 (Flatten)            (None, 96)           0           embedding_29[0][0]               
__________________________________________________________________________________________________
flatten_30 (Flatten)            (None, 156)          0           embedding_30[0][0]               
__________________________________________________________________________________________________
concatenate_15 (Concatenate)    (None, 252)          0           flatten_29[0][0]                 
                                                                 flatten_30[0][0]                 
__________________________________________________________________________________________________
dense_43 (Dense)                (None, 32)           8096        concatenate_15[0][0]             
__________________________________________________________________________________________________
dropout_29 (Dropout)            (None, 32)           0           dense_43[0][0]                   
__________________________________________________________________________________________________
dense_44 (Dense)                (None, 86)           2838        dropout_29[0][0]                 
__________________________________________________________________________________________________
dropout_30 (Dropout)            (None, 86)           0           dense_44[0][0]                   
__________________________________________________________________________________________________
dense_45 (Dense)                (None, 8)            696         dropout_30[0][0]                 
==================================================================================================
Total params: 384,077
Trainable params: 384,077
Non-trainable params: 0
__________________________________________________________________________________________________
None

__________________________________________________________________________________________________
…
	Dashed keys in vocabulary 1979
	One occurrence keys in vocabulary 1979 / 12529
	Embedding
==================================================================================================
	Initialisation = None
	Concatenation = False
	Lemma : 24
	POS = 39 
Deep model(Non compositional)
__________________________________________________________________________________________________
Layer (type)                    Output Shape         Param #     Connected to                     
==================================================================================================
input_31 (InputLayer)           (None, 4)            0                                            
__________________________________________________________________________________________________
input_32 (InputLayer)           (None, 4)            0                                            
__________________________________________________________________________________________________
embedding_31 (Embedding)        (None, 4, 24)        300696      input_31[0][0]                   
__________________________________________________________________________________________________
embedding_32 (Embedding)        (None, 4, 39)        4290        input_32[0][0]                   
__________________________________________________________________________________________________
flatten_31 (Flatten)            (None, 96)           0           embedding_31[0][0]               
__________________________________________________________________________________________________
flatten_32 (Flatten)            (None, 156)          0           embedding_32[0][0]               
__________________________________________________________________________________________________
concatenate_16 (Concatenate)    (None, 252)          0           flatten_31[0][0]                 
                                                                 flatten_32[0][0]                 
__________________________________________________________________________________________________
dense_46 (Dense)                (None, 32)           8096        concatenate_16[0][0]             
__________________________________________________________________________________________________
dropout_31 (Dropout)            (None, 32)           0           dense_46[0][0]                   
__________________________________________________________________________________________________
dense_47 (Dense)                (None, 86)           2838        dropout_31[0][0]                 
__________________________________________________________________________________________________
dropout_32 (Dropout)            (None, 86)           0           dense_47[0][0]                   
__________________________________________________________________________________________________
dense_48 (Dense)                (None, 8)            696         dropout_32[0][0]                 
==================================================================================================
Total params: 316,616
Trainable params: 316,616
Non-trainable params: 0
__________________________________________________________________________________________________
None

__________________________________________________________________________________________________
…
	Dashed keys in vocabulary 1979
	One occurrence keys in vocabulary 1979 / 12525
	Embedding
==================================================================================================
	Initialisation = None
	Concatenation = False
	Lemma : 24
	POS = 39 
Deep model(Non compositional)
__________________________________________________________________________________________________
Layer (type)                    Output Shape         Param #     Connected to                     
==================================================================================================
input_33 (InputLayer)           (None, 4)            0                                            
__________________________________________________________________________________________________
input_34 (InputLayer)           (None, 4)            0                                            
__________________________________________________________________________________________________
embedding_33 (Embedding)        (None, 4, 24)        300600      input_33[0][0]                   
__________________________________________________________________________________________________
embedding_34 (Embedding)        (None, 4, 39)        4290        input_34[0][0]                   
__________________________________________________________________________________________________
flatten_33 (Flatten)            (None, 96)           0           embedding_33[0][0]               
__________________________________________________________________________________________________
flatten_34 (Flatten)            (None, 156)          0           embedding_34[0][0]               
__________________________________________________________________________________________________
concatenate_17 (Concatenate)    (None, 252)          0           flatten_33[0][0]                 
                                                                 flatten_34[0][0]                 
__________________________________________________________________________________________________
dense_49 (Dense)                (None, 32)           8096        concatenate_17[0][0]             
__________________________________________________________________________________________________
dropout_33 (Dropout)            (None, 32)           0           dense_49[0][0]                   
__________________________________________________________________________________________________
dense_50 (Dense)                (None, 86)           2838        dropout_33[0][0]                 
__________________________________________________________________________________________________
dropout_34 (Dropout)            (None, 86)           0           dense_50[0][0]                   
__________________________________________________________________________________________________
dense_51 (Dense)                (None, 8)            696         dropout_34[0][0]                 
==================================================================================================
Total params: 316,520
Trainable params: 316,520
Non-trainable params: 0
__________________________________________________________________________________________________
None

__________________________________________________________________________________________________
…
	Dashed keys in vocabulary 1979
	One occurrence keys in vocabulary 1979 / 12587
	Embedding
==================================================================================================
	Initialisation = None
	Concatenation = False
	Lemma : 24
	POS = 39 
Deep model(Non compositional)
__________________________________________________________________________________________________
Layer (type)                    Output Shape         Param #     Connected to                     
==================================================================================================
input_35 (InputLayer)           (None, 4)            0                                            
__________________________________________________________________________________________________
input_36 (InputLayer)           (None, 4)            0                                            
__________________________________________________________________________________________________
embedding_35 (Embedding)        (None, 4, 24)        302088      input_35[0][0]                   
__________________________________________________________________________________________________
embedding_36 (Embedding)        (None, 4, 39)        4290        input_36[0][0]                   
__________________________________________________________________________________________________
flatten_35 (Flatten)            (None, 96)           0           embedding_35[0][0]               
__________________________________________________________________________________________________
flatten_36 (Flatten)            (None, 156)          0           embedding_36[0][0]               
__________________________________________________________________________________________________
concatenate_18 (Concatenate)    (None, 252)          0           flatten_35[0][0]                 
                                                                 flatten_36[0][0]                 
__________________________________________________________________________________________________
dense_52 (Dense)                (None, 32)           8096        concatenate_18[0][0]             
__________________________________________________________________________________________________
dropout_35 (Dropout)            (None, 32)           0           dense_52[0][0]                   
__________________________________________________________________________________________________
dense_53 (Dense)                (None, 86)           2838        dropout_35[0][0]                 
__________________________________________________________________________________________________
dropout_36 (Dropout)            (None, 86)           0           dense_53[0][0]                   
__________________________________________________________________________________________________
dense_54 (Dense)                (None, 8)            696         dropout_36[0][0]                 
==================================================================================================
Total params: 318,008
Trainable params: 318,008
Non-trainable params: 0
__________________________________________________________________________________________________
None

__________________________________________________________________________________________________
…
	Dashed keys in vocabulary 1622
	One occurrence keys in vocabulary 1622 / 12174
	Embedding
==================================================================================================
	Initialisation = None
	Concatenation = False
	Lemma : 184
	POS = 28 
Deep model(Non compositional)
__________________________________________________________________________________________________
Layer (type)                    Output Shape         Param #     Connected to                     
==================================================================================================
input_37 (InputLayer)           (None, 4)            0                                            
__________________________________________________________________________________________________
input_38 (InputLayer)           (None, 4)            0                                            
__________________________________________________________________________________________________
embedding_37 (Embedding)        (None, 4, 184)       2240016     input_37[0][0]                   
__________________________________________________________________________________________________
embedding_38 (Embedding)        (None, 4, 28)        4256        input_38[0][0]                   
__________________________________________________________________________________________________
flatten_37 (Flatten)            (None, 736)          0           embedding_37[0][0]               
__________________________________________________________________________________________________
flatten_38 (Flatten)            (None, 112)          0           embedding_38[0][0]               
__________________________________________________________________________________________________
concatenate_19 (Concatenate)    (None, 848)          0           flatten_37[0][0]                 
                                                                 flatten_38[0][0]                 
__________________________________________________________________________________________________
dense_55 (Dense)                (None, 30)           25470       concatenate_19[0][0]             
__________________________________________________________________________________________________
dropout_37 (Dropout)            (None, 30)           0           dense_55[0][0]                   
__________________________________________________________________________________________________
dense_56 (Dense)                (None, 66)           2046        dropout_37[0][0]                 
__________________________________________________________________________________________________
dropout_38 (Dropout)            (None, 66)           0           dense_56[0][0]                   
__________________________________________________________________________________________________
dense_57 (Dense)                (None, 8)            536         dropout_38[0][0]                 
==================================================================================================
Total params: 2,272,324
Trainable params: 2,272,324
Non-trainable params: 0
__________________________________________________________________________________________________
None

__________________________________________________________________________________________________
…
	Dashed keys in vocabulary 1622
	One occurrence keys in vocabulary 1622 / 12142
	Embedding
==================================================================================================
	Initialisation = None
	Concatenation = False
	Lemma : 184
	POS = 28 
Deep model(Non compositional)
__________________________________________________________________________________________________
Layer (type)                    Output Shape         Param #     Connected to                     
==================================================================================================
input_39 (InputLayer)           (None, 4)            0                                            
__________________________________________________________________________________________________
input_40 (InputLayer)           (None, 4)            0                                            
__________________________________________________________________________________________________
embedding_39 (Embedding)        (None, 4, 184)       2234128     input_39[0][0]                   
__________________________________________________________________________________________________
embedding_40 (Embedding)        (None, 4, 28)        4256        input_40[0][0]                   
__________________________________________________________________________________________________
flatten_39 (Flatten)            (None, 736)          0           embedding_39[0][0]               
__________________________________________________________________________________________________
flatten_40 (Flatten)            (None, 112)          0           embedding_40[0][0]               
__________________________________________________________________________________________________
concatenate_20 (Concatenate)    (None, 848)          0           flatten_39[0][0]                 
                                                                 flatten_40[0][0]                 
__________________________________________________________________________________________________
dense_58 (Dense)                (None, 30)           25470       concatenate_20[0][0]             
__________________________________________________________________________________________________
dropout_39 (Dropout)            (None, 30)           0           dense_58[0][0]                   
__________________________________________________________________________________________________
dense_59 (Dense)                (None, 66)           2046        dropout_39[0][0]                 
__________________________________________________________________________________________________
dropout_40 (Dropout)            (None, 66)           0           dense_59[0][0]                   
__________________________________________________________________________________________________
dense_60 (Dense)                (None, 8)            536         dropout_40[0][0]                 
==================================================================================================
Total params: 2,266,436
Trainable params: 2,266,436
Non-trainable params: 0
__________________________________________________________________________________________________
None

__________________________________________________________________________________________________
…
	Dashed keys in vocabulary 1622
	One occurrence keys in vocabulary 1622 / 12159
	Embedding
==================================================================================================
	Initialisation = None
	Concatenation = False
	Lemma : 184
	POS = 28 
Deep model(Non compositional)
__________________________________________________________________________________________________
Layer (type)                    Output Shape         Param #     Connected to                     
==================================================================================================
input_41 (InputLayer)           (None, 4)            0                                            
__________________________________________________________________________________________________
input_42 (InputLayer)           (None, 4)            0                                            
__________________________________________________________________________________________________
embedding_41 (Embedding)        (None, 4, 184)       2237256     input_41[0][0]                   
__________________________________________________________________________________________________
embedding_42 (Embedding)        (None, 4, 28)        4256        input_42[0][0]                   
__________________________________________________________________________________________________
flatten_41 (Flatten)            (None, 736)          0           embedding_41[0][0]               
__________________________________________________________________________________________________
flatten_42 (Flatten)            (None, 112)          0           embedding_42[0][0]               
__________________________________________________________________________________________________
concatenate_21 (Concatenate)    (None, 848)          0           flatten_41[0][0]                 
                                                                 flatten_42[0][0]                 
__________________________________________________________________________________________________
dense_61 (Dense)                (None, 30)           25470       concatenate_21[0][0]             
__________________________________________________________________________________________________
dropout_41 (Dropout)            (None, 30)           0           dense_61[0][0]                   
__________________________________________________________________________________________________
dense_62 (Dense)                (None, 66)           2046        dropout_41[0][0]                 
__________________________________________________________________________________________________
dropout_42 (Dropout)            (None, 66)           0           dense_62[0][0]                   
__________________________________________________________________________________________________
dense_63 (Dense)                (None, 8)            536         dropout_42[0][0]                 
==================================================================================================
Total params: 2,269,564
Trainable params: 2,269,564
Non-trainable params: 0
__________________________________________________________________________________________________
None

__________________________________________________________________________________________________
…
	One occurrence keys in vocabulary 1660 / 15321
	Attention: important lemmas are not in vocbulary	Embedding
==================================================================================================
	Initialisation = None
	Concatenation = False
	Lemma : 184
	POS = 28 
Deep model(Non compositional)
__________________________________________________________________________________________________
Layer (type)                    Output Shape         Param #     Connected to                     
==================================================================================================
input_43 (InputLayer)           (None, 4)            0                                            
__________________________________________________________________________________________________
input_44 (InputLayer)           (None, 4)            0                                            
__________________________________________________________________________________________________
embedding_43 (Embedding)        (None, 4, 184)       2819064     input_43[0][0]                   
__________________________________________________________________________________________________
embedding_44 (Embedding)        (None, 4, 28)        4732        input_44[0][0]                   
__________________________________________________________________________________________________
flatten_43 (Flatten)            (None, 736)          0           embedding_43[0][0]               
__________________________________________________________________________________________________
flatten_44 (Flatten)            (None, 112)          0           embedding_44[0][0]               
__________________________________________________________________________________________________
concatenate_22 (Concatenate)    (None, 848)          0           flatten_43[0][0]                 
                                                                 flatten_44[0][0]                 
__________________________________________________________________________________________________
dense_64 (Dense)                (None, 30)           25470       concatenate_22[0][0]             
__________________________________________________________________________________________________
dropout_43 (Dropout)            (None, 30)           0           dense_64[0][0]                   
__________________________________________________________________________________________________
dense_65 (Dense)                (None, 66)           2046        dropout_43[0][0]                 
__________________________________________________________________________________________________
dropout_44 (Dropout)            (None, 66)           0           dense_65[0][0]                   
__________________________________________________________________________________________________
dense_66 (Dense)                (None, 8)            536         dropout_44[0][0]                 
==================================================================================================
Total params: 2,851,848
Trainable params: 2,851,848
Non-trainable params: 0
__________________________________________________________________________________________________
None

__________________________________________________________________________________________________
…
	One occurrence keys in vocabulary 1660 / 15303
	Attention: important lemmas are not in vocbulary	Embedding
==================================================================================================
	Initialisation = None
	Concatenation = False
	Lemma : 184
	POS = 28 
Deep model(Non compositional)
__________________________________________________________________________________________________
Layer (type)                    Output Shape         Param #     Connected to                     
==================================================================================================
input_45 (InputLayer)           (None, 4)            0                                            
__________________________________________________________________________________________________
input_46 (InputLayer)           (None, 4)            0                                            
__________________________________________________________________________________________________
embedding_45 (Embedding)        (None, 4, 184)       2815752     input_45[0][0]                   
__________________________________________________________________________________________________
embedding_46 (Embedding)        (None, 4, 28)        4732        input_46[0][0]                   
__________________________________________________________________________________________________
flatten_45 (Flatten)            (None, 736)          0           embedding_45[0][0]               
__________________________________________________________________________________________________
flatten_46 (Flatten)            (None, 112)          0           embedding_46[0][0]               
__________________________________________________________________________________________________
concatenate_23 (Concatenate)    (None, 848)          0           flatten_45[0][0]                 
                                                                 flatten_46[0][0]                 
__________________________________________________________________________________________________
dense_67 (Dense)                (None, 30)           25470       concatenate_23[0][0]             
__________________________________________________________________________________________________
dropout_45 (Dropout)            (None, 30)           0           dense_67[0][0]                   
__________________________________________________________________________________________________
dense_68 (Dense)                (None, 66)           2046        dropout_45[0][0]                 
__________________________________________________________________________________________________
dropout_46 (Dropout)            (None, 66)           0           dense_68[0][0]                   
__________________________________________________________________________________________________
dense_69 (Dense)                (None, 8)            536         dropout_46[0][0]                 
==================================================================================================
Total params: 2,848,536
Trainable params: 2,848,536
Non-trainable params: 0
__________________________________________________________________________________________________
None

__________________________________________________________________________________________________
…
	One occurrence keys in vocabulary 1660 / 15244
	Attention: important lemmas are not in vocbulary	Embedding
==================================================================================================
	Initialisation = None
	Concatenation = False
	Lemma : 184
	POS = 28 
Deep model(Non compositional)
__________________________________________________________________________________________________
Layer (type)                    Output Shape         Param #     Connected to                     
==================================================================================================
input_47 (InputLayer)           (None, 4)            0                                            
__________________________________________________________________________________________________
input_48 (InputLayer)           (None, 4)            0                                            
__________________________________________________________________________________________________
embedding_47 (Embedding)        (None, 4, 184)       2804896     input_47[0][0]                   
__________________________________________________________________________________________________
embedding_48 (Embedding)        (None, 4, 28)        4732        input_48[0][0]                   
__________________________________________________________________________________________________
flatten_47 (Flatten)            (None, 736)          0           embedding_47[0][0]               
__________________________________________________________________________________________________
flatten_48 (Flatten)            (None, 112)          0           embedding_48[0][0]               
__________________________________________________________________________________________________
concatenate_24 (Concatenate)    (None, 848)          0           flatten_47[0][0]                 
                                                                 flatten_48[0][0]                 
__________________________________________________________________________________________________
dense_70 (Dense)                (None, 30)           25470       concatenate_24[0][0]             
__________________________________________________________________________________________________
dropout_47 (Dropout)            (None, 30)           0           dense_70[0][0]                   
__________________________________________________________________________________________________
dense_71 (Dense)                (None, 66)           2046        dropout_47[0][0]                 
__________________________________________________________________________________________________
dropout_48 (Dropout)            (None, 66)           0           dense_71[0][0]                   
__________________________________________________________________________________________________
dense_72 (Dense)                (None, 8)            536         dropout_48[0][0]                 
==================================================================================================
Total params: 2,837,680
Trainable params: 2,837,680
Non-trainable params: 0
__________________________________________________________________________________________________
None

__________________________________________________________________________________________________
…
	Dashed keys in vocabulary 1979
	One occurrence keys in vocabulary 1979 / 12529
	Embedding
==================================================================================================
	Initialisation = None
	Concatenation = False
	Lemma : 184
	POS = 28 
Deep model(Non compositional)
__________________________________________________________________________________________________
Layer (type)                    Output Shape         Param #     Connected to                     
==================================================================================================
input_49 (InputLayer)           (None, 4)            0                                            
__________________________________________________________________________________________________
input_50 (InputLayer)           (None, 4)            0                                            
__________________________________________________________________________________________________
embedding_49 (Embedding)        (None, 4, 184)       2305336     input_49[0][0]                   
__________________________________________________________________________________________________
embedding_50 (Embedding)        (None, 4, 28)        3080        input_50[0][0]                   
__________________________________________________________________________________________________
flatten_49 (Flatten)            (None, 736)          0           embedding_49[0][0]               
__________________________________________________________________________________________________
flatten_50 (Flatten)            (None, 112)          0           embedding_50[0][0]               
__________________________________________________________________________________________________
concatenate_25 (Concatenate)    (None, 848)          0           flatten_49[0][0]                 
                                                                 flatten_50[0][0]                 
__________________________________________________________________________________________________
dense_73 (Dense)                (None, 30)           25470       concatenate_25[0][0]             
__________________________________________________________________________________________________
dropout_49 (Dropout)            (None, 30)           0           dense_73[0][0]                   
__________________________________________________________________________________________________
dense_74 (Dense)                (None, 66)           2046        dropout_49[0][0]                 
__________________________________________________________________________________________________
dropout_50 (Dropout)            (None, 66)           0           dense_74[0][0]                   
__________________________________________________________________________________________________
dense_75 (Dense)                (None, 8)            536         dropout_50[0][0]                 
==================================================================================================
Total params: 2,336,468
Trainable params: 2,336,468
Non-trainable params: 0
__________________________________________________________________________________________________
None

__________________________________________________________________________________________________
…
	Dashed keys in vocabulary 1979
	One occurrence keys in vocabulary 1979 / 12525
	Embedding
==================================================================================================
	Initialisation = None
	Concatenation = False
	Lemma : 184
	POS = 28 
Deep model(Non compositional)
__________________________________________________________________________________________________
Layer (type)                    Output Shape         Param #     Connected to                     
==================================================================================================
input_51 (InputLayer)           (None, 4)            0                                            
__________________________________________________________________________________________________
input_52 (InputLayer)           (None, 4)            0                                            
__________________________________________________________________________________________________
embedding_51 (Embedding)        (None, 4, 184)       2304600     input_51[0][0]                   
__________________________________________________________________________________________________
embedding_52 (Embedding)        (None, 4, 28)        3080        input_52[0][0]                   
__________________________________________________________________________________________________
flatten_51 (Flatten)            (None, 736)          0           embedding_51[0][0]               
__________________________________________________________________________________________________
flatten_52 (Flatten)            (None, 112)          0           embedding_52[0][0]               
__________________________________________________________________________________________________
concatenate_26 (Concatenate)    (None, 848)          0           flatten_51[0][0]                 
                                                                 flatten_52[0][0]                 
__________________________________________________________________________________________________
dense_76 (Dense)                (None, 30)           25470       concatenate_26[0][0]             
__________________________________________________________________________________________________
dropout_51 (Dropout)            (None, 30)           0           dense_76[0][0]                   
__________________________________________________________________________________________________
dense_77 (Dense)                (None, 66)           2046        dropout_51[0][0]                 
__________________________________________________________________________________________________
dropout_52 (Dropout)            (None, 66)           0           dense_77[0][0]                   
__________________________________________________________________________________________________
dense_78 (Dense)                (None, 8)            536         dropout_52[0][0]                 
==================================================================================================
Total params: 2,335,732
Trainable params: 2,335,732
Non-trainable params: 0
__________________________________________________________________________________________________
None

__________________________________________________________________________________________________
…
	Dashed keys in vocabulary 1979
	One occurrence keys in vocabulary 1979 / 12587
	Embedding
==================================================================================================
	Initialisation = None
	Concatenation = False
	Lemma : 184
	POS = 28 
Deep model(Non compositional)
__________________________________________________________________________________________________
Layer (type)                    Output Shape         Param #     Connected to                     
==================================================================================================
input_53 (InputLayer)           (None, 4)            0                                            
__________________________________________________________________________________________________
input_54 (InputLayer)           (None, 4)            0                                            
__________________________________________________________________________________________________
embedding_53 (Embedding)        (None, 4, 184)       2316008     input_53[0][0]                   
__________________________________________________________________________________________________
embedding_54 (Embedding)        (None, 4, 28)        3080        input_54[0][0]                   
__________________________________________________________________________________________________
flatten_53 (Flatten)            (None, 736)          0           embedding_53[0][0]               
__________________________________________________________________________________________________
flatten_54 (Flatten)            (None, 112)          0           embedding_54[0][0]               
__________________________________________________________________________________________________
concatenate_27 (Concatenate)    (None, 848)          0           flatten_53[0][0]                 
                                                                 flatten_54[0][0]                 
__________________________________________________________________________________________________
dense_79 (Dense)                (None, 30)           25470       concatenate_27[0][0]             
__________________________________________________________________________________________________
dropout_53 (Dropout)            (None, 30)           0           dense_79[0][0]                   
__________________________________________________________________________________________________
dense_80 (Dense)                (None, 66)           2046        dropout_53[0][0]                 
__________________________________________________________________________________________________
dropout_54 (Dropout)            (None, 66)           0           dense_80[0][0]                   
__________________________________________________________________________________________________
dense_81 (Dense)                (None, 8)            536         dropout_54[0][0]                 
==================================================================================================
Total params: 2,347,140
Trainable params: 2,347,140
Non-trainable params: 0
__________________________________________________________________________________________________
None

__________________________________________________________________________________________________
…
	Dashed keys in vocabulary 1622
	One occurrence keys in vocabulary 1622 / 2800
	Embedding
==================================================================================================
	Initialisation = None
	Concatenation = False
	Lemma : 449
	POS = 40 
Deep model(Non compositional)
__________________________________________________________________________________________________
Layer (type)                    Output Shape         Param #     Connected to                     
==================================================================================================
input_55 (InputLayer)           (None, 4)            0                                            
__________________________________________________________________________________________________
input_56 (InputLayer)           (None, 4)            0                                            
__________________________________________________________________________________________________
embedding_55 (Embedding)        (None, 4, 449)       1257200     input_55[0][0]                   
__________________________________________________________________________________________________
embedding_56 (Embedding)        (None, 4, 40)        6080        input_56[0][0]                   
__________________________________________________________________________________________________
flatten_55 (Flatten)            (None, 1796)         0           embedding_55[0][0]               
__________________________________________________________________________________________________
flatten_56 (Flatten)            (None, 160)          0           embedding_56[0][0]               
__________________________________________________________________________________________________
concatenate_28 (Concatenate)    (None, 1956)         0           flatten_55[0][0]                 
                                                                 flatten_56[0][0]                 
__________________________________________________________________________________________________
dense_82 (Dense)                (None, 80)           156560      concatenate_28[0][0]             
__________________________________________________________________________________________________
dropout_55 (Dropout)            (None, 80)           0           dense_82[0][0]                   
__________________________________________________________________________________________________
dense_83 (Dense)                (None, 18)           1458        dropout_55[0][0]                 
__________________________________________________________________________________________________
dropout_56 (Dropout)            (None, 18)           0           dense_83[0][0]                   
__________________________________________________________________________________________________
dense_84 (Dense)                (None, 8)            152         dropout_56[0][0]                 
==================================================================================================
Total params: 1,421,450
Trainable params: 1,421,450
Non-trainable params: 0
__________________________________________________________________________________________________
None

__________________________________________________________________________________________________
…
	One occurrence keys in vocabulary 1660 / 2793
	Attention: important lemmas are not in vocbulary	Embedding
==================================================================================================
	Initialisation = None
	Concatenation = False
	Lemma : 449
	POS = 40 
Deep model(Non compositional)
__________________________________________________________________________________________________
Layer (type)                    Output Shape         Param #     Connected to                     
==================================================================================================
input_61 (InputLayer)           (None, 4)            0                                            
__________________________________________________________________________________________________
input_62 (InputLayer)           (None, 4)            0                                            
__________________________________________________________________________________________________
embedding_61 (Embedding)        (None, 4, 449)       1254057     input_61[0][0]                   
__________________________________________________________________________________________________
embedding_62 (Embedding)        (None, 4, 40)        6760        input_62[0][0]                   
__________________________________________________________________________________________________
flatten_61 (Flatten)            (None, 1796)         0           embedding_61[0][0]               
__________________________________________________________________________________________________
flatten_62 (Flatten)            (None, 160)          0           embedding_62[0][0]               
__________________________________________________________________________________________________
concatenate_31 (Concatenate)    (None, 1956)         0           flatten_61[0][0]                 
                                                                 flatten_62[0][0]                 
__________________________________________________________________________________________________
dense_91 (Dense)                (None, 80)           156560      concatenate_31[0][0]             
__________________________________________________________________________________________________
dropout_61 (Dropout)            (None, 80)           0           dense_91[0][0]                   
__________________________________________________________________________________________________
dense_92 (Dense)                (None, 18)           1458        dropout_61[0][0]                 
__________________________________________________________________________________________________
dropout_62 (Dropout)            (None, 18)           0           dense_92[0][0]                   
__________________________________________________________________________________________________
dense_93 (Dense)                (None, 8)            152         dropout_62[0][0]                 
==================================================================================================
Total params: 1,418,987
Trainable params: 1,418,987
Non-trainable params: 0
__________________________________________________________________________________________________
None

__________________________________________________________________________________________________
…
	Dashed keys in vocabulary 1979
	One occurrence keys in vocabulary 1979 / 3181
	Embedding
==================================================================================================
	Initialisation = None
	Concatenation = False
	Lemma : 449
	POS = 40 
Deep model(Non compositional)
__________________________________________________________________________________________________
Layer (type)                    Output Shape         Param #     Connected to                     
==================================================================================================
input_67 (InputLayer)           (None, 4)            0                                            
__________________________________________________________________________________________________
input_68 (InputLayer)           (None, 4)            0                                            
__________________________________________________________________________________________________
embedding_67 (Embedding)        (None, 4, 449)       1428269     input_67[0][0]                   
__________________________________________________________________________________________________
embedding_68 (Embedding)        (None, 4, 40)        4400        input_68[0][0]                   
__________________________________________________________________________________________________
flatten_67 (Flatten)            (None, 1796)         0           embedding_67[0][0]               
__________________________________________________________________________________________________
flatten_68 (Flatten)            (None, 160)          0           embedding_68[0][0]               
__________________________________________________________________________________________________
concatenate_34 (Concatenate)    (None, 1956)         0           flatten_67[0][0]                 
                                                                 flatten_68[0][0]                 
__________________________________________________________________________________________________
dense_100 (Dense)               (None, 80)           156560      concatenate_34[0][0]             
__________________________________________________________________________________________________
dropout_67 (Dropout)            (None, 80)           0           dense_100[0][0]                  
__________________________________________________________________________________________________
dense_101 (Dense)               (None, 18)           1458        dropout_67[0][0]                 
__________________________________________________________________________________________________
dropout_68 (Dropout)            (None, 18)           0           dense_101[0][0]                  
__________________________________________________________________________________________________
dense_102 (Dense)               (None, 8)            152         dropout_68[0][0]                 
==================================================================================================
Total params: 1,590,839
Trainable params: 1,590,839
Non-trainable params: 0
__________________________________________________________________________________________________
None

__________________________________________________________________________________________________
…
	Dashed keys in vocabulary 1622
	One occurrence keys in vocabulary 1622 / 12174
	Embedding
==================================================================================================
	Initialisation = None
	Concatenation = False
	Lemma : 352
	POS = 17 
Deep model(Non compositional)
__________________________________________________________________________________________________
Layer (type)                    Output Shape         Param #     Connected to                     
==================================================================================================
input_73 (InputLayer)           (None, 4)            0                                            
__________________________________________________________________________________________________
input_74 (InputLayer)           (None, 4)            0                                            
__________________________________________________________________________________________________
embedding_73 (Embedding)        (None, 4, 352)       4285248     input_73[0][0]                   
__________________________________________________________________________________________________
embedding_74 (Embedding)        (None, 4, 17)        2584        input_74[0][0]                   
__________________________________________________________________________________________________
flatten_73 (Flatten)            (None, 1408)         0           embedding_73[0][0]               
__________________________________________________________________________________________________
flatten_74 (Flatten)            (None, 68)           0           embedding_74[0][0]               
__________________________________________________________________________________________________
concatenate_37 (Concatenate)    (None, 1476)         0           flatten_73[0][0]                 
                                                                 flatten_74[0][0]                 
__________________________________________________________________________________________________
dense_109 (Dense)               (None, 55)           81235       concatenate_37[0][0]             
__________________________________________________________________________________________________
dropout_73 (Dropout)            (None, 55)           0           dense_109[0][0]                  
__________________________________________________________________________________________________
dense_110 (Dense)               (None, 84)           4704        dropout_73[0][0]                 
__________________________________________________________________________________________________
dropout_74 (Dropout)            (None, 84)           0           dense_110[0][0]                  
__________________________________________________________________________________________________
dense_111 (Dense)               (None, 8)            680         dropout_74[0][0]                 
==================================================================================================
Total params: 4,374,451
Trainable params: 4,374,451
Non-trainable params: 0
__________________________________________________________________________________________________
None

__________________________________________________________________________________________________
…
	Dashed keys in vocabulary 1622
	One occurrence keys in vocabulary 1622 / 12142
	Embedding
==================================================================================================
	Initialisation = None
	Concatenation = False
	Lemma : 352
	POS = 17 
Deep model(Non compositional)
__________________________________________________________________________________________________
Layer (type)                    Output Shape         Param #     Connected to                     
==================================================================================================
input_75 (InputLayer)           (None, 4)            0                                            
__________________________________________________________________________________________________
input_76 (InputLayer)           (None, 4)            0                                            
__________________________________________________________________________________________________
embedding_75 (Embedding)        (None, 4, 352)       4273984     input_75[0][0]                   
__________________________________________________________________________________________________
embedding_76 (Embedding)        (None, 4, 17)        2584        input_76[0][0]                   
__________________________________________________________________________________________________
flatten_75 (Flatten)            (None, 1408)         0           embedding_75[0][0]               
__________________________________________________________________________________________________
flatten_76 (Flatten)            (None, 68)           0           embedding_76[0][0]               
__________________________________________________________________________________________________
concatenate_38 (Concatenate)    (None, 1476)         0           flatten_75[0][0]                 
                                                                 flatten_76[0][0]                 
__________________________________________________________________________________________________
dense_112 (Dense)               (None, 55)           81235       concatenate_38[0][0]             
__________________________________________________________________________________________________
dropout_75 (Dropout)            (None, 55)           0           dense_112[0][0]                  
__________________________________________________________________________________________________
dense_113 (Dense)               (None, 84)           4704        dropout_75[0][0]                 
__________________________________________________________________________________________________
dropout_76 (Dropout)            (None, 84)           0           dense_113[0][0]                  
__________________________________________________________________________________________________
dense_114 (Dense)               (None, 8)            680         dropout_76[0][0]                 
==================================================================================================
Total params: 4,363,187
Trainable params: 4,363,187
Non-trainable params: 0
__________________________________________________________________________________________________
None

__________________________________________________________________________________________________
…
	Dashed keys in vocabulary 1622
	One occurrence keys in vocabulary 1622 / 12159
	Embedding
==================================================================================================
	Initialisation = None
	Concatenation = False
	Lemma : 352
	POS = 17 
Deep model(Non compositional)
__________________________________________________________________________________________________
Layer (type)                    Output Shape         Param #     Connected to                     
==================================================================================================
input_77 (InputLayer)           (None, 4)            0                                            
__________________________________________________________________________________________________
input_78 (InputLayer)           (None, 4)            0                                            
__________________________________________________________________________________________________
embedding_77 (Embedding)        (None, 4, 352)       4279968     input_77[0][0]                   
__________________________________________________________________________________________________
embedding_78 (Embedding)        (None, 4, 17)        2584        input_78[0][0]                   
__________________________________________________________________________________________________
flatten_77 (Flatten)            (None, 1408)         0           embedding_77[0][0]               
__________________________________________________________________________________________________
flatten_78 (Flatten)            (None, 68)           0           embedding_78[0][0]               
__________________________________________________________________________________________________
concatenate_39 (Concatenate)    (None, 1476)         0           flatten_77[0][0]                 
                                                                 flatten_78[0][0]                 
__________________________________________________________________________________________________
dense_115 (Dense)               (None, 55)           81235       concatenate_39[0][0]             
__________________________________________________________________________________________________
dropout_77 (Dropout)            (None, 55)           0           dense_115[0][0]                  
__________________________________________________________________________________________________
dense_116 (Dense)               (None, 84)           4704        dropout_77[0][0]                 
__________________________________________________________________________________________________
dropout_78 (Dropout)            (None, 84)           0           dense_116[0][0]                  
__________________________________________________________________________________________________
dense_117 (Dense)               (None, 8)            680         dropout_78[0][0]                 
==================================================================================================
Total params: 4,369,171
Trainable params: 4,369,171
Non-trainable params: 0
__________________________________________________________________________________________________
None

__________________________________________________________________________________________________
…
	One occurrence keys in vocabulary 1660 / 15321
	Attention: important lemmas are not in vocbulary	Embedding
==================================================================================================
	Initialisation = None
	Concatenation = False
	Lemma : 352
	POS = 17 
Deep model(Non compositional)
__________________________________________________________________________________________________
Layer (type)                    Output Shape         Param #     Connected to                     
==================================================================================================
input_79 (InputLayer)           (None, 4)            0                                            
__________________________________________________________________________________________________
input_80 (InputLayer)           (None, 4)            0                                            
__________________________________________________________________________________________________
embedding_79 (Embedding)        (None, 4, 352)       5392992     input_79[0][0]                   
__________________________________________________________________________________________________
embedding_80 (Embedding)        (None, 4, 17)        2873        input_80[0][0]                   
__________________________________________________________________________________________________
flatten_79 (Flatten)            (None, 1408)         0           embedding_79[0][0]               
__________________________________________________________________________________________________
flatten_80 (Flatten)            (None, 68)           0           embedding_80[0][0]               
__________________________________________________________________________________________________
concatenate_40 (Concatenate)    (None, 1476)         0           flatten_79[0][0]                 
                                                                 flatten_80[0][0]                 
__________________________________________________________________________________________________
dense_118 (Dense)               (None, 55)           81235       concatenate_40[0][0]             
__________________________________________________________________________________________________
dropout_79 (Dropout)            (None, 55)           0           dense_118[0][0]                  
__________________________________________________________________________________________________
dense_119 (Dense)               (None, 84)           4704        dropout_79[0][0]                 
__________________________________________________________________________________________________
dropout_80 (Dropout)            (None, 84)           0           dense_119[0][0]                  
__________________________________________________________________________________________________
dense_120 (Dense)               (None, 8)            680         dropout_80[0][0]                 
==================================================================================================
Total params: 5,482,484
Trainable params: 5,482,484
Non-trainable params: 0
__________________________________________________________________________________________________
None

__________________________________________________________________________________________________
…
	One occurrence keys in vocabulary 1660 / 15303
	Attention: important lemmas are not in vocbulary	Embedding
==================================================================================================
	Initialisation = None
	Concatenation = False
	Lemma : 352
	POS = 17 
Deep model(Non compositional)
__________________________________________________________________________________________________
Layer (type)                    Output Shape         Param #     Connected to                     
==================================================================================================
input_81 (InputLayer)           (None, 4)            0                                            
__________________________________________________________________________________________________
input_82 (InputLayer)           (None, 4)            0                                            
__________________________________________________________________________________________________
embedding_81 (Embedding)        (None, 4, 352)       5386656     input_81[0][0]                   
__________________________________________________________________________________________________
embedding_82 (Embedding)        (None, 4, 17)        2873        input_82[0][0]                   
__________________________________________________________________________________________________
flatten_81 (Flatten)            (None, 1408)         0           embedding_81[0][0]               
__________________________________________________________________________________________________
flatten_82 (Flatten)            (None, 68)           0           embedding_82[0][0]               
__________________________________________________________________________________________________
concatenate_41 (Concatenate)    (None, 1476)         0           flatten_81[0][0]                 
                                                                 flatten_82[0][0]                 
__________________________________________________________________________________________________
dense_121 (Dense)               (None, 55)           81235       concatenate_41[0][0]             
__________________________________________________________________________________________________
dropout_81 (Dropout)            (None, 55)           0           dense_121[0][0]                  
__________________________________________________________________________________________________
dense_122 (Dense)               (None, 84)           4704        dropout_81[0][0]                 
__________________________________________________________________________________________________
dropout_82 (Dropout)            (None, 84)           0           dense_122[0][0]                  
__________________________________________________________________________________________________
dense_123 (Dense)               (None, 8)            680         dropout_82[0][0]                 
==================================================================================================
Total params: 5,476,148
Trainable params: 5,476,148
Non-trainable params: 0
__________________________________________________________________________________________________
None

__________________________________________________________________________________________________
…
	One occurrence keys in vocabulary 1660 / 15244
	Attention: important lemmas are not in vocbulary	Embedding
==================================================================================================
	Initialisation = None
	Concatenation = False
	Lemma : 352
	POS = 17 
Deep model(Non compositional)
__________________________________________________________________________________________________
Layer (type)                    Output Shape         Param #     Connected to                     
==================================================================================================
input_83 (InputLayer)           (None, 4)            0                                            
__________________________________________________________________________________________________
input_84 (InputLayer)           (None, 4)            0                                            
__________________________________________________________________________________________________
embedding_83 (Embedding)        (None, 4, 352)       5365888     input_83[0][0]                   
__________________________________________________________________________________________________
embedding_84 (Embedding)        (None, 4, 17)        2873        input_84[0][0]                   
__________________________________________________________________________________________________
flatten_83 (Flatten)            (None, 1408)         0           embedding_83[0][0]               
__________________________________________________________________________________________________
flatten_84 (Flatten)            (None, 68)           0           embedding_84[0][0]               
__________________________________________________________________________________________________
concatenate_42 (Concatenate)    (None, 1476)         0           flatten_83[0][0]                 
                                                                 flatten_84[0][0]                 
__________________________________________________________________________________________________
dense_124 (Dense)               (None, 55)           81235       concatenate_42[0][0]             
__________________________________________________________________________________________________
dropout_83 (Dropout)            (None, 55)           0           dense_124[0][0]                  
__________________________________________________________________________________________________
dense_125 (Dense)               (None, 84)           4704        dropout_83[0][0]                 
__________________________________________________________________________________________________
dropout_84 (Dropout)            (None, 84)           0           dense_125[0][0]                  
__________________________________________________________________________________________________
dense_126 (Dense)               (None, 8)            680         dropout_84[0][0]                 
==================================================================================================
Total params: 5,455,380
Trainable params: 5,455,380
Non-trainable params: 0
__________________________________________________________________________________________________
None

__________________________________________________________________________________________________
…
	Dashed keys in vocabulary 1979
	One occurrence keys in vocabulary 1979 / 12529
	Embedding
==================================================================================================
	Initialisation = None
	Concatenation = False
	Lemma : 352
	POS = 17 
Deep model(Non compositional)
__________________________________________________________________________________________________
Layer (type)                    Output Shape         Param #     Connected to                     
==================================================================================================
input_85 (InputLayer)           (None, 4)            0                                            
__________________________________________________________________________________________________
input_86 (InputLayer)           (None, 4)            0                                            
__________________________________________________________________________________________________
embedding_85 (Embedding)        (None, 4, 352)       4410208     input_85[0][0]                   
__________________________________________________________________________________________________
embedding_86 (Embedding)        (None, 4, 17)        1870        input_86[0][0]                   
__________________________________________________________________________________________________
flatten_85 (Flatten)            (None, 1408)         0           embedding_85[0][0]               
__________________________________________________________________________________________________
flatten_86 (Flatten)            (None, 68)           0           embedding_86[0][0]               
__________________________________________________________________________________________________
concatenate_43 (Concatenate)    (None, 1476)         0           flatten_85[0][0]                 
                                                                 flatten_86[0][0]                 
__________________________________________________________________________________________________
dense_127 (Dense)               (None, 55)           81235       concatenate_43[0][0]             
__________________________________________________________________________________________________
dropout_85 (Dropout)            (None, 55)           0           dense_127[0][0]                  
__________________________________________________________________________________________________
dense_128 (Dense)               (None, 84)           4704        dropout_85[0][0]                 
__________________________________________________________________________________________________
dropout_86 (Dropout)            (None, 84)           0           dense_128[0][0]                  
__________________________________________________________________________________________________
dense_129 (Dense)               (None, 8)            680         dropout_86[0][0]                 
==================================================================================================
Total params: 4,498,697
Trainable params: 4,498,697
Non-trainable params: 0
__________________________________________________________________________________________________
None

__________________________________________________________________________________________________
…
	Dashed keys in vocabulary 1979
	One occurrence keys in vocabulary 1979 / 12525
	Embedding
==================================================================================================
	Initialisation = None
	Concatenation = False
	Lemma : 352
	POS = 17 
Deep model(Non compositional)
__________________________________________________________________________________________________
Layer (type)                    Output Shape         Param #     Connected to                     
==================================================================================================
input_87 (InputLayer)           (None, 4)            0                                            
__________________________________________________________________________________________________
input_88 (InputLayer)           (None, 4)            0                                            
__________________________________________________________________________________________________
embedding_87 (Embedding)        (None, 4, 352)       4408800     input_87[0][0]                   
__________________________________________________________________________________________________
embedding_88 (Embedding)        (None, 4, 17)        1870        input_88[0][0]                   
__________________________________________________________________________________________________
flatten_87 (Flatten)            (None, 1408)         0           embedding_87[0][0]               
__________________________________________________________________________________________________
flatten_88 (Flatten)            (None, 68)           0           embedding_88[0][0]               
__________________________________________________________________________________________________
concatenate_44 (Concatenate)    (None, 1476)         0           flatten_87[0][0]                 
                                                                 flatten_88[0][0]                 
__________________________________________________________________________________________________
dense_130 (Dense)               (None, 55)           81235       concatenate_44[0][0]             
__________________________________________________________________________________________________
dropout_87 (Dropout)            (None, 55)           0           dense_130[0][0]                  
__________________________________________________________________________________________________
dense_131 (Dense)               (None, 84)           4704        dropout_87[0][0]                 
__________________________________________________________________________________________________
dropout_88 (Dropout)            (None, 84)           0           dense_131[0][0]                  
__________________________________________________________________________________________________
dense_132 (Dense)               (None, 8)            680         dropout_88[0][0]                 
==================================================================================================
Total params: 4,497,289
Trainable params: 4,497,289
Non-trainable params: 0
__________________________________________________________________________________________________
None

__________________________________________________________________________________________________
…
	Dashed keys in vocabulary 1979
	One occurrence keys in vocabulary 1979 / 12587
	Embedding
==================================================================================================
	Initialisation = None
	Concatenation = False
	Lemma : 352
	POS = 17 
Deep model(Non compositional)
__________________________________________________________________________________________________
Layer (type)                    Output Shape         Param #     Connected to                     
==================================================================================================
input_89 (InputLayer)           (None, 4)            0                                            
__________________________________________________________________________________________________
input_90 (InputLayer)           (None, 4)            0                                            
__________________________________________________________________________________________________
embedding_89 (Embedding)        (None, 4, 352)       4430624     input_89[0][0]                   
__________________________________________________________________________________________________
embedding_90 (Embedding)        (None, 4, 17)        1870        input_90[0][0]                   
__________________________________________________________________________________________________
flatten_89 (Flatten)            (None, 1408)         0           embedding_89[0][0]               
__________________________________________________________________________________________________
flatten_90 (Flatten)            (None, 68)           0           embedding_90[0][0]               
__________________________________________________________________________________________________
concatenate_45 (Concatenate)    (None, 1476)         0           flatten_89[0][0]                 
                                                                 flatten_90[0][0]                 
__________________________________________________________________________________________________
dense_133 (Dense)               (None, 55)           81235       concatenate_45[0][0]             
__________________________________________________________________________________________________
dropout_89 (Dropout)            (None, 55)           0           dense_133[0][0]                  
__________________________________________________________________________________________________
dense_134 (Dense)               (None, 84)           4704        dropout_89[0][0]                 
__________________________________________________________________________________________________
dropout_90 (Dropout)            (None, 84)           0           dense_134[0][0]                  
__________________________________________________________________________________________________
dense_135 (Dense)               (None, 8)            680         dropout_90[0][0]                 
==================================================================================================
Total params: 4,519,113
Trainable params: 4,519,113
Non-trainable params: 0
__________________________________________________________________________________________________
None

__________________________________________________________________________________________________
…
	Dashed keys in vocabulary 1622
	One occurrence keys in vocabulary 1622 / 12174
	Embedding
==================================================================================================
	Initialisation = None
	Concatenation = False
	Lemma : 77
	POS = 100 
Deep model(Non compositional)
__________________________________________________________________________________________________
Layer (type)                    Output Shape         Param #     Connected to                     
==================================================================================================
input_91 (InputLayer)           (None, 4)            0                                            
__________________________________________________________________________________________________
input_92 (InputLayer)           (None, 4)            0                                            
__________________________________________________________________________________________________
embedding_91 (Embedding)        (None, 4, 77)        937398      input_91[0][0]                   
__________________________________________________________________________________________________
embedding_92 (Embedding)        (None, 4, 100)       15200       input_92[0][0]                   
__________________________________________________________________________________________________
flatten_91 (Flatten)            (None, 308)          0           embedding_91[0][0]               
__________________________________________________________________________________________________
flatten_92 (Flatten)            (None, 400)          0           embedding_92[0][0]               
__________________________________________________________________________________________________
concatenate_46 (Concatenate)    (None, 708)          0           flatten_91[0][0]                 
                                                                 flatten_92[0][0]                 
__________________________________________________________________________________________________
dense_136 (Dense)               (None, 176)          124784      concatenate_46[0][0]             
__________________________________________________________________________________________________
dropout_91 (Dropout)            (None, 176)          0           dense_136[0][0]                  
__________________________________________________________________________________________________
dense_137 (Dense)               (None, 124)          21948       dropout_91[0][0]                 
__________________________________________________________________________________________________
dropout_92 (Dropout)            (None, 124)          0           dense_137[0][0]                  
__________________________________________________________________________________________________
dense_138 (Dense)               (None, 8)            1000        dropout_92[0][0]                 
==================================================================================================
Total params: 1,100,330
Trainable params: 1,100,330
Non-trainable params: 0
__________________________________________________________________________________________________
None

__________________________________________________________________________________________________
…
	Dashed keys in vocabulary 1622
	One occurrence keys in vocabulary 1622 / 12142
	Embedding
==================================================================================================
	Initialisation = None
	Concatenation = False
	Lemma : 77
	POS = 100 
Deep model(Non compositional)
__________________________________________________________________________________________________
Layer (type)                    Output Shape         Param #     Connected to                     
==================================================================================================
input_93 (InputLayer)           (None, 4)            0                                            
__________________________________________________________________________________________________
input_94 (InputLayer)           (None, 4)            0                                            
__________________________________________________________________________________________________
embedding_93 (Embedding)        (None, 4, 77)        934934      input_93[0][0]                   
__________________________________________________________________________________________________
embedding_94 (Embedding)        (None, 4, 100)       15200       input_94[0][0]                   
__________________________________________________________________________________________________
flatten_93 (Flatten)            (None, 308)          0           embedding_93[0][0]               
__________________________________________________________________________________________________
flatten_94 (Flatten)            (None, 400)          0           embedding_94[0][0]               
__________________________________________________________________________________________________
concatenate_47 (Concatenate)    (None, 708)          0           flatten_93[0][0]                 
                                                                 flatten_94[0][0]                 
__________________________________________________________________________________________________
dense_139 (Dense)               (None, 176)          124784      concatenate_47[0][0]             
__________________________________________________________________________________________________
dropout_93 (Dropout)            (None, 176)          0           dense_139[0][0]                  
__________________________________________________________________________________________________
dense_140 (Dense)               (None, 124)          21948       dropout_93[0][0]                 
__________________________________________________________________________________________________
dropout_94 (Dropout)            (None, 124)          0           dense_140[0][0]                  
__________________________________________________________________________________________________
dense_141 (Dense)               (None, 8)            1000        dropout_94[0][0]                 
==================================================================================================
Total params: 1,097,866
Trainable params: 1,097,866
Non-trainable params: 0
__________________________________________________________________________________________________
None

__________________________________________________________________________________________________
…
	Dashed keys in vocabulary 1622
	One occurrence keys in vocabulary 1622 / 12159
	Embedding
==================================================================================================
	Initialisation = None
	Concatenation = False
	Lemma : 77
	POS = 100 
Deep model(Non compositional)
__________________________________________________________________________________________________
Layer (type)                    Output Shape         Param #     Connected to                     
==================================================================================================
input_95 (InputLayer)           (None, 4)            0                                            
__________________________________________________________________________________________________
input_96 (InputLayer)           (None, 4)            0                                            
__________________________________________________________________________________________________
embedding_95 (Embedding)        (None, 4, 77)        936243      input_95[0][0]                   
__________________________________________________________________________________________________
embedding_96 (Embedding)        (None, 4, 100)       15200       input_96[0][0]                   
__________________________________________________________________________________________________
flatten_95 (Flatten)            (None, 308)          0           embedding_95[0][0]               
__________________________________________________________________________________________________
flatten_96 (Flatten)            (None, 400)          0           embedding_96[0][0]               
__________________________________________________________________________________________________
concatenate_48 (Concatenate)    (None, 708)          0           flatten_95[0][0]                 
                                                                 flatten_96[0][0]                 
__________________________________________________________________________________________________
dense_142 (Dense)               (None, 176)          124784      concatenate_48[0][0]             
__________________________________________________________________________________________________
dropout_95 (Dropout)            (None, 176)          0           dense_142[0][0]                  
__________________________________________________________________________________________________
dense_143 (Dense)               (None, 124)          21948       dropout_95[0][0]                 
__________________________________________________________________________________________________
dropout_96 (Dropout)            (None, 124)          0           dense_143[0][0]                  
__________________________________________________________________________________________________
dense_144 (Dense)               (None, 8)            1000        dropout_96[0][0]                 
==================================================================================================
Total params: 1,099,175
Trainable params: 1,099,175
Non-trainable params: 0
__________________________________________________________________________________________________
None

__________________________________________________________________________________________________
…
	One occurrence keys in vocabulary 1660 / 15321
	Attention: important lemmas are not in vocbulary	Embedding
==================================================================================================
	Initialisation = None
	Concatenation = False
	Lemma : 77
	POS = 100 
Deep model(Non compositional)
__________________________________________________________________________________________________
Layer (type)                    Output Shape         Param #     Connected to                     
==================================================================================================
input_97 (InputLayer)           (None, 4)            0                                            
__________________________________________________________________________________________________
input_98 (InputLayer)           (None, 4)            0                                            
__________________________________________________________________________________________________
embedding_97 (Embedding)        (None, 4, 77)        1179717     input_97[0][0]                   
__________________________________________________________________________________________________
embedding_98 (Embedding)        (None, 4, 100)       16900       input_98[0][0]                   
__________________________________________________________________________________________________
flatten_97 (Flatten)            (None, 308)          0           embedding_97[0][0]               
__________________________________________________________________________________________________
flatten_98 (Flatten)            (None, 400)          0           embedding_98[0][0]               
__________________________________________________________________________________________________
concatenate_49 (Concatenate)    (None, 708)          0           flatten_97[0][0]                 
                                                                 flatten_98[0][0]                 
__________________________________________________________________________________________________
dense_145 (Dense)               (None, 176)          124784      concatenate_49[0][0]             
__________________________________________________________________________________________________
dropout_97 (Dropout)            (None, 176)          0           dense_145[0][0]                  
__________________________________________________________________________________________________
dense_146 (Dense)               (None, 124)          21948       dropout_97[0][0]                 
__________________________________________________________________________________________________
dropout_98 (Dropout)            (None, 124)          0           dense_146[0][0]                  
__________________________________________________________________________________________________
dense_147 (Dense)               (None, 8)            1000        dropout_98[0][0]                 
==================================================================================================
Total params: 1,344,349
Trainable params: 1,344,349
Non-trainable params: 0
__________________________________________________________________________________________________
None

__________________________________________________________________________________________________
…
	One occurrence keys in vocabulary 1660 / 15303
	Attention: important lemmas are not in vocbulary	Embedding
==================================================================================================
	Initialisation = None
	Concatenation = False
	Lemma : 77
	POS = 100 
Deep model(Non compositional)
__________________________________________________________________________________________________
Layer (type)                    Output Shape         Param #     Connected to                     
==================================================================================================
input_99 (InputLayer)           (None, 4)            0                                            
__________________________________________________________________________________________________
input_100 (InputLayer)          (None, 4)            0                                            
__________________________________________________________________________________________________
embedding_99 (Embedding)        (None, 4, 77)        1178331     input_99[0][0]                   
__________________________________________________________________________________________________
embedding_100 (Embedding)       (None, 4, 100)       16900       input_100[0][0]                  
__________________________________________________________________________________________________
flatten_99 (Flatten)            (None, 308)          0           embedding_99[0][0]               
__________________________________________________________________________________________________
flatten_100 (Flatten)           (None, 400)          0           embedding_100[0][0]              
__________________________________________________________________________________________________
concatenate_50 (Concatenate)    (None, 708)          0           flatten_99[0][0]                 
                                                                 flatten_100[0][0]                
__________________________________________________________________________________________________
dense_148 (Dense)               (None, 176)          124784      concatenate_50[0][0]             
__________________________________________________________________________________________________
dropout_99 (Dropout)            (None, 176)          0           dense_148[0][0]                  
__________________________________________________________________________________________________
dense_149 (Dense)               (None, 124)          21948       dropout_99[0][0]                 
__________________________________________________________________________________________________
dropout_100 (Dropout)           (None, 124)          0           dense_149[0][0]                  
__________________________________________________________________________________________________
dense_150 (Dense)               (None, 8)            1000        dropout_100[0][0]                
==================================================================================================
Total params: 1,342,963
Trainable params: 1,342,963
Non-trainable params: 0
__________________________________________________________________________________________________
None

__________________________________________________________________________________________________
…
	One occurrence keys in vocabulary 1660 / 15244
	Attention: important lemmas are not in vocbulary	Embedding
==================================================================================================
	Initialisation = None
	Concatenation = False
	Lemma : 77
	POS = 100 
Deep model(Non compositional)
__________________________________________________________________________________________________
Layer (type)                    Output Shape         Param #     Connected to                     
==================================================================================================
input_101 (InputLayer)          (None, 4)            0                                            
__________________________________________________________________________________________________
input_102 (InputLayer)          (None, 4)            0                                            
__________________________________________________________________________________________________
embedding_101 (Embedding)       (None, 4, 77)        1173788     input_101[0][0]                  
__________________________________________________________________________________________________
embedding_102 (Embedding)       (None, 4, 100)       16900       input_102[0][0]                  
__________________________________________________________________________________________________
flatten_101 (Flatten)           (None, 308)          0           embedding_101[0][0]              
__________________________________________________________________________________________________
flatten_102 (Flatten)           (None, 400)          0           embedding_102[0][0]              
__________________________________________________________________________________________________
concatenate_51 (Concatenate)    (None, 708)          0           flatten_101[0][0]                
                                                                 flatten_102[0][0]                
__________________________________________________________________________________________________
dense_151 (Dense)               (None, 176)          124784      concatenate_51[0][0]             
__________________________________________________________________________________________________
dropout_101 (Dropout)           (None, 176)          0           dense_151[0][0]                  
__________________________________________________________________________________________________
dense_152 (Dense)               (None, 124)          21948       dropout_101[0][0]                
__________________________________________________________________________________________________
dropout_102 (Dropout)           (None, 124)          0           dense_152[0][0]                  
__________________________________________________________________________________________________
dense_153 (Dense)               (None, 8)            1000        dropout_102[0][0]                
==================================================================================================
Total params: 1,338,420
Trainable params: 1,338,420
Non-trainable params: 0
__________________________________________________________________________________________________
None

__________________________________________________________________________________________________
…
	Dashed keys in vocabulary 1979
	One occurrence keys in vocabulary 1979 / 12529
	Embedding
==================================================================================================
	Initialisation = None
	Concatenation = False
	Lemma : 77
	POS = 100 
Deep model(Non compositional)
__________________________________________________________________________________________________
Layer (type)                    Output Shape         Param #     Connected to                     
==================================================================================================
input_103 (InputLayer)          (None, 4)            0                                            
__________________________________________________________________________________________________
input_104 (InputLayer)          (None, 4)            0                                            
__________________________________________________________________________________________________
embedding_103 (Embedding)       (None, 4, 77)        964733      input_103[0][0]                  
__________________________________________________________________________________________________
embedding_104 (Embedding)       (None, 4, 100)       11000       input_104[0][0]                  
__________________________________________________________________________________________________
flatten_103 (Flatten)           (None, 308)          0           embedding_103[0][0]              
__________________________________________________________________________________________________
flatten_104 (Flatten)           (None, 400)          0           embedding_104[0][0]              
__________________________________________________________________________________________________
concatenate_52 (Concatenate)    (None, 708)          0           flatten_103[0][0]                
                                                                 flatten_104[0][0]                
__________________________________________________________________________________________________
dense_154 (Dense)               (None, 176)          124784      concatenate_52[0][0]             
__________________________________________________________________________________________________
dropout_103 (Dropout)           (None, 176)          0           dense_154[0][0]                  
__________________________________________________________________________________________________
dense_155 (Dense)               (None, 124)          21948       dropout_103[0][0]                
__________________________________________________________________________________________________
dropout_104 (Dropout)           (None, 124)          0           dense_155[0][0]                  
__________________________________________________________________________________________________
dense_156 (Dense)               (None, 8)            1000        dropout_104[0][0]                
==================================================================================================
Total params: 1,123,465
Trainable params: 1,123,465
Non-trainable params: 0
__________________________________________________________________________________________________
None

__________________________________________________________________________________________________
…
	Dashed keys in vocabulary 1979
	One occurrence keys in vocabulary 1979 / 12525
	Embedding
==================================================================================================
	Initialisation = None
	Concatenation = False
	Lemma : 77
	POS = 100 
Deep model(Non compositional)
__________________________________________________________________________________________________
Layer (type)                    Output Shape         Param #     Connected to                     
==================================================================================================
input_105 (InputLayer)          (None, 4)            0                                            
__________________________________________________________________________________________________
input_106 (InputLayer)          (None, 4)            0                                            
__________________________________________________________________________________________________
embedding_105 (Embedding)       (None, 4, 77)        964425      input_105[0][0]                  
__________________________________________________________________________________________________
embedding_106 (Embedding)       (None, 4, 100)       11000       input_106[0][0]                  
__________________________________________________________________________________________________
flatten_105 (Flatten)           (None, 308)          0           embedding_105[0][0]              
__________________________________________________________________________________________________
flatten_106 (Flatten)           (None, 400)          0           embedding_106[0][0]              
__________________________________________________________________________________________________
concatenate_53 (Concatenate)    (None, 708)          0           flatten_105[0][0]                
                                                                 flatten_106[0][0]                
__________________________________________________________________________________________________
dense_157 (Dense)               (None, 176)          124784      concatenate_53[0][0]             
__________________________________________________________________________________________________
dropout_105 (Dropout)           (None, 176)          0           dense_157[0][0]                  
__________________________________________________________________________________________________
dense_158 (Dense)               (None, 124)          21948       dropout_105[0][0]                
__________________________________________________________________________________________________
dropout_106 (Dropout)           (None, 124)          0           dense_158[0][0]                  
__________________________________________________________________________________________________
dense_159 (Dense)               (None, 8)            1000        dropout_106[0][0]                
==================================================================================================
Total params: 1,123,157
Trainable params: 1,123,157
Non-trainable params: 0
__________________________________________________________________________________________________
None

__________________________________________________________________________________________________
…
	Dashed keys in vocabulary 1979
	One occurrence keys in vocabulary 1979 / 12587
	Embedding
==================================================================================================
	Initialisation = None
	Concatenation = False
	Lemma : 77
	POS = 100 
Deep model(Non compositional)
__________________________________________________________________________________________________
Layer (type)                    Output Shape         Param #     Connected to                     
==================================================================================================
input_107 (InputLayer)          (None, 4)            0                                            
__________________________________________________________________________________________________
input_108 (InputLayer)          (None, 4)            0                                            
__________________________________________________________________________________________________
embedding_107 (Embedding)       (None, 4, 77)        969199      input_107[0][0]                  
__________________________________________________________________________________________________
embedding_108 (Embedding)       (None, 4, 100)       11000       input_108[0][0]                  
__________________________________________________________________________________________________
flatten_107 (Flatten)           (None, 308)          0           embedding_107[0][0]              
__________________________________________________________________________________________________
flatten_108 (Flatten)           (None, 400)          0           embedding_108[0][0]              
__________________________________________________________________________________________________
concatenate_54 (Concatenate)    (None, 708)          0           flatten_107[0][0]                
                                                                 flatten_108[0][0]                
__________________________________________________________________________________________________
dense_160 (Dense)               (None, 176)          124784      concatenate_54[0][0]             
__________________________________________________________________________________________________
dropout_107 (Dropout)           (None, 176)          0           dense_160[0][0]                  
__________________________________________________________________________________________________
dense_161 (Dense)               (None, 124)          21948       dropout_107[0][0]                
__________________________________________________________________________________________________
dropout_108 (Dropout)           (None, 124)          0           dense_161[0][0]                  
__________________________________________________________________________________________________
dense_162 (Dense)               (None, 8)            1000        dropout_108[0][0]                
==================================================================================================
Total params: 1,127,931
Trainable params: 1,127,931
Non-trainable params: 0
__________________________________________________________________________________________________
None

__________________________________________________________________________________________________
…
	Dashed keys in vocabulary 1622
	One occurrence keys in vocabulary 1622 / 12174
	Embedding
==================================================================================================
	Initialisation = None
	Concatenation = False
	Lemma : 79
	POS = 23 
Deep model(Non compositional)
__________________________________________________________________________________________________
Layer (type)                    Output Shape         Param #     Connected to                     
==================================================================================================
input_109 (InputLayer)          (None, 4)            0                                            
__________________________________________________________________________________________________
input_110 (InputLayer)          (None, 4)            0                                            
__________________________________________________________________________________________________
embedding_109 (Embedding)       (None, 4, 79)        961746      input_109[0][0]                  
__________________________________________________________________________________________________
embedding_110 (Embedding)       (None, 4, 23)        3496        input_110[0][0]                  
__________________________________________________________________________________________________
flatten_109 (Flatten)           (None, 316)          0           embedding_109[0][0]              
__________________________________________________________________________________________________
flatten_110 (Flatten)           (None, 92)           0           embedding_110[0][0]              
__________________________________________________________________________________________________
concatenate_55 (Concatenate)    (None, 408)          0           flatten_109[0][0]                
                                                                 flatten_110[0][0]                
__________________________________________________________________________________________________
dense_163 (Dense)               (None, 227)          92843       concatenate_55[0][0]             
__________________________________________________________________________________________________
dropout_109 (Dropout)           (None, 227)          0           dense_163[0][0]                  
__________________________________________________________________________________________________
dense_164 (Dense)               (None, 14)           3192        dropout_109[0][0]                
__________________________________________________________________________________________________
dropout_110 (Dropout)           (None, 14)           0           dense_164[0][0]                  
__________________________________________________________________________________________________
dense_165 (Dense)               (None, 8)            120         dropout_110[0][0]                
==================================================================================================
Total params: 1,061,397
Trainable params: 1,061,397
Non-trainable params: 0
__________________________________________________________________________________________________
None

__________________________________________________________________________________________________
…
	Dashed keys in vocabulary 1622
	One occurrence keys in vocabulary 1622 / 12142
	Embedding
==================================================================================================
	Initialisation = None
	Concatenation = False
	Lemma : 79
	POS = 23 
Deep model(Non compositional)
__________________________________________________________________________________________________
Layer (type)                    Output Shape         Param #     Connected to                     
==================================================================================================
input_111 (InputLayer)          (None, 4)            0                                            
__________________________________________________________________________________________________
input_112 (InputLayer)          (None, 4)            0                                            
__________________________________________________________________________________________________
embedding_111 (Embedding)       (None, 4, 79)        959218      input_111[0][0]                  
__________________________________________________________________________________________________
embedding_112 (Embedding)       (None, 4, 23)        3496        input_112[0][0]                  
__________________________________________________________________________________________________
flatten_111 (Flatten)           (None, 316)          0           embedding_111[0][0]              
__________________________________________________________________________________________________
flatten_112 (Flatten)           (None, 92)           0           embedding_112[0][0]              
__________________________________________________________________________________________________
concatenate_56 (Concatenate)    (None, 408)          0           flatten_111[0][0]                
                                                                 flatten_112[0][0]                
__________________________________________________________________________________________________
dense_166 (Dense)               (None, 227)          92843       concatenate_56[0][0]             
__________________________________________________________________________________________________
dropout_111 (Dropout)           (None, 227)          0           dense_166[0][0]                  
__________________________________________________________________________________________________
dense_167 (Dense)               (None, 14)           3192        dropout_111[0][0]                
__________________________________________________________________________________________________
dropout_112 (Dropout)           (None, 14)           0           dense_167[0][0]                  
__________________________________________________________________________________________________
dense_168 (Dense)               (None, 8)            120         dropout_112[0][0]                
==================================================================================================
Total params: 1,058,869
Trainable params: 1,058,869
Non-trainable params: 0
__________________________________________________________________________________________________
None

__________________________________________________________________________________________________
…
	Dashed keys in vocabulary 1622
	One occurrence keys in vocabulary 1622 / 12159
	Embedding
==================================================================================================
	Initialisation = None
	Concatenation = False
	Lemma : 79
	POS = 23 
Deep model(Non compositional)
__________________________________________________________________________________________________
Layer (type)                    Output Shape         Param #     Connected to                     
==================================================================================================
input_113 (InputLayer)          (None, 4)            0                                            
__________________________________________________________________________________________________
input_114 (InputLayer)          (None, 4)            0                                            
__________________________________________________________________________________________________
embedding_113 (Embedding)       (None, 4, 79)        960561      input_113[0][0]                  
__________________________________________________________________________________________________
embedding_114 (Embedding)       (None, 4, 23)        3496        input_114[0][0]                  
__________________________________________________________________________________________________
flatten_113 (Flatten)           (None, 316)          0           embedding_113[0][0]              
__________________________________________________________________________________________________
flatten_114 (Flatten)           (None, 92)           0           embedding_114[0][0]              
__________________________________________________________________________________________________
concatenate_57 (Concatenate)    (None, 408)          0           flatten_113[0][0]                
                                                                 flatten_114[0][0]                
__________________________________________________________________________________________________
dense_169 (Dense)               (None, 227)          92843       concatenate_57[0][0]             
__________________________________________________________________________________________________
dropout_113 (Dropout)           (None, 227)          0           dense_169[0][0]                  
__________________________________________________________________________________________________
dense_170 (Dense)               (None, 14)           3192        dropout_113[0][0]                
__________________________________________________________________________________________________
…
	Lemma : 79
	POS = 23 
Deep model(Non compositional)
__________________________________________________________________________________________________
Layer (type)                    Output Shape         Param #     Connected to                     
==================================================================================================
input_115 (InputLayer)          (None, 4)            0                                            
__________________________________________________________________________________________________
input_116 (InputLayer)          (None, 4)            0                                            
__________________________________________________________________________________________________
embedding_115 (Embedding)       (None, 4, 79)        1210359     input_115[0][0]                  
__________________________________________________________________________________________________
embedding_116 (Embedding)       (None, 4, 23)        3887        input_116[0][0]                  
__________________________________________________________________________________________________
flatten_115 (Flatten)           (None, 316)          0           embedding_115[0][0]              
__________________________________________________________________________________________________
flatten_116 (Flatten)           (None, 92)           0           embedding_116[0][0]              
__________________________________________________________________________________________________
concatenate_58 (Concatenate)    (None, 408)          0           flatten_115[0][0]                
                                                                 flatten_116[0][0]                
__________________________________________________________________________________________________
dense_172 (Dense)               (None, 227)          92843       concatenate_58[0][0]             
__________________________________________________________________________________________________
dropout_115 (Dropout)           (None, 227)          0           dense_172[0][0]                  
__________________________________________________________________________________________________
dense_173 (Dense)               (None, 14)           3192        dropout_115[0][0]                
__________________________________________________________________________________________________
dropout_116 (Dropout)           (None, 14)           0           dense_173[0][0]                  
__________________________________________________________________________________________________
dense_174 (Dense)               (None, 8)            120         dropout_116[0][0]                
==================================================================================================
Total params: 1,310,401
Trainable params: 1,310,401
Non-trainable params: 0
__________________________________________________________________________________________________
None

__________________________________________________________________________________________________
…
	One occurrence keys in vocabulary 1660 / 15303
	Attention: important lemmas are not in vocbulary	Embedding
==================================================================================================
	Initialisation = None
	Concatenation = False
	Lemma : 79
	POS = 23 
Deep model(Non compositional)
__________________________________________________________________________________________________
Layer (type)                    Output Shape         Param #     Connected to                     
==================================================================================================
input_117 (InputLayer)          (None, 4)            0                                            
__________________________________________________________________________________________________
input_118 (InputLayer)          (None, 4)            0                                            
__________________________________________________________________________________________________
embedding_117 (Embedding)       (None, 4, 79)        1208937     input_117[0][0]                  
__________________________________________________________________________________________________
embedding_118 (Embedding)       (None, 4, 23)        3887        input_118[0][0]                  
__________________________________________________________________________________________________
flatten_117 (Flatten)           (None, 316)          0           embedding_117[0][0]              
__________________________________________________________________________________________________
flatten_118 (Flatten)           (None, 92)           0           embedding_118[0][0]              
__________________________________________________________________________________________________
concatenate_59 (Concatenate)    (None, 408)          0           flatten_117[0][0]                
                                                                 flatten_118[0][0]                
__________________________________________________________________________________________________
dense_175 (Dense)               (None, 227)          92843       concatenate_59[0][0]             
__________________________________________________________________________________________________
dropout_117 (Dropout)           (None, 227)          0           dense_175[0][0]                  
__________________________________________________________________________________________________
dense_176 (Dense)               (None, 14)           3192        dropout_117[0][0]                
__________________________________________________________________________________________________
dropout_118 (Dropout)           (None, 14)           0           dense_176[0][0]                  
__________________________________________________________________________________________________
dense_177 (Dense)               (None, 8)            120         dropout_118[0][0]                
==================================================================================================
Total params: 1,308,979
Trainable params: 1,308,979
Non-trainable params: 0
__________________________________________________________________________________________________
None

__________________________________________________________________________________________________
…
	One occurrence keys in vocabulary 1660 / 15244
	Attention: important lemmas are not in vocbulary	Embedding
==================================================================================================
	Initialisation = None
	Concatenation = False
	Lemma : 79
	POS = 23 
Deep model(Non compositional)
__________________________________________________________________________________________________
Layer (type)                    Output Shape         Param #     Connected to                     
==================================================================================================
input_119 (InputLayer)          (None, 4)            0                                            
__________________________________________________________________________________________________
input_120 (InputLayer)          (None, 4)            0                                            
__________________________________________________________________________________________________
embedding_119 (Embedding)       (None, 4, 79)        1204276     input_119[0][0]                  
__________________________________________________________________________________________________
embedding_120 (Embedding)       (None, 4, 23)        3887        input_120[0][0]                  
__________________________________________________________________________________________________
flatten_119 (Flatten)           (None, 316)          0           embedding_119[0][0]              
__________________________________________________________________________________________________
flatten_120 (Flatten)           (None, 92)           0           embedding_120[0][0]              
__________________________________________________________________________________________________
concatenate_60 (Concatenate)    (None, 408)          0           flatten_119[0][0]                
                                                                 flatten_120[0][0]                
__________________________________________________________________________________________________
dense_178 (Dense)               (None, 227)          92843       concatenate_60[0][0]             
__________________________________________________________________________________________________
dropout_119 (Dropout)           (None, 227)          0           dense_178[0][0]                  
__________________________________________________________________________________________________
dense_179 (Dense)               (None, 14)           3192        dropout_119[0][0]                
__________________________________________________________________________________________________
dropout_120 (Dropout)           (None, 14)           0           dense_179[0][0]                  
__________________________________________________________________________________________________
dense_180 (Dense)               (None, 8)            120         dropout_120[0][0]                
==================================================================================================
Total params: 1,304,318
Trainable params: 1,304,318
Non-trainable params: 0
__________________________________________________________________________________________________
None

__________________________________________________________________________________________________
…
	Dashed keys in vocabulary 1979
	One occurrence keys in vocabulary 1979 / 12529
	Embedding
==================================================================================================
	Initialisation = None
	Concatenation = False
	Lemma : 79
	POS = 23 
Deep model(Non compositional)
__________________________________________________________________________________________________
Layer (type)                    Output Shape         Param #     Connected to                     
==================================================================================================
input_121 (InputLayer)          (None, 4)            0                                            
__________________________________________________________________________________________________
input_122 (InputLayer)          (None, 4)            0                                            
__________________________________________________________________________________________________
embedding_121 (Embedding)       (None, 4, 79)        989791      input_121[0][0]                  
__________________________________________________________________________________________________
embedding_122 (Embedding)       (None, 4, 23)        2530        input_122[0][0]                  
__________________________________________________________________________________________________
flatten_121 (Flatten)           (None, 316)          0           embedding_121[0][0]              
__________________________________________________________________________________________________
flatten_122 (Flatten)           (None, 92)           0           embedding_122[0][0]              
__________________________________________________________________________________________________
concatenate_61 (Concatenate)    (None, 408)          0           flatten_121[0][0]                
                                                                 flatten_122[0][0]                
__________________________________________________________________________________________________
dense_181 (Dense)               (None, 227)          92843       concatenate_61[0][0]             
__________________________________________________________________________________________________
dropout_121 (Dropout)           (None, 227)          0           dense_181[0][0]                  
__________________________________________________________________________________________________
dense_182 (Dense)               (None, 14)           3192        dropout_121[0][0]                
__________________________________________________________________________________________________
dropout_122 (Dropout)           (None, 14)           0           dense_182[0][0]                  
__________________________________________________________________________________________________
dense_183 (Dense)               (None, 8)            120         dropout_122[0][0]                
==================================================================================================
Total params: 1,088,476
Trainable params: 1,088,476
Non-trainable params: 0
__________________________________________________________________________________________________
None

__________________________________________________________________________________________________
…
	Dashed keys in vocabulary 1979
	One occurrence keys in vocabulary 1979 / 12525
	Embedding
==================================================================================================
	Initialisation = None
	Concatenation = False
	Lemma : 79
	POS = 23 
Deep model(Non compositional)
__________________________________________________________________________________________________
Layer (type)                    Output Shape         Param #     Connected to                     
==================================================================================================
input_123 (InputLayer)          (None, 4)            0                                            
__________________________________________________________________________________________________
input_124 (InputLayer)          (None, 4)            0                                            
__________________________________________________________________________________________________
embedding_123 (Embedding)       (None, 4, 79)        989475      input_123[0][0]                  
__________________________________________________________________________________________________
embedding_124 (Embedding)       (None, 4, 23)        2530        input_124[0][0]                  
__________________________________________________________________________________________________
flatten_123 (Flatten)           (None, 316)          0           embedding_123[0][0]              
__________________________________________________________________________________________________
flatten_124 (Flatten)           (None, 92)           0           embedding_124[0][0]              
__________________________________________________________________________________________________
concatenate_62 (Concatenate)    (None, 408)          0           flatten_123[0][0]                
                                                                 flatten_124[0][0]                
__________________________________________________________________________________________________
dense_184 (Dense)               (None, 227)          92843       concatenate_62[0][0]             
__________________________________________________________________________________________________
dropout_123 (Dropout)           (None, 227)          0           dense_184[0][0]                  
__________________________________________________________________________________________________
dense_185 (Dense)               (None, 14)           3192        dropout_123[0][0]                
__________________________________________________________________________________________________
dropout_124 (Dropout)           (None, 14)           0           dense_185[0][0]                  
__________________________________________________________________________________________________
dense_186 (Dense)               (None, 8)            120         dropout_124[0][0]                
==================================================================================================
Total params: 1,088,160
Trainable params: 1,088,160
Non-trainable params: 0
__________________________________________________________________________________________________
None

__________________________________________________________________________________________________
…
	Dashed keys in vocabulary 1979
	One occurrence keys in vocabulary 1979 / 12587
	Embedding
==================================================================================================
	Initialisation = None
	Concatenation = False
	Lemma : 79
	POS = 23 
Deep model(Non compositional)
__________________________________________________________________________________________________
Layer (type)                    Output Shape         Param #     Connected to                     
==================================================================================================
input_125 (InputLayer)          (None, 4)            0                                            
__________________________________________________________________________________________________
input_126 (InputLayer)          (None, 4)            0                                            
__________________________________________________________________________________________________
embedding_125 (Embedding)       (None, 4, 79)        994373      input_125[0][0]                  
__________________________________________________________________________________________________
embedding_126 (Embedding)       (None, 4, 23)        2530        input_126[0][0]                  
__________________________________________________________________________________________________
flatten_125 (Flatten)           (None, 316)          0           embedding_125[0][0]              
__________________________________________________________________________________________________
flatten_126 (Flatten)           (None, 92)           0           embedding_126[0][0]              
__________________________________________________________________________________________________
concatenate_63 (Concatenate)    (None, 408)          0           flatten_125[0][0]                
                                                                 flatten_126[0][0]                
__________________________________________________________________________________________________
dense_187 (Dense)               (None, 227)          92843       concatenate_63[0][0]             
__________________________________________________________________________________________________
dropout_125 (Dropout)           (None, 227)          0           dense_187[0][0]                  
__________________________________________________________________________________________________
dense_188 (Dense)               (None, 14)           3192        dropout_125[0][0]                
__________________________________________________________________________________________________
dropout_126 (Dropout)           (None, 14)           0           dense_188[0][0]                  
__________________________________________________________________________________________________
dense_189 (Dense)               (None, 8)            120         dropout_126[0][0]                
==================================================================================================
Total params: 1,093,058
Trainable params: 1,093,058
Non-trainable params: 0
__________________________________________________________________________________________________
None

__________________________________________________________________________________________________
…
	Dashed keys in vocabulary 1622
	One occurrence keys in vocabulary 1622 / 12174
	Embedding
==================================================================================================
	Initialisation = None
	Concatenation = False
	Lemma : 146
	POS = 18 
Deep model(Non compositional)
__________________________________________________________________________________________________
Layer (type)                    Output Shape         Param #     Connected to                     
==================================================================================================
input_127 (InputLayer)          (None, 4)            0                                            
__________________________________________________________________________________________________
input_128 (InputLayer)          (None, 4)            0                                            
__________________________________________________________________________________________________
embedding_127 (Embedding)       (None, 4, 146)       1777404     input_127[0][0]                  
__________________________________________________________________________________________________
embedding_128 (Embedding)       (None, 4, 18)        2736        input_128[0][0]                  
__________________________________________________________________________________________________
flatten_127 (Flatten)           (None, 584)          0           embedding_127[0][0]              
__________________________________________________________________________________________________
flatten_128 (Flatten)           (None, 72)           0           embedding_128[0][0]              
__________________________________________________________________________________________________
concatenate_64 (Concatenate)    (None, 656)          0           flatten_127[0][0]                
                                                                 flatten_128[0][0]                
__________________________________________________________________________________________________
dense_190 (Dense)               (None, 45)           29565       concatenate_64[0][0]             
__________________________________________________________________________________________________
dropout_127 (Dropout)           (None, 45)           0           dense_190[0][0]                  
__________________________________________________________________________________________________
dense_191 (Dense)               (None, 23)           1058        dropout_127[0][0]                
__________________________________________________________________________________________________
dropout_128 (Dropout)           (None, 23)           0           dense_191[0][0]                  
__________________________________________________________________________________________________
dense_192 (Dense)               (None, 8)            192         dropout_128[0][0]                
==================================================================================================
Total params: 1,810,955
Trainable params: 1,810,955
Non-trainable params: 0
__________________________________________________________________________________________________
None

__________________________________________________________________________________________________
…
	Dashed keys in vocabulary 1622
	One occurrence keys in vocabulary 1622 / 12142
	Embedding
==================================================================================================
	Initialisation = None
	Concatenation = False
	Lemma : 146
	POS = 18 
Deep model(Non compositional)
__________________________________________________________________________________________________
Layer (type)                    Output Shape         Param #     Connected to                     
==================================================================================================
input_129 (InputLayer)          (None, 4)            0                                            
__________________________________________________________________________________________________
input_130 (InputLayer)          (None, 4)            0                                            
__________________________________________________________________________________________________
embedding_129 (Embedding)       (None, 4, 146)       1772732     input_129[0][0]                  
__________________________________________________________________________________________________
embedding_130 (Embedding)       (None, 4, 18)        2736        input_130[0][0]                  
__________________________________________________________________________________________________
flatten_129 (Flatten)           (None, 584)          0           embedding_129[0][0]              
__________________________________________________________________________________________________
flatten_130 (Flatten)           (None, 72)           0           embedding_130[0][0]              
__________________________________________________________________________________________________
concatenate_65 (Concatenate)    (None, 656)          0           flatten_129[0][0]                
                                                                 flatten_130[0][0]                
__________________________________________________________________________________________________
dense_193 (Dense)               (None, 45)           29565       concatenate_65[0][0]             
__________________________________________________________________________________________________
dropout_129 (Dropout)           (None, 45)           0           dense_193[0][0]                  
__________________________________________________________________________________________________
dense_194 (Dense)               (None, 23)           1058        dropout_129[0][0]                
__________________________________________________________________________________________________
dropout_130 (Dropout)           (None, 23)           0           dense_194[0][0]                  
__________________________________________________________________________________________________
dense_195 (Dense)               (None, 8)            192         dropout_130[0][0]                
==================================================================================================
Total params: 1,806,283
Trainable params: 1,806,283
Non-trainable params: 0
__________________________________________________________________________________________________
None

__________________________________________________________________________________________________
…
	Dashed keys in vocabulary 1622
	One occurrence keys in vocabulary 1622 / 12159
	Embedding
==================================================================================================
	Initialisation = None
	Concatenation = False
	Lemma : 146
	POS = 18 
Deep model(Non compositional)
__________________________________________________________________________________________________
Layer (type)                    Output Shape         Param #     Connected to                     
==================================================================================================
input_131 (InputLayer)          (None, 4)            0                                            
__________________________________________________________________________________________________
input_132 (InputLayer)          (None, 4)            0                                            
__________________________________________________________________________________________________
embedding_131 (Embedding)       (None, 4, 146)       1775214     input_131[0][0]                  
__________________________________________________________________________________________________
embedding_132 (Embedding)       (None, 4, 18)        2736        input_132[0][0]                  
__________________________________________________________________________________________________
flatten_131 (Flatten)           (None, 584)          0           embedding_131[0][0]              
__________________________________________________________________________________________________
flatten_132 (Flatten)           (None, 72)           0           embedding_132[0][0]              
__________________________________________________________________________________________________
concatenate_66 (Concatenate)    (None, 656)          0           flatten_131[0][0]                
                                                                 flatten_132[0][0]                
__________________________________________________________________________________________________
dense_196 (Dense)               (None, 45)           29565       concatenate_66[0][0]             
__________________________________________________________________________________________________
dropout_131 (Dropout)           (None, 45)           0           dense_196[0][0]                  
__________________________________________________________________________________________________
dense_197 (Dense)               (None, 23)           1058        dropout_131[0][0]                
__________________________________________________________________________________________________
dropout_132 (Dropout)           (None, 23)           0           dense_197[0][0]                  
__________________________________________________________________________________________________
dense_198 (Dense)               (None, 8)            192         dropout_132[0][0]                
==================================================================================================
Total params: 1,808,765
Trainable params: 1,808,765
Non-trainable params: 0
__________________________________________________________________________________________________
None

__________________________________________________________________________________________________
…
	One occurrence keys in vocabulary 1660 / 15321
	Attention: important lemmas are not in vocbulary	Embedding
==================================================================================================
	Initialisation = None
	Concatenation = False
	Lemma : 146
	POS = 18 
Deep model(Non compositional)
__________________________________________________________________________________________________
Layer (type)                    Output Shape         Param #     Connected to                     
==================================================================================================
input_133 (InputLayer)          (None, 4)            0                                            
__________________________________________________________________________________________________
input_134 (InputLayer)          (None, 4)            0                                            
__________________________________________________________________________________________________
embedding_133 (Embedding)       (None, 4, 146)       2236866     input_133[0][0]                  
__________________________________________________________________________________________________
embedding_134 (Embedding)       (None, 4, 18)        3042        input_134[0][0]                  
__________________________________________________________________________________________________
flatten_133 (Flatten)           (None, 584)          0           embedding_133[0][0]              
__________________________________________________________________________________________________
flatten_134 (Flatten)           (None, 72)           0           embedding_134[0][0]              
__________________________________________________________________________________________________
concatenate_67 (Concatenate)    (None, 656)          0           flatten_133[0][0]                
                                                                 flatten_134[0][0]                
__________________________________________________________________________________________________
dense_199 (Dense)               (None, 45)           29565       concatenate_67[0][0]             
__________________________________________________________________________________________________
dropout_133 (Dropout)           (None, 45)           0           dense_199[0][0]                  
__________________________________________________________________________________________________
dense_200 (Dense)               (None, 23)           1058        dropout_133[0][0]                
__________________________________________________________________________________________________
dropout_134 (Dropout)           (None, 23)           0           dense_200[0][0]                  
__________________________________________________________________________________________________
dense_201 (Dense)               (None, 8)            192         dropout_134[0][0]                
==================================================================================================
Total params: 2,270,723
Trainable params: 2,270,723
Non-trainable params: 0
__________________________________________________________________________________________________
None

__________________________________________________________________________________________________
…
	One occurrence keys in vocabulary 1660 / 15303
	Attention: important lemmas are not in vocbulary	Embedding
==================================================================================================
	Initialisation = None
	Concatenation = False
	Lemma : 146
	POS = 18 
Deep model(Non compositional)
__________________________________________________________________________________________________
Layer (type)                    Output Shape         Param #     Connected to                     
==================================================================================================
input_135 (InputLayer)          (None, 4)            0                                            
__________________________________________________________________________________________________
input_136 (InputLayer)          (None, 4)            0                                            
__________________________________________________________________________________________________
embedding_135 (Embedding)       (None, 4, 146)       2234238     input_135[0][0]                  
__________________________________________________________________________________________________
embedding_136 (Embedding)       (None, 4, 18)        3042        input_136[0][0]                  
__________________________________________________________________________________________________
flatten_135 (Flatten)           (None, 584)          0           embedding_135[0][0]              
__________________________________________________________________________________________________
flatten_136 (Flatten)           (None, 72)           0           embedding_136[0][0]              
__________________________________________________________________________________________________
concatenate_68 (Concatenate)    (None, 656)          0           flatten_135[0][0]                
                                                                 flatten_136[0][0]                
__________________________________________________________________________________________________
dense_202 (Dense)               (None, 45)           29565       concatenate_68[0][0]             
__________________________________________________________________________________________________
dropout_135 (Dropout)           (None, 45)           0           dense_202[0][0]                  
__________________________________________________________________________________________________
dense_203 (Dense)               (None, 23)           1058        dropout_135[0][0]                
__________________________________________________________________________________________________
dropout_136 (Dropout)           (None, 23)           0           dense_203[0][0]                  
__________________________________________________________________________________________________
dense_204 (Dense)               (None, 8)            192         dropout_136[0][0]                
==================================================================================================
Total params: 2,268,095
Trainable params: 2,268,095
Non-trainable params: 0
__________________________________________________________________________________________________
None

__________________________________________________________________________________________________
…
	One occurrence keys in vocabulary 1660 / 15244
	Attention: important lemmas are not in vocbulary	Embedding
==================================================================================================
	Initialisation = None
	Concatenation = False
	Lemma : 146
	POS = 18 
Deep model(Non compositional)
__________________________________________________________________________________________________
Layer (type)                    Output Shape         Param #     Connected to                     
==================================================================================================
input_137 (InputLayer)          (None, 4)            0                                            
__________________________________________________________________________________________________
input_138 (InputLayer)          (None, 4)            0                                            
__________________________________________________________________________________________________
embedding_137 (Embedding)       (None, 4, 146)       2225624     input_137[0][0]                  
__________________________________________________________________________________________________
embedding_138 (Embedding)       (None, 4, 18)        3042        input_138[0][0]                  
__________________________________________________________________________________________________
flatten_137 (Flatten)           (None, 584)          0           embedding_137[0][0]              
__________________________________________________________________________________________________
flatten_138 (Flatten)           (None, 72)           0           embedding_138[0][0]              
__________________________________________________________________________________________________
concatenate_69 (Concatenate)    (None, 656)          0           flatten_137[0][0]                
                                                                 flatten_138[0][0]                
__________________________________________________________________________________________________
dense_205 (Dense)               (None, 45)           29565       concatenate_69[0][0]             
__________________________________________________________________________________________________
dropout_137 (Dropout)           (None, 45)           0           dense_205[0][0]                  
__________________________________________________________________________________________________
dense_206 (Dense)               (None, 23)           1058        dropout_137[0][0]                
__________________________________________________________________________________________________
dropout_138 (Dropout)           (None, 23)           0           dense_206[0][0]                  
__________________________________________________________________________________________________
dense_207 (Dense)               (None, 8)            192         dropout_138[0][0]                
==================================================================================================
Total params: 2,259,481
Trainable params: 2,259,481
Non-trainable params: 0
__________________________________________________________________________________________________
None

__________________________________________________________________________________________________
…
	Dashed keys in vocabulary 1979
	One occurrence keys in vocabulary 1979 / 12529
	Embedding
==================================================================================================
	Initialisation = None
	Concatenation = False
	Lemma : 146
	POS = 18 
Deep model(Non compositional)
__________________________________________________________________________________________________
Layer (type)                    Output Shape         Param #     Connected to                     
==================================================================================================
input_139 (InputLayer)          (None, 4)            0                                            
__________________________________________________________________________________________________
input_140 (InputLayer)          (None, 4)            0                                            
__________________________________________________________________________________________________
embedding_139 (Embedding)       (None, 4, 146)       1829234     input_139[0][0]                  
__________________________________________________________________________________________________
embedding_140 (Embedding)       (None, 4, 18)        1980        input_140[0][0]                  
__________________________________________________________________________________________________
flatten_139 (Flatten)           (None, 584)          0           embedding_139[0][0]              
__________________________________________________________________________________________________
flatten_140 (Flatten)           (None, 72)           0           embedding_140[0][0]              
__________________________________________________________________________________________________
concatenate_70 (Concatenate)    (None, 656)          0           flatten_139[0][0]                
                                                                 flatten_140[0][0]                
__________________________________________________________________________________________________
dense_208 (Dense)               (None, 45)           29565       concatenate_70[0][0]             
__________________________________________________________________________________________________
dropout_139 (Dropout)           (None, 45)           0           dense_208[0][0]                  
__________________________________________________________________________________________________
dense_209 (Dense)               (None, 23)           1058        dropout_139[0][0]                
__________________________________________________________________________________________________
dropout_140 (Dropout)           (None, 23)           0           dense_209[0][0]                  
__________________________________________________________________________________________________
dense_210 (Dense)               (None, 8)            192         dropout_140[0][0]                
==================================================================================================
Total params: 1,862,029
Trainable params: 1,862,029
Non-trainable params: 0
__________________________________________________________________________________________________
None

__________________________________________________________________________________________________
…
	Dashed keys in vocabulary 1979
	One occurrence keys in vocabulary 1979 / 12525
	Embedding
==================================================================================================
	Initialisation = None
	Concatenation = False
	Lemma : 146
	POS = 18 
Deep model(Non compositional)
__________________________________________________________________________________________________
Layer (type)                    Output Shape         Param #     Connected to                     
==================================================================================================
input_141 (InputLayer)          (None, 4)            0                                            
__________________________________________________________________________________________________
input_142 (InputLayer)          (None, 4)            0                                            
__________________________________________________________________________________________________
embedding_141 (Embedding)       (None, 4, 146)       1828650     input_141[0][0]                  
__________________________________________________________________________________________________
embedding_142 (Embedding)       (None, 4, 18)        1980        input_142[0][0]                  
__________________________________________________________________________________________________
flatten_141 (Flatten)           (None, 584)          0           embedding_141[0][0]              
__________________________________________________________________________________________________
flatten_142 (Flatten)           (None, 72)           0           embedding_142[0][0]              
__________________________________________________________________________________________________
concatenate_71 (Concatenate)    (None, 656)          0           flatten_141[0][0]                
                                                                 flatten_142[0][0]                
__________________________________________________________________________________________________
dense_211 (Dense)               (None, 45)           29565       concatenate_71[0][0]             
__________________________________________________________________________________________________
dropout_141 (Dropout)           (None, 45)           0           dense_211[0][0]                  
__________________________________________________________________________________________________
dense_212 (Dense)               (None, 23)           1058        dropout_141[0][0]                
__________________________________________________________________________________________________
dropout_142 (Dropout)           (None, 23)           0           dense_212[0][0]                  
__________________________________________________________________________________________________
dense_213 (Dense)               (None, 8)            192         dropout_142[0][0]                
==================================================================================================
Total params: 1,861,445
Trainable params: 1,861,445
Non-trainable params: 0
__________________________________________________________________________________________________
None

__________________________________________________________________________________________________
…
	Dashed keys in vocabulary 1979
	One occurrence keys in vocabulary 1979 / 12587
	Embedding
==================================================================================================
	Initialisation = None
	Concatenation = False
	Lemma : 146
	POS = 18 
Deep model(Non compositional)
__________________________________________________________________________________________________
Layer (type)                    Output Shape         Param #     Connected to                     
==================================================================================================
input_143 (InputLayer)          (None, 4)            0                                            
__________________________________________________________________________________________________
input_144 (InputLayer)          (None, 4)            0                                            
__________________________________________________________________________________________________
embedding_143 (Embedding)       (None, 4, 146)       1837702     input_143[0][0]                  
__________________________________________________________________________________________________
embedding_144 (Embedding)       (None, 4, 18)        1980        input_144[0][0]                  
__________________________________________________________________________________________________
flatten_143 (Flatten)           (None, 584)          0           embedding_143[0][0]              
__________________________________________________________________________________________________
flatten_144 (Flatten)           (None, 72)           0           embedding_144[0][0]              
__________________________________________________________________________________________________
concatenate_72 (Concatenate)    (None, 656)          0           flatten_143[0][0]                
                                                                 flatten_144[0][0]                
__________________________________________________________________________________________________
dense_214 (Dense)               (None, 45)           29565       concatenate_72[0][0]             
__________________________________________________________________________________________________
dropout_143 (Dropout)           (None, 45)           0           dense_214[0][0]                  
__________________________________________________________________________________________________
dense_215 (Dense)               (None, 23)           1058        dropout_143[0][0]                
__________________________________________________________________________________________________
dropout_144 (Dropout)           (None, 23)           0           dense_215[0][0]                  
__________________________________________________________________________________________________
dense_216 (Dense)               (None, 8)            192         dropout_144[0][0]                
==================================================================================================
Total params: 1,870,497
Trainable params: 1,870,497
Non-trainable params: 0
__________________________________________________________________________________________________
None

__________________________________________________________________________________________________
…
