…
	Dashed keys in vocabulary 1622
	One occurrence keys in vocabulary 1622 / 12174
	Embedding
==================================================================================================
	Initialisation = None
	Concatenation = False
	Lemma : 135
	POS = 35 
Deep model(Non compositional)
__________________________________________________________________________________________________
Layer (type)                    Output Shape         Param #     Connected to                     
==================================================================================================
input_1 (InputLayer)            (None, 4)            0                                            
__________________________________________________________________________________________________
input_2 (InputLayer)            (None, 4)            0                                            
__________________________________________________________________________________________________
embedding_1 (Embedding)         (None, 4, 135)       1643490     input_1[0][0]                    
__________________________________________________________________________________________________
embedding_2 (Embedding)         (None, 4, 35)        5320        input_2[0][0]                    
__________________________________________________________________________________________________
flatten_1 (Flatten)             (None, 540)          0           embedding_1[0][0]                
__________________________________________________________________________________________________
flatten_2 (Flatten)             (None, 140)          0           embedding_2[0][0]                
__________________________________________________________________________________________________
concatenate_1 (Concatenate)     (None, 680)          0           flatten_1[0][0]                  
                                                                 flatten_2[0][0]                  
__________________________________________________________________________________________________
dense_1 (Dense)                 (None, 22)           14982       concatenate_1[0][0]              
__________________________________________________________________________________________________
dropout_1 (Dropout)             (None, 22)           0           dense_1[0][0]                    
__________________________________________________________________________________________________
dense_2 (Dense)                 (None, 79)           1817        dropout_1[0][0]                  
__________________________________________________________________________________________________
dropout_2 (Dropout)             (None, 79)           0           dense_2[0][0]                    
__________________________________________________________________________________________________
dense_3 (Dense)                 (None, 8)            640         dropout_2[0][0]                  
==================================================================================================
Total params: 1,666,249
Trainable params: 1,666,249
Non-trainable params: 0
__________________________________________________________________________________________________
None

__________________________________________________________________________________________________
…
	Dashed keys in vocabulary 1622
	One occurrence keys in vocabulary 1622 / 12142
	Embedding
==================================================================================================
	Initialisation = None
	Concatenation = False
	Lemma : 135
	POS = 35 
Deep model(Non compositional)
__________________________________________________________________________________________________
Layer (type)                    Output Shape         Param #     Connected to                     
==================================================================================================
input_3 (InputLayer)            (None, 4)            0                                            
__________________________________________________________________________________________________
input_4 (InputLayer)            (None, 4)            0                                            
__________________________________________________________________________________________________
embedding_3 (Embedding)         (None, 4, 135)       1639170     input_3[0][0]                    
__________________________________________________________________________________________________
embedding_4 (Embedding)         (None, 4, 35)        5320        input_4[0][0]                    
__________________________________________________________________________________________________
flatten_3 (Flatten)             (None, 540)          0           embedding_3[0][0]                
__________________________________________________________________________________________________
flatten_4 (Flatten)             (None, 140)          0           embedding_4[0][0]                
__________________________________________________________________________________________________
concatenate_2 (Concatenate)     (None, 680)          0           flatten_3[0][0]                  
                                                                 flatten_4[0][0]                  
__________________________________________________________________________________________________
dense_4 (Dense)                 (None, 22)           14982       concatenate_2[0][0]              
__________________________________________________________________________________________________
dropout_3 (Dropout)             (None, 22)           0           dense_4[0][0]                    
__________________________________________________________________________________________________
dense_5 (Dense)                 (None, 79)           1817        dropout_3[0][0]                  
__________________________________________________________________________________________________
dropout_4 (Dropout)             (None, 79)           0           dense_5[0][0]                    
__________________________________________________________________________________________________
dense_6 (Dense)                 (None, 8)            640         dropout_4[0][0]                  
==================================================================================================
Total params: 1,661,929
Trainable params: 1,661,929
Non-trainable params: 0
__________________________________________________________________________________________________
None

__________________________________________________________________________________________________
…
	Dashed keys in vocabulary 1622
	One occurrence keys in vocabulary 1622 / 12159
	Embedding
==================================================================================================
	Initialisation = None
	Concatenation = False
	Lemma : 135
	POS = 35 
Deep model(Non compositional)
__________________________________________________________________________________________________
Layer (type)                    Output Shape         Param #     Connected to                     
==================================================================================================
input_5 (InputLayer)            (None, 4)            0                                            
__________________________________________________________________________________________________
input_6 (InputLayer)            (None, 4)            0                                            
__________________________________________________________________________________________________
embedding_5 (Embedding)         (None, 4, 135)       1641465     input_5[0][0]                    
__________________________________________________________________________________________________
embedding_6 (Embedding)         (None, 4, 35)        5320        input_6[0][0]                    
__________________________________________________________________________________________________
flatten_5 (Flatten)             (None, 540)          0           embedding_5[0][0]                
__________________________________________________________________________________________________
flatten_6 (Flatten)             (None, 140)          0           embedding_6[0][0]                
__________________________________________________________________________________________________
concatenate_3 (Concatenate)     (None, 680)          0           flatten_5[0][0]                  
                                                                 flatten_6[0][0]                  
__________________________________________________________________________________________________
dense_7 (Dense)                 (None, 22)           14982       concatenate_3[0][0]              
__________________________________________________________________________________________________
dropout_5 (Dropout)             (None, 22)           0           dense_7[0][0]                    
__________________________________________________________________________________________________
dense_8 (Dense)                 (None, 79)           1817        dropout_5[0][0]                  
__________________________________________________________________________________________________
dropout_6 (Dropout)             (None, 79)           0           dense_8[0][0]                    
__________________________________________________________________________________________________
dense_9 (Dense)                 (None, 8)            640         dropout_6[0][0]                  
==================================================================================================
Total params: 1,664,224
Trainable params: 1,664,224
Non-trainable params: 0
__________________________________________________________________________________________________
None

__________________________________________________________________________________________________
…
	One occurrence keys in vocabulary 1660 / 15321
	Attention: important lemmas are not in vocbulary	Embedding
==================================================================================================
	Initialisation = None
	Concatenation = False
	Lemma : 135
	POS = 35 
Deep model(Non compositional)
__________________________________________________________________________________________________
Layer (type)                    Output Shape         Param #     Connected to                     
==================================================================================================
input_7 (InputLayer)            (None, 4)            0                                            
__________________________________________________________________________________________________
input_8 (InputLayer)            (None, 4)            0                                            
__________________________________________________________________________________________________
embedding_7 (Embedding)         (None, 4, 135)       2068335     input_7[0][0]                    
__________________________________________________________________________________________________
embedding_8 (Embedding)         (None, 4, 35)        5915        input_8[0][0]                    
__________________________________________________________________________________________________
flatten_7 (Flatten)             (None, 540)          0           embedding_7[0][0]                
__________________________________________________________________________________________________
flatten_8 (Flatten)             (None, 140)          0           embedding_8[0][0]                
__________________________________________________________________________________________________
concatenate_4 (Concatenate)     (None, 680)          0           flatten_7[0][0]                  
                                                                 flatten_8[0][0]                  
__________________________________________________________________________________________________
dense_10 (Dense)                (None, 22)           14982       concatenate_4[0][0]              
__________________________________________________________________________________________________
dropout_7 (Dropout)             (None, 22)           0           dense_10[0][0]                   
__________________________________________________________________________________________________
dense_11 (Dense)                (None, 79)           1817        dropout_7[0][0]                  
__________________________________________________________________________________________________
dropout_8 (Dropout)             (None, 79)           0           dense_11[0][0]                   
__________________________________________________________________________________________________
dense_12 (Dense)                (None, 8)            640         dropout_8[0][0]                  
==================================================================================================
Total params: 2,091,689
Trainable params: 2,091,689
Non-trainable params: 0
__________________________________________________________________________________________________
None

__________________________________________________________________________________________________
…
	One occurrence keys in vocabulary 1660 / 15303
	Attention: important lemmas are not in vocbulary	Embedding
==================================================================================================
	Initialisation = None
	Concatenation = False
	Lemma : 135
	POS = 35 
Deep model(Non compositional)
__________________________________________________________________________________________________
Layer (type)                    Output Shape         Param #     Connected to                     
==================================================================================================
input_9 (InputLayer)            (None, 4)            0                                            
__________________________________________________________________________________________________
input_10 (InputLayer)           (None, 4)            0                                            
__________________________________________________________________________________________________
embedding_9 (Embedding)         (None, 4, 135)       2065905     input_9[0][0]                    
__________________________________________________________________________________________________
embedding_10 (Embedding)        (None, 4, 35)        5915        input_10[0][0]                   
__________________________________________________________________________________________________
flatten_9 (Flatten)             (None, 540)          0           embedding_9[0][0]                
__________________________________________________________________________________________________
flatten_10 (Flatten)            (None, 140)          0           embedding_10[0][0]               
__________________________________________________________________________________________________
concatenate_5 (Concatenate)     (None, 680)          0           flatten_9[0][0]                  
                                                                 flatten_10[0][0]                 
__________________________________________________________________________________________________
dense_13 (Dense)                (None, 22)           14982       concatenate_5[0][0]              
__________________________________________________________________________________________________
dropout_9 (Dropout)             (None, 22)           0           dense_13[0][0]                   
__________________________________________________________________________________________________
dense_14 (Dense)                (None, 79)           1817        dropout_9[0][0]                  
__________________________________________________________________________________________________
dropout_10 (Dropout)            (None, 79)           0           dense_14[0][0]                   
__________________________________________________________________________________________________
dense_15 (Dense)                (None, 8)            640         dropout_10[0][0]                 
==================================================================================================
Total params: 2,089,259
Trainable params: 2,089,259
Non-trainable params: 0
__________________________________________________________________________________________________
None

__________________________________________________________________________________________________
…
	One occurrence keys in vocabulary 1660 / 15244
	Attention: important lemmas are not in vocbulary	Embedding
==================================================================================================
	Initialisation = None
	Concatenation = False
	Lemma : 135
	POS = 35 
Deep model(Non compositional)
__________________________________________________________________________________________________
Layer (type)                    Output Shape         Param #     Connected to                     
==================================================================================================
input_11 (InputLayer)           (None, 4)            0                                            
__________________________________________________________________________________________________
input_12 (InputLayer)           (None, 4)            0                                            
__________________________________________________________________________________________________
embedding_11 (Embedding)        (None, 4, 135)       2057940     input_11[0][0]                   
__________________________________________________________________________________________________
embedding_12 (Embedding)        (None, 4, 35)        5915        input_12[0][0]                   
__________________________________________________________________________________________________
flatten_11 (Flatten)            (None, 540)          0           embedding_11[0][0]               
__________________________________________________________________________________________________
flatten_12 (Flatten)            (None, 140)          0           embedding_12[0][0]               
__________________________________________________________________________________________________
concatenate_6 (Concatenate)     (None, 680)          0           flatten_11[0][0]                 
                                                                 flatten_12[0][0]                 
__________________________________________________________________________________________________
dense_16 (Dense)                (None, 22)           14982       concatenate_6[0][0]              
__________________________________________________________________________________________________
dropout_11 (Dropout)            (None, 22)           0           dense_16[0][0]                   
__________________________________________________________________________________________________
dense_17 (Dense)                (None, 79)           1817        dropout_11[0][0]                 
__________________________________________________________________________________________________
dropout_12 (Dropout)            (None, 79)           0           dense_17[0][0]                   
__________________________________________________________________________________________________
dense_18 (Dense)                (None, 8)            640         dropout_12[0][0]                 
==================================================================================================
Total params: 2,081,294
Trainable params: 2,081,294
Non-trainable params: 0
__________________________________________________________________________________________________
None

__________________________________________________________________________________________________
…
	Dashed keys in vocabulary 1979
	One occurrence keys in vocabulary 1979 / 12529
	Embedding
==================================================================================================
	Initialisation = None
	Concatenation = False
	Lemma : 135
	POS = 35 
Deep model(Non compositional)
__________________________________________________________________________________________________
Layer (type)                    Output Shape         Param #     Connected to                     
==================================================================================================
input_13 (InputLayer)           (None, 4)            0                                            
__________________________________________________________________________________________________
input_14 (InputLayer)           (None, 4)            0                                            
__________________________________________________________________________________________________
embedding_13 (Embedding)        (None, 4, 135)       1691415     input_13[0][0]                   
__________________________________________________________________________________________________
embedding_14 (Embedding)        (None, 4, 35)        3850        input_14[0][0]                   
__________________________________________________________________________________________________
flatten_13 (Flatten)            (None, 540)          0           embedding_13[0][0]               
__________________________________________________________________________________________________
flatten_14 (Flatten)            (None, 140)          0           embedding_14[0][0]               
__________________________________________________________________________________________________
concatenate_7 (Concatenate)     (None, 680)          0           flatten_13[0][0]                 
                                                                 flatten_14[0][0]                 
__________________________________________________________________________________________________
dense_19 (Dense)                (None, 22)           14982       concatenate_7[0][0]              
__________________________________________________________________________________________________
dropout_13 (Dropout)            (None, 22)           0           dense_19[0][0]                   
__________________________________________________________________________________________________
dense_20 (Dense)                (None, 79)           1817        dropout_13[0][0]                 
__________________________________________________________________________________________________
dropout_14 (Dropout)            (None, 79)           0           dense_20[0][0]                   
__________________________________________________________________________________________________
dense_21 (Dense)                (None, 8)            640         dropout_14[0][0]                 
==================================================================================================
Total params: 1,712,704
Trainable params: 1,712,704
Non-trainable params: 0
__________________________________________________________________________________________________
None

__________________________________________________________________________________________________
…
	Dashed keys in vocabulary 1979
	One occurrence keys in vocabulary 1979 / 12525
	Embedding
==================================================================================================
	Initialisation = None
	Concatenation = False
	Lemma : 135
	POS = 35 
Deep model(Non compositional)
__________________________________________________________________________________________________
Layer (type)                    Output Shape         Param #     Connected to                     
==================================================================================================
input_15 (InputLayer)           (None, 4)            0                                            
__________________________________________________________________________________________________
input_16 (InputLayer)           (None, 4)            0                                            
__________________________________________________________________________________________________
embedding_15 (Embedding)        (None, 4, 135)       1690875     input_15[0][0]                   
__________________________________________________________________________________________________
embedding_16 (Embedding)        (None, 4, 35)        3850        input_16[0][0]                   
__________________________________________________________________________________________________
flatten_15 (Flatten)            (None, 540)          0           embedding_15[0][0]               
__________________________________________________________________________________________________
flatten_16 (Flatten)            (None, 140)          0           embedding_16[0][0]               
__________________________________________________________________________________________________
concatenate_8 (Concatenate)     (None, 680)          0           flatten_15[0][0]                 
                                                                 flatten_16[0][0]                 
__________________________________________________________________________________________________
dense_22 (Dense)                (None, 22)           14982       concatenate_8[0][0]              
__________________________________________________________________________________________________
dropout_15 (Dropout)            (None, 22)           0           dense_22[0][0]                   
__________________________________________________________________________________________________
dense_23 (Dense)                (None, 79)           1817        dropout_15[0][0]                 
__________________________________________________________________________________________________
dropout_16 (Dropout)            (None, 79)           0           dense_23[0][0]                   
__________________________________________________________________________________________________
dense_24 (Dense)                (None, 8)            640         dropout_16[0][0]                 
==================================================================================================
Total params: 1,712,164
Trainable params: 1,712,164
Non-trainable params: 0
__________________________________________________________________________________________________
None

__________________________________________________________________________________________________
…
	Dashed keys in vocabulary 1979
	One occurrence keys in vocabulary 1979 / 12587
	Embedding
==================================================================================================
	Initialisation = None
	Concatenation = False
	Lemma : 135
	POS = 35 
Deep model(Non compositional)
__________________________________________________________________________________________________
Layer (type)                    Output Shape         Param #     Connected to                     
==================================================================================================
input_17 (InputLayer)           (None, 4)            0                                            
__________________________________________________________________________________________________
input_18 (InputLayer)           (None, 4)            0                                            
__________________________________________________________________________________________________
embedding_17 (Embedding)        (None, 4, 135)       1699245     input_17[0][0]                   
__________________________________________________________________________________________________
embedding_18 (Embedding)        (None, 4, 35)        3850        input_18[0][0]                   
__________________________________________________________________________________________________
flatten_17 (Flatten)            (None, 540)          0           embedding_17[0][0]               
__________________________________________________________________________________________________
flatten_18 (Flatten)            (None, 140)          0           embedding_18[0][0]               
__________________________________________________________________________________________________
concatenate_9 (Concatenate)     (None, 680)          0           flatten_17[0][0]                 
                                                                 flatten_18[0][0]                 
__________________________________________________________________________________________________
dense_25 (Dense)                (None, 22)           14982       concatenate_9[0][0]              
__________________________________________________________________________________________________
dropout_17 (Dropout)            (None, 22)           0           dense_25[0][0]                   
__________________________________________________________________________________________________
dense_26 (Dense)                (None, 79)           1817        dropout_17[0][0]                 
__________________________________________________________________________________________________
dropout_18 (Dropout)            (None, 79)           0           dense_26[0][0]                   
__________________________________________________________________________________________________
dense_27 (Dense)                (None, 8)            640         dropout_18[0][0]                 
==================================================================================================
Total params: 1,720,534
Trainable params: 1,720,534
Non-trainable params: 0
__________________________________________________________________________________________________
None

__________________________________________________________________________________________________
…
	Dashed keys in vocabulary 1622
	One occurrence keys in vocabulary 1622 / 12174
	Embedding
==================================================================================================
	Initialisation = None
	Concatenation = False
	Lemma : 402
	POS = 48 
Deep model(Non compositional)
__________________________________________________________________________________________________
Layer (type)                    Output Shape         Param #     Connected to                     
==================================================================================================
input_19 (InputLayer)           (None, 4)            0                                            
__________________________________________________________________________________________________
input_20 (InputLayer)           (None, 4)            0                                            
__________________________________________________________________________________________________
embedding_19 (Embedding)        (None, 4, 402)       4893948     input_19[0][0]                   
__________________________________________________________________________________________________
embedding_20 (Embedding)        (None, 4, 48)        7296        input_20[0][0]                   
__________________________________________________________________________________________________
flatten_19 (Flatten)            (None, 1608)         0           embedding_19[0][0]               
__________________________________________________________________________________________________
flatten_20 (Flatten)            (None, 192)          0           embedding_20[0][0]               
__________________________________________________________________________________________________
concatenate_10 (Concatenate)    (None, 1800)         0           flatten_19[0][0]                 
                                                                 flatten_20[0][0]                 
__________________________________________________________________________________________________
dense_28 (Dense)                (None, 73)           131473      concatenate_10[0][0]             
__________________________________________________________________________________________________
dropout_19 (Dropout)            (None, 73)           0           dense_28[0][0]                   
__________________________________________________________________________________________________
dense_29 (Dense)                (None, 8)            592         dropout_19[0][0]                 
__________________________________________________________________________________________________
dropout_20 (Dropout)            (None, 8)            0           dense_29[0][0]                   
__________________________________________________________________________________________________
dense_30 (Dense)                (None, 8)            72          dropout_20[0][0]                 
==================================================================================================
Total params: 5,033,381
Trainable params: 5,033,381
Non-trainable params: 0
__________________________________________________________________________________________________
None

__________________________________________________________________________________________________
…
	Dashed keys in vocabulary 1622
	One occurrence keys in vocabulary 1622 / 12142
	Embedding
==================================================================================================
	Initialisation = None
	Concatenation = False
	Lemma : 402
	POS = 48 
Deep model(Non compositional)
__________________________________________________________________________________________________
Layer (type)                    Output Shape         Param #     Connected to                     
==================================================================================================
input_21 (InputLayer)           (None, 4)            0                                            
__________________________________________________________________________________________________
input_22 (InputLayer)           (None, 4)            0                                            
__________________________________________________________________________________________________
embedding_21 (Embedding)        (None, 4, 402)       4881084     input_21[0][0]                   
__________________________________________________________________________________________________
embedding_22 (Embedding)        (None, 4, 48)        7296        input_22[0][0]                   
__________________________________________________________________________________________________
flatten_21 (Flatten)            (None, 1608)         0           embedding_21[0][0]               
__________________________________________________________________________________________________
flatten_22 (Flatten)            (None, 192)          0           embedding_22[0][0]               
__________________________________________________________________________________________________
concatenate_11 (Concatenate)    (None, 1800)         0           flatten_21[0][0]                 
                                                                 flatten_22[0][0]                 
__________________________________________________________________________________________________
dense_31 (Dense)                (None, 73)           131473      concatenate_11[0][0]             
__________________________________________________________________________________________________
dropout_21 (Dropout)            (None, 73)           0           dense_31[0][0]                   
__________________________________________________________________________________________________
dense_32 (Dense)                (None, 8)            592         dropout_21[0][0]                 
__________________________________________________________________________________________________
dropout_22 (Dropout)            (None, 8)            0           dense_32[0][0]                   
__________________________________________________________________________________________________
dense_33 (Dense)                (None, 8)            72          dropout_22[0][0]                 
==================================================================================================
Total params: 5,020,517
Trainable params: 5,020,517
Non-trainable params: 0
__________________________________________________________________________________________________
None

__________________________________________________________________________________________________
…
	Dashed keys in vocabulary 1622
	One occurrence keys in vocabulary 1622 / 12159
	Embedding
==================================================================================================
	Initialisation = None
	Concatenation = False
	Lemma : 402
	POS = 48 
Deep model(Non compositional)
__________________________________________________________________________________________________
Layer (type)                    Output Shape         Param #     Connected to                     
==================================================================================================
input_23 (InputLayer)           (None, 4)            0                                            
__________________________________________________________________________________________________
input_24 (InputLayer)           (None, 4)            0                                            
__________________________________________________________________________________________________
embedding_23 (Embedding)        (None, 4, 402)       4887918     input_23[0][0]                   
__________________________________________________________________________________________________
embedding_24 (Embedding)        (None, 4, 48)        7296        input_24[0][0]                   
__________________________________________________________________________________________________
flatten_23 (Flatten)            (None, 1608)         0           embedding_23[0][0]               
__________________________________________________________________________________________________
flatten_24 (Flatten)            (None, 192)          0           embedding_24[0][0]               
__________________________________________________________________________________________________
concatenate_12 (Concatenate)    (None, 1800)         0           flatten_23[0][0]                 
                                                                 flatten_24[0][0]                 
__________________________________________________________________________________________________
dense_34 (Dense)                (None, 73)           131473      concatenate_12[0][0]             
__________________________________________________________________________________________________
dropout_23 (Dropout)            (None, 73)           0           dense_34[0][0]                   
__________________________________________________________________________________________________
dense_35 (Dense)                (None, 8)            592         dropout_23[0][0]                 
__________________________________________________________________________________________________
dropout_24 (Dropout)            (None, 8)            0           dense_35[0][0]                   
__________________________________________________________________________________________________
dense_36 (Dense)                (None, 8)            72          dropout_24[0][0]                 
==================================================================================================
Total params: 5,027,351
Trainable params: 5,027,351
Non-trainable params: 0
__________________________________________________________________________________________________
None

__________________________________________________________________________________________________
…
	One occurrence keys in vocabulary 1660 / 15321
	Attention: important lemmas are not in vocbulary	Embedding
==================================================================================================
	Initialisation = None
	Concatenation = False
	Lemma : 402
	POS = 48 
Deep model(Non compositional)
__________________________________________________________________________________________________
Layer (type)                    Output Shape         Param #     Connected to                     
==================================================================================================
input_25 (InputLayer)           (None, 4)            0                                            
__________________________________________________________________________________________________
input_26 (InputLayer)           (None, 4)            0                                            
__________________________________________________________________________________________________
embedding_25 (Embedding)        (None, 4, 402)       6159042     input_25[0][0]                   
__________________________________________________________________________________________________
embedding_26 (Embedding)        (None, 4, 48)        8112        input_26[0][0]                   
__________________________________________________________________________________________________
flatten_25 (Flatten)            (None, 1608)         0           embedding_25[0][0]               
__________________________________________________________________________________________________
flatten_26 (Flatten)            (None, 192)          0           embedding_26[0][0]               
__________________________________________________________________________________________________
concatenate_13 (Concatenate)    (None, 1800)         0           flatten_25[0][0]                 
                                                                 flatten_26[0][0]                 
__________________________________________________________________________________________________
dense_37 (Dense)                (None, 73)           131473      concatenate_13[0][0]             
__________________________________________________________________________________________________
dropout_25 (Dropout)            (None, 73)           0           dense_37[0][0]                   
__________________________________________________________________________________________________
dense_38 (Dense)                (None, 8)            592         dropout_25[0][0]                 
__________________________________________________________________________________________________
dropout_26 (Dropout)            (None, 8)            0           dense_38[0][0]                   
__________________________________________________________________________________________________
dense_39 (Dense)                (None, 8)            72          dropout_26[0][0]                 
==================================================================================================
Total params: 6,299,291
Trainable params: 6,299,291
Non-trainable params: 0
__________________________________________________________________________________________________
None

__________________________________________________________________________________________________
…
	One occurrence keys in vocabulary 1660 / 15303
	Attention: important lemmas are not in vocbulary	Embedding
==================================================================================================
	Initialisation = None
	Concatenation = False
	Lemma : 402
	POS = 48 
Deep model(Non compositional)
__________________________________________________________________________________________________
Layer (type)                    Output Shape         Param #     Connected to                     
==================================================================================================
input_27 (InputLayer)           (None, 4)            0                                            
__________________________________________________________________________________________________
input_28 (InputLayer)           (None, 4)            0                                            
__________________________________________________________________________________________________
embedding_27 (Embedding)        (None, 4, 402)       6151806     input_27[0][0]                   
__________________________________________________________________________________________________
embedding_28 (Embedding)        (None, 4, 48)        8112        input_28[0][0]                   
__________________________________________________________________________________________________
flatten_27 (Flatten)            (None, 1608)         0           embedding_27[0][0]               
__________________________________________________________________________________________________
flatten_28 (Flatten)            (None, 192)          0           embedding_28[0][0]               
__________________________________________________________________________________________________
concatenate_14 (Concatenate)    (None, 1800)         0           flatten_27[0][0]                 
                                                                 flatten_28[0][0]                 
__________________________________________________________________________________________________
dense_40 (Dense)                (None, 73)           131473      concatenate_14[0][0]             
__________________________________________________________________________________________________
dropout_27 (Dropout)            (None, 73)           0           dense_40[0][0]                   
__________________________________________________________________________________________________
dense_41 (Dense)                (None, 8)            592         dropout_27[0][0]                 
__________________________________________________________________________________________________
dropout_28 (Dropout)            (None, 8)            0           dense_41[0][0]                   
__________________________________________________________________________________________________
dense_42 (Dense)                (None, 8)            72          dropout_28[0][0]                 
==================================================================================================
Total params: 6,292,055
Trainable params: 6,292,055
Non-trainable params: 0
__________________________________________________________________________________________________
None

__________________________________________________________________________________________________
…
	One occurrence keys in vocabulary 1660 / 15244
	Attention: important lemmas are not in vocbulary	Embedding
==================================================================================================
	Initialisation = None
	Concatenation = False
	Lemma : 402
	POS = 48 
Deep model(Non compositional)
__________________________________________________________________________________________________
Layer (type)                    Output Shape         Param #     Connected to                     
==================================================================================================
input_29 (InputLayer)           (None, 4)            0                                            
__________________________________________________________________________________________________
input_30 (InputLayer)           (None, 4)            0                                            
__________________________________________________________________________________________________
embedding_29 (Embedding)        (None, 4, 402)       6128088     input_29[0][0]                   
__________________________________________________________________________________________________
embedding_30 (Embedding)        (None, 4, 48)        8112        input_30[0][0]                   
__________________________________________________________________________________________________
flatten_29 (Flatten)            (None, 1608)         0           embedding_29[0][0]               
__________________________________________________________________________________________________
flatten_30 (Flatten)            (None, 192)          0           embedding_30[0][0]               
__________________________________________________________________________________________________
concatenate_15 (Concatenate)    (None, 1800)         0           flatten_29[0][0]                 
                                                                 flatten_30[0][0]                 
__________________________________________________________________________________________________
dense_43 (Dense)                (None, 73)           131473      concatenate_15[0][0]             
__________________________________________________________________________________________________
dropout_29 (Dropout)            (None, 73)           0           dense_43[0][0]                   
__________________________________________________________________________________________________
dense_44 (Dense)                (None, 8)            592         dropout_29[0][0]                 
__________________________________________________________________________________________________
dropout_30 (Dropout)            (None, 8)            0           dense_44[0][0]                   
__________________________________________________________________________________________________
dense_45 (Dense)                (None, 8)            72          dropout_30[0][0]                 
==================================================================================================
Total params: 6,268,337
Trainable params: 6,268,337
Non-trainable params: 0
__________________________________________________________________________________________________
None

__________________________________________________________________________________________________
…
	Dashed keys in vocabulary 1979
	One occurrence keys in vocabulary 1979 / 12529
	Embedding
==================================================================================================
	Initialisation = None
	Concatenation = False
	Lemma : 402
	POS = 48 
Deep model(Non compositional)
__________________________________________________________________________________________________
Layer (type)                    Output Shape         Param #     Connected to                     
==================================================================================================
input_31 (InputLayer)           (None, 4)            0                                            
__________________________________________________________________________________________________
input_32 (InputLayer)           (None, 4)            0                                            
__________________________________________________________________________________________________
embedding_31 (Embedding)        (None, 4, 402)       5036658     input_31[0][0]                   
__________________________________________________________________________________________________
embedding_32 (Embedding)        (None, 4, 48)        5280        input_32[0][0]                   
__________________________________________________________________________________________________
flatten_31 (Flatten)            (None, 1608)         0           embedding_31[0][0]               
__________________________________________________________________________________________________
flatten_32 (Flatten)            (None, 192)          0           embedding_32[0][0]               
__________________________________________________________________________________________________
concatenate_16 (Concatenate)    (None, 1800)         0           flatten_31[0][0]                 
                                                                 flatten_32[0][0]                 
__________________________________________________________________________________________________
dense_46 (Dense)                (None, 73)           131473      concatenate_16[0][0]             
__________________________________________________________________________________________________
dropout_31 (Dropout)            (None, 73)           0           dense_46[0][0]                   
__________________________________________________________________________________________________
dense_47 (Dense)                (None, 8)            592         dropout_31[0][0]                 
__________________________________________________________________________________________________
dropout_32 (Dropout)            (None, 8)            0           dense_47[0][0]                   
__________________________________________________________________________________________________
dense_48 (Dense)                (None, 8)            72          dropout_32[0][0]                 
==================================================================================================
Total params: 5,174,075
Trainable params: 5,174,075
Non-trainable params: 0
__________________________________________________________________________________________________
None

__________________________________________________________________________________________________
…
	Dashed keys in vocabulary 1979
	One occurrence keys in vocabulary 1979 / 12525
	Embedding
==================================================================================================
	Initialisation = None
	Concatenation = False
	Lemma : 402
	POS = 48 
Deep model(Non compositional)
__________________________________________________________________________________________________
Layer (type)                    Output Shape         Param #     Connected to                     
==================================================================================================
input_33 (InputLayer)           (None, 4)            0                                            
__________________________________________________________________________________________________
input_34 (InputLayer)           (None, 4)            0                                            
__________________________________________________________________________________________________
embedding_33 (Embedding)        (None, 4, 402)       5035050     input_33[0][0]                   
__________________________________________________________________________________________________
embedding_34 (Embedding)        (None, 4, 48)        5280        input_34[0][0]                   
__________________________________________________________________________________________________
flatten_33 (Flatten)            (None, 1608)         0           embedding_33[0][0]               
__________________________________________________________________________________________________
flatten_34 (Flatten)            (None, 192)          0           embedding_34[0][0]               
__________________________________________________________________________________________________
concatenate_17 (Concatenate)    (None, 1800)         0           flatten_33[0][0]                 
                                                                 flatten_34[0][0]                 
__________________________________________________________________________________________________
dense_49 (Dense)                (None, 73)           131473      concatenate_17[0][0]             
__________________________________________________________________________________________________
dropout_33 (Dropout)            (None, 73)           0           dense_49[0][0]                   
__________________________________________________________________________________________________
dense_50 (Dense)                (None, 8)            592         dropout_33[0][0]                 
__________________________________________________________________________________________________
dropout_34 (Dropout)            (None, 8)            0           dense_50[0][0]                   
__________________________________________________________________________________________________
dense_51 (Dense)                (None, 8)            72          dropout_34[0][0]                 
==================================================================================================
Total params: 5,172,467
Trainable params: 5,172,467
Non-trainable params: 0
__________________________________________________________________________________________________
None

__________________________________________________________________________________________________
…
	Dashed keys in vocabulary 1979
	One occurrence keys in vocabulary 1979 / 12587
	Embedding
==================================================================================================
	Initialisation = None
	Concatenation = False
	Lemma : 402
	POS = 48 
Deep model(Non compositional)
__________________________________________________________________________________________________
Layer (type)                    Output Shape         Param #     Connected to                     
==================================================================================================
input_35 (InputLayer)           (None, 4)            0                                            
__________________________________________________________________________________________________
input_36 (InputLayer)           (None, 4)            0                                            
__________________________________________________________________________________________________
embedding_35 (Embedding)        (None, 4, 402)       5059974     input_35[0][0]                   
__________________________________________________________________________________________________
embedding_36 (Embedding)        (None, 4, 48)        5280        input_36[0][0]                   
__________________________________________________________________________________________________
flatten_35 (Flatten)            (None, 1608)         0           embedding_35[0][0]               
__________________________________________________________________________________________________
flatten_36 (Flatten)            (None, 192)          0           embedding_36[0][0]               
__________________________________________________________________________________________________
concatenate_18 (Concatenate)    (None, 1800)         0           flatten_35[0][0]                 
                                                                 flatten_36[0][0]                 
__________________________________________________________________________________________________
dense_52 (Dense)                (None, 73)           131473      concatenate_18[0][0]             
__________________________________________________________________________________________________
dropout_35 (Dropout)            (None, 73)           0           dense_52[0][0]                   
__________________________________________________________________________________________________
dense_53 (Dense)                (None, 8)            592         dropout_35[0][0]                 
__________________________________________________________________________________________________
dropout_36 (Dropout)            (None, 8)            0           dense_53[0][0]                   
__________________________________________________________________________________________________
dense_54 (Dense)                (None, 8)            72          dropout_36[0][0]                 
==================================================================================================
Total params: 5,197,391
Trainable params: 5,197,391
Non-trainable params: 0
__________________________________________________________________________________________________
None

__________________________________________________________________________________________________
…
	Dashed keys in vocabulary 1622
	One occurrence keys in vocabulary 1622 / 12174
	Embedding
==================================================================================================
	Initialisation = None
	Concatenation = False
	Lemma : 377
	POS = 186 
Deep model(Non compositional)
__________________________________________________________________________________________________
Layer (type)                    Output Shape         Param #     Connected to                     
==================================================================================================
input_37 (InputLayer)           (None, 4)            0                                            
__________________________________________________________________________________________________
input_38 (InputLayer)           (None, 4)            0                                            
__________________________________________________________________________________________________
embedding_37 (Embedding)        (None, 4, 377)       4589598     input_37[0][0]                   
__________________________________________________________________________________________________
embedding_38 (Embedding)        (None, 4, 186)       28272       input_38[0][0]                   
__________________________________________________________________________________________________
flatten_37 (Flatten)            (None, 1508)         0           embedding_37[0][0]               
__________________________________________________________________________________________________
flatten_38 (Flatten)            (None, 744)          0           embedding_38[0][0]               
__________________________________________________________________________________________________
concatenate_19 (Concatenate)    (None, 2252)         0           flatten_37[0][0]                 
                                                                 flatten_38[0][0]                 
__________________________________________________________________________________________________
dense_55 (Dense)                (None, 374)          842622      concatenate_19[0][0]             
__________________________________________________________________________________________________
dropout_37 (Dropout)            (None, 374)          0           dense_55[0][0]                   
__________________________________________________________________________________________________
dense_56 (Dense)                (None, 12)           4500        dropout_37[0][0]                 
__________________________________________________________________________________________________
dropout_38 (Dropout)            (None, 12)           0           dense_56[0][0]                   
__________________________________________________________________________________________________
dense_57 (Dense)                (None, 8)            104         dropout_38[0][0]                 
==================================================================================================
Total params: 5,465,096
Trainable params: 5,465,096
Non-trainable params: 0
__________________________________________________________________________________________________
None

__________________________________________________________________________________________________
…
	Dashed keys in vocabulary 1622
	One occurrence keys in vocabulary 1622 / 12142
	Embedding
==================================================================================================
	Initialisation = None
	Concatenation = False
	Lemma : 377
	POS = 186 
Deep model(Non compositional)
__________________________________________________________________________________________________
Layer (type)                    Output Shape         Param #     Connected to                     
==================================================================================================
input_39 (InputLayer)           (None, 4)            0                                            
__________________________________________________________________________________________________
input_40 (InputLayer)           (None, 4)            0                                            
__________________________________________________________________________________________________
embedding_39 (Embedding)        (None, 4, 377)       4577534     input_39[0][0]                   
__________________________________________________________________________________________________
embedding_40 (Embedding)        (None, 4, 186)       28272       input_40[0][0]                   
__________________________________________________________________________________________________
flatten_39 (Flatten)            (None, 1508)         0           embedding_39[0][0]               
__________________________________________________________________________________________________
flatten_40 (Flatten)            (None, 744)          0           embedding_40[0][0]               
__________________________________________________________________________________________________
concatenate_20 (Concatenate)    (None, 2252)         0           flatten_39[0][0]                 
                                                                 flatten_40[0][0]                 
__________________________________________________________________________________________________
dense_58 (Dense)                (None, 374)          842622      concatenate_20[0][0]             
__________________________________________________________________________________________________
dropout_39 (Dropout)            (None, 374)          0           dense_58[0][0]                   
__________________________________________________________________________________________________
dense_59 (Dense)                (None, 12)           4500        dropout_39[0][0]                 
__________________________________________________________________________________________________
dropout_40 (Dropout)            (None, 12)           0           dense_59[0][0]                   
__________________________________________________________________________________________________
dense_60 (Dense)                (None, 8)            104         dropout_40[0][0]                 
==================================================================================================
Total params: 5,453,032
Trainable params: 5,453,032
Non-trainable params: 0
__________________________________________________________________________________________________
None

__________________________________________________________________________________________________
…
	Dashed keys in vocabulary 1622
	One occurrence keys in vocabulary 1622 / 12159
	Embedding
==================================================================================================
	Initialisation = None
	Concatenation = False
	Lemma : 377
	POS = 186 
Deep model(Non compositional)
__________________________________________________________________________________________________
Layer (type)                    Output Shape         Param #     Connected to                     
==================================================================================================
input_41 (InputLayer)           (None, 4)            0                                            
__________________________________________________________________________________________________
input_42 (InputLayer)           (None, 4)            0                                            
__________________________________________________________________________________________________
embedding_41 (Embedding)        (None, 4, 377)       4583943     input_41[0][0]                   
__________________________________________________________________________________________________
embedding_42 (Embedding)        (None, 4, 186)       28272       input_42[0][0]                   
__________________________________________________________________________________________________
flatten_41 (Flatten)            (None, 1508)         0           embedding_41[0][0]               
__________________________________________________________________________________________________
flatten_42 (Flatten)            (None, 744)          0           embedding_42[0][0]               
__________________________________________________________________________________________________
concatenate_21 (Concatenate)    (None, 2252)         0           flatten_41[0][0]                 
                                                                 flatten_42[0][0]                 
__________________________________________________________________________________________________
dense_61 (Dense)                (None, 374)          842622      concatenate_21[0][0]             
__________________________________________________________________________________________________
dropout_41 (Dropout)            (None, 374)          0           dense_61[0][0]                   
__________________________________________________________________________________________________
dense_62 (Dense)                (None, 12)           4500        dropout_41[0][0]                 
__________________________________________________________________________________________________
dropout_42 (Dropout)            (None, 12)           0           dense_62[0][0]                   
__________________________________________________________________________________________________
dense_63 (Dense)                (None, 8)            104         dropout_42[0][0]                 
==================================================================================================
Total params: 5,459,441
Trainable params: 5,459,441
Non-trainable params: 0
__________________________________________________________________________________________________
None

__________________________________________________________________________________________________
…
	One occurrence keys in vocabulary 1660 / 15321
	Attention: important lemmas are not in vocbulary	Embedding
==================================================================================================
	Initialisation = None
	Concatenation = False
	Lemma : 377
	POS = 186 
Deep model(Non compositional)
__________________________________________________________________________________________________
Layer (type)                    Output Shape         Param #     Connected to                     
==================================================================================================
input_43 (InputLayer)           (None, 4)            0                                            
__________________________________________________________________________________________________
input_44 (InputLayer)           (None, 4)            0                                            
__________________________________________________________________________________________________
embedding_43 (Embedding)        (None, 4, 377)       5776017     input_43[0][0]                   
__________________________________________________________________________________________________
embedding_44 (Embedding)        (None, 4, 186)       31434       input_44[0][0]                   
__________________________________________________________________________________________________
flatten_43 (Flatten)            (None, 1508)         0           embedding_43[0][0]               
__________________________________________________________________________________________________
flatten_44 (Flatten)            (None, 744)          0           embedding_44[0][0]               
__________________________________________________________________________________________________
concatenate_22 (Concatenate)    (None, 2252)         0           flatten_43[0][0]                 
                                                                 flatten_44[0][0]                 
__________________________________________________________________________________________________
dense_64 (Dense)                (None, 374)          842622      concatenate_22[0][0]             
__________________________________________________________________________________________________
dropout_43 (Dropout)            (None, 374)          0           dense_64[0][0]                   
__________________________________________________________________________________________________
dense_65 (Dense)                (None, 12)           4500        dropout_43[0][0]                 
__________________________________________________________________________________________________
dropout_44 (Dropout)            (None, 12)           0           dense_65[0][0]                   
__________________________________________________________________________________________________
dense_66 (Dense)                (None, 8)            104         dropout_44[0][0]                 
==================================================================================================
Total params: 6,654,677
Trainable params: 6,654,677
Non-trainable params: 0
__________________________________________________________________________________________________
None

__________________________________________________________________________________________________
…
	One occurrence keys in vocabulary 1660 / 15303
	Attention: important lemmas are not in vocbulary	Embedding
==================================================================================================
	Initialisation = None
	Concatenation = False
	Lemma : 377
	POS = 186 
Deep model(Non compositional)
__________________________________________________________________________________________________
Layer (type)                    Output Shape         Param #     Connected to                     
==================================================================================================
input_45 (InputLayer)           (None, 4)            0                                            
__________________________________________________________________________________________________
input_46 (InputLayer)           (None, 4)            0                                            
__________________________________________________________________________________________________
embedding_45 (Embedding)        (None, 4, 377)       5769231     input_45[0][0]                   
__________________________________________________________________________________________________
embedding_46 (Embedding)        (None, 4, 186)       31434       input_46[0][0]                   
__________________________________________________________________________________________________
flatten_45 (Flatten)            (None, 1508)         0           embedding_45[0][0]               
__________________________________________________________________________________________________
flatten_46 (Flatten)            (None, 744)          0           embedding_46[0][0]               
__________________________________________________________________________________________________
concatenate_23 (Concatenate)    (None, 2252)         0           flatten_45[0][0]                 
                                                                 flatten_46[0][0]                 
__________________________________________________________________________________________________
dense_67 (Dense)                (None, 374)          842622      concatenate_23[0][0]             
__________________________________________________________________________________________________
dropout_45 (Dropout)            (None, 374)          0           dense_67[0][0]                   
__________________________________________________________________________________________________
dense_68 (Dense)                (None, 12)           4500        dropout_45[0][0]                 
__________________________________________________________________________________________________
dropout_46 (Dropout)            (None, 12)           0           dense_68[0][0]                   
__________________________________________________________________________________________________
dense_69 (Dense)                (None, 8)            104         dropout_46[0][0]                 
==================================================================================================
Total params: 6,647,891
Trainable params: 6,647,891
Non-trainable params: 0
__________________________________________________________________________________________________
None

__________________________________________________________________________________________________
…
	One occurrence keys in vocabulary 1660 / 15244
	Attention: important lemmas are not in vocbulary	Embedding
==================================================================================================
	Initialisation = None
	Concatenation = False
	Lemma : 377
	POS = 186 
Deep model(Non compositional)
__________________________________________________________________________________________________
Layer (type)                    Output Shape         Param #     Connected to                     
==================================================================================================
input_47 (InputLayer)           (None, 4)            0                                            
__________________________________________________________________________________________________
input_48 (InputLayer)           (None, 4)            0                                            
__________________________________________________________________________________________________
embedding_47 (Embedding)        (None, 4, 377)       5746988     input_47[0][0]                   
__________________________________________________________________________________________________
embedding_48 (Embedding)        (None, 4, 186)       31434       input_48[0][0]                   
__________________________________________________________________________________________________
flatten_47 (Flatten)            (None, 1508)         0           embedding_47[0][0]               
__________________________________________________________________________________________________
flatten_48 (Flatten)            (None, 744)          0           embedding_48[0][0]               
__________________________________________________________________________________________________
concatenate_24 (Concatenate)    (None, 2252)         0           flatten_47[0][0]                 
                                                                 flatten_48[0][0]                 
__________________________________________________________________________________________________
dense_70 (Dense)                (None, 374)          842622      concatenate_24[0][0]             
__________________________________________________________________________________________________
dropout_47 (Dropout)            (None, 374)          0           dense_70[0][0]                   
__________________________________________________________________________________________________
dense_71 (Dense)                (None, 12)           4500        dropout_47[0][0]                 
__________________________________________________________________________________________________
dropout_48 (Dropout)            (None, 12)           0           dense_71[0][0]                   
__________________________________________________________________________________________________
dense_72 (Dense)                (None, 8)            104         dropout_48[0][0]                 
==================================================================================================
Total params: 6,625,648
Trainable params: 6,625,648
Non-trainable params: 0
__________________________________________________________________________________________________
None

__________________________________________________________________________________________________
…
	Dashed keys in vocabulary 1979
	One occurrence keys in vocabulary 1979 / 12529
	Embedding
==================================================================================================
	Initialisation = None
	Concatenation = False
	Lemma : 377
	POS = 186 
Deep model(Non compositional)
__________________________________________________________________________________________________
Layer (type)                    Output Shape         Param #     Connected to                     
==================================================================================================
input_49 (InputLayer)           (None, 4)            0                                            
__________________________________________________________________________________________________
input_50 (InputLayer)           (None, 4)            0                                            
__________________________________________________________________________________________________
embedding_49 (Embedding)        (None, 4, 377)       4723433     input_49[0][0]                   
__________________________________________________________________________________________________
embedding_50 (Embedding)        (None, 4, 186)       20460       input_50[0][0]                   
__________________________________________________________________________________________________
flatten_49 (Flatten)            (None, 1508)         0           embedding_49[0][0]               
__________________________________________________________________________________________________
flatten_50 (Flatten)            (None, 744)          0           embedding_50[0][0]               
__________________________________________________________________________________________________
concatenate_25 (Concatenate)    (None, 2252)         0           flatten_49[0][0]                 
                                                                 flatten_50[0][0]                 
__________________________________________________________________________________________________
dense_73 (Dense)                (None, 374)          842622      concatenate_25[0][0]             
__________________________________________________________________________________________________
dropout_49 (Dropout)            (None, 374)          0           dense_73[0][0]                   
__________________________________________________________________________________________________
dense_74 (Dense)                (None, 12)           4500        dropout_49[0][0]                 
__________________________________________________________________________________________________
dropout_50 (Dropout)            (None, 12)           0           dense_74[0][0]                   
__________________________________________________________________________________________________
dense_75 (Dense)                (None, 8)            104         dropout_50[0][0]                 
==================================================================================================
Total params: 5,591,119
Trainable params: 5,591,119
Non-trainable params: 0
__________________________________________________________________________________________________
None

__________________________________________________________________________________________________
…
	Dashed keys in vocabulary 1979
	One occurrence keys in vocabulary 1979 / 12525
	Embedding
==================================================================================================
	Initialisation = None
	Concatenation = False
	Lemma : 377
	POS = 186 
Deep model(Non compositional)
__________________________________________________________________________________________________
Layer (type)                    Output Shape         Param #     Connected to                     
==================================================================================================
input_51 (InputLayer)           (None, 4)            0                                            
__________________________________________________________________________________________________
input_52 (InputLayer)           (None, 4)            0                                            
__________________________________________________________________________________________________
embedding_51 (Embedding)        (None, 4, 377)       4721925     input_51[0][0]                   
__________________________________________________________________________________________________
embedding_52 (Embedding)        (None, 4, 186)       20460       input_52[0][0]                   
__________________________________________________________________________________________________
flatten_51 (Flatten)            (None, 1508)         0           embedding_51[0][0]               
__________________________________________________________________________________________________
flatten_52 (Flatten)            (None, 744)          0           embedding_52[0][0]               
__________________________________________________________________________________________________
concatenate_26 (Concatenate)    (None, 2252)         0           flatten_51[0][0]                 
                                                                 flatten_52[0][0]                 
__________________________________________________________________________________________________
dense_76 (Dense)                (None, 374)          842622      concatenate_26[0][0]             
__________________________________________________________________________________________________
dropout_51 (Dropout)            (None, 374)          0           dense_76[0][0]                   
__________________________________________________________________________________________________
dense_77 (Dense)                (None, 12)           4500        dropout_51[0][0]                 
__________________________________________________________________________________________________
dropout_52 (Dropout)            (None, 12)           0           dense_77[0][0]                   
__________________________________________________________________________________________________
dense_78 (Dense)                (None, 8)            104         dropout_52[0][0]                 
==================================================================================================
Total params: 5,589,611
Trainable params: 5,589,611
Non-trainable params: 0
__________________________________________________________________________________________________
None

__________________________________________________________________________________________________
…
	Dashed keys in vocabulary 1979
	One occurrence keys in vocabulary 1979 / 12587
	Embedding
==================================================================================================
	Initialisation = None
	Concatenation = False
	Lemma : 377
	POS = 186 
Deep model(Non compositional)
__________________________________________________________________________________________________
Layer (type)                    Output Shape         Param #     Connected to                     
==================================================================================================
input_53 (InputLayer)           (None, 4)            0                                            
__________________________________________________________________________________________________
input_54 (InputLayer)           (None, 4)            0                                            
__________________________________________________________________________________________________
embedding_53 (Embedding)        (None, 4, 377)       4745299     input_53[0][0]                   
__________________________________________________________________________________________________
embedding_54 (Embedding)        (None, 4, 186)       20460       input_54[0][0]                   
__________________________________________________________________________________________________
flatten_53 (Flatten)            (None, 1508)         0           embedding_53[0][0]               
__________________________________________________________________________________________________
flatten_54 (Flatten)            (None, 744)          0           embedding_54[0][0]               
__________________________________________________________________________________________________
concatenate_27 (Concatenate)    (None, 2252)         0           flatten_53[0][0]                 
                                                                 flatten_54[0][0]                 
__________________________________________________________________________________________________
dense_79 (Dense)                (None, 374)          842622      concatenate_27[0][0]             
__________________________________________________________________________________________________
dropout_53 (Dropout)            (None, 374)          0           dense_79[0][0]                   
__________________________________________________________________________________________________
dense_80 (Dense)                (None, 12)           4500        dropout_53[0][0]                 
__________________________________________________________________________________________________
dropout_54 (Dropout)            (None, 12)           0           dense_80[0][0]                   
__________________________________________________________________________________________________
dense_81 (Dense)                (None, 8)            104         dropout_54[0][0]                 
==================================================================================================
Total params: 5,612,985
Trainable params: 5,612,985
Non-trainable params: 0
__________________________________________________________________________________________________
None

__________________________________________________________________________________________________
…
	Dashed keys in vocabulary 1622
	One occurrence keys in vocabulary 1622 / 12174
	Embedding
==================================================================================================
	Initialisation = None
	Concatenation = False
	Lemma : 198
	POS = 138 
Deep model(Non compositional)
__________________________________________________________________________________________________
Layer (type)                    Output Shape         Param #     Connected to                     
==================================================================================================
input_55 (InputLayer)           (None, 4)            0                                            
__________________________________________________________________________________________________
input_56 (InputLayer)           (None, 4)            0                                            
__________________________________________________________________________________________________
embedding_55 (Embedding)        (None, 4, 198)       2410452     input_55[0][0]                   
__________________________________________________________________________________________________
embedding_56 (Embedding)        (None, 4, 138)       20976       input_56[0][0]                   
__________________________________________________________________________________________________
flatten_55 (Flatten)            (None, 792)          0           embedding_55[0][0]               
__________________________________________________________________________________________________
flatten_56 (Flatten)            (None, 552)          0           embedding_56[0][0]               
__________________________________________________________________________________________________
concatenate_28 (Concatenate)    (None, 1344)         0           flatten_55[0][0]                 
                                                                 flatten_56[0][0]                 
__________________________________________________________________________________________________
dense_82 (Dense)                (None, 30)           40350       concatenate_28[0][0]             
__________________________________________________________________________________________________
dropout_55 (Dropout)            (None, 30)           0           dense_82[0][0]                   
__________________________________________________________________________________________________
dense_83 (Dense)                (None, 54)           1674        dropout_55[0][0]                 
__________________________________________________________________________________________________
dropout_56 (Dropout)            (None, 54)           0           dense_83[0][0]                   
__________________________________________________________________________________________________
dense_84 (Dense)                (None, 8)            440         dropout_56[0][0]                 
==================================================================================================
Total params: 2,473,892
Trainable params: 2,473,892
Non-trainable params: 0
__________________________________________________________________________________________________
None

__________________________________________________________________________________________________
…
	Dashed keys in vocabulary 1622
	One occurrence keys in vocabulary 1622 / 12142
	Embedding
==================================================================================================
	Initialisation = None
	Concatenation = False
	Lemma : 198
	POS = 138 
Deep model(Non compositional)
__________________________________________________________________________________________________
Layer (type)                    Output Shape         Param #     Connected to                     
==================================================================================================
input_57 (InputLayer)           (None, 4)            0                                            
__________________________________________________________________________________________________
input_58 (InputLayer)           (None, 4)            0                                            
__________________________________________________________________________________________________
embedding_57 (Embedding)        (None, 4, 198)       2404116     input_57[0][0]                   
__________________________________________________________________________________________________
embedding_58 (Embedding)        (None, 4, 138)       20976       input_58[0][0]                   
__________________________________________________________________________________________________
flatten_57 (Flatten)            (None, 792)          0           embedding_57[0][0]               
__________________________________________________________________________________________________
flatten_58 (Flatten)            (None, 552)          0           embedding_58[0][0]               
__________________________________________________________________________________________________
concatenate_29 (Concatenate)    (None, 1344)         0           flatten_57[0][0]                 
                                                                 flatten_58[0][0]                 
__________________________________________________________________________________________________
dense_85 (Dense)                (None, 30)           40350       concatenate_29[0][0]             
__________________________________________________________________________________________________
dropout_57 (Dropout)            (None, 30)           0           dense_85[0][0]                   
__________________________________________________________________________________________________
dense_86 (Dense)                (None, 54)           1674        dropout_57[0][0]                 
__________________________________________________________________________________________________
dropout_58 (Dropout)            (None, 54)           0           dense_86[0][0]                   
__________________________________________________________________________________________________
dense_87 (Dense)                (None, 8)            440         dropout_58[0][0]                 
==================================================================================================
Total params: 2,467,556
Trainable params: 2,467,556
Non-trainable params: 0
__________________________________________________________________________________________________
None

__________________________________________________________________________________________________
…
	Dashed keys in vocabulary 1622
	One occurrence keys in vocabulary 1622 / 12159
	Embedding
==================================================================================================
	Initialisation = None
	Concatenation = False
	Lemma : 198
	POS = 138 
Deep model(Non compositional)
__________________________________________________________________________________________________
Layer (type)                    Output Shape         Param #     Connected to                     
==================================================================================================
input_59 (InputLayer)           (None, 4)            0                                            
__________________________________________________________________________________________________
input_60 (InputLayer)           (None, 4)            0                                            
__________________________________________________________________________________________________
embedding_59 (Embedding)        (None, 4, 198)       2407482     input_59[0][0]                   
__________________________________________________________________________________________________
embedding_60 (Embedding)        (None, 4, 138)       20976       input_60[0][0]                   
__________________________________________________________________________________________________
flatten_59 (Flatten)            (None, 792)          0           embedding_59[0][0]               
__________________________________________________________________________________________________
flatten_60 (Flatten)            (None, 552)          0           embedding_60[0][0]               
__________________________________________________________________________________________________
concatenate_30 (Concatenate)    (None, 1344)         0           flatten_59[0][0]                 
                                                                 flatten_60[0][0]                 
__________________________________________________________________________________________________
dense_88 (Dense)                (None, 30)           40350       concatenate_30[0][0]             
__________________________________________________________________________________________________
dropout_59 (Dropout)            (None, 30)           0           dense_88[0][0]                   
__________________________________________________________________________________________________
dense_89 (Dense)                (None, 54)           1674        dropout_59[0][0]                 
__________________________________________________________________________________________________
dropout_60 (Dropout)            (None, 54)           0           dense_89[0][0]                   
__________________________________________________________________________________________________
dense_90 (Dense)                (None, 8)            440         dropout_60[0][0]                 
==================================================================================================
Total params: 2,470,922
Trainable params: 2,470,922
Non-trainable params: 0
__________________________________________________________________________________________________
None

__________________________________________________________________________________________________
…
	One occurrence keys in vocabulary 1660 / 15321
	Attention: important lemmas are not in vocbulary	Embedding
==================================================================================================
	Initialisation = None
	Concatenation = False
	Lemma : 198
	POS = 138 
Deep model(Non compositional)
__________________________________________________________________________________________________
Layer (type)                    Output Shape         Param #     Connected to                     
==================================================================================================
input_61 (InputLayer)           (None, 4)            0                                            
__________________________________________________________________________________________________
input_62 (InputLayer)           (None, 4)            0                                            
__________________________________________________________________________________________________
embedding_61 (Embedding)        (None, 4, 198)       3033558     input_61[0][0]                   
__________________________________________________________________________________________________
embedding_62 (Embedding)        (None, 4, 138)       23322       input_62[0][0]                   
__________________________________________________________________________________________________
flatten_61 (Flatten)            (None, 792)          0           embedding_61[0][0]               
__________________________________________________________________________________________________
flatten_62 (Flatten)            (None, 552)          0           embedding_62[0][0]               
__________________________________________________________________________________________________
concatenate_31 (Concatenate)    (None, 1344)         0           flatten_61[0][0]                 
                                                                 flatten_62[0][0]                 
__________________________________________________________________________________________________
dense_91 (Dense)                (None, 30)           40350       concatenate_31[0][0]             
__________________________________________________________________________________________________
dropout_61 (Dropout)            (None, 30)           0           dense_91[0][0]                   
__________________________________________________________________________________________________
dense_92 (Dense)                (None, 54)           1674        dropout_61[0][0]                 
__________________________________________________________________________________________________
dropout_62 (Dropout)            (None, 54)           0           dense_92[0][0]                   
__________________________________________________________________________________________________
dense_93 (Dense)                (None, 8)            440         dropout_62[0][0]                 
==================================================================================================
Total params: 3,099,344
Trainable params: 3,099,344
Non-trainable params: 0
__________________________________________________________________________________________________
None

__________________________________________________________________________________________________
…
	One occurrence keys in vocabulary 1660 / 15303
	Attention: important lemmas are not in vocbulary	Embedding
==================================================================================================
	Initialisation = None
	Concatenation = False
	Lemma : 198
	POS = 138 
Deep model(Non compositional)
__________________________________________________________________________________________________
Layer (type)                    Output Shape         Param #     Connected to                     
==================================================================================================
input_63 (InputLayer)           (None, 4)            0                                            
__________________________________________________________________________________________________
input_64 (InputLayer)           (None, 4)            0                                            
__________________________________________________________________________________________________
embedding_63 (Embedding)        (None, 4, 198)       3029994     input_63[0][0]                   
__________________________________________________________________________________________________
embedding_64 (Embedding)        (None, 4, 138)       23322       input_64[0][0]                   
__________________________________________________________________________________________________
flatten_63 (Flatten)            (None, 792)          0           embedding_63[0][0]               
__________________________________________________________________________________________________
flatten_64 (Flatten)            (None, 552)          0           embedding_64[0][0]               
__________________________________________________________________________________________________
concatenate_32 (Concatenate)    (None, 1344)         0           flatten_63[0][0]                 
                                                                 flatten_64[0][0]                 
__________________________________________________________________________________________________
dense_94 (Dense)                (None, 30)           40350       concatenate_32[0][0]             
__________________________________________________________________________________________________
dropout_63 (Dropout)            (None, 30)           0           dense_94[0][0]                   
__________________________________________________________________________________________________
dense_95 (Dense)                (None, 54)           1674        dropout_63[0][0]                 
__________________________________________________________________________________________________
dropout_64 (Dropout)            (None, 54)           0           dense_95[0][0]                   
__________________________________________________________________________________________________
dense_96 (Dense)                (None, 8)            440         dropout_64[0][0]                 
==================================================================================================
Total params: 3,095,780
Trainable params: 3,095,780
Non-trainable params: 0
__________________________________________________________________________________________________
None

__________________________________________________________________________________________________
…
	One occurrence keys in vocabulary 1660 / 15244
	Attention: important lemmas are not in vocbulary	Embedding
==================================================================================================
	Initialisation = None
	Concatenation = False
	Lemma : 198
	POS = 138 
Deep model(Non compositional)
__________________________________________________________________________________________________
Layer (type)                    Output Shape         Param #     Connected to                     
==================================================================================================
input_65 (InputLayer)           (None, 4)            0                                            
__________________________________________________________________________________________________
input_66 (InputLayer)           (None, 4)            0                                            
__________________________________________________________________________________________________
embedding_65 (Embedding)        (None, 4, 198)       3018312     input_65[0][0]                   
__________________________________________________________________________________________________
embedding_66 (Embedding)        (None, 4, 138)       23322       input_66[0][0]                   
__________________________________________________________________________________________________
flatten_65 (Flatten)            (None, 792)          0           embedding_65[0][0]               
__________________________________________________________________________________________________
flatten_66 (Flatten)            (None, 552)          0           embedding_66[0][0]               
__________________________________________________________________________________________________
concatenate_33 (Concatenate)    (None, 1344)         0           flatten_65[0][0]                 
                                                                 flatten_66[0][0]                 
__________________________________________________________________________________________________
dense_97 (Dense)                (None, 30)           40350       concatenate_33[0][0]             
__________________________________________________________________________________________________
dropout_65 (Dropout)            (None, 30)           0           dense_97[0][0]                   
__________________________________________________________________________________________________
dense_98 (Dense)                (None, 54)           1674        dropout_65[0][0]                 
__________________________________________________________________________________________________
dropout_66 (Dropout)            (None, 54)           0           dense_98[0][0]                   
__________________________________________________________________________________________________
dense_99 (Dense)                (None, 8)            440         dropout_66[0][0]                 
==================================================================================================
Total params: 3,084,098
Trainable params: 3,084,098
Non-trainable params: 0
__________________________________________________________________________________________________
None

__________________________________________________________________________________________________
…
	Dashed keys in vocabulary 1979
	One occurrence keys in vocabulary 1979 / 12529
	Embedding
==================================================================================================
	Initialisation = None
	Concatenation = False
	Lemma : 198
	POS = 138 
Deep model(Non compositional)
__________________________________________________________________________________________________
Layer (type)                    Output Shape         Param #     Connected to                     
==================================================================================================
input_67 (InputLayer)           (None, 4)            0                                            
__________________________________________________________________________________________________
input_68 (InputLayer)           (None, 4)            0                                            
__________________________________________________________________________________________________
embedding_67 (Embedding)        (None, 4, 198)       2480742     input_67[0][0]                   
__________________________________________________________________________________________________
embedding_68 (Embedding)        (None, 4, 138)       15180       input_68[0][0]                   
__________________________________________________________________________________________________
flatten_67 (Flatten)            (None, 792)          0           embedding_67[0][0]               
__________________________________________________________________________________________________
flatten_68 (Flatten)            (None, 552)          0           embedding_68[0][0]               
__________________________________________________________________________________________________
concatenate_34 (Concatenate)    (None, 1344)         0           flatten_67[0][0]                 
                                                                 flatten_68[0][0]                 
__________________________________________________________________________________________________
dense_100 (Dense)               (None, 30)           40350       concatenate_34[0][0]             
__________________________________________________________________________________________________
dropout_67 (Dropout)            (None, 30)           0           dense_100[0][0]                  
__________________________________________________________________________________________________
dense_101 (Dense)               (None, 54)           1674        dropout_67[0][0]                 
__________________________________________________________________________________________________
dropout_68 (Dropout)            (None, 54)           0           dense_101[0][0]                  
__________________________________________________________________________________________________
dense_102 (Dense)               (None, 8)            440         dropout_68[0][0]                 
==================================================================================================
Total params: 2,538,386
Trainable params: 2,538,386
Non-trainable params: 0
__________________________________________________________________________________________________
None

__________________________________________________________________________________________________
…
	Dashed keys in vocabulary 1979
	One occurrence keys in vocabulary 1979 / 12525
	Embedding
==================================================================================================
	Initialisation = None
	Concatenation = False
	Lemma : 198
	POS = 138 
Deep model(Non compositional)
__________________________________________________________________________________________________
Layer (type)                    Output Shape         Param #     Connected to                     
==================================================================================================
input_69 (InputLayer)           (None, 4)            0                                            
__________________________________________________________________________________________________
input_70 (InputLayer)           (None, 4)            0                                            
__________________________________________________________________________________________________
embedding_69 (Embedding)        (None, 4, 198)       2479950     input_69[0][0]                   
__________________________________________________________________________________________________
embedding_70 (Embedding)        (None, 4, 138)       15180       input_70[0][0]                   
__________________________________________________________________________________________________
flatten_69 (Flatten)            (None, 792)          0           embedding_69[0][0]               
__________________________________________________________________________________________________
flatten_70 (Flatten)            (None, 552)          0           embedding_70[0][0]               
__________________________________________________________________________________________________
concatenate_35 (Concatenate)    (None, 1344)         0           flatten_69[0][0]                 
                                                                 flatten_70[0][0]                 
__________________________________________________________________________________________________
dense_103 (Dense)               (None, 30)           40350       concatenate_35[0][0]             
__________________________________________________________________________________________________
dropout_69 (Dropout)            (None, 30)           0           dense_103[0][0]                  
__________________________________________________________________________________________________
dense_104 (Dense)               (None, 54)           1674        dropout_69[0][0]                 
__________________________________________________________________________________________________
dropout_70 (Dropout)            (None, 54)           0           dense_104[0][0]                  
__________________________________________________________________________________________________
dense_105 (Dense)               (None, 8)            440         dropout_70[0][0]                 
==================================================================================================
Total params: 2,537,594
Trainable params: 2,537,594
Non-trainable params: 0
__________________________________________________________________________________________________
None

__________________________________________________________________________________________________
…
	Dashed keys in vocabulary 1979
	One occurrence keys in vocabulary 1979 / 12587
	Embedding
==================================================================================================
	Initialisation = None
	Concatenation = False
	Lemma : 198
	POS = 138 
Deep model(Non compositional)
__________________________________________________________________________________________________
Layer (type)                    Output Shape         Param #     Connected to                     
==================================================================================================
input_71 (InputLayer)           (None, 4)            0                                            
__________________________________________________________________________________________________
input_72 (InputLayer)           (None, 4)            0                                            
__________________________________________________________________________________________________
embedding_71 (Embedding)        (None, 4, 198)       2492226     input_71[0][0]                   
__________________________________________________________________________________________________
embedding_72 (Embedding)        (None, 4, 138)       15180       input_72[0][0]                   
__________________________________________________________________________________________________
flatten_71 (Flatten)            (None, 792)          0           embedding_71[0][0]               
__________________________________________________________________________________________________
flatten_72 (Flatten)            (None, 552)          0           embedding_72[0][0]               
__________________________________________________________________________________________________
concatenate_36 (Concatenate)    (None, 1344)         0           flatten_71[0][0]                 
                                                                 flatten_72[0][0]                 
__________________________________________________________________________________________________
dense_106 (Dense)               (None, 30)           40350       concatenate_36[0][0]             
__________________________________________________________________________________________________
dropout_71 (Dropout)            (None, 30)           0           dense_106[0][0]                  
__________________________________________________________________________________________________
dense_107 (Dense)               (None, 54)           1674        dropout_71[0][0]                 
__________________________________________________________________________________________________
dropout_72 (Dropout)            (None, 54)           0           dense_107[0][0]                  
__________________________________________________________________________________________________
dense_108 (Dense)               (None, 8)            440         dropout_72[0][0]                 
==================================================================================================
Total params: 2,549,870
Trainable params: 2,549,870
Non-trainable params: 0
__________________________________________________________________________________________________
None

__________________________________________________________________________________________________
…
	Dashed keys in vocabulary 1622
	One occurrence keys in vocabulary 1622 / 12174
	Embedding
==================================================================================================
	Initialisation = None
	Concatenation = False
	Lemma : 105
	POS = 21 
Deep model(Non compositional)
__________________________________________________________________________________________________
Layer (type)                    Output Shape         Param #     Connected to                     
==================================================================================================
input_73 (InputLayer)           (None, 4)            0                                            
__________________________________________________________________________________________________
input_74 (InputLayer)           (None, 4)            0                                            
__________________________________________________________________________________________________
embedding_73 (Embedding)        (None, 4, 105)       1278270     input_73[0][0]                   
__________________________________________________________________________________________________
embedding_74 (Embedding)        (None, 4, 21)        3192        input_74[0][0]                   
__________________________________________________________________________________________________
flatten_73 (Flatten)            (None, 420)          0           embedding_73[0][0]               
__________________________________________________________________________________________________
flatten_74 (Flatten)            (None, 84)           0           embedding_74[0][0]               
__________________________________________________________________________________________________
concatenate_37 (Concatenate)    (None, 504)          0           flatten_73[0][0]                 
                                                                 flatten_74[0][0]                 
__________________________________________________________________________________________________
dense_109 (Dense)               (None, 384)          193920      concatenate_37[0][0]             
__________________________________________________________________________________________________
dropout_73 (Dropout)            (None, 384)          0           dense_109[0][0]                  
__________________________________________________________________________________________________
dense_110 (Dense)               (None, 106)          40810       dropout_73[0][0]                 
__________________________________________________________________________________________________
dropout_74 (Dropout)            (None, 106)          0           dense_110[0][0]                  
__________________________________________________________________________________________________
dense_111 (Dense)               (None, 8)            856         dropout_74[0][0]                 
==================================================================================================
Total params: 1,517,048
Trainable params: 1,517,048
Non-trainable params: 0
__________________________________________________________________________________________________
None

__________________________________________________________________________________________________
…
	Dashed keys in vocabulary 1622
	One occurrence keys in vocabulary 1622 / 12142
	Embedding
==================================================================================================
	Initialisation = None
	Concatenation = False
	Lemma : 105
	POS = 21 
Deep model(Non compositional)
__________________________________________________________________________________________________
Layer (type)                    Output Shape         Param #     Connected to                     
==================================================================================================
input_75 (InputLayer)           (None, 4)            0                                            
__________________________________________________________________________________________________
input_76 (InputLayer)           (None, 4)            0                                            
__________________________________________________________________________________________________
embedding_75 (Embedding)        (None, 4, 105)       1274910     input_75[0][0]                   
__________________________________________________________________________________________________
embedding_76 (Embedding)        (None, 4, 21)        3192        input_76[0][0]                   
__________________________________________________________________________________________________
flatten_75 (Flatten)            (None, 420)          0           embedding_75[0][0]               
__________________________________________________________________________________________________
flatten_76 (Flatten)            (None, 84)           0           embedding_76[0][0]               
__________________________________________________________________________________________________
concatenate_38 (Concatenate)    (None, 504)          0           flatten_75[0][0]                 
                                                                 flatten_76[0][0]                 
__________________________________________________________________________________________________
dense_112 (Dense)               (None, 384)          193920      concatenate_38[0][0]             
__________________________________________________________________________________________________
dropout_75 (Dropout)            (None, 384)          0           dense_112[0][0]                  
__________________________________________________________________________________________________
dense_113 (Dense)               (None, 106)          40810       dropout_75[0][0]                 
__________________________________________________________________________________________________
dropout_76 (Dropout)            (None, 106)          0           dense_113[0][0]                  
__________________________________________________________________________________________________
dense_114 (Dense)               (None, 8)            856         dropout_76[0][0]                 
==================================================================================================
Total params: 1,513,688
Trainable params: 1,513,688
Non-trainable params: 0
__________________________________________________________________________________________________
None

__________________________________________________________________________________________________
…
	Dashed keys in vocabulary 1622
	One occurrence keys in vocabulary 1622 / 12159
	Embedding
==================================================================================================
	Initialisation = None
	Concatenation = False
	Lemma : 105
	POS = 21 
Deep model(Non compositional)
__________________________________________________________________________________________________
Layer (type)                    Output Shape         Param #     Connected to                     
==================================================================================================
input_77 (InputLayer)           (None, 4)            0                                            
__________________________________________________________________________________________________
input_78 (InputLayer)           (None, 4)            0                                            
__________________________________________________________________________________________________
embedding_77 (Embedding)        (None, 4, 105)       1276695     input_77[0][0]                   
__________________________________________________________________________________________________
embedding_78 (Embedding)        (None, 4, 21)        3192        input_78[0][0]                   
__________________________________________________________________________________________________
flatten_77 (Flatten)            (None, 420)          0           embedding_77[0][0]               
__________________________________________________________________________________________________
flatten_78 (Flatten)            (None, 84)           0           embedding_78[0][0]               
__________________________________________________________________________________________________
concatenate_39 (Concatenate)    (None, 504)          0           flatten_77[0][0]                 
                                                                 flatten_78[0][0]                 
__________________________________________________________________________________________________
dense_115 (Dense)               (None, 384)          193920      concatenate_39[0][0]             
__________________________________________________________________________________________________
dropout_77 (Dropout)            (None, 384)          0           dense_115[0][0]                  
__________________________________________________________________________________________________
dense_116 (Dense)               (None, 106)          40810       dropout_77[0][0]                 
__________________________________________________________________________________________________
dropout_78 (Dropout)            (None, 106)          0           dense_116[0][0]                  
__________________________________________________________________________________________________
dense_117 (Dense)               (None, 8)            856         dropout_78[0][0]                 
==================================================================================================
Total params: 1,515,473
Trainable params: 1,515,473
Non-trainable params: 0
__________________________________________________________________________________________________
None

__________________________________________________________________________________________________
…
	One occurrence keys in vocabulary 1660 / 15321
	Attention: important lemmas are not in vocbulary	Embedding
==================================================================================================
	Initialisation = None
	Concatenation = False
	Lemma : 105
	POS = 21 
Deep model(Non compositional)
__________________________________________________________________________________________________
Layer (type)                    Output Shape         Param #     Connected to                     
==================================================================================================
input_79 (InputLayer)           (None, 4)            0                                            
__________________________________________________________________________________________________
input_80 (InputLayer)           (None, 4)            0                                            
__________________________________________________________________________________________________
embedding_79 (Embedding)        (None, 4, 105)       1608705     input_79[0][0]                   
__________________________________________________________________________________________________
embedding_80 (Embedding)        (None, 4, 21)        3549        input_80[0][0]                   
__________________________________________________________________________________________________
flatten_79 (Flatten)            (None, 420)          0           embedding_79[0][0]               
__________________________________________________________________________________________________
flatten_80 (Flatten)            (None, 84)           0           embedding_80[0][0]               
__________________________________________________________________________________________________
concatenate_40 (Concatenate)    (None, 504)          0           flatten_79[0][0]                 
                                                                 flatten_80[0][0]                 
__________________________________________________________________________________________________
dense_118 (Dense)               (None, 384)          193920      concatenate_40[0][0]             
__________________________________________________________________________________________________
dropout_79 (Dropout)            (None, 384)          0           dense_118[0][0]                  
__________________________________________________________________________________________________
dense_119 (Dense)               (None, 106)          40810       dropout_79[0][0]                 
__________________________________________________________________________________________________
dropout_80 (Dropout)            (None, 106)          0           dense_119[0][0]                  
__________________________________________________________________________________________________
dense_120 (Dense)               (None, 8)            856         dropout_80[0][0]                 
==================================================================================================
Total params: 1,847,840
Trainable params: 1,847,840
Non-trainable params: 0
__________________________________________________________________________________________________
None

__________________________________________________________________________________________________
…
	One occurrence keys in vocabulary 1660 / 15303
	Attention: important lemmas are not in vocbulary	Embedding
==================================================================================================
	Initialisation = None
	Concatenation = False
	Lemma : 105
	POS = 21 
Deep model(Non compositional)
__________________________________________________________________________________________________
Layer (type)                    Output Shape         Param #     Connected to                     
==================================================================================================
input_81 (InputLayer)           (None, 4)            0                                            
__________________________________________________________________________________________________
input_82 (InputLayer)           (None, 4)            0                                            
__________________________________________________________________________________________________
embedding_81 (Embedding)        (None, 4, 105)       1606815     input_81[0][0]                   
__________________________________________________________________________________________________
embedding_82 (Embedding)        (None, 4, 21)        3549        input_82[0][0]                   
__________________________________________________________________________________________________
flatten_81 (Flatten)            (None, 420)          0           embedding_81[0][0]               
__________________________________________________________________________________________________
flatten_82 (Flatten)            (None, 84)           0           embedding_82[0][0]               
__________________________________________________________________________________________________
concatenate_41 (Concatenate)    (None, 504)          0           flatten_81[0][0]                 
                                                                 flatten_82[0][0]                 
__________________________________________________________________________________________________
dense_121 (Dense)               (None, 384)          193920      concatenate_41[0][0]             
__________________________________________________________________________________________________
dropout_81 (Dropout)            (None, 384)          0           dense_121[0][0]                  
__________________________________________________________________________________________________
dense_122 (Dense)               (None, 106)          40810       dropout_81[0][0]                 
__________________________________________________________________________________________________
dropout_82 (Dropout)            (None, 106)          0           dense_122[0][0]                  
__________________________________________________________________________________________________
dense_123 (Dense)               (None, 8)            856         dropout_82[0][0]                 
==================================================================================================
Total params: 1,845,950
Trainable params: 1,845,950
Non-trainable params: 0
__________________________________________________________________________________________________
None

__________________________________________________________________________________________________
…
	One occurrence keys in vocabulary 1660 / 15244
	Attention: important lemmas are not in vocbulary	Embedding
==================================================================================================
	Initialisation = None
	Concatenation = False
	Lemma : 105
	POS = 21 
Deep model(Non compositional)
__________________________________________________________________________________________________
Layer (type)                    Output Shape         Param #     Connected to                     
==================================================================================================
input_83 (InputLayer)           (None, 4)            0                                            
__________________________________________________________________________________________________
input_84 (InputLayer)           (None, 4)            0                                            
__________________________________________________________________________________________________
embedding_83 (Embedding)        (None, 4, 105)       1600620     input_83[0][0]                   
__________________________________________________________________________________________________
embedding_84 (Embedding)        (None, 4, 21)        3549        input_84[0][0]                   
__________________________________________________________________________________________________
flatten_83 (Flatten)            (None, 420)          0           embedding_83[0][0]               
__________________________________________________________________________________________________
flatten_84 (Flatten)            (None, 84)           0           embedding_84[0][0]               
__________________________________________________________________________________________________
concatenate_42 (Concatenate)    (None, 504)          0           flatten_83[0][0]                 
                                                                 flatten_84[0][0]                 
__________________________________________________________________________________________________
dense_124 (Dense)               (None, 384)          193920      concatenate_42[0][0]             
__________________________________________________________________________________________________
dropout_83 (Dropout)            (None, 384)          0           dense_124[0][0]                  
__________________________________________________________________________________________________
dense_125 (Dense)               (None, 106)          40810       dropout_83[0][0]                 
__________________________________________________________________________________________________
dropout_84 (Dropout)            (None, 106)          0           dense_125[0][0]                  
__________________________________________________________________________________________________
dense_126 (Dense)               (None, 8)            856         dropout_84[0][0]                 
==================================================================================================
Total params: 1,839,755
Trainable params: 1,839,755
Non-trainable params: 0
__________________________________________________________________________________________________
None

__________________________________________________________________________________________________
…
	Dashed keys in vocabulary 1979
	One occurrence keys in vocabulary 1979 / 12529
	Embedding
==================================================================================================
	Initialisation = None
	Concatenation = False
	Lemma : 105
	POS = 21 
Deep model(Non compositional)
__________________________________________________________________________________________________
Layer (type)                    Output Shape         Param #     Connected to                     
==================================================================================================
input_85 (InputLayer)           (None, 4)            0                                            
__________________________________________________________________________________________________
input_86 (InputLayer)           (None, 4)            0                                            
__________________________________________________________________________________________________
embedding_85 (Embedding)        (None, 4, 105)       1315545     input_85[0][0]                   
__________________________________________________________________________________________________
embedding_86 (Embedding)        (None, 4, 21)        2310        input_86[0][0]                   
__________________________________________________________________________________________________
flatten_85 (Flatten)            (None, 420)          0           embedding_85[0][0]               
__________________________________________________________________________________________________
flatten_86 (Flatten)            (None, 84)           0           embedding_86[0][0]               
__________________________________________________________________________________________________
concatenate_43 (Concatenate)    (None, 504)          0           flatten_85[0][0]                 
                                                                 flatten_86[0][0]                 
__________________________________________________________________________________________________
dense_127 (Dense)               (None, 384)          193920      concatenate_43[0][0]             
__________________________________________________________________________________________________
dropout_85 (Dropout)            (None, 384)          0           dense_127[0][0]                  
__________________________________________________________________________________________________
dense_128 (Dense)               (None, 106)          40810       dropout_85[0][0]                 
__________________________________________________________________________________________________
dropout_86 (Dropout)            (None, 106)          0           dense_128[0][0]                  
__________________________________________________________________________________________________
dense_129 (Dense)               (None, 8)            856         dropout_86[0][0]                 
==================================================================================================
Total params: 1,553,441
Trainable params: 1,553,441
Non-trainable params: 0
__________________________________________________________________________________________________
None

__________________________________________________________________________________________________
…
	Dashed keys in vocabulary 1979
	One occurrence keys in vocabulary 1979 / 12525
	Embedding
==================================================================================================
	Initialisation = None
	Concatenation = False
	Lemma : 105
	POS = 21 
Deep model(Non compositional)
__________________________________________________________________________________________________
Layer (type)                    Output Shape         Param #     Connected to                     
==================================================================================================
input_87 (InputLayer)           (None, 4)            0                                            
__________________________________________________________________________________________________
input_88 (InputLayer)           (None, 4)            0                                            
__________________________________________________________________________________________________
embedding_87 (Embedding)        (None, 4, 105)       1315125     input_87[0][0]                   
__________________________________________________________________________________________________
embedding_88 (Embedding)        (None, 4, 21)        2310        input_88[0][0]                   
__________________________________________________________________________________________________
flatten_87 (Flatten)            (None, 420)          0           embedding_87[0][0]               
__________________________________________________________________________________________________
flatten_88 (Flatten)            (None, 84)           0           embedding_88[0][0]               
__________________________________________________________________________________________________
concatenate_44 (Concatenate)    (None, 504)          0           flatten_87[0][0]                 
                                                                 flatten_88[0][0]                 
__________________________________________________________________________________________________
dense_130 (Dense)               (None, 384)          193920      concatenate_44[0][0]             
__________________________________________________________________________________________________
dropout_87 (Dropout)            (None, 384)          0           dense_130[0][0]                  
__________________________________________________________________________________________________
dense_131 (Dense)               (None, 106)          40810       dropout_87[0][0]                 
__________________________________________________________________________________________________
dropout_88 (Dropout)            (None, 106)          0           dense_131[0][0]                  
__________________________________________________________________________________________________
dense_132 (Dense)               (None, 8)            856         dropout_88[0][0]                 
==================================================================================================
Total params: 1,553,021
Trainable params: 1,553,021
Non-trainable params: 0
__________________________________________________________________________________________________
None

__________________________________________________________________________________________________
…
	Dashed keys in vocabulary 1979
	One occurrence keys in vocabulary 1979 / 12587
	Embedding
==================================================================================================
	Initialisation = None
	Concatenation = False
	Lemma : 105
	POS = 21 
Deep model(Non compositional)
__________________________________________________________________________________________________
Layer (type)                    Output Shape         Param #     Connected to                     
==================================================================================================
input_89 (InputLayer)           (None, 4)            0                                            
__________________________________________________________________________________________________
input_90 (InputLayer)           (None, 4)            0                                            
__________________________________________________________________________________________________
embedding_89 (Embedding)        (None, 4, 105)       1321635     input_89[0][0]                   
__________________________________________________________________________________________________
embedding_90 (Embedding)        (None, 4, 21)        2310        input_90[0][0]                   
__________________________________________________________________________________________________
flatten_89 (Flatten)            (None, 420)          0           embedding_89[0][0]               
__________________________________________________________________________________________________
flatten_90 (Flatten)            (None, 84)           0           embedding_90[0][0]               
__________________________________________________________________________________________________
concatenate_45 (Concatenate)    (None, 504)          0           flatten_89[0][0]                 
                                                                 flatten_90[0][0]                 
__________________________________________________________________________________________________
dense_133 (Dense)               (None, 384)          193920      concatenate_45[0][0]             
__________________________________________________________________________________________________
dropout_89 (Dropout)            (None, 384)          0           dense_133[0][0]                  
__________________________________________________________________________________________________
dense_134 (Dense)               (None, 106)          40810       dropout_89[0][0]                 
…
	Lemma : 103
	POS = 24 
Deep model(Non compositional)
__________________________________________________________________________________________________
Layer (type)                    Output Shape         Param #     Connected to                     
==================================================================================================
input_115 (InputLayer)          (None, 4)            0                                            
__________________________________________________________________________________________________
input_116 (InputLayer)          (None, 4)            0                                            
__________________________________________________________________________________________________
embedding_115 (Embedding)       (None, 4, 103)       1578063     input_115[0][0]                  
__________________________________________________________________________________________________
embedding_116 (Embedding)       (None, 4, 24)        4056        input_116[0][0]                  
__________________________________________________________________________________________________
flatten_115 (Flatten)           (None, 412)          0           embedding_115[0][0]              
__________________________________________________________________________________________________
flatten_116 (Flatten)           (None, 96)           0           embedding_116[0][0]              
__________________________________________________________________________________________________
concatenate_58 (Concatenate)    (None, 508)          0           flatten_115[0][0]                
                                                                 flatten_116[0][0]                
__________________________________________________________________________________________________
dense_172 (Dense)               (None, 43)           21887       concatenate_58[0][0]             
__________________________________________________________________________________________________
dropout_115 (Dropout)           (None, 43)           0           dense_172[0][0]                  
__________________________________________________________________________________________________
dense_173 (Dense)               (None, 21)           924         dropout_115[0][0]                
__________________________________________________________________________________________________
dropout_116 (Dropout)           (None, 21)           0           dense_173[0][0]                  
__________________________________________________________________________________________________
dense_174 (Dense)               (None, 8)            176         dropout_116[0][0]                
==================================================================================================
Total params: 1,605,106
Trainable params: 1,605,106
Non-trainable params: 0
__________________________________________________________________________________________________
None

__________________________________________________________________________________________________
…
	One occurrence keys in vocabulary 1660 / 15303
	Attention: important lemmas are not in vocbulary	Embedding
==================================================================================================
	Initialisation = None
	Concatenation = False
	Lemma : 103
	POS = 24 
Deep model(Non compositional)
__________________________________________________________________________________________________
Layer (type)                    Output Shape         Param #     Connected to                     
==================================================================================================
input_117 (InputLayer)          (None, 4)            0                                            
__________________________________________________________________________________________________
input_118 (InputLayer)          (None, 4)            0                                            
__________________________________________________________________________________________________
embedding_117 (Embedding)       (None, 4, 103)       1576209     input_117[0][0]                  
__________________________________________________________________________________________________
embedding_118 (Embedding)       (None, 4, 24)        4056        input_118[0][0]                  
__________________________________________________________________________________________________
flatten_117 (Flatten)           (None, 412)          0           embedding_117[0][0]              
__________________________________________________________________________________________________
flatten_118 (Flatten)           (None, 96)           0           embedding_118[0][0]              
__________________________________________________________________________________________________
concatenate_59 (Concatenate)    (None, 508)          0           flatten_117[0][0]                
                                                                 flatten_118[0][0]                
__________________________________________________________________________________________________
dense_175 (Dense)               (None, 43)           21887       concatenate_59[0][0]             
__________________________________________________________________________________________________
dropout_117 (Dropout)           (None, 43)           0           dense_175[0][0]                  
__________________________________________________________________________________________________
dense_176 (Dense)               (None, 21)           924         dropout_117[0][0]                
__________________________________________________________________________________________________
dropout_118 (Dropout)           (None, 21)           0           dense_176[0][0]                  
__________________________________________________________________________________________________
dense_177 (Dense)               (None, 8)            176         dropout_118[0][0]                
==================================================================================================
Total params: 1,603,252
Trainable params: 1,603,252
Non-trainable params: 0
__________________________________________________________________________________________________
None

__________________________________________________________________________________________________
…
	One occurrence keys in vocabulary 1660 / 15244
	Attention: important lemmas are not in vocbulary	Embedding
==================================================================================================
	Initialisation = None
	Concatenation = False
	Lemma : 103
	POS = 24 
Deep model(Non compositional)
__________________________________________________________________________________________________
Layer (type)                    Output Shape         Param #     Connected to                     
==================================================================================================
input_119 (InputLayer)          (None, 4)            0                                            
__________________________________________________________________________________________________
input_120 (InputLayer)          (None, 4)            0                                            
__________________________________________________________________________________________________
embedding_119 (Embedding)       (None, 4, 103)       1570132     input_119[0][0]                  
__________________________________________________________________________________________________
embedding_120 (Embedding)       (None, 4, 24)        4056        input_120[0][0]                  
__________________________________________________________________________________________________
flatten_119 (Flatten)           (None, 412)          0           embedding_119[0][0]              
__________________________________________________________________________________________________
flatten_120 (Flatten)           (None, 96)           0           embedding_120[0][0]              
__________________________________________________________________________________________________
concatenate_60 (Concatenate)    (None, 508)          0           flatten_119[0][0]                
                                                                 flatten_120[0][0]                
__________________________________________________________________________________________________
dense_178 (Dense)               (None, 43)           21887       concatenate_60[0][0]             
__________________________________________________________________________________________________
dropout_119 (Dropout)           (None, 43)           0           dense_178[0][0]                  
__________________________________________________________________________________________________
dense_179 (Dense)               (None, 21)           924         dropout_119[0][0]                
__________________________________________________________________________________________________
dropout_120 (Dropout)           (None, 21)           0           dense_179[0][0]                  
__________________________________________________________________________________________________
dense_180 (Dense)               (None, 8)            176         dropout_120[0][0]                
==================================================================================================
Total params: 1,597,175
Trainable params: 1,597,175
Non-trainable params: 0
__________________________________________________________________________________________________
None

__________________________________________________________________________________________________
…
	Dashed keys in vocabulary 1979
	One occurrence keys in vocabulary 1979 / 12529
	Embedding
==================================================================================================
	Initialisation = None
	Concatenation = False
	Lemma : 103
	POS = 24 
Deep model(Non compositional)
__________________________________________________________________________________________________
Layer (type)                    Output Shape         Param #     Connected to                     
==================================================================================================
input_121 (InputLayer)          (None, 4)            0                                            
__________________________________________________________________________________________________
input_122 (InputLayer)          (None, 4)            0                                            
__________________________________________________________________________________________________
embedding_121 (Embedding)       (None, 4, 103)       1290487     input_121[0][0]                  
__________________________________________________________________________________________________
embedding_122 (Embedding)       (None, 4, 24)        2640        input_122[0][0]                  
__________________________________________________________________________________________________
flatten_121 (Flatten)           (None, 412)          0           embedding_121[0][0]              
__________________________________________________________________________________________________
flatten_122 (Flatten)           (None, 96)           0           embedding_122[0][0]              
__________________________________________________________________________________________________
concatenate_61 (Concatenate)    (None, 508)          0           flatten_121[0][0]                
                                                                 flatten_122[0][0]                
__________________________________________________________________________________________________
dense_181 (Dense)               (None, 43)           21887       concatenate_61[0][0]             
__________________________________________________________________________________________________
dropout_121 (Dropout)           (None, 43)           0           dense_181[0][0]                  
__________________________________________________________________________________________________
dense_182 (Dense)               (None, 21)           924         dropout_121[0][0]                
__________________________________________________________________________________________________
dropout_122 (Dropout)           (None, 21)           0           dense_182[0][0]                  
__________________________________________________________________________________________________
dense_183 (Dense)               (None, 8)            176         dropout_122[0][0]                
==================================================================================================
Total params: 1,316,114
Trainable params: 1,316,114
Non-trainable params: 0
__________________________________________________________________________________________________
None

__________________________________________________________________________________________________
…
	Dashed keys in vocabulary 1979
	One occurrence keys in vocabulary 1979 / 12525
	Embedding
==================================================================================================
	Initialisation = None
	Concatenation = False
	Lemma : 103
	POS = 24 
Deep model(Non compositional)
__________________________________________________________________________________________________
Layer (type)                    Output Shape         Param #     Connected to                     
==================================================================================================
input_123 (InputLayer)          (None, 4)            0                                            
__________________________________________________________________________________________________
input_124 (InputLayer)          (None, 4)            0                                            
__________________________________________________________________________________________________
embedding_123 (Embedding)       (None, 4, 103)       1290075     input_123[0][0]                  
__________________________________________________________________________________________________
embedding_124 (Embedding)       (None, 4, 24)        2640        input_124[0][0]                  
__________________________________________________________________________________________________
flatten_123 (Flatten)           (None, 412)          0           embedding_123[0][0]              
__________________________________________________________________________________________________
flatten_124 (Flatten)           (None, 96)           0           embedding_124[0][0]              
__________________________________________________________________________________________________
concatenate_62 (Concatenate)    (None, 508)          0           flatten_123[0][0]                
                                                                 flatten_124[0][0]                
__________________________________________________________________________________________________
dense_184 (Dense)               (None, 43)           21887       concatenate_62[0][0]             
__________________________________________________________________________________________________
dropout_123 (Dropout)           (None, 43)           0           dense_184[0][0]                  
__________________________________________________________________________________________________
dense_185 (Dense)               (None, 21)           924         dropout_123[0][0]                
__________________________________________________________________________________________________
dropout_124 (Dropout)           (None, 21)           0           dense_185[0][0]                  
__________________________________________________________________________________________________
dense_186 (Dense)               (None, 8)            176         dropout_124[0][0]                
==================================================================================================
Total params: 1,315,702
Trainable params: 1,315,702
Non-trainable params: 0
__________________________________________________________________________________________________
None

__________________________________________________________________________________________________
…
	Dashed keys in vocabulary 1979
	One occurrence keys in vocabulary 1979 / 12587
	Embedding
==================================================================================================
	Initialisation = None
	Concatenation = False
	Lemma : 103
	POS = 24 
Deep model(Non compositional)
__________________________________________________________________________________________________
Layer (type)                    Output Shape         Param #     Connected to                     
==================================================================================================
input_125 (InputLayer)          (None, 4)            0                                            
__________________________________________________________________________________________________
input_126 (InputLayer)          (None, 4)            0                                            
__________________________________________________________________________________________________
embedding_125 (Embedding)       (None, 4, 103)       1296461     input_125[0][0]                  
__________________________________________________________________________________________________
embedding_126 (Embedding)       (None, 4, 24)        2640        input_126[0][0]                  
__________________________________________________________________________________________________
flatten_125 (Flatten)           (None, 412)          0           embedding_125[0][0]              
__________________________________________________________________________________________________
flatten_126 (Flatten)           (None, 96)           0           embedding_126[0][0]              
__________________________________________________________________________________________________
concatenate_63 (Concatenate)    (None, 508)          0           flatten_125[0][0]                
                                                                 flatten_126[0][0]                
__________________________________________________________________________________________________
dense_187 (Dense)               (None, 43)           21887       concatenate_63[0][0]             
__________________________________________________________________________________________________
dropout_125 (Dropout)           (None, 43)           0           dense_187[0][0]                  
__________________________________________________________________________________________________
dense_188 (Dense)               (None, 21)           924         dropout_125[0][0]                
__________________________________________________________________________________________________
dropout_126 (Dropout)           (None, 21)           0           dense_188[0][0]                  
__________________________________________________________________________________________________
dense_189 (Dense)               (None, 8)            176         dropout_126[0][0]                
==================================================================================================
Total params: 1,322,088
Trainable params: 1,322,088
Non-trainable params: 0
__________________________________________________________________________________________________
None

__________________________________________________________________________________________________
…
	Dashed keys in vocabulary 1622
	One occurrence keys in vocabulary 1622 / 12174
	Embedding
==================================================================================================
	Initialisation = None
	Concatenation = False
	Lemma : 183
	POS = 35 
Deep model(Non compositional)
__________________________________________________________________________________________________
Layer (type)                    Output Shape         Param #     Connected to                     
==================================================================================================
input_127 (InputLayer)          (None, 4)            0                                            
__________________________________________________________________________________________________
input_128 (InputLayer)          (None, 4)            0                                            
__________________________________________________________________________________________________
embedding_127 (Embedding)       (None, 4, 183)       2227842     input_127[0][0]                  
__________________________________________________________________________________________________
embedding_128 (Embedding)       (None, 4, 35)        5320        input_128[0][0]                  
__________________________________________________________________________________________________
flatten_127 (Flatten)           (None, 732)          0           embedding_127[0][0]              
__________________________________________________________________________________________________
flatten_128 (Flatten)           (None, 140)          0           embedding_128[0][0]              
__________________________________________________________________________________________________
concatenate_64 (Concatenate)    (None, 872)          0           flatten_127[0][0]                
                                                                 flatten_128[0][0]                
__________________________________________________________________________________________________
dense_190 (Dense)               (None, 41)           35793       concatenate_64[0][0]             
__________________________________________________________________________________________________
dropout_127 (Dropout)           (None, 41)           0           dense_190[0][0]                  
__________________________________________________________________________________________________
dense_191 (Dense)               (None, 99)           4158        dropout_127[0][0]                
__________________________________________________________________________________________________
dropout_128 (Dropout)           (None, 99)           0           dense_191[0][0]                  
__________________________________________________________________________________________________
dense_192 (Dense)               (None, 8)            800         dropout_128[0][0]                
==================================================================================================
Total params: 2,273,913
Trainable params: 2,273,913
Non-trainable params: 0
__________________________________________________________________________________________________
None

__________________________________________________________________________________________________
…
	Dashed keys in vocabulary 1622
	One occurrence keys in vocabulary 1622 / 12142
	Embedding
==================================================================================================
	Initialisation = None
	Concatenation = False
	Lemma : 183
	POS = 35 
Deep model(Non compositional)
__________________________________________________________________________________________________
Layer (type)                    Output Shape         Param #     Connected to                     
==================================================================================================
input_129 (InputLayer)          (None, 4)            0                                            
__________________________________________________________________________________________________
input_130 (InputLayer)          (None, 4)            0                                            
__________________________________________________________________________________________________
embedding_129 (Embedding)       (None, 4, 183)       2221986     input_129[0][0]                  
__________________________________________________________________________________________________
embedding_130 (Embedding)       (None, 4, 35)        5320        input_130[0][0]                  
__________________________________________________________________________________________________
flatten_129 (Flatten)           (None, 732)          0           embedding_129[0][0]              
__________________________________________________________________________________________________
flatten_130 (Flatten)           (None, 140)          0           embedding_130[0][0]              
__________________________________________________________________________________________________
concatenate_65 (Concatenate)    (None, 872)          0           flatten_129[0][0]                
                                                                 flatten_130[0][0]                
__________________________________________________________________________________________________
dense_193 (Dense)               (None, 41)           35793       concatenate_65[0][0]             
__________________________________________________________________________________________________
dropout_129 (Dropout)           (None, 41)           0           dense_193[0][0]                  
__________________________________________________________________________________________________
dense_194 (Dense)               (None, 99)           4158        dropout_129[0][0]                
__________________________________________________________________________________________________
dropout_130 (Dropout)           (None, 99)           0           dense_194[0][0]                  
__________________________________________________________________________________________________
dense_195 (Dense)               (None, 8)            800         dropout_130[0][0]                
==================================================================================================
Total params: 2,268,057
Trainable params: 2,268,057
Non-trainable params: 0
__________________________________________________________________________________________________
None

__________________________________________________________________________________________________
…
	Dashed keys in vocabulary 1622
	One occurrence keys in vocabulary 1622 / 12159
	Embedding
==================================================================================================
	Initialisation = None
	Concatenation = False
	Lemma : 183
	POS = 35 
Deep model(Non compositional)
__________________________________________________________________________________________________
Layer (type)                    Output Shape         Param #     Connected to                     
==================================================================================================
input_131 (InputLayer)          (None, 4)            0                                            
__________________________________________________________________________________________________
input_132 (InputLayer)          (None, 4)            0                                            
__________________________________________________________________________________________________
embedding_131 (Embedding)       (None, 4, 183)       2225097     input_131[0][0]                  
__________________________________________________________________________________________________
embedding_132 (Embedding)       (None, 4, 35)        5320        input_132[0][0]                  
__________________________________________________________________________________________________
flatten_131 (Flatten)           (None, 732)          0           embedding_131[0][0]              
__________________________________________________________________________________________________
flatten_132 (Flatten)           (None, 140)          0           embedding_132[0][0]              
__________________________________________________________________________________________________
concatenate_66 (Concatenate)    (None, 872)          0           flatten_131[0][0]                
                                                                 flatten_132[0][0]                
__________________________________________________________________________________________________
dense_196 (Dense)               (None, 41)           35793       concatenate_66[0][0]             
__________________________________________________________________________________________________
dropout_131 (Dropout)           (None, 41)           0           dense_196[0][0]                  
__________________________________________________________________________________________________
dense_197 (Dense)               (None, 99)           4158        dropout_131[0][0]                
__________________________________________________________________________________________________
dropout_132 (Dropout)           (None, 99)           0           dense_197[0][0]                  
__________________________________________________________________________________________________
dense_198 (Dense)               (None, 8)            800         dropout_132[0][0]                
==================================================================================================
Total params: 2,271,168
Trainable params: 2,271,168
Non-trainable params: 0
__________________________________________________________________________________________________
None

__________________________________________________________________________________________________
…
	One occurrence keys in vocabulary 1660 / 15321
	Attention: important lemmas are not in vocbulary	Embedding
==================================================================================================
	Initialisation = None
	Concatenation = False
	Lemma : 183
	POS = 35 
Deep model(Non compositional)
__________________________________________________________________________________________________
Layer (type)                    Output Shape         Param #     Connected to                     
==================================================================================================
input_133 (InputLayer)          (None, 4)            0                                            
__________________________________________________________________________________________________
input_134 (InputLayer)          (None, 4)            0                                            
__________________________________________________________________________________________________
embedding_133 (Embedding)       (None, 4, 183)       2803743     input_133[0][0]                  
__________________________________________________________________________________________________
embedding_134 (Embedding)       (None, 4, 35)        5915        input_134[0][0]                  
__________________________________________________________________________________________________
flatten_133 (Flatten)           (None, 732)          0           embedding_133[0][0]              
__________________________________________________________________________________________________
flatten_134 (Flatten)           (None, 140)          0           embedding_134[0][0]              
__________________________________________________________________________________________________
concatenate_67 (Concatenate)    (None, 872)          0           flatten_133[0][0]                
                                                                 flatten_134[0][0]                
__________________________________________________________________________________________________
dense_199 (Dense)               (None, 41)           35793       concatenate_67[0][0]             
__________________________________________________________________________________________________
dropout_133 (Dropout)           (None, 41)           0           dense_199[0][0]                  
__________________________________________________________________________________________________
dense_200 (Dense)               (None, 99)           4158        dropout_133[0][0]                
__________________________________________________________________________________________________
dropout_134 (Dropout)           (None, 99)           0           dense_200[0][0]                  
__________________________________________________________________________________________________
dense_201 (Dense)               (None, 8)            800         dropout_134[0][0]                
==================================================================================================
Total params: 2,850,409
Trainable params: 2,850,409
Non-trainable params: 0
__________________________________________________________________________________________________
None

__________________________________________________________________________________________________
…
	One occurrence keys in vocabulary 1660 / 15303
	Attention: important lemmas are not in vocbulary	Embedding
==================================================================================================
	Initialisation = None
	Concatenation = False
	Lemma : 183
	POS = 35 
Deep model(Non compositional)
__________________________________________________________________________________________________
Layer (type)                    Output Shape         Param #     Connected to                     
==================================================================================================
input_135 (InputLayer)          (None, 4)            0                                            
__________________________________________________________________________________________________
input_136 (InputLayer)          (None, 4)            0                                            
__________________________________________________________________________________________________
embedding_135 (Embedding)       (None, 4, 183)       2800449     input_135[0][0]                  
__________________________________________________________________________________________________
embedding_136 (Embedding)       (None, 4, 35)        5915        input_136[0][0]                  
__________________________________________________________________________________________________
flatten_135 (Flatten)           (None, 732)          0           embedding_135[0][0]              
__________________________________________________________________________________________________
flatten_136 (Flatten)           (None, 140)          0           embedding_136[0][0]              
__________________________________________________________________________________________________
concatenate_68 (Concatenate)    (None, 872)          0           flatten_135[0][0]                
                                                                 flatten_136[0][0]                
__________________________________________________________________________________________________
dense_202 (Dense)               (None, 41)           35793       concatenate_68[0][0]             
__________________________________________________________________________________________________
dropout_135 (Dropout)           (None, 41)           0           dense_202[0][0]                  
__________________________________________________________________________________________________
dense_203 (Dense)               (None, 99)           4158        dropout_135[0][0]                
__________________________________________________________________________________________________
dropout_136 (Dropout)           (None, 99)           0           dense_203[0][0]                  
__________________________________________________________________________________________________
dense_204 (Dense)               (None, 8)            800         dropout_136[0][0]                
==================================================================================================
Total params: 2,847,115
Trainable params: 2,847,115
Non-trainable params: 0
__________________________________________________________________________________________________
None

__________________________________________________________________________________________________
…
	One occurrence keys in vocabulary 1660 / 15244
	Attention: important lemmas are not in vocbulary	Embedding
==================================================================================================
	Initialisation = None
	Concatenation = False
	Lemma : 183
	POS = 35 
Deep model(Non compositional)
__________________________________________________________________________________________________
Layer (type)                    Output Shape         Param #     Connected to                     
==================================================================================================
input_137 (InputLayer)          (None, 4)            0                                            
__________________________________________________________________________________________________
input_138 (InputLayer)          (None, 4)            0                                            
__________________________________________________________________________________________________
embedding_137 (Embedding)       (None, 4, 183)       2789652     input_137[0][0]                  
__________________________________________________________________________________________________
embedding_138 (Embedding)       (None, 4, 35)        5915        input_138[0][0]                  
__________________________________________________________________________________________________
flatten_137 (Flatten)           (None, 732)          0           embedding_137[0][0]              
__________________________________________________________________________________________________
flatten_138 (Flatten)           (None, 140)          0           embedding_138[0][0]              
__________________________________________________________________________________________________
concatenate_69 (Concatenate)    (None, 872)          0           flatten_137[0][0]                
                                                                 flatten_138[0][0]                
__________________________________________________________________________________________________
dense_205 (Dense)               (None, 41)           35793       concatenate_69[0][0]             
__________________________________________________________________________________________________
dropout_137 (Dropout)           (None, 41)           0           dense_205[0][0]                  
__________________________________________________________________________________________________
dense_206 (Dense)               (None, 99)           4158        dropout_137[0][0]                
__________________________________________________________________________________________________
dropout_138 (Dropout)           (None, 99)           0           dense_206[0][0]                  
__________________________________________________________________________________________________
dense_207 (Dense)               (None, 8)            800         dropout_138[0][0]                
==================================================================================================
Total params: 2,836,318
Trainable params: 2,836,318
Non-trainable params: 0
__________________________________________________________________________________________________
None

__________________________________________________________________________________________________
…
	Dashed keys in vocabulary 1979
	One occurrence keys in vocabulary 1979 / 12529
	Embedding
==================================================================================================
	Initialisation = None
	Concatenation = False
	Lemma : 183
	POS = 35 
Deep model(Non compositional)
__________________________________________________________________________________________________
Layer (type)                    Output Shape         Param #     Connected to                     
==================================================================================================
input_139 (InputLayer)          (None, 4)            0                                            
__________________________________________________________________________________________________
input_140 (InputLayer)          (None, 4)            0                                            
__________________________________________________________________________________________________
embedding_139 (Embedding)       (None, 4, 183)       2292807     input_139[0][0]                  
__________________________________________________________________________________________________
embedding_140 (Embedding)       (None, 4, 35)        3850        input_140[0][0]                  
__________________________________________________________________________________________________
flatten_139 (Flatten)           (None, 732)          0           embedding_139[0][0]              
__________________________________________________________________________________________________
flatten_140 (Flatten)           (None, 140)          0           embedding_140[0][0]              
__________________________________________________________________________________________________
concatenate_70 (Concatenate)    (None, 872)          0           flatten_139[0][0]                
                                                                 flatten_140[0][0]                
__________________________________________________________________________________________________
dense_208 (Dense)               (None, 41)           35793       concatenate_70[0][0]             
__________________________________________________________________________________________________
dropout_139 (Dropout)           (None, 41)           0           dense_208[0][0]                  
__________________________________________________________________________________________________
dense_209 (Dense)               (None, 99)           4158        dropout_139[0][0]                
__________________________________________________________________________________________________
dropout_140 (Dropout)           (None, 99)           0           dense_209[0][0]                  
__________________________________________________________________________________________________
dense_210 (Dense)               (None, 8)            800         dropout_140[0][0]                
==================================================================================================
Total params: 2,337,408
Trainable params: 2,337,408
Non-trainable params: 0
__________________________________________________________________________________________________
None

__________________________________________________________________________________________________
…
	Dashed keys in vocabulary 1979
	One occurrence keys in vocabulary 1979 / 12525
	Embedding
==================================================================================================
	Initialisation = None
	Concatenation = False
	Lemma : 183
	POS = 35 
Deep model(Non compositional)
__________________________________________________________________________________________________
Layer (type)                    Output Shape         Param #     Connected to                     
==================================================================================================
input_141 (InputLayer)          (None, 4)            0                                            
__________________________________________________________________________________________________
input_142 (InputLayer)          (None, 4)            0                                            
__________________________________________________________________________________________________
embedding_141 (Embedding)       (None, 4, 183)       2292075     input_141[0][0]                  
__________________________________________________________________________________________________
embedding_142 (Embedding)       (None, 4, 35)        3850        input_142[0][0]                  
__________________________________________________________________________________________________
flatten_141 (Flatten)           (None, 732)          0           embedding_141[0][0]              
__________________________________________________________________________________________________
flatten_142 (Flatten)           (None, 140)          0           embedding_142[0][0]              
__________________________________________________________________________________________________
concatenate_71 (Concatenate)    (None, 872)          0           flatten_141[0][0]                
                                                                 flatten_142[0][0]                
__________________________________________________________________________________________________
dense_211 (Dense)               (None, 41)           35793       concatenate_71[0][0]             
__________________________________________________________________________________________________
dropout_141 (Dropout)           (None, 41)           0           dense_211[0][0]                  
__________________________________________________________________________________________________
dense_212 (Dense)               (None, 99)           4158        dropout_141[0][0]                
__________________________________________________________________________________________________
dropout_142 (Dropout)           (None, 99)           0           dense_212[0][0]                  
__________________________________________________________________________________________________
dense_213 (Dense)               (None, 8)            800         dropout_142[0][0]                
==================================================================================================
Total params: 2,336,676
Trainable params: 2,336,676
Non-trainable params: 0
__________________________________________________________________________________________________
None

__________________________________________________________________________________________________
…
	Dashed keys in vocabulary 1979
	One occurrence keys in vocabulary 1979 / 12587
	Embedding
==================================================================================================
	Initialisation = None
	Concatenation = False
	Lemma : 183
	POS = 35 
Deep model(Non compositional)
__________________________________________________________________________________________________
Layer (type)                    Output Shape         Param #     Connected to                     
==================================================================================================
input_143 (InputLayer)          (None, 4)            0                                            
__________________________________________________________________________________________________
input_144 (InputLayer)          (None, 4)            0                                            
__________________________________________________________________________________________________
embedding_143 (Embedding)       (None, 4, 183)       2303421     input_143[0][0]                  
__________________________________________________________________________________________________
embedding_144 (Embedding)       (None, 4, 35)        3850        input_144[0][0]                  
__________________________________________________________________________________________________
flatten_143 (Flatten)           (None, 732)          0           embedding_143[0][0]              
__________________________________________________________________________________________________
flatten_144 (Flatten)           (None, 140)          0           embedding_144[0][0]              
__________________________________________________________________________________________________
concatenate_72 (Concatenate)    (None, 872)          0           flatten_143[0][0]                
                                                                 flatten_144[0][0]                
__________________________________________________________________________________________________
dense_214 (Dense)               (None, 41)           35793       concatenate_72[0][0]             
__________________________________________________________________________________________________
dropout_143 (Dropout)           (None, 41)           0           dense_214[0][0]                  
__________________________________________________________________________________________________
dense_215 (Dense)               (None, 99)           4158        dropout_143[0][0]                
__________________________________________________________________________________________________
dropout_144 (Dropout)           (None, 99)           0           dense_215[0][0]                  
__________________________________________________________________________________________________
dense_216 (Dense)               (None, 8)            800         dropout_144[0][0]                
==================================================================================================
Total params: 2,348,022
Trainable params: 2,348,022
Non-trainable params: 0
__________________________________________________________________________________________________
None

__________________________________________________________________________________________________
…
