…
	Dashed keys in vocabulary 1622
	One occurrence keys in vocabulary 1622 / 12174
	Embedding
==================================================================================================
	Initialisation = None
	Concatenation = False
	Lemma : 75
	POS = 40 
Deep model(Non compositional)
__________________________________________________________________________________________________
Layer (type)                    Output Shape         Param #     Connected to                     
==================================================================================================
input_1 (InputLayer)            (None, 4)            0                                            
__________________________________________________________________________________________________
input_2 (InputLayer)            (None, 4)            0                                            
__________________________________________________________________________________________________
embedding_1 (Embedding)         (None, 4, 75)        913050      input_1[0][0]                    
__________________________________________________________________________________________________
embedding_2 (Embedding)         (None, 4, 40)        6080        input_2[0][0]                    
__________________________________________________________________________________________________
flatten_1 (Flatten)             (None, 300)          0           embedding_1[0][0]                
__________________________________________________________________________________________________
flatten_2 (Flatten)             (None, 160)          0           embedding_2[0][0]                
__________________________________________________________________________________________________
concatenate_1 (Concatenate)     (None, 460)          0           flatten_1[0][0]                  
                                                                 flatten_2[0][0]                  
__________________________________________________________________________________________________
dense_1 (Dense)                 (None, 85)           39185       concatenate_1[0][0]              
__________________________________________________________________________________________________
dropout_1 (Dropout)             (None, 85)           0           dense_1[0][0]                    
__________________________________________________________________________________________________
dense_2 (Dense)                 (None, 54)           4644        dropout_1[0][0]                  
__________________________________________________________________________________________________
dropout_2 (Dropout)             (None, 54)           0           dense_2[0][0]                    
__________________________________________________________________________________________________
dense_3 (Dense)                 (None, 8)            440         dropout_2[0][0]                  
==================================================================================================
Total params: 963,399
Trainable params: 963,399
Non-trainable params: 0
__________________________________________________________________________________________________
None

__________________________________________________________________________________________________
…
	Dashed keys in vocabulary 1622
	One occurrence keys in vocabulary 1622 / 12142
	Embedding
==================================================================================================
	Initialisation = None
	Concatenation = False
	Lemma : 75
	POS = 40 
Deep model(Non compositional)
__________________________________________________________________________________________________
Layer (type)                    Output Shape         Param #     Connected to                     
==================================================================================================
input_3 (InputLayer)            (None, 4)            0                                            
__________________________________________________________________________________________________
input_4 (InputLayer)            (None, 4)            0                                            
__________________________________________________________________________________________________
embedding_3 (Embedding)         (None, 4, 75)        910650      input_3[0][0]                    
__________________________________________________________________________________________________
embedding_4 (Embedding)         (None, 4, 40)        6080        input_4[0][0]                    
__________________________________________________________________________________________________
flatten_3 (Flatten)             (None, 300)          0           embedding_3[0][0]                
__________________________________________________________________________________________________
flatten_4 (Flatten)             (None, 160)          0           embedding_4[0][0]                
__________________________________________________________________________________________________
concatenate_2 (Concatenate)     (None, 460)          0           flatten_3[0][0]                  
                                                                 flatten_4[0][0]                  
__________________________________________________________________________________________________
dense_4 (Dense)                 (None, 85)           39185       concatenate_2[0][0]              
__________________________________________________________________________________________________
dropout_3 (Dropout)             (None, 85)           0           dense_4[0][0]                    
__________________________________________________________________________________________________
dense_5 (Dense)                 (None, 54)           4644        dropout_3[0][0]                  
__________________________________________________________________________________________________
dropout_4 (Dropout)             (None, 54)           0           dense_5[0][0]                    
__________________________________________________________________________________________________
dense_6 (Dense)                 (None, 8)            440         dropout_4[0][0]                  
==================================================================================================
Total params: 960,999
Trainable params: 960,999
Non-trainable params: 0
__________________________________________________________________________________________________
None

__________________________________________________________________________________________________
…
	Dashed keys in vocabulary 1622
	One occurrence keys in vocabulary 1622 / 12159
	Embedding
==================================================================================================
	Initialisation = None
	Concatenation = False
	Lemma : 75
	POS = 40 
Deep model(Non compositional)
__________________________________________________________________________________________________
Layer (type)                    Output Shape         Param #     Connected to                     
==================================================================================================
input_5 (InputLayer)            (None, 4)            0                                            
__________________________________________________________________________________________________
input_6 (InputLayer)            (None, 4)            0                                            
__________________________________________________________________________________________________
embedding_5 (Embedding)         (None, 4, 75)        911925      input_5[0][0]                    
__________________________________________________________________________________________________
embedding_6 (Embedding)         (None, 4, 40)        6080        input_6[0][0]                    
__________________________________________________________________________________________________
flatten_5 (Flatten)             (None, 300)          0           embedding_5[0][0]                
__________________________________________________________________________________________________
flatten_6 (Flatten)             (None, 160)          0           embedding_6[0][0]                
__________________________________________________________________________________________________
concatenate_3 (Concatenate)     (None, 460)          0           flatten_5[0][0]                  
                                                                 flatten_6[0][0]                  
__________________________________________________________________________________________________
dense_7 (Dense)                 (None, 85)           39185       concatenate_3[0][0]              
__________________________________________________________________________________________________
dropout_5 (Dropout)             (None, 85)           0           dense_7[0][0]                    
__________________________________________________________________________________________________
dense_8 (Dense)                 (None, 54)           4644        dropout_5[0][0]                  
__________________________________________________________________________________________________
dropout_6 (Dropout)             (None, 54)           0           dense_8[0][0]                    
__________________________________________________________________________________________________
dense_9 (Dense)                 (None, 8)            440         dropout_6[0][0]                  
==================================================================================================
Total params: 962,274
Trainable params: 962,274
Non-trainable params: 0
__________________________________________________________________________________________________
None

__________________________________________________________________________________________________
…
	One occurrence keys in vocabulary 1660 / 15321
	Attention: important lemmas are not in vocbulary	Embedding
==================================================================================================
	Initialisation = None
	Concatenation = False
	Lemma : 75
	POS = 40 
Deep model(Non compositional)
__________________________________________________________________________________________________
Layer (type)                    Output Shape         Param #     Connected to                     
==================================================================================================
input_7 (InputLayer)            (None, 4)            0                                            
__________________________________________________________________________________________________
input_8 (InputLayer)            (None, 4)            0                                            
__________________________________________________________________________________________________
embedding_7 (Embedding)         (None, 4, 75)        1149075     input_7[0][0]                    
__________________________________________________________________________________________________
embedding_8 (Embedding)         (None, 4, 40)        6760        input_8[0][0]                    
__________________________________________________________________________________________________
flatten_7 (Flatten)             (None, 300)          0           embedding_7[0][0]                
__________________________________________________________________________________________________
flatten_8 (Flatten)             (None, 160)          0           embedding_8[0][0]                
__________________________________________________________________________________________________
concatenate_4 (Concatenate)     (None, 460)          0           flatten_7[0][0]                  
                                                                 flatten_8[0][0]                  
__________________________________________________________________________________________________
dense_10 (Dense)                (None, 85)           39185       concatenate_4[0][0]              
__________________________________________________________________________________________________
dropout_7 (Dropout)             (None, 85)           0           dense_10[0][0]                   
__________________________________________________________________________________________________
dense_11 (Dense)                (None, 54)           4644        dropout_7[0][0]                  
__________________________________________________________________________________________________
dropout_8 (Dropout)             (None, 54)           0           dense_11[0][0]                   
__________________________________________________________________________________________________
dense_12 (Dense)                (None, 8)            440         dropout_8[0][0]                  
==================================================================================================
Total params: 1,200,104
Trainable params: 1,200,104
Non-trainable params: 0
__________________________________________________________________________________________________
None

__________________________________________________________________________________________________
…
	One occurrence keys in vocabulary 1660 / 15303
	Attention: important lemmas are not in vocbulary	Embedding
==================================================================================================
	Initialisation = None
	Concatenation = False
	Lemma : 75
	POS = 40 
Deep model(Non compositional)
__________________________________________________________________________________________________
Layer (type)                    Output Shape         Param #     Connected to                     
==================================================================================================
input_9 (InputLayer)            (None, 4)            0                                            
__________________________________________________________________________________________________
input_10 (InputLayer)           (None, 4)            0                                            
__________________________________________________________________________________________________
embedding_9 (Embedding)         (None, 4, 75)        1147725     input_9[0][0]                    
__________________________________________________________________________________________________
embedding_10 (Embedding)        (None, 4, 40)        6760        input_10[0][0]                   
__________________________________________________________________________________________________
flatten_9 (Flatten)             (None, 300)          0           embedding_9[0][0]                
__________________________________________________________________________________________________
flatten_10 (Flatten)            (None, 160)          0           embedding_10[0][0]               
__________________________________________________________________________________________________
concatenate_5 (Concatenate)     (None, 460)          0           flatten_9[0][0]                  
                                                                 flatten_10[0][0]                 
__________________________________________________________________________________________________
dense_13 (Dense)                (None, 85)           39185       concatenate_5[0][0]              
__________________________________________________________________________________________________
dropout_9 (Dropout)             (None, 85)           0           dense_13[0][0]                   
__________________________________________________________________________________________________
dense_14 (Dense)                (None, 54)           4644        dropout_9[0][0]                  
__________________________________________________________________________________________________
dropout_10 (Dropout)            (None, 54)           0           dense_14[0][0]                   
__________________________________________________________________________________________________
dense_15 (Dense)                (None, 8)            440         dropout_10[0][0]                 
==================================================================================================
Total params: 1,198,754
Trainable params: 1,198,754
Non-trainable params: 0
__________________________________________________________________________________________________
None

__________________________________________________________________________________________________
…
	One occurrence keys in vocabulary 1660 / 15244
	Attention: important lemmas are not in vocbulary	Embedding
==================================================================================================
	Initialisation = None
	Concatenation = False
	Lemma : 75
	POS = 40 
Deep model(Non compositional)
__________________________________________________________________________________________________
Layer (type)                    Output Shape         Param #     Connected to                     
==================================================================================================
input_11 (InputLayer)           (None, 4)            0                                            
__________________________________________________________________________________________________
input_12 (InputLayer)           (None, 4)            0                                            
__________________________________________________________________________________________________
embedding_11 (Embedding)        (None, 4, 75)        1143300     input_11[0][0]                   
__________________________________________________________________________________________________
embedding_12 (Embedding)        (None, 4, 40)        6760        input_12[0][0]                   
__________________________________________________________________________________________________
flatten_11 (Flatten)            (None, 300)          0           embedding_11[0][0]               
__________________________________________________________________________________________________
flatten_12 (Flatten)            (None, 160)          0           embedding_12[0][0]               
__________________________________________________________________________________________________
concatenate_6 (Concatenate)     (None, 460)          0           flatten_11[0][0]                 
                                                                 flatten_12[0][0]                 
__________________________________________________________________________________________________
dense_16 (Dense)                (None, 85)           39185       concatenate_6[0][0]              
__________________________________________________________________________________________________
dropout_11 (Dropout)            (None, 85)           0           dense_16[0][0]                   
__________________________________________________________________________________________________
dense_17 (Dense)                (None, 54)           4644        dropout_11[0][0]                 
__________________________________________________________________________________________________
dropout_12 (Dropout)            (None, 54)           0           dense_17[0][0]                   
__________________________________________________________________________________________________
dense_18 (Dense)                (None, 8)            440         dropout_12[0][0]                 
==================================================================================================
Total params: 1,194,329
Trainable params: 1,194,329
Non-trainable params: 0
__________________________________________________________________________________________________
None

__________________________________________________________________________________________________
…
	Dashed keys in vocabulary 1979
	One occurrence keys in vocabulary 1979 / 12529
	Embedding
==================================================================================================
	Initialisation = None
	Concatenation = False
	Lemma : 75
	POS = 40 
Deep model(Non compositional)
__________________________________________________________________________________________________
Layer (type)                    Output Shape         Param #     Connected to                     
==================================================================================================
input_13 (InputLayer)           (None, 4)            0                                            
__________________________________________________________________________________________________
input_14 (InputLayer)           (None, 4)            0                                            
__________________________________________________________________________________________________
embedding_13 (Embedding)        (None, 4, 75)        939675      input_13[0][0]                   
__________________________________________________________________________________________________
embedding_14 (Embedding)        (None, 4, 40)        4400        input_14[0][0]                   
__________________________________________________________________________________________________
flatten_13 (Flatten)            (None, 300)          0           embedding_13[0][0]               
__________________________________________________________________________________________________
flatten_14 (Flatten)            (None, 160)          0           embedding_14[0][0]               
__________________________________________________________________________________________________
concatenate_7 (Concatenate)     (None, 460)          0           flatten_13[0][0]                 
                                                                 flatten_14[0][0]                 
__________________________________________________________________________________________________
dense_19 (Dense)                (None, 85)           39185       concatenate_7[0][0]              
__________________________________________________________________________________________________
dropout_13 (Dropout)            (None, 85)           0           dense_19[0][0]                   
__________________________________________________________________________________________________
dense_20 (Dense)                (None, 54)           4644        dropout_13[0][0]                 
__________________________________________________________________________________________________
dropout_14 (Dropout)            (None, 54)           0           dense_20[0][0]                   
__________________________________________________________________________________________________
dense_21 (Dense)                (None, 8)            440         dropout_14[0][0]                 
==================================================================================================
Total params: 988,344
Trainable params: 988,344
Non-trainable params: 0
__________________________________________________________________________________________________
None

__________________________________________________________________________________________________
…
	Dashed keys in vocabulary 1979
	One occurrence keys in vocabulary 1979 / 12525
	Embedding
==================================================================================================
	Initialisation = None
	Concatenation = False
	Lemma : 75
	POS = 40 
Deep model(Non compositional)
__________________________________________________________________________________________________
Layer (type)                    Output Shape         Param #     Connected to                     
==================================================================================================
input_15 (InputLayer)           (None, 4)            0                                            
__________________________________________________________________________________________________
input_16 (InputLayer)           (None, 4)            0                                            
__________________________________________________________________________________________________
embedding_15 (Embedding)        (None, 4, 75)        939375      input_15[0][0]                   
__________________________________________________________________________________________________
embedding_16 (Embedding)        (None, 4, 40)        4400        input_16[0][0]                   
__________________________________________________________________________________________________
flatten_15 (Flatten)            (None, 300)          0           embedding_15[0][0]               
__________________________________________________________________________________________________
flatten_16 (Flatten)            (None, 160)          0           embedding_16[0][0]               
__________________________________________________________________________________________________
concatenate_8 (Concatenate)     (None, 460)          0           flatten_15[0][0]                 
                                                                 flatten_16[0][0]                 
__________________________________________________________________________________________________
dense_22 (Dense)                (None, 85)           39185       concatenate_8[0][0]              
__________________________________________________________________________________________________
dropout_15 (Dropout)            (None, 85)           0           dense_22[0][0]                   
__________________________________________________________________________________________________
dense_23 (Dense)                (None, 54)           4644        dropout_15[0][0]                 
__________________________________________________________________________________________________
dropout_16 (Dropout)            (None, 54)           0           dense_23[0][0]                   
__________________________________________________________________________________________________
dense_24 (Dense)                (None, 8)            440         dropout_16[0][0]                 
==================================================================================================
Total params: 988,044
Trainable params: 988,044
Non-trainable params: 0
__________________________________________________________________________________________________
None

__________________________________________________________________________________________________
…
	Dashed keys in vocabulary 1979
	One occurrence keys in vocabulary 1979 / 12587
	Embedding
==================================================================================================
	Initialisation = None
	Concatenation = False
	Lemma : 75
	POS = 40 
Deep model(Non compositional)
__________________________________________________________________________________________________
Layer (type)                    Output Shape         Param #     Connected to                     
==================================================================================================
input_17 (InputLayer)           (None, 4)            0                                            
__________________________________________________________________________________________________
input_18 (InputLayer)           (None, 4)            0                                            
__________________________________________________________________________________________________
embedding_17 (Embedding)        (None, 4, 75)        944025      input_17[0][0]                   
__________________________________________________________________________________________________
embedding_18 (Embedding)        (None, 4, 40)        4400        input_18[0][0]                   
__________________________________________________________________________________________________
flatten_17 (Flatten)            (None, 300)          0           embedding_17[0][0]               
__________________________________________________________________________________________________
flatten_18 (Flatten)            (None, 160)          0           embedding_18[0][0]               
__________________________________________________________________________________________________
concatenate_9 (Concatenate)     (None, 460)          0           flatten_17[0][0]                 
                                                                 flatten_18[0][0]                 
__________________________________________________________________________________________________
dense_25 (Dense)                (None, 85)           39185       concatenate_9[0][0]              
__________________________________________________________________________________________________
dropout_17 (Dropout)            (None, 85)           0           dense_25[0][0]                   
__________________________________________________________________________________________________
dense_26 (Dense)                (None, 54)           4644        dropout_17[0][0]                 
__________________________________________________________________________________________________
dropout_18 (Dropout)            (None, 54)           0           dense_26[0][0]                   
__________________________________________________________________________________________________
dense_27 (Dense)                (None, 8)            440         dropout_18[0][0]                 
==================================================================================================
Total params: 992,694
Trainable params: 992,694
Non-trainable params: 0
__________________________________________________________________________________________________
None

__________________________________________________________________________________________________
…
	Dashed keys in vocabulary 1622
	One occurrence keys in vocabulary 1622 / 2800
	Embedding
==================================================================================================
	Initialisation = None
	Concatenation = False
	Lemma : 391
	POS = 106 
Deep model(Non compositional)
__________________________________________________________________________________________________
Layer (type)                    Output Shape         Param #     Connected to                     
==================================================================================================
input_19 (InputLayer)           (None, 4)            0                                            
__________________________________________________________________________________________________
input_20 (InputLayer)           (None, 4)            0                                            
__________________________________________________________________________________________________
embedding_19 (Embedding)        (None, 4, 391)       1094800     input_19[0][0]                   
__________________________________________________________________________________________________
embedding_20 (Embedding)        (None, 4, 106)       16112       input_20[0][0]                   
__________________________________________________________________________________________________
flatten_19 (Flatten)            (None, 1564)         0           embedding_19[0][0]               
__________________________________________________________________________________________________
flatten_20 (Flatten)            (None, 424)          0           embedding_20[0][0]               
__________________________________________________________________________________________________
concatenate_10 (Concatenate)    (None, 1988)         0           flatten_19[0][0]                 
                                                                 flatten_20[0][0]                 
__________________________________________________________________________________________________
dense_28 (Dense)                (None, 294)          584766      concatenate_10[0][0]             
__________________________________________________________________________________________________
dropout_19 (Dropout)            (None, 294)          0           dense_28[0][0]                   
__________________________________________________________________________________________________
dense_29 (Dense)                (None, 19)           5605        dropout_19[0][0]                 
__________________________________________________________________________________________________
dropout_20 (Dropout)            (None, 19)           0           dense_29[0][0]                   
__________________________________________________________________________________________________
dense_30 (Dense)                (None, 8)            160         dropout_20[0][0]                 
==================================================================================================
Total params: 1,701,443
Trainable params: 1,701,443
Non-trainable params: 0
__________________________________________________________________________________________________
None

__________________________________________________________________________________________________
…
	One occurrence keys in vocabulary 1660 / 2793
	Attention: important lemmas are not in vocbulary	Embedding
==================================================================================================
	Initialisation = None
	Concatenation = False
	Lemma : 391
	POS = 106 
Deep model(Non compositional)
__________________________________________________________________________________________________
Layer (type)                    Output Shape         Param #     Connected to                     
==================================================================================================
input_25 (InputLayer)           (None, 4)            0                                            
__________________________________________________________________________________________________
input_26 (InputLayer)           (None, 4)            0                                            
__________________________________________________________________________________________________
embedding_25 (Embedding)        (None, 4, 391)       1092063     input_25[0][0]                   
__________________________________________________________________________________________________
embedding_26 (Embedding)        (None, 4, 106)       17914       input_26[0][0]                   
__________________________________________________________________________________________________
flatten_25 (Flatten)            (None, 1564)         0           embedding_25[0][0]               
__________________________________________________________________________________________________
flatten_26 (Flatten)            (None, 424)          0           embedding_26[0][0]               
__________________________________________________________________________________________________
concatenate_13 (Concatenate)    (None, 1988)         0           flatten_25[0][0]                 
                                                                 flatten_26[0][0]                 
__________________________________________________________________________________________________
dense_37 (Dense)                (None, 294)          584766      concatenate_13[0][0]             
__________________________________________________________________________________________________
dropout_25 (Dropout)            (None, 294)          0           dense_37[0][0]                   
__________________________________________________________________________________________________
dense_38 (Dense)                (None, 19)           5605        dropout_25[0][0]                 
__________________________________________________________________________________________________
dropout_26 (Dropout)            (None, 19)           0           dense_38[0][0]                   
__________________________________________________________________________________________________
dense_39 (Dense)                (None, 8)            160         dropout_26[0][0]                 
==================================================================================================
Total params: 1,700,508
Trainable params: 1,700,508
Non-trainable params: 0
__________________________________________________________________________________________________
None

__________________________________________________________________________________________________
…
	Dashed keys in vocabulary 1979
	One occurrence keys in vocabulary 1979 / 3181
	Embedding
==================================================================================================
	Initialisation = None
	Concatenation = False
	Lemma : 391
	POS = 106 
Deep model(Non compositional)
__________________________________________________________________________________________________
Layer (type)                    Output Shape         Param #     Connected to                     
==================================================================================================
input_31 (InputLayer)           (None, 4)            0                                            
__________________________________________________________________________________________________
input_32 (InputLayer)           (None, 4)            0                                            
__________________________________________________________________________________________________
embedding_31 (Embedding)        (None, 4, 391)       1243771     input_31[0][0]                   
__________________________________________________________________________________________________
embedding_32 (Embedding)        (None, 4, 106)       11660       input_32[0][0]                   
__________________________________________________________________________________________________
flatten_31 (Flatten)            (None, 1564)         0           embedding_31[0][0]               
__________________________________________________________________________________________________
flatten_32 (Flatten)            (None, 424)          0           embedding_32[0][0]               
__________________________________________________________________________________________________
concatenate_16 (Concatenate)    (None, 1988)         0           flatten_31[0][0]                 
                                                                 flatten_32[0][0]                 
__________________________________________________________________________________________________
dense_46 (Dense)                (None, 294)          584766      concatenate_16[0][0]             
__________________________________________________________________________________________________
dropout_31 (Dropout)            (None, 294)          0           dense_46[0][0]                   
__________________________________________________________________________________________________
dense_47 (Dense)                (None, 19)           5605        dropout_31[0][0]                 
__________________________________________________________________________________________________
dropout_32 (Dropout)            (None, 19)           0           dense_47[0][0]                   
__________________________________________________________________________________________________
dense_48 (Dense)                (None, 8)            160         dropout_32[0][0]                 
==================================================================================================
Total params: 1,845,962
Trainable params: 1,845,962
Non-trainable params: 0
__________________________________________________________________________________________________
None

__________________________________________________________________________________________________
…
	Dashed keys in vocabulary 1622
	One occurrence keys in vocabulary 1622 / 12174
	Embedding
==================================================================================================
	Initialisation = None
	Concatenation = False
	Lemma : 209
	POS = 36 
Deep model(Non compositional)
__________________________________________________________________________________________________
Layer (type)                    Output Shape         Param #     Connected to                     
==================================================================================================
input_37 (InputLayer)           (None, 4)            0                                            
__________________________________________________________________________________________________
input_38 (InputLayer)           (None, 4)            0                                            
__________________________________________________________________________________________________
embedding_37 (Embedding)        (None, 4, 209)       2544366     input_37[0][0]                   
__________________________________________________________________________________________________
embedding_38 (Embedding)        (None, 4, 36)        5472        input_38[0][0]                   
__________________________________________________________________________________________________
flatten_37 (Flatten)            (None, 836)          0           embedding_37[0][0]               
__________________________________________________________________________________________________
flatten_38 (Flatten)            (None, 144)          0           embedding_38[0][0]               
__________________________________________________________________________________________________
concatenate_19 (Concatenate)    (None, 980)          0           flatten_37[0][0]                 
                                                                 flatten_38[0][0]                 
__________________________________________________________________________________________________
dense_55 (Dense)                (None, 350)          343350      concatenate_19[0][0]             
__________________________________________________________________________________________________
dropout_37 (Dropout)            (None, 350)          0           dense_55[0][0]                   
__________________________________________________________________________________________________
dense_56 (Dense)                (None, 8)            2808        dropout_37[0][0]                 
__________________________________________________________________________________________________
dropout_38 (Dropout)            (None, 8)            0           dense_56[0][0]                   
__________________________________________________________________________________________________
dense_57 (Dense)                (None, 8)            72          dropout_38[0][0]                 
==================================================================================================
Total params: 2,896,068
Trainable params: 2,896,068
Non-trainable params: 0
__________________________________________________________________________________________________
None

__________________________________________________________________________________________________
…
	Dashed keys in vocabulary 1622
	One occurrence keys in vocabulary 1622 / 12142
	Embedding
==================================================================================================
	Initialisation = None
	Concatenation = False
	Lemma : 209
	POS = 36 
Deep model(Non compositional)
__________________________________________________________________________________________________
Layer (type)                    Output Shape         Param #     Connected to                     
==================================================================================================
input_39 (InputLayer)           (None, 4)            0                                            
__________________________________________________________________________________________________
input_40 (InputLayer)           (None, 4)            0                                            
__________________________________________________________________________________________________
embedding_39 (Embedding)        (None, 4, 209)       2537678     input_39[0][0]                   
__________________________________________________________________________________________________
embedding_40 (Embedding)        (None, 4, 36)        5472        input_40[0][0]                   
__________________________________________________________________________________________________
flatten_39 (Flatten)            (None, 836)          0           embedding_39[0][0]               
__________________________________________________________________________________________________
flatten_40 (Flatten)            (None, 144)          0           embedding_40[0][0]               
__________________________________________________________________________________________________
concatenate_20 (Concatenate)    (None, 980)          0           flatten_39[0][0]                 
                                                                 flatten_40[0][0]                 
__________________________________________________________________________________________________
dense_58 (Dense)                (None, 350)          343350      concatenate_20[0][0]             
__________________________________________________________________________________________________
dropout_39 (Dropout)            (None, 350)          0           dense_58[0][0]                   
__________________________________________________________________________________________________
dense_59 (Dense)                (None, 8)            2808        dropout_39[0][0]                 
__________________________________________________________________________________________________
dropout_40 (Dropout)            (None, 8)            0           dense_59[0][0]                   
__________________________________________________________________________________________________
dense_60 (Dense)                (None, 8)            72          dropout_40[0][0]                 
==================================================================================================
Total params: 2,889,380
Trainable params: 2,889,380
Non-trainable params: 0
__________________________________________________________________________________________________
None

__________________________________________________________________________________________________
…
	Dashed keys in vocabulary 1622
	One occurrence keys in vocabulary 1622 / 12159
	Embedding
==================================================================================================
	Initialisation = None
	Concatenation = False
	Lemma : 209
	POS = 36 
Deep model(Non compositional)
__________________________________________________________________________________________________
Layer (type)                    Output Shape         Param #     Connected to                     
==================================================================================================
input_41 (InputLayer)           (None, 4)            0                                            
__________________________________________________________________________________________________
input_42 (InputLayer)           (None, 4)            0                                            
__________________________________________________________________________________________________
embedding_41 (Embedding)        (None, 4, 209)       2541231     input_41[0][0]                   
__________________________________________________________________________________________________
embedding_42 (Embedding)        (None, 4, 36)        5472        input_42[0][0]                   
__________________________________________________________________________________________________
flatten_41 (Flatten)            (None, 836)          0           embedding_41[0][0]               
__________________________________________________________________________________________________
flatten_42 (Flatten)            (None, 144)          0           embedding_42[0][0]               
__________________________________________________________________________________________________
concatenate_21 (Concatenate)    (None, 980)          0           flatten_41[0][0]                 
                                                                 flatten_42[0][0]                 
__________________________________________________________________________________________________
dense_61 (Dense)                (None, 350)          343350      concatenate_21[0][0]             
__________________________________________________________________________________________________
dropout_41 (Dropout)            (None, 350)          0           dense_61[0][0]                   
__________________________________________________________________________________________________
dense_62 (Dense)                (None, 8)            2808        dropout_41[0][0]                 
__________________________________________________________________________________________________
dropout_42 (Dropout)            (None, 8)            0           dense_62[0][0]                   
__________________________________________________________________________________________________
dense_63 (Dense)                (None, 8)            72          dropout_42[0][0]                 
==================================================================================================
Total params: 2,892,933
Trainable params: 2,892,933
Non-trainable params: 0
__________________________________________________________________________________________________
None

__________________________________________________________________________________________________
…
	One occurrence keys in vocabulary 1660 / 15321
	Attention: important lemmas are not in vocbulary	Embedding
==================================================================================================
	Initialisation = None
	Concatenation = False
	Lemma : 209
	POS = 36 
Deep model(Non compositional)
__________________________________________________________________________________________________
Layer (type)                    Output Shape         Param #     Connected to                     
==================================================================================================
input_43 (InputLayer)           (None, 4)            0                                            
__________________________________________________________________________________________________
input_44 (InputLayer)           (None, 4)            0                                            
__________________________________________________________________________________________________
embedding_43 (Embedding)        (None, 4, 209)       3202089     input_43[0][0]                   
__________________________________________________________________________________________________
embedding_44 (Embedding)        (None, 4, 36)        6084        input_44[0][0]                   
__________________________________________________________________________________________________
flatten_43 (Flatten)            (None, 836)          0           embedding_43[0][0]               
__________________________________________________________________________________________________
flatten_44 (Flatten)            (None, 144)          0           embedding_44[0][0]               
__________________________________________________________________________________________________
concatenate_22 (Concatenate)    (None, 980)          0           flatten_43[0][0]                 
                                                                 flatten_44[0][0]                 
__________________________________________________________________________________________________
dense_64 (Dense)                (None, 350)          343350      concatenate_22[0][0]             
__________________________________________________________________________________________________
dropout_43 (Dropout)            (None, 350)          0           dense_64[0][0]                   
__________________________________________________________________________________________________
dense_65 (Dense)                (None, 8)            2808        dropout_43[0][0]                 
__________________________________________________________________________________________________
dropout_44 (Dropout)            (None, 8)            0           dense_65[0][0]                   
__________________________________________________________________________________________________
dense_66 (Dense)                (None, 8)            72          dropout_44[0][0]                 
==================================================================================================
Total params: 3,554,403
Trainable params: 3,554,403
Non-trainable params: 0
__________________________________________________________________________________________________
None

__________________________________________________________________________________________________
…
	One occurrence keys in vocabulary 1660 / 15303
	Attention: important lemmas are not in vocbulary	Embedding
==================================================================================================
	Initialisation = None
	Concatenation = False
	Lemma : 209
	POS = 36 
Deep model(Non compositional)
__________________________________________________________________________________________________
Layer (type)                    Output Shape         Param #     Connected to                     
==================================================================================================
input_45 (InputLayer)           (None, 4)            0                                            
__________________________________________________________________________________________________
input_46 (InputLayer)           (None, 4)            0                                            
__________________________________________________________________________________________________
embedding_45 (Embedding)        (None, 4, 209)       3198327     input_45[0][0]                   
__________________________________________________________________________________________________
embedding_46 (Embedding)        (None, 4, 36)        6084        input_46[0][0]                   
__________________________________________________________________________________________________
flatten_45 (Flatten)            (None, 836)          0           embedding_45[0][0]               
__________________________________________________________________________________________________
flatten_46 (Flatten)            (None, 144)          0           embedding_46[0][0]               
__________________________________________________________________________________________________
concatenate_23 (Concatenate)    (None, 980)          0           flatten_45[0][0]                 
                                                                 flatten_46[0][0]                 
__________________________________________________________________________________________________
dense_67 (Dense)                (None, 350)          343350      concatenate_23[0][0]             
__________________________________________________________________________________________________
dropout_45 (Dropout)            (None, 350)          0           dense_67[0][0]                   
__________________________________________________________________________________________________
dense_68 (Dense)                (None, 8)            2808        dropout_45[0][0]                 
__________________________________________________________________________________________________
dropout_46 (Dropout)            (None, 8)            0           dense_68[0][0]                   
__________________________________________________________________________________________________
dense_69 (Dense)                (None, 8)            72          dropout_46[0][0]                 
==================================================================================================
Total params: 3,550,641
Trainable params: 3,550,641
Non-trainable params: 0
__________________________________________________________________________________________________
None

__________________________________________________________________________________________________
…
	One occurrence keys in vocabulary 1660 / 15244
	Attention: important lemmas are not in vocbulary	Embedding
==================================================================================================
	Initialisation = None
	Concatenation = False
	Lemma : 209
	POS = 36 
Deep model(Non compositional)
__________________________________________________________________________________________________
Layer (type)                    Output Shape         Param #     Connected to                     
==================================================================================================
input_47 (InputLayer)           (None, 4)            0                                            
__________________________________________________________________________________________________
input_48 (InputLayer)           (None, 4)            0                                            
__________________________________________________________________________________________________
embedding_47 (Embedding)        (None, 4, 209)       3185996     input_47[0][0]                   
__________________________________________________________________________________________________
embedding_48 (Embedding)        (None, 4, 36)        6084        input_48[0][0]                   
__________________________________________________________________________________________________
flatten_47 (Flatten)            (None, 836)          0           embedding_47[0][0]               
__________________________________________________________________________________________________
flatten_48 (Flatten)            (None, 144)          0           embedding_48[0][0]               
__________________________________________________________________________________________________
concatenate_24 (Concatenate)    (None, 980)          0           flatten_47[0][0]                 
                                                                 flatten_48[0][0]                 
__________________________________________________________________________________________________
dense_70 (Dense)                (None, 350)          343350      concatenate_24[0][0]             
__________________________________________________________________________________________________
dropout_47 (Dropout)            (None, 350)          0           dense_70[0][0]                   
__________________________________________________________________________________________________
dense_71 (Dense)                (None, 8)            2808        dropout_47[0][0]                 
__________________________________________________________________________________________________
dropout_48 (Dropout)            (None, 8)            0           dense_71[0][0]                   
__________________________________________________________________________________________________
dense_72 (Dense)                (None, 8)            72          dropout_48[0][0]                 
==================================================================================================
Total params: 3,538,310
Trainable params: 3,538,310
Non-trainable params: 0
__________________________________________________________________________________________________
None

__________________________________________________________________________________________________
…
	Dashed keys in vocabulary 1979
	One occurrence keys in vocabulary 1979 / 12529
	Embedding
==================================================================================================
	Initialisation = None
	Concatenation = False
	Lemma : 209
	POS = 36 
Deep model(Non compositional)
__________________________________________________________________________________________________
Layer (type)                    Output Shape         Param #     Connected to                     
==================================================================================================
input_49 (InputLayer)           (None, 4)            0                                            
__________________________________________________________________________________________________
input_50 (InputLayer)           (None, 4)            0                                            
__________________________________________________________________________________________________
embedding_49 (Embedding)        (None, 4, 209)       2618561     input_49[0][0]                   
__________________________________________________________________________________________________
embedding_50 (Embedding)        (None, 4, 36)        3960        input_50[0][0]                   
__________________________________________________________________________________________________
flatten_49 (Flatten)            (None, 836)          0           embedding_49[0][0]               
__________________________________________________________________________________________________
flatten_50 (Flatten)            (None, 144)          0           embedding_50[0][0]               
__________________________________________________________________________________________________
concatenate_25 (Concatenate)    (None, 980)          0           flatten_49[0][0]                 
                                                                 flatten_50[0][0]                 
__________________________________________________________________________________________________
dense_73 (Dense)                (None, 350)          343350      concatenate_25[0][0]             
__________________________________________________________________________________________________
dropout_49 (Dropout)            (None, 350)          0           dense_73[0][0]                   
__________________________________________________________________________________________________
dense_74 (Dense)                (None, 8)            2808        dropout_49[0][0]                 
__________________________________________________________________________________________________
dropout_50 (Dropout)            (None, 8)            0           dense_74[0][0]                   
__________________________________________________________________________________________________
dense_75 (Dense)                (None, 8)            72          dropout_50[0][0]                 
==================================================================================================
Total params: 2,968,751
Trainable params: 2,968,751
Non-trainable params: 0
__________________________________________________________________________________________________
None

__________________________________________________________________________________________________
…
	Dashed keys in vocabulary 1979
	One occurrence keys in vocabulary 1979 / 12525
	Embedding
==================================================================================================
	Initialisation = None
	Concatenation = False
	Lemma : 209
	POS = 36 
Deep model(Non compositional)
__________________________________________________________________________________________________
Layer (type)                    Output Shape         Param #     Connected to                     
==================================================================================================
input_51 (InputLayer)           (None, 4)            0                                            
__________________________________________________________________________________________________
input_52 (InputLayer)           (None, 4)            0                                            
__________________________________________________________________________________________________
embedding_51 (Embedding)        (None, 4, 209)       2617725     input_51[0][0]                   
__________________________________________________________________________________________________
embedding_52 (Embedding)        (None, 4, 36)        3960        input_52[0][0]                   
__________________________________________________________________________________________________
flatten_51 (Flatten)            (None, 836)          0           embedding_51[0][0]               
__________________________________________________________________________________________________
flatten_52 (Flatten)            (None, 144)          0           embedding_52[0][0]               
__________________________________________________________________________________________________
concatenate_26 (Concatenate)    (None, 980)          0           flatten_51[0][0]                 
                                                                 flatten_52[0][0]                 
__________________________________________________________________________________________________
dense_76 (Dense)                (None, 350)          343350      concatenate_26[0][0]             
__________________________________________________________________________________________________
dropout_51 (Dropout)            (None, 350)          0           dense_76[0][0]                   
__________________________________________________________________________________________________
dense_77 (Dense)                (None, 8)            2808        dropout_51[0][0]                 
__________________________________________________________________________________________________
dropout_52 (Dropout)            (None, 8)            0           dense_77[0][0]                   
__________________________________________________________________________________________________
dense_78 (Dense)                (None, 8)            72          dropout_52[0][0]                 
==================================================================================================
Total params: 2,967,915
Trainable params: 2,967,915
Non-trainable params: 0
__________________________________________________________________________________________________
None

__________________________________________________________________________________________________
…
	Dashed keys in vocabulary 1979
	One occurrence keys in vocabulary 1979 / 12587
	Embedding
==================================================================================================
	Initialisation = None
	Concatenation = False
	Lemma : 209
	POS = 36 
Deep model(Non compositional)
__________________________________________________________________________________________________
Layer (type)                    Output Shape         Param #     Connected to                     
==================================================================================================
input_53 (InputLayer)           (None, 4)            0                                            
__________________________________________________________________________________________________
input_54 (InputLayer)           (None, 4)            0                                            
__________________________________________________________________________________________________
embedding_53 (Embedding)        (None, 4, 209)       2630683     input_53[0][0]                   
__________________________________________________________________________________________________
embedding_54 (Embedding)        (None, 4, 36)        3960        input_54[0][0]                   
__________________________________________________________________________________________________
flatten_53 (Flatten)            (None, 836)          0           embedding_53[0][0]               
__________________________________________________________________________________________________
flatten_54 (Flatten)            (None, 144)          0           embedding_54[0][0]               
__________________________________________________________________________________________________
concatenate_27 (Concatenate)    (None, 980)          0           flatten_53[0][0]                 
                                                                 flatten_54[0][0]                 
__________________________________________________________________________________________________
dense_79 (Dense)                (None, 350)          343350      concatenate_27[0][0]             
__________________________________________________________________________________________________
dropout_53 (Dropout)            (None, 350)          0           dense_79[0][0]                   
__________________________________________________________________________________________________
dense_80 (Dense)                (None, 8)            2808        dropout_53[0][0]                 
__________________________________________________________________________________________________
dropout_54 (Dropout)            (None, 8)            0           dense_80[0][0]                   
__________________________________________________________________________________________________
dense_81 (Dense)                (None, 8)            72          dropout_54[0][0]                 
==================================================================================================
Total params: 2,980,873
Trainable params: 2,980,873
Non-trainable params: 0
__________________________________________________________________________________________________
None

__________________________________________________________________________________________________
…
	Dashed keys in vocabulary 1622
	One occurrence keys in vocabulary 1622 / 2800
	Embedding
==================================================================================================
	Initialisation = None
	Concatenation = False
	Lemma : 167
	POS = 78 
Deep model(Non compositional)
__________________________________________________________________________________________________
Layer (type)                    Output Shape         Param #     Connected to                     
==================================================================================================
input_55 (InputLayer)           (None, 4)            0                                            
__________________________________________________________________________________________________
input_56 (InputLayer)           (None, 4)            0                                            
__________________________________________________________________________________________________
embedding_55 (Embedding)        (None, 4, 167)       467600      input_55[0][0]                   
__________________________________________________________________________________________________
embedding_56 (Embedding)        (None, 4, 78)        11856       input_56[0][0]                   
__________________________________________________________________________________________________
flatten_55 (Flatten)            (None, 668)          0           embedding_55[0][0]               
__________________________________________________________________________________________________
flatten_56 (Flatten)            (None, 312)          0           embedding_56[0][0]               
__________________________________________________________________________________________________
concatenate_28 (Concatenate)    (None, 980)          0           flatten_55[0][0]                 
                                                                 flatten_56[0][0]                 
__________________________________________________________________________________________________
dense_82 (Dense)                (None, 40)           39240       concatenate_28[0][0]             
__________________________________________________________________________________________________
dropout_55 (Dropout)            (None, 40)           0           dense_82[0][0]                   
__________________________________________________________________________________________________
dense_83 (Dense)                (None, 36)           1476        dropout_55[0][0]                 
__________________________________________________________________________________________________
dropout_56 (Dropout)            (None, 36)           0           dense_83[0][0]                   
__________________________________________________________________________________________________
dense_84 (Dense)                (None, 8)            296         dropout_56[0][0]                 
==================================================================================================
Total params: 520,468
Trainable params: 520,468
Non-trainable params: 0
__________________________________________________________________________________________________
None

__________________________________________________________________________________________________
…
	One occurrence keys in vocabulary 1660 / 2793
	Attention: important lemmas are not in vocbulary	Embedding
==================================================================================================
	Initialisation = None
	Concatenation = False
	Lemma : 167
	POS = 78 
Deep model(Non compositional)
__________________________________________________________________________________________________
Layer (type)                    Output Shape         Param #     Connected to                     
==================================================================================================
input_61 (InputLayer)           (None, 4)            0                                            
__________________________________________________________________________________________________
input_62 (InputLayer)           (None, 4)            0                                            
__________________________________________________________________________________________________
embedding_61 (Embedding)        (None, 4, 167)       466431      input_61[0][0]                   
__________________________________________________________________________________________________
embedding_62 (Embedding)        (None, 4, 78)        13182       input_62[0][0]                   
__________________________________________________________________________________________________
flatten_61 (Flatten)            (None, 668)          0           embedding_61[0][0]               
__________________________________________________________________________________________________
flatten_62 (Flatten)            (None, 312)          0           embedding_62[0][0]               
__________________________________________________________________________________________________
concatenate_31 (Concatenate)    (None, 980)          0           flatten_61[0][0]                 
                                                                 flatten_62[0][0]                 
__________________________________________________________________________________________________
dense_91 (Dense)                (None, 40)           39240       concatenate_31[0][0]             
__________________________________________________________________________________________________
dropout_61 (Dropout)            (None, 40)           0           dense_91[0][0]                   
__________________________________________________________________________________________________
dense_92 (Dense)                (None, 36)           1476        dropout_61[0][0]                 
__________________________________________________________________________________________________
dropout_62 (Dropout)            (None, 36)           0           dense_92[0][0]                   
__________________________________________________________________________________________________
dense_93 (Dense)                (None, 8)            296         dropout_62[0][0]                 
==================================================================================================
Total params: 520,625
Trainable params: 520,625
Non-trainable params: 0
__________________________________________________________________________________________________
None

__________________________________________________________________________________________________
…
	Dashed keys in vocabulary 1979
	One occurrence keys in vocabulary 1979 / 3181
	Embedding
==================================================================================================
	Initialisation = None
	Concatenation = False
	Lemma : 167
	POS = 78 
Deep model(Non compositional)
__________________________________________________________________________________________________
Layer (type)                    Output Shape         Param #     Connected to                     
==================================================================================================
input_67 (InputLayer)           (None, 4)            0                                            
__________________________________________________________________________________________________
input_68 (InputLayer)           (None, 4)            0                                            
__________________________________________________________________________________________________
embedding_67 (Embedding)        (None, 4, 167)       531227      input_67[0][0]                   
__________________________________________________________________________________________________
embedding_68 (Embedding)        (None, 4, 78)        8580        input_68[0][0]                   
__________________________________________________________________________________________________
flatten_67 (Flatten)            (None, 668)          0           embedding_67[0][0]               
__________________________________________________________________________________________________
flatten_68 (Flatten)            (None, 312)          0           embedding_68[0][0]               
__________________________________________________________________________________________________
concatenate_34 (Concatenate)    (None, 980)          0           flatten_67[0][0]                 
                                                                 flatten_68[0][0]                 
__________________________________________________________________________________________________
dense_100 (Dense)               (None, 40)           39240       concatenate_34[0][0]             
__________________________________________________________________________________________________
dropout_67 (Dropout)            (None, 40)           0           dense_100[0][0]                  
__________________________________________________________________________________________________
dense_101 (Dense)               (None, 36)           1476        dropout_67[0][0]                 
__________________________________________________________________________________________________
dropout_68 (Dropout)            (None, 36)           0           dense_101[0][0]                  
__________________________________________________________________________________________________
dense_102 (Dense)               (None, 8)            296         dropout_68[0][0]                 
==================================================================================================
Total params: 580,819
Trainable params: 580,819
Non-trainable params: 0
__________________________________________________________________________________________________
None

__________________________________________________________________________________________________
…
	Dashed keys in vocabulary 1622
	One occurrence keys in vocabulary 1622 / 12174
	Embedding
==================================================================================================
	Initialisation = None
	Concatenation = False
	Lemma : 125
	POS = 21 
Deep model(Non compositional)
__________________________________________________________________________________________________
Layer (type)                    Output Shape         Param #     Connected to                     
==================================================================================================
input_73 (InputLayer)           (None, 4)            0                                            
__________________________________________________________________________________________________
input_74 (InputLayer)           (None, 4)            0                                            
__________________________________________________________________________________________________
embedding_73 (Embedding)        (None, 4, 125)       1521750     input_73[0][0]                   
__________________________________________________________________________________________________
embedding_74 (Embedding)        (None, 4, 21)        3192        input_74[0][0]                   
__________________________________________________________________________________________________
flatten_73 (Flatten)            (None, 500)          0           embedding_73[0][0]               
__________________________________________________________________________________________________
flatten_74 (Flatten)            (None, 84)           0           embedding_74[0][0]               
__________________________________________________________________________________________________
concatenate_37 (Concatenate)    (None, 584)          0           flatten_73[0][0]                 
                                                                 flatten_74[0][0]                 
__________________________________________________________________________________________________
dense_109 (Dense)               (None, 47)           27495       concatenate_37[0][0]             
__________________________________________________________________________________________________
dropout_73 (Dropout)            (None, 47)           0           dense_109[0][0]                  
__________________________________________________________________________________________________
dense_110 (Dense)               (None, 126)          6048        dropout_73[0][0]                 
__________________________________________________________________________________________________
dropout_74 (Dropout)            (None, 126)          0           dense_110[0][0]                  
__________________________________________________________________________________________________
dense_111 (Dense)               (None, 8)            1016        dropout_74[0][0]                 
==================================================================================================
Total params: 1,559,501
Trainable params: 1,559,501
Non-trainable params: 0
__________________________________________________________________________________________________
None

__________________________________________________________________________________________________
…
	Dashed keys in vocabulary 1622
	One occurrence keys in vocabulary 1622 / 12142
	Embedding
==================================================================================================
	Initialisation = None
	Concatenation = False
	Lemma : 125
	POS = 21 
Deep model(Non compositional)
__________________________________________________________________________________________________
Layer (type)                    Output Shape         Param #     Connected to                     
==================================================================================================
input_75 (InputLayer)           (None, 4)            0                                            
__________________________________________________________________________________________________
input_76 (InputLayer)           (None, 4)            0                                            
__________________________________________________________________________________________________
embedding_75 (Embedding)        (None, 4, 125)       1517750     input_75[0][0]                   
__________________________________________________________________________________________________
embedding_76 (Embedding)        (None, 4, 21)        3192        input_76[0][0]                   
__________________________________________________________________________________________________
flatten_75 (Flatten)            (None, 500)          0           embedding_75[0][0]               
__________________________________________________________________________________________________
flatten_76 (Flatten)            (None, 84)           0           embedding_76[0][0]               
__________________________________________________________________________________________________
concatenate_38 (Concatenate)    (None, 584)          0           flatten_75[0][0]                 
                                                                 flatten_76[0][0]                 
__________________________________________________________________________________________________
dense_112 (Dense)               (None, 47)           27495       concatenate_38[0][0]             
__________________________________________________________________________________________________
dropout_75 (Dropout)            (None, 47)           0           dense_112[0][0]                  
__________________________________________________________________________________________________
dense_113 (Dense)               (None, 126)          6048        dropout_75[0][0]                 
__________________________________________________________________________________________________
dropout_76 (Dropout)            (None, 126)          0           dense_113[0][0]                  
__________________________________________________________________________________________________
dense_114 (Dense)               (None, 8)            1016        dropout_76[0][0]                 
==================================================================================================
Total params: 1,555,501
Trainable params: 1,555,501
Non-trainable params: 0
__________________________________________________________________________________________________
None

__________________________________________________________________________________________________
…
	Dashed keys in vocabulary 1622
	One occurrence keys in vocabulary 1622 / 12159
	Embedding
==================================================================================================
	Initialisation = None
	Concatenation = False
	Lemma : 125
	POS = 21 
Deep model(Non compositional)
__________________________________________________________________________________________________
Layer (type)                    Output Shape         Param #     Connected to                     
==================================================================================================
input_77 (InputLayer)           (None, 4)            0                                            
__________________________________________________________________________________________________
input_78 (InputLayer)           (None, 4)            0                                            
__________________________________________________________________________________________________
embedding_77 (Embedding)        (None, 4, 125)       1519875     input_77[0][0]                   
__________________________________________________________________________________________________
embedding_78 (Embedding)        (None, 4, 21)        3192        input_78[0][0]                   
__________________________________________________________________________________________________
flatten_77 (Flatten)            (None, 500)          0           embedding_77[0][0]               
__________________________________________________________________________________________________
flatten_78 (Flatten)            (None, 84)           0           embedding_78[0][0]               
__________________________________________________________________________________________________
concatenate_39 (Concatenate)    (None, 584)          0           flatten_77[0][0]                 
                                                                 flatten_78[0][0]                 
__________________________________________________________________________________________________
dense_115 (Dense)               (None, 47)           27495       concatenate_39[0][0]             
__________________________________________________________________________________________________
dropout_77 (Dropout)            (None, 47)           0           dense_115[0][0]                  
__________________________________________________________________________________________________
dense_116 (Dense)               (None, 126)          6048        dropout_77[0][0]                 
__________________________________________________________________________________________________
dropout_78 (Dropout)            (None, 126)          0           dense_116[0][0]                  
__________________________________________________________________________________________________
dense_117 (Dense)               (None, 8)            1016        dropout_78[0][0]                 
==================================================================================================
Total params: 1,557,626
Trainable params: 1,557,626
Non-trainable params: 0
__________________________________________________________________________________________________
None

__________________________________________________________________________________________________
…
	One occurrence keys in vocabulary 1660 / 15321
	Attention: important lemmas are not in vocbulary	Embedding
==================================================================================================
	Initialisation = None
	Concatenation = False
	Lemma : 125
	POS = 21 
Deep model(Non compositional)
__________________________________________________________________________________________________
Layer (type)                    Output Shape         Param #     Connected to                     
==================================================================================================
input_79 (InputLayer)           (None, 4)            0                                            
__________________________________________________________________________________________________
input_80 (InputLayer)           (None, 4)            0                                            
__________________________________________________________________________________________________
embedding_79 (Embedding)        (None, 4, 125)       1915125     input_79[0][0]                   
__________________________________________________________________________________________________
embedding_80 (Embedding)        (None, 4, 21)        3549        input_80[0][0]                   
__________________________________________________________________________________________________
flatten_79 (Flatten)            (None, 500)          0           embedding_79[0][0]               
__________________________________________________________________________________________________
flatten_80 (Flatten)            (None, 84)           0           embedding_80[0][0]               
__________________________________________________________________________________________________
concatenate_40 (Concatenate)    (None, 584)          0           flatten_79[0][0]                 
                                                                 flatten_80[0][0]                 
__________________________________________________________________________________________________
dense_118 (Dense)               (None, 47)           27495       concatenate_40[0][0]             
__________________________________________________________________________________________________
dropout_79 (Dropout)            (None, 47)           0           dense_118[0][0]                  
__________________________________________________________________________________________________
dense_119 (Dense)               (None, 126)          6048        dropout_79[0][0]                 
__________________________________________________________________________________________________
dropout_80 (Dropout)            (None, 126)          0           dense_119[0][0]                  
__________________________________________________________________________________________________
dense_120 (Dense)               (None, 8)            1016        dropout_80[0][0]                 
==================================================================================================
Total params: 1,953,233
Trainable params: 1,953,233
Non-trainable params: 0
__________________________________________________________________________________________________
None

__________________________________________________________________________________________________
…
	One occurrence keys in vocabulary 1660 / 15303
	Attention: important lemmas are not in vocbulary	Embedding
==================================================================================================
	Initialisation = None
	Concatenation = False
	Lemma : 125
	POS = 21 
Deep model(Non compositional)
__________________________________________________________________________________________________
Layer (type)                    Output Shape         Param #     Connected to                     
==================================================================================================
input_81 (InputLayer)           (None, 4)            0                                            
__________________________________________________________________________________________________
input_82 (InputLayer)           (None, 4)            0                                            
__________________________________________________________________________________________________
embedding_81 (Embedding)        (None, 4, 125)       1912875     input_81[0][0]                   
__________________________________________________________________________________________________
embedding_82 (Embedding)        (None, 4, 21)        3549        input_82[0][0]                   
__________________________________________________________________________________________________
flatten_81 (Flatten)            (None, 500)          0           embedding_81[0][0]               
__________________________________________________________________________________________________
flatten_82 (Flatten)            (None, 84)           0           embedding_82[0][0]               
__________________________________________________________________________________________________
concatenate_41 (Concatenate)    (None, 584)          0           flatten_81[0][0]                 
                                                                 flatten_82[0][0]                 
__________________________________________________________________________________________________
dense_121 (Dense)               (None, 47)           27495       concatenate_41[0][0]             
__________________________________________________________________________________________________
dropout_81 (Dropout)            (None, 47)           0           dense_121[0][0]                  
__________________________________________________________________________________________________
dense_122 (Dense)               (None, 126)          6048        dropout_81[0][0]                 
__________________________________________________________________________________________________
dropout_82 (Dropout)            (None, 126)          0           dense_122[0][0]                  
__________________________________________________________________________________________________
dense_123 (Dense)               (None, 8)            1016        dropout_82[0][0]                 
==================================================================================================
Total params: 1,950,983
Trainable params: 1,950,983
Non-trainable params: 0
__________________________________________________________________________________________________
None

__________________________________________________________________________________________________
…
	One occurrence keys in vocabulary 1660 / 15244
	Attention: important lemmas are not in vocbulary	Embedding
==================================================================================================
	Initialisation = None
	Concatenation = False
	Lemma : 125
	POS = 21 
Deep model(Non compositional)
__________________________________________________________________________________________________
Layer (type)                    Output Shape         Param #     Connected to                     
==================================================================================================
input_83 (InputLayer)           (None, 4)            0                                            
__________________________________________________________________________________________________
input_84 (InputLayer)           (None, 4)            0                                            
__________________________________________________________________________________________________
embedding_83 (Embedding)        (None, 4, 125)       1905500     input_83[0][0]                   
__________________________________________________________________________________________________
embedding_84 (Embedding)        (None, 4, 21)        3549        input_84[0][0]                   
__________________________________________________________________________________________________
flatten_83 (Flatten)            (None, 500)          0           embedding_83[0][0]               
__________________________________________________________________________________________________
flatten_84 (Flatten)            (None, 84)           0           embedding_84[0][0]               
__________________________________________________________________________________________________
concatenate_42 (Concatenate)    (None, 584)          0           flatten_83[0][0]                 
                                                                 flatten_84[0][0]                 
__________________________________________________________________________________________________
dense_124 (Dense)               (None, 47)           27495       concatenate_42[0][0]             
__________________________________________________________________________________________________
dropout_83 (Dropout)            (None, 47)           0           dense_124[0][0]                  
__________________________________________________________________________________________________
dense_125 (Dense)               (None, 126)          6048        dropout_83[0][0]                 
__________________________________________________________________________________________________
dropout_84 (Dropout)            (None, 126)          0           dense_125[0][0]                  
__________________________________________________________________________________________________
dense_126 (Dense)               (None, 8)            1016        dropout_84[0][0]                 
==================================================================================================
Total params: 1,943,608
Trainable params: 1,943,608
Non-trainable params: 0
__________________________________________________________________________________________________
None

__________________________________________________________________________________________________
…
	Dashed keys in vocabulary 1979
	One occurrence keys in vocabulary 1979 / 12529
	Embedding
==================================================================================================
	Initialisation = None
	Concatenation = False
	Lemma : 125
	POS = 21 
Deep model(Non compositional)
__________________________________________________________________________________________________
Layer (type)                    Output Shape         Param #     Connected to                     
==================================================================================================
input_85 (InputLayer)           (None, 4)            0                                            
__________________________________________________________________________________________________
input_86 (InputLayer)           (None, 4)            0                                            
__________________________________________________________________________________________________
embedding_85 (Embedding)        (None, 4, 125)       1566125     input_85[0][0]                   
__________________________________________________________________________________________________
embedding_86 (Embedding)        (None, 4, 21)        2310        input_86[0][0]                   
__________________________________________________________________________________________________
flatten_85 (Flatten)            (None, 500)          0           embedding_85[0][0]               
__________________________________________________________________________________________________
flatten_86 (Flatten)            (None, 84)           0           embedding_86[0][0]               
__________________________________________________________________________________________________
concatenate_43 (Concatenate)    (None, 584)          0           flatten_85[0][0]                 
                                                                 flatten_86[0][0]                 
__________________________________________________________________________________________________
dense_127 (Dense)               (None, 47)           27495       concatenate_43[0][0]             
__________________________________________________________________________________________________
dropout_85 (Dropout)            (None, 47)           0           dense_127[0][0]                  
__________________________________________________________________________________________________
dense_128 (Dense)               (None, 126)          6048        dropout_85[0][0]                 
__________________________________________________________________________________________________
dropout_86 (Dropout)            (None, 126)          0           dense_128[0][0]                  
__________________________________________________________________________________________________
dense_129 (Dense)               (None, 8)            1016        dropout_86[0][0]                 
==================================================================================================
Total params: 1,602,994
Trainable params: 1,602,994
Non-trainable params: 0
__________________________________________________________________________________________________
None

__________________________________________________________________________________________________
…
	Dashed keys in vocabulary 1979
	One occurrence keys in vocabulary 1979 / 12525
	Embedding
==================================================================================================
	Initialisation = None
	Concatenation = False
	Lemma : 125
	POS = 21 
Deep model(Non compositional)
__________________________________________________________________________________________________
Layer (type)                    Output Shape         Param #     Connected to                     
==================================================================================================
input_87 (InputLayer)           (None, 4)            0                                            
__________________________________________________________________________________________________
input_88 (InputLayer)           (None, 4)            0                                            
__________________________________________________________________________________________________
embedding_87 (Embedding)        (None, 4, 125)       1565625     input_87[0][0]                   
__________________________________________________________________________________________________
embedding_88 (Embedding)        (None, 4, 21)        2310        input_88[0][0]                   
__________________________________________________________________________________________________
flatten_87 (Flatten)            (None, 500)          0           embedding_87[0][0]               
__________________________________________________________________________________________________
flatten_88 (Flatten)            (None, 84)           0           embedding_88[0][0]               
__________________________________________________________________________________________________
concatenate_44 (Concatenate)    (None, 584)          0           flatten_87[0][0]                 
                                                                 flatten_88[0][0]                 
__________________________________________________________________________________________________
dense_130 (Dense)               (None, 47)           27495       concatenate_44[0][0]             
__________________________________________________________________________________________________
dropout_87 (Dropout)            (None, 47)           0           dense_130[0][0]                  
__________________________________________________________________________________________________
dense_131 (Dense)               (None, 126)          6048        dropout_87[0][0]                 
__________________________________________________________________________________________________
dropout_88 (Dropout)            (None, 126)          0           dense_131[0][0]                  
__________________________________________________________________________________________________
dense_132 (Dense)               (None, 8)            1016        dropout_88[0][0]                 
==================================================================================================
Total params: 1,602,494
Trainable params: 1,602,494
Non-trainable params: 0
__________________________________________________________________________________________________
None

__________________________________________________________________________________________________
…
	Dashed keys in vocabulary 1979
	One occurrence keys in vocabulary 1979 / 12587
	Embedding
==================================================================================================
	Initialisation = None
	Concatenation = False
	Lemma : 125
	POS = 21 
Deep model(Non compositional)
__________________________________________________________________________________________________
Layer (type)                    Output Shape         Param #     Connected to                     
==================================================================================================
input_89 (InputLayer)           (None, 4)            0                                            
__________________________________________________________________________________________________
input_90 (InputLayer)           (None, 4)            0                                            
__________________________________________________________________________________________________
embedding_89 (Embedding)        (None, 4, 125)       1573375     input_89[0][0]                   
__________________________________________________________________________________________________
embedding_90 (Embedding)        (None, 4, 21)        2310        input_90[0][0]                   
__________________________________________________________________________________________________
flatten_89 (Flatten)            (None, 500)          0           embedding_89[0][0]               
__________________________________________________________________________________________________
flatten_90 (Flatten)            (None, 84)           0           embedding_90[0][0]               
__________________________________________________________________________________________________
concatenate_45 (Concatenate)    (None, 584)          0           flatten_89[0][0]                 
                                                                 flatten_90[0][0]                 
__________________________________________________________________________________________________
dense_133 (Dense)               (None, 47)           27495       concatenate_45[0][0]             
__________________________________________________________________________________________________
dropout_89 (Dropout)            (None, 47)           0           dense_133[0][0]                  
__________________________________________________________________________________________________
dense_134 (Dense)               (None, 126)          6048        dropout_89[0][0]                 
__________________________________________________________________________________________________
dropout_90 (Dropout)            (None, 126)          0           dense_134[0][0]                  
__________________________________________________________________________________________________
dense_135 (Dense)               (None, 8)            1016        dropout_90[0][0]                 
==================================================================================================
Total params: 1,610,244
Trainable params: 1,610,244
Non-trainable params: 0
__________________________________________________________________________________________________
None

__________________________________________________________________________________________________
…
	Dashed keys in vocabulary 1622
	One occurrence keys in vocabulary 1622 / 12174
	Embedding
==================================================================================================
	Initialisation = None
	Concatenation = False
	Lemma : 193
	POS = 47 
Deep model(Non compositional)
__________________________________________________________________________________________________
Layer (type)                    Output Shape         Param #     Connected to                     
==================================================================================================
input_91 (InputLayer)           (None, 4)            0                                            
__________________________________________________________________________________________________
input_92 (InputLayer)           (None, 4)            0                                            
__________________________________________________________________________________________________
embedding_91 (Embedding)        (None, 4, 193)       2349582     input_91[0][0]                   
__________________________________________________________________________________________________
embedding_92 (Embedding)        (None, 4, 47)        7144        input_92[0][0]                   
__________________________________________________________________________________________________
flatten_91 (Flatten)            (None, 772)          0           embedding_91[0][0]               
__________________________________________________________________________________________________
flatten_92 (Flatten)            (None, 188)          0           embedding_92[0][0]               
__________________________________________________________________________________________________
concatenate_46 (Concatenate)    (None, 960)          0           flatten_91[0][0]                 
                                                                 flatten_92[0][0]                 
__________________________________________________________________________________________________
dense_136 (Dense)               (None, 43)           41323       concatenate_46[0][0]             
__________________________________________________________________________________________________
dropout_91 (Dropout)            (None, 43)           0           dense_136[0][0]                  
__________________________________________________________________________________________________
dense_137 (Dense)               (None, 124)          5456        dropout_91[0][0]                 
__________________________________________________________________________________________________
dropout_92 (Dropout)            (None, 124)          0           dense_137[0][0]                  
__________________________________________________________________________________________________
dense_138 (Dense)               (None, 8)            1000        dropout_92[0][0]                 
==================================================================================================
Total params: 2,404,505
Trainable params: 2,404,505
Non-trainable params: 0
__________________________________________________________________________________________________
None

__________________________________________________________________________________________________
…
	Dashed keys in vocabulary 1622
	One occurrence keys in vocabulary 1622 / 12142
	Embedding
==================================================================================================
	Initialisation = None
	Concatenation = False
	Lemma : 193
	POS = 47 
Deep model(Non compositional)
__________________________________________________________________________________________________
Layer (type)                    Output Shape         Param #     Connected to                     
==================================================================================================
input_93 (InputLayer)           (None, 4)            0                                            
__________________________________________________________________________________________________
input_94 (InputLayer)           (None, 4)            0                                            
__________________________________________________________________________________________________
embedding_93 (Embedding)        (None, 4, 193)       2343406     input_93[0][0]                   
__________________________________________________________________________________________________
embedding_94 (Embedding)        (None, 4, 47)        7144        input_94[0][0]                   
__________________________________________________________________________________________________
flatten_93 (Flatten)            (None, 772)          0           embedding_93[0][0]               
__________________________________________________________________________________________________
flatten_94 (Flatten)            (None, 188)          0           embedding_94[0][0]               
__________________________________________________________________________________________________
concatenate_47 (Concatenate)    (None, 960)          0           flatten_93[0][0]                 
                                                                 flatten_94[0][0]                 
__________________________________________________________________________________________________
dense_139 (Dense)               (None, 43)           41323       concatenate_47[0][0]             
__________________________________________________________________________________________________
dropout_93 (Dropout)            (None, 43)           0           dense_139[0][0]                  
__________________________________________________________________________________________________
dense_140 (Dense)               (None, 124)          5456        dropout_93[0][0]                 
__________________________________________________________________________________________________
dropout_94 (Dropout)            (None, 124)          0           dense_140[0][0]                  
__________________________________________________________________________________________________
dense_141 (Dense)               (None, 8)            1000        dropout_94[0][0]                 
==================================================================================================
Total params: 2,398,329
Trainable params: 2,398,329
Non-trainable params: 0
__________________________________________________________________________________________________
None

__________________________________________________________________________________________________
…
	Dashed keys in vocabulary 1622
	One occurrence keys in vocabulary 1622 / 12159
	Embedding
==================================================================================================
	Initialisation = None
	Concatenation = False
	Lemma : 193
	POS = 47 
Deep model(Non compositional)
__________________________________________________________________________________________________
Layer (type)                    Output Shape         Param #     Connected to                     
==================================================================================================
input_95 (InputLayer)           (None, 4)            0                                            
__________________________________________________________________________________________________
input_96 (InputLayer)           (None, 4)            0                                            
__________________________________________________________________________________________________
embedding_95 (Embedding)        (None, 4, 193)       2346687     input_95[0][0]                   
__________________________________________________________________________________________________
embedding_96 (Embedding)        (None, 4, 47)        7144        input_96[0][0]                   
__________________________________________________________________________________________________
flatten_95 (Flatten)            (None, 772)          0           embedding_95[0][0]               
__________________________________________________________________________________________________
flatten_96 (Flatten)            (None, 188)          0           embedding_96[0][0]               
__________________________________________________________________________________________________
concatenate_48 (Concatenate)    (None, 960)          0           flatten_95[0][0]                 
                                                                 flatten_96[0][0]                 
__________________________________________________________________________________________________
dense_142 (Dense)               (None, 43)           41323       concatenate_48[0][0]             
__________________________________________________________________________________________________
dropout_95 (Dropout)            (None, 43)           0           dense_142[0][0]                  
__________________________________________________________________________________________________
dense_143 (Dense)               (None, 124)          5456        dropout_95[0][0]                 
__________________________________________________________________________________________________
dropout_96 (Dropout)            (None, 124)          0           dense_143[0][0]                  
__________________________________________________________________________________________________
dense_144 (Dense)               (None, 8)            1000        dropout_96[0][0]                 
==================================================================================================
Total params: 2,401,610
Trainable params: 2,401,610
Non-trainable params: 0
__________________________________________________________________________________________________
None

__________________________________________________________________________________________________
…
	One occurrence keys in vocabulary 1660 / 15321
	Attention: important lemmas are not in vocbulary	Embedding
==================================================================================================
	Initialisation = None
	Concatenation = False
	Lemma : 193
	POS = 47 
Deep model(Non compositional)
__________________________________________________________________________________________________
Layer (type)                    Output Shape         Param #     Connected to                     
==================================================================================================
input_97 (InputLayer)           (None, 4)            0                                            
__________________________________________________________________________________________________
input_98 (InputLayer)           (None, 4)            0                                            
__________________________________________________________________________________________________
embedding_97 (Embedding)        (None, 4, 193)       2956953     input_97[0][0]                   
__________________________________________________________________________________________________
embedding_98 (Embedding)        (None, 4, 47)        7943        input_98[0][0]                   
__________________________________________________________________________________________________
flatten_97 (Flatten)            (None, 772)          0           embedding_97[0][0]               
__________________________________________________________________________________________________
flatten_98 (Flatten)            (None, 188)          0           embedding_98[0][0]               
__________________________________________________________________________________________________
concatenate_49 (Concatenate)    (None, 960)          0           flatten_97[0][0]                 
                                                                 flatten_98[0][0]                 
__________________________________________________________________________________________________
dense_145 (Dense)               (None, 43)           41323       concatenate_49[0][0]             
__________________________________________________________________________________________________
dropout_97 (Dropout)            (None, 43)           0           dense_145[0][0]                  
__________________________________________________________________________________________________
dense_146 (Dense)               (None, 124)          5456        dropout_97[0][0]                 
__________________________________________________________________________________________________
dropout_98 (Dropout)            (None, 124)          0           dense_146[0][0]                  
__________________________________________________________________________________________________
dense_147 (Dense)               (None, 8)            1000        dropout_98[0][0]                 
==================================================================================================
Total params: 3,012,675
Trainable params: 3,012,675
Non-trainable params: 0
__________________________________________________________________________________________________
None

__________________________________________________________________________________________________
…
	One occurrence keys in vocabulary 1660 / 15303
	Attention: important lemmas are not in vocbulary	Embedding
==================================================================================================
	Initialisation = None
	Concatenation = False
	Lemma : 193
	POS = 47 
Deep model(Non compositional)
__________________________________________________________________________________________________
Layer (type)                    Output Shape         Param #     Connected to                     
==================================================================================================
input_99 (InputLayer)           (None, 4)            0                                            
__________________________________________________________________________________________________
input_100 (InputLayer)          (None, 4)            0                                            
__________________________________________________________________________________________________
embedding_99 (Embedding)        (None, 4, 193)       2953479     input_99[0][0]                   
__________________________________________________________________________________________________
embedding_100 (Embedding)       (None, 4, 47)        7943        input_100[0][0]                  
__________________________________________________________________________________________________
flatten_99 (Flatten)            (None, 772)          0           embedding_99[0][0]               
__________________________________________________________________________________________________
flatten_100 (Flatten)           (None, 188)          0           embedding_100[0][0]              
__________________________________________________________________________________________________
concatenate_50 (Concatenate)    (None, 960)          0           flatten_99[0][0]                 
                                                                 flatten_100[0][0]                
__________________________________________________________________________________________________
dense_148 (Dense)               (None, 43)           41323       concatenate_50[0][0]             
__________________________________________________________________________________________________
dropout_99 (Dropout)            (None, 43)           0           dense_148[0][0]                  
__________________________________________________________________________________________________
dense_149 (Dense)               (None, 124)          5456        dropout_99[0][0]                 
__________________________________________________________________________________________________
dropout_100 (Dropout)           (None, 124)          0           dense_149[0][0]                  
__________________________________________________________________________________________________
dense_150 (Dense)               (None, 8)            1000        dropout_100[0][0]                
==================================================================================================
Total params: 3,009,201
Trainable params: 3,009,201
Non-trainable params: 0
__________________________________________________________________________________________________
None

__________________________________________________________________________________________________
…
	One occurrence keys in vocabulary 1660 / 15244
	Attention: important lemmas are not in vocbulary	Embedding
==================================================================================================
	Initialisation = None
	Concatenation = False
	Lemma : 193
	POS = 47 
Deep model(Non compositional)
__________________________________________________________________________________________________
Layer (type)                    Output Shape         Param #     Connected to                     
==================================================================================================
input_101 (InputLayer)          (None, 4)            0                                            
__________________________________________________________________________________________________
input_102 (InputLayer)          (None, 4)            0                                            
__________________________________________________________________________________________________
embedding_101 (Embedding)       (None, 4, 193)       2942092     input_101[0][0]                  
__________________________________________________________________________________________________
embedding_102 (Embedding)       (None, 4, 47)        7943        input_102[0][0]                  
__________________________________________________________________________________________________
flatten_101 (Flatten)           (None, 772)          0           embedding_101[0][0]              
__________________________________________________________________________________________________
flatten_102 (Flatten)           (None, 188)          0           embedding_102[0][0]              
__________________________________________________________________________________________________
concatenate_51 (Concatenate)    (None, 960)          0           flatten_101[0][0]                
                                                                 flatten_102[0][0]                
__________________________________________________________________________________________________
dense_151 (Dense)               (None, 43)           41323       concatenate_51[0][0]             
__________________________________________________________________________________________________
dropout_101 (Dropout)           (None, 43)           0           dense_151[0][0]                  
__________________________________________________________________________________________________
dense_152 (Dense)               (None, 124)          5456        dropout_101[0][0]                
__________________________________________________________________________________________________
dropout_102 (Dropout)           (None, 124)          0           dense_152[0][0]                  
__________________________________________________________________________________________________
dense_153 (Dense)               (None, 8)            1000        dropout_102[0][0]                
==================================================================================================
Total params: 2,997,814
Trainable params: 2,997,814
Non-trainable params: 0
__________________________________________________________________________________________________
None

__________________________________________________________________________________________________
…
	Dashed keys in vocabulary 1979
	One occurrence keys in vocabulary 1979 / 12529
	Embedding
==================================================================================================
	Initialisation = None
	Concatenation = False
	Lemma : 193
	POS = 47 
Deep model(Non compositional)
__________________________________________________________________________________________________
Layer (type)                    Output Shape         Param #     Connected to                     
==================================================================================================
input_103 (InputLayer)          (None, 4)            0                                            
__________________________________________________________________________________________________
input_104 (InputLayer)          (None, 4)            0                                            
__________________________________________________________________________________________________
embedding_103 (Embedding)       (None, 4, 193)       2418097     input_103[0][0]                  
__________________________________________________________________________________________________
embedding_104 (Embedding)       (None, 4, 47)        5170        input_104[0][0]                  
__________________________________________________________________________________________________
flatten_103 (Flatten)           (None, 772)          0           embedding_103[0][0]              
__________________________________________________________________________________________________
flatten_104 (Flatten)           (None, 188)          0           embedding_104[0][0]              
__________________________________________________________________________________________________
concatenate_52 (Concatenate)    (None, 960)          0           flatten_103[0][0]                
                                                                 flatten_104[0][0]                
__________________________________________________________________________________________________
dense_154 (Dense)               (None, 43)           41323       concatenate_52[0][0]             
__________________________________________________________________________________________________
dropout_103 (Dropout)           (None, 43)           0           dense_154[0][0]                  
__________________________________________________________________________________________________
dense_155 (Dense)               (None, 124)          5456        dropout_103[0][0]                
__________________________________________________________________________________________________
dropout_104 (Dropout)           (None, 124)          0           dense_155[0][0]                  
__________________________________________________________________________________________________
dense_156 (Dense)               (None, 8)            1000        dropout_104[0][0]                
==================================================================================================
Total params: 2,471,046
Trainable params: 2,471,046
Non-trainable params: 0
__________________________________________________________________________________________________
None

__________________________________________________________________________________________________
…
	Dashed keys in vocabulary 1979
	One occurrence keys in vocabulary 1979 / 12525
	Embedding
==================================================================================================
	Initialisation = None
	Concatenation = False
	Lemma : 193
	POS = 47 
Deep model(Non compositional)
__________________________________________________________________________________________________
Layer (type)                    Output Shape         Param #     Connected to                     
==================================================================================================
input_105 (InputLayer)          (None, 4)            0                                            
__________________________________________________________________________________________________
input_106 (InputLayer)          (None, 4)            0                                            
__________________________________________________________________________________________________
embedding_105 (Embedding)       (None, 4, 193)       2417325     input_105[0][0]                  
__________________________________________________________________________________________________
embedding_106 (Embedding)       (None, 4, 47)        5170        input_106[0][0]                  
__________________________________________________________________________________________________
flatten_105 (Flatten)           (None, 772)          0           embedding_105[0][0]              
__________________________________________________________________________________________________
flatten_106 (Flatten)           (None, 188)          0           embedding_106[0][0]              
__________________________________________________________________________________________________
concatenate_53 (Concatenate)    (None, 960)          0           flatten_105[0][0]                
                                                                 flatten_106[0][0]                
__________________________________________________________________________________________________
dense_157 (Dense)               (None, 43)           41323       concatenate_53[0][0]             
__________________________________________________________________________________________________
dropout_105 (Dropout)           (None, 43)           0           dense_157[0][0]                  
__________________________________________________________________________________________________
dense_158 (Dense)               (None, 124)          5456        dropout_105[0][0]                
__________________________________________________________________________________________________
dropout_106 (Dropout)           (None, 124)          0           dense_158[0][0]                  
__________________________________________________________________________________________________
dense_159 (Dense)               (None, 8)            1000        dropout_106[0][0]                
==================================================================================================
Total params: 2,470,274
Trainable params: 2,470,274
Non-trainable params: 0
__________________________________________________________________________________________________
None

__________________________________________________________________________________________________
…
	Dashed keys in vocabulary 1979
	One occurrence keys in vocabulary 1979 / 12587
	Embedding
==================================================================================================
	Initialisation = None
	Concatenation = False
	Lemma : 193
	POS = 47 
Deep model(Non compositional)
__________________________________________________________________________________________________
Layer (type)                    Output Shape         Param #     Connected to                     
==================================================================================================
input_107 (InputLayer)          (None, 4)            0                                            
__________________________________________________________________________________________________
input_108 (InputLayer)          (None, 4)            0                                            
__________________________________________________________________________________________________
embedding_107 (Embedding)       (None, 4, 193)       2429291     input_107[0][0]                  
__________________________________________________________________________________________________
embedding_108 (Embedding)       (None, 4, 47)        5170        input_108[0][0]                  
__________________________________________________________________________________________________
flatten_107 (Flatten)           (None, 772)          0           embedding_107[0][0]              
__________________________________________________________________________________________________
flatten_108 (Flatten)           (None, 188)          0           embedding_108[0][0]              
__________________________________________________________________________________________________
concatenate_54 (Concatenate)    (None, 960)          0           flatten_107[0][0]                
                                                                 flatten_108[0][0]                
__________________________________________________________________________________________________
dense_160 (Dense)               (None, 43)           41323       concatenate_54[0][0]             
__________________________________________________________________________________________________
dropout_107 (Dropout)           (None, 43)           0           dense_160[0][0]                  
__________________________________________________________________________________________________
dense_161 (Dense)               (None, 124)          5456        dropout_107[0][0]                
__________________________________________________________________________________________________
dropout_108 (Dropout)           (None, 124)          0           dense_161[0][0]                  
__________________________________________________________________________________________________
dense_162 (Dense)               (None, 8)            1000        dropout_108[0][0]                
==================================================================================================
Total params: 2,482,240
Trainable params: 2,482,240
Non-trainable params: 0
__________________________________________________________________________________________________
None

__________________________________________________________________________________________________
…
	Dashed keys in vocabulary 1622
	One occurrence keys in vocabulary 1622 / 2800
	Embedding
==================================================================================================
	Initialisation = None
	Concatenation = False
	Lemma : 420
	POS = 24 
Deep model(Non compositional)
__________________________________________________________________________________________________
Layer (type)                    Output Shape         Param #     Connected to                     
==================================================================================================
input_109 (InputLayer)          (None, 4)            0                                            
__________________________________________________________________________________________________
input_110 (InputLayer)          (None, 4)            0                                            
__________________________________________________________________________________________________
embedding_109 (Embedding)       (None, 4, 420)       1176000     input_109[0][0]                  
__________________________________________________________________________________________________
embedding_110 (Embedding)       (None, 4, 24)        3648        input_110[0][0]                  
__________________________________________________________________________________________________
flatten_109 (Flatten)           (None, 1680)         0           embedding_109[0][0]              
__________________________________________________________________________________________________
flatten_110 (Flatten)           (None, 96)           0           embedding_110[0][0]              
__________________________________________________________________________________________________
concatenate_55 (Concatenate)    (None, 1776)         0           flatten_109[0][0]                
                                                                 flatten_110[0][0]                
__________________________________________________________________________________________________
dense_163 (Dense)               (None, 9)            15993       concatenate_55[0][0]             
__________________________________________________________________________________________________
dropout_109 (Dropout)           (None, 9)            0           dense_163[0][0]                  
__________________________________________________________________________________________________
dense_164 (Dense)               (None, 23)           230         dropout_109[0][0]                
__________________________________________________________________________________________________
dropout_110 (Dropout)           (None, 23)           0           dense_164[0][0]                  
__________________________________________________________________________________________________
dense_165 (Dense)               (None, 8)            192         dropout_110[0][0]                
==================================================================================================
Total params: 1,196,063
Trainable params: 1,196,063
Non-trainable params: 0
__________________________________________________________________________________________________
None

__________________________________________________________________________________________________
…
	One occurrence keys in vocabulary 1660 / 2793
	Attention: important lemmas are not in vocbulary	Embedding
==================================================================================================
	Initialisation = None
	Concatenation = False
	Lemma : 420
	POS = 24 
Deep model(Non compositional)
__________________________________________________________________________________________________
Layer (type)                    Output Shape         Param #     Connected to                     
==================================================================================================
input_115 (InputLayer)          (None, 4)            0                                            
__________________________________________________________________________________________________
input_116 (InputLayer)          (None, 4)            0                                            
__________________________________________________________________________________________________
embedding_115 (Embedding)       (None, 4, 420)       1173060     input_115[0][0]                  
__________________________________________________________________________________________________
embedding_116 (Embedding)       (None, 4, 24)        4056        input_116[0][0]                  
__________________________________________________________________________________________________
flatten_115 (Flatten)           (None, 1680)         0           embedding_115[0][0]              
__________________________________________________________________________________________________
flatten_116 (Flatten)           (None, 96)           0           embedding_116[0][0]              
__________________________________________________________________________________________________
concatenate_58 (Concatenate)    (None, 1776)         0           flatten_115[0][0]                
                                                                 flatten_116[0][0]                
__________________________________________________________________________________________________
dense_172 (Dense)               (None, 9)            15993       concatenate_58[0][0]             
__________________________________________________________________________________________________
dropout_115 (Dropout)           (None, 9)            0           dense_172[0][0]                  
__________________________________________________________________________________________________
dense_173 (Dense)               (None, 23)           230         dropout_115[0][0]                
__________________________________________________________________________________________________
dropout_116 (Dropout)           (None, 23)           0           dense_173[0][0]                  
__________________________________________________________________________________________________
dense_174 (Dense)               (None, 8)            192         dropout_116[0][0]                
==================================================================================================
Total params: 1,193,531
Trainable params: 1,193,531
Non-trainable params: 0
__________________________________________________________________________________________________
None

__________________________________________________________________________________________________
…
	Dashed keys in vocabulary 1979
	One occurrence keys in vocabulary 1979 / 3181
	Embedding
==================================================================================================
	Initialisation = None
	Concatenation = False
	Lemma : 420
	POS = 24 
Deep model(Non compositional)
__________________________________________________________________________________________________
Layer (type)                    Output Shape         Param #     Connected to                     
==================================================================================================
input_121 (InputLayer)          (None, 4)            0                                            
__________________________________________________________________________________________________
input_122 (InputLayer)          (None, 4)            0                                            
__________________________________________________________________________________________________
embedding_121 (Embedding)       (None, 4, 420)       1336020     input_121[0][0]                  
__________________________________________________________________________________________________
embedding_122 (Embedding)       (None, 4, 24)        2640        input_122[0][0]                  
__________________________________________________________________________________________________
flatten_121 (Flatten)           (None, 1680)         0           embedding_121[0][0]              
__________________________________________________________________________________________________
flatten_122 (Flatten)           (None, 96)           0           embedding_122[0][0]              
__________________________________________________________________________________________________
concatenate_61 (Concatenate)    (None, 1776)         0           flatten_121[0][0]                
                                                                 flatten_122[0][0]                
__________________________________________________________________________________________________
dense_181 (Dense)               (None, 9)            15993       concatenate_61[0][0]             
__________________________________________________________________________________________________
dropout_121 (Dropout)           (None, 9)            0           dense_181[0][0]                  
__________________________________________________________________________________________________
dense_182 (Dense)               (None, 23)           230         dropout_121[0][0]                
__________________________________________________________________________________________________
dropout_122 (Dropout)           (None, 23)           0           dense_182[0][0]                  
__________________________________________________________________________________________________
dense_183 (Dense)               (None, 8)            192         dropout_122[0][0]                
==================================================================================================
Total params: 1,355,075
Trainable params: 1,355,075
Non-trainable params: 0
__________________________________________________________________________________________________
None

__________________________________________________________________________________________________
…
	Dashed keys in vocabulary 1622
	One occurrence keys in vocabulary 1622 / 12174
	Embedding
==================================================================================================
	Initialisation = None
	Concatenation = False
	Lemma : 247
	POS = 108 
Deep model(Non compositional)
__________________________________________________________________________________________________
Layer (type)                    Output Shape         Param #     Connected to                     
==================================================================================================
input_127 (InputLayer)          (None, 4)            0                                            
__________________________________________________________________________________________________
input_128 (InputLayer)          (None, 4)            0                                            
__________________________________________________________________________________________________
embedding_127 (Embedding)       (None, 4, 247)       3006978     input_127[0][0]                  
__________________________________________________________________________________________________
embedding_128 (Embedding)       (None, 4, 108)       16416       input_128[0][0]                  
__________________________________________________________________________________________________
flatten_127 (Flatten)           (None, 988)          0           embedding_127[0][0]              
__________________________________________________________________________________________________
flatten_128 (Flatten)           (None, 432)          0           embedding_128[0][0]              
__________________________________________________________________________________________________
concatenate_64 (Concatenate)    (None, 1420)         0           flatten_127[0][0]                
                                                                 flatten_128[0][0]                
__________________________________________________________________________________________________
dense_190 (Dense)               (None, 39)           55419       concatenate_64[0][0]             
__________________________________________________________________________________________________
dropout_127 (Dropout)           (None, 39)           0           dense_190[0][0]                  
__________________________________________________________________________________________________
dense_191 (Dense)               (None, 111)          4440        dropout_127[0][0]                
__________________________________________________________________________________________________
dropout_128 (Dropout)           (None, 111)          0           dense_191[0][0]                  
__________________________________________________________________________________________________
dense_192 (Dense)               (None, 8)            896         dropout_128[0][0]                
==================================================================================================
Total params: 3,084,149
Trainable params: 3,084,149
Non-trainable params: 0
__________________________________________________________________________________________________
None

__________________________________________________________________________________________________
…
	Dashed keys in vocabulary 1622
	One occurrence keys in vocabulary 1622 / 12142
	Embedding
==================================================================================================
	Initialisation = None
	Concatenation = False
	Lemma : 247
	POS = 108 
Deep model(Non compositional)
__________________________________________________________________________________________________
Layer (type)                    Output Shape         Param #     Connected to                     
==================================================================================================
input_129 (InputLayer)          (None, 4)            0                                            
__________________________________________________________________________________________________
input_130 (InputLayer)          (None, 4)            0                                            
__________________________________________________________________________________________________
embedding_129 (Embedding)       (None, 4, 247)       2999074     input_129[0][0]                  
__________________________________________________________________________________________________
embedding_130 (Embedding)       (None, 4, 108)       16416       input_130[0][0]                  
__________________________________________________________________________________________________
flatten_129 (Flatten)           (None, 988)          0           embedding_129[0][0]              
__________________________________________________________________________________________________
flatten_130 (Flatten)           (None, 432)          0           embedding_130[0][0]              
__________________________________________________________________________________________________
concatenate_65 (Concatenate)    (None, 1420)         0           flatten_129[0][0]                
                                                                 flatten_130[0][0]                
__________________________________________________________________________________________________
dense_193 (Dense)               (None, 39)           55419       concatenate_65[0][0]             
__________________________________________________________________________________________________
dropout_129 (Dropout)           (None, 39)           0           dense_193[0][0]                  
__________________________________________________________________________________________________
dense_194 (Dense)               (None, 111)          4440        dropout_129[0][0]                
__________________________________________________________________________________________________
dropout_130 (Dropout)           (None, 111)          0           dense_194[0][0]                  
__________________________________________________________________________________________________
dense_195 (Dense)               (None, 8)            896         dropout_130[0][0]                
==================================================================================================
Total params: 3,076,245
Trainable params: 3,076,245
Non-trainable params: 0
__________________________________________________________________________________________________
None

__________________________________________________________________________________________________
…
	Dashed keys in vocabulary 1622
	One occurrence keys in vocabulary 1622 / 12159
	Embedding
==================================================================================================
	Initialisation = None
	Concatenation = False
	Lemma : 247
	POS = 108 
Deep model(Non compositional)
__________________________________________________________________________________________________
Layer (type)                    Output Shape         Param #     Connected to                     
==================================================================================================
input_131 (InputLayer)          (None, 4)            0                                            
__________________________________________________________________________________________________
input_132 (InputLayer)          (None, 4)            0                                            
__________________________________________________________________________________________________
embedding_131 (Embedding)       (None, 4, 247)       3003273     input_131[0][0]                  
__________________________________________________________________________________________________
embedding_132 (Embedding)       (None, 4, 108)       16416       input_132[0][0]                  
__________________________________________________________________________________________________
flatten_131 (Flatten)           (None, 988)          0           embedding_131[0][0]              
__________________________________________________________________________________________________
flatten_132 (Flatten)           (None, 432)          0           embedding_132[0][0]              
__________________________________________________________________________________________________
concatenate_66 (Concatenate)    (None, 1420)         0           flatten_131[0][0]                
                                                                 flatten_132[0][0]                
__________________________________________________________________________________________________
dense_196 (Dense)               (None, 39)           55419       concatenate_66[0][0]             
__________________________________________________________________________________________________
dropout_131 (Dropout)           (None, 39)           0           dense_196[0][0]                  
__________________________________________________________________________________________________
dense_197 (Dense)               (None, 111)          4440        dropout_131[0][0]                
__________________________________________________________________________________________________
dropout_132 (Dropout)           (None, 111)          0           dense_197[0][0]                  
__________________________________________________________________________________________________
dense_198 (Dense)               (None, 8)            896         dropout_132[0][0]                
==================================================================================================
Total params: 3,080,444
Trainable params: 3,080,444
Non-trainable params: 0
__________________________________________________________________________________________________
None

__________________________________________________________________________________________________
…
	One occurrence keys in vocabulary 1660 / 15321
	Attention: important lemmas are not in vocbulary	Embedding
==================================================================================================
	Initialisation = None
	Concatenation = False
	Lemma : 247
	POS = 108 
Deep model(Non compositional)
__________________________________________________________________________________________________
Layer (type)                    Output Shape         Param #     Connected to                     
==================================================================================================
input_133 (InputLayer)          (None, 4)            0                                            
__________________________________________________________________________________________________
input_134 (InputLayer)          (None, 4)            0                                            
__________________________________________________________________________________________________
embedding_133 (Embedding)       (None, 4, 247)       3784287     input_133[0][0]                  
__________________________________________________________________________________________________
embedding_134 (Embedding)       (None, 4, 108)       18252       input_134[0][0]                  
__________________________________________________________________________________________________
flatten_133 (Flatten)           (None, 988)          0           embedding_133[0][0]              
__________________________________________________________________________________________________
flatten_134 (Flatten)           (None, 432)          0           embedding_134[0][0]              
__________________________________________________________________________________________________
concatenate_67 (Concatenate)    (None, 1420)         0           flatten_133[0][0]                
                                                                 flatten_134[0][0]                
__________________________________________________________________________________________________
dense_199 (Dense)               (None, 39)           55419       concatenate_67[0][0]             
__________________________________________________________________________________________________
dropout_133 (Dropout)           (None, 39)           0           dense_199[0][0]                  
__________________________________________________________________________________________________
dense_200 (Dense)               (None, 111)          4440        dropout_133[0][0]                
__________________________________________________________________________________________________
dropout_134 (Dropout)           (None, 111)          0           dense_200[0][0]                  
__________________________________________________________________________________________________
dense_201 (Dense)               (None, 8)            896         dropout_134[0][0]                
==================================================================================================
Total params: 3,863,294
Trainable params: 3,863,294
Non-trainable params: 0
__________________________________________________________________________________________________
None

__________________________________________________________________________________________________
…
	One occurrence keys in vocabulary 1660 / 15303
	Attention: important lemmas are not in vocbulary	Embedding
==================================================================================================
	Initialisation = None
	Concatenation = False
	Lemma : 247
	POS = 108 
Deep model(Non compositional)
__________________________________________________________________________________________________
Layer (type)                    Output Shape         Param #     Connected to                     
==================================================================================================
input_135 (InputLayer)          (None, 4)            0                                            
__________________________________________________________________________________________________
input_136 (InputLayer)          (None, 4)            0                                            
__________________________________________________________________________________________________
embedding_135 (Embedding)       (None, 4, 247)       3779841     input_135[0][0]                  
__________________________________________________________________________________________________
embedding_136 (Embedding)       (None, 4, 108)       18252       input_136[0][0]                  
__________________________________________________________________________________________________
flatten_135 (Flatten)           (None, 988)          0           embedding_135[0][0]              
__________________________________________________________________________________________________
flatten_136 (Flatten)           (None, 432)          0           embedding_136[0][0]              
__________________________________________________________________________________________________
concatenate_68 (Concatenate)    (None, 1420)         0           flatten_135[0][0]                
                                                                 flatten_136[0][0]                
__________________________________________________________________________________________________
dense_202 (Dense)               (None, 39)           55419       concatenate_68[0][0]             
__________________________________________________________________________________________________
dropout_135 (Dropout)           (None, 39)           0           dense_202[0][0]                  
__________________________________________________________________________________________________
dense_203 (Dense)               (None, 111)          4440        dropout_135[0][0]                
__________________________________________________________________________________________________
dropout_136 (Dropout)           (None, 111)          0           dense_203[0][0]                  
__________________________________________________________________________________________________
dense_204 (Dense)               (None, 8)            896         dropout_136[0][0]                
==================================================================================================
Total params: 3,858,848
Trainable params: 3,858,848
Non-trainable params: 0
__________________________________________________________________________________________________
None

__________________________________________________________________________________________________
…
	One occurrence keys in vocabulary 1660 / 15244
	Attention: important lemmas are not in vocbulary	Embedding
==================================================================================================
	Initialisation = None
	Concatenation = False
	Lemma : 247
	POS = 108 
Deep model(Non compositional)
__________________________________________________________________________________________________
Layer (type)                    Output Shape         Param #     Connected to                     
==================================================================================================
input_137 (InputLayer)          (None, 4)            0                                            
__________________________________________________________________________________________________
input_138 (InputLayer)          (None, 4)            0                                            
__________________________________________________________________________________________________
embedding_137 (Embedding)       (None, 4, 247)       3765268     input_137[0][0]                  
__________________________________________________________________________________________________
embedding_138 (Embedding)       (None, 4, 108)       18252       input_138[0][0]                  
__________________________________________________________________________________________________
flatten_137 (Flatten)           (None, 988)          0           embedding_137[0][0]              
__________________________________________________________________________________________________
flatten_138 (Flatten)           (None, 432)          0           embedding_138[0][0]              
__________________________________________________________________________________________________
concatenate_69 (Concatenate)    (None, 1420)         0           flatten_137[0][0]                
                                                                 flatten_138[0][0]                
__________________________________________________________________________________________________
dense_205 (Dense)               (None, 39)           55419       concatenate_69[0][0]             
__________________________________________________________________________________________________
dropout_137 (Dropout)           (None, 39)           0           dense_205[0][0]                  
__________________________________________________________________________________________________
dense_206 (Dense)               (None, 111)          4440        dropout_137[0][0]                
__________________________________________________________________________________________________
dropout_138 (Dropout)           (None, 111)          0           dense_206[0][0]                  
__________________________________________________________________________________________________
dense_207 (Dense)               (None, 8)            896         dropout_138[0][0]                
==================================================================================================
Total params: 3,844,275
Trainable params: 3,844,275
Non-trainable params: 0
__________________________________________________________________________________________________
None

__________________________________________________________________________________________________
…
	Dashed keys in vocabulary 1979
	One occurrence keys in vocabulary 1979 / 12529
	Embedding
==================================================================================================
	Initialisation = None
	Concatenation = False
	Lemma : 247
	POS = 108 
Deep model(Non compositional)
__________________________________________________________________________________________________
Layer (type)                    Output Shape         Param #     Connected to                     
==================================================================================================
input_139 (InputLayer)          (None, 4)            0                                            
__________________________________________________________________________________________________
input_140 (InputLayer)          (None, 4)            0                                            
__________________________________________________________________________________________________
embedding_139 (Embedding)       (None, 4, 247)       3094663     input_139[0][0]                  
__________________________________________________________________________________________________
embedding_140 (Embedding)       (None, 4, 108)       11880       input_140[0][0]                  
__________________________________________________________________________________________________
flatten_139 (Flatten)           (None, 988)          0           embedding_139[0][0]              
__________________________________________________________________________________________________
flatten_140 (Flatten)           (None, 432)          0           embedding_140[0][0]              
__________________________________________________________________________________________________
concatenate_70 (Concatenate)    (None, 1420)         0           flatten_139[0][0]                
                                                                 flatten_140[0][0]                
__________________________________________________________________________________________________
dense_208 (Dense)               (None, 39)           55419       concatenate_70[0][0]             
__________________________________________________________________________________________________
dropout_139 (Dropout)           (None, 39)           0           dense_208[0][0]                  
__________________________________________________________________________________________________
dense_209 (Dense)               (None, 111)          4440        dropout_139[0][0]                
__________________________________________________________________________________________________
dropout_140 (Dropout)           (None, 111)          0           dense_209[0][0]                  
__________________________________________________________________________________________________
dense_210 (Dense)               (None, 8)            896         dropout_140[0][0]                
==================================================================================================
Total params: 3,167,298
Trainable params: 3,167,298
Non-trainable params: 0
__________________________________________________________________________________________________
None

__________________________________________________________________________________________________
…
	Dashed keys in vocabulary 1979
	One occurrence keys in vocabulary 1979 / 12525
	Embedding
==================================================================================================
	Initialisation = None
	Concatenation = False
	Lemma : 247
	POS = 108 
Deep model(Non compositional)
__________________________________________________________________________________________________
Layer (type)                    Output Shape         Param #     Connected to                     
==================================================================================================
input_141 (InputLayer)          (None, 4)            0                                            
__________________________________________________________________________________________________
input_142 (InputLayer)          (None, 4)            0                                            
__________________________________________________________________________________________________
embedding_141 (Embedding)       (None, 4, 247)       3093675     input_141[0][0]                  
__________________________________________________________________________________________________
embedding_142 (Embedding)       (None, 4, 108)       11880       input_142[0][0]                  
__________________________________________________________________________________________________
flatten_141 (Flatten)           (None, 988)          0           embedding_141[0][0]              
__________________________________________________________________________________________________
flatten_142 (Flatten)           (None, 432)          0           embedding_142[0][0]              
__________________________________________________________________________________________________
concatenate_71 (Concatenate)    (None, 1420)         0           flatten_141[0][0]                
                                                                 flatten_142[0][0]                
__________________________________________________________________________________________________
dense_211 (Dense)               (None, 39)           55419       concatenate_71[0][0]             
__________________________________________________________________________________________________
dropout_141 (Dropout)           (None, 39)           0           dense_211[0][0]                  
__________________________________________________________________________________________________
dense_212 (Dense)               (None, 111)          4440        dropout_141[0][0]                
__________________________________________________________________________________________________
dropout_142 (Dropout)           (None, 111)          0           dense_212[0][0]                  
__________________________________________________________________________________________________
dense_213 (Dense)               (None, 8)            896         dropout_142[0][0]                
==================================================================================================
Total params: 3,166,310
Trainable params: 3,166,310
Non-trainable params: 0
__________________________________________________________________________________________________
None

__________________________________________________________________________________________________
…
	Dashed keys in vocabulary 1979
	One occurrence keys in vocabulary 1979 / 12587
	Embedding
==================================================================================================
	Initialisation = None
	Concatenation = False
	Lemma : 247
	POS = 108 
Deep model(Non compositional)
__________________________________________________________________________________________________
Layer (type)                    Output Shape         Param #     Connected to                     
==================================================================================================
input_143 (InputLayer)          (None, 4)            0                                            
__________________________________________________________________________________________________
input_144 (InputLayer)          (None, 4)            0                                            
__________________________________________________________________________________________________
embedding_143 (Embedding)       (None, 4, 247)       3108989     input_143[0][0]                  
__________________________________________________________________________________________________
embedding_144 (Embedding)       (None, 4, 108)       11880       input_144[0][0]                  
__________________________________________________________________________________________________
flatten_143 (Flatten)           (None, 988)          0           embedding_143[0][0]              
__________________________________________________________________________________________________
flatten_144 (Flatten)           (None, 432)          0           embedding_144[0][0]              
__________________________________________________________________________________________________
concatenate_72 (Concatenate)    (None, 1420)         0           flatten_143[0][0]                
                                                                 flatten_144[0][0]                
__________________________________________________________________________________________________
dense_214 (Dense)               (None, 39)           55419       concatenate_72[0][0]             
__________________________________________________________________________________________________
dropout_143 (Dropout)           (None, 39)           0           dense_214[0][0]                  
__________________________________________________________________________________________________
dense_215 (Dense)               (None, 111)          4440        dropout_143[0][0]                
__________________________________________________________________________________________________
dropout_144 (Dropout)           (None, 111)          0           dense_215[0][0]                  
__________________________________________________________________________________________________
dense_216 (Dense)               (None, 8)            896         dropout_144[0][0]                
==================================================================================================
Total params: 3,181,624
Trainable params: 3,181,624
Non-trainable params: 0
__________________________________________________________________________________________________
None

__________________________________________________________________________________________________
…
