…
__________________________________________________________________________________________________
        Embedding
==================================================================================================
        Initialisation = None
        Concatenation = False
        Lemma : 200
        POS = 15
Deep model(Non compositional)
__________________________________________________________________________________________________
Layer (type)                    Output Shape         Param #     Connected to
==================================================================================================
input_1 (InputLayer)            (None, 4)            0
__________________________________________________________________________________________________
input_2 (InputLayer)            (None, 4)            0
__________________________________________________________________________________________________
embedding_1 (Embedding)         (None, 4, 200)       1384600     input_1[0][0]
__________________________________________________________________________________________________
embedding_2 (Embedding)         (None, 4, 15)        3495        input_2[0][0]
__________________________________________________________________________________________________
flatten_1 (Flatten)             (None, 800)          0           embedding_1[0][0]
__________________________________________________________________________________________________
flatten_2 (Flatten)             (None, 60)           0           embedding_2[0][0]
__________________________________________________________________________________________________
concatenate_1 (Concatenate)     (None, 860)          0           flatten_1[0][0]
                                                                 flatten_2[0][0]
__________________________________________________________________________________________________
dense_1 (Dense)                 (None, 25)           21525       concatenate_1[0][0]
__________________________________________________________________________________________________
dropout_1 (Dropout)             (None, 25)           0           dense_1[0][0]
__________________________________________________________________________________________________
dense_2 (Dense)                 (None, 8)            208         dropout_1[0][0]
==================================================================================================
Total params: 1,409,828
Trainable params: 1,409,828
Non-trainable params: 0
__________________________________________________________________________________________________
None

__________________________________________________________________________________________________
…
