…
	Training (Important) : 11506, Test : 2541
	MWEs in tain : 7100, occurrences : 25744
	Impotant words in tain : 4638
	MWE length mean : 2.66
	Seen MWEs : 3130 (77 %)
	New MWEs : 909 (22 %)
==================================================================================================
__________________________________________________________________________________________________
Layer (type)                    Output Shape         Param #     Connected to                     
==================================================================================================
input_1 (InputLayer)            (None, 7)            0                                            
__________________________________________________________________________________________________
input_2 (InputLayer)            (None, 7)            0                                            
__________________________________________________________________________________________________
embedding_1 (Embedding)         (None, 7, 410)       1902810     input_1[0][0]                    
__________________________________________________________________________________________________
embedding_2 (Embedding)         (None, 7, 54)        1188        input_2[0][0]                    
__________________________________________________________________________________________________
gru_1 (GRU)                     (None, 25)           32700       embedding_1[0][0]                
__________________________________________________________________________________________________
gru_2 (GRU)                     (None, 15)           3150        embedding_2[0][0]                
__________________________________________________________________________________________________
dropout_1 (Dropout)             (None, 25)           0           gru_1[0][0]                      
__________________________________________________________________________________________________
dropout_2 (Dropout)             (None, 15)           0           gru_2[0][0]                      
__________________________________________________________________________________________________
concatenate_1 (Concatenate)     (None, 40)           0           dropout_1[0][0]                  
                                                                 dropout_2[0][0]                  
__________________________________________________________________________________________________
dense_1 (Dense)                 (None, 51)           2091        concatenate_1[0][0]              
__________________________________________________________________________________________________
dropout_3 (Dropout)             (None, 51)           0           dense_1[0][0]                    
__________________________________________________________________________________________________
dense_2 (Dense)                 (None, 4)            208         dropout_3[0][0]                  
==================================================================================================
Total params: 1,942,147
Trainable params: 1,942,147
Non-trainable params: 0
__________________________________________________________________________________________________
None
Train on 1446285 samples, validate on 160699 samples
Epoch 1/20
 - 1404s - loss: 0.1005 - acc: 0.9675 - val_loss: 0.1295 - val_acc: 0.9960
…
	Training (Important) : 10585, Test : 2541
	MWEs in tain : 6789, occurrences : 23628
	Impotant words in tain : 4468
	MWE length mean : 2.66
	Seen MWEs : 3102 (76 %)
	New MWEs : 937 (23 %)
==================================================================================================
__________________________________________________________________________________________________
Layer (type)                    Output Shape         Param #     Connected to                     
==================================================================================================
input_3 (InputLayer)            (None, 7)            0                                            
__________________________________________________________________________________________________
input_4 (InputLayer)            (None, 7)            0                                            
__________________________________________________________________________________________________
embedding_3 (Embedding)         (None, 7, 410)       1833110     input_3[0][0]                    
__________________________________________________________________________________________________
embedding_4 (Embedding)         (None, 7, 54)        1188        input_4[0][0]                    
__________________________________________________________________________________________________
gru_3 (GRU)                     (None, 25)           32700       embedding_3[0][0]                
__________________________________________________________________________________________________
gru_4 (GRU)                     (None, 15)           3150        embedding_4[0][0]                
__________________________________________________________________________________________________
dropout_4 (Dropout)             (None, 25)           0           gru_3[0][0]                      
__________________________________________________________________________________________________
dropout_5 (Dropout)             (None, 15)           0           gru_4[0][0]                      
__________________________________________________________________________________________________
concatenate_2 (Concatenate)     (None, 40)           0           dropout_4[0][0]                  
                                                                 dropout_5[0][0]                  
__________________________________________________________________________________________________
dense_3 (Dense)                 (None, 51)           2091        concatenate_2[0][0]              
__________________________________________________________________________________________________
dropout_6 (Dropout)             (None, 51)           0           dense_3[0][0]                    
__________________________________________________________________________________________________
dense_4 (Dense)                 (None, 4)            208         dropout_6[0][0]                  
==================================================================================================
Total params: 1,872,447
Trainable params: 1,872,447
Non-trainable params: 0
__________________________________________________________________________________________________
None
Train on 1327690 samples, validate on 147522 samples
Epoch 1/20
 - 1259s - loss: 0.1023 - acc: 0.9670 - val_loss: 0.1221 - val_acc: 0.9974
…
	Training (Important) : 2643, Test : 1000
	MWEs in tain : 2869, occurrences : 4232
	Impotant words in tain : 2942
	MWE length mean : 2.34
	Seen MWEs : 187 (22 %)
	New MWEs : 650 (77 %)
==================================================================================================
__________________________________________________________________________________________________
Layer (type)                    Output Shape         Param #     Connected to                     
==================================================================================================
input_7 (InputLayer)            (None, 7)            0                                            
__________________________________________________________________________________________________
input_8 (InputLayer)            (None, 7)            0                                            
__________________________________________________________________________________________________
embedding_7 (Embedding)         (None, 7, 410)       1207450     input_7[0][0]                    
__________________________________________________________________________________________________
embedding_8 (Embedding)         (None, 7, 54)        1026        input_8[0][0]                    
__________________________________________________________________________________________________
gru_7 (GRU)                     (None, 25)           32700       embedding_7[0][0]                
__________________________________________________________________________________________________
gru_8 (GRU)                     (None, 15)           3150        embedding_8[0][0]                
__________________________________________________________________________________________________
dropout_10 (Dropout)            (None, 25)           0           gru_7[0][0]                      
__________________________________________________________________________________________________
dropout_11 (Dropout)            (None, 15)           0           gru_8[0][0]                      
__________________________________________________________________________________________________
concatenate_4 (Concatenate)     (None, 40)           0           dropout_10[0][0]                 
                                                                 dropout_11[0][0]                 
__________________________________________________________________________________________________
dense_7 (Dense)                 (None, 51)           2091        concatenate_4[0][0]              
__________________________________________________________________________________________________
dropout_12 (Dropout)            (None, 51)           0           dense_7[0][0]                    
__________________________________________________________________________________________________
dense_8 (Dense)                 (None, 4)            208         dropout_12[0][0]                 
==================================================================================================
Total params: 1,246,625
Trainable params: 1,246,625
Non-trainable params: 0
__________________________________________________________________________________________________
None
Train on 179863 samples, validate on 19985 samples
Epoch 1/20
 - 166s - loss: 0.1658 - acc: 0.9435 - val_loss: 0.1624 - val_acc: 0.9978
…
