…
	Training (Important) : 3124, Test : 1954
	MWEs in tain : 1372, occurrences : 3583
	Impotant words in tain : 1175
	MWE length mean : 2.13
	Seen MWEs : 386 (57 %)
	New MWEs : 284 (42 %)
==================================================================================================
__________________________________________________________________________________________________
Layer (type)                    Output Shape         Param #     Connected to                     
==================================================================================================
input_1 (InputLayer)            (None, 7)            0                                            
__________________________________________________________________________________________________
input_2 (InputLayer)            (None, 7)            0                                            
__________________________________________________________________________________________________
embedding_1 (Embedding)         (None, 7, 226)       266228      input_1[0][0]                    
__________________________________________________________________________________________________
embedding_2 (Embedding)         (None, 7, 48)        912         input_2[0][0]                    
__________________________________________________________________________________________________
gru_1 (GRU)                     (None, 20)           14820       embedding_1[0][0]                
__________________________________________________________________________________________________
gru_2 (GRU)                     (None, 15)           2880        embedding_2[0][0]                
__________________________________________________________________________________________________
dropout_1 (Dropout)             (None, 20)           0           gru_1[0][0]                      
__________________________________________________________________________________________________
dropout_2 (Dropout)             (None, 15)           0           gru_2[0][0]                      
__________________________________________________________________________________________________
concatenate_1 (Concatenate)     (None, 35)           0           dropout_1[0][0]                  
                                                                 dropout_2[0][0]                  
__________________________________________________________________________________________________
dense_1 (Dense)                 (None, 77)           2772        concatenate_1[0][0]              
__________________________________________________________________________________________________
dropout_3 (Dropout)             (None, 77)           0           dense_1[0][0]                    
__________________________________________________________________________________________________
dense_2 (Dense)                 (None, 4)            312         dropout_3[0][0]                  
==================================================================================================
Total params: 287,924
Trainable params: 287,924
Non-trainable params: 0
__________________________________________________________________________________________________
None
Train on 320835 samples, validate on 35649 samples
Epoch 1/20
 - 163s - loss: 0.0775 - acc: 0.9783 - val_loss: 0.0602 - val_acc: 0.9985
…
	Training (Important) : 2305, Test : 3117
	MWEs in tain : 1396, occurrences : 2518
	Impotant words in tain : 1131
	MWE length mean : 2.22
	Seen MWEs : 340 (61 %)
	New MWEs : 213 (38 %)
==================================================================================================
__________________________________________________________________________________________________
Layer (type)                    Output Shape         Param #     Connected to                     
==================================================================================================
input_3 (InputLayer)            (None, 7)            0                                            
__________________________________________________________________________________________________
input_4 (InputLayer)            (None, 7)            0                                            
__________________________________________________________________________________________________
embedding_3 (Embedding)         (None, 7, 226)       256284      input_3[0][0]                    
__________________________________________________________________________________________________
embedding_4 (Embedding)         (None, 7, 48)        912         input_4[0][0]                    
__________________________________________________________________________________________________
gru_3 (GRU)                     (None, 20)           14820       embedding_3[0][0]                
__________________________________________________________________________________________________
gru_4 (GRU)                     (None, 15)           2880        embedding_4[0][0]                
__________________________________________________________________________________________________
dropout_4 (Dropout)             (None, 20)           0           gru_3[0][0]                      
__________________________________________________________________________________________________
dropout_5 (Dropout)             (None, 15)           0           gru_4[0][0]                      
__________________________________________________________________________________________________
concatenate_2 (Concatenate)     (None, 35)           0           dropout_4[0][0]                  
                                                                 dropout_5[0][0]                  
__________________________________________________________________________________________________
dense_3 (Dense)                 (None, 77)           2772        concatenate_2[0][0]              
__________________________________________________________________________________________________
dropout_6 (Dropout)             (None, 77)           0           dense_3[0][0]                    
__________________________________________________________________________________________________
dense_4 (Dense)                 (None, 4)            312         dropout_6[0][0]                  
==================================================================================================
Total params: 277,980
Trainable params: 277,980
Non-trainable params: 0
__________________________________________________________________________________________________
None
Train on 217231 samples, validate on 24137 samples
Epoch 1/20
 - 112s - loss: 0.0908 - acc: 0.9724 - val_loss: 0.0621 - val_acc: 0.9988
…
	Training (Important) : 3585, Test : 1320
	MWEs in tain : 1790, occurrences : 4856
	Impotant words in tain : 1200
	MWE length mean : 2.06
	Seen MWEs : 345 (67 %)
	New MWEs : 165 (32 %)
==================================================================================================
__________________________________________________________________________________________________
Layer (type)                    Output Shape         Param #     Connected to                     
==================================================================================================
input_5 (InputLayer)            (None, 7)            0                                            
__________________________________________________________________________________________________
input_6 (InputLayer)            (None, 7)            0                                            
__________________________________________________________________________________________________
embedding_5 (Embedding)         (None, 7, 226)       271878      input_5[0][0]                    
__________________________________________________________________________________________________
embedding_6 (Embedding)         (None, 7, 48)        672         input_6[0][0]                    
__________________________________________________________________________________________________
gru_5 (GRU)                     (None, 20)           14820       embedding_5[0][0]                
__________________________________________________________________________________________________
gru_6 (GRU)                     (None, 15)           2880        embedding_6[0][0]                
__________________________________________________________________________________________________
dropout_7 (Dropout)             (None, 20)           0           gru_5[0][0]                      
__________________________________________________________________________________________________
dropout_8 (Dropout)             (None, 15)           0           gru_6[0][0]                      
__________________________________________________________________________________________________
concatenate_3 (Concatenate)     (None, 35)           0           dropout_7[0][0]                  
                                                                 dropout_8[0][0]                  
__________________________________________________________________________________________________
dense_5 (Dense)                 (None, 77)           2772        concatenate_3[0][0]              
__________________________________________________________________________________________________
dropout_9 (Dropout)             (None, 77)           0           dense_5[0][0]                    
__________________________________________________________________________________________________
dense_6 (Dense)                 (None, 4)            312         dropout_9[0][0]                  
==================================================================================================
Total params: 293,334
Trainable params: 293,334
Non-trainable params: 0
__________________________________________________________________________________________________
None
Train on 432446 samples, validate on 48050 samples
Epoch 1/20
 - 222s - loss: 0.0778 - acc: 0.9767 - val_loss: 0.0862 - val_acc: 1.0000
…
	Training (Important) : 3124, Test : 1954
	MWEs in tain : 1372, occurrences : 3583
	Impotant words in tain : 1175
	MWE length mean : 2.13
	Seen MWEs : 386 (57 %)
	New MWEs : 284 (42 %)
==================================================================================================
__________________________________________________________________________________________________
Layer (type)                    Output Shape         Param #     Connected to                     
==================================================================================================
input_7 (InputLayer)            (None, 7)            0                                            
__________________________________________________________________________________________________
input_8 (InputLayer)            (None, 7)            0                                            
__________________________________________________________________________________________________
embedding_7 (Embedding)         (None, 7, 302)       355756      input_7[0][0]                    
__________________________________________________________________________________________________
embedding_8 (Embedding)         (None, 7, 49)        931         input_8[0][0]                    
__________________________________________________________________________________________________
gru_7 (GRU)                     (None, 99)           119394      embedding_7[0][0]                
__________________________________________________________________________________________________
gru_8 (GRU)                     (None, 47)           13677       embedding_8[0][0]                
__________________________________________________________________________________________________
dropout_10 (Dropout)            (None, 99)           0           gru_7[0][0]                      
__________________________________________________________________________________________________
dropout_11 (Dropout)            (None, 47)           0           gru_8[0][0]                      
__________________________________________________________________________________________________
concatenate_4 (Concatenate)     (None, 146)          0           dropout_10[0][0]                 
                                                                 dropout_11[0][0]                 
__________________________________________________________________________________________________
dense_7 (Dense)                 (None, 69)           10143       concatenate_4[0][0]              
__________________________________________________________________________________________________
dropout_12 (Dropout)            (None, 69)           0           dense_7[0][0]                    
__________________________________________________________________________________________________
dense_8 (Dense)                 (None, 4)            280         dropout_12[0][0]                 
==================================================================================================
Total params: 500,181
Trainable params: 500,181
Non-trainable params: 0
__________________________________________________________________________________________________
None
Train on 320835 samples, validate on 35649 samples
Epoch 1/20
 - 39s - loss: 0.0833 - acc: 0.9764 - val_loss: 0.1160 - val_acc: 0.9996
…
	Training (Important) : 2305, Test : 3117
	MWEs in tain : 1396, occurrences : 2518
	Impotant words in tain : 1131
	MWE length mean : 2.22
	Seen MWEs : 340 (61 %)
	New MWEs : 213 (38 %)
==================================================================================================
__________________________________________________________________________________________________
Layer (type)                    Output Shape         Param #     Connected to                     
==================================================================================================
input_9 (InputLayer)            (None, 7)            0                                            
__________________________________________________________________________________________________
input_10 (InputLayer)           (None, 7)            0                                            
__________________________________________________________________________________________________
embedding_9 (Embedding)         (None, 7, 302)       342468      input_9[0][0]                    
__________________________________________________________________________________________________
embedding_10 (Embedding)        (None, 7, 49)        931         input_10[0][0]                   
__________________________________________________________________________________________________
gru_9 (GRU)                     (None, 99)           119394      embedding_9[0][0]                
__________________________________________________________________________________________________
gru_10 (GRU)                    (None, 47)           13677       embedding_10[0][0]               
__________________________________________________________________________________________________
dropout_13 (Dropout)            (None, 99)           0           gru_9[0][0]                      
__________________________________________________________________________________________________
dropout_14 (Dropout)            (None, 47)           0           gru_10[0][0]                     
__________________________________________________________________________________________________
concatenate_5 (Concatenate)     (None, 146)          0           dropout_13[0][0]                 
                                                                 dropout_14[0][0]                 
__________________________________________________________________________________________________
dense_9 (Dense)                 (None, 69)           10143       concatenate_5[0][0]              
__________________________________________________________________________________________________
dropout_15 (Dropout)            (None, 69)           0           dense_9[0][0]                    
__________________________________________________________________________________________________
dense_10 (Dense)                (None, 4)            280         dropout_15[0][0]                 
==================================================================================================
Total params: 486,893
Trainable params: 486,893
Non-trainable params: 0
__________________________________________________________________________________________________
None
Train on 217231 samples, validate on 24137 samples
Epoch 1/20
 - 26s - loss: 0.0979 - acc: 0.9719 - val_loss: 0.0664 - val_acc: 0.9988
…
	Training (Important) : 3585, Test : 1320
	MWEs in tain : 1790, occurrences : 4856
	Impotant words in tain : 1200
	MWE length mean : 2.06
	Seen MWEs : 345 (67 %)
	New MWEs : 165 (32 %)
==================================================================================================
__________________________________________________________________________________________________
Layer (type)                    Output Shape         Param #     Connected to                     
==================================================================================================
input_11 (InputLayer)           (None, 7)            0                                            
__________________________________________________________________________________________________
input_12 (InputLayer)           (None, 7)            0                                            
__________________________________________________________________________________________________
embedding_11 (Embedding)        (None, 7, 302)       363306      input_11[0][0]                   
__________________________________________________________________________________________________
embedding_12 (Embedding)        (None, 7, 49)        686         input_12[0][0]                   
__________________________________________________________________________________________________
gru_11 (GRU)                    (None, 99)           119394      embedding_11[0][0]               
__________________________________________________________________________________________________
gru_12 (GRU)                    (None, 47)           13677       embedding_12[0][0]               
__________________________________________________________________________________________________
dropout_16 (Dropout)            (None, 99)           0           gru_11[0][0]                     
__________________________________________________________________________________________________
dropout_17 (Dropout)            (None, 47)           0           gru_12[0][0]                     
__________________________________________________________________________________________________
concatenate_6 (Concatenate)     (None, 146)          0           dropout_16[0][0]                 
                                                                 dropout_17[0][0]                 
__________________________________________________________________________________________________
dense_11 (Dense)                (None, 69)           10143       concatenate_6[0][0]              
__________________________________________________________________________________________________
dropout_18 (Dropout)            (None, 69)           0           dense_11[0][0]                   
__________________________________________________________________________________________________
dense_12 (Dense)                (None, 4)            280         dropout_18[0][0]                 
==================================================================================================
Total params: 507,486
Trainable params: 507,486
Non-trainable params: 0
__________________________________________________________________________________________________
None
Train on 432446 samples, validate on 48050 samples
Epoch 1/20
 - 55s - loss: 0.0835 - acc: 0.9742 - val_loss: 0.0817 - val_acc: 0.9997
…
	Training (Important) : 3124, Test : 1954
	MWEs in tain : 1372, occurrences : 3583
	Impotant words in tain : 1175
	MWE length mean : 2.13
	Seen MWEs : 386 (57 %)
	New MWEs : 284 (42 %)
==================================================================================================
__________________________________________________________________________________________________
Layer (type)                    Output Shape         Param #     Connected to                     
==================================================================================================
input_13 (InputLayer)           (None, 7)            0                                            
__________________________________________________________________________________________________
input_14 (InputLayer)           (None, 7)            0                                            
__________________________________________________________________________________________________
embedding_13 (Embedding)        (None, 7, 250)       294500      input_13[0][0]                   
__________________________________________________________________________________________________
embedding_14 (Embedding)        (None, 7, 26)        494         input_14[0][0]                   
__________________________________________________________________________________________________
gru_13 (GRU)                    (None, 17)           13668       embedding_13[0][0]               
__________________________________________________________________________________________________
gru_14 (GRU)                    (None, 38)           7410        embedding_14[0][0]               
__________________________________________________________________________________________________
dropout_19 (Dropout)            (None, 17)           0           gru_13[0][0]                     
__________________________________________________________________________________________________
dropout_20 (Dropout)            (None, 38)           0           gru_14[0][0]                     
__________________________________________________________________________________________________
concatenate_7 (Concatenate)     (None, 55)           0           dropout_19[0][0]                 
                                                                 dropout_20[0][0]                 
__________________________________________________________________________________________________
dense_13 (Dense)                (None, 42)           2352        concatenate_7[0][0]              
__________________________________________________________________________________________________
dropout_21 (Dropout)            (None, 42)           0           dense_13[0][0]                   
__________________________________________________________________________________________________
dense_14 (Dense)                (None, 4)            172         dropout_21[0][0]                 
==================================================================================================
Total params: 318,596
Trainable params: 318,596
Non-trainable params: 0
__________________________________________________________________________________________________
None
Train on 320835 samples, validate on 35649 samples
Epoch 1/20
 - 159s - loss: 0.0767 - acc: 0.9783 - val_loss: 0.0933 - val_acc: 0.9983
…
	Training (Important) : 2305, Test : 3117
	MWEs in tain : 1396, occurrences : 2518
	Impotant words in tain : 1131
	MWE length mean : 2.22
	Seen MWEs : 340 (61 %)
	New MWEs : 213 (38 %)
==================================================================================================
__________________________________________________________________________________________________
Layer (type)                    Output Shape         Param #     Connected to                     
==================================================================================================
input_15 (InputLayer)           (None, 7)            0                                            
__________________________________________________________________________________________________
input_16 (InputLayer)           (None, 7)            0                                            
__________________________________________________________________________________________________
embedding_15 (Embedding)        (None, 7, 250)       283500      input_15[0][0]                   
__________________________________________________________________________________________________
embedding_16 (Embedding)        (None, 7, 26)        494         input_16[0][0]                   
__________________________________________________________________________________________________
gru_15 (GRU)                    (None, 17)           13668       embedding_15[0][0]               
__________________________________________________________________________________________________
gru_16 (GRU)                    (None, 38)           7410        embedding_16[0][0]               
__________________________________________________________________________________________________
dropout_22 (Dropout)            (None, 17)           0           gru_15[0][0]                     
__________________________________________________________________________________________________
dropout_23 (Dropout)            (None, 38)           0           gru_16[0][0]                     
__________________________________________________________________________________________________
concatenate_8 (Concatenate)     (None, 55)           0           dropout_22[0][0]                 
                                                                 dropout_23[0][0]                 
__________________________________________________________________________________________________
dense_15 (Dense)                (None, 42)           2352        concatenate_8[0][0]              
__________________________________________________________________________________________________
dropout_24 (Dropout)            (None, 42)           0           dense_15[0][0]                   
__________________________________________________________________________________________________
dense_16 (Dense)                (None, 4)            172         dropout_24[0][0]                 
==================================================================================================
Total params: 307,596
Trainable params: 307,596
Non-trainable params: 0
__________________________________________________________________________________________________
None
Train on 217231 samples, validate on 24137 samples
Epoch 1/20
 - 111s - loss: 0.0868 - acc: 0.9741 - val_loss: 0.0754 - val_acc: 0.9983
…
	Training (Important) : 3585, Test : 1320
	MWEs in tain : 1790, occurrences : 4856
	Impotant words in tain : 1200
	MWE length mean : 2.06
	Seen MWEs : 345 (67 %)
	New MWEs : 165 (32 %)
==================================================================================================
__________________________________________________________________________________________________
Layer (type)                    Output Shape         Param #     Connected to                     
==================================================================================================
input_17 (InputLayer)           (None, 7)            0                                            
__________________________________________________________________________________________________
input_18 (InputLayer)           (None, 7)            0                                            
__________________________________________________________________________________________________
embedding_17 (Embedding)        (None, 7, 250)       300750      input_17[0][0]                   
__________________________________________________________________________________________________
embedding_18 (Embedding)        (None, 7, 26)        364         input_18[0][0]                   
__________________________________________________________________________________________________
gru_17 (GRU)                    (None, 17)           13668       embedding_17[0][0]               
__________________________________________________________________________________________________
gru_18 (GRU)                    (None, 38)           7410        embedding_18[0][0]               
__________________________________________________________________________________________________
dropout_25 (Dropout)            (None, 17)           0           gru_17[0][0]                     
__________________________________________________________________________________________________
dropout_26 (Dropout)            (None, 38)           0           gru_18[0][0]                     
__________________________________________________________________________________________________
concatenate_9 (Concatenate)     (None, 55)           0           dropout_25[0][0]                 
                                                                 dropout_26[0][0]                 
__________________________________________________________________________________________________
dense_17 (Dense)                (None, 42)           2352        concatenate_9[0][0]              
__________________________________________________________________________________________________
dropout_27 (Dropout)            (None, 42)           0           dense_17[0][0]                   
__________________________________________________________________________________________________
dense_18 (Dense)                (None, 4)            172         dropout_27[0][0]                 
==================================================================================================
Total params: 324,716
Trainable params: 324,716
Non-trainable params: 0
__________________________________________________________________________________________________
None
Train on 432446 samples, validate on 48050 samples
Epoch 1/20
 - 223s - loss: 0.0750 - acc: 0.9771 - val_loss: 0.0527 - val_acc: 1.0000
…
	Training (Important) : 3124, Test : 1954
	MWEs in tain : 1372, occurrences : 3583
	Impotant words in tain : 1175
	MWE length mean : 2.13
	Seen MWEs : 386 (57 %)
	New MWEs : 284 (42 %)
==================================================================================================
__________________________________________________________________________________________________
Layer (type)                    Output Shape         Param #     Connected to                     
==================================================================================================
input_19 (InputLayer)           (None, 7)            0                                            
__________________________________________________________________________________________________
input_20 (InputLayer)           (None, 7)            0                                            
__________________________________________________________________________________________________
embedding_19 (Embedding)        (None, 7, 496)       584288      input_19[0][0]                   
__________________________________________________________________________________________________
embedding_20 (Embedding)        (None, 7, 24)        456         input_20[0][0]                   
__________________________________________________________________________________________________
gru_19 (GRU)                    (None, 7)            10584       embedding_19[0][0]               
__________________________________________________________________________________________________
gru_20 (GRU)                    (None, 39)           7488        embedding_20[0][0]               
__________________________________________________________________________________________________
dropout_28 (Dropout)            (None, 7)            0           gru_19[0][0]                     
__________________________________________________________________________________________________
dropout_29 (Dropout)            (None, 39)           0           gru_20[0][0]                     
__________________________________________________________________________________________________
concatenate_10 (Concatenate)    (None, 46)           0           dropout_28[0][0]                 
                                                                 dropout_29[0][0]                 
__________________________________________________________________________________________________
dense_19 (Dense)                (None, 29)           1363        concatenate_10[0][0]             
__________________________________________________________________________________________________
dropout_30 (Dropout)            (None, 29)           0           dense_19[0][0]                   
__________________________________________________________________________________________________
dense_20 (Dense)                (None, 4)            120         dropout_30[0][0]                 
==================================================================================================
Total params: 604,299
Trainable params: 604,299
Non-trainable params: 0
__________________________________________________________________________________________________
None
Train on 320835 samples, validate on 35649 samples
Epoch 1/20
 - 329s - loss: 0.0798 - acc: 0.9775 - val_loss: 0.0857 - val_acc: 0.9979
…
	Training (Important) : 2305, Test : 3117
	MWEs in tain : 1396, occurrences : 2518
	Impotant words in tain : 1131
	MWE length mean : 2.22
	Seen MWEs : 340 (61 %)
	New MWEs : 213 (38 %)
==================================================================================================
__________________________________________________________________________________________________
Layer (type)                    Output Shape         Param #     Connected to                     
==================================================================================================
input_21 (InputLayer)           (None, 7)            0                                            
__________________________________________________________________________________________________
input_22 (InputLayer)           (None, 7)            0                                            
__________________________________________________________________________________________________
embedding_21 (Embedding)        (None, 7, 496)       562464      input_21[0][0]                   
__________________________________________________________________________________________________
embedding_22 (Embedding)        (None, 7, 24)        456         input_22[0][0]                   
__________________________________________________________________________________________________
gru_21 (GRU)                    (None, 7)            10584       embedding_21[0][0]               
__________________________________________________________________________________________________
gru_22 (GRU)                    (None, 39)           7488        embedding_22[0][0]               
__________________________________________________________________________________________________
dropout_31 (Dropout)            (None, 7)            0           gru_21[0][0]                     
__________________________________________________________________________________________________
dropout_32 (Dropout)            (None, 39)           0           gru_22[0][0]                     
__________________________________________________________________________________________________
concatenate_11 (Concatenate)    (None, 46)           0           dropout_31[0][0]                 
                                                                 dropout_32[0][0]                 
__________________________________________________________________________________________________
dense_21 (Dense)                (None, 29)           1363        concatenate_11[0][0]             
__________________________________________________________________________________________________
dropout_33 (Dropout)            (None, 29)           0           dense_21[0][0]                   
__________________________________________________________________________________________________
dense_22 (Dense)                (None, 4)            120         dropout_33[0][0]                 
==================================================================================================
Total params: 582,475
Trainable params: 582,475
Non-trainable params: 0
__________________________________________________________________________________________________
None
Train on 217231 samples, validate on 24137 samples
Epoch 1/20
 - 225s - loss: 0.0883 - acc: 0.9733 - val_loss: 0.0744 - val_acc: 0.9983
…
	Training (Important) : 3585, Test : 1320
	MWEs in tain : 1790, occurrences : 4856
	Impotant words in tain : 1200
	MWE length mean : 2.06
	Seen MWEs : 345 (67 %)
	New MWEs : 165 (32 %)
==================================================================================================
__________________________________________________________________________________________________
Layer (type)                    Output Shape         Param #     Connected to                     
==================================================================================================
input_23 (InputLayer)           (None, 7)            0                                            
__________________________________________________________________________________________________
input_24 (InputLayer)           (None, 7)            0                                            
__________________________________________________________________________________________________
embedding_23 (Embedding)        (None, 7, 496)       596688      input_23[0][0]                   
__________________________________________________________________________________________________
embedding_24 (Embedding)        (None, 7, 24)        336         input_24[0][0]                   
__________________________________________________________________________________________________
gru_23 (GRU)                    (None, 7)            10584       embedding_23[0][0]               
__________________________________________________________________________________________________
gru_24 (GRU)                    (None, 39)           7488        embedding_24[0][0]               
__________________________________________________________________________________________________
dropout_34 (Dropout)            (None, 7)            0           gru_23[0][0]                     
__________________________________________________________________________________________________
dropout_35 (Dropout)            (None, 39)           0           gru_24[0][0]                     
__________________________________________________________________________________________________
concatenate_12 (Concatenate)    (None, 46)           0           dropout_34[0][0]                 
                                                                 dropout_35[0][0]                 
__________________________________________________________________________________________________
dense_23 (Dense)                (None, 29)           1363        concatenate_12[0][0]             
__________________________________________________________________________________________________
dropout_36 (Dropout)            (None, 29)           0           dense_23[0][0]                   
__________________________________________________________________________________________________
dense_24 (Dense)                (None, 4)            120         dropout_36[0][0]                 
==================================================================================================
Total params: 616,579
Trainable params: 616,579
Non-trainable params: 0
__________________________________________________________________________________________________
None
Train on 432446 samples, validate on 48050 samples
Epoch 1/20
 - 448s - loss: 0.0779 - acc: 0.9766 - val_loss: 0.0820 - val_acc: 1.0000
…
	Training (Important) : 3124, Test : 1954
	MWEs in tain : 1372, occurrences : 3583
	Impotant words in tain : 1175
	MWE length mean : 2.13
	Seen MWEs : 386 (57 %)
	New MWEs : 284 (42 %)
==================================================================================================
__________________________________________________________________________________________________
Layer (type)                    Output Shape         Param #     Connected to                     
==================================================================================================
input_25 (InputLayer)           (None, 7)            0                                            
__________________________________________________________________________________________________
input_26 (InputLayer)           (None, 7)            0                                            
__________________________________________________________________________________________________
embedding_25 (Embedding)        (None, 7, 400)       471200      input_25[0][0]                   
__________________________________________________________________________________________________
embedding_26 (Embedding)        (None, 7, 97)        1843        input_26[0][0]                   
__________________________________________________________________________________________________
gru_25 (GRU)                    (None, 13)           16146       embedding_25[0][0]               
__________________________________________________________________________________________________
gru_26 (GRU)                    (None, 16)           5472        embedding_26[0][0]               
__________________________________________________________________________________________________
dropout_37 (Dropout)            (None, 13)           0           gru_25[0][0]                     
__________________________________________________________________________________________________
dropout_38 (Dropout)            (None, 16)           0           gru_26[0][0]                     
__________________________________________________________________________________________________
concatenate_13 (Concatenate)    (None, 29)           0           dropout_37[0][0]                 
                                                                 dropout_38[0][0]                 
__________________________________________________________________________________________________
dense_25 (Dense)                (None, 67)           2010        concatenate_13[0][0]             
__________________________________________________________________________________________________
dropout_39 (Dropout)            (None, 67)           0           dense_25[0][0]                   
__________________________________________________________________________________________________
dense_26 (Dense)                (None, 4)            272         dropout_39[0][0]                 
==================================================================================================
Total params: 496,943
Trainable params: 496,943
Non-trainable params: 0
__________________________________________________________________________________________________
None
Train on 320835 samples, validate on 35649 samples
Epoch 1/20
 - 164s - loss: 0.0858 - acc: 0.9760 - val_loss: 0.0643 - val_acc: 0.9981
…
	Training (Important) : 2305, Test : 3117
	MWEs in tain : 1396, occurrences : 2518
	Impotant words in tain : 1131
	MWE length mean : 2.22
	Seen MWEs : 340 (61 %)
	New MWEs : 213 (38 %)
==================================================================================================
__________________________________________________________________________________________________
Layer (type)                    Output Shape         Param #     Connected to                     
==================================================================================================
input_27 (InputLayer)           (None, 7)            0                                            
__________________________________________________________________________________________________
input_28 (InputLayer)           (None, 7)            0                                            
__________________________________________________________________________________________________
embedding_27 (Embedding)        (None, 7, 400)       453600      input_27[0][0]                   
__________________________________________________________________________________________________
embedding_28 (Embedding)        (None, 7, 97)        1843        input_28[0][0]                   
__________________________________________________________________________________________________
gru_27 (GRU)                    (None, 13)           16146       embedding_27[0][0]               
__________________________________________________________________________________________________
gru_28 (GRU)                    (None, 16)           5472        embedding_28[0][0]               
__________________________________________________________________________________________________
dropout_40 (Dropout)            (None, 13)           0           gru_27[0][0]                     
__________________________________________________________________________________________________
dropout_41 (Dropout)            (None, 16)           0           gru_28[0][0]                     
__________________________________________________________________________________________________
concatenate_14 (Concatenate)    (None, 29)           0           dropout_40[0][0]                 
                                                                 dropout_41[0][0]                 
__________________________________________________________________________________________________
dense_27 (Dense)                (None, 67)           2010        concatenate_14[0][0]             
__________________________________________________________________________________________________
dropout_42 (Dropout)            (None, 67)           0           dense_27[0][0]                   
__________________________________________________________________________________________________
dense_28 (Dense)                (None, 4)            272         dropout_42[0][0]                 
==================================================================================================
Total params: 479,343
Trainable params: 479,343
Non-trainable params: 0
__________________________________________________________________________________________________
None
Train on 217231 samples, validate on 24137 samples
Epoch 1/20
 - 113s - loss: 0.0989 - acc: 0.9705 - val_loss: 0.0762 - val_acc: 0.9983
…
	Training (Important) : 3585, Test : 1320
	MWEs in tain : 1790, occurrences : 4856
	Impotant words in tain : 1200
	MWE length mean : 2.06
	Seen MWEs : 345 (67 %)
	New MWEs : 165 (32 %)
==================================================================================================
__________________________________________________________________________________________________
Layer (type)                    Output Shape         Param #     Connected to                     
==================================================================================================
input_29 (InputLayer)           (None, 7)            0                                            
__________________________________________________________________________________________________
input_30 (InputLayer)           (None, 7)            0                                            
__________________________________________________________________________________________________
embedding_29 (Embedding)        (None, 7, 400)       481200      input_29[0][0]                   
__________________________________________________________________________________________________
embedding_30 (Embedding)        (None, 7, 97)        1358        input_30[0][0]                   
__________________________________________________________________________________________________
gru_29 (GRU)                    (None, 13)           16146       embedding_29[0][0]               
__________________________________________________________________________________________________
gru_30 (GRU)                    (None, 16)           5472        embedding_30[0][0]               
__________________________________________________________________________________________________
dropout_43 (Dropout)            (None, 13)           0           gru_29[0][0]                     
__________________________________________________________________________________________________
dropout_44 (Dropout)            (None, 16)           0           gru_30[0][0]                     
__________________________________________________________________________________________________
concatenate_15 (Concatenate)    (None, 29)           0           dropout_43[0][0]                 
                                                                 dropout_44[0][0]                 
__________________________________________________________________________________________________
dense_29 (Dense)                (None, 67)           2010        concatenate_15[0][0]             
__________________________________________________________________________________________________
dropout_45 (Dropout)            (None, 67)           0           dense_29[0][0]                   
__________________________________________________________________________________________________
dense_30 (Dense)                (None, 4)            272         dropout_45[0][0]                 
==================================================================================================
Total params: 506,458
Trainable params: 506,458
Non-trainable params: 0
__________________________________________________________________________________________________
None
Train on 432446 samples, validate on 48050 samples
Epoch 1/20
 - 223s - loss: 0.0834 - acc: 0.9747 - val_loss: 0.0700 - val_acc: 1.0000
…
	Training (Important) : 3124, Test : 1954
	MWEs in tain : 1372, occurrences : 3583
	Impotant words in tain : 1175
	MWE length mean : 2.13
	Seen MWEs : 386 (57 %)
	New MWEs : 284 (42 %)
==================================================================================================
__________________________________________________________________________________________________
Layer (type)                    Output Shape         Param #     Connected to                     
==================================================================================================
input_31 (InputLayer)           (None, 7)            0                                            
__________________________________________________________________________________________________
input_32 (InputLayer)           (None, 7)            0                                            
__________________________________________________________________________________________________
embedding_31 (Embedding)        (None, 7, 211)       248558      input_31[0][0]                   
__________________________________________________________________________________________________
embedding_32 (Embedding)        (None, 7, 23)        437         input_32[0][0]                   
__________________________________________________________________________________________________
gru_31 (GRU)                    (None, 39)           29367       embedding_31[0][0]               
__________________________________________________________________________________________________
gru_32 (GRU)                    (None, 32)           5376        embedding_32[0][0]               
__________________________________________________________________________________________________
dropout_46 (Dropout)            (None, 39)           0           gru_31[0][0]                     
__________________________________________________________________________________________________
dropout_47 (Dropout)            (None, 32)           0           gru_32[0][0]                     
__________________________________________________________________________________________________
concatenate_16 (Concatenate)    (None, 71)           0           dropout_46[0][0]                 
                                                                 dropout_47[0][0]                 
__________________________________________________________________________________________________
dense_31 (Dense)                (None, 73)           5256        concatenate_16[0][0]             
__________________________________________________________________________________________________
dropout_48 (Dropout)            (None, 73)           0           dense_31[0][0]                   
__________________________________________________________________________________________________
dense_32 (Dense)                (None, 4)            296         dropout_48[0][0]                 
==================================================================================================
Total params: 289,290
Trainable params: 289,290
Non-trainable params: 0
__________________________________________________________________________________________________
None
Train on 320835 samples, validate on 35649 samples
Epoch 1/20
 - 81s - loss: 0.0743 - acc: 0.9787 - val_loss: 0.0526 - val_acc: 0.9998
…
	Training (Important) : 2305, Test : 3117
	MWEs in tain : 1396, occurrences : 2518
	Impotant words in tain : 1131
	MWE length mean : 2.22
	Seen MWEs : 340 (61 %)
	New MWEs : 213 (38 %)
==================================================================================================
__________________________________________________________________________________________________
Layer (type)                    Output Shape         Param #     Connected to                     
==================================================================================================
input_33 (InputLayer)           (None, 7)            0                                            
__________________________________________________________________________________________________
input_34 (InputLayer)           (None, 7)            0                                            
__________________________________________________________________________________________________
embedding_33 (Embedding)        (None, 7, 211)       239274      input_33[0][0]                   
__________________________________________________________________________________________________
embedding_34 (Embedding)        (None, 7, 23)        437         input_34[0][0]                   
__________________________________________________________________________________________________
gru_33 (GRU)                    (None, 39)           29367       embedding_33[0][0]               
__________________________________________________________________________________________________
gru_34 (GRU)                    (None, 32)           5376        embedding_34[0][0]               
__________________________________________________________________________________________________
dropout_49 (Dropout)            (None, 39)           0           gru_33[0][0]                     
__________________________________________________________________________________________________
dropout_50 (Dropout)            (None, 32)           0           gru_34[0][0]                     
__________________________________________________________________________________________________
concatenate_17 (Concatenate)    (None, 71)           0           dropout_49[0][0]                 
                                                                 dropout_50[0][0]                 
__________________________________________________________________________________________________
dense_33 (Dense)                (None, 73)           5256        concatenate_17[0][0]             
__________________________________________________________________________________________________
dropout_51 (Dropout)            (None, 73)           0           dense_33[0][0]                   
__________________________________________________________________________________________________
dense_34 (Dense)                (None, 4)            296         dropout_51[0][0]                 
==================================================================================================
Total params: 280,006
Trainable params: 280,006
Non-trainable params: 0
__________________________________________________________________________________________________
None
Train on 217231 samples, validate on 24137 samples
Epoch 1/20
 - 55s - loss: 0.0886 - acc: 0.9719 - val_loss: 0.0634 - val_acc: 0.9991
…
	Training (Important) : 3585, Test : 1320
	MWEs in tain : 1790, occurrences : 4856
	Impotant words in tain : 1200
	MWE length mean : 2.06
	Seen MWEs : 345 (67 %)
	New MWEs : 165 (32 %)
==================================================================================================
__________________________________________________________________________________________________
Layer (type)                    Output Shape         Param #     Connected to                     
==================================================================================================
input_35 (InputLayer)           (None, 7)            0                                            
__________________________________________________________________________________________________
input_36 (InputLayer)           (None, 7)            0                                            
__________________________________________________________________________________________________
embedding_35 (Embedding)        (None, 7, 211)       253833      input_35[0][0]                   
__________________________________________________________________________________________________
embedding_36 (Embedding)        (None, 7, 23)        322         input_36[0][0]                   
__________________________________________________________________________________________________
gru_35 (GRU)                    (None, 39)           29367       embedding_35[0][0]               
__________________________________________________________________________________________________
gru_36 (GRU)                    (None, 32)           5376        embedding_36[0][0]               
__________________________________________________________________________________________________
dropout_52 (Dropout)            (None, 39)           0           gru_35[0][0]                     
__________________________________________________________________________________________________
dropout_53 (Dropout)            (None, 32)           0           gru_36[0][0]                     
__________________________________________________________________________________________________
concatenate_18 (Concatenate)    (None, 71)           0           dropout_52[0][0]                 
                                                                 dropout_53[0][0]                 
__________________________________________________________________________________________________
dense_35 (Dense)                (None, 73)           5256        concatenate_18[0][0]             
__________________________________________________________________________________________________
dropout_54 (Dropout)            (None, 73)           0           dense_35[0][0]                   
__________________________________________________________________________________________________
dense_36 (Dense)                (None, 4)            296         dropout_54[0][0]                 
==================================================================================================
Total params: 294,450
Trainable params: 294,450
Non-trainable params: 0
__________________________________________________________________________________________________
None
Train on 432446 samples, validate on 48050 samples
Epoch 1/20
 - 110s - loss: 0.0740 - acc: 0.9770 - val_loss: 0.0514 - val_acc: 1.0000
…
	Training (Important) : 3124, Test : 1954
	MWEs in tain : 1372, occurrences : 3583
	Impotant words in tain : 1175
	MWE length mean : 2.13
	Seen MWEs : 386 (57 %)
	New MWEs : 284 (42 %)
==================================================================================================
__________________________________________________________________________________________________
Layer (type)                    Output Shape         Param #     Connected to                     
==================================================================================================
input_37 (InputLayer)           (None, 7)            0                                            
__________________________________________________________________________________________________
input_38 (InputLayer)           (None, 7)            0                                            
__________________________________________________________________________________________________
embedding_37 (Embedding)        (None, 7, 376)       442928      input_37[0][0]                   
__________________________________________________________________________________________________
embedding_38 (Embedding)        (None, 7, 79)        1501        input_38[0][0]                   
__________________________________________________________________________________________________
gru_37 (GRU)                    (None, 92)           129444      embedding_37[0][0]               
__________________________________________________________________________________________________
gru_38 (GRU)                    (None, 16)           4608        embedding_38[0][0]               
__________________________________________________________________________________________________
dropout_55 (Dropout)            (None, 92)           0           gru_37[0][0]                     
__________________________________________________________________________________________________
dropout_56 (Dropout)            (None, 16)           0           gru_38[0][0]                     
__________________________________________________________________________________________________
concatenate_19 (Concatenate)    (None, 108)          0           dropout_55[0][0]                 
                                                                 dropout_56[0][0]                 
__________________________________________________________________________________________________
dense_37 (Dense)                (None, 98)           10682       concatenate_19[0][0]             
__________________________________________________________________________________________________
dropout_57 (Dropout)            (None, 98)           0           dense_37[0][0]                   
__________________________________________________________________________________________________
dense_38 (Dense)                (None, 4)            396         dropout_57[0][0]                 
==================================================================================================
Total params: 589,559
Trainable params: 589,559
Non-trainable params: 0
__________________________________________________________________________________________________
None
Train on 320835 samples, validate on 35649 samples
Epoch 1/20
 - 329s - loss: 0.0727 - acc: 0.9796 - val_loss: 0.0440 - val_acc: 0.9988
…
	Training (Important) : 2305, Test : 3117
	MWEs in tain : 1396, occurrences : 2518
	Impotant words in tain : 1131
	MWE length mean : 2.22
	Seen MWEs : 340 (61 %)
	New MWEs : 213 (38 %)
==================================================================================================
__________________________________________________________________________________________________
Layer (type)                    Output Shape         Param #     Connected to                     
==================================================================================================
input_39 (InputLayer)           (None, 7)            0                                            
__________________________________________________________________________________________________
input_40 (InputLayer)           (None, 7)            0                                            
__________________________________________________________________________________________________
embedding_39 (Embedding)        (None, 7, 376)       426384      input_39[0][0]                   
__________________________________________________________________________________________________
embedding_40 (Embedding)        (None, 7, 79)        1501        input_40[0][0]                   
__________________________________________________________________________________________________
gru_39 (GRU)                    (None, 92)           129444      embedding_39[0][0]               
__________________________________________________________________________________________________
gru_40 (GRU)                    (None, 16)           4608        embedding_40[0][0]               
__________________________________________________________________________________________________
dropout_58 (Dropout)            (None, 92)           0           gru_39[0][0]                     
__________________________________________________________________________________________________
dropout_59 (Dropout)            (None, 16)           0           gru_40[0][0]                     
__________________________________________________________________________________________________
concatenate_20 (Concatenate)    (None, 108)          0           dropout_58[0][0]                 
                                                                 dropout_59[0][0]                 
__________________________________________________________________________________________________
dense_39 (Dense)                (None, 98)           10682       concatenate_20[0][0]             
__________________________________________________________________________________________________
dropout_60 (Dropout)            (None, 98)           0           dense_39[0][0]                   
__________________________________________________________________________________________________
dense_40 (Dense)                (None, 4)            396         dropout_60[0][0]                 
==================================================================================================
Total params: 573,015
Trainable params: 573,015
Non-trainable params: 0
__________________________________________________________________________________________________
None
Train on 217231 samples, validate on 24137 samples
Epoch 1/20
 - 223s - loss: 0.0848 - acc: 0.9750 - val_loss: 0.0546 - val_acc: 0.9994
…
	Training (Important) : 3585, Test : 1320
	MWEs in tain : 1790, occurrences : 4856
	Impotant words in tain : 1200
	MWE length mean : 2.06
	Seen MWEs : 345 (67 %)
	New MWEs : 165 (32 %)
==================================================================================================
__________________________________________________________________________________________________
Layer (type)                    Output Shape         Param #     Connected to                     
==================================================================================================
input_41 (InputLayer)           (None, 7)            0                                            
__________________________________________________________________________________________________
input_42 (InputLayer)           (None, 7)            0                                            
__________________________________________________________________________________________________
embedding_41 (Embedding)        (None, 7, 376)       452328      input_41[0][0]                   
__________________________________________________________________________________________________
embedding_42 (Embedding)        (None, 7, 79)        1106        input_42[0][0]                   
__________________________________________________________________________________________________
gru_41 (GRU)                    (None, 92)           129444      embedding_41[0][0]               
__________________________________________________________________________________________________
gru_42 (GRU)                    (None, 16)           4608        embedding_42[0][0]               
__________________________________________________________________________________________________
dropout_61 (Dropout)            (None, 92)           0           gru_41[0][0]                     
__________________________________________________________________________________________________
dropout_62 (Dropout)            (None, 16)           0           gru_42[0][0]                     
__________________________________________________________________________________________________
concatenate_21 (Concatenate)    (None, 108)          0           dropout_61[0][0]                 
                                                                 dropout_62[0][0]                 
__________________________________________________________________________________________________
dense_41 (Dense)                (None, 98)           10682       concatenate_21[0][0]             
__________________________________________________________________________________________________
dropout_63 (Dropout)            (None, 98)           0           dense_41[0][0]                   
__________________________________________________________________________________________________
dense_42 (Dense)                (None, 4)            396         dropout_63[0][0]                 
==================================================================================================
Total params: 598,564
Trainable params: 598,564
Non-trainable params: 0
__________________________________________________________________________________________________
None
Train on 432446 samples, validate on 48050 samples
Epoch 1/20
 - 445s - loss: 0.0710 - acc: 0.9787 - val_loss: 0.0968 - val_acc: 0.9998
…
	Training (Important) : 3124, Test : 1954
	MWEs in tain : 1372, occurrences : 3583
	Impotant words in tain : 1175
	MWE length mean : 2.13
	Seen MWEs : 386 (57 %)
	New MWEs : 284 (42 %)
==================================================================================================
__________________________________________________________________________________________________
Layer (type)                    Output Shape         Param #     Connected to                     
==================================================================================================
input_43 (InputLayer)           (None, 7)            0                                            
__________________________________________________________________________________________________
input_44 (InputLayer)           (None, 7)            0                                            
__________________________________________________________________________________________________
embedding_43 (Embedding)        (None, 7, 209)       246202      input_43[0][0]                   
__________________________________________________________________________________________________
embedding_44 (Embedding)        (None, 7, 35)        665         input_44[0][0]                   
__________________________________________________________________________________________________
gru_43 (GRU)                    (None, 33)           24057       embedding_43[0][0]               
__________________________________________________________________________________________________
gru_44 (GRU)                    (None, 21)           3591        embedding_44[0][0]               
__________________________________________________________________________________________________
dropout_64 (Dropout)            (None, 33)           0           gru_43[0][0]                     
__________________________________________________________________________________________________
dropout_65 (Dropout)            (None, 21)           0           gru_44[0][0]                     
__________________________________________________________________________________________________
concatenate_22 (Concatenate)    (None, 54)           0           dropout_64[0][0]                 
                                                                 dropout_65[0][0]                 
__________________________________________________________________________________________________
dense_43 (Dense)                (None, 33)           1815        concatenate_22[0][0]             
__________________________________________________________________________________________________
dropout_66 (Dropout)            (None, 33)           0           dense_43[0][0]                   
__________________________________________________________________________________________________
dense_44 (Dense)                (None, 4)            136         dropout_66[0][0]                 
==================================================================================================
Total params: 276,466
Trainable params: 276,466
Non-trainable params: 0
__________________________________________________________________________________________________
None
Train on 320835 samples, validate on 35649 samples
Epoch 1/20
 - 343s - loss: 0.0758 - acc: 0.9787 - val_loss: 0.0863 - val_acc: 0.9998
…
	Training (Important) : 2305, Test : 3117
	MWEs in tain : 1396, occurrences : 2518
	Impotant words in tain : 1131
	MWE length mean : 2.22
	Seen MWEs : 340 (61 %)
	New MWEs : 213 (38 %)
==================================================================================================
__________________________________________________________________________________________________
Layer (type)                    Output Shape         Param #     Connected to                     
==================================================================================================
input_45 (InputLayer)           (None, 7)            0                                            
__________________________________________________________________________________________________
input_46 (InputLayer)           (None, 7)            0                                            
__________________________________________________________________________________________________
embedding_45 (Embedding)        (None, 7, 209)       237006      input_45[0][0]                   
__________________________________________________________________________________________________
embedding_46 (Embedding)        (None, 7, 35)        665         input_46[0][0]                   
__________________________________________________________________________________________________
gru_45 (GRU)                    (None, 33)           24057       embedding_45[0][0]               
__________________________________________________________________________________________________
gru_46 (GRU)                    (None, 21)           3591        embedding_46[0][0]               
__________________________________________________________________________________________________
dropout_67 (Dropout)            (None, 33)           0           gru_45[0][0]                     
__________________________________________________________________________________________________
dropout_68 (Dropout)            (None, 21)           0           gru_46[0][0]                     
__________________________________________________________________________________________________
concatenate_23 (Concatenate)    (None, 54)           0           dropout_67[0][0]                 
                                                                 dropout_68[0][0]                 
__________________________________________________________________________________________________
dense_45 (Dense)                (None, 33)           1815        concatenate_23[0][0]             
__________________________________________________________________________________________________
dropout_69 (Dropout)            (None, 33)           0           dense_45[0][0]                   
__________________________________________________________________________________________________
dense_46 (Dense)                (None, 4)            136         dropout_69[0][0]                 
==================================================================================================
Total params: 267,270
Trainable params: 267,270
Non-trainable params: 0
__________________________________________________________________________________________________
None
Train on 217231 samples, validate on 24137 samples
Epoch 1/20
 - 220s - loss: 0.0874 - acc: 0.9743 - val_loss: 0.0702 - val_acc: 0.9983
…
	Training (Important) : 3585, Test : 1320
	MWEs in tain : 1790, occurrences : 4856
	Impotant words in tain : 1200
	MWE length mean : 2.06
	Seen MWEs : 345 (67 %)
	New MWEs : 165 (32 %)
==================================================================================================
__________________________________________________________________________________________________
Layer (type)                    Output Shape         Param #     Connected to                     
==================================================================================================
input_47 (InputLayer)           (None, 7)            0                                            
__________________________________________________________________________________________________
input_48 (InputLayer)           (None, 7)            0                                            
__________________________________________________________________________________________________
embedding_47 (Embedding)        (None, 7, 209)       251427      input_47[0][0]                   
__________________________________________________________________________________________________
embedding_48 (Embedding)        (None, 7, 35)        490         input_48[0][0]                   
__________________________________________________________________________________________________
gru_47 (GRU)                    (None, 33)           24057       embedding_47[0][0]               
__________________________________________________________________________________________________
gru_48 (GRU)                    (None, 21)           3591        embedding_48[0][0]               
__________________________________________________________________________________________________
dropout_70 (Dropout)            (None, 33)           0           gru_47[0][0]                     
__________________________________________________________________________________________________
dropout_71 (Dropout)            (None, 21)           0           gru_48[0][0]                     
__________________________________________________________________________________________________
concatenate_24 (Concatenate)    (None, 54)           0           dropout_70[0][0]                 
                                                                 dropout_71[0][0]                 
__________________________________________________________________________________________________
dense_47 (Dense)                (None, 33)           1815        concatenate_24[0][0]             
__________________________________________________________________________________________________
dropout_72 (Dropout)            (None, 33)           0           dense_47[0][0]                   
__________________________________________________________________________________________________
dense_48 (Dense)                (None, 4)            136         dropout_72[0][0]                 
==================================================================================================
Total params: 281,516
Trainable params: 281,516
Non-trainable params: 0
__________________________________________________________________________________________________
None
Train on 432446 samples, validate on 48050 samples
Epoch 1/20
 - 426s - loss: 0.0760 - acc: 0.9774 - val_loss: 0.0601 - val_acc: 1.0000
…
	Training (Important) : 3124, Test : 1954
	MWEs in tain : 1372, occurrences : 3583
	Impotant words in tain : 1175
	MWE length mean : 2.13
	Seen MWEs : 386 (57 %)
	New MWEs : 284 (42 %)
==================================================================================================
__________________________________________________________________________________________________
Layer (type)                    Output Shape         Param #     Connected to                     
==================================================================================================
input_49 (InputLayer)           (None, 7)            0                                            
__________________________________________________________________________________________________
input_50 (InputLayer)           (None, 7)            0                                            
__________________________________________________________________________________________________
embedding_49 (Embedding)        (None, 7, 403)       474734      input_49[0][0]                   
__________________________________________________________________________________________________
embedding_50 (Embedding)        (None, 7, 92)        1748        input_50[0][0]                   
__________________________________________________________________________________________________
gru_49 (GRU)                    (None, 82)           119556      embedding_49[0][0]               
__________________________________________________________________________________________________
gru_50 (GRU)                    (None, 14)           4494        embedding_50[0][0]               
__________________________________________________________________________________________________
dropout_73 (Dropout)            (None, 82)           0           gru_49[0][0]                     
__________________________________________________________________________________________________
dropout_74 (Dropout)            (None, 14)           0           gru_50[0][0]                     
__________________________________________________________________________________________________
concatenate_25 (Concatenate)    (None, 96)           0           dropout_73[0][0]                 
                                                                 dropout_74[0][0]                 
__________________________________________________________________________________________________
dense_49 (Dense)                (None, 53)           5141        concatenate_25[0][0]             
__________________________________________________________________________________________________
dropout_75 (Dropout)            (None, 53)           0           dense_49[0][0]                   
__________________________________________________________________________________________________
dense_50 (Dense)                (None, 4)            216         dropout_75[0][0]                 
==================================================================================================
Total params: 605,889
Trainable params: 605,889
Non-trainable params: 0
__________________________________________________________________________________________________
None
Train on 320835 samples, validate on 35649 samples
Epoch 1/20
 - 329s - loss: 0.0734 - acc: 0.9797 - val_loss: 0.0646 - val_acc: 0.9997
…
	Training (Important) : 2305, Test : 3117
	MWEs in tain : 1396, occurrences : 2518
	Impotant words in tain : 1131
	MWE length mean : 2.22
	Seen MWEs : 340 (61 %)
	New MWEs : 213 (38 %)
==================================================================================================
__________________________________________________________________________________________________
Layer (type)                    Output Shape         Param #     Connected to                     
==================================================================================================
input_51 (InputLayer)           (None, 7)            0                                            
__________________________________________________________________________________________________
input_52 (InputLayer)           (None, 7)            0                                            
__________________________________________________________________________________________________
embedding_51 (Embedding)        (None, 7, 403)       457002      input_51[0][0]                   
__________________________________________________________________________________________________
embedding_52 (Embedding)        (None, 7, 92)        1748        input_52[0][0]                   
__________________________________________________________________________________________________
gru_51 (GRU)                    (None, 82)           119556      embedding_51[0][0]               
__________________________________________________________________________________________________
gru_52 (GRU)                    (None, 14)           4494        embedding_52[0][0]               
__________________________________________________________________________________________________
dropout_76 (Dropout)            (None, 82)           0           gru_51[0][0]                     
__________________________________________________________________________________________________
dropout_77 (Dropout)            (None, 14)           0           gru_52[0][0]                     
__________________________________________________________________________________________________
concatenate_26 (Concatenate)    (None, 96)           0           dropout_76[0][0]                 
                                                                 dropout_77[0][0]                 
__________________________________________________________________________________________________
dense_51 (Dense)                (None, 53)           5141        concatenate_26[0][0]             
__________________________________________________________________________________________________
dropout_78 (Dropout)            (None, 53)           0           dense_51[0][0]                   
__________________________________________________________________________________________________
dense_52 (Dense)                (None, 4)            216         dropout_78[0][0]                 
==================================================================================================
Total params: 588,157
Trainable params: 588,157
Non-trainable params: 0
__________________________________________________________________________________________________
None
Train on 217231 samples, validate on 24137 samples
Epoch 1/20
 - 227s - loss: 0.0818 - acc: 0.9761 - val_loss: 0.0881 - val_acc: 0.9997
…
	Training (Important) : 3585, Test : 1320
	MWEs in tain : 1790, occurrences : 4856
	Impotant words in tain : 1200
	MWE length mean : 2.06
	Seen MWEs : 345 (67 %)
	New MWEs : 165 (32 %)
==================================================================================================
__________________________________________________________________________________________________
Layer (type)                    Output Shape         Param #     Connected to                     
==================================================================================================
input_53 (InputLayer)           (None, 7)            0                                            
__________________________________________________________________________________________________
input_54 (InputLayer)           (None, 7)            0                                            
__________________________________________________________________________________________________
embedding_53 (Embedding)        (None, 7, 403)       484809      input_53[0][0]                   
__________________________________________________________________________________________________
embedding_54 (Embedding)        (None, 7, 92)        1288        input_54[0][0]                   
__________________________________________________________________________________________________
gru_53 (GRU)                    (None, 82)           119556      embedding_53[0][0]               
__________________________________________________________________________________________________
gru_54 (GRU)                    (None, 14)           4494        embedding_54[0][0]               
__________________________________________________________________________________________________
dropout_79 (Dropout)            (None, 82)           0           gru_53[0][0]                     
__________________________________________________________________________________________________
dropout_80 (Dropout)            (None, 14)           0           gru_54[0][0]                     
__________________________________________________________________________________________________
concatenate_27 (Concatenate)    (None, 96)           0           dropout_79[0][0]                 
                                                                 dropout_80[0][0]                 
__________________________________________________________________________________________________
dense_53 (Dense)                (None, 53)           5141        concatenate_27[0][0]             
__________________________________________________________________________________________________
dropout_81 (Dropout)            (None, 53)           0           dense_53[0][0]                   
__________________________________________________________________________________________________
dense_54 (Dense)                (None, 4)            216         dropout_81[0][0]                 
==================================================================================================
Total params: 615,504
Trainable params: 615,504
Non-trainable params: 0
__________________________________________________________________________________________________
None
Train on 432446 samples, validate on 48050 samples
Epoch 1/20
 - 451s - loss: 0.0732 - acc: 0.9782 - val_loss: 0.0756 - val_acc: 1.0000
…
	Training (Important) : 3124, Test : 1954
	MWEs in tain : 1372, occurrences : 3583
	Impotant words in tain : 1175
	MWE length mean : 2.13
	Seen MWEs : 386 (57 %)
	New MWEs : 284 (42 %)
==================================================================================================
__________________________________________________________________________________________________
Layer (type)                    Output Shape         Param #     Connected to                     
==================================================================================================
input_55 (InputLayer)           (None, 7)            0                                            
__________________________________________________________________________________________________
input_56 (InputLayer)           (None, 7)            0                                            
__________________________________________________________________________________________________
embedding_55 (Embedding)        (None, 7, 318)       374604      input_55[0][0]                   
__________________________________________________________________________________________________
embedding_56 (Embedding)        (None, 7, 32)        608         input_56[0][0]                   
__________________________________________________________________________________________________
gru_55 (GRU)                    (None, 58)           65598       embedding_55[0][0]               
__________________________________________________________________________________________________
gru_56 (GRU)                    (None, 8)            984         embedding_56[0][0]               
__________________________________________________________________________________________________
dropout_82 (Dropout)            (None, 58)           0           gru_55[0][0]                     
__________________________________________________________________________________________________
dropout_83 (Dropout)            (None, 8)            0           gru_56[0][0]                     
__________________________________________________________________________________________________
concatenate_28 (Concatenate)    (None, 66)           0           dropout_82[0][0]                 
                                                                 dropout_83[0][0]                 
__________________________________________________________________________________________________
dense_55 (Dense)                (None, 86)           5762        concatenate_28[0][0]             
__________________________________________________________________________________________________
dropout_84 (Dropout)            (None, 86)           0           dense_55[0][0]                   
__________________________________________________________________________________________________
dense_56 (Dense)                (None, 4)            348         dropout_84[0][0]                 
==================================================================================================
Total params: 447,904
Trainable params: 447,904
Non-trainable params: 0
__________________________________________________________________________________________________
None
Train on 320835 samples, validate on 35649 samples
Epoch 1/20
 - 39s - loss: 0.0928 - acc: 0.9727 - val_loss: 0.0778 - val_acc: 0.9999
…
	Training (Important) : 2305, Test : 3117
	MWEs in tain : 1396, occurrences : 2518
	Impotant words in tain : 1131
	MWE length mean : 2.22
	Seen MWEs : 340 (61 %)
	New MWEs : 213 (38 %)
==================================================================================================
__________________________________________________________________________________________________
Layer (type)                    Output Shape         Param #     Connected to                     
==================================================================================================
input_57 (InputLayer)           (None, 7)            0                                            
__________________________________________________________________________________________________
input_58 (InputLayer)           (None, 7)            0                                            
__________________________________________________________________________________________________
embedding_57 (Embedding)        (None, 7, 318)       360612      input_57[0][0]                   
__________________________________________________________________________________________________
embedding_58 (Embedding)        (None, 7, 32)        608         input_58[0][0]                   
__________________________________________________________________________________________________
gru_57 (GRU)                    (None, 58)           65598       embedding_57[0][0]               
__________________________________________________________________________________________________
gru_58 (GRU)                    (None, 8)            984         embedding_58[0][0]               
__________________________________________________________________________________________________
dropout_85 (Dropout)            (None, 58)           0           gru_57[0][0]                     
__________________________________________________________________________________________________
dropout_86 (Dropout)            (None, 8)            0           gru_58[0][0]                     
__________________________________________________________________________________________________
concatenate_29 (Concatenate)    (None, 66)           0           dropout_85[0][0]                 
                                                                 dropout_86[0][0]                 
__________________________________________________________________________________________________
dense_57 (Dense)                (None, 86)           5762        concatenate_29[0][0]             
__________________________________________________________________________________________________
dropout_87 (Dropout)            (None, 86)           0           dense_57[0][0]                   
__________________________________________________________________________________________________
dense_58 (Dense)                (None, 4)            348         dropout_87[0][0]                 
==================================================================================================
Total params: 433,912
Trainable params: 433,912
Non-trainable params: 0
__________________________________________________________________________________________________
None
Train on 217231 samples, validate on 24137 samples
Epoch 1/20
 - 28s - loss: 0.0991 - acc: 0.9697 - val_loss: 0.1457 - val_acc: 0.9997
…
	Training (Important) : 3585, Test : 1320
	MWEs in tain : 1790, occurrences : 4856
	Impotant words in tain : 1200
	MWE length mean : 2.06
	Seen MWEs : 345 (67 %)
	New MWEs : 165 (32 %)
==================================================================================================
__________________________________________________________________________________________________
Layer (type)                    Output Shape         Param #     Connected to                     
==================================================================================================
input_59 (InputLayer)           (None, 7)            0                                            
__________________________________________________________________________________________________
input_60 (InputLayer)           (None, 7)            0                                            
__________________________________________________________________________________________________
embedding_59 (Embedding)        (None, 7, 318)       382554      input_59[0][0]                   
__________________________________________________________________________________________________
embedding_60 (Embedding)        (None, 7, 32)        448         input_60[0][0]                   
__________________________________________________________________________________________________
gru_59 (GRU)                    (None, 58)           65598       embedding_59[0][0]               
__________________________________________________________________________________________________
gru_60 (GRU)                    (None, 8)            984         embedding_60[0][0]               
__________________________________________________________________________________________________
dropout_88 (Dropout)            (None, 58)           0           gru_59[0][0]                     
__________________________________________________________________________________________________
dropout_89 (Dropout)            (None, 8)            0           gru_60[0][0]                     
__________________________________________________________________________________________________
concatenate_30 (Concatenate)    (None, 66)           0           dropout_88[0][0]                 
                                                                 dropout_89[0][0]                 
__________________________________________________________________________________________________
dense_59 (Dense)                (None, 86)           5762        concatenate_30[0][0]             
__________________________________________________________________________________________________
dropout_90 (Dropout)            (None, 86)           0           dense_59[0][0]                   
__________________________________________________________________________________________________
dense_60 (Dense)                (None, 4)            348         dropout_90[0][0]                 
==================================================================================================
Total params: 455,694
Trainable params: 455,694
Non-trainable params: 0
__________________________________________________________________________________________________
None
Train on 432446 samples, validate on 48050 samples
Epoch 1/20
 - 56s - loss: 0.0864 - acc: 0.9732 - val_loss: 0.0519 - val_acc: 1.0000
…
	Training (Important) : 3124, Test : 1954
	MWEs in tain : 1372, occurrences : 3583
	Impotant words in tain : 1175
	MWE length mean : 2.13
	Seen MWEs : 386 (57 %)
	New MWEs : 284 (42 %)
==================================================================================================
__________________________________________________________________________________________________
Layer (type)                    Output Shape         Param #     Connected to                     
==================================================================================================
input_61 (InputLayer)           (None, 7)            0                                            
__________________________________________________________________________________________________
input_62 (InputLayer)           (None, 7)            0                                            
__________________________________________________________________________________________________
embedding_61 (Embedding)        (None, 7, 343)       404054      input_61[0][0]                   
__________________________________________________________________________________________________
embedding_62 (Embedding)        (None, 7, 80)        1520        input_62[0][0]                   
__________________________________________________________________________________________________
gru_61 (GRU)                    (None, 71)           88395       embedding_61[0][0]               
__________________________________________________________________________________________________
gru_62 (GRU)                    (None, 44)           16500       embedding_62[0][0]               
__________________________________________________________________________________________________
dropout_91 (Dropout)            (None, 71)           0           gru_61[0][0]                     
__________________________________________________________________________________________________
dropout_92 (Dropout)            (None, 44)           0           gru_62[0][0]                     
__________________________________________________________________________________________________
concatenate_31 (Concatenate)    (None, 115)          0           dropout_91[0][0]                 
                                                                 dropout_92[0][0]                 
__________________________________________________________________________________________________
dense_61 (Dense)                (None, 26)           3016        concatenate_31[0][0]             
__________________________________________________________________________________________________
dropout_93 (Dropout)            (None, 26)           0           dense_61[0][0]                   
__________________________________________________________________________________________________
dense_62 (Dense)                (None, 4)            108         dropout_93[0][0]                 
==================================================================================================
Total params: 513,593
Trainable params: 513,593
Non-trainable params: 0
__________________________________________________________________________________________________
None
Train on 320835 samples, validate on 35649 samples
Epoch 1/20
 - 83s - loss: 0.0836 - acc: 0.9767 - val_loss: 0.0465 - val_acc: 0.9999
…
	Training (Important) : 2305, Test : 3117
	MWEs in tain : 1396, occurrences : 2518
	Impotant words in tain : 1131
	MWE length mean : 2.22
	Seen MWEs : 340 (61 %)
	New MWEs : 213 (38 %)
==================================================================================================
__________________________________________________________________________________________________
Layer (type)                    Output Shape         Param #     Connected to                     
==================================================================================================
input_63 (InputLayer)           (None, 7)            0                                            
__________________________________________________________________________________________________
input_64 (InputLayer)           (None, 7)            0                                            
__________________________________________________________________________________________________
embedding_63 (Embedding)        (None, 7, 343)       388962      input_63[0][0]                   
__________________________________________________________________________________________________
embedding_64 (Embedding)        (None, 7, 80)        1520        input_64[0][0]                   
__________________________________________________________________________________________________
gru_63 (GRU)                    (None, 71)           88395       embedding_63[0][0]               
__________________________________________________________________________________________________
gru_64 (GRU)                    (None, 44)           16500       embedding_64[0][0]               
__________________________________________________________________________________________________
dropout_94 (Dropout)            (None, 71)           0           gru_63[0][0]                     
__________________________________________________________________________________________________
dropout_95 (Dropout)            (None, 44)           0           gru_64[0][0]                     
__________________________________________________________________________________________________
concatenate_32 (Concatenate)    (None, 115)          0           dropout_94[0][0]                 
                                                                 dropout_95[0][0]                 
__________________________________________________________________________________________________
dense_63 (Dense)                (None, 26)           3016        concatenate_32[0][0]             
__________________________________________________________________________________________________
dropout_96 (Dropout)            (None, 26)           0           dense_63[0][0]                   
__________________________________________________________________________________________________
dense_64 (Dense)                (None, 4)            108         dropout_96[0][0]                 
==================================================================================================
Total params: 498,501
Trainable params: 498,501
Non-trainable params: 0
__________________________________________________________________________________________________
None
Train on 217231 samples, validate on 24137 samples
Epoch 1/20
 - 56s - loss: 0.0998 - acc: 0.9700 - val_loss: 0.0761 - val_acc: 0.9988
…
	Training (Important) : 3585, Test : 1320
	MWEs in tain : 1790, occurrences : 4856
	Impotant words in tain : 1200
	MWE length mean : 2.06
	Seen MWEs : 345 (67 %)
	New MWEs : 165 (32 %)
==================================================================================================
__________________________________________________________________________________________________
Layer (type)                    Output Shape         Param #     Connected to                     
==================================================================================================
input_65 (InputLayer)           (None, 7)            0                                            
__________________________________________________________________________________________________
input_66 (InputLayer)           (None, 7)            0                                            
__________________________________________________________________________________________________
embedding_65 (Embedding)        (None, 7, 343)       412629      input_65[0][0]                   
__________________________________________________________________________________________________
embedding_66 (Embedding)        (None, 7, 80)        1120        input_66[0][0]                   
__________________________________________________________________________________________________
gru_65 (GRU)                    (None, 71)           88395       embedding_65[0][0]               
__________________________________________________________________________________________________
gru_66 (GRU)                    (None, 44)           16500       embedding_66[0][0]               
__________________________________________________________________________________________________
dropout_97 (Dropout)            (None, 71)           0           gru_65[0][0]                     
__________________________________________________________________________________________________
dropout_98 (Dropout)            (None, 44)           0           gru_66[0][0]                     
__________________________________________________________________________________________________
concatenate_33 (Concatenate)    (None, 115)          0           dropout_97[0][0]                 
                                                                 dropout_98[0][0]                 
__________________________________________________________________________________________________
dense_65 (Dense)                (None, 26)           3016        concatenate_33[0][0]             
__________________________________________________________________________________________________
dropout_99 (Dropout)            (None, 26)           0           dense_65[0][0]                   
__________________________________________________________________________________________________
dense_66 (Dense)                (None, 4)            108         dropout_99[0][0]                 
==================================================================================================
Total params: 521,768
Trainable params: 521,768
Non-trainable params: 0
__________________________________________________________________________________________________
None
Train on 432446 samples, validate on 48050 samples
Epoch 1/20
 - 113s - loss: 0.0836 - acc: 0.9749 - val_loss: 0.0719 - val_acc: 1.0000
…
	Training (Important) : 3124, Test : 1954
	MWEs in tain : 1372, occurrences : 3583
	Impotant words in tain : 1175
	MWE length mean : 2.13
	Seen MWEs : 386 (57 %)
	New MWEs : 284 (42 %)
==================================================================================================
__________________________________________________________________________________________________
Layer (type)                    Output Shape         Param #     Connected to                     
==================================================================================================
input_67 (InputLayer)           (None, 7)            0                                            
__________________________________________________________________________________________________
input_68 (InputLayer)           (None, 7)            0                                            
__________________________________________________________________________________________________
embedding_67 (Embedding)        (None, 7, 343)       404054      input_67[0][0]                   
__________________________________________________________________________________________________
embedding_68 (Embedding)        (None, 7, 82)        1558        input_68[0][0]                   
__________________________________________________________________________________________________
gru_67 (GRU)                    (None, 71)           88395       embedding_67[0][0]               
__________________________________________________________________________________________________
gru_68 (GRU)                    (None, 41)           15252       embedding_68[0][0]               
__________________________________________________________________________________________________
dropout_100 (Dropout)           (None, 71)           0           gru_67[0][0]                     
__________________________________________________________________________________________________
dropout_101 (Dropout)           (None, 41)           0           gru_68[0][0]                     
__________________________________________________________________________________________________
concatenate_34 (Concatenate)    (None, 112)          0           dropout_100[0][0]                
                                                                 dropout_101[0][0]                
__________________________________________________________________________________________________
dense_67 (Dense)                (None, 46)           5198        concatenate_34[0][0]             
__________________________________________________________________________________________________
dropout_102 (Dropout)           (None, 46)           0           dense_67[0][0]                   
__________________________________________________________________________________________________
dense_68 (Dense)                (None, 4)            188         dropout_102[0][0]                
==================================================================================================
Total params: 514,645
Trainable params: 514,645
Non-trainable params: 0
__________________________________________________________________________________________________
None
Train on 320835 samples, validate on 35649 samples
Epoch 1/20
 - 42s - loss: 0.0845 - acc: 0.9746 - val_loss: 0.0816 - val_acc: 0.9996
…
	Training (Important) : 2305, Test : 3117
	MWEs in tain : 1396, occurrences : 2518
	Impotant words in tain : 1131
	MWE length mean : 2.22
	Seen MWEs : 340 (61 %)
	New MWEs : 213 (38 %)
==================================================================================================
__________________________________________________________________________________________________
Layer (type)                    Output Shape         Param #     Connected to                     
==================================================================================================
input_69 (InputLayer)           (None, 7)            0                                            
__________________________________________________________________________________________________
input_70 (InputLayer)           (None, 7)            0                                            
__________________________________________________________________________________________________
embedding_69 (Embedding)        (None, 7, 343)       388962      input_69[0][0]                   
__________________________________________________________________________________________________
embedding_70 (Embedding)        (None, 7, 82)        1558        input_70[0][0]                   
__________________________________________________________________________________________________
gru_69 (GRU)                    (None, 71)           88395       embedding_69[0][0]               
__________________________________________________________________________________________________
gru_70 (GRU)                    (None, 41)           15252       embedding_70[0][0]               
__________________________________________________________________________________________________
dropout_103 (Dropout)           (None, 71)           0           gru_69[0][0]                     
__________________________________________________________________________________________________
dropout_104 (Dropout)           (None, 41)           0           gru_70[0][0]                     
__________________________________________________________________________________________________
concatenate_35 (Concatenate)    (None, 112)          0           dropout_103[0][0]                
                                                                 dropout_104[0][0]                
__________________________________________________________________________________________________
dense_69 (Dense)                (None, 46)           5198        concatenate_35[0][0]             
__________________________________________________________________________________________________
dropout_105 (Dropout)           (None, 46)           0           dense_69[0][0]                   
__________________________________________________________________________________________________
dense_70 (Dense)                (None, 4)            188         dropout_105[0][0]                
==================================================================================================
Total params: 499,553
Trainable params: 499,553
Non-trainable params: 0
__________________________________________________________________________________________________
None
Train on 217231 samples, validate on 24137 samples
Epoch 1/20
 - 28s - loss: 0.0998 - acc: 0.9677 - val_loss: 0.0461 - val_acc: 0.9994
…
	Training (Important) : 3585, Test : 1320
	MWEs in tain : 1790, occurrences : 4856
	Impotant words in tain : 1200
	MWE length mean : 2.06
	Seen MWEs : 345 (67 %)
	New MWEs : 165 (32 %)
==================================================================================================
__________________________________________________________________________________________________
Layer (type)                    Output Shape         Param #     Connected to                     
==================================================================================================
input_71 (InputLayer)           (None, 7)            0                                            
__________________________________________________________________________________________________
input_72 (InputLayer)           (None, 7)            0                                            
__________________________________________________________________________________________________
embedding_71 (Embedding)        (None, 7, 343)       412629      input_71[0][0]                   
__________________________________________________________________________________________________
embedding_72 (Embedding)        (None, 7, 82)        1148        input_72[0][0]                   
__________________________________________________________________________________________________
gru_71 (GRU)                    (None, 71)           88395       embedding_71[0][0]               
__________________________________________________________________________________________________
gru_72 (GRU)                    (None, 41)           15252       embedding_72[0][0]               
__________________________________________________________________________________________________
dropout_106 (Dropout)           (None, 71)           0           gru_71[0][0]                     
__________________________________________________________________________________________________
dropout_107 (Dropout)           (None, 41)           0           gru_72[0][0]                     
__________________________________________________________________________________________________
concatenate_36 (Concatenate)    (None, 112)          0           dropout_106[0][0]                
                                                                 dropout_107[0][0]                
__________________________________________________________________________________________________
dense_71 (Dense)                (None, 46)           5198        concatenate_36[0][0]             
__________________________________________________________________________________________________
dropout_108 (Dropout)           (None, 46)           0           dense_71[0][0]                   
__________________________________________________________________________________________________
dense_72 (Dense)                (None, 4)            188         dropout_108[0][0]                
==================================================================================================
Total params: 522,810
Trainable params: 522,810
Non-trainable params: 0
__________________________________________________________________________________________________
None
Train on 432446 samples, validate on 48050 samples
Epoch 1/20
 - 57s - loss: 0.0842 - acc: 0.9748 - val_loss: 0.0614 - val_acc: 1.0000
…
	Training (Important) : 3124, Test : 1954
	MWEs in tain : 1372, occurrences : 3583
	Impotant words in tain : 1175
	MWE length mean : 2.13
	Seen MWEs : 386 (57 %)
	New MWEs : 284 (42 %)
==================================================================================================
__________________________________________________________________________________________________
Layer (type)                    Output Shape         Param #     Connected to                     
==================================================================================================
input_73 (InputLayer)           (None, 7)            0                                            
__________________________________________________________________________________________________
input_74 (InputLayer)           (None, 7)            0                                            
__________________________________________________________________________________________________
embedding_73 (Embedding)        (None, 7, 371)       437038      input_73[0][0]                   
__________________________________________________________________________________________________
embedding_74 (Embedding)        (None, 7, 67)        1273        input_74[0][0]                   
__________________________________________________________________________________________________
gru_73 (GRU)                    (None, 29)           34887       embedding_73[0][0]               
__________________________________________________________________________________________________
gru_74 (GRU)                    (None, 15)           3735        embedding_74[0][0]               
__________________________________________________________________________________________________
dropout_109 (Dropout)           (None, 29)           0           gru_73[0][0]                     
__________________________________________________________________________________________________
dropout_110 (Dropout)           (None, 15)           0           gru_74[0][0]                     
__________________________________________________________________________________________________
concatenate_37 (Concatenate)    (None, 44)           0           dropout_109[0][0]                
                                                                 dropout_110[0][0]                
__________________________________________________________________________________________________
dense_73 (Dense)                (None, 57)           2565        concatenate_37[0][0]             
__________________________________________________________________________________________________
dropout_111 (Dropout)           (None, 57)           0           dense_73[0][0]                   
__________________________________________________________________________________________________
dense_74 (Dense)                (None, 4)            232         dropout_111[0][0]                
==================================================================================================
Total params: 479,730
Trainable params: 479,730
Non-trainable params: 0
__________________________________________________________________________________________________
None
Train on 320835 samples, validate on 35649 samples
Epoch 1/20
 - 165s - loss: 0.0751 - acc: 0.9786 - val_loss: 0.0597 - val_acc: 1.0000
…
	Training (Important) : 2305, Test : 3117
	MWEs in tain : 1396, occurrences : 2518
	Impotant words in tain : 1131
	MWE length mean : 2.22
	Seen MWEs : 340 (61 %)
	New MWEs : 213 (38 %)
==================================================================================================
__________________________________________________________________________________________________
Layer (type)                    Output Shape         Param #     Connected to                     
==================================================================================================
input_75 (InputLayer)           (None, 7)            0                                            
__________________________________________________________________________________________________
input_76 (InputLayer)           (None, 7)            0                                            
__________________________________________________________________________________________________
embedding_75 (Embedding)        (None, 7, 371)       420714      input_75[0][0]                   
__________________________________________________________________________________________________
embedding_76 (Embedding)        (None, 7, 67)        1273        input_76[0][0]                   
__________________________________________________________________________________________________
gru_75 (GRU)                    (None, 29)           34887       embedding_75[0][0]               
__________________________________________________________________________________________________
gru_76 (GRU)                    (None, 15)           3735        embedding_76[0][0]               
__________________________________________________________________________________________________
dropout_112 (Dropout)           (None, 29)           0           gru_75[0][0]                     
__________________________________________________________________________________________________
dropout_113 (Dropout)           (None, 15)           0           gru_76[0][0]                     
__________________________________________________________________________________________________
concatenate_38 (Concatenate)    (None, 44)           0           dropout_112[0][0]                
                                                                 dropout_113[0][0]                
__________________________________________________________________________________________________
dense_75 (Dense)                (None, 57)           2565        concatenate_38[0][0]             
__________________________________________________________________________________________________
dropout_114 (Dropout)           (None, 57)           0           dense_75[0][0]                   
__________________________________________________________________________________________________
dense_76 (Dense)                (None, 4)            232         dropout_114[0][0]                
==================================================================================================
Total params: 463,406
Trainable params: 463,406
Non-trainable params: 0
__________________________________________________________________________________________________
None
Train on 217231 samples, validate on 24137 samples
Epoch 1/20
 - 113s - loss: 0.0854 - acc: 0.9745 - val_loss: 0.0613 - val_acc: 0.9994
…
	Training (Important) : 3585, Test : 1320
	MWEs in tain : 1790, occurrences : 4856
	Impotant words in tain : 1200
	MWE length mean : 2.06
	Seen MWEs : 345 (67 %)
	New MWEs : 165 (32 %)
==================================================================================================
__________________________________________________________________________________________________
Layer (type)                    Output Shape         Param #     Connected to                     
==================================================================================================
input_77 (InputLayer)           (None, 7)            0                                            
__________________________________________________________________________________________________
input_78 (InputLayer)           (None, 7)            0                                            
__________________________________________________________________________________________________
embedding_77 (Embedding)        (None, 7, 371)       446313      input_77[0][0]                   
__________________________________________________________________________________________________
embedding_78 (Embedding)        (None, 7, 67)        938         input_78[0][0]                   
__________________________________________________________________________________________________
gru_77 (GRU)                    (None, 29)           34887       embedding_77[0][0]               
__________________________________________________________________________________________________
gru_78 (GRU)                    (None, 15)           3735        embedding_78[0][0]               
__________________________________________________________________________________________________
dropout_115 (Dropout)           (None, 29)           0           gru_77[0][0]                     
__________________________________________________________________________________________________
dropout_116 (Dropout)           (None, 15)           0           gru_78[0][0]                     
__________________________________________________________________________________________________
concatenate_39 (Concatenate)    (None, 44)           0           dropout_115[0][0]                
                                                                 dropout_116[0][0]                
__________________________________________________________________________________________________
dense_77 (Dense)                (None, 57)           2565        concatenate_39[0][0]             
__________________________________________________________________________________________________
dropout_117 (Dropout)           (None, 57)           0           dense_77[0][0]                   
__________________________________________________________________________________________________
dense_78 (Dense)                (None, 4)            232         dropout_117[0][0]                
==================================================================================================
Total params: 488,670
Trainable params: 488,670
Non-trainable params: 0
__________________________________________________________________________________________________
None
Train on 432446 samples, validate on 48050 samples
Epoch 1/20
 - 223s - loss: 0.0773 - acc: 0.9766 - val_loss: 0.0707 - val_acc: 1.0000
…
	Training (Important) : 3124, Test : 1954
	MWEs in tain : 1372, occurrences : 3583
	Impotant words in tain : 1175
	MWE length mean : 2.13
	Seen MWEs : 386 (57 %)
	New MWEs : 284 (42 %)
==================================================================================================
__________________________________________________________________________________________________
Layer (type)                    Output Shape         Param #     Connected to                     
==================================================================================================
input_79 (InputLayer)           (None, 7)            0                                            
__________________________________________________________________________________________________
input_80 (InputLayer)           (None, 7)            0                                            
__________________________________________________________________________________________________
embedding_79 (Embedding)        (None, 7, 286)       336908      input_79[0][0]                   
__________________________________________________________________________________________________
embedding_80 (Embedding)        (None, 7, 61)        1159        input_80[0][0]                   
__________________________________________________________________________________________________
gru_79 (GRU)                    (None, 37)           35964       embedding_79[0][0]               
__________________________________________________________________________________________________
gru_80 (GRU)                    (None, 15)           3465        embedding_80[0][0]               
__________________________________________________________________________________________________
dropout_118 (Dropout)           (None, 37)           0           gru_79[0][0]                     
__________________________________________________________________________________________________
dropout_119 (Dropout)           (None, 15)           0           gru_80[0][0]                     
__________________________________________________________________________________________________
concatenate_40 (Concatenate)    (None, 52)           0           dropout_118[0][0]                
                                                                 dropout_119[0][0]                
__________________________________________________________________________________________________
dense_79 (Dense)                (None, 23)           1219        concatenate_40[0][0]             
__________________________________________________________________________________________________
dropout_120 (Dropout)           (None, 23)           0           dense_79[0][0]                   
__________________________________________________________________________________________________
dense_80 (Dense)                (None, 4)            96          dropout_120[0][0]                
==================================================================================================
Total params: 378,811
Trainable params: 378,811
Non-trainable params: 0
__________________________________________________________________________________________________
None
Train on 320835 samples, validate on 35649 samples
Epoch 1/20
 - 329s - loss: 0.0766 - acc: 0.9784 - val_loss: 0.0813 - val_acc: 0.9997
…
	Training (Important) : 2305, Test : 3117
	MWEs in tain : 1396, occurrences : 2518
	Impotant words in tain : 1131
	MWE length mean : 2.22
	Seen MWEs : 340 (61 %)
	New MWEs : 213 (38 %)
==================================================================================================
__________________________________________________________________________________________________
Layer (type)                    Output Shape         Param #     Connected to                     
==================================================================================================
input_81 (InputLayer)           (None, 7)            0                                            
__________________________________________________________________________________________________
input_82 (InputLayer)           (None, 7)            0                                            
__________________________________________________________________________________________________
embedding_81 (Embedding)        (None, 7, 286)       324324      input_81[0][0]                   
__________________________________________________________________________________________________
embedding_82 (Embedding)        (None, 7, 61)        1159        input_82[0][0]                   
__________________________________________________________________________________________________
gru_81 (GRU)                    (None, 37)           35964       embedding_81[0][0]               
__________________________________________________________________________________________________
gru_82 (GRU)                    (None, 15)           3465        embedding_82[0][0]               
__________________________________________________________________________________________________
dropout_121 (Dropout)           (None, 37)           0           gru_81[0][0]                     
__________________________________________________________________________________________________
dropout_122 (Dropout)           (None, 15)           0           gru_82[0][0]                     
__________________________________________________________________________________________________
concatenate_41 (Concatenate)    (None, 52)           0           dropout_121[0][0]                
                                                                 dropout_122[0][0]                
__________________________________________________________________________________________________
dense_81 (Dense)                (None, 23)           1219        concatenate_41[0][0]             
__________________________________________________________________________________________________
dropout_123 (Dropout)           (None, 23)           0           dense_81[0][0]                   
__________________________________________________________________________________________________
dense_82 (Dense)                (None, 4)            96          dropout_123[0][0]                
==================================================================================================
Total params: 366,227
Trainable params: 366,227
Non-trainable params: 0
__________________________________________________________________________________________________
None
Train on 217231 samples, validate on 24137 samples
Epoch 1/20
 - 225s - loss: 0.0869 - acc: 0.9742 - val_loss: 0.0721 - val_acc: 0.9995
…
	Training (Important) : 3585, Test : 1320
	MWEs in tain : 1790, occurrences : 4856
	Impotant words in tain : 1200
	MWE length mean : 2.06
	Seen MWEs : 345 (67 %)
	New MWEs : 165 (32 %)
==================================================================================================
__________________________________________________________________________________________________
Layer (type)                    Output Shape         Param #     Connected to                     
==================================================================================================
input_83 (InputLayer)           (None, 7)            0                                            
__________________________________________________________________________________________________
input_84 (InputLayer)           (None, 7)            0                                            
__________________________________________________________________________________________________
embedding_83 (Embedding)        (None, 7, 286)       344058      input_83[0][0]                   
__________________________________________________________________________________________________
embedding_84 (Embedding)        (None, 7, 61)        854         input_84[0][0]                   
__________________________________________________________________________________________________
gru_83 (GRU)                    (None, 37)           35964       embedding_83[0][0]               
__________________________________________________________________________________________________
gru_84 (GRU)                    (None, 15)           3465        embedding_84[0][0]               
__________________________________________________________________________________________________
dropout_124 (Dropout)           (None, 37)           0           gru_83[0][0]                     
__________________________________________________________________________________________________
dropout_125 (Dropout)           (None, 15)           0           gru_84[0][0]                     
__________________________________________________________________________________________________
concatenate_42 (Concatenate)    (None, 52)           0           dropout_124[0][0]                
                                                                 dropout_125[0][0]                
__________________________________________________________________________________________________
dense_83 (Dense)                (None, 23)           1219        concatenate_42[0][0]             
__________________________________________________________________________________________________
dropout_126 (Dropout)           (None, 23)           0           dense_83[0][0]                   
__________________________________________________________________________________________________
dense_84 (Dense)                (None, 4)            96          dropout_126[0][0]                
==================================================================================================
Total params: 385,656
Trainable params: 385,656
Non-trainable params: 0
__________________________________________________________________________________________________
None
Train on 432446 samples, validate on 48050 samples
Epoch 1/20
 - 449s - loss: 0.0747 - acc: 0.9778 - val_loss: 0.0875 - val_acc: 1.0000
…
	Training (Important) : 3124, Test : 1954
	MWEs in tain : 1372, occurrences : 3583
	Impotant words in tain : 1175
	MWE length mean : 2.13
	Seen MWEs : 386 (57 %)
	New MWEs : 284 (42 %)
==================================================================================================
__________________________________________________________________________________________________
Layer (type)                    Output Shape         Param #     Connected to                     
==================================================================================================
input_85 (InputLayer)           (None, 7)            0                                            
__________________________________________________________________________________________________
input_86 (InputLayer)           (None, 7)            0                                            
__________________________________________________________________________________________________
embedding_85 (Embedding)        (None, 7, 225)       265050      input_85[0][0]                   
__________________________________________________________________________________________________
embedding_86 (Embedding)        (None, 7, 99)        1881        input_86[0][0]                   
__________________________________________________________________________________________________
gru_85 (GRU)                    (None, 21)           15561       embedding_85[0][0]               
__________________________________________________________________________________________________
gru_86 (GRU)                    (None, 11)           3663        embedding_86[0][0]               
__________________________________________________________________________________________________
dropout_127 (Dropout)           (None, 21)           0           gru_85[0][0]                     
__________________________________________________________________________________________________
dropout_128 (Dropout)           (None, 11)           0           gru_86[0][0]                     
__________________________________________________________________________________________________
concatenate_43 (Concatenate)    (None, 32)           0           dropout_127[0][0]                
                                                                 dropout_128[0][0]                
__________________________________________________________________________________________________
dense_85 (Dense)                (None, 21)           693         concatenate_43[0][0]             
__________________________________________________________________________________________________
dropout_129 (Dropout)           (None, 21)           0           dense_85[0][0]                   
__________________________________________________________________________________________________
dense_86 (Dense)                (None, 4)            88          dropout_129[0][0]                
==================================================================================================
Total params: 286,936
Trainable params: 286,936
Non-trainable params: 0
__________________________________________________________________________________________________
None
Train on 320835 samples, validate on 35649 samples
Epoch 1/20
 - 41s - loss: 0.0959 - acc: 0.9732 - val_loss: 0.0588 - val_acc: 0.9992
…
	Training (Important) : 2305, Test : 3117
	MWEs in tain : 1396, occurrences : 2518
	Impotant words in tain : 1131
	MWE length mean : 2.22
	Seen MWEs : 340 (61 %)
	New MWEs : 213 (38 %)
==================================================================================================
__________________________________________________________________________________________________
Layer (type)                    Output Shape         Param #     Connected to                     
==================================================================================================
input_87 (InputLayer)           (None, 7)            0                                            
__________________________________________________________________________________________________
input_88 (InputLayer)           (None, 7)            0                                            
__________________________________________________________________________________________________
embedding_87 (Embedding)        (None, 7, 225)       255150      input_87[0][0]                   
__________________________________________________________________________________________________
embedding_88 (Embedding)        (None, 7, 99)        1881        input_88[0][0]                   
__________________________________________________________________________________________________
gru_87 (GRU)                    (None, 21)           15561       embedding_87[0][0]               
__________________________________________________________________________________________________
gru_88 (GRU)                    (None, 11)           3663        embedding_88[0][0]               
__________________________________________________________________________________________________
dropout_130 (Dropout)           (None, 21)           0           gru_87[0][0]                     
__________________________________________________________________________________________________
dropout_131 (Dropout)           (None, 11)           0           gru_88[0][0]                     
__________________________________________________________________________________________________
concatenate_44 (Concatenate)    (None, 32)           0           dropout_130[0][0]                
                                                                 dropout_131[0][0]                
__________________________________________________________________________________________________
dense_87 (Dense)                (None, 21)           693         concatenate_44[0][0]             
__________________________________________________________________________________________________
dropout_132 (Dropout)           (None, 21)           0           dense_87[0][0]                   
__________________________________________________________________________________________________
dense_88 (Dense)                (None, 4)            88          dropout_132[0][0]                
==================================================================================================
Total params: 277,036
Trainable params: 277,036
Non-trainable params: 0
__________________________________________________________________________________________________
None
Train on 217231 samples, validate on 24137 samples
Epoch 1/20
 - 28s - loss: 0.1142 - acc: 0.9633 - val_loss: 0.0649 - val_acc: 0.9981
…
	Training (Important) : 3585, Test : 1320
	MWEs in tain : 1790, occurrences : 4856
	Impotant words in tain : 1200
	MWE length mean : 2.06
	Seen MWEs : 345 (67 %)
	New MWEs : 165 (32 %)
==================================================================================================
__________________________________________________________________________________________________
Layer (type)                    Output Shape         Param #     Connected to                     
==================================================================================================
input_89 (InputLayer)           (None, 7)            0                                            
__________________________________________________________________________________________________
input_90 (InputLayer)           (None, 7)            0                                            
__________________________________________________________________________________________________
embedding_89 (Embedding)        (None, 7, 225)       270675      input_89[0][0]                   
__________________________________________________________________________________________________
embedding_90 (Embedding)        (None, 7, 99)        1386        input_90[0][0]                   
__________________________________________________________________________________________________
gru_89 (GRU)                    (None, 21)           15561       embedding_89[0][0]               
__________________________________________________________________________________________________
gru_90 (GRU)                    (None, 11)           3663        embedding_90[0][0]               
__________________________________________________________________________________________________
dropout_133 (Dropout)           (None, 21)           0           gru_89[0][0]                     
__________________________________________________________________________________________________
dropout_134 (Dropout)           (None, 11)           0           gru_90[0][0]                     
__________________________________________________________________________________________________
concatenate_45 (Concatenate)    (None, 32)           0           dropout_133[0][0]                
                                                                 dropout_134[0][0]                
__________________________________________________________________________________________________
dense_89 (Dense)                (None, 21)           693         concatenate_45[0][0]             
__________________________________________________________________________________________________
dropout_135 (Dropout)           (None, 21)           0           dense_89[0][0]                   
__________________________________________________________________________________________________
dense_90 (Dense)                (None, 4)            88          dropout_135[0][0]                
==================================================================================================
Total params: 292,066
Trainable params: 292,066
Non-trainable params: 0
__________________________________________________________________________________________________
None
Train on 432446 samples, validate on 48050 samples
Epoch 1/20
 - 55s - loss: 0.0939 - acc: 0.9701 - val_loss: 0.0749 - val_acc: 1.0000
…
	Training (Important) : 3124, Test : 1954
	MWEs in tain : 1372, occurrences : 3583
	Impotant words in tain : 1175
	MWE length mean : 2.13
	Seen MWEs : 386 (57 %)
	New MWEs : 284 (42 %)
==================================================================================================
__________________________________________________________________________________________________
Layer (type)                    Output Shape         Param #     Connected to                     
==================================================================================================
input_91 (InputLayer)           (None, 7)            0                                            
__________________________________________________________________________________________________
input_92 (InputLayer)           (None, 7)            0                                            
__________________________________________________________________________________________________
embedding_91 (Embedding)        (None, 7, 457)       538346      input_91[0][0]                   
__________________________________________________________________________________________________
embedding_92 (Embedding)        (None, 7, 14)        266         input_92[0][0]                   
__________________________________________________________________________________________________
gru_91 (GRU)                    (None, 32)           47040       embedding_91[0][0]               
__________________________________________________________________________________________________
gru_92 (GRU)                    (None, 45)           8100        embedding_92[0][0]               
__________________________________________________________________________________________________
dropout_136 (Dropout)           (None, 32)           0           gru_91[0][0]                     
__________________________________________________________________________________________________
dropout_137 (Dropout)           (None, 45)           0           gru_92[0][0]                     
__________________________________________________________________________________________________
concatenate_46 (Concatenate)    (None, 77)           0           dropout_136[0][0]                
                                                                 dropout_137[0][0]                
__________________________________________________________________________________________________
dense_91 (Dense)                (None, 73)           5694        concatenate_46[0][0]             
__________________________________________________________________________________________________
dropout_138 (Dropout)           (None, 73)           0           dense_91[0][0]                   
__________________________________________________________________________________________________
dense_92 (Dense)                (None, 4)            296         dropout_138[0][0]                
==================================================================================================
Total params: 599,742
Trainable params: 599,742
Non-trainable params: 0
__________________________________________________________________________________________________
None
Train on 320835 samples, validate on 35649 samples
Epoch 1/20
 - 42s - loss: 0.0848 - acc: 0.9756 - val_loss: 0.0686 - val_acc: 0.9996
…
	Training (Important) : 2305, Test : 3117
	MWEs in tain : 1396, occurrences : 2518
	Impotant words in tain : 1131
	MWE length mean : 2.22
	Seen MWEs : 340 (61 %)
	New MWEs : 213 (38 %)
==================================================================================================
__________________________________________________________________________________________________
Layer (type)                    Output Shape         Param #     Connected to                     
==================================================================================================
input_93 (InputLayer)           (None, 7)            0                                            
__________________________________________________________________________________________________
input_94 (InputLayer)           (None, 7)            0                                            
__________________________________________________________________________________________________
embedding_93 (Embedding)        (None, 7, 457)       518238      input_93[0][0]                   
__________________________________________________________________________________________________
embedding_94 (Embedding)        (None, 7, 14)        266         input_94[0][0]                   
__________________________________________________________________________________________________
gru_93 (GRU)                    (None, 32)           47040       embedding_93[0][0]               
__________________________________________________________________________________________________
gru_94 (GRU)                    (None, 45)           8100        embedding_94[0][0]               
__________________________________________________________________________________________________
dropout_139 (Dropout)           (None, 32)           0           gru_93[0][0]                     
__________________________________________________________________________________________________
dropout_140 (Dropout)           (None, 45)           0           gru_94[0][0]                     
__________________________________________________________________________________________________
concatenate_47 (Concatenate)    (None, 77)           0           dropout_139[0][0]                
                                                                 dropout_140[0][0]                
__________________________________________________________________________________________________
dense_93 (Dense)                (None, 73)           5694        concatenate_47[0][0]             
__________________________________________________________________________________________________
dropout_141 (Dropout)           (None, 73)           0           dense_93[0][0]                   
__________________________________________________________________________________________________
dense_94 (Dense)                (None, 4)            296         dropout_141[0][0]                
==================================================================================================
Total params: 579,634
Trainable params: 579,634
Non-trainable params: 0
__________________________________________________________________________________________________
None
Train on 217231 samples, validate on 24137 samples
Epoch 1/20
 - 28s - loss: 0.0940 - acc: 0.9710 - val_loss: 0.0699 - val_acc: 0.9994
…
	Training (Important) : 3585, Test : 1320
	MWEs in tain : 1790, occurrences : 4856
	Impotant words in tain : 1200
	MWE length mean : 2.06
	Seen MWEs : 345 (67 %)
	New MWEs : 165 (32 %)
==================================================================================================
__________________________________________________________________________________________________
Layer (type)                    Output Shape         Param #     Connected to                     
==================================================================================================
input_95 (InputLayer)           (None, 7)            0                                            
__________________________________________________________________________________________________
input_96 (InputLayer)           (None, 7)            0                                            
__________________________________________________________________________________________________
embedding_95 (Embedding)        (None, 7, 457)       549771      input_95[0][0]                   
__________________________________________________________________________________________________
embedding_96 (Embedding)        (None, 7, 14)        196         input_96[0][0]                   
__________________________________________________________________________________________________
gru_95 (GRU)                    (None, 32)           47040       embedding_95[0][0]               
__________________________________________________________________________________________________
gru_96 (GRU)                    (None, 45)           8100        embedding_96[0][0]               
__________________________________________________________________________________________________
dropout_142 (Dropout)           (None, 32)           0           gru_95[0][0]                     
__________________________________________________________________________________________________
dropout_143 (Dropout)           (None, 45)           0           gru_96[0][0]                     
__________________________________________________________________________________________________
concatenate_48 (Concatenate)    (None, 77)           0           dropout_142[0][0]                
                                                                 dropout_143[0][0]                
__________________________________________________________________________________________________
dense_95 (Dense)                (None, 73)           5694        concatenate_48[0][0]             
__________________________________________________________________________________________________
dropout_144 (Dropout)           (None, 73)           0           dense_95[0][0]                   
__________________________________________________________________________________________________
dense_96 (Dense)                (None, 4)            296         dropout_144[0][0]                
==================================================================================================
Total params: 611,097
Trainable params: 611,097
Non-trainable params: 0
__________________________________________________________________________________________________
None
Train on 432446 samples, validate on 48050 samples
Epoch 1/20
 - 57s - loss: 0.0817 - acc: 0.9748 - val_loss: 0.0523 - val_acc: 1.0000
…
	Training (Important) : 3124, Test : 1954
	MWEs in tain : 1372, occurrences : 3583
	Impotant words in tain : 1175
	MWE length mean : 2.13
	Seen MWEs : 386 (57 %)
	New MWEs : 284 (42 %)
==================================================================================================
__________________________________________________________________________________________________
Layer (type)                    Output Shape         Param #     Connected to                     
==================================================================================================
input_97 (InputLayer)           (None, 7)            0                                            
__________________________________________________________________________________________________
input_98 (InputLayer)           (None, 7)            0                                            
__________________________________________________________________________________________________
embedding_97 (Embedding)        (None, 7, 350)       412300      input_97[0][0]                   
__________________________________________________________________________________________________
embedding_98 (Embedding)        (None, 7, 96)        1824        input_98[0][0]                   
__________________________________________________________________________________________________
gru_97 (GRU)                    (None, 68)           85476       embedding_97[0][0]               
__________________________________________________________________________________________________
gru_98 (GRU)                    (None, 35)           13860       embedding_98[0][0]               
__________________________________________________________________________________________________
dropout_145 (Dropout)           (None, 68)           0           gru_97[0][0]                     
__________________________________________________________________________________________________
dropout_146 (Dropout)           (None, 35)           0           gru_98[0][0]                     
__________________________________________________________________________________________________
concatenate_49 (Concatenate)    (None, 103)          0           dropout_145[0][0]                
                                                                 dropout_146[0][0]                
__________________________________________________________________________________________________
dense_97 (Dense)                (None, 88)           9152        concatenate_49[0][0]             
__________________________________________________________________________________________________
dropout_147 (Dropout)           (None, 88)           0           dense_97[0][0]                   
__________________________________________________________________________________________________
dense_98 (Dense)                (None, 4)            356         dropout_147[0][0]                
==================================================================================================
Total params: 522,968
Trainable params: 522,968
Non-trainable params: 0
__________________________________________________________________________________________________
None
Train on 320835 samples, validate on 35649 samples
Epoch 1/20
 - 327s - loss: 0.0691 - acc: 0.9801 - val_loss: 0.0474 - val_acc: 1.0000
…
	Training (Important) : 2305, Test : 3117
	MWEs in tain : 1396, occurrences : 2518
	Impotant words in tain : 1131
	MWE length mean : 2.22
	Seen MWEs : 340 (61 %)
	New MWEs : 213 (38 %)
==================================================================================================
__________________________________________________________________________________________________
Layer (type)                    Output Shape         Param #     Connected to                     
==================================================================================================
input_99 (InputLayer)           (None, 7)            0                                            
__________________________________________________________________________________________________
input_100 (InputLayer)          (None, 7)            0                                            
__________________________________________________________________________________________________
embedding_99 (Embedding)        (None, 7, 350)       396900      input_99[0][0]                   
__________________________________________________________________________________________________
embedding_100 (Embedding)       (None, 7, 96)        1824        input_100[0][0]                  
__________________________________________________________________________________________________
gru_99 (GRU)                    (None, 68)           85476       embedding_99[0][0]               
__________________________________________________________________________________________________
gru_100 (GRU)                   (None, 35)           13860       embedding_100[0][0]              
__________________________________________________________________________________________________
dropout_148 (Dropout)           (None, 68)           0           gru_99[0][0]                     
__________________________________________________________________________________________________
dropout_149 (Dropout)           (None, 35)           0           gru_100[0][0]                    
__________________________________________________________________________________________________
concatenate_50 (Concatenate)    (None, 103)          0           dropout_148[0][0]                
                                                                 dropout_149[0][0]                
__________________________________________________________________________________________________
dense_99 (Dense)                (None, 88)           9152        concatenate_50[0][0]             
__________________________________________________________________________________________________
dropout_150 (Dropout)           (None, 88)           0           dense_99[0][0]                   
__________________________________________________________________________________________________
dense_100 (Dense)               (None, 4)            356         dropout_150[0][0]                
==================================================================================================
Total params: 507,568
Trainable params: 507,568
Non-trainable params: 0
__________________________________________________________________________________________________
None
Train on 217231 samples, validate on 24137 samples
Epoch 1/20
 - 223s - loss: 0.0776 - acc: 0.9768 - val_loss: 0.0928 - val_acc: 0.9997
…
	Training (Important) : 3585, Test : 1320
	MWEs in tain : 1790, occurrences : 4856
	Impotant words in tain : 1200
	MWE length mean : 2.06
	Seen MWEs : 345 (67 %)
	New MWEs : 165 (32 %)
==================================================================================================
__________________________________________________________________________________________________
Layer (type)                    Output Shape         Param #     Connected to                     
==================================================================================================
input_101 (InputLayer)          (None, 7)            0                                            
__________________________________________________________________________________________________
input_102 (InputLayer)          (None, 7)            0                                            
__________________________________________________________________________________________________
embedding_101 (Embedding)       (None, 7, 350)       421050      input_101[0][0]                  
__________________________________________________________________________________________________
embedding_102 (Embedding)       (None, 7, 96)        1344        input_102[0][0]                  
__________________________________________________________________________________________________
gru_101 (GRU)                   (None, 68)           85476       embedding_101[0][0]              
__________________________________________________________________________________________________
gru_102 (GRU)                   (None, 35)           13860       embedding_102[0][0]              
__________________________________________________________________________________________________
dropout_151 (Dropout)           (None, 68)           0           gru_101[0][0]                    
__________________________________________________________________________________________________
dropout_152 (Dropout)           (None, 35)           0           gru_102[0][0]                    
__________________________________________________________________________________________________
concatenate_51 (Concatenate)    (None, 103)          0           dropout_151[0][0]                
                                                                 dropout_152[0][0]                
__________________________________________________________________________________________________
dense_101 (Dense)               (None, 88)           9152        concatenate_51[0][0]             
__________________________________________________________________________________________________
dropout_153 (Dropout)           (None, 88)           0           dense_101[0][0]                  
__________________________________________________________________________________________________
dense_102 (Dense)               (None, 4)            356         dropout_153[0][0]                
==================================================================================================
Total params: 531,238
Trainable params: 531,238
Non-trainable params: 0
__________________________________________________________________________________________________
None
Train on 432446 samples, validate on 48050 samples
Epoch 1/20
 - 447s - loss: 0.0705 - acc: 0.9786 - val_loss: 0.0563 - val_acc: 1.0000
…
	Training (Important) : 3124, Test : 1954
	MWEs in tain : 1372, occurrences : 3583
	Impotant words in tain : 1175
	MWE length mean : 2.13
	Seen MWEs : 386 (57 %)
	New MWEs : 284 (42 %)
==================================================================================================
__________________________________________________________________________________________________
Layer (type)                    Output Shape         Param #     Connected to                     
==================================================================================================
input_103 (InputLayer)          (None, 7)            0                                            
__________________________________________________________________________________________________
input_104 (InputLayer)          (None, 7)            0                                            
__________________________________________________________________________________________________
embedding_103 (Embedding)       (None, 7, 416)       490048      input_103[0][0]                  
__________________________________________________________________________________________________
embedding_104 (Embedding)       (None, 7, 11)        209         input_104[0][0]                  
__________________________________________________________________________________________________
gru_103 (GRU)                   (None, 44)           60852       embedding_103[0][0]              
__________________________________________________________________________________________________
gru_104 (GRU)                   (None, 49)           8967        embedding_104[0][0]              
__________________________________________________________________________________________________
dropout_154 (Dropout)           (None, 44)           0           gru_103[0][0]                    
__________________________________________________________________________________________________
dropout_155 (Dropout)           (None, 49)           0           gru_104[0][0]                    
__________________________________________________________________________________________________
concatenate_52 (Concatenate)    (None, 93)           0           dropout_154[0][0]                
                                                                 dropout_155[0][0]                
__________________________________________________________________________________________________
dense_103 (Dense)               (None, 33)           3102        concatenate_52[0][0]             
__________________________________________________________________________________________________
dropout_156 (Dropout)           (None, 33)           0           dense_103[0][0]                  
__________________________________________________________________________________________________
dense_104 (Dense)               (None, 4)            136         dropout_156[0][0]                
==================================================================================================
Total params: 563,314
Trainable params: 563,314
Non-trainable params: 0
__________________________________________________________________________________________________
None
Train on 320835 samples, validate on 35649 samples
Epoch 1/20
 - 42s - loss: 0.0959 - acc: 0.9728 - val_loss: 0.0735 - val_acc: 0.9999
…
	Training (Important) : 2305, Test : 3117
	MWEs in tain : 1396, occurrences : 2518
	Impotant words in tain : 1131
	MWE length mean : 2.22
	Seen MWEs : 340 (61 %)
	New MWEs : 213 (38 %)
==================================================================================================
__________________________________________________________________________________________________
Layer (type)                    Output Shape         Param #     Connected to                     
==================================================================================================
input_105 (InputLayer)          (None, 7)            0                                            
__________________________________________________________________________________________________
input_106 (InputLayer)          (None, 7)            0                                            
__________________________________________________________________________________________________
embedding_105 (Embedding)       (None, 7, 416)       471744      input_105[0][0]                  
__________________________________________________________________________________________________
embedding_106 (Embedding)       (None, 7, 11)        209         input_106[0][0]                  
__________________________________________________________________________________________________
gru_105 (GRU)                   (None, 44)           60852       embedding_105[0][0]              
__________________________________________________________________________________________________
gru_106 (GRU)                   (None, 49)           8967        embedding_106[0][0]              
__________________________________________________________________________________________________
dropout_157 (Dropout)           (None, 44)           0           gru_105[0][0]                    
__________________________________________________________________________________________________
dropout_158 (Dropout)           (None, 49)           0           gru_106[0][0]                    
__________________________________________________________________________________________________
concatenate_53 (Concatenate)    (None, 93)           0           dropout_157[0][0]                
                                                                 dropout_158[0][0]                
__________________________________________________________________________________________________
dense_105 (Dense)               (None, 33)           3102        concatenate_53[0][0]             
__________________________________________________________________________________________________
dropout_159 (Dropout)           (None, 33)           0           dense_105[0][0]                  
__________________________________________________________________________________________________
dense_106 (Dense)               (None, 4)            136         dropout_159[0][0]                
==================================================================================================
Total params: 545,010
Trainable params: 545,010
Non-trainable params: 0
__________________________________________________________________________________________________
None
Train on 217231 samples, validate on 24137 samples
Epoch 1/20
 - 28s - loss: 0.1169 - acc: 0.9636 - val_loss: 0.0615 - val_acc: 0.9994
…
	Training (Important) : 3585, Test : 1320
	MWEs in tain : 1790, occurrences : 4856
	Impotant words in tain : 1200
	MWE length mean : 2.06
	Seen MWEs : 345 (67 %)
	New MWEs : 165 (32 %)
==================================================================================================
__________________________________________________________________________________________________
Layer (type)                    Output Shape         Param #     Connected to                     
==================================================================================================
input_107 (InputLayer)          (None, 7)            0                                            
__________________________________________________________________________________________________
input_108 (InputLayer)          (None, 7)            0                                            
__________________________________________________________________________________________________
embedding_107 (Embedding)       (None, 7, 416)       500448      input_107[0][0]                  
__________________________________________________________________________________________________
embedding_108 (Embedding)       (None, 7, 11)        154         input_108[0][0]                  
__________________________________________________________________________________________________
gru_107 (GRU)                   (None, 44)           60852       embedding_107[0][0]              
__________________________________________________________________________________________________
gru_108 (GRU)                   (None, 49)           8967        embedding_108[0][0]              
__________________________________________________________________________________________________
dropout_160 (Dropout)           (None, 44)           0           gru_107[0][0]                    
__________________________________________________________________________________________________
dropout_161 (Dropout)           (None, 49)           0           gru_108[0][0]                    
__________________________________________________________________________________________________
concatenate_54 (Concatenate)    (None, 93)           0           dropout_160[0][0]                
                                                                 dropout_161[0][0]                
__________________________________________________________________________________________________
dense_107 (Dense)               (None, 33)           3102        concatenate_54[0][0]             
__________________________________________________________________________________________________
dropout_162 (Dropout)           (None, 33)           0           dense_107[0][0]                  
__________________________________________________________________________________________________
dense_108 (Dense)               (None, 4)            136         dropout_162[0][0]                
==================================================================================================
Total params: 573,659
Trainable params: 573,659
Non-trainable params: 0
__________________________________________________________________________________________________
None
Train on 432446 samples, validate on 48050 samples
Epoch 1/20
 - 55s - loss: 0.0878 - acc: 0.9734 - val_loss: 0.0733 - val_acc: 1.0000
…
	Training (Important) : 3124, Test : 1954
	MWEs in tain : 1372, occurrences : 3583
	Impotant words in tain : 1175
	MWE length mean : 2.13
	Seen MWEs : 386 (57 %)
	New MWEs : 284 (42 %)
==================================================================================================
__________________________________________________________________________________________________
Layer (type)                    Output Shape         Param #     Connected to                     
==================================================================================================
input_109 (InputLayer)          (None, 7)            0                                            
__________________________________________________________________________________________________
input_110 (InputLayer)          (None, 7)            0                                            
__________________________________________________________________________________________________
embedding_109 (Embedding)       (None, 7, 479)       564262      input_109[0][0]                  
__________________________________________________________________________________________________
embedding_110 (Embedding)       (None, 7, 14)        266         input_110[0][0]                  
__________________________________________________________________________________________________
gru_109 (GRU)                   (None, 74)           122988      embedding_109[0][0]              
__________________________________________________________________________________________________
gru_110 (GRU)                   (None, 37)           5772        embedding_110[0][0]              
__________________________________________________________________________________________________
dropout_163 (Dropout)           (None, 74)           0           gru_109[0][0]                    
__________________________________________________________________________________________________
dropout_164 (Dropout)           (None, 37)           0           gru_110[0][0]                    
__________________________________________________________________________________________________
concatenate_55 (Concatenate)    (None, 111)          0           dropout_163[0][0]                
                                                                 dropout_164[0][0]                
__________________________________________________________________________________________________
dense_109 (Dense)               (None, 45)           5040        concatenate_55[0][0]             
__________________________________________________________________________________________________
dropout_165 (Dropout)           (None, 45)           0           dense_109[0][0]                  
__________________________________________________________________________________________________
dense_110 (Dense)               (None, 4)            184         dropout_165[0][0]                
==================================================================================================
Total params: 698,512
Trainable params: 698,512
Non-trainable params: 0
__________________________________________________________________________________________________
None
Train on 320835 samples, validate on 35649 samples
Epoch 1/20
 - 79s - loss: 0.0815 - acc: 0.9773 - val_loss: 0.0610 - val_acc: 1.0000
…
	Training (Important) : 2305, Test : 3117
	MWEs in tain : 1396, occurrences : 2518
	Impotant words in tain : 1131
	MWE length mean : 2.22
	Seen MWEs : 340 (61 %)
	New MWEs : 213 (38 %)
==================================================================================================
__________________________________________________________________________________________________
Layer (type)                    Output Shape         Param #     Connected to                     
==================================================================================================
input_111 (InputLayer)          (None, 7)            0                                            
__________________________________________________________________________________________________
input_112 (InputLayer)          (None, 7)            0                                            
__________________________________________________________________________________________________
embedding_111 (Embedding)       (None, 7, 479)       543186      input_111[0][0]                  
__________________________________________________________________________________________________
embedding_112 (Embedding)       (None, 7, 14)        266         input_112[0][0]                  
__________________________________________________________________________________________________
gru_111 (GRU)                   (None, 74)           122988      embedding_111[0][0]              
__________________________________________________________________________________________________
gru_112 (GRU)                   (None, 37)           5772        embedding_112[0][0]              
__________________________________________________________________________________________________
dropout_166 (Dropout)           (None, 74)           0           gru_111[0][0]                    
__________________________________________________________________________________________________
dropout_167 (Dropout)           (None, 37)           0           gru_112[0][0]                    
__________________________________________________________________________________________________
concatenate_56 (Concatenate)    (None, 111)          0           dropout_166[0][0]                
                                                                 dropout_167[0][0]                
__________________________________________________________________________________________________
dense_111 (Dense)               (None, 45)           5040        concatenate_56[0][0]             
__________________________________________________________________________________________________
dropout_168 (Dropout)           (None, 45)           0           dense_111[0][0]                  
__________________________________________________________________________________________________
dense_112 (Dense)               (None, 4)            184         dropout_168[0][0]                
==================================================================================================
Total params: 677,436
Trainable params: 677,436
Non-trainable params: 0
__________________________________________________________________________________________________
None
Train on 217231 samples, validate on 24137 samples
Epoch 1/20
 - 54s - loss: 0.0901 - acc: 0.9737 - val_loss: 0.0658 - val_acc: 0.9991
…
