…
	Training (Important) : 3124, Test : 1954
	MWEs in tain : 1372, occurrences : 3583
	Impotant words in tain : 1175
	MWE length mean : 2.13
	Seen MWEs : 386 (57 %)
	New MWEs : 284 (42 %)
==================================================================================================
__________________________________________________________________________________________________
Layer (type)                    Output Shape         Param #     Connected to                     
==================================================================================================
input_1 (InputLayer)            (None, 7)            0                                            
__________________________________________________________________________________________________
input_2 (InputLayer)            (None, 7)            0                                            
__________________________________________________________________________________________________
embedding_1 (Embedding)         (None, 7, 447)       526566      input_1[0][0]                    
__________________________________________________________________________________________________
embedding_2 (Embedding)         (None, 7, 36)        684         input_2[0][0]                    
__________________________________________________________________________________________________
gru_1 (GRU)                     (None, 30)           43020       embedding_1[0][0]                
__________________________________________________________________________________________________
gru_2 (GRU)                     (None, 41)           9594        embedding_2[0][0]                
__________________________________________________________________________________________________
dropout_1 (Dropout)             (None, 30)           0           gru_1[0][0]                      
__________________________________________________________________________________________________
dropout_2 (Dropout)             (None, 41)           0           gru_2[0][0]                      
__________________________________________________________________________________________________
concatenate_1 (Concatenate)     (None, 71)           0           dropout_1[0][0]                  
                                                                 dropout_2[0][0]                  
__________________________________________________________________________________________________
dense_1 (Dense)                 (None, 17)           1224        concatenate_1[0][0]              
__________________________________________________________________________________________________
dropout_3 (Dropout)             (None, 17)           0           dense_1[0][0]                    
__________________________________________________________________________________________________
dense_2 (Dense)                 (None, 4)            72          dropout_3[0][0]                  
==================================================================================================
Total params: 581,160
Trainable params: 581,160
Non-trainable params: 0
__________________________________________________________________________________________________
None
Train on 320835 samples, validate on 35649 samples
Epoch 1/20
 - 81s - loss: 0.0868 - acc: 0.9748 - val_loss: 0.0565 - val_acc: 0.9996
…
	Training (Important) : 2305, Test : 3117
	MWEs in tain : 1396, occurrences : 2518
	Impotant words in tain : 1131
	MWE length mean : 2.22
	Seen MWEs : 340 (61 %)
	New MWEs : 213 (38 %)
==================================================================================================
__________________________________________________________________________________________________
Layer (type)                    Output Shape         Param #     Connected to                     
==================================================================================================
input_3 (InputLayer)            (None, 7)            0                                            
__________________________________________________________________________________________________
input_4 (InputLayer)            (None, 7)            0                                            
__________________________________________________________________________________________________
embedding_3 (Embedding)         (None, 7, 447)       506898      input_3[0][0]                    
__________________________________________________________________________________________________
embedding_4 (Embedding)         (None, 7, 36)        684         input_4[0][0]                    
__________________________________________________________________________________________________
gru_3 (GRU)                     (None, 30)           43020       embedding_3[0][0]                
__________________________________________________________________________________________________
gru_4 (GRU)                     (None, 41)           9594        embedding_4[0][0]                
__________________________________________________________________________________________________
dropout_4 (Dropout)             (None, 30)           0           gru_3[0][0]                      
__________________________________________________________________________________________________
dropout_5 (Dropout)             (None, 41)           0           gru_4[0][0]                      
__________________________________________________________________________________________________
concatenate_2 (Concatenate)     (None, 71)           0           dropout_4[0][0]                  
                                                                 dropout_5[0][0]                  
__________________________________________________________________________________________________
dense_3 (Dense)                 (None, 17)           1224        concatenate_2[0][0]              
__________________________________________________________________________________________________
dropout_6 (Dropout)             (None, 17)           0           dense_3[0][0]                    
__________________________________________________________________________________________________
dense_4 (Dense)                 (None, 4)            72          dropout_6[0][0]                  
==================================================================================================
Total params: 561,492
Trainable params: 561,492
Non-trainable params: 0
__________________________________________________________________________________________________
None
Train on 217231 samples, validate on 24137 samples
Epoch 1/20
 - 53s - loss: 0.0981 - acc: 0.9702 - val_loss: 0.0745 - val_acc: 0.9983
…
	Training (Important) : 3585, Test : 1320
	MWEs in tain : 1790, occurrences : 4856
	Impotant words in tain : 1200
	MWE length mean : 2.06
	Seen MWEs : 345 (67 %)
	New MWEs : 165 (32 %)
==================================================================================================
__________________________________________________________________________________________________
Layer (type)                    Output Shape         Param #     Connected to                     
==================================================================================================
input_5 (InputLayer)            (None, 7)            0                                            
__________________________________________________________________________________________________
input_6 (InputLayer)            (None, 7)            0                                            
__________________________________________________________________________________________________
embedding_5 (Embedding)         (None, 7, 447)       537741      input_5[0][0]                    
__________________________________________________________________________________________________
embedding_6 (Embedding)         (None, 7, 36)        504         input_6[0][0]                    
__________________________________________________________________________________________________
gru_5 (GRU)                     (None, 30)           43020       embedding_5[0][0]                
__________________________________________________________________________________________________
gru_6 (GRU)                     (None, 41)           9594        embedding_6[0][0]                
__________________________________________________________________________________________________
dropout_7 (Dropout)             (None, 30)           0           gru_5[0][0]                      
__________________________________________________________________________________________________
dropout_8 (Dropout)             (None, 41)           0           gru_6[0][0]                      
__________________________________________________________________________________________________
concatenate_3 (Concatenate)     (None, 71)           0           dropout_7[0][0]                  
                                                                 dropout_8[0][0]                  
__________________________________________________________________________________________________
dense_5 (Dense)                 (None, 17)           1224        concatenate_3[0][0]              
__________________________________________________________________________________________________
dropout_9 (Dropout)             (None, 17)           0           dense_5[0][0]                    
__________________________________________________________________________________________________
dense_6 (Dense)                 (None, 4)            72          dropout_9[0][0]                  
==================================================================================================
Total params: 592,155
Trainable params: 592,155
Non-trainable params: 0
__________________________________________________________________________________________________
None
Train on 432446 samples, validate on 48050 samples
Epoch 1/20
 - 107s - loss: 0.0848 - acc: 0.9740 - val_loss: 0.0676 - val_acc: 1.0000
…
	Training (Important) : 3124, Test : 1954
	MWEs in tain : 1372, occurrences : 3583
	Impotant words in tain : 1175
	MWE length mean : 2.13
	Seen MWEs : 386 (57 %)
	New MWEs : 284 (42 %)
==================================================================================================
__________________________________________________________________________________________________
Layer (type)                    Output Shape         Param #     Connected to                     
==================================================================================================
input_7 (InputLayer)            (None, 7)            0                                            
__________________________________________________________________________________________________
input_8 (InputLayer)            (None, 7)            0                                            
__________________________________________________________________________________________________
embedding_7 (Embedding)         (None, 7, 485)       571330      input_7[0][0]                    
__________________________________________________________________________________________________
embedding_8 (Embedding)         (None, 7, 98)        1862        input_8[0][0]                    
__________________________________________________________________________________________________
gru_7 (GRU)                     (None, 97)           169653      embedding_7[0][0]                
__________________________________________________________________________________________________
gru_8 (GRU)                     (None, 7)            2226        embedding_8[0][0]                
__________________________________________________________________________________________________
dropout_10 (Dropout)            (None, 97)           0           gru_7[0][0]                      
__________________________________________________________________________________________________
dropout_11 (Dropout)            (None, 7)            0           gru_8[0][0]                      
__________________________________________________________________________________________________
concatenate_4 (Concatenate)     (None, 104)          0           dropout_10[0][0]                 
                                                                 dropout_11[0][0]                 
__________________________________________________________________________________________________
dense_7 (Dense)                 (None, 88)           9240        concatenate_4[0][0]              
__________________________________________________________________________________________________
dropout_12 (Dropout)            (None, 88)           0           dense_7[0][0]                    
__________________________________________________________________________________________________
dense_8 (Dense)                 (None, 4)            356         dropout_12[0][0]                 
==================================================================================================
Total params: 754,667
Trainable params: 754,667
Non-trainable params: 0
__________________________________________________________________________________________________
None
Train on 320835 samples, validate on 35649 samples
Epoch 1/20
 - 307s - loss: 0.0710 - acc: 0.9801 - val_loss: 0.0555 - val_acc: 0.9999
…
	Training (Important) : 2305, Test : 3117
	MWEs in tain : 1396, occurrences : 2518
	Impotant words in tain : 1131
	MWE length mean : 2.22
	Seen MWEs : 340 (61 %)
	New MWEs : 213 (38 %)
==================================================================================================
__________________________________________________________________________________________________
Layer (type)                    Output Shape         Param #     Connected to                     
==================================================================================================
input_9 (InputLayer)            (None, 7)            0                                            
__________________________________________________________________________________________________
input_10 (InputLayer)           (None, 7)            0                                            
__________________________________________________________________________________________________
embedding_9 (Embedding)         (None, 7, 485)       549990      input_9[0][0]                    
__________________________________________________________________________________________________
embedding_10 (Embedding)        (None, 7, 98)        1862        input_10[0][0]                   
__________________________________________________________________________________________________
gru_9 (GRU)                     (None, 97)           169653      embedding_9[0][0]                
__________________________________________________________________________________________________
gru_10 (GRU)                    (None, 7)            2226        embedding_10[0][0]               
__________________________________________________________________________________________________
dropout_13 (Dropout)            (None, 97)           0           gru_9[0][0]                      
__________________________________________________________________________________________________
dropout_14 (Dropout)            (None, 7)            0           gru_10[0][0]                     
__________________________________________________________________________________________________
concatenate_5 (Concatenate)     (None, 104)          0           dropout_13[0][0]                 
                                                                 dropout_14[0][0]                 
__________________________________________________________________________________________________
dense_9 (Dense)                 (None, 88)           9240        concatenate_5[0][0]              
__________________________________________________________________________________________________
dropout_15 (Dropout)            (None, 88)           0           dense_9[0][0]                    
__________________________________________________________________________________________________
dense_10 (Dense)                (None, 4)            356         dropout_15[0][0]                 
==================================================================================================
Total params: 733,327
Trainable params: 733,327
Non-trainable params: 0
__________________________________________________________________________________________________
None
Train on 217231 samples, validate on 24137 samples
Epoch 1/20
 - 211s - loss: 0.0773 - acc: 0.9772 - val_loss: 0.0557 - val_acc: 0.9995
…
	Training (Important) : 3585, Test : 1320
	MWEs in tain : 1790, occurrences : 4856
	Impotant words in tain : 1200
	MWE length mean : 2.06
	Seen MWEs : 345 (67 %)
	New MWEs : 165 (32 %)
==================================================================================================
__________________________________________________________________________________________________
Layer (type)                    Output Shape         Param #     Connected to                     
==================================================================================================
input_11 (InputLayer)           (None, 7)            0                                            
__________________________________________________________________________________________________
input_12 (InputLayer)           (None, 7)            0                                            
__________________________________________________________________________________________________
embedding_11 (Embedding)        (None, 7, 485)       583455      input_11[0][0]                   
__________________________________________________________________________________________________
embedding_12 (Embedding)        (None, 7, 98)        1372        input_12[0][0]                   
__________________________________________________________________________________________________
gru_11 (GRU)                    (None, 97)           169653      embedding_11[0][0]               
__________________________________________________________________________________________________
gru_12 (GRU)                    (None, 7)            2226        embedding_12[0][0]               
__________________________________________________________________________________________________
dropout_16 (Dropout)            (None, 97)           0           gru_11[0][0]                     
__________________________________________________________________________________________________
dropout_17 (Dropout)            (None, 7)            0           gru_12[0][0]                     
__________________________________________________________________________________________________
concatenate_6 (Concatenate)     (None, 104)          0           dropout_16[0][0]                 
                                                                 dropout_17[0][0]                 
__________________________________________________________________________________________________
dense_11 (Dense)                (None, 88)           9240        concatenate_6[0][0]              
__________________________________________________________________________________________________
dropout_18 (Dropout)            (None, 88)           0           dense_11[0][0]                   
__________________________________________________________________________________________________
dense_12 (Dense)                (None, 4)            356         dropout_18[0][0]                 
==================================================================================================
Total params: 766,302
Trainable params: 766,302
Non-trainable params: 0
__________________________________________________________________________________________________
None
Train on 432446 samples, validate on 48050 samples
Epoch 1/20
 - 423s - loss: 0.0717 - acc: 0.9783 - val_loss: 0.0668 - val_acc: 1.0000
…
	Training (Important) : 3124, Test : 1954
	MWEs in tain : 1372, occurrences : 3583
	Impotant words in tain : 1175
	MWE length mean : 2.13
	Seen MWEs : 386 (57 %)
	New MWEs : 284 (42 %)
==================================================================================================
__________________________________________________________________________________________________
Layer (type)                    Output Shape         Param #     Connected to                     
==================================================================================================
input_13 (InputLayer)           (None, 7)            0                                            
__________________________________________________________________________________________________
input_14 (InputLayer)           (None, 7)            0                                            
__________________________________________________________________________________________________
embedding_13 (Embedding)        (None, 7, 237)       279186      input_13[0][0]                   
__________________________________________________________________________________________________
embedding_14 (Embedding)        (None, 7, 93)        1767        input_14[0][0]                   
__________________________________________________________________________________________________
gru_13 (GRU)                    (None, 65)           59085       embedding_13[0][0]               
__________________________________________________________________________________________________
gru_14 (GRU)                    (None, 21)           7245        embedding_14[0][0]               
__________________________________________________________________________________________________
dropout_19 (Dropout)            (None, 65)           0           gru_13[0][0]                     
__________________________________________________________________________________________________
dropout_20 (Dropout)            (None, 21)           0           gru_14[0][0]                     
__________________________________________________________________________________________________
concatenate_7 (Concatenate)     (None, 86)           0           dropout_19[0][0]                 
                                                                 dropout_20[0][0]                 
__________________________________________________________________________________________________
dense_13 (Dense)                (None, 29)           2523        concatenate_7[0][0]              
__________________________________________________________________________________________________
dropout_21 (Dropout)            (None, 29)           0           dense_13[0][0]                   
__________________________________________________________________________________________________
dense_14 (Dense)                (None, 4)            120         dropout_21[0][0]                 
==================================================================================================
Total params: 349,926
Trainable params: 349,926
Non-trainable params: 0
__________________________________________________________________________________________________
None
Train on 320835 samples, validate on 35649 samples
Epoch 1/20
 - 156s - loss: 0.0753 - acc: 0.9787 - val_loss: 0.0681 - val_acc: 0.9994
…
	Training (Important) : 2305, Test : 3117
	MWEs in tain : 1396, occurrences : 2518
	Impotant words in tain : 1131
	MWE length mean : 2.22
	Seen MWEs : 340 (61 %)
	New MWEs : 213 (38 %)
==================================================================================================
__________________________________________________________________________________________________
Layer (type)                    Output Shape         Param #     Connected to                     
==================================================================================================
input_15 (InputLayer)           (None, 7)            0                                            
__________________________________________________________________________________________________
input_16 (InputLayer)           (None, 7)            0                                            
__________________________________________________________________________________________________
embedding_15 (Embedding)        (None, 7, 237)       268758      input_15[0][0]                   
__________________________________________________________________________________________________
embedding_16 (Embedding)        (None, 7, 93)        1767        input_16[0][0]                   
__________________________________________________________________________________________________
gru_15 (GRU)                    (None, 65)           59085       embedding_15[0][0]               
__________________________________________________________________________________________________
gru_16 (GRU)                    (None, 21)           7245        embedding_16[0][0]               
__________________________________________________________________________________________________
dropout_22 (Dropout)            (None, 65)           0           gru_15[0][0]                     
__________________________________________________________________________________________________
dropout_23 (Dropout)            (None, 21)           0           gru_16[0][0]                     
__________________________________________________________________________________________________
concatenate_8 (Concatenate)     (None, 86)           0           dropout_22[0][0]                 
                                                                 dropout_23[0][0]                 
__________________________________________________________________________________________________
dense_15 (Dense)                (None, 29)           2523        concatenate_8[0][0]              
__________________________________________________________________________________________________
dropout_24 (Dropout)            (None, 29)           0           dense_15[0][0]                   
__________________________________________________________________________________________________
dense_16 (Dense)                (None, 4)            120         dropout_24[0][0]                 
==================================================================================================
Total params: 339,498
Trainable params: 339,498
Non-trainable params: 0
__________________________________________________________________________________________________
None
Train on 217231 samples, validate on 24137 samples
Epoch 1/20
 - 112s - loss: 0.0832 - acc: 0.9758 - val_loss: 0.0498 - val_acc: 0.9990
…
	Training (Important) : 3585, Test : 1320
	MWEs in tain : 1790, occurrences : 4856
	Impotant words in tain : 1200
	MWE length mean : 2.06
	Seen MWEs : 345 (67 %)
	New MWEs : 165 (32 %)
==================================================================================================
__________________________________________________________________________________________________
Layer (type)                    Output Shape         Param #     Connected to                     
==================================================================================================
input_17 (InputLayer)           (None, 7)            0                                            
__________________________________________________________________________________________________
input_18 (InputLayer)           (None, 7)            0                                            
__________________________________________________________________________________________________
embedding_17 (Embedding)        (None, 7, 237)       285111      input_17[0][0]                   
__________________________________________________________________________________________________
embedding_18 (Embedding)        (None, 7, 93)        1302        input_18[0][0]                   
__________________________________________________________________________________________________
gru_17 (GRU)                    (None, 65)           59085       embedding_17[0][0]               
__________________________________________________________________________________________________
gru_18 (GRU)                    (None, 21)           7245        embedding_18[0][0]               
__________________________________________________________________________________________________
dropout_25 (Dropout)            (None, 65)           0           gru_17[0][0]                     
__________________________________________________________________________________________________
dropout_26 (Dropout)            (None, 21)           0           gru_18[0][0]                     
__________________________________________________________________________________________________
concatenate_9 (Concatenate)     (None, 86)           0           dropout_25[0][0]                 
                                                                 dropout_26[0][0]                 
__________________________________________________________________________________________________
dense_17 (Dense)                (None, 29)           2523        concatenate_9[0][0]              
__________________________________________________________________________________________________
dropout_27 (Dropout)            (None, 29)           0           dense_17[0][0]                   
__________________________________________________________________________________________________
dense_18 (Dense)                (None, 4)            120         dropout_27[0][0]                 
==================================================================================================
Total params: 355,386
Trainable params: 355,386
Non-trainable params: 0
__________________________________________________________________________________________________
None
Train on 432446 samples, validate on 48050 samples
Epoch 1/20
 - 211s - loss: 0.0744 - acc: 0.9777 - val_loss: 0.0740 - val_acc: 0.9998
…
	Training (Important) : 3124, Test : 1954
	MWEs in tain : 1372, occurrences : 3583
	Impotant words in tain : 1175
	MWE length mean : 2.13
	Seen MWEs : 386 (57 %)
	New MWEs : 284 (42 %)
==================================================================================================
__________________________________________________________________________________________________
Layer (type)                    Output Shape         Param #     Connected to                     
==================================================================================================
input_19 (InputLayer)           (None, 7)            0                                            
__________________________________________________________________________________________________
input_20 (InputLayer)           (None, 7)            0                                            
__________________________________________________________________________________________________
embedding_19 (Embedding)        (None, 7, 497)       585466      input_19[0][0]                   
__________________________________________________________________________________________________
embedding_20 (Embedding)        (None, 7, 12)        228         input_20[0][0]                   
__________________________________________________________________________________________________
gru_19 (GRU)                    (None, 72)           123120      embedding_19[0][0]               
__________________________________________________________________________________________________
gru_20 (GRU)                    (None, 25)           2850        embedding_20[0][0]               
__________________________________________________________________________________________________
dropout_28 (Dropout)            (None, 72)           0           gru_19[0][0]                     
__________________________________________________________________________________________________
dropout_29 (Dropout)            (None, 25)           0           gru_20[0][0]                     
__________________________________________________________________________________________________
concatenate_10 (Concatenate)    (None, 97)           0           dropout_28[0][0]                 
                                                                 dropout_29[0][0]                 
__________________________________________________________________________________________________
dense_19 (Dense)                (None, 35)           3430        concatenate_10[0][0]             
__________________________________________________________________________________________________
dropout_30 (Dropout)            (None, 35)           0           dense_19[0][0]                   
__________________________________________________________________________________________________
dense_20 (Dense)                (None, 4)            144         dropout_30[0][0]                 
==================================================================================================
Total params: 715,238
Trainable params: 715,238
Non-trainable params: 0
__________________________________________________________________________________________________
None
Train on 320835 samples, validate on 35649 samples
Epoch 1/20
 - 39s - loss: 0.0927 - acc: 0.9729 - val_loss: 0.0564 - val_acc: 0.9999
…
	Training (Important) : 2305, Test : 3117
	MWEs in tain : 1396, occurrences : 2518
	Impotant words in tain : 1131
	MWE length mean : 2.22
	Seen MWEs : 340 (61 %)
	New MWEs : 213 (38 %)
==================================================================================================
__________________________________________________________________________________________________
Layer (type)                    Output Shape         Param #     Connected to                     
==================================================================================================
input_21 (InputLayer)           (None, 7)            0                                            
__________________________________________________________________________________________________
input_22 (InputLayer)           (None, 7)            0                                            
__________________________________________________________________________________________________
embedding_21 (Embedding)        (None, 7, 497)       563598      input_21[0][0]                   
__________________________________________________________________________________________________
embedding_22 (Embedding)        (None, 7, 12)        228         input_22[0][0]                   
__________________________________________________________________________________________________
gru_21 (GRU)                    (None, 72)           123120      embedding_21[0][0]               
__________________________________________________________________________________________________
gru_22 (GRU)                    (None, 25)           2850        embedding_22[0][0]               
__________________________________________________________________________________________________
dropout_31 (Dropout)            (None, 72)           0           gru_21[0][0]                     
__________________________________________________________________________________________________
dropout_32 (Dropout)            (None, 25)           0           gru_22[0][0]                     
__________________________________________________________________________________________________
concatenate_11 (Concatenate)    (None, 97)           0           dropout_31[0][0]                 
                                                                 dropout_32[0][0]                 
__________________________________________________________________________________________________
dense_21 (Dense)                (None, 35)           3430        concatenate_11[0][0]             
__________________________________________________________________________________________________
dropout_33 (Dropout)            (None, 35)           0           dense_21[0][0]                   
__________________________________________________________________________________________________
dense_22 (Dense)                (None, 4)            144         dropout_33[0][0]                 
==================================================================================================
Total params: 693,370
Trainable params: 693,370
Non-trainable params: 0
__________________________________________________________________________________________________
None
Train on 217231 samples, validate on 24137 samples
Epoch 1/20
 - 27s - loss: 0.1079 - acc: 0.9665 - val_loss: 0.0725 - val_acc: 1.0000
…
	Training (Important) : 3585, Test : 1320
	MWEs in tain : 1790, occurrences : 4856
	Impotant words in tain : 1200
	MWE length mean : 2.06
	Seen MWEs : 345 (67 %)
	New MWEs : 165 (32 %)
==================================================================================================
__________________________________________________________________________________________________
Layer (type)                    Output Shape         Param #     Connected to                     
==================================================================================================
input_23 (InputLayer)           (None, 7)            0                                            
__________________________________________________________________________________________________
input_24 (InputLayer)           (None, 7)            0                                            
__________________________________________________________________________________________________
embedding_23 (Embedding)        (None, 7, 497)       597891      input_23[0][0]                   
__________________________________________________________________________________________________
embedding_24 (Embedding)        (None, 7, 12)        168         input_24[0][0]                   
__________________________________________________________________________________________________
gru_23 (GRU)                    (None, 72)           123120      embedding_23[0][0]               
__________________________________________________________________________________________________
gru_24 (GRU)                    (None, 25)           2850        embedding_24[0][0]               
__________________________________________________________________________________________________
dropout_34 (Dropout)            (None, 72)           0           gru_23[0][0]                     
__________________________________________________________________________________________________
dropout_35 (Dropout)            (None, 25)           0           gru_24[0][0]                     
__________________________________________________________________________________________________
concatenate_12 (Concatenate)    (None, 97)           0           dropout_34[0][0]                 
                                                                 dropout_35[0][0]                 
__________________________________________________________________________________________________
dense_23 (Dense)                (None, 35)           3430        concatenate_12[0][0]             
__________________________________________________________________________________________________
dropout_36 (Dropout)            (None, 35)           0           dense_23[0][0]                   
__________________________________________________________________________________________________
dense_24 (Dense)                (None, 4)            144         dropout_36[0][0]                 
==================================================================================================
Total params: 727,603
Trainable params: 727,603
Non-trainable params: 0
__________________________________________________________________________________________________
None
Train on 432446 samples, validate on 48050 samples
Epoch 1/20
 - 53s - loss: 0.0840 - acc: 0.9742 - val_loss: 0.0826 - val_acc: 0.9992
…
	Training (Important) : 3124, Test : 1954
	MWEs in tain : 1372, occurrences : 3583
	Impotant words in tain : 1175
	MWE length mean : 2.13
	Seen MWEs : 386 (57 %)
	New MWEs : 284 (42 %)
==================================================================================================
__________________________________________________________________________________________________
Layer (type)                    Output Shape         Param #     Connected to                     
==================================================================================================
input_25 (InputLayer)           (None, 7)            0                                            
__________________________________________________________________________________________________
input_26 (InputLayer)           (None, 7)            0                                            
__________________________________________________________________________________________________
embedding_25 (Embedding)        (None, 7, 228)       268584      input_25[0][0]                   
__________________________________________________________________________________________________
embedding_26 (Embedding)        (None, 7, 65)        1235        input_26[0][0]                   
__________________________________________________________________________________________________
gru_25 (GRU)                    (None, 76)           69540       embedding_25[0][0]               
__________________________________________________________________________________________________
gru_26 (GRU)                    (None, 29)           8265        embedding_26[0][0]               
__________________________________________________________________________________________________
dropout_37 (Dropout)            (None, 76)           0           gru_25[0][0]                     
__________________________________________________________________________________________________
dropout_38 (Dropout)            (None, 29)           0           gru_26[0][0]                     
__________________________________________________________________________________________________
concatenate_13 (Concatenate)    (None, 105)          0           dropout_37[0][0]                 
                                                                 dropout_38[0][0]                 
__________________________________________________________________________________________________
dense_25 (Dense)                (None, 35)           3710        concatenate_13[0][0]             
__________________________________________________________________________________________________
dropout_39 (Dropout)            (None, 35)           0           dense_25[0][0]                   
__________________________________________________________________________________________________
dense_26 (Dense)                (None, 4)            144         dropout_39[0][0]                 
==================================================================================================
Total params: 351,478
Trainable params: 351,478
Non-trainable params: 0
__________________________________________________________________________________________________
None
Train on 320835 samples, validate on 35649 samples
Epoch 1/20
 - 39s - loss: 0.0825 - acc: 0.9757 - val_loss: 0.0823 - val_acc: 0.9991
…
	Training (Important) : 2305, Test : 3117
	MWEs in tain : 1396, occurrences : 2518
	Impotant words in tain : 1131
	MWE length mean : 2.22
	Seen MWEs : 340 (61 %)
	New MWEs : 213 (38 %)
==================================================================================================
__________________________________________________________________________________________________
Layer (type)                    Output Shape         Param #     Connected to                     
==================================================================================================
input_27 (InputLayer)           (None, 7)            0                                            
__________________________________________________________________________________________________
input_28 (InputLayer)           (None, 7)            0                                            
__________________________________________________________________________________________________
embedding_27 (Embedding)        (None, 7, 228)       258552      input_27[0][0]                   
__________________________________________________________________________________________________
embedding_28 (Embedding)        (None, 7, 65)        1235        input_28[0][0]                   
__________________________________________________________________________________________________
gru_27 (GRU)                    (None, 76)           69540       embedding_27[0][0]               
__________________________________________________________________________________________________
gru_28 (GRU)                    (None, 29)           8265        embedding_28[0][0]               
__________________________________________________________________________________________________
dropout_40 (Dropout)            (None, 76)           0           gru_27[0][0]                     
__________________________________________________________________________________________________
dropout_41 (Dropout)            (None, 29)           0           gru_28[0][0]                     
__________________________________________________________________________________________________
concatenate_14 (Concatenate)    (None, 105)          0           dropout_40[0][0]                 
                                                                 dropout_41[0][0]                 
__________________________________________________________________________________________________
dense_27 (Dense)                (None, 35)           3710        concatenate_14[0][0]             
__________________________________________________________________________________________________
dropout_42 (Dropout)            (None, 35)           0           dense_27[0][0]                   
__________________________________________________________________________________________________
dense_28 (Dense)                (None, 4)            144         dropout_42[0][0]                 
==================================================================================================
Total params: 341,446
Trainable params: 341,446
Non-trainable params: 0
__________________________________________________________________________________________________
None
Train on 217231 samples, validate on 24137 samples
Epoch 1/20
 - 27s - loss: 0.0975 - acc: 0.9704 - val_loss: 0.0559 - val_acc: 0.9989
…
	Training (Important) : 3585, Test : 1320
	MWEs in tain : 1790, occurrences : 4856
	Impotant words in tain : 1200
	MWE length mean : 2.06
	Seen MWEs : 345 (67 %)
	New MWEs : 165 (32 %)
==================================================================================================
__________________________________________________________________________________________________
Layer (type)                    Output Shape         Param #     Connected to                     
==================================================================================================
input_29 (InputLayer)           (None, 7)            0                                            
__________________________________________________________________________________________________
input_30 (InputLayer)           (None, 7)            0                                            
__________________________________________________________________________________________________
embedding_29 (Embedding)        (None, 7, 228)       274284      input_29[0][0]                   
__________________________________________________________________________________________________
embedding_30 (Embedding)        (None, 7, 65)        910         input_30[0][0]                   
__________________________________________________________________________________________________
gru_29 (GRU)                    (None, 76)           69540       embedding_29[0][0]               
__________________________________________________________________________________________________
gru_30 (GRU)                    (None, 29)           8265        embedding_30[0][0]               
__________________________________________________________________________________________________
dropout_43 (Dropout)            (None, 76)           0           gru_29[0][0]                     
__________________________________________________________________________________________________
dropout_44 (Dropout)            (None, 29)           0           gru_30[0][0]                     
__________________________________________________________________________________________________
concatenate_15 (Concatenate)    (None, 105)          0           dropout_43[0][0]                 
                                                                 dropout_44[0][0]                 
__________________________________________________________________________________________________
dense_29 (Dense)                (None, 35)           3710        concatenate_15[0][0]             
__________________________________________________________________________________________________
dropout_45 (Dropout)            (None, 35)           0           dense_29[0][0]                   
__________________________________________________________________________________________________
dense_30 (Dense)                (None, 4)            144         dropout_45[0][0]                 
==================================================================================================
Total params: 356,853
Trainable params: 356,853
Non-trainable params: 0
__________________________________________________________________________________________________
None
Train on 432446 samples, validate on 48050 samples
Epoch 1/20
 - 53s - loss: 0.0811 - acc: 0.9747 - val_loss: 0.1018 - val_acc: 1.0000
…
	Training (Important) : 3124, Test : 1954
	MWEs in tain : 1372, occurrences : 3583
	Impotant words in tain : 1175
	MWE length mean : 2.13
	Seen MWEs : 386 (57 %)
	New MWEs : 284 (42 %)
==================================================================================================
__________________________________________________________________________________________________
Layer (type)                    Output Shape         Param #     Connected to                     
==================================================================================================
input_31 (InputLayer)           (None, 7)            0                                            
__________________________________________________________________________________________________
input_32 (InputLayer)           (None, 7)            0                                            
__________________________________________________________________________________________________
embedding_31 (Embedding)        (None, 7, 268)       315704      input_31[0][0]                   
__________________________________________________________________________________________________
embedding_32 (Embedding)        (None, 7, 48)        912         input_32[0][0]                   
__________________________________________________________________________________________________
gru_31 (GRU)                    (None, 38)           34998       embedding_31[0][0]               
__________________________________________________________________________________________________
gru_32 (GRU)                    (None, 42)           11466       embedding_32[0][0]               
__________________________________________________________________________________________________
dropout_46 (Dropout)            (None, 38)           0           gru_31[0][0]                     
__________________________________________________________________________________________________
dropout_47 (Dropout)            (None, 42)           0           gru_32[0][0]                     
__________________________________________________________________________________________________
concatenate_16 (Concatenate)    (None, 80)           0           dropout_46[0][0]                 
                                                                 dropout_47[0][0]                 
__________________________________________________________________________________________________
dense_31 (Dense)                (None, 37)           2997        concatenate_16[0][0]             
__________________________________________________________________________________________________
dropout_48 (Dropout)            (None, 37)           0           dense_31[0][0]                   
__________________________________________________________________________________________________
dense_32 (Dense)                (None, 4)            152         dropout_48[0][0]                 
==================================================================================================
Total params: 366,229
Trainable params: 366,229
Non-trainable params: 0
__________________________________________________________________________________________________
None
Train on 320835 samples, validate on 35649 samples
Epoch 1/20
 - 39s - loss: 0.0845 - acc: 0.9751 - val_loss: 0.0838 - val_acc: 0.9991
…
	Training (Important) : 2305, Test : 3117
	MWEs in tain : 1396, occurrences : 2518
	Impotant words in tain : 1131
	MWE length mean : 2.22
	Seen MWEs : 340 (61 %)
	New MWEs : 213 (38 %)
==================================================================================================
__________________________________________________________________________________________________
Layer (type)                    Output Shape         Param #     Connected to                     
==================================================================================================
input_33 (InputLayer)           (None, 7)            0                                            
__________________________________________________________________________________________________
input_34 (InputLayer)           (None, 7)            0                                            
__________________________________________________________________________________________________
embedding_33 (Embedding)        (None, 7, 268)       303912      input_33[0][0]                   
__________________________________________________________________________________________________
embedding_34 (Embedding)        (None, 7, 48)        912         input_34[0][0]                   
__________________________________________________________________________________________________
gru_33 (GRU)                    (None, 38)           34998       embedding_33[0][0]               
__________________________________________________________________________________________________
gru_34 (GRU)                    (None, 42)           11466       embedding_34[0][0]               
__________________________________________________________________________________________________
dropout_49 (Dropout)            (None, 38)           0           gru_33[0][0]                     
__________________________________________________________________________________________________
dropout_50 (Dropout)            (None, 42)           0           gru_34[0][0]                     
__________________________________________________________________________________________________
concatenate_17 (Concatenate)    (None, 80)           0           dropout_49[0][0]                 
                                                                 dropout_50[0][0]                 
__________________________________________________________________________________________________
dense_33 (Dense)                (None, 37)           2997        concatenate_17[0][0]             
__________________________________________________________________________________________________
dropout_51 (Dropout)            (None, 37)           0           dense_33[0][0]                   
__________________________________________________________________________________________________
dense_34 (Dense)                (None, 4)            152         dropout_51[0][0]                 
==================================================================================================
Total params: 354,437
Trainable params: 354,437
Non-trainable params: 0
__________________________________________________________________________________________________
None
Train on 217231 samples, validate on 24137 samples
Epoch 1/20
 - 29s - loss: 0.1043 - acc: 0.9677 - val_loss: 0.0789 - val_acc: 0.9988
…
	Training (Important) : 3585, Test : 1320
	MWEs in tain : 1790, occurrences : 4856
	Impotant words in tain : 1200
	MWE length mean : 2.06
	Seen MWEs : 345 (67 %)
	New MWEs : 165 (32 %)
==================================================================================================
__________________________________________________________________________________________________
Layer (type)                    Output Shape         Param #     Connected to                     
==================================================================================================
input_35 (InputLayer)           (None, 7)            0                                            
__________________________________________________________________________________________________
input_36 (InputLayer)           (None, 7)            0                                            
__________________________________________________________________________________________________
embedding_35 (Embedding)        (None, 7, 268)       322404      input_35[0][0]                   
__________________________________________________________________________________________________
embedding_36 (Embedding)        (None, 7, 48)        672         input_36[0][0]                   
__________________________________________________________________________________________________
gru_35 (GRU)                    (None, 38)           34998       embedding_35[0][0]               
__________________________________________________________________________________________________
gru_36 (GRU)                    (None, 42)           11466       embedding_36[0][0]               
__________________________________________________________________________________________________
dropout_52 (Dropout)            (None, 38)           0           gru_35[0][0]                     
__________________________________________________________________________________________________
dropout_53 (Dropout)            (None, 42)           0           gru_36[0][0]                     
__________________________________________________________________________________________________
concatenate_18 (Concatenate)    (None, 80)           0           dropout_52[0][0]                 
                                                                 dropout_53[0][0]                 
__________________________________________________________________________________________________
dense_35 (Dense)                (None, 37)           2997        concatenate_18[0][0]             
__________________________________________________________________________________________________
dropout_54 (Dropout)            (None, 37)           0           dense_35[0][0]                   
__________________________________________________________________________________________________
dense_36 (Dense)                (None, 4)            152         dropout_54[0][0]                 
==================================================================================================
Total params: 372,689
Trainable params: 372,689
Non-trainable params: 0
__________________________________________________________________________________________________
None
Train on 432446 samples, validate on 48050 samples
Epoch 1/20
 - 56s - loss: 0.0809 - acc: 0.9749 - val_loss: 0.0696 - val_acc: 1.0000
…
	Training (Important) : 3124, Test : 1954
	MWEs in tain : 1372, occurrences : 3583
	Impotant words in tain : 1175
	MWE length mean : 2.13
	Seen MWEs : 386 (57 %)
	New MWEs : 284 (42 %)
==================================================================================================
__________________________________________________________________________________________________
Layer (type)                    Output Shape         Param #     Connected to                     
==================================================================================================
input_37 (InputLayer)           (None, 7)            0                                            
__________________________________________________________________________________________________
input_38 (InputLayer)           (None, 7)            0                                            
__________________________________________________________________________________________________
embedding_37 (Embedding)        (None, 7, 445)       524210      input_37[0][0]                   
__________________________________________________________________________________________________
embedding_38 (Embedding)        (None, 7, 66)        1254        input_38[0][0]                   
__________________________________________________________________________________________________
gru_37 (GRU)                    (None, 86)           137256      embedding_37[0][0]               
__________________________________________________________________________________________________
gru_38 (GRU)                    (None, 42)           13734       embedding_38[0][0]               
__________________________________________________________________________________________________
dropout_55 (Dropout)            (None, 86)           0           gru_37[0][0]                     
__________________________________________________________________________________________________
dropout_56 (Dropout)            (None, 42)           0           gru_38[0][0]                     
__________________________________________________________________________________________________
concatenate_19 (Concatenate)    (None, 128)          0           dropout_55[0][0]                 
                                                                 dropout_56[0][0]                 
__________________________________________________________________________________________________
dense_37 (Dense)                (None, 79)           10191       concatenate_19[0][0]             
__________________________________________________________________________________________________
dropout_57 (Dropout)            (None, 79)           0           dense_37[0][0]                   
__________________________________________________________________________________________________
dense_38 (Dense)                (None, 4)            320         dropout_57[0][0]                 
==================================================================================================
Total params: 686,965
Trainable params: 686,965
Non-trainable params: 0
__________________________________________________________________________________________________
None
Train on 320835 samples, validate on 35649 samples
Epoch 1/20
 - 158s - loss: 0.0777 - acc: 0.9782 - val_loss: 0.0509 - val_acc: 1.0000
…
	Training (Important) : 2305, Test : 3117
	MWEs in tain : 1396, occurrences : 2518
	Impotant words in tain : 1131
	MWE length mean : 2.22
	Seen MWEs : 340 (61 %)
	New MWEs : 213 (38 %)
==================================================================================================
__________________________________________________________________________________________________
Layer (type)                    Output Shape         Param #     Connected to                     
==================================================================================================
input_39 (InputLayer)           (None, 7)            0                                            
__________________________________________________________________________________________________
input_40 (InputLayer)           (None, 7)            0                                            
__________________________________________________________________________________________________
embedding_39 (Embedding)        (None, 7, 445)       504630      input_39[0][0]                   
__________________________________________________________________________________________________
embedding_40 (Embedding)        (None, 7, 66)        1254        input_40[0][0]                   
__________________________________________________________________________________________________
gru_39 (GRU)                    (None, 86)           137256      embedding_39[0][0]               
__________________________________________________________________________________________________
gru_40 (GRU)                    (None, 42)           13734       embedding_40[0][0]               
__________________________________________________________________________________________________
dropout_58 (Dropout)            (None, 86)           0           gru_39[0][0]                     
__________________________________________________________________________________________________
dropout_59 (Dropout)            (None, 42)           0           gru_40[0][0]                     
__________________________________________________________________________________________________
concatenate_20 (Concatenate)    (None, 128)          0           dropout_58[0][0]                 
                                                                 dropout_59[0][0]                 
__________________________________________________________________________________________________
dense_39 (Dense)                (None, 79)           10191       concatenate_20[0][0]             
__________________________________________________________________________________________________
dropout_60 (Dropout)            (None, 79)           0           dense_39[0][0]                   
__________________________________________________________________________________________________
dense_40 (Dense)                (None, 4)            320         dropout_60[0][0]                 
==================================================================================================
Total params: 667,385
Trainable params: 667,385
Non-trainable params: 0
__________________________________________________________________________________________________
None
Train on 217231 samples, validate on 24137 samples
Epoch 1/20
 - 112s - loss: 0.0956 - acc: 0.9710 - val_loss: 0.0719 - val_acc: 0.9997
…
	Training (Important) : 3585, Test : 1320
	MWEs in tain : 1790, occurrences : 4856
	Impotant words in tain : 1200
	MWE length mean : 2.06
	Seen MWEs : 345 (67 %)
	New MWEs : 165 (32 %)
==================================================================================================
__________________________________________________________________________________________________
Layer (type)                    Output Shape         Param #     Connected to                     
==================================================================================================
input_41 (InputLayer)           (None, 7)            0                                            
__________________________________________________________________________________________________
input_42 (InputLayer)           (None, 7)            0                                            
__________________________________________________________________________________________________
embedding_41 (Embedding)        (None, 7, 445)       535335      input_41[0][0]                   
__________________________________________________________________________________________________
embedding_42 (Embedding)        (None, 7, 66)        924         input_42[0][0]                   
__________________________________________________________________________________________________
gru_41 (GRU)                    (None, 86)           137256      embedding_41[0][0]               
__________________________________________________________________________________________________
gru_42 (GRU)                    (None, 42)           13734       embedding_42[0][0]               
__________________________________________________________________________________________________
dropout_61 (Dropout)            (None, 86)           0           gru_41[0][0]                     
__________________________________________________________________________________________________
dropout_62 (Dropout)            (None, 42)           0           gru_42[0][0]                     
__________________________________________________________________________________________________
concatenate_21 (Concatenate)    (None, 128)          0           dropout_61[0][0]                 
                                                                 dropout_62[0][0]                 
__________________________________________________________________________________________________
dense_41 (Dense)                (None, 79)           10191       concatenate_21[0][0]             
__________________________________________________________________________________________________
dropout_63 (Dropout)            (None, 79)           0           dense_41[0][0]                   
__________________________________________________________________________________________________
dense_42 (Dense)                (None, 4)            320         dropout_63[0][0]                 
==================================================================================================
Total params: 697,760
Trainable params: 697,760
Non-trainable params: 0
__________________________________________________________________________________________________
None
Train on 432446 samples, validate on 48050 samples
Epoch 1/20
 - 221s - loss: 0.0785 - acc: 0.9767 - val_loss: 0.0841 - val_acc: 1.0000
…
	Training (Important) : 3124, Test : 1954
	MWEs in tain : 1372, occurrences : 3583
	Impotant words in tain : 1175
	MWE length mean : 2.13
	Seen MWEs : 386 (57 %)
	New MWEs : 284 (42 %)
==================================================================================================
__________________________________________________________________________________________________
Layer (type)                    Output Shape         Param #     Connected to                     
==================================================================================================
input_43 (InputLayer)           (None, 7)            0                                            
__________________________________________________________________________________________________
input_44 (InputLayer)           (None, 7)            0                                            
__________________________________________________________________________________________________
embedding_43 (Embedding)        (None, 7, 472)       556016      input_43[0][0]                   
__________________________________________________________________________________________________
embedding_44 (Embedding)        (None, 7, 80)        1520        input_44[0][0]                   
__________________________________________________________________________________________________
gru_43 (GRU)                    (None, 19)           28044       embedding_43[0][0]               
__________________________________________________________________________________________________
gru_44 (GRU)                    (None, 24)           7560        embedding_44[0][0]               
__________________________________________________________________________________________________
dropout_64 (Dropout)            (None, 19)           0           gru_43[0][0]                     
__________________________________________________________________________________________________
dropout_65 (Dropout)            (None, 24)           0           gru_44[0][0]                     
__________________________________________________________________________________________________
concatenate_22 (Concatenate)    (None, 43)           0           dropout_64[0][0]                 
                                                                 dropout_65[0][0]                 
__________________________________________________________________________________________________
dense_43 (Dense)                (None, 54)           2376        concatenate_22[0][0]             
__________________________________________________________________________________________________
dropout_66 (Dropout)            (None, 54)           0           dense_43[0][0]                   
__________________________________________________________________________________________________
dense_44 (Dense)                (None, 4)            220         dropout_66[0][0]                 
==================================================================================================
Total params: 595,736
Trainable params: 595,736
Non-trainable params: 0
__________________________________________________________________________________________________
None
Train on 320835 samples, validate on 35649 samples
Epoch 1/20
 - 80s - loss: 0.0731 - acc: 0.9783 - val_loss: 0.0832 - val_acc: 0.9983
…
	Training (Important) : 2305, Test : 3117
	MWEs in tain : 1396, occurrences : 2518
	Impotant words in tain : 1131
	MWE length mean : 2.22
	Seen MWEs : 340 (61 %)
	New MWEs : 213 (38 %)
==================================================================================================
__________________________________________________________________________________________________
Layer (type)                    Output Shape         Param #     Connected to                     
==================================================================================================
input_45 (InputLayer)           (None, 7)            0                                            
__________________________________________________________________________________________________
input_46 (InputLayer)           (None, 7)            0                                            
__________________________________________________________________________________________________
embedding_45 (Embedding)        (None, 7, 472)       535248      input_45[0][0]                   
__________________________________________________________________________________________________
embedding_46 (Embedding)        (None, 7, 80)        1520        input_46[0][0]                   
__________________________________________________________________________________________________
gru_45 (GRU)                    (None, 19)           28044       embedding_45[0][0]               
__________________________________________________________________________________________________
gru_46 (GRU)                    (None, 24)           7560        embedding_46[0][0]               
__________________________________________________________________________________________________
dropout_67 (Dropout)            (None, 19)           0           gru_45[0][0]                     
__________________________________________________________________________________________________
dropout_68 (Dropout)            (None, 24)           0           gru_46[0][0]                     
__________________________________________________________________________________________________
concatenate_23 (Concatenate)    (None, 43)           0           dropout_67[0][0]                 
                                                                 dropout_68[0][0]                 
__________________________________________________________________________________________________
dense_45 (Dense)                (None, 54)           2376        concatenate_23[0][0]             
__________________________________________________________________________________________________
dropout_69 (Dropout)            (None, 54)           0           dense_45[0][0]                   
__________________________________________________________________________________________________
dense_46 (Dense)                (None, 4)            220         dropout_69[0][0]                 
==================================================================================================
Total params: 574,968
Trainable params: 574,968
Non-trainable params: 0
__________________________________________________________________________________________________
None
Train on 217231 samples, validate on 24137 samples
Epoch 1/20
 - 52s - loss: 0.0825 - acc: 0.9739 - val_loss: 0.0750 - val_acc: 0.9988
…
	Training (Important) : 3585, Test : 1320
	MWEs in tain : 1790, occurrences : 4856
	Impotant words in tain : 1200
	MWE length mean : 2.06
	Seen MWEs : 345 (67 %)
	New MWEs : 165 (32 %)
==================================================================================================
__________________________________________________________________________________________________
Layer (type)                    Output Shape         Param #     Connected to                     
==================================================================================================
input_47 (InputLayer)           (None, 7)            0                                            
__________________________________________________________________________________________________
input_48 (InputLayer)           (None, 7)            0                                            
__________________________________________________________________________________________________
embedding_47 (Embedding)        (None, 7, 472)       567816      input_47[0][0]                   
__________________________________________________________________________________________________
embedding_48 (Embedding)        (None, 7, 80)        1120        input_48[0][0]                   
__________________________________________________________________________________________________
gru_47 (GRU)                    (None, 19)           28044       embedding_47[0][0]               
__________________________________________________________________________________________________
gru_48 (GRU)                    (None, 24)           7560        embedding_48[0][0]               
__________________________________________________________________________________________________
dropout_70 (Dropout)            (None, 19)           0           gru_47[0][0]                     
__________________________________________________________________________________________________
dropout_71 (Dropout)            (None, 24)           0           gru_48[0][0]                     
__________________________________________________________________________________________________
concatenate_24 (Concatenate)    (None, 43)           0           dropout_70[0][0]                 
                                                                 dropout_71[0][0]                 
__________________________________________________________________________________________________
dense_47 (Dense)                (None, 54)           2376        concatenate_24[0][0]             
__________________________________________________________________________________________________
dropout_72 (Dropout)            (None, 54)           0           dense_47[0][0]                   
__________________________________________________________________________________________________
dense_48 (Dense)                (None, 4)            220         dropout_72[0][0]                 
==================================================================================================
Total params: 607,136
Trainable params: 607,136
Non-trainable params: 0
__________________________________________________________________________________________________
None
Train on 432446 samples, validate on 48050 samples
Epoch 1/20
 - 105s - loss: 0.0721 - acc: 0.9777 - val_loss: 0.0552 - val_acc: 1.0000
…
	Training (Important) : 3124, Test : 1954
	MWEs in tain : 1372, occurrences : 3583
	Impotant words in tain : 1175
	MWE length mean : 2.13
	Seen MWEs : 386 (57 %)
	New MWEs : 284 (42 %)
==================================================================================================
__________________________________________________________________________________________________
Layer (type)                    Output Shape         Param #     Connected to                     
==================================================================================================
input_49 (InputLayer)           (None, 7)            0                                            
__________________________________________________________________________________________________
input_50 (InputLayer)           (None, 7)            0                                            
__________________________________________________________________________________________________
embedding_49 (Embedding)        (None, 7, 305)       359290      input_49[0][0]                   
__________________________________________________________________________________________________
embedding_50 (Embedding)        (None, 7, 41)        779         input_50[0][0]                   
__________________________________________________________________________________________________
gru_49 (GRU)                    (None, 7)            6573        embedding_49[0][0]               
__________________________________________________________________________________________________
gru_50 (GRU)                    (None, 20)           3720        embedding_50[0][0]               
__________________________________________________________________________________________________
dropout_73 (Dropout)            (None, 7)            0           gru_49[0][0]                     
__________________________________________________________________________________________________
dropout_74 (Dropout)            (None, 20)           0           gru_50[0][0]                     
__________________________________________________________________________________________________
concatenate_25 (Concatenate)    (None, 27)           0           dropout_73[0][0]                 
                                                                 dropout_74[0][0]                 
__________________________________________________________________________________________________
dense_49 (Dense)                (None, 21)           588         concatenate_25[0][0]             
__________________________________________________________________________________________________
dropout_75 (Dropout)            (None, 21)           0           dense_49[0][0]                   
__________________________________________________________________________________________________
dense_50 (Dense)                (None, 4)            88          dropout_75[0][0]                 
==================================================================================================
Total params: 371,038
Trainable params: 371,038
Non-trainable params: 0
__________________________________________________________________________________________________
None
Train on 320835 samples, validate on 35649 samples
Epoch 1/20
 - 78s - loss: 0.0873 - acc: 0.9752 - val_loss: 0.0781 - val_acc: 0.9972
…
	Training (Important) : 2305, Test : 3117
	MWEs in tain : 1396, occurrences : 2518
	Impotant words in tain : 1131
	MWE length mean : 2.22
	Seen MWEs : 340 (61 %)
	New MWEs : 213 (38 %)
==================================================================================================
__________________________________________________________________________________________________
Layer (type)                    Output Shape         Param #     Connected to                     
==================================================================================================
input_51 (InputLayer)           (None, 7)            0                                            
__________________________________________________________________________________________________
input_52 (InputLayer)           (None, 7)            0                                            
__________________________________________________________________________________________________
embedding_51 (Embedding)        (None, 7, 305)       345870      input_51[0][0]                   
__________________________________________________________________________________________________
embedding_52 (Embedding)        (None, 7, 41)        779         input_52[0][0]                   
__________________________________________________________________________________________________
gru_51 (GRU)                    (None, 7)            6573        embedding_51[0][0]               
__________________________________________________________________________________________________
gru_52 (GRU)                    (None, 20)           3720        embedding_52[0][0]               
__________________________________________________________________________________________________
dropout_76 (Dropout)            (None, 7)            0           gru_51[0][0]                     
__________________________________________________________________________________________________
dropout_77 (Dropout)            (None, 20)           0           gru_52[0][0]                     
__________________________________________________________________________________________________
concatenate_26 (Concatenate)    (None, 27)           0           dropout_76[0][0]                 
                                                                 dropout_77[0][0]                 
__________________________________________________________________________________________________
dense_51 (Dense)                (None, 21)           588         concatenate_26[0][0]             
__________________________________________________________________________________________________
dropout_78 (Dropout)            (None, 21)           0           dense_51[0][0]                   
__________________________________________________________________________________________________
dense_52 (Dense)                (None, 4)            88          dropout_78[0][0]                 
==================================================================================================
Total params: 357,618
Trainable params: 357,618
Non-trainable params: 0
__________________________________________________________________________________________________
None
Train on 217231 samples, validate on 24137 samples
Epoch 1/20
 - 53s - loss: 0.1016 - acc: 0.9688 - val_loss: 0.0903 - val_acc: 0.9981
…
	Training (Important) : 3585, Test : 1320
	MWEs in tain : 1790, occurrences : 4856
	Impotant words in tain : 1200
	MWE length mean : 2.06
	Seen MWEs : 345 (67 %)
	New MWEs : 165 (32 %)
==================================================================================================
__________________________________________________________________________________________________
Layer (type)                    Output Shape         Param #     Connected to                     
==================================================================================================
input_53 (InputLayer)           (None, 7)            0                                            
__________________________________________________________________________________________________
input_54 (InputLayer)           (None, 7)            0                                            
__________________________________________________________________________________________________
embedding_53 (Embedding)        (None, 7, 305)       366915      input_53[0][0]                   
__________________________________________________________________________________________________
embedding_54 (Embedding)        (None, 7, 41)        574         input_54[0][0]                   
__________________________________________________________________________________________________
gru_53 (GRU)                    (None, 7)            6573        embedding_53[0][0]               
__________________________________________________________________________________________________
gru_54 (GRU)                    (None, 20)           3720        embedding_54[0][0]               
__________________________________________________________________________________________________
dropout_79 (Dropout)            (None, 7)            0           gru_53[0][0]                     
__________________________________________________________________________________________________
dropout_80 (Dropout)            (None, 20)           0           gru_54[0][0]                     
__________________________________________________________________________________________________
concatenate_27 (Concatenate)    (None, 27)           0           dropout_79[0][0]                 
                                                                 dropout_80[0][0]                 
__________________________________________________________________________________________________
dense_53 (Dense)                (None, 21)           588         concatenate_27[0][0]             
__________________________________________________________________________________________________
dropout_81 (Dropout)            (None, 21)           0           dense_53[0][0]                   
__________________________________________________________________________________________________
dense_54 (Dense)                (None, 4)            88          dropout_81[0][0]                 
==================================================================================================
Total params: 378,458
Trainable params: 378,458
Non-trainable params: 0
__________________________________________________________________________________________________
None
Train on 432446 samples, validate on 48050 samples
Epoch 1/20
 - 106s - loss: 0.0871 - acc: 0.9740 - val_loss: 0.0634 - val_acc: 1.0000
…
	Training (Important) : 3124, Test : 1954
	MWEs in tain : 1372, occurrences : 3583
	Impotant words in tain : 1175
	MWE length mean : 2.13
	Seen MWEs : 386 (57 %)
	New MWEs : 284 (42 %)
==================================================================================================
__________________________________________________________________________________________________
Layer (type)                    Output Shape         Param #     Connected to                     
==================================================================================================
input_55 (InputLayer)           (None, 7)            0                                            
__________________________________________________________________________________________________
input_56 (InputLayer)           (None, 7)            0                                            
__________________________________________________________________________________________________
embedding_55 (Embedding)        (None, 7, 397)       467666      input_55[0][0]                   
__________________________________________________________________________________________________
embedding_56 (Embedding)        (None, 7, 38)        722         input_56[0][0]                   
__________________________________________________________________________________________________
gru_55 (GRU)                    (None, 12)           14760       embedding_55[0][0]               
__________________________________________________________________________________________________
gru_56 (GRU)                    (None, 21)           3780        embedding_56[0][0]               
__________________________________________________________________________________________________
dropout_82 (Dropout)            (None, 12)           0           gru_55[0][0]                     
__________________________________________________________________________________________________
dropout_83 (Dropout)            (None, 21)           0           gru_56[0][0]                     
__________________________________________________________________________________________________
concatenate_28 (Concatenate)    (None, 33)           0           dropout_82[0][0]                 
                                                                 dropout_83[0][0]                 
__________________________________________________________________________________________________
dense_55 (Dense)                (None, 25)           850         concatenate_28[0][0]             
__________________________________________________________________________________________________
dropout_84 (Dropout)            (None, 25)           0           dense_55[0][0]                   
__________________________________________________________________________________________________
dense_56 (Dense)                (None, 4)            104         dropout_84[0][0]                 
==================================================================================================
Total params: 487,882
Trainable params: 487,882
Non-trainable params: 0
__________________________________________________________________________________________________
None
Train on 320835 samples, validate on 35649 samples
Epoch 1/20
 - 41s - loss: 0.1051 - acc: 0.9694 - val_loss: 0.0686 - val_acc: 0.9983
…
	Training (Important) : 2305, Test : 3117
	MWEs in tain : 1396, occurrences : 2518
	Impotant words in tain : 1131
	MWE length mean : 2.22
	Seen MWEs : 340 (61 %)
	New MWEs : 213 (38 %)
==================================================================================================
__________________________________________________________________________________________________
Layer (type)                    Output Shape         Param #     Connected to                     
==================================================================================================
input_57 (InputLayer)           (None, 7)            0                                            
__________________________________________________________________________________________________
input_58 (InputLayer)           (None, 7)            0                                            
__________________________________________________________________________________________________
embedding_57 (Embedding)        (None, 7, 397)       450198      input_57[0][0]                   
__________________________________________________________________________________________________
embedding_58 (Embedding)        (None, 7, 38)        722         input_58[0][0]                   
__________________________________________________________________________________________________
gru_57 (GRU)                    (None, 12)           14760       embedding_57[0][0]               
__________________________________________________________________________________________________
gru_58 (GRU)                    (None, 21)           3780        embedding_58[0][0]               
__________________________________________________________________________________________________
dropout_85 (Dropout)            (None, 12)           0           gru_57[0][0]                     
__________________________________________________________________________________________________
dropout_86 (Dropout)            (None, 21)           0           gru_58[0][0]                     
__________________________________________________________________________________________________
concatenate_29 (Concatenate)    (None, 33)           0           dropout_85[0][0]                 
                                                                 dropout_86[0][0]                 
__________________________________________________________________________________________________
dense_57 (Dense)                (None, 25)           850         concatenate_29[0][0]             
__________________________________________________________________________________________________
dropout_87 (Dropout)            (None, 25)           0           dense_57[0][0]                   
__________________________________________________________________________________________________
dense_58 (Dense)                (None, 4)            104         dropout_87[0][0]                 
==================================================================================================
Total params: 470,414
Trainable params: 470,414
Non-trainable params: 0
__________________________________________________________________________________________________
None
Train on 217231 samples, validate on 24137 samples
Epoch 1/20
 - 28s - loss: 0.1409 - acc: 0.9579 - val_loss: 0.1412 - val_acc: 0.9981
…
	Training (Important) : 3585, Test : 1320
	MWEs in tain : 1790, occurrences : 4856
	Impotant words in tain : 1200
	MWE length mean : 2.06
	Seen MWEs : 345 (67 %)
	New MWEs : 165 (32 %)
==================================================================================================
__________________________________________________________________________________________________
Layer (type)                    Output Shape         Param #     Connected to                     
==================================================================================================
input_59 (InputLayer)           (None, 7)            0                                            
__________________________________________________________________________________________________
input_60 (InputLayer)           (None, 7)            0                                            
__________________________________________________________________________________________________
embedding_59 (Embedding)        (None, 7, 397)       477591      input_59[0][0]                   
__________________________________________________________________________________________________
embedding_60 (Embedding)        (None, 7, 38)        532         input_60[0][0]                   
__________________________________________________________________________________________________
gru_59 (GRU)                    (None, 12)           14760       embedding_59[0][0]               
__________________________________________________________________________________________________
gru_60 (GRU)                    (None, 21)           3780        embedding_60[0][0]               
__________________________________________________________________________________________________
dropout_88 (Dropout)            (None, 12)           0           gru_59[0][0]                     
__________________________________________________________________________________________________
dropout_89 (Dropout)            (None, 21)           0           gru_60[0][0]                     
__________________________________________________________________________________________________
concatenate_30 (Concatenate)    (None, 33)           0           dropout_88[0][0]                 
                                                                 dropout_89[0][0]                 
__________________________________________________________________________________________________
dense_59 (Dense)                (None, 25)           850         concatenate_30[0][0]             
__________________________________________________________________________________________________
dropout_90 (Dropout)            (None, 25)           0           dense_59[0][0]                   
__________________________________________________________________________________________________
dense_60 (Dense)                (None, 4)            104         dropout_90[0][0]                 
==================================================================================================
Total params: 497,617
Trainable params: 497,617
Non-trainable params: 0
__________________________________________________________________________________________________
None
Train on 432446 samples, validate on 48050 samples
Epoch 1/20
 - 56s - loss: 0.1083 - acc: 0.9665 - val_loss: 0.0679 - val_acc: 1.0000
…
	Training (Important) : 3124, Test : 1954
	MWEs in tain : 1372, occurrences : 3583
	Impotant words in tain : 1175
	MWE length mean : 2.13
	Seen MWEs : 386 (57 %)
	New MWEs : 284 (42 %)
==================================================================================================
__________________________________________________________________________________________________
Layer (type)                    Output Shape         Param #     Connected to                     
==================================================================================================
input_61 (InputLayer)           (None, 7)            0                                            
__________________________________________________________________________________________________
input_62 (InputLayer)           (None, 7)            0                                            
__________________________________________________________________________________________________
embedding_61 (Embedding)        (None, 7, 492)       579576      input_61[0][0]                   
__________________________________________________________________________________________________
embedding_62 (Embedding)        (None, 7, 21)        399         input_62[0][0]                   
__________________________________________________________________________________________________
gru_61 (GRU)                    (None, 90)           157410      embedding_61[0][0]               
__________________________________________________________________________________________________
gru_62 (GRU)                    (None, 44)           8712        embedding_62[0][0]               
__________________________________________________________________________________________________
dropout_91 (Dropout)            (None, 90)           0           gru_61[0][0]                     
__________________________________________________________________________________________________
dropout_92 (Dropout)            (None, 44)           0           gru_62[0][0]                     
__________________________________________________________________________________________________
concatenate_31 (Concatenate)    (None, 134)          0           dropout_91[0][0]                 
                                                                 dropout_92[0][0]                 
__________________________________________________________________________________________________
dense_61 (Dense)                (None, 85)           11475       concatenate_31[0][0]             
__________________________________________________________________________________________________
dropout_93 (Dropout)            (None, 85)           0           dense_61[0][0]                   
__________________________________________________________________________________________________
dense_62 (Dense)                (None, 4)            344         dropout_93[0][0]                 
==================================================================================================
Total params: 757,916
Trainable params: 757,916
Non-trainable params: 0
__________________________________________________________________________________________________
None
Train on 320835 samples, validate on 35649 samples
Epoch 1/20
 - 83s - loss: 0.0802 - acc: 0.9775 - val_loss: 0.0685 - val_acc: 0.9990
…
	Training (Important) : 2305, Test : 3117
	MWEs in tain : 1396, occurrences : 2518
	Impotant words in tain : 1131
	MWE length mean : 2.22
	Seen MWEs : 340 (61 %)
	New MWEs : 213 (38 %)
==================================================================================================
__________________________________________________________________________________________________
Layer (type)                    Output Shape         Param #     Connected to                     
==================================================================================================
input_63 (InputLayer)           (None, 7)            0                                            
__________________________________________________________________________________________________
input_64 (InputLayer)           (None, 7)            0                                            
__________________________________________________________________________________________________
embedding_63 (Embedding)        (None, 7, 492)       557928      input_63[0][0]                   
__________________________________________________________________________________________________
embedding_64 (Embedding)        (None, 7, 21)        399         input_64[0][0]                   
__________________________________________________________________________________________________
gru_63 (GRU)                    (None, 90)           157410      embedding_63[0][0]               
__________________________________________________________________________________________________
gru_64 (GRU)                    (None, 44)           8712        embedding_64[0][0]               
__________________________________________________________________________________________________
dropout_94 (Dropout)            (None, 90)           0           gru_63[0][0]                     
__________________________________________________________________________________________________
dropout_95 (Dropout)            (None, 44)           0           gru_64[0][0]                     
__________________________________________________________________________________________________
concatenate_32 (Concatenate)    (None, 134)          0           dropout_94[0][0]                 
                                                                 dropout_95[0][0]                 
__________________________________________________________________________________________________
dense_63 (Dense)                (None, 85)           11475       concatenate_32[0][0]             
__________________________________________________________________________________________________
dropout_96 (Dropout)            (None, 85)           0           dense_63[0][0]                   
__________________________________________________________________________________________________
dense_64 (Dense)                (None, 4)            344         dropout_96[0][0]                 
==================================================================================================
Total params: 736,268
Trainable params: 736,268
Non-trainable params: 0
__________________________________________________________________________________________________
None
Train on 217231 samples, validate on 24137 samples
Epoch 1/20
 - 53s - loss: 0.0946 - acc: 0.9735 - val_loss: 0.0574 - val_acc: 0.9994
…
	Training (Important) : 3585, Test : 1320
	MWEs in tain : 1790, occurrences : 4856
	Impotant words in tain : 1200
	MWE length mean : 2.06
	Seen MWEs : 345 (67 %)
	New MWEs : 165 (32 %)
==================================================================================================
__________________________________________________________________________________________________
Layer (type)                    Output Shape         Param #     Connected to                     
==================================================================================================
input_65 (InputLayer)           (None, 7)            0                                            
__________________________________________________________________________________________________
input_66 (InputLayer)           (None, 7)            0                                            
__________________________________________________________________________________________________
embedding_65 (Embedding)        (None, 7, 492)       591876      input_65[0][0]                   
__________________________________________________________________________________________________
embedding_66 (Embedding)        (None, 7, 21)        294         input_66[0][0]                   
__________________________________________________________________________________________________
gru_65 (GRU)                    (None, 90)           157410      embedding_65[0][0]               
__________________________________________________________________________________________________
gru_66 (GRU)                    (None, 44)           8712        embedding_66[0][0]               
__________________________________________________________________________________________________
dropout_97 (Dropout)            (None, 90)           0           gru_65[0][0]                     
__________________________________________________________________________________________________
dropout_98 (Dropout)            (None, 44)           0           gru_66[0][0]                     
__________________________________________________________________________________________________
concatenate_33 (Concatenate)    (None, 134)          0           dropout_97[0][0]                 
                                                                 dropout_98[0][0]                 
__________________________________________________________________________________________________
dense_65 (Dense)                (None, 85)           11475       concatenate_33[0][0]             
__________________________________________________________________________________________________
dropout_99 (Dropout)            (None, 85)           0           dense_65[0][0]                   
__________________________________________________________________________________________________
dense_66 (Dense)                (None, 4)            344         dropout_99[0][0]                 
==================================================================================================
Total params: 770,111
Trainable params: 770,111
Non-trainable params: 0
__________________________________________________________________________________________________
None
Train on 432446 samples, validate on 48050 samples
Epoch 1/20
 - 106s - loss: 0.0798 - acc: 0.9762 - val_loss: 0.0694 - val_acc: 1.0000
…
	Training (Important) : 3124, Test : 1954
	MWEs in tain : 1372, occurrences : 3583
	Impotant words in tain : 1175
	MWE length mean : 2.13
	Seen MWEs : 386 (57 %)
	New MWEs : 284 (42 %)
==================================================================================================
__________________________________________________________________________________________________
Layer (type)                    Output Shape         Param #     Connected to                     
==================================================================================================
input_67 (InputLayer)           (None, 7)            0                                            
__________________________________________________________________________________________________
input_68 (InputLayer)           (None, 7)            0                                            
__________________________________________________________________________________________________
embedding_67 (Embedding)        (None, 7, 217)       255626      input_67[0][0]                   
__________________________________________________________________________________________________
embedding_68 (Embedding)        (None, 7, 37)        703         input_68[0][0]                   
__________________________________________________________________________________________________
gru_67 (GRU)                    (None, 34)           25704       embedding_67[0][0]               
__________________________________________________________________________________________________
gru_68 (GRU)                    (None, 46)           11592       embedding_68[0][0]               
__________________________________________________________________________________________________
dropout_100 (Dropout)           (None, 34)           0           gru_67[0][0]                     
__________________________________________________________________________________________________
dropout_101 (Dropout)           (None, 46)           0           gru_68[0][0]                     
__________________________________________________________________________________________________
concatenate_34 (Concatenate)    (None, 80)           0           dropout_100[0][0]                
                                                                 dropout_101[0][0]                
__________________________________________________________________________________________________
dense_67 (Dense)                (None, 82)           6642        concatenate_34[0][0]             
__________________________________________________________________________________________________
dropout_102 (Dropout)           (None, 82)           0           dense_67[0][0]                   
__________________________________________________________________________________________________
dense_68 (Dense)                (None, 4)            332         dropout_102[0][0]                
==================================================================================================
Total params: 300,599
Trainable params: 300,599
Non-trainable params: 0
__________________________________________________________________________________________________
None
Train on 320835 samples, validate on 35649 samples
Epoch 1/20
 - 41s - loss: 0.0798 - acc: 0.9762 - val_loss: 0.0742 - val_acc: 0.9991
…
	Training (Important) : 2305, Test : 3117
	MWEs in tain : 1396, occurrences : 2518
	Impotant words in tain : 1131
	MWE length mean : 2.22
	Seen MWEs : 340 (61 %)
	New MWEs : 213 (38 %)
==================================================================================================
__________________________________________________________________________________________________
Layer (type)                    Output Shape         Param #     Connected to                     
==================================================================================================
input_69 (InputLayer)           (None, 7)            0                                            
__________________________________________________________________________________________________
input_70 (InputLayer)           (None, 7)            0                                            
__________________________________________________________________________________________________
embedding_69 (Embedding)        (None, 7, 217)       246078      input_69[0][0]                   
__________________________________________________________________________________________________
embedding_70 (Embedding)        (None, 7, 37)        703         input_70[0][0]                   
__________________________________________________________________________________________________
gru_69 (GRU)                    (None, 34)           25704       embedding_69[0][0]               
__________________________________________________________________________________________________
gru_70 (GRU)                    (None, 46)           11592       embedding_70[0][0]               
__________________________________________________________________________________________________
dropout_103 (Dropout)           (None, 34)           0           gru_69[0][0]                     
__________________________________________________________________________________________________
dropout_104 (Dropout)           (None, 46)           0           gru_70[0][0]                     
__________________________________________________________________________________________________
concatenate_35 (Concatenate)    (None, 80)           0           dropout_103[0][0]                
                                                                 dropout_104[0][0]                
__________________________________________________________________________________________________
dense_69 (Dense)                (None, 82)           6642        concatenate_35[0][0]             
__________________________________________________________________________________________________
dropout_105 (Dropout)           (None, 82)           0           dense_69[0][0]                   
__________________________________________________________________________________________________
dense_70 (Dense)                (None, 4)            332         dropout_105[0][0]                
==================================================================================================
Total params: 291,051
Trainable params: 291,051
Non-trainable params: 0
__________________________________________________________________________________________________
None
Train on 217231 samples, validate on 24137 samples
Epoch 1/20
 - 27s - loss: 0.0915 - acc: 0.9714 - val_loss: 0.0898 - val_acc: 0.9991
…
	Training (Important) : 3585, Test : 1320
	MWEs in tain : 1790, occurrences : 4856
	Impotant words in tain : 1200
	MWE length mean : 2.06
	Seen MWEs : 345 (67 %)
	New MWEs : 165 (32 %)
==================================================================================================
__________________________________________________________________________________________________
Layer (type)                    Output Shape         Param #     Connected to                     
==================================================================================================
input_71 (InputLayer)           (None, 7)            0                                            
__________________________________________________________________________________________________
input_72 (InputLayer)           (None, 7)            0                                            
__________________________________________________________________________________________________
embedding_71 (Embedding)        (None, 7, 217)       261051      input_71[0][0]                   
__________________________________________________________________________________________________
embedding_72 (Embedding)        (None, 7, 37)        518         input_72[0][0]                   
__________________________________________________________________________________________________
gru_71 (GRU)                    (None, 34)           25704       embedding_71[0][0]               
__________________________________________________________________________________________________
gru_72 (GRU)                    (None, 46)           11592       embedding_72[0][0]               
__________________________________________________________________________________________________
dropout_106 (Dropout)           (None, 34)           0           gru_71[0][0]                     
__________________________________________________________________________________________________
dropout_107 (Dropout)           (None, 46)           0           gru_72[0][0]                     
__________________________________________________________________________________________________
concatenate_36 (Concatenate)    (None, 80)           0           dropout_106[0][0]                
                                                                 dropout_107[0][0]                
__________________________________________________________________________________________________
dense_71 (Dense)                (None, 82)           6642        concatenate_36[0][0]             
__________________________________________________________________________________________________
dropout_108 (Dropout)           (None, 82)           0           dense_71[0][0]                   
__________________________________________________________________________________________________
dense_72 (Dense)                (None, 4)            332         dropout_108[0][0]                
==================================================================================================
Total params: 305,839
Trainable params: 305,839
Non-trainable params: 0
__________________________________________________________________________________________________
None
Train on 432446 samples, validate on 48050 samples
Epoch 1/20
 - 56s - loss: 0.0780 - acc: 0.9757 - val_loss: 0.0872 - val_acc: 1.0000
…
	Training (Important) : 3124, Test : 1954
	MWEs in tain : 1372, occurrences : 3583
	Impotant words in tain : 1175
	MWE length mean : 2.13
	Seen MWEs : 386 (57 %)
	New MWEs : 284 (42 %)
==================================================================================================
__________________________________________________________________________________________________
Layer (type)                    Output Shape         Param #     Connected to                     
==================================================================================================
input_73 (InputLayer)           (None, 7)            0                                            
__________________________________________________________________________________________________
input_74 (InputLayer)           (None, 7)            0                                            
__________________________________________________________________________________________________
embedding_73 (Embedding)        (None, 7, 299)       352222      input_73[0][0]                   
__________________________________________________________________________________________________
embedding_74 (Embedding)        (None, 7, 60)        1140        input_74[0][0]                   
__________________________________________________________________________________________________
gru_73 (GRU)                    (None, 12)           11232       embedding_73[0][0]               
__________________________________________________________________________________________________
gru_74 (GRU)                    (None, 9)            1890        embedding_74[0][0]               
__________________________________________________________________________________________________
dropout_109 (Dropout)           (None, 12)           0           gru_73[0][0]                     
__________________________________________________________________________________________________
dropout_110 (Dropout)           (None, 9)            0           gru_74[0][0]                     
__________________________________________________________________________________________________
concatenate_37 (Concatenate)    (None, 21)           0           dropout_109[0][0]                
                                                                 dropout_110[0][0]                
__________________________________________________________________________________________________
dense_73 (Dense)                (None, 92)           2024        concatenate_37[0][0]             
__________________________________________________________________________________________________
dropout_111 (Dropout)           (None, 92)           0           dense_73[0][0]                   
__________________________________________________________________________________________________
dense_74 (Dense)                (None, 4)            372         dropout_111[0][0]                
==================================================================================================
Total params: 368,880
Trainable params: 368,880
Non-trainable params: 0
__________________________________________________________________________________________________
None
Train on 320835 samples, validate on 35649 samples
Epoch 1/20
 - 324s - loss: 0.0824 - acc: 0.9767 - val_loss: 0.0618 - val_acc: 0.9981
…
	Training (Important) : 2305, Test : 3117
	MWEs in tain : 1396, occurrences : 2518
	Impotant words in tain : 1131
	MWE length mean : 2.22
	Seen MWEs : 340 (61 %)
	New MWEs : 213 (38 %)
==================================================================================================
__________________________________________________________________________________________________
Layer (type)                    Output Shape         Param #     Connected to                     
==================================================================================================
input_75 (InputLayer)           (None, 7)            0                                            
__________________________________________________________________________________________________
input_76 (InputLayer)           (None, 7)            0                                            
__________________________________________________________________________________________________
embedding_75 (Embedding)        (None, 7, 299)       339066      input_75[0][0]                   
__________________________________________________________________________________________________
embedding_76 (Embedding)        (None, 7, 60)        1140        input_76[0][0]                   
__________________________________________________________________________________________________
gru_75 (GRU)                    (None, 12)           11232       embedding_75[0][0]               
__________________________________________________________________________________________________
gru_76 (GRU)                    (None, 9)            1890        embedding_76[0][0]               
__________________________________________________________________________________________________
dropout_112 (Dropout)           (None, 12)           0           gru_75[0][0]                     
__________________________________________________________________________________________________
dropout_113 (Dropout)           (None, 9)            0           gru_76[0][0]                     
__________________________________________________________________________________________________
concatenate_38 (Concatenate)    (None, 21)           0           dropout_112[0][0]                
                                                                 dropout_113[0][0]                
__________________________________________________________________________________________________
dense_75 (Dense)                (None, 92)           2024        concatenate_38[0][0]             
__________________________________________________________________________________________________
dropout_114 (Dropout)           (None, 92)           0           dense_75[0][0]                   
__________________________________________________________________________________________________
dense_76 (Dense)                (None, 4)            372         dropout_114[0][0]                
==================================================================================================
Total params: 355,724
Trainable params: 355,724
Non-trainable params: 0
__________________________________________________________________________________________________
None
Train on 217231 samples, validate on 24137 samples
Epoch 1/20
 - 225s - loss: 0.0934 - acc: 0.9718 - val_loss: 0.1101 - val_acc: 0.9988
…
	Training (Important) : 3585, Test : 1320
	MWEs in tain : 1790, occurrences : 4856
	Impotant words in tain : 1200
	MWE length mean : 2.06
	Seen MWEs : 345 (67 %)
	New MWEs : 165 (32 %)
==================================================================================================
__________________________________________________________________________________________________
Layer (type)                    Output Shape         Param #     Connected to                     
==================================================================================================
input_77 (InputLayer)           (None, 7)            0                                            
__________________________________________________________________________________________________
input_78 (InputLayer)           (None, 7)            0                                            
__________________________________________________________________________________________________
embedding_77 (Embedding)        (None, 7, 299)       359697      input_77[0][0]                   
__________________________________________________________________________________________________
embedding_78 (Embedding)        (None, 7, 60)        840         input_78[0][0]                   
__________________________________________________________________________________________________
gru_77 (GRU)                    (None, 12)           11232       embedding_77[0][0]               
__________________________________________________________________________________________________
gru_78 (GRU)                    (None, 9)            1890        embedding_78[0][0]               
__________________________________________________________________________________________________
dropout_115 (Dropout)           (None, 12)           0           gru_77[0][0]                     
__________________________________________________________________________________________________
dropout_116 (Dropout)           (None, 9)            0           gru_78[0][0]                     
__________________________________________________________________________________________________
concatenate_39 (Concatenate)    (None, 21)           0           dropout_115[0][0]                
                                                                 dropout_116[0][0]                
__________________________________________________________________________________________________
dense_77 (Dense)                (None, 92)           2024        concatenate_39[0][0]             
__________________________________________________________________________________________________
dropout_117 (Dropout)           (None, 92)           0           dense_77[0][0]                   
__________________________________________________________________________________________________
dense_78 (Dense)                (None, 4)            372         dropout_117[0][0]                
==================================================================================================
Total params: 376,055
Trainable params: 376,055
Non-trainable params: 0
__________________________________________________________________________________________________
None
Train on 432446 samples, validate on 48050 samples
Epoch 1/20
 - 443s - loss: 0.0808 - acc: 0.9751 - val_loss: 0.0974 - val_acc: 1.0000
…
	Training (Important) : 3124, Test : 1954
	MWEs in tain : 1372, occurrences : 3583
	Impotant words in tain : 1175
	MWE length mean : 2.13
	Seen MWEs : 386 (57 %)
	New MWEs : 284 (42 %)
==================================================================================================
__________________________________________________________________________________________________
Layer (type)                    Output Shape         Param #     Connected to                     
==================================================================================================
input_79 (InputLayer)           (None, 7)            0                                            
__________________________________________________________________________________________________
input_80 (InputLayer)           (None, 7)            0                                            
__________________________________________________________________________________________________
embedding_79 (Embedding)        (None, 7, 297)       349866      input_79[0][0]                   
__________________________________________________________________________________________________
embedding_80 (Embedding)        (None, 7, 98)        1862        input_80[0][0]                   
__________________________________________________________________________________________________
gru_79 (GRU)                    (None, 35)           34965       embedding_79[0][0]               
__________________________________________________________________________________________________
gru_80 (GRU)                    (None, 16)           5520        embedding_80[0][0]               
__________________________________________________________________________________________________
dropout_118 (Dropout)           (None, 35)           0           gru_79[0][0]                     
__________________________________________________________________________________________________
dropout_119 (Dropout)           (None, 16)           0           gru_80[0][0]                     
__________________________________________________________________________________________________
concatenate_40 (Concatenate)    (None, 51)           0           dropout_118[0][0]                
                                                                 dropout_119[0][0]                
__________________________________________________________________________________________________
dense_79 (Dense)                (None, 47)           2444        concatenate_40[0][0]             
__________________________________________________________________________________________________
dropout_120 (Dropout)           (None, 47)           0           dense_79[0][0]                   
__________________________________________________________________________________________________
dense_80 (Dense)                (None, 4)            192         dropout_120[0][0]                
==================================================================================================
Total params: 394,849
Trainable params: 394,849
Non-trainable params: 0
__________________________________________________________________________________________________
None
Train on 320835 samples, validate on 35649 samples
Epoch 1/20
 - 41s - loss: 0.0840 - acc: 0.9749 - val_loss: 0.0923 - val_acc: 0.9994
…
	Training (Important) : 2305, Test : 3117
	MWEs in tain : 1396, occurrences : 2518
	Impotant words in tain : 1131
	MWE length mean : 2.22
	Seen MWEs : 340 (61 %)
	New MWEs : 213 (38 %)
==================================================================================================
__________________________________________________________________________________________________
Layer (type)                    Output Shape         Param #     Connected to                     
==================================================================================================
input_81 (InputLayer)           (None, 7)            0                                            
__________________________________________________________________________________________________
input_82 (InputLayer)           (None, 7)            0                                            
__________________________________________________________________________________________________
embedding_81 (Embedding)        (None, 7, 297)       336798      input_81[0][0]                   
__________________________________________________________________________________________________
embedding_82 (Embedding)        (None, 7, 98)        1862        input_82[0][0]                   
__________________________________________________________________________________________________
gru_81 (GRU)                    (None, 35)           34965       embedding_81[0][0]               
__________________________________________________________________________________________________
gru_82 (GRU)                    (None, 16)           5520        embedding_82[0][0]               
__________________________________________________________________________________________________
dropout_121 (Dropout)           (None, 35)           0           gru_81[0][0]                     
__________________________________________________________________________________________________
dropout_122 (Dropout)           (None, 16)           0           gru_82[0][0]                     
__________________________________________________________________________________________________
concatenate_41 (Concatenate)    (None, 51)           0           dropout_121[0][0]                
                                                                 dropout_122[0][0]                
__________________________________________________________________________________________________
dense_81 (Dense)                (None, 47)           2444        concatenate_41[0][0]             
__________________________________________________________________________________________________
dropout_123 (Dropout)           (None, 47)           0           dense_81[0][0]                   
__________________________________________________________________________________________________
dense_82 (Dense)                (None, 4)            192         dropout_123[0][0]                
==================================================================================================
Total params: 381,781
Trainable params: 381,781
Non-trainable params: 0
__________________________________________________________________________________________________
None
Train on 217231 samples, validate on 24137 samples
Epoch 1/20
 - 28s - loss: 0.0979 - acc: 0.9692 - val_loss: 0.0827 - val_acc: 0.9988
…
	Training (Important) : 3585, Test : 1320
	MWEs in tain : 1790, occurrences : 4856
	Impotant words in tain : 1200
	MWE length mean : 2.06
	Seen MWEs : 345 (67 %)
	New MWEs : 165 (32 %)
==================================================================================================
__________________________________________________________________________________________________
Layer (type)                    Output Shape         Param #     Connected to                     
==================================================================================================
input_83 (InputLayer)           (None, 7)            0                                            
__________________________________________________________________________________________________
input_84 (InputLayer)           (None, 7)            0                                            
__________________________________________________________________________________________________
embedding_83 (Embedding)        (None, 7, 297)       357291      input_83[0][0]                   
__________________________________________________________________________________________________
embedding_84 (Embedding)        (None, 7, 98)        1372        input_84[0][0]                   
__________________________________________________________________________________________________
gru_83 (GRU)                    (None, 35)           34965       embedding_83[0][0]               
__________________________________________________________________________________________________
gru_84 (GRU)                    (None, 16)           5520        embedding_84[0][0]               
__________________________________________________________________________________________________
dropout_124 (Dropout)           (None, 35)           0           gru_83[0][0]                     
__________________________________________________________________________________________________
dropout_125 (Dropout)           (None, 16)           0           gru_84[0][0]                     
__________________________________________________________________________________________________
concatenate_42 (Concatenate)    (None, 51)           0           dropout_124[0][0]                
                                                                 dropout_125[0][0]                
__________________________________________________________________________________________________
dense_83 (Dense)                (None, 47)           2444        concatenate_42[0][0]             
__________________________________________________________________________________________________
dropout_126 (Dropout)           (None, 47)           0           dense_83[0][0]                   
__________________________________________________________________________________________________
dense_84 (Dense)                (None, 4)            192         dropout_126[0][0]                
==================================================================================================
Total params: 401,784
Trainable params: 401,784
Non-trainable params: 0
__________________________________________________________________________________________________
None
Train on 432446 samples, validate on 48050 samples
Epoch 1/20
 - 56s - loss: 0.0844 - acc: 0.9745 - val_loss: 0.0683 - val_acc: 1.0000
…
	Training (Important) : 3124, Test : 1954
	MWEs in tain : 1372, occurrences : 3583
	Impotant words in tain : 1175
	MWE length mean : 2.13
	Seen MWEs : 386 (57 %)
	New MWEs : 284 (42 %)
==================================================================================================
__________________________________________________________________________________________________
Layer (type)                    Output Shape         Param #     Connected to                     
==================================================================================================
input_85 (InputLayer)           (None, 7)            0                                            
__________________________________________________________________________________________________
input_86 (InputLayer)           (None, 7)            0                                            
__________________________________________________________________________________________________
embedding_85 (Embedding)        (None, 7, 323)       380494      input_85[0][0]                   
__________________________________________________________________________________________________
embedding_86 (Embedding)        (None, 7, 37)        703         input_86[0][0]                   
__________________________________________________________________________________________________
gru_85 (GRU)                    (None, 51)           57375       embedding_85[0][0]               
__________________________________________________________________________________________________
gru_86 (GRU)                    (None, 20)           3480        embedding_86[0][0]               
__________________________________________________________________________________________________
dropout_127 (Dropout)           (None, 51)           0           gru_85[0][0]                     
__________________________________________________________________________________________________
dropout_128 (Dropout)           (None, 20)           0           gru_86[0][0]                     
__________________________________________________________________________________________________
concatenate_43 (Concatenate)    (None, 71)           0           dropout_127[0][0]                
                                                                 dropout_128[0][0]                
__________________________________________________________________________________________________
dense_85 (Dense)                (None, 6)            432         concatenate_43[0][0]             
__________________________________________________________________________________________________
dropout_129 (Dropout)           (None, 6)            0           dense_85[0][0]                   
__________________________________________________________________________________________________
dense_86 (Dense)                (None, 4)            28          dropout_129[0][0]                
==================================================================================================
Total params: 442,512
Trainable params: 442,512
Non-trainable params: 0
__________________________________________________________________________________________________
None
Train on 320835 samples, validate on 35649 samples
Epoch 1/20
 - 82s - loss: 0.1906 - acc: 0.9254 - val_loss: 0.0902 - val_acc: 0.9977
…
	Training (Important) : 2305, Test : 3117
	MWEs in tain : 1396, occurrences : 2518
	Impotant words in tain : 1131
	MWE length mean : 2.22
	Seen MWEs : 340 (61 %)
	New MWEs : 213 (38 %)
==================================================================================================
__________________________________________________________________________________________________
Layer (type)                    Output Shape         Param #     Connected to                     
==================================================================================================
input_87 (InputLayer)           (None, 7)            0                                            
__________________________________________________________________________________________________
input_88 (InputLayer)           (None, 7)            0                                            
__________________________________________________________________________________________________
embedding_87 (Embedding)        (None, 7, 323)       366282      input_87[0][0]                   
__________________________________________________________________________________________________
embedding_88 (Embedding)        (None, 7, 37)        703         input_88[0][0]                   
__________________________________________________________________________________________________
gru_87 (GRU)                    (None, 51)           57375       embedding_87[0][0]               
__________________________________________________________________________________________________
gru_88 (GRU)                    (None, 20)           3480        embedding_88[0][0]               
__________________________________________________________________________________________________
dropout_130 (Dropout)           (None, 51)           0           gru_87[0][0]                     
__________________________________________________________________________________________________
dropout_131 (Dropout)           (None, 20)           0           gru_88[0][0]                     
__________________________________________________________________________________________________
concatenate_44 (Concatenate)    (None, 71)           0           dropout_130[0][0]                
                                                                 dropout_131[0][0]                
__________________________________________________________________________________________________
dense_87 (Dense)                (None, 6)            432         concatenate_44[0][0]             
__________________________________________________________________________________________________
dropout_132 (Dropout)           (None, 6)            0           dense_87[0][0]                   
__________________________________________________________________________________________________
dense_88 (Dense)                (None, 4)            28          dropout_132[0][0]                
==================================================================================================
Total params: 428,300
Trainable params: 428,300
Non-trainable params: 0
__________________________________________________________________________________________________
None
Train on 217231 samples, validate on 24137 samples
Epoch 1/20
 - 56s - loss: 0.4248 - acc: 0.7992 - val_loss: 0.0995 - val_acc: 0.9954
…
	Training (Important) : 3585, Test : 1320
	MWEs in tain : 1790, occurrences : 4856
	Impotant words in tain : 1200
	MWE length mean : 2.06
	Seen MWEs : 345 (67 %)
	New MWEs : 165 (32 %)
==================================================================================================
__________________________________________________________________________________________________
Layer (type)                    Output Shape         Param #     Connected to                     
==================================================================================================
input_89 (InputLayer)           (None, 7)            0                                            
__________________________________________________________________________________________________
input_90 (InputLayer)           (None, 7)            0                                            
__________________________________________________________________________________________________
embedding_89 (Embedding)        (None, 7, 323)       388569      input_89[0][0]                   
__________________________________________________________________________________________________
embedding_90 (Embedding)        (None, 7, 37)        518         input_90[0][0]                   
__________________________________________________________________________________________________
gru_89 (GRU)                    (None, 51)           57375       embedding_89[0][0]               
__________________________________________________________________________________________________
gru_90 (GRU)                    (None, 20)           3480        embedding_90[0][0]               
…
==================================================================================================
input_101 (InputLayer)          (None, 7)            0                                            
__________________________________________________________________________________________________
input_102 (InputLayer)          (None, 7)            0                                            
__________________________________________________________________________________________________
embedding_101 (Embedding)       (None, 7, 343)       412629      input_101[0][0]                  
__________________________________________________________________________________________________
embedding_102 (Embedding)       (None, 7, 59)        826         input_102[0][0]                  
__________________________________________________________________________________________________
gru_101 (GRU)                   (None, 60)           72720       embedding_101[0][0]              
__________________________________________________________________________________________________
gru_102 (GRU)                   (None, 42)           12852       embedding_102[0][0]              
__________________________________________________________________________________________________
dropout_151 (Dropout)           (None, 60)           0           gru_101[0][0]                    
__________________________________________________________________________________________________
dropout_152 (Dropout)           (None, 42)           0           gru_102[0][0]                    
__________________________________________________________________________________________________
concatenate_51 (Concatenate)    (None, 102)          0           dropout_151[0][0]                
                                                                 dropout_152[0][0]                
__________________________________________________________________________________________________
dense_101 (Dense)               (None, 50)           5150        concatenate_51[0][0]             
__________________________________________________________________________________________________
dropout_153 (Dropout)           (None, 50)           0           dense_101[0][0]                  
__________________________________________________________________________________________________
dense_102 (Dense)               (None, 4)            204         dropout_153[0][0]                
==================================================================================================
Total params: 504,381
Trainable params: 504,381
Non-trainable params: 0
__________________________________________________________________________________________________
None
Train on 432446 samples, validate on 48050 samples
Epoch 1/20
 - 111s - loss: 0.0793 - acc: 0.9761 - val_loss: 0.0815 - val_acc: 1.0000
…
	Training (Important) : 3124, Test : 1954
	MWEs in tain : 1372, occurrences : 3583
	Impotant words in tain : 1175
	MWE length mean : 2.13
	Seen MWEs : 386 (57 %)
	New MWEs : 284 (42 %)
==================================================================================================
__________________________________________________________________________________________________
Layer (type)                    Output Shape         Param #     Connected to                     
==================================================================================================
input_103 (InputLayer)          (None, 7)            0                                            
__________________________________________________________________________________________________
input_104 (InputLayer)          (None, 7)            0                                            
__________________________________________________________________________________________________
embedding_103 (Embedding)       (None, 7, 420)       494760      input_103[0][0]                  
__________________________________________________________________________________________________
embedding_104 (Embedding)       (None, 7, 33)        627         input_104[0][0]                  
__________________________________________________________________________________________________
gru_103 (GRU)                   (None, 47)           65988       embedding_103[0][0]              
__________________________________________________________________________________________________
gru_104 (GRU)                   (None, 7)            861         embedding_104[0][0]              
__________________________________________________________________________________________________
dropout_154 (Dropout)           (None, 47)           0           gru_103[0][0]                    
__________________________________________________________________________________________________
dropout_155 (Dropout)           (None, 7)            0           gru_104[0][0]                    
__________________________________________________________________________________________________
concatenate_52 (Concatenate)    (None, 54)           0           dropout_154[0][0]                
                                                                 dropout_155[0][0]                
__________________________________________________________________________________________________
dense_103 (Dense)               (None, 97)           5335        concatenate_52[0][0]             
__________________________________________________________________________________________________
dropout_156 (Dropout)           (None, 97)           0           dense_103[0][0]                  
__________________________________________________________________________________________________
dense_104 (Dense)               (None, 4)            392         dropout_156[0][0]                
==================================================================================================
Total params: 567,963
Trainable params: 567,963
Non-trainable params: 0
__________________________________________________________________________________________________
None
Train on 320835 samples, validate on 35649 samples
Epoch 1/20
 - 324s - loss: 0.0732 - acc: 0.9795 - val_loss: 0.0614 - val_acc: 1.0000
…
	Training (Important) : 2305, Test : 3117
	MWEs in tain : 1396, occurrences : 2518
	Impotant words in tain : 1131
	MWE length mean : 2.22
	Seen MWEs : 340 (61 %)
	New MWEs : 213 (38 %)
==================================================================================================
__________________________________________________________________________________________________
Layer (type)                    Output Shape         Param #     Connected to                     
==================================================================================================
input_105 (InputLayer)          (None, 7)            0                                            
__________________________________________________________________________________________________
input_106 (InputLayer)          (None, 7)            0                                            
__________________________________________________________________________________________________
embedding_105 (Embedding)       (None, 7, 420)       476280      input_105[0][0]                  
__________________________________________________________________________________________________
embedding_106 (Embedding)       (None, 7, 33)        627         input_106[0][0]                  
__________________________________________________________________________________________________
gru_105 (GRU)                   (None, 47)           65988       embedding_105[0][0]              
__________________________________________________________________________________________________
gru_106 (GRU)                   (None, 7)            861         embedding_106[0][0]              
__________________________________________________________________________________________________
dropout_157 (Dropout)           (None, 47)           0           gru_105[0][0]                    
__________________________________________________________________________________________________
dropout_158 (Dropout)           (None, 7)            0           gru_106[0][0]                    
__________________________________________________________________________________________________
concatenate_53 (Concatenate)    (None, 54)           0           dropout_157[0][0]                
                                                                 dropout_158[0][0]                
__________________________________________________________________________________________________
dense_105 (Dense)               (None, 97)           5335        concatenate_53[0][0]             
__________________________________________________________________________________________________
dropout_159 (Dropout)           (None, 97)           0           dense_105[0][0]                  
__________________________________________________________________________________________________
dense_106 (Dense)               (None, 4)            392         dropout_159[0][0]                
==================================================================================================
Total params: 549,483
Trainable params: 549,483
Non-trainable params: 0
__________________________________________________________________________________________________
None
Train on 217231 samples, validate on 24137 samples
Epoch 1/20
 - 223s - loss: 0.0813 - acc: 0.9757 - val_loss: 0.0611 - val_acc: 0.9994
…
	Training (Important) : 3585, Test : 1320
	MWEs in tain : 1790, occurrences : 4856
	Impotant words in tain : 1200
	MWE length mean : 2.06
	Seen MWEs : 345 (67 %)
	New MWEs : 165 (32 %)
==================================================================================================
__________________________________________________________________________________________________
Layer (type)                    Output Shape         Param #     Connected to                     
==================================================================================================
input_107 (InputLayer)          (None, 7)            0                                            
__________________________________________________________________________________________________
input_108 (InputLayer)          (None, 7)            0                                            
__________________________________________________________________________________________________
embedding_107 (Embedding)       (None, 7, 420)       505260      input_107[0][0]                  
__________________________________________________________________________________________________
embedding_108 (Embedding)       (None, 7, 33)        462         input_108[0][0]                  
__________________________________________________________________________________________________
gru_107 (GRU)                   (None, 47)           65988       embedding_107[0][0]              
__________________________________________________________________________________________________
gru_108 (GRU)                   (None, 7)            861         embedding_108[0][0]              
__________________________________________________________________________________________________
dropout_160 (Dropout)           (None, 47)           0           gru_107[0][0]                    
__________________________________________________________________________________________________
dropout_161 (Dropout)           (None, 7)            0           gru_108[0][0]                    
__________________________________________________________________________________________________
concatenate_54 (Concatenate)    (None, 54)           0           dropout_160[0][0]                
                                                                 dropout_161[0][0]                
__________________________________________________________________________________________________
dense_107 (Dense)               (None, 97)           5335        concatenate_54[0][0]             
__________________________________________________________________________________________________
dropout_162 (Dropout)           (None, 97)           0           dense_107[0][0]                  
__________________________________________________________________________________________________
dense_108 (Dense)               (None, 4)            392         dropout_162[0][0]                
==================================================================================================
Total params: 578,298
Trainable params: 578,298
Non-trainable params: 0
__________________________________________________________________________________________________
None
Train on 432446 samples, validate on 48050 samples
Epoch 1/20
 - 439s - loss: 0.0734 - acc: 0.9778 - val_loss: 0.0773 - val_acc: 1.0000
…
	Training (Important) : 3124, Test : 1954
	MWEs in tain : 1372, occurrences : 3583
	Impotant words in tain : 1175
	MWE length mean : 2.13
	Seen MWEs : 386 (57 %)
	New MWEs : 284 (42 %)
==================================================================================================
__________________________________________________________________________________________________
Layer (type)                    Output Shape         Param #     Connected to                     
==================================================================================================
input_109 (InputLayer)          (None, 7)            0                                            
__________________________________________________________________________________________________
input_110 (InputLayer)          (None, 7)            0                                            
__________________________________________________________________________________________________
embedding_109 (Embedding)       (None, 7, 337)       396986      input_109[0][0]                  
__________________________________________________________________________________________________
embedding_110 (Embedding)       (None, 7, 36)        684         input_110[0][0]                  
__________________________________________________________________________________________________
gru_109 (GRU)                   (None, 20)           21480       embedding_109[0][0]              
__________________________________________________________________________________________________
gru_110 (GRU)                   (None, 31)           6324        embedding_110[0][0]              
__________________________________________________________________________________________________
dropout_163 (Dropout)           (None, 20)           0           gru_109[0][0]                    
__________________________________________________________________________________________________
dropout_164 (Dropout)           (None, 31)           0           gru_110[0][0]                    
__________________________________________________________________________________________________
concatenate_55 (Concatenate)    (None, 51)           0           dropout_163[0][0]                
                                                                 dropout_164[0][0]                
__________________________________________________________________________________________________
dense_109 (Dense)               (None, 91)           4732        concatenate_55[0][0]             
__________________________________________________________________________________________________
dropout_165 (Dropout)           (None, 91)           0           dense_109[0][0]                  
__________________________________________________________________________________________________
dense_110 (Dense)               (None, 4)            368         dropout_165[0][0]                
==================================================================================================
Total params: 430,574
Trainable params: 430,574
Non-trainable params: 0
__________________________________________________________________________________________________
None
Train on 320835 samples, validate on 35649 samples
Epoch 1/20
 - 82s - loss: 0.0725 - acc: 0.9789 - val_loss: 0.0806 - val_acc: 0.9992
…
	Training (Important) : 2305, Test : 3117
	MWEs in tain : 1396, occurrences : 2518
	Impotant words in tain : 1131
	MWE length mean : 2.22
	Seen MWEs : 340 (61 %)
	New MWEs : 213 (38 %)
==================================================================================================
__________________________________________________________________________________________________
Layer (type)                    Output Shape         Param #     Connected to                     
==================================================================================================
input_111 (InputLayer)          (None, 7)            0                                            
__________________________________________________________________________________________________
input_112 (InputLayer)          (None, 7)            0                                            
__________________________________________________________________________________________________
embedding_111 (Embedding)       (None, 7, 337)       382158      input_111[0][0]                  
__________________________________________________________________________________________________
embedding_112 (Embedding)       (None, 7, 36)        684         input_112[0][0]                  
__________________________________________________________________________________________________
gru_111 (GRU)                   (None, 20)           21480       embedding_111[0][0]              
__________________________________________________________________________________________________
gru_112 (GRU)                   (None, 31)           6324        embedding_112[0][0]              
__________________________________________________________________________________________________
dropout_166 (Dropout)           (None, 20)           0           gru_111[0][0]                    
__________________________________________________________________________________________________
dropout_167 (Dropout)           (None, 31)           0           gru_112[0][0]                    
__________________________________________________________________________________________________
concatenate_56 (Concatenate)    (None, 51)           0           dropout_166[0][0]                
                                                                 dropout_167[0][0]                
__________________________________________________________________________________________________
dense_111 (Dense)               (None, 91)           4732        concatenate_56[0][0]             
__________________________________________________________________________________________________
dropout_168 (Dropout)           (None, 91)           0           dense_111[0][0]                  
__________________________________________________________________________________________________
dense_112 (Dense)               (None, 4)            368         dropout_168[0][0]                
==================================================================================================
Total params: 415,746
Trainable params: 415,746
Non-trainable params: 0
__________________________________________________________________________________________________
None
Train on 217231 samples, validate on 24137 samples
Epoch 1/20
 - 56s - loss: 0.0878 - acc: 0.9724 - val_loss: 0.1217 - val_acc: 0.9988
…
	Training (Important) : 3585, Test : 1320
	MWEs in tain : 1790, occurrences : 4856
	Impotant words in tain : 1200
	MWE length mean : 2.06
	Seen MWEs : 345 (67 %)
	New MWEs : 165 (32 %)
==================================================================================================
__________________________________________________________________________________________________
Layer (type)                    Output Shape         Param #     Connected to                     
==================================================================================================
input_113 (InputLayer)          (None, 7)            0                                            
__________________________________________________________________________________________________
input_114 (InputLayer)          (None, 7)            0                                            
__________________________________________________________________________________________________
embedding_113 (Embedding)       (None, 7, 337)       405411      input_113[0][0]                  
__________________________________________________________________________________________________
embedding_114 (Embedding)       (None, 7, 36)        504         input_114[0][0]                  
__________________________________________________________________________________________________
gru_113 (GRU)                   (None, 20)           21480       embedding_113[0][0]              
__________________________________________________________________________________________________
gru_114 (GRU)                   (None, 31)           6324        embedding_114[0][0]              
__________________________________________________________________________________________________
dropout_169 (Dropout)           (None, 20)           0           gru_113[0][0]                    
__________________________________________________________________________________________________
dropout_170 (Dropout)           (None, 31)           0           gru_114[0][0]                    
__________________________________________________________________________________________________
concatenate_57 (Concatenate)    (None, 51)           0           dropout_169[0][0]                
                                                                 dropout_170[0][0]                
__________________________________________________________________________________________________
dense_113 (Dense)               (None, 91)           4732        concatenate_57[0][0]             
__________________________________________________________________________________________________
dropout_171 (Dropout)           (None, 91)           0           dense_113[0][0]                  
__________________________________________________________________________________________________
dense_114 (Dense)               (None, 4)            368         dropout_171[0][0]                
==================================================================================================
Total params: 438,819
Trainable params: 438,819
Non-trainable params: 0
__________________________________________________________________________________________________
None
Train on 432446 samples, validate on 48050 samples
Epoch 1/20
 - 111s - loss: 0.0731 - acc: 0.9775 - val_loss: 0.1100 - val_acc: 1.0000
…
	Training (Important) : 3124, Test : 1954
	MWEs in tain : 1372, occurrences : 3583
	Impotant words in tain : 1175
	MWE length mean : 2.13
	Seen MWEs : 386 (57 %)
	New MWEs : 284 (42 %)
==================================================================================================
__________________________________________________________________________________________________
Layer (type)                    Output Shape         Param #     Connected to                     
==================================================================================================
input_115 (InputLayer)          (None, 7)            0                                            
__________________________________________________________________________________________________
input_116 (InputLayer)          (None, 7)            0                                            
__________________________________________________________________________________________________
embedding_115 (Embedding)       (None, 7, 447)       526566      input_115[0][0]                  
__________________________________________________________________________________________________
embedding_116 (Embedding)       (None, 7, 98)        1862        input_116[0][0]                  
__________________________________________________________________________________________________
gru_115 (GRU)                   (None, 89)           143379      embedding_115[0][0]              
__________________________________________________________________________________________________
gru_116 (GRU)                   (None, 24)           8856        embedding_116[0][0]              
__________________________________________________________________________________________________
dropout_172 (Dropout)           (None, 89)           0           gru_115[0][0]                    
__________________________________________________________________________________________________
dropout_173 (Dropout)           (None, 24)           0           gru_116[0][0]                    
__________________________________________________________________________________________________
concatenate_58 (Concatenate)    (None, 113)          0           dropout_172[0][0]                
                                                                 dropout_173[0][0]                
__________________________________________________________________________________________________
dense_115 (Dense)               (None, 68)           7752        concatenate_58[0][0]             
__________________________________________________________________________________________________
dropout_174 (Dropout)           (None, 68)           0           dense_115[0][0]                  
__________________________________________________________________________________________________
dense_116 (Dense)               (None, 4)            276         dropout_174[0][0]                
==================================================================================================
Total params: 688,691
Trainable params: 688,691
Non-trainable params: 0
__________________________________________________________________________________________________
None
Train on 320835 samples, validate on 35649 samples
Epoch 1/20
 - 326s - loss: 0.0707 - acc: 0.9802 - val_loss: 0.0531 - val_acc: 0.9999
…
	Training (Important) : 2305, Test : 3117
	MWEs in tain : 1396, occurrences : 2518
	Impotant words in tain : 1131
	MWE length mean : 2.22
	Seen MWEs : 340 (61 %)
	New MWEs : 213 (38 %)
==================================================================================================
__________________________________________________________________________________________________
Layer (type)                    Output Shape         Param #     Connected to                     
==================================================================================================
input_117 (InputLayer)          (None, 7)            0                                            
__________________________________________________________________________________________________
input_118 (InputLayer)          (None, 7)            0                                            
__________________________________________________________________________________________________
embedding_117 (Embedding)       (None, 7, 447)       506898      input_117[0][0]                  
__________________________________________________________________________________________________
embedding_118 (Embedding)       (None, 7, 98)        1862        input_118[0][0]                  
__________________________________________________________________________________________________
gru_117 (GRU)                   (None, 89)           143379      embedding_117[0][0]              
__________________________________________________________________________________________________
gru_118 (GRU)                   (None, 24)           8856        embedding_118[0][0]              
__________________________________________________________________________________________________
dropout_175 (Dropout)           (None, 89)           0           gru_117[0][0]                    
__________________________________________________________________________________________________
dropout_176 (Dropout)           (None, 24)           0           gru_118[0][0]                    
__________________________________________________________________________________________________
concatenate_59 (Concatenate)    (None, 113)          0           dropout_175[0][0]                
                                                                 dropout_176[0][0]                
__________________________________________________________________________________________________
dense_117 (Dense)               (None, 68)           7752        concatenate_59[0][0]             
__________________________________________________________________________________________________
dropout_177 (Dropout)           (None, 68)           0           dense_117[0][0]                  
__________________________________________________________________________________________________
dense_118 (Dense)               (None, 4)            276         dropout_177[0][0]                
==================================================================================================
Total params: 669,023
Trainable params: 669,023
Non-trainable params: 0
__________________________________________________________________________________________________
None
Train on 217231 samples, validate on 24137 samples
Epoch 1/20
 - 222s - loss: 0.0795 - acc: 0.9767 - val_loss: 0.1138 - val_acc: 0.9991
…
	Training (Important) : 3585, Test : 1320
	MWEs in tain : 1790, occurrences : 4856
	Impotant words in tain : 1200
	MWE length mean : 2.06
	Seen MWEs : 345 (67 %)
	New MWEs : 165 (32 %)
==================================================================================================
__________________________________________________________________________________________________
Layer (type)                    Output Shape         Param #     Connected to                     
==================================================================================================
input_119 (InputLayer)          (None, 7)            0                                            
__________________________________________________________________________________________________
input_120 (InputLayer)          (None, 7)            0                                            
__________________________________________________________________________________________________
embedding_119 (Embedding)       (None, 7, 447)       537741      input_119[0][0]                  
__________________________________________________________________________________________________
embedding_120 (Embedding)       (None, 7, 98)        1372        input_120[0][0]                  
__________________________________________________________________________________________________
gru_119 (GRU)                   (None, 89)           143379      embedding_119[0][0]              
__________________________________________________________________________________________________
gru_120 (GRU)                   (None, 24)           8856        embedding_120[0][0]              
__________________________________________________________________________________________________
dropout_178 (Dropout)           (None, 89)           0           gru_119[0][0]                    
__________________________________________________________________________________________________
dropout_179 (Dropout)           (None, 24)           0           gru_120[0][0]                    
__________________________________________________________________________________________________
concatenate_60 (Concatenate)    (None, 113)          0           dropout_178[0][0]                
                                                                 dropout_179[0][0]                
__________________________________________________________________________________________________
dense_119 (Dense)               (None, 68)           7752        concatenate_60[0][0]             
__________________________________________________________________________________________________
dropout_180 (Dropout)           (None, 68)           0           dense_119[0][0]                  
__________________________________________________________________________________________________
dense_120 (Dense)               (None, 4)            276         dropout_180[0][0]                
==================================================================================================
Total params: 699,376
Trainable params: 699,376
Non-trainable params: 0
__________________________________________________________________________________________________
None
Train on 432446 samples, validate on 48050 samples
Epoch 1/20
 - 427s - loss: 0.0724 - acc: 0.9785 - val_loss: 0.0788 - val_acc: 1.0000
…
	Training (Important) : 3124, Test : 1954
	MWEs in tain : 1372, occurrences : 3583
	Impotant words in tain : 1175
	MWE length mean : 2.13
	Seen MWEs : 386 (57 %)
	New MWEs : 284 (42 %)
==================================================================================================
__________________________________________________________________________________________________
Layer (type)                    Output Shape         Param #     Connected to                     
==================================================================================================
input_121 (InputLayer)          (None, 7)            0                                            
__________________________________________________________________________________________________
input_122 (InputLayer)          (None, 7)            0                                            
__________________________________________________________________________________________________
embedding_121 (Embedding)       (None, 7, 446)       525388      input_121[0][0]                  
__________________________________________________________________________________________________
embedding_122 (Embedding)       (None, 7, 28)        532         input_122[0][0]                  
__________________________________________________________________________________________________
gru_121 (GRU)                   (None, 82)           130134      embedding_121[0][0]              
__________________________________________________________________________________________________
gru_122 (GRU)                   (None, 33)           6138        embedding_122[0][0]              
__________________________________________________________________________________________________
dropout_181 (Dropout)           (None, 82)           0           gru_121[0][0]                    
__________________________________________________________________________________________________
dropout_182 (Dropout)           (None, 33)           0           gru_122[0][0]                    
__________________________________________________________________________________________________
concatenate_61 (Concatenate)    (None, 115)          0           dropout_181[0][0]                
                                                                 dropout_182[0][0]                
__________________________________________________________________________________________________
dense_121 (Dense)               (None, 45)           5220        concatenate_61[0][0]             
__________________________________________________________________________________________________
dropout_183 (Dropout)           (None, 45)           0           dense_121[0][0]                  
__________________________________________________________________________________________________
dense_122 (Dense)               (None, 4)            184         dropout_183[0][0]                
==================================================================================================
Total params: 667,596
Trainable params: 667,596
Non-trainable params: 0
__________________________________________________________________________________________________
None
Train on 320835 samples, validate on 35649 samples
Epoch 1/20
 - 78s - loss: 0.0762 - acc: 0.9784 - val_loss: 0.0754 - val_acc: 0.9996
…
	Training (Important) : 2305, Test : 3117
	MWEs in tain : 1396, occurrences : 2518
	Impotant words in tain : 1131
	MWE length mean : 2.22
	Seen MWEs : 340 (61 %)
	New MWEs : 213 (38 %)
==================================================================================================
__________________________________________________________________________________________________
Layer (type)                    Output Shape         Param #     Connected to                     
==================================================================================================
input_123 (InputLayer)          (None, 7)            0                                            
__________________________________________________________________________________________________
input_124 (InputLayer)          (None, 7)            0                                            
__________________________________________________________________________________________________
embedding_123 (Embedding)       (None, 7, 446)       505764      input_123[0][0]                  
__________________________________________________________________________________________________
embedding_124 (Embedding)       (None, 7, 28)        532         input_124[0][0]                  
__________________________________________________________________________________________________
gru_123 (GRU)                   (None, 82)           130134      embedding_123[0][0]              
__________________________________________________________________________________________________
gru_124 (GRU)                   (None, 33)           6138        embedding_124[0][0]              
__________________________________________________________________________________________________
dropout_184 (Dropout)           (None, 82)           0           gru_123[0][0]                    
__________________________________________________________________________________________________
dropout_185 (Dropout)           (None, 33)           0           gru_124[0][0]                    
__________________________________________________________________________________________________
concatenate_62 (Concatenate)    (None, 115)          0           dropout_184[0][0]                
                                                                 dropout_185[0][0]                
__________________________________________________________________________________________________
dense_123 (Dense)               (None, 45)           5220        concatenate_62[0][0]             
__________________________________________________________________________________________________
dropout_186 (Dropout)           (None, 45)           0           dense_123[0][0]                  
__________________________________________________________________________________________________
dense_124 (Dense)               (None, 4)            184         dropout_186[0][0]                
==================================================================================================
Total params: 647,972
Trainable params: 647,972
Non-trainable params: 0
__________________________________________________________________________________________________
None
Train on 217231 samples, validate on 24137 samples
Epoch 1/20
 - 53s - loss: 0.0964 - acc: 0.9720 - val_loss: 0.0733 - val_acc: 1.0000
…
	Training (Important) : 3585, Test : 1320
	MWEs in tain : 1790, occurrences : 4856
	Impotant words in tain : 1200
	MWE length mean : 2.06
	Seen MWEs : 345 (67 %)
	New MWEs : 165 (32 %)
==================================================================================================
__________________________________________________________________________________________________
Layer (type)                    Output Shape         Param #     Connected to                     
==================================================================================================
input_125 (InputLayer)          (None, 7)            0                                            
__________________________________________________________________________________________________
input_126 (InputLayer)          (None, 7)            0                                            
__________________________________________________________________________________________________
embedding_125 (Embedding)       (None, 7, 446)       536538      input_125[0][0]                  
__________________________________________________________________________________________________
embedding_126 (Embedding)       (None, 7, 28)        392         input_126[0][0]                  
__________________________________________________________________________________________________
gru_125 (GRU)                   (None, 82)           130134      embedding_125[0][0]              
__________________________________________________________________________________________________
gru_126 (GRU)                   (None, 33)           6138        embedding_126[0][0]              
__________________________________________________________________________________________________
dropout_187 (Dropout)           (None, 82)           0           gru_125[0][0]                    
__________________________________________________________________________________________________
dropout_188 (Dropout)           (None, 33)           0           gru_126[0][0]                    
__________________________________________________________________________________________________
concatenate_63 (Concatenate)    (None, 115)          0           dropout_187[0][0]                
                                                                 dropout_188[0][0]                
__________________________________________________________________________________________________
dense_125 (Dense)               (None, 45)           5220        concatenate_63[0][0]             
__________________________________________________________________________________________________
dropout_189 (Dropout)           (None, 45)           0           dense_125[0][0]                  
__________________________________________________________________________________________________
dense_126 (Dense)               (None, 4)            184         dropout_189[0][0]                
==================================================================================================
Total params: 678,606
Trainable params: 678,606
Non-trainable params: 0
__________________________________________________________________________________________________
None
Train on 432446 samples, validate on 48050 samples
Epoch 1/20
 - 106s - loss: 0.0790 - acc: 0.9759 - val_loss: 0.0675 - val_acc: 1.0000
…
	Training (Important) : 3124, Test : 1954
	MWEs in tain : 1372, occurrences : 3583
	Impotant words in tain : 1175
	MWE length mean : 2.13
	Seen MWEs : 386 (57 %)
	New MWEs : 284 (42 %)
==================================================================================================
__________________________________________________________________________________________________
Layer (type)                    Output Shape         Param #     Connected to                     
==================================================================================================
input_127 (InputLayer)          (None, 7)            0                                            
__________________________________________________________________________________________________
input_128 (InputLayer)          (None, 7)            0                                            
__________________________________________________________________________________________________
embedding_127 (Embedding)       (None, 7, 217)       255626      input_127[0][0]                  
__________________________________________________________________________________________________
embedding_128 (Embedding)       (None, 7, 64)        1216        input_128[0][0]                  
__________________________________________________________________________________________________
gru_127 (GRU)                   (None, 24)           17424       embedding_127[0][0]              
__________________________________________________________________________________________________
gru_128 (GRU)                   (None, 8)            1752        embedding_128[0][0]              
__________________________________________________________________________________________________
dropout_190 (Dropout)           (None, 24)           0           gru_127[0][0]                    
__________________________________________________________________________________________________
dropout_191 (Dropout)           (None, 8)            0           gru_128[0][0]                    
__________________________________________________________________________________________________
concatenate_64 (Concatenate)    (None, 32)           0           dropout_190[0][0]                
                                                                 dropout_191[0][0]                
__________________________________________________________________________________________________
dense_127 (Dense)               (None, 90)           2970        concatenate_64[0][0]             
__________________________________________________________________________________________________
dropout_192 (Dropout)           (None, 90)           0           dense_127[0][0]                  
__________________________________________________________________________________________________
dense_128 (Dense)               (None, 4)            364         dropout_192[0][0]                
==================================================================================================
Total params: 279,352
Trainable params: 279,352
Non-trainable params: 0
__________________________________________________________________________________________________
None
Train on 320835 samples, validate on 35649 samples
Epoch 1/20
 - 305s - loss: 0.0715 - acc: 0.9798 - val_loss: 0.0581 - val_acc: 0.9993
…
	Training (Important) : 2305, Test : 3117
	MWEs in tain : 1396, occurrences : 2518
	Impotant words in tain : 1131
	MWE length mean : 2.22
	Seen MWEs : 340 (61 %)
	New MWEs : 213 (38 %)
==================================================================================================
__________________________________________________________________________________________________
Layer (type)                    Output Shape         Param #     Connected to                     
==================================================================================================
input_129 (InputLayer)          (None, 7)            0                                            
__________________________________________________________________________________________________
input_130 (InputLayer)          (None, 7)            0                                            
__________________________________________________________________________________________________
embedding_129 (Embedding)       (None, 7, 217)       246078      input_129[0][0]                  
__________________________________________________________________________________________________
embedding_130 (Embedding)       (None, 7, 64)        1216        input_130[0][0]                  
__________________________________________________________________________________________________
gru_129 (GRU)                   (None, 24)           17424       embedding_129[0][0]              
__________________________________________________________________________________________________
gru_130 (GRU)                   (None, 8)            1752        embedding_130[0][0]              
__________________________________________________________________________________________________
dropout_193 (Dropout)           (None, 24)           0           gru_129[0][0]                    
__________________________________________________________________________________________________
dropout_194 (Dropout)           (None, 8)            0           gru_130[0][0]                    
__________________________________________________________________________________________________
concatenate_65 (Concatenate)    (None, 32)           0           dropout_193[0][0]                
                                                                 dropout_194[0][0]                
__________________________________________________________________________________________________
dense_129 (Dense)               (None, 90)           2970        concatenate_65[0][0]             
__________________________________________________________________________________________________
dropout_195 (Dropout)           (None, 90)           0           dense_129[0][0]                  
__________________________________________________________________________________________________
dense_130 (Dense)               (None, 4)            364         dropout_195[0][0]                
==================================================================================================
Total params: 269,804
Trainable params: 269,804
Non-trainable params: 0
__________________________________________________________________________________________________
None
Train on 217231 samples, validate on 24137 samples
Epoch 1/20
 - 221s - loss: 0.0813 - acc: 0.9756 - val_loss: 0.0618 - val_acc: 0.9994
…
