…
	Training (Important) : 3124, Test : 1954
	MWEs in tain : 1372, occurrences : 3583
	Impotant words in tain : 1175
	MWE length mean : 2.13
	Seen MWEs : 386 (57 %)
	New MWEs : 284 (42 %)
==================================================================================================
__________________________________________________________________________________________________
Layer (type)                    Output Shape         Param #     Connected to                     
==================================================================================================
input_1 (InputLayer)            (None, 7)            0                                            
__________________________________________________________________________________________________
input_2 (InputLayer)            (None, 7)            0                                            
__________________________________________________________________________________________________
embedding_1 (Embedding)         (None, 7, 321)       378138      input_1[0][0]                    
__________________________________________________________________________________________________
embedding_2 (Embedding)         (None, 7, 40)        760         input_2[0][0]                    
__________________________________________________________________________________________________
gru_1 (GRU)                     (None, 103)          131325      embedding_1[0][0]                
__________________________________________________________________________________________________
gru_2 (GRU)                     (None, 168)          105336      embedding_2[0][0]                
__________________________________________________________________________________________________
dropout_1 (Dropout)             (None, 103)          0           gru_1[0][0]                      
__________________________________________________________________________________________________
dropout_2 (Dropout)             (None, 168)          0           gru_2[0][0]                      
__________________________________________________________________________________________________
concatenate_1 (Concatenate)     (None, 271)          0           dropout_1[0][0]                  
                                                                 dropout_2[0][0]                  
__________________________________________________________________________________________________
dense_1 (Dense)                 (None, 102)          27744       concatenate_1[0][0]              
__________________________________________________________________________________________________
dropout_3 (Dropout)             (None, 102)          0           dense_1[0][0]                    
__________________________________________________________________________________________________
dense_2 (Dense)                 (None, 4)            412         dropout_3[0][0]                  
==================================================================================================
Total params: 643,715
Trainable params: 643,715
Non-trainable params: 0
__________________________________________________________________________________________________
None
	data size before sampling = 181825
	data size after sampling = 356484
	data size before focused sampling = 356484
…
	Training (Important) : 2305, Test : 3117
	MWEs in tain : 1412, occurrences : 2542
	Impotant words in tain : 1131
	MWE length mean : 2.22
	Seen MWEs : 343 (62 %)
	New MWEs : 210 (37 %)
==================================================================================================
__________________________________________________________________________________________________
Layer (type)                    Output Shape         Param #     Connected to                     
==================================================================================================
input_5 (InputLayer)            (None, 7)            0                                            
__________________________________________________________________________________________________
input_6 (InputLayer)            (None, 7)            0                                            
__________________________________________________________________________________________________
embedding_5 (Embedding)         (None, 7, 321)       364014      input_5[0][0]                    
__________________________________________________________________________________________________
embedding_6 (Embedding)         (None, 7, 40)        760         input_6[0][0]                    
__________________________________________________________________________________________________
gru_5 (GRU)                     (None, 103)          131325      embedding_5[0][0]                
__________________________________________________________________________________________________
gru_6 (GRU)                     (None, 168)          105336      embedding_6[0][0]                
__________________________________________________________________________________________________
dropout_7 (Dropout)             (None, 103)          0           gru_5[0][0]                      
__________________________________________________________________________________________________
dropout_8 (Dropout)             (None, 168)          0           gru_6[0][0]                      
__________________________________________________________________________________________________
concatenate_3 (Concatenate)     (None, 271)          0           dropout_7[0][0]                  
                                                                 dropout_8[0][0]                  
__________________________________________________________________________________________________
dense_5 (Dense)                 (None, 102)          27744       concatenate_3[0][0]              
__________________________________________________________________________________________________
dropout_9 (Dropout)             (None, 102)          0           dense_5[0][0]                    
__________________________________________________________________________________________________
dense_6 (Dense)                 (None, 4)            412         dropout_9[0][0]                  
==================================================================================================
Total params: 629,591
Trainable params: 629,591
Non-trainable params: 0
__________________________________________________________________________________________________
None
	data size before sampling = 123224
	data size after sampling = 241368
	data size before focused sampling = 241368
…
	Training (Important) : 3585, Test : 1320
	MWEs in tain : 1798, occurrences : 4870
	Impotant words in tain : 1200
	MWE length mean : 2.06
	Seen MWEs : 345 (67 %)
	New MWEs : 165 (32 %)
==================================================================================================
__________________________________________________________________________________________________
Layer (type)                    Output Shape         Param #     Connected to                     
==================================================================================================
input_9 (InputLayer)            (None, 7)            0                                            
__________________________________________________________________________________________________
input_10 (InputLayer)           (None, 7)            0                                            
__________________________________________________________________________________________________
embedding_9 (Embedding)         (None, 7, 321)       386163      input_9[0][0]                    
__________________________________________________________________________________________________
embedding_10 (Embedding)        (None, 7, 40)        560         input_10[0][0]                   
__________________________________________________________________________________________________
gru_9 (GRU)                     (None, 103)          131325      embedding_9[0][0]                
__________________________________________________________________________________________________
gru_10 (GRU)                    (None, 168)          105336      embedding_10[0][0]               
__________________________________________________________________________________________________
dropout_13 (Dropout)            (None, 103)          0           gru_9[0][0]                      
__________________________________________________________________________________________________
dropout_14 (Dropout)            (None, 168)          0           gru_10[0][0]                     
__________________________________________________________________________________________________
concatenate_5 (Concatenate)     (None, 271)          0           dropout_13[0][0]                 
                                                                 dropout_14[0][0]                 
__________________________________________________________________________________________________
dense_9 (Dense)                 (None, 102)          27744       concatenate_5[0][0]              
__________________________________________________________________________________________________
dropout_15 (Dropout)            (None, 102)          0           dense_9[0][0]                    
__________________________________________________________________________________________________
dense_10 (Dense)                (None, 4)            412         dropout_15[0][0]                 
==================================================================================================
Total params: 651,540
Trainable params: 651,540
Non-trainable params: 0
__________________________________________________________________________________________________
None
	data size before sampling = 245118
	data size after sampling = 480496
	data size before focused sampling = 480496
…
	Training (Important) : 3124, Test : 1954
	MWEs in tain : 1372, occurrences : 3583
	Impotant words in tain : 1175
	MWE length mean : 2.13
	Seen MWEs : 386 (57 %)
	New MWEs : 284 (42 %)
==================================================================================================
__________________________________________________________________________________________________
Layer (type)                    Output Shape         Param #     Connected to                     
==================================================================================================
input_13 (InputLayer)           (None, 7)            0                                            
__________________________________________________________________________________________________
input_14 (InputLayer)           (None, 7)            0                                            
__________________________________________________________________________________________________
embedding_13 (Embedding)        (None, 7, 344)       405232      input_13[0][0]                   
__________________________________________________________________________________________________
embedding_14 (Embedding)        (None, 7, 43)        817         input_14[0][0]                   
__________________________________________________________________________________________________
gru_13 (GRU)                    (None, 179)          281388      embedding_13[0][0]               
__________________________________________________________________________________________________
gru_14 (GRU)                    (None, 148)          85248       embedding_14[0][0]               
__________________________________________________________________________________________________
dropout_19 (Dropout)            (None, 179)          0           gru_13[0][0]                     
__________________________________________________________________________________________________
dropout_20 (Dropout)            (None, 148)          0           gru_14[0][0]                     
__________________________________________________________________________________________________
concatenate_7 (Concatenate)     (None, 327)          0           dropout_19[0][0]                 
                                                                 dropout_20[0][0]                 
__________________________________________________________________________________________________
dense_13 (Dense)                (None, 120)          39360       concatenate_7[0][0]              
__________________________________________________________________________________________________
dropout_21 (Dropout)            (None, 120)          0           dense_13[0][0]                   
__________________________________________________________________________________________________
dense_14 (Dense)                (None, 4)            484         dropout_21[0][0]                 
==================================================================================================
Total params: 812,529
Trainable params: 812,529
Non-trainable params: 0
__________________________________________________________________________________________________
None
	data size before sampling = 181825
	data size after sampling = 356484
	data size before focused sampling = 356484
…
	Training (Important) : 2305, Test : 3117
	MWEs in tain : 1412, occurrences : 2542
	Impotant words in tain : 1131
	MWE length mean : 2.22
	Seen MWEs : 343 (62 %)
	New MWEs : 210 (37 %)
==================================================================================================
__________________________________________________________________________________________________
Layer (type)                    Output Shape         Param #     Connected to                     
==================================================================================================
input_17 (InputLayer)           (None, 7)            0                                            
__________________________________________________________________________________________________
input_18 (InputLayer)           (None, 7)            0                                            
__________________________________________________________________________________________________
embedding_17 (Embedding)        (None, 7, 344)       390096      input_17[0][0]                   
__________________________________________________________________________________________________
embedding_18 (Embedding)        (None, 7, 43)        817         input_18[0][0]                   
__________________________________________________________________________________________________
gru_17 (GRU)                    (None, 179)          281388      embedding_17[0][0]               
__________________________________________________________________________________________________
gru_18 (GRU)                    (None, 148)          85248       embedding_18[0][0]               
__________________________________________________________________________________________________
dropout_25 (Dropout)            (None, 179)          0           gru_17[0][0]                     
__________________________________________________________________________________________________
dropout_26 (Dropout)            (None, 148)          0           gru_18[0][0]                     
__________________________________________________________________________________________________
concatenate_9 (Concatenate)     (None, 327)          0           dropout_25[0][0]                 
                                                                 dropout_26[0][0]                 
__________________________________________________________________________________________________
dense_17 (Dense)                (None, 120)          39360       concatenate_9[0][0]              
__________________________________________________________________________________________________
dropout_27 (Dropout)            (None, 120)          0           dense_17[0][0]                   
__________________________________________________________________________________________________
dense_18 (Dense)                (None, 4)            484         dropout_27[0][0]                 
==================================================================================================
Total params: 797,393
Trainable params: 797,393
Non-trainable params: 0
__________________________________________________________________________________________________
None
	data size before sampling = 123224
	data size after sampling = 241368
	data size before focused sampling = 241368
…
	Training (Important) : 3585, Test : 1320
	MWEs in tain : 1798, occurrences : 4870
	Impotant words in tain : 1200
	MWE length mean : 2.06
	Seen MWEs : 345 (67 %)
	New MWEs : 165 (32 %)
==================================================================================================
__________________________________________________________________________________________________
Layer (type)                    Output Shape         Param #     Connected to                     
==================================================================================================
input_21 (InputLayer)           (None, 7)            0                                            
__________________________________________________________________________________________________
input_22 (InputLayer)           (None, 7)            0                                            
__________________________________________________________________________________________________
embedding_21 (Embedding)        (None, 7, 344)       413832      input_21[0][0]                   
__________________________________________________________________________________________________
embedding_22 (Embedding)        (None, 7, 43)        602         input_22[0][0]                   
__________________________________________________________________________________________________
gru_21 (GRU)                    (None, 179)          281388      embedding_21[0][0]               
__________________________________________________________________________________________________
gru_22 (GRU)                    (None, 148)          85248       embedding_22[0][0]               
__________________________________________________________________________________________________
dropout_31 (Dropout)            (None, 179)          0           gru_21[0][0]                     
__________________________________________________________________________________________________
dropout_32 (Dropout)            (None, 148)          0           gru_22[0][0]                     
__________________________________________________________________________________________________
concatenate_11 (Concatenate)    (None, 327)          0           dropout_31[0][0]                 
                                                                 dropout_32[0][0]                 
__________________________________________________________________________________________________
dense_21 (Dense)                (None, 120)          39360       concatenate_11[0][0]             
__________________________________________________________________________________________________
dropout_33 (Dropout)            (None, 120)          0           dense_21[0][0]                   
__________________________________________________________________________________________________
dense_22 (Dense)                (None, 4)            484         dropout_33[0][0]                 
==================================================================================================
Total params: 820,914
Trainable params: 820,914
Non-trainable params: 0
__________________________________________________________________________________________________
None
	data size before sampling = 245118
	data size after sampling = 480496
	data size before focused sampling = 480496
…
