…
	Training (Important) : 3124, Test : 1954
	MWEs in tain : 1372, occurrences : 3583
	Impotant words in tain : 1175
	MWE length mean : 2.13
	Seen MWEs : 386 (57 %)
	New MWEs : 284 (42 %)
==================================================================================================
__________________________________________________________________________________________________
Layer (type)                    Output Shape         Param #     Connected to                     
==================================================================================================
input_1 (InputLayer)            (None, 7)            0                                            
__________________________________________________________________________________________________
input_2 (InputLayer)            (None, 7)            0                                            
__________________________________________________________________________________________________
embedding_1 (Embedding)         (None, 7, 252)       296856      input_1[0][0]                    
__________________________________________________________________________________________________
embedding_2 (Embedding)         (None, 7, 49)        931         input_2[0][0]                    
__________________________________________________________________________________________________
gru_1 (GRU)                     (None, 130)          149370      embedding_1[0][0]                
__________________________________________________________________________________________________
gru_2 (GRU)                     (None, 131)          71133       embedding_2[0][0]                
__________________________________________________________________________________________________
dropout_1 (Dropout)             (None, 130)          0           gru_1[0][0]                      
__________________________________________________________________________________________________
dropout_2 (Dropout)             (None, 131)          0           gru_2[0][0]                      
__________________________________________________________________________________________________
concatenate_1 (Concatenate)     (None, 261)          0           dropout_1[0][0]                  
                                                                 dropout_2[0][0]                  
__________________________________________________________________________________________________
dense_1 (Dense)                 (None, 111)          29082       concatenate_1[0][0]              
__________________________________________________________________________________________________
dropout_3 (Dropout)             (None, 111)          0           dense_1[0][0]                    
__________________________________________________________________________________________________
dense_2 (Dense)                 (None, 4)            448         dropout_3[0][0]                  
==================================================================================================
Total params: 547,820
Trainable params: 547,820
Non-trainable params: 0
__________________________________________________________________________________________________
None
	data size before sampling = 181825
	data size after sampling = 356484
	data size before focused sampling = 356484
…
	Training (Important) : 2305, Test : 3117
	MWEs in tain : 1412, occurrences : 2542
	Impotant words in tain : 1131
	MWE length mean : 2.22
	Seen MWEs : 343 (62 %)
	New MWEs : 210 (37 %)
==================================================================================================
__________________________________________________________________________________________________
Layer (type)                    Output Shape         Param #     Connected to                     
==================================================================================================
input_5 (InputLayer)            (None, 7)            0                                            
__________________________________________________________________________________________________
input_6 (InputLayer)            (None, 7)            0                                            
__________________________________________________________________________________________________
embedding_5 (Embedding)         (None, 7, 252)       285768      input_5[0][0]                    
__________________________________________________________________________________________________
embedding_6 (Embedding)         (None, 7, 49)        931         input_6[0][0]                    
__________________________________________________________________________________________________
gru_5 (GRU)                     (None, 130)          149370      embedding_5[0][0]                
__________________________________________________________________________________________________
gru_6 (GRU)                     (None, 131)          71133       embedding_6[0][0]                
__________________________________________________________________________________________________
dropout_7 (Dropout)             (None, 130)          0           gru_5[0][0]                      
__________________________________________________________________________________________________
dropout_8 (Dropout)             (None, 131)          0           gru_6[0][0]                      
__________________________________________________________________________________________________
concatenate_3 (Concatenate)     (None, 261)          0           dropout_7[0][0]                  
                                                                 dropout_8[0][0]                  
__________________________________________________________________________________________________
dense_5 (Dense)                 (None, 111)          29082       concatenate_3[0][0]              
__________________________________________________________________________________________________
dropout_9 (Dropout)             (None, 111)          0           dense_5[0][0]                    
__________________________________________________________________________________________________
dense_6 (Dense)                 (None, 4)            448         dropout_9[0][0]                  
==================================================================================================
Total params: 536,732
Trainable params: 536,732
Non-trainable params: 0
__________________________________________________________________________________________________
None
	data size before sampling = 123224
	data size after sampling = 241368
	data size before focused sampling = 241368
…
	Training (Important) : 3585, Test : 1320
	MWEs in tain : 1798, occurrences : 4870
	Impotant words in tain : 1200
	MWE length mean : 2.06
	Seen MWEs : 345 (67 %)
	New MWEs : 165 (32 %)
==================================================================================================
__________________________________________________________________________________________________
Layer (type)                    Output Shape         Param #     Connected to                     
==================================================================================================
input_9 (InputLayer)            (None, 7)            0                                            
__________________________________________________________________________________________________
input_10 (InputLayer)           (None, 7)            0                                            
__________________________________________________________________________________________________
embedding_9 (Embedding)         (None, 7, 252)       303156      input_9[0][0]                    
__________________________________________________________________________________________________
embedding_10 (Embedding)        (None, 7, 49)        686         input_10[0][0]                   
__________________________________________________________________________________________________
gru_9 (GRU)                     (None, 130)          149370      embedding_9[0][0]                
__________________________________________________________________________________________________
gru_10 (GRU)                    (None, 131)          71133       embedding_10[0][0]               
__________________________________________________________________________________________________
dropout_13 (Dropout)            (None, 130)          0           gru_9[0][0]                      
__________________________________________________________________________________________________
dropout_14 (Dropout)            (None, 131)          0           gru_10[0][0]                     
__________________________________________________________________________________________________
concatenate_5 (Concatenate)     (None, 261)          0           dropout_13[0][0]                 
                                                                 dropout_14[0][0]                 
__________________________________________________________________________________________________
dense_9 (Dense)                 (None, 111)          29082       concatenate_5[0][0]              
__________________________________________________________________________________________________
dropout_15 (Dropout)            (None, 111)          0           dense_9[0][0]                    
__________________________________________________________________________________________________
dense_10 (Dense)                (None, 4)            448         dropout_15[0][0]                 
==================================================================================================
Total params: 553,875
Trainable params: 553,875
Non-trainable params: 0
__________________________________________________________________________________________________
None
	data size before sampling = 245118
	data size after sampling = 480496
	data size before focused sampling = 480496
…
	Training (Important) : 3124, Test : 1954
	MWEs in tain : 1372, occurrences : 3583
	Impotant words in tain : 1175
	MWE length mean : 2.13
	Seen MWEs : 386 (57 %)
	New MWEs : 284 (42 %)
==================================================================================================
__________________________________________________________________________________________________
Layer (type)                    Output Shape         Param #     Connected to                     
==================================================================================================
input_13 (InputLayer)           (None, 7)            0                                            
__________________________________________________________________________________________________
input_14 (InputLayer)           (None, 7)            0                                            
__________________________________________________________________________________________________
embedding_13 (Embedding)        (None, 7, 328)       386384      input_13[0][0]                   
__________________________________________________________________________________________________
embedding_14 (Embedding)        (None, 7, 32)        608         input_14[0][0]                   
__________________________________________________________________________________________________
gru_13 (GRU)                    (None, 86)           107070      embedding_13[0][0]               
__________________________________________________________________________________________________
gru_14 (GRU)                    (None, 63)           18144       embedding_14[0][0]               
__________________________________________________________________________________________________
dropout_19 (Dropout)            (None, 86)           0           gru_13[0][0]                     
__________________________________________________________________________________________________
dropout_20 (Dropout)            (None, 63)           0           gru_14[0][0]                     
__________________________________________________________________________________________________
concatenate_7 (Concatenate)     (None, 149)          0           dropout_19[0][0]                 
                                                                 dropout_20[0][0]                 
__________________________________________________________________________________________________
dense_13 (Dense)                (None, 153)          22950       concatenate_7[0][0]              
__________________________________________________________________________________________________
dropout_21 (Dropout)            (None, 153)          0           dense_13[0][0]                   
__________________________________________________________________________________________________
dense_14 (Dense)                (None, 4)            616         dropout_21[0][0]                 
==================================================================================================
Total params: 535,772
Trainable params: 535,772
Non-trainable params: 0
__________________________________________________________________________________________________
None
	data size before sampling = 181825
	data size after sampling = 356484
	data size before focused sampling = 356484
…
	Training (Important) : 2305, Test : 3117
	MWEs in tain : 1412, occurrences : 2542
	Impotant words in tain : 1131
	MWE length mean : 2.22
	Seen MWEs : 343 (62 %)
	New MWEs : 210 (37 %)
==================================================================================================
__________________________________________________________________________________________________
Layer (type)                    Output Shape         Param #     Connected to                     
==================================================================================================
input_17 (InputLayer)           (None, 7)            0                                            
__________________________________________________________________________________________________
input_18 (InputLayer)           (None, 7)            0                                            
__________________________________________________________________________________________________
embedding_17 (Embedding)        (None, 7, 328)       371952      input_17[0][0]                   
__________________________________________________________________________________________________
embedding_18 (Embedding)        (None, 7, 32)        608         input_18[0][0]                   
__________________________________________________________________________________________________
gru_17 (GRU)                    (None, 86)           107070      embedding_17[0][0]               
__________________________________________________________________________________________________
gru_18 (GRU)                    (None, 63)           18144       embedding_18[0][0]               
__________________________________________________________________________________________________
dropout_25 (Dropout)            (None, 86)           0           gru_17[0][0]                     
__________________________________________________________________________________________________
dropout_26 (Dropout)            (None, 63)           0           gru_18[0][0]                     
__________________________________________________________________________________________________
concatenate_9 (Concatenate)     (None, 149)          0           dropout_25[0][0]                 
                                                                 dropout_26[0][0]                 
__________________________________________________________________________________________________
dense_17 (Dense)                (None, 153)          22950       concatenate_9[0][0]              
__________________________________________________________________________________________________
dropout_27 (Dropout)            (None, 153)          0           dense_17[0][0]                   
__________________________________________________________________________________________________
dense_18 (Dense)                (None, 4)            616         dropout_27[0][0]                 
==================================================================================================
Total params: 521,340
Trainable params: 521,340
Non-trainable params: 0
__________________________________________________________________________________________________
None
	data size before sampling = 123224
	data size after sampling = 241368
	data size before focused sampling = 241368
…
	Training (Important) : 3585, Test : 1320
	MWEs in tain : 1798, occurrences : 4870
	Impotant words in tain : 1200
	MWE length mean : 2.06
	Seen MWEs : 345 (67 %)
	New MWEs : 165 (32 %)
==================================================================================================
__________________________________________________________________________________________________
Layer (type)                    Output Shape         Param #     Connected to                     
==================================================================================================
input_21 (InputLayer)           (None, 7)            0                                            
__________________________________________________________________________________________________
input_22 (InputLayer)           (None, 7)            0                                            
__________________________________________________________________________________________________
embedding_21 (Embedding)        (None, 7, 328)       394584      input_21[0][0]                   
__________________________________________________________________________________________________
embedding_22 (Embedding)        (None, 7, 32)        448         input_22[0][0]                   
__________________________________________________________________________________________________
gru_21 (GRU)                    (None, 86)           107070      embedding_21[0][0]               
__________________________________________________________________________________________________
gru_22 (GRU)                    (None, 63)           18144       embedding_22[0][0]               
__________________________________________________________________________________________________
dropout_31 (Dropout)            (None, 86)           0           gru_21[0][0]                     
__________________________________________________________________________________________________
dropout_32 (Dropout)            (None, 63)           0           gru_22[0][0]                     
__________________________________________________________________________________________________
concatenate_11 (Concatenate)    (None, 149)          0           dropout_31[0][0]                 
                                                                 dropout_32[0][0]                 
__________________________________________________________________________________________________
dense_21 (Dense)                (None, 153)          22950       concatenate_11[0][0]             
__________________________________________________________________________________________________
dropout_33 (Dropout)            (None, 153)          0           dense_21[0][0]                   
__________________________________________________________________________________________________
dense_22 (Dense)                (None, 4)            616         dropout_33[0][0]                 
==================================================================================================
Total params: 543,812
Trainable params: 543,812
Non-trainable params: 0
__________________________________________________________________________________________________
None
	data size before sampling = 245118
	data size after sampling = 480496
	data size before focused sampling = 480496
…
	Training (Important) : 3124, Test : 1954
	MWEs in tain : 1372, occurrences : 3583
	Impotant words in tain : 1175
	MWE length mean : 2.13
	Seen MWEs : 386 (57 %)
	New MWEs : 284 (42 %)
==================================================================================================
__________________________________________________________________________________________________
Layer (type)                    Output Shape         Param #     Connected to                     
==================================================================================================
input_25 (InputLayer)           (None, 7)            0                                            
__________________________________________________________________________________________________
input_26 (InputLayer)           (None, 7)            0                                            
__________________________________________________________________________________________________
embedding_25 (Embedding)        (None, 7, 473)       557194      input_25[0][0]                   
__________________________________________________________________________________________________
embedding_26 (Embedding)        (None, 7, 31)        589         input_26[0][0]                   
__________________________________________________________________________________________________
gru_25 (GRU)                    (None, 140)          257880      embedding_25[0][0]               
__________________________________________________________________________________________________
gru_26 (GRU)                    (None, 46)           10764       embedding_26[0][0]               
__________________________________________________________________________________________________
dropout_37 (Dropout)            (None, 140)          0           gru_25[0][0]                     
__________________________________________________________________________________________________
dropout_38 (Dropout)            (None, 46)           0           gru_26[0][0]                     
__________________________________________________________________________________________________
concatenate_13 (Concatenate)    (None, 186)          0           dropout_37[0][0]                 
                                                                 dropout_38[0][0]                 
__________________________________________________________________________________________________
dense_25 (Dense)                (None, 102)          19074       concatenate_13[0][0]             
__________________________________________________________________________________________________
dropout_39 (Dropout)            (None, 102)          0           dense_25[0][0]                   
__________________________________________________________________________________________________
dense_26 (Dense)                (None, 4)            412         dropout_39[0][0]                 
==================================================================================================
Total params: 845,913
Trainable params: 845,913
Non-trainable params: 0
__________________________________________________________________________________________________
None
	data size before sampling = 181825
	data size after sampling = 356484
	data size before focused sampling = 356484
…
	Training (Important) : 2305, Test : 3117
	MWEs in tain : 1412, occurrences : 2542
	Impotant words in tain : 1131
	MWE length mean : 2.22
	Seen MWEs : 343 (62 %)
	New MWEs : 210 (37 %)
==================================================================================================
__________________________________________________________________________________________________
Layer (type)                    Output Shape         Param #     Connected to                     
==================================================================================================
input_29 (InputLayer)           (None, 7)            0                                            
__________________________________________________________________________________________________
input_30 (InputLayer)           (None, 7)            0                                            
__________________________________________________________________________________________________
embedding_29 (Embedding)        (None, 7, 473)       536382      input_29[0][0]                   
__________________________________________________________________________________________________
embedding_30 (Embedding)        (None, 7, 31)        589         input_30[0][0]                   
__________________________________________________________________________________________________
gru_29 (GRU)                    (None, 140)          257880      embedding_29[0][0]               
__________________________________________________________________________________________________
gru_30 (GRU)                    (None, 46)           10764       embedding_30[0][0]               
__________________________________________________________________________________________________
dropout_43 (Dropout)            (None, 140)          0           gru_29[0][0]                     
__________________________________________________________________________________________________
dropout_44 (Dropout)            (None, 46)           0           gru_30[0][0]                     
__________________________________________________________________________________________________
concatenate_15 (Concatenate)    (None, 186)          0           dropout_43[0][0]                 
                                                                 dropout_44[0][0]                 
__________________________________________________________________________________________________
dense_29 (Dense)                (None, 102)          19074       concatenate_15[0][0]             
__________________________________________________________________________________________________
dropout_45 (Dropout)            (None, 102)          0           dense_29[0][0]                   
__________________________________________________________________________________________________
dense_30 (Dense)                (None, 4)            412         dropout_45[0][0]                 
==================================================================================================
Total params: 825,101
Trainable params: 825,101
Non-trainable params: 0
__________________________________________________________________________________________________
None
	data size before sampling = 123224
	data size after sampling = 241368
	data size before focused sampling = 241368
…
	Training (Important) : 3585, Test : 1320
	MWEs in tain : 1798, occurrences : 4870
	Impotant words in tain : 1200
	MWE length mean : 2.06
	Seen MWEs : 345 (67 %)
	New MWEs : 165 (32 %)
==================================================================================================
__________________________________________________________________________________________________
Layer (type)                    Output Shape         Param #     Connected to                     
==================================================================================================
input_33 (InputLayer)           (None, 7)            0                                            
__________________________________________________________________________________________________
input_34 (InputLayer)           (None, 7)            0                                            
__________________________________________________________________________________________________
embedding_33 (Embedding)        (None, 7, 473)       569019      input_33[0][0]                   
__________________________________________________________________________________________________
embedding_34 (Embedding)        (None, 7, 31)        434         input_34[0][0]                   
__________________________________________________________________________________________________
gru_33 (GRU)                    (None, 140)          257880      embedding_33[0][0]               
__________________________________________________________________________________________________
gru_34 (GRU)                    (None, 46)           10764       embedding_34[0][0]               
__________________________________________________________________________________________________
dropout_49 (Dropout)            (None, 140)          0           gru_33[0][0]                     
__________________________________________________________________________________________________
dropout_50 (Dropout)            (None, 46)           0           gru_34[0][0]                     
__________________________________________________________________________________________________
concatenate_17 (Concatenate)    (None, 186)          0           dropout_49[0][0]                 
                                                                 dropout_50[0][0]                 
__________________________________________________________________________________________________
dense_33 (Dense)                (None, 102)          19074       concatenate_17[0][0]             
__________________________________________________________________________________________________
dropout_51 (Dropout)            (None, 102)          0           dense_33[0][0]                   
__________________________________________________________________________________________________
dense_34 (Dense)                (None, 4)            412         dropout_51[0][0]                 
==================================================================================================
Total params: 857,583
Trainable params: 857,583
Non-trainable params: 0
__________________________________________________________________________________________________
None
	data size before sampling = 245118
	data size after sampling = 480496
	data size before focused sampling = 480496
…
