…
	Training (Important) : 3124, Test : 1954
	MWEs in tain : 1372, occurrences : 3583
	Impotant words in tain : 1175
	MWE length mean : 2.13
	Seen MWEs : 386 (57 %)
	New MWEs : 284 (42 %)
==================================================================================================
__________________________________________________________________________________________________
Layer (type)                    Output Shape         Param #     Connected to                     
==================================================================================================
input_1 (InputLayer)            (None, 7)            0                                            
__________________________________________________________________________________________________
input_2 (InputLayer)            (None, 7)            0                                            
__________________________________________________________________________________________________
embedding_1 (Embedding)         (None, 7, 331)       389918      input_1[0][0]                    
__________________________________________________________________________________________________
embedding_2 (Embedding)         (None, 7, 95)        1805        input_2[0][0]                    
__________________________________________________________________________________________________
gru_1 (GRU)                     (None, 51)           58599       embedding_1[0][0]                
__________________________________________________________________________________________________
gru_2 (GRU)                     (None, 135)          93555       embedding_2[0][0]                
__________________________________________________________________________________________________
dropout_1 (Dropout)             (None, 51)           0           gru_1[0][0]                      
__________________________________________________________________________________________________
dropout_2 (Dropout)             (None, 135)          0           gru_2[0][0]                      
__________________________________________________________________________________________________
concatenate_1 (Concatenate)     (None, 186)          0           dropout_1[0][0]                  
                                                                 dropout_2[0][0]                  
__________________________________________________________________________________________________
dense_1 (Dense)                 (None, 46)           8602        concatenate_1[0][0]              
__________________________________________________________________________________________________
dropout_3 (Dropout)             (None, 46)           0           dense_1[0][0]                    
__________________________________________________________________________________________________
dense_2 (Dense)                 (None, 4)            188         dropout_3[0][0]                  
==================================================================================================
Total params: 552,667
Trainable params: 552,667
Non-trainable params: 0
__________________________________________________________________________________________________
None
	data size before sampling = 181825
	data size after sampling = 356484
	data size before focused sampling = 356484
…
	Training (Important) : 2305, Test : 3117
	MWEs in tain : 1412, occurrences : 2542
	Impotant words in tain : 1131
	MWE length mean : 2.22
	Seen MWEs : 343 (62 %)
	New MWEs : 210 (37 %)
==================================================================================================
__________________________________________________________________________________________________
Layer (type)                    Output Shape         Param #     Connected to                     
==================================================================================================
input_5 (InputLayer)            (None, 7)            0                                            
__________________________________________________________________________________________________
input_6 (InputLayer)            (None, 7)            0                                            
__________________________________________________________________________________________________
embedding_5 (Embedding)         (None, 7, 331)       375354      input_5[0][0]                    
__________________________________________________________________________________________________
embedding_6 (Embedding)         (None, 7, 95)        1805        input_6[0][0]                    
__________________________________________________________________________________________________
gru_5 (GRU)                     (None, 51)           58599       embedding_5[0][0]                
__________________________________________________________________________________________________
gru_6 (GRU)                     (None, 135)          93555       embedding_6[0][0]                
__________________________________________________________________________________________________
dropout_7 (Dropout)             (None, 51)           0           gru_5[0][0]                      
__________________________________________________________________________________________________
dropout_8 (Dropout)             (None, 135)          0           gru_6[0][0]                      
__________________________________________________________________________________________________
concatenate_3 (Concatenate)     (None, 186)          0           dropout_7[0][0]                  
                                                                 dropout_8[0][0]                  
__________________________________________________________________________________________________
dense_5 (Dense)                 (None, 46)           8602        concatenate_3[0][0]              
__________________________________________________________________________________________________
dropout_9 (Dropout)             (None, 46)           0           dense_5[0][0]                    
__________________________________________________________________________________________________
dense_6 (Dense)                 (None, 4)            188         dropout_9[0][0]                  
==================================================================================================
Total params: 538,103
Trainable params: 538,103
Non-trainable params: 0
__________________________________________________________________________________________________
None
	data size before sampling = 123224
	data size after sampling = 241368
	data size before focused sampling = 241368
…
	Training (Important) : 3585, Test : 1320
	MWEs in tain : 1798, occurrences : 4870
	Impotant words in tain : 1200
	MWE length mean : 2.06
	Seen MWEs : 345 (67 %)
	New MWEs : 165 (32 %)
==================================================================================================
__________________________________________________________________________________________________
Layer (type)                    Output Shape         Param #     Connected to                     
==================================================================================================
input_9 (InputLayer)            (None, 7)            0                                            
__________________________________________________________________________________________________
input_10 (InputLayer)           (None, 7)            0                                            
__________________________________________________________________________________________________
embedding_9 (Embedding)         (None, 7, 331)       398193      input_9[0][0]                    
__________________________________________________________________________________________________
embedding_10 (Embedding)        (None, 7, 95)        1330        input_10[0][0]                   
__________________________________________________________________________________________________
gru_9 (GRU)                     (None, 51)           58599       embedding_9[0][0]                
__________________________________________________________________________________________________
gru_10 (GRU)                    (None, 135)          93555       embedding_10[0][0]               
__________________________________________________________________________________________________
dropout_13 (Dropout)            (None, 51)           0           gru_9[0][0]                      
__________________________________________________________________________________________________
dropout_14 (Dropout)            (None, 135)          0           gru_10[0][0]                     
__________________________________________________________________________________________________
concatenate_5 (Concatenate)     (None, 186)          0           dropout_13[0][0]                 
                                                                 dropout_14[0][0]                 
__________________________________________________________________________________________________
dense_9 (Dense)                 (None, 46)           8602        concatenate_5[0][0]              
__________________________________________________________________________________________________
dropout_15 (Dropout)            (None, 46)           0           dense_9[0][0]                    
__________________________________________________________________________________________________
dense_10 (Dense)                (None, 4)            188         dropout_15[0][0]                 
==================================================================================================
Total params: 560,467
Trainable params: 560,467
Non-trainable params: 0
__________________________________________________________________________________________________
None
	data size before sampling = 245118
	data size after sampling = 480496
	data size before focused sampling = 480496
…
	Training (Important) : 3124, Test : 1954
	MWEs in tain : 1372, occurrences : 3583
	Impotant words in tain : 1175
	MWE length mean : 2.13
	Seen MWEs : 386 (57 %)
	New MWEs : 284 (42 %)
==================================================================================================
__________________________________________________________________________________________________
Layer (type)                    Output Shape         Param #     Connected to                     
==================================================================================================
input_13 (InputLayer)           (None, 7)            0                                            
__________________________________________________________________________________________________
input_14 (InputLayer)           (None, 7)            0                                            
__________________________________________________________________________________________________
embedding_13 (Embedding)        (None, 7, 369)       434682      input_13[0][0]                   
__________________________________________________________________________________________________
embedding_14 (Embedding)        (None, 7, 81)        1539        input_14[0][0]                   
__________________________________________________________________________________________________
gru_13 (GRU)                    (None, 162)          258552      embedding_13[0][0]               
__________________________________________________________________________________________________
gru_14 (GRU)                    (None, 79)           38157       embedding_14[0][0]               
__________________________________________________________________________________________________
dropout_19 (Dropout)            (None, 162)          0           gru_13[0][0]                     
__________________________________________________________________________________________________
dropout_20 (Dropout)            (None, 79)           0           gru_14[0][0]                     
__________________________________________________________________________________________________
concatenate_7 (Concatenate)     (None, 241)          0           dropout_19[0][0]                 
                                                                 dropout_20[0][0]                 
__________________________________________________________________________________________________
dense_13 (Dense)                (None, 18)           4356        concatenate_7[0][0]              
__________________________________________________________________________________________________
dropout_21 (Dropout)            (None, 18)           0           dense_13[0][0]                   
__________________________________________________________________________________________________
dense_14 (Dense)                (None, 4)            76          dropout_21[0][0]                 
==================================================================================================
Total params: 737,362
Trainable params: 737,362
Non-trainable params: 0
__________________________________________________________________________________________________
None
	data size before sampling = 181825
	data size after sampling = 356484
	data size before focused sampling = 356484
…
	Training (Important) : 2305, Test : 3117
	MWEs in tain : 1412, occurrences : 2542
	Impotant words in tain : 1131
	MWE length mean : 2.22
	Seen MWEs : 343 (62 %)
	New MWEs : 210 (37 %)
==================================================================================================
__________________________________________________________________________________________________
Layer (type)                    Output Shape         Param #     Connected to                     
==================================================================================================
input_17 (InputLayer)           (None, 7)            0                                            
__________________________________________________________________________________________________
input_18 (InputLayer)           (None, 7)            0                                            
__________________________________________________________________________________________________
embedding_17 (Embedding)        (None, 7, 369)       418446      input_17[0][0]                   
__________________________________________________________________________________________________
embedding_18 (Embedding)        (None, 7, 81)        1539        input_18[0][0]                   
__________________________________________________________________________________________________
gru_17 (GRU)                    (None, 162)          258552      embedding_17[0][0]               
__________________________________________________________________________________________________
gru_18 (GRU)                    (None, 79)           38157       embedding_18[0][0]               
__________________________________________________________________________________________________
dropout_25 (Dropout)            (None, 162)          0           gru_17[0][0]                     
__________________________________________________________________________________________________
dropout_26 (Dropout)            (None, 79)           0           gru_18[0][0]                     
__________________________________________________________________________________________________
concatenate_9 (Concatenate)     (None, 241)          0           dropout_25[0][0]                 
                                                                 dropout_26[0][0]                 
__________________________________________________________________________________________________
dense_17 (Dense)                (None, 18)           4356        concatenate_9[0][0]              
__________________________________________________________________________________________________
dropout_27 (Dropout)            (None, 18)           0           dense_17[0][0]                   
__________________________________________________________________________________________________
dense_18 (Dense)                (None, 4)            76          dropout_27[0][0]                 
==================================================================================================
Total params: 721,126
Trainable params: 721,126
Non-trainable params: 0
__________________________________________________________________________________________________
None
	data size before sampling = 123224
	data size after sampling = 241368
	data size before focused sampling = 241368
…
	Training (Important) : 3585, Test : 1320
	MWEs in tain : 1798, occurrences : 4870
	Impotant words in tain : 1200
	MWE length mean : 2.06
	Seen MWEs : 345 (67 %)
	New MWEs : 165 (32 %)
==================================================================================================
__________________________________________________________________________________________________
Layer (type)                    Output Shape         Param #     Connected to                     
==================================================================================================
input_21 (InputLayer)           (None, 7)            0                                            
__________________________________________________________________________________________________
input_22 (InputLayer)           (None, 7)            0                                            
__________________________________________________________________________________________________
embedding_21 (Embedding)        (None, 7, 369)       443907      input_21[0][0]                   
__________________________________________________________________________________________________
embedding_22 (Embedding)        (None, 7, 81)        1134        input_22[0][0]                   
__________________________________________________________________________________________________
gru_21 (GRU)                    (None, 162)          258552      embedding_21[0][0]               
__________________________________________________________________________________________________
gru_22 (GRU)                    (None, 79)           38157       embedding_22[0][0]               
__________________________________________________________________________________________________
dropout_31 (Dropout)            (None, 162)          0           gru_21[0][0]                     
__________________________________________________________________________________________________
dropout_32 (Dropout)            (None, 79)           0           gru_22[0][0]                     
__________________________________________________________________________________________________
concatenate_11 (Concatenate)    (None, 241)          0           dropout_31[0][0]                 
                                                                 dropout_32[0][0]                 
__________________________________________________________________________________________________
dense_21 (Dense)                (None, 18)           4356        concatenate_11[0][0]             
__________________________________________________________________________________________________
dropout_33 (Dropout)            (None, 18)           0           dense_21[0][0]                   
__________________________________________________________________________________________________
dense_22 (Dense)                (None, 4)            76          dropout_33[0][0]                 
==================================================================================================
Total params: 746,182
Trainable params: 746,182
Non-trainable params: 0
__________________________________________________________________________________________________
None
	data size before sampling = 245118
	data size after sampling = 480496
	data size before focused sampling = 480496
…
	Training (Important) : 3124, Test : 1954
	MWEs in tain : 1372, occurrences : 3583
	Impotant words in tain : 1175
	MWE length mean : 2.13
	Seen MWEs : 386 (57 %)
	New MWEs : 284 (42 %)
==================================================================================================
__________________________________________________________________________________________________
Layer (type)                    Output Shape         Param #     Connected to                     
==================================================================================================
input_25 (InputLayer)           (None, 7)            0                                            
__________________________________________________________________________________________________
input_26 (InputLayer)           (None, 7)            0                                            
__________________________________________________________________________________________________
embedding_25 (Embedding)        (None, 7, 430)       506540      input_25[0][0]                   
__________________________________________________________________________________________________
embedding_26 (Embedding)        (None, 7, 91)        1729        input_26[0][0]                   
__________________________________________________________________________________________________
gru_25 (GRU)                    (None, 178)          325206      embedding_25[0][0]               
__________________________________________________________________________________________________
gru_26 (GRU)                    (None, 67)           31959       embedding_26[0][0]               
__________________________________________________________________________________________________
dropout_37 (Dropout)            (None, 178)          0           gru_25[0][0]                     
__________________________________________________________________________________________________
dropout_38 (Dropout)            (None, 67)           0           gru_26[0][0]                     
__________________________________________________________________________________________________
concatenate_13 (Concatenate)    (None, 245)          0           dropout_37[0][0]                 
                                                                 dropout_38[0][0]                 
__________________________________________________________________________________________________
dense_25 (Dense)                (None, 55)           13530       concatenate_13[0][0]             
__________________________________________________________________________________________________
dropout_39 (Dropout)            (None, 55)           0           dense_25[0][0]                   
__________________________________________________________________________________________________
dense_26 (Dense)                (None, 4)            224         dropout_39[0][0]                 
==================================================================================================
Total params: 879,188
Trainable params: 879,188
Non-trainable params: 0
__________________________________________________________________________________________________
None
	data size before sampling = 181825
	data size after sampling = 356484
	data size before focused sampling = 356484
…
	Training (Important) : 2305, Test : 3117
	MWEs in tain : 1412, occurrences : 2542
	Impotant words in tain : 1131
	MWE length mean : 2.22
	Seen MWEs : 343 (62 %)
	New MWEs : 210 (37 %)
==================================================================================================
__________________________________________________________________________________________________
Layer (type)                    Output Shape         Param #     Connected to                     
==================================================================================================
input_29 (InputLayer)           (None, 7)            0                                            
__________________________________________________________________________________________________
input_30 (InputLayer)           (None, 7)            0                                            
__________________________________________________________________________________________________
embedding_29 (Embedding)        (None, 7, 430)       487620      input_29[0][0]                   
__________________________________________________________________________________________________
embedding_30 (Embedding)        (None, 7, 91)        1729        input_30[0][0]                   
__________________________________________________________________________________________________
gru_29 (GRU)                    (None, 178)          325206      embedding_29[0][0]               
__________________________________________________________________________________________________
gru_30 (GRU)                    (None, 67)           31959       embedding_30[0][0]               
__________________________________________________________________________________________________
dropout_43 (Dropout)            (None, 178)          0           gru_29[0][0]                     
__________________________________________________________________________________________________
dropout_44 (Dropout)            (None, 67)           0           gru_30[0][0]                     
__________________________________________________________________________________________________
concatenate_15 (Concatenate)    (None, 245)          0           dropout_43[0][0]                 
                                                                 dropout_44[0][0]                 
__________________________________________________________________________________________________
dense_29 (Dense)                (None, 55)           13530       concatenate_15[0][0]             
__________________________________________________________________________________________________
dropout_45 (Dropout)            (None, 55)           0           dense_29[0][0]                   
__________________________________________________________________________________________________
dense_30 (Dense)                (None, 4)            224         dropout_45[0][0]                 
==================================================================================================
Total params: 860,268
Trainable params: 860,268
Non-trainable params: 0
__________________________________________________________________________________________________
None
	data size before sampling = 123224
	data size after sampling = 241368
	data size before focused sampling = 241368
…
	Training (Important) : 3585, Test : 1320
	MWEs in tain : 1798, occurrences : 4870
	Impotant words in tain : 1200
	MWE length mean : 2.06
	Seen MWEs : 345 (67 %)
	New MWEs : 165 (32 %)
==================================================================================================
__________________________________________________________________________________________________
Layer (type)                    Output Shape         Param #     Connected to                     
==================================================================================================
input_33 (InputLayer)           (None, 7)            0                                            
__________________________________________________________________________________________________
input_34 (InputLayer)           (None, 7)            0                                            
__________________________________________________________________________________________________
embedding_33 (Embedding)        (None, 7, 430)       517290      input_33[0][0]                   
__________________________________________________________________________________________________
embedding_34 (Embedding)        (None, 7, 91)        1274        input_34[0][0]                   
__________________________________________________________________________________________________
gru_33 (GRU)                    (None, 178)          325206      embedding_33[0][0]               
__________________________________________________________________________________________________
gru_34 (GRU)                    (None, 67)           31959       embedding_34[0][0]               
__________________________________________________________________________________________________
dropout_49 (Dropout)            (None, 178)          0           gru_33[0][0]                     
__________________________________________________________________________________________________
dropout_50 (Dropout)            (None, 67)           0           gru_34[0][0]                     
__________________________________________________________________________________________________
concatenate_17 (Concatenate)    (None, 245)          0           dropout_49[0][0]                 
                                                                 dropout_50[0][0]                 
__________________________________________________________________________________________________
dense_33 (Dense)                (None, 55)           13530       concatenate_17[0][0]             
__________________________________________________________________________________________________
dropout_51 (Dropout)            (None, 55)           0           dense_33[0][0]                   
__________________________________________________________________________________________________
dense_34 (Dense)                (None, 4)            224         dropout_51[0][0]                 
==================================================================================================
Total params: 889,483
Trainable params: 889,483
Non-trainable params: 0
__________________________________________________________________________________________________
None
	data size before sampling = 245118
	data size after sampling = 480496
	data size before focused sampling = 480496
…
	Training (Important) : 3124, Test : 1954
	MWEs in tain : 1372, occurrences : 3583
	Impotant words in tain : 1175
	MWE length mean : 2.13
	Seen MWEs : 386 (57 %)
	New MWEs : 284 (42 %)
==================================================================================================
__________________________________________________________________________________________________
Layer (type)                    Output Shape         Param #     Connected to                     
==================================================================================================
input_37 (InputLayer)           (None, 7)            0                                            
__________________________________________________________________________________________________
input_38 (InputLayer)           (None, 7)            0                                            
__________________________________________________________________________________________________
embedding_37 (Embedding)        (None, 7, 330)       388740      input_37[0][0]                   
__________________________________________________________________________________________________
embedding_38 (Embedding)        (None, 7, 85)        1615        input_38[0][0]                   
__________________________________________________________________________________________________
gru_37 (GRU)                    (None, 55)           63690       embedding_37[0][0]               
__________________________________________________________________________________________________
gru_38 (GRU)                    (None, 44)           17160       embedding_38[0][0]               
__________________________________________________________________________________________________
dropout_55 (Dropout)            (None, 55)           0           gru_37[0][0]                     
__________________________________________________________________________________________________
dropout_56 (Dropout)            (None, 44)           0           gru_38[0][0]                     
__________________________________________________________________________________________________
concatenate_19 (Concatenate)    (None, 99)           0           dropout_55[0][0]                 
                                                                 dropout_56[0][0]                 
__________________________________________________________________________________________________
dense_37 (Dense)                (None, 43)           4300        concatenate_19[0][0]             
__________________________________________________________________________________________________
dropout_57 (Dropout)            (None, 43)           0           dense_37[0][0]                   
__________________________________________________________________________________________________
dense_38 (Dense)                (None, 4)            176         dropout_57[0][0]                 
==================================================================================================
Total params: 475,681
Trainable params: 475,681
Non-trainable params: 0
__________________________________________________________________________________________________
None
	data size before sampling = 181825
	data size after sampling = 356484
	data size before focused sampling = 356484
…
	Training (Important) : 2305, Test : 3117
	MWEs in tain : 1412, occurrences : 2542
	Impotant words in tain : 1131
	MWE length mean : 2.22
	Seen MWEs : 343 (62 %)
	New MWEs : 210 (37 %)
==================================================================================================
__________________________________________________________________________________________________
Layer (type)                    Output Shape         Param #     Connected to                     
==================================================================================================
input_41 (InputLayer)           (None, 7)            0                                            
__________________________________________________________________________________________________
input_42 (InputLayer)           (None, 7)            0                                            
__________________________________________________________________________________________________
embedding_41 (Embedding)        (None, 7, 330)       374220      input_41[0][0]                   
__________________________________________________________________________________________________
embedding_42 (Embedding)        (None, 7, 85)        1615        input_42[0][0]                   
__________________________________________________________________________________________________
gru_41 (GRU)                    (None, 55)           63690       embedding_41[0][0]               
__________________________________________________________________________________________________
gru_42 (GRU)                    (None, 44)           17160       embedding_42[0][0]               
__________________________________________________________________________________________________
dropout_61 (Dropout)            (None, 55)           0           gru_41[0][0]                     
__________________________________________________________________________________________________
dropout_62 (Dropout)            (None, 44)           0           gru_42[0][0]                     
__________________________________________________________________________________________________
concatenate_21 (Concatenate)    (None, 99)           0           dropout_61[0][0]                 
                                                                 dropout_62[0][0]                 
__________________________________________________________________________________________________
dense_41 (Dense)                (None, 43)           4300        concatenate_21[0][0]             
__________________________________________________________________________________________________
dropout_63 (Dropout)            (None, 43)           0           dense_41[0][0]                   
__________________________________________________________________________________________________
dense_42 (Dense)                (None, 4)            176         dropout_63[0][0]                 
==================================================================================================
Total params: 461,161
Trainable params: 461,161
Non-trainable params: 0
__________________________________________________________________________________________________
None
	data size before sampling = 123224
	data size after sampling = 241368
	data size before focused sampling = 241368
…
	Training (Important) : 3585, Test : 1320
	MWEs in tain : 1798, occurrences : 4870
	Impotant words in tain : 1200
	MWE length mean : 2.06
	Seen MWEs : 345 (67 %)
	New MWEs : 165 (32 %)
==================================================================================================
__________________________________________________________________________________________________
Layer (type)                    Output Shape         Param #     Connected to                     
==================================================================================================
input_45 (InputLayer)           (None, 7)            0                                            
__________________________________________________________________________________________________
input_46 (InputLayer)           (None, 7)            0                                            
__________________________________________________________________________________________________
embedding_45 (Embedding)        (None, 7, 330)       396990      input_45[0][0]                   
__________________________________________________________________________________________________
embedding_46 (Embedding)        (None, 7, 85)        1190        input_46[0][0]                   
__________________________________________________________________________________________________
gru_45 (GRU)                    (None, 55)           63690       embedding_45[0][0]               
__________________________________________________________________________________________________
gru_46 (GRU)                    (None, 44)           17160       embedding_46[0][0]               
__________________________________________________________________________________________________
dropout_67 (Dropout)            (None, 55)           0           gru_45[0][0]                     
__________________________________________________________________________________________________
dropout_68 (Dropout)            (None, 44)           0           gru_46[0][0]                     
__________________________________________________________________________________________________
concatenate_23 (Concatenate)    (None, 99)           0           dropout_67[0][0]                 
                                                                 dropout_68[0][0]                 
__________________________________________________________________________________________________
dense_45 (Dense)                (None, 43)           4300        concatenate_23[0][0]             
__________________________________________________________________________________________________
dropout_69 (Dropout)            (None, 43)           0           dense_45[0][0]                   
__________________________________________________________________________________________________
dense_46 (Dense)                (None, 4)            176         dropout_69[0][0]                 
==================================================================================================
Total params: 483,506
Trainable params: 483,506
Non-trainable params: 0
__________________________________________________________________________________________________
None
	data size before sampling = 245118
	data size after sampling = 480496
	data size before focused sampling = 480496
…
	Training (Important) : 3124, Test : 1954
	MWEs in tain : 1372, occurrences : 3583
	Impotant words in tain : 1175
	MWE length mean : 2.13
	Seen MWEs : 386 (57 %)
	New MWEs : 284 (42 %)
==================================================================================================
__________________________________________________________________________________________________
Layer (type)                    Output Shape         Param #     Connected to                     
==================================================================================================
input_49 (InputLayer)           (None, 7)            0                                            
__________________________________________________________________________________________________
input_50 (InputLayer)           (None, 7)            0                                            
__________________________________________________________________________________________________
embedding_49 (Embedding)        (None, 7, 490)       577220      input_49[0][0]                   
__________________________________________________________________________________________________
embedding_50 (Embedding)        (None, 7, 51)        969         input_50[0][0]                   
__________________________________________________________________________________________________
gru_49 (GRU)                    (None, 177)          354708      embedding_49[0][0]               
__________________________________________________________________________________________________
gru_50 (GRU)                    (None, 173)          116775      embedding_50[0][0]               
__________________________________________________________________________________________________
dropout_73 (Dropout)            (None, 177)          0           gru_49[0][0]                     
__________________________________________________________________________________________________
dropout_74 (Dropout)            (None, 173)          0           gru_50[0][0]                     
__________________________________________________________________________________________________
concatenate_25 (Concatenate)    (None, 350)          0           dropout_73[0][0]                 
                                                                 dropout_74[0][0]                 
__________________________________________________________________________________________________
dense_49 (Dense)                (None, 154)          54054       concatenate_25[0][0]             
__________________________________________________________________________________________________
dropout_75 (Dropout)            (None, 154)          0           dense_49[0][0]                   
__________________________________________________________________________________________________
dense_50 (Dense)                (None, 4)            620         dropout_75[0][0]                 
==================================================================================================
Total params: 1,104,346
Trainable params: 1,104,346
Non-trainable params: 0
__________________________________________________________________________________________________
None
	data size before sampling = 181825
	data size after sampling = 356484
	data size before focused sampling = 356484
…
	Training (Important) : 2305, Test : 3117
	MWEs in tain : 1412, occurrences : 2542
	Impotant words in tain : 1131
	MWE length mean : 2.22
	Seen MWEs : 343 (62 %)
	New MWEs : 210 (37 %)
==================================================================================================
__________________________________________________________________________________________________
Layer (type)                    Output Shape         Param #     Connected to                     
==================================================================================================
input_53 (InputLayer)           (None, 7)            0                                            
__________________________________________________________________________________________________
input_54 (InputLayer)           (None, 7)            0                                            
__________________________________________________________________________________________________
embedding_53 (Embedding)        (None, 7, 490)       555660      input_53[0][0]                   
__________________________________________________________________________________________________
embedding_54 (Embedding)        (None, 7, 51)        969         input_54[0][0]                   
__________________________________________________________________________________________________
gru_53 (GRU)                    (None, 177)          354708      embedding_53[0][0]               
__________________________________________________________________________________________________
gru_54 (GRU)                    (None, 173)          116775      embedding_54[0][0]               
__________________________________________________________________________________________________
dropout_79 (Dropout)            (None, 177)          0           gru_53[0][0]                     
__________________________________________________________________________________________________
dropout_80 (Dropout)            (None, 173)          0           gru_54[0][0]                     
__________________________________________________________________________________________________
concatenate_27 (Concatenate)    (None, 350)          0           dropout_79[0][0]                 
                                                                 dropout_80[0][0]                 
__________________________________________________________________________________________________
dense_53 (Dense)                (None, 154)          54054       concatenate_27[0][0]             
__________________________________________________________________________________________________
dropout_81 (Dropout)            (None, 154)          0           dense_53[0][0]                   
__________________________________________________________________________________________________
dense_54 (Dense)                (None, 4)            620         dropout_81[0][0]                 
==================================================================================================
Total params: 1,082,786
Trainable params: 1,082,786
Non-trainable params: 0
__________________________________________________________________________________________________
None
	data size before sampling = 123224
	data size after sampling = 241368
	data size before focused sampling = 241368
…
	Training (Important) : 3585, Test : 1320
	MWEs in tain : 1798, occurrences : 4870
	Impotant words in tain : 1200
	MWE length mean : 2.06
	Seen MWEs : 345 (67 %)
	New MWEs : 165 (32 %)
==================================================================================================
__________________________________________________________________________________________________
Layer (type)                    Output Shape         Param #     Connected to                     
==================================================================================================
input_57 (InputLayer)           (None, 7)            0                                            
__________________________________________________________________________________________________
input_58 (InputLayer)           (None, 7)            0                                            
__________________________________________________________________________________________________
embedding_57 (Embedding)        (None, 7, 490)       589470      input_57[0][0]                   
__________________________________________________________________________________________________
embedding_58 (Embedding)        (None, 7, 51)        714         input_58[0][0]                   
__________________________________________________________________________________________________
gru_57 (GRU)                    (None, 177)          354708      embedding_57[0][0]               
__________________________________________________________________________________________________
gru_58 (GRU)                    (None, 173)          116775      embedding_58[0][0]               
__________________________________________________________________________________________________
dropout_85 (Dropout)            (None, 177)          0           gru_57[0][0]                     
__________________________________________________________________________________________________
dropout_86 (Dropout)            (None, 173)          0           gru_58[0][0]                     
__________________________________________________________________________________________________
concatenate_29 (Concatenate)    (None, 350)          0           dropout_85[0][0]                 
                                                                 dropout_86[0][0]                 
__________________________________________________________________________________________________
dense_57 (Dense)                (None, 154)          54054       concatenate_29[0][0]             
__________________________________________________________________________________________________
dropout_87 (Dropout)            (None, 154)          0           dense_57[0][0]                   
__________________________________________________________________________________________________
dense_58 (Dense)                (None, 4)            620         dropout_87[0][0]                 
==================================================================================================
Total params: 1,116,341
Trainable params: 1,116,341
Non-trainable params: 0
__________________________________________________________________________________________________
None
	data size before sampling = 245118
	data size after sampling = 480496
	data size before focused sampling = 480496
…
