…
	Training (Important) : 3124, Test : 1954
	MWEs in tain : 1372, occurrences : 3583
	Impotant words in tain : 1175
	MWE length mean : 2.13
	Seen MWEs : 386 (57 %)
	New MWEs : 284 (42 %)
==================================================================================================
__________________________________________________________________________________________________
Layer (type)                    Output Shape         Param #     Connected to                     
==================================================================================================
input_1 (InputLayer)            (None, 7)            0                                            
__________________________________________________________________________________________________
input_2 (InputLayer)            (None, 7)            0                                            
__________________________________________________________________________________________________
embedding_1 (Embedding)         (None, 7, 414)       487692      input_1[0][0]                    
__________________________________________________________________________________________________
embedding_2 (Embedding)         (None, 7, 80)        1520        input_2[0][0]                    
__________________________________________________________________________________________________
gru_1 (GRU)                     (None, 165)          287100      embedding_1[0][0]                
__________________________________________________________________________________________________
gru_2 (GRU)                     (None, 152)          106248      embedding_2[0][0]                
__________________________________________________________________________________________________
dropout_1 (Dropout)             (None, 165)          0           gru_1[0][0]                      
__________________________________________________________________________________________________
dropout_2 (Dropout)             (None, 152)          0           gru_2[0][0]                      
__________________________________________________________________________________________________
concatenate_1 (Concatenate)     (None, 317)          0           dropout_1[0][0]                  
                                                                 dropout_2[0][0]                  
__________________________________________________________________________________________________
dense_1 (Dense)                 (None, 124)          39432       concatenate_1[0][0]              
__________________________________________________________________________________________________
dropout_3 (Dropout)             (None, 124)          0           dense_1[0][0]                    
__________________________________________________________________________________________________
dense_2 (Dense)                 (None, 4)            500         dropout_3[0][0]                  
==================================================================================================
Total params: 922,492
Trainable params: 922,492
Non-trainable params: 0
__________________________________________________________________________________________________
None
	data size before sampling = 181825
	data size after sampling = 356484
	data size before focused sampling = 356484
…
	Training (Important) : 2305, Test : 3117
	MWEs in tain : 1412, occurrences : 2542
	Impotant words in tain : 1131
	MWE length mean : 2.22
	Seen MWEs : 343 (62 %)
	New MWEs : 210 (37 %)
==================================================================================================
__________________________________________________________________________________________________
Layer (type)                    Output Shape         Param #     Connected to                     
==================================================================================================
input_5 (InputLayer)            (None, 7)            0                                            
__________________________________________________________________________________________________
input_6 (InputLayer)            (None, 7)            0                                            
__________________________________________________________________________________________________
embedding_5 (Embedding)         (None, 7, 414)       469476      input_5[0][0]                    
__________________________________________________________________________________________________
embedding_6 (Embedding)         (None, 7, 80)        1520        input_6[0][0]                    
__________________________________________________________________________________________________
gru_5 (GRU)                     (None, 165)          287100      embedding_5[0][0]                
__________________________________________________________________________________________________
gru_6 (GRU)                     (None, 152)          106248      embedding_6[0][0]                
__________________________________________________________________________________________________
dropout_7 (Dropout)             (None, 165)          0           gru_5[0][0]                      
__________________________________________________________________________________________________
dropout_8 (Dropout)             (None, 152)          0           gru_6[0][0]                      
__________________________________________________________________________________________________
concatenate_3 (Concatenate)     (None, 317)          0           dropout_7[0][0]                  
                                                                 dropout_8[0][0]                  
__________________________________________________________________________________________________
dense_5 (Dense)                 (None, 124)          39432       concatenate_3[0][0]              
__________________________________________________________________________________________________
dropout_9 (Dropout)             (None, 124)          0           dense_5[0][0]                    
__________________________________________________________________________________________________
dense_6 (Dense)                 (None, 4)            500         dropout_9[0][0]                  
==================================================================================================
Total params: 904,276
Trainable params: 904,276
Non-trainable params: 0
__________________________________________________________________________________________________
None
	data size before sampling = 123224
	data size after sampling = 241368
	data size before focused sampling = 241368
…
	Training (Important) : 3585, Test : 1320
	MWEs in tain : 1798, occurrences : 4870
	Impotant words in tain : 1200
	MWE length mean : 2.06
	Seen MWEs : 345 (67 %)
	New MWEs : 165 (32 %)
==================================================================================================
__________________________________________________________________________________________________
Layer (type)                    Output Shape         Param #     Connected to                     
==================================================================================================
input_9 (InputLayer)            (None, 7)            0                                            
__________________________________________________________________________________________________
input_10 (InputLayer)           (None, 7)            0                                            
__________________________________________________________________________________________________
embedding_9 (Embedding)         (None, 7, 414)       498042      input_9[0][0]                    
__________________________________________________________________________________________________
embedding_10 (Embedding)        (None, 7, 80)        1120        input_10[0][0]                   
__________________________________________________________________________________________________
gru_9 (GRU)                     (None, 165)          287100      embedding_9[0][0]                
__________________________________________________________________________________________________
gru_10 (GRU)                    (None, 152)          106248      embedding_10[0][0]               
__________________________________________________________________________________________________
dropout_13 (Dropout)            (None, 165)          0           gru_9[0][0]                      
__________________________________________________________________________________________________
dropout_14 (Dropout)            (None, 152)          0           gru_10[0][0]                     
__________________________________________________________________________________________________
concatenate_5 (Concatenate)     (None, 317)          0           dropout_13[0][0]                 
                                                                 dropout_14[0][0]                 
__________________________________________________________________________________________________
dense_9 (Dense)                 (None, 124)          39432       concatenate_5[0][0]              
__________________________________________________________________________________________________
dropout_15 (Dropout)            (None, 124)          0           dense_9[0][0]                    
__________________________________________________________________________________________________
dense_10 (Dense)                (None, 4)            500         dropout_15[0][0]                 
==================================================================================================
Total params: 932,442
Trainable params: 932,442
Non-trainable params: 0
__________________________________________________________________________________________________
None
	data size before sampling = 245118
	data size after sampling = 480496
	data size before focused sampling = 480496
…
	Training (Important) : 3124, Test : 1954
	MWEs in tain : 1372, occurrences : 3583
	Impotant words in tain : 1175
	MWE length mean : 2.13
	Seen MWEs : 386 (57 %)
	New MWEs : 284 (42 %)
==================================================================================================
__________________________________________________________________________________________________
Layer (type)                    Output Shape         Param #     Connected to                     
==================================================================================================
input_13 (InputLayer)           (None, 7)            0                                            
__________________________________________________________________________________________________
input_14 (InputLayer)           (None, 7)            0                                            
__________________________________________________________________________________________________
embedding_13 (Embedding)        (None, 7, 301)       354578      input_13[0][0]                   
__________________________________________________________________________________________________
embedding_14 (Embedding)        (None, 7, 79)        1501        input_14[0][0]                   
__________________________________________________________________________________________________
gru_13 (GRU)                    (None, 119)          150297      embedding_13[0][0]               
__________________________________________________________________________________________________
gru_14 (GRU)                    (None, 113)          65427       embedding_14[0][0]               
__________________________________________________________________________________________________
dropout_19 (Dropout)            (None, 119)          0           gru_13[0][0]                     
__________________________________________________________________________________________________
dropout_20 (Dropout)            (None, 113)          0           gru_14[0][0]                     
__________________________________________________________________________________________________
concatenate_7 (Concatenate)     (None, 232)          0           dropout_19[0][0]                 
                                                                 dropout_20[0][0]                 
__________________________________________________________________________________________________
dense_13 (Dense)                (None, 138)          32154       concatenate_7[0][0]              
__________________________________________________________________________________________________
dropout_21 (Dropout)            (None, 138)          0           dense_13[0][0]                   
__________________________________________________________________________________________________
dense_14 (Dense)                (None, 4)            556         dropout_21[0][0]                 
==================================================================================================
Total params: 604,513
Trainable params: 604,513
Non-trainable params: 0
__________________________________________________________________________________________________
None
	data size before sampling = 181825
	data size after sampling = 356484
	data size before focused sampling = 356484
…
	Training (Important) : 2305, Test : 3117
	MWEs in tain : 1412, occurrences : 2542
	Impotant words in tain : 1131
	MWE length mean : 2.22
	Seen MWEs : 343 (62 %)
	New MWEs : 210 (37 %)
==================================================================================================
__________________________________________________________________________________________________
Layer (type)                    Output Shape         Param #     Connected to                     
==================================================================================================
input_17 (InputLayer)           (None, 7)            0                                            
__________________________________________________________________________________________________
input_18 (InputLayer)           (None, 7)            0                                            
__________________________________________________________________________________________________
embedding_17 (Embedding)        (None, 7, 301)       341334      input_17[0][0]                   
__________________________________________________________________________________________________
embedding_18 (Embedding)        (None, 7, 79)        1501        input_18[0][0]                   
__________________________________________________________________________________________________
gru_17 (GRU)                    (None, 119)          150297      embedding_17[0][0]               
__________________________________________________________________________________________________
gru_18 (GRU)                    (None, 113)          65427       embedding_18[0][0]               
__________________________________________________________________________________________________
dropout_25 (Dropout)            (None, 119)          0           gru_17[0][0]                     
__________________________________________________________________________________________________
dropout_26 (Dropout)            (None, 113)          0           gru_18[0][0]                     
__________________________________________________________________________________________________
concatenate_9 (Concatenate)     (None, 232)          0           dropout_25[0][0]                 
                                                                 dropout_26[0][0]                 
__________________________________________________________________________________________________
dense_17 (Dense)                (None, 138)          32154       concatenate_9[0][0]              
__________________________________________________________________________________________________
dropout_27 (Dropout)            (None, 138)          0           dense_17[0][0]                   
__________________________________________________________________________________________________
dense_18 (Dense)                (None, 4)            556         dropout_27[0][0]                 
==================================================================================================
Total params: 591,269
Trainable params: 591,269
Non-trainable params: 0
__________________________________________________________________________________________________
None
	data size before sampling = 123224
	data size after sampling = 241368
	data size before focused sampling = 241368
…
	Training (Important) : 3585, Test : 1320
	MWEs in tain : 1798, occurrences : 4870
	Impotant words in tain : 1200
	MWE length mean : 2.06
	Seen MWEs : 345 (67 %)
	New MWEs : 165 (32 %)
==================================================================================================
__________________________________________________________________________________________________
Layer (type)                    Output Shape         Param #     Connected to                     
==================================================================================================
input_21 (InputLayer)           (None, 7)            0                                            
__________________________________________________________________________________________________
input_22 (InputLayer)           (None, 7)            0                                            
__________________________________________________________________________________________________
embedding_21 (Embedding)        (None, 7, 301)       362103      input_21[0][0]                   
__________________________________________________________________________________________________
embedding_22 (Embedding)        (None, 7, 79)        1106        input_22[0][0]                   
__________________________________________________________________________________________________
gru_21 (GRU)                    (None, 119)          150297      embedding_21[0][0]               
__________________________________________________________________________________________________
gru_22 (GRU)                    (None, 113)          65427       embedding_22[0][0]               
__________________________________________________________________________________________________
dropout_31 (Dropout)            (None, 119)          0           gru_21[0][0]                     
__________________________________________________________________________________________________
dropout_32 (Dropout)            (None, 113)          0           gru_22[0][0]                     
__________________________________________________________________________________________________
concatenate_11 (Concatenate)    (None, 232)          0           dropout_31[0][0]                 
                                                                 dropout_32[0][0]                 
__________________________________________________________________________________________________
dense_21 (Dense)                (None, 138)          32154       concatenate_11[0][0]             
__________________________________________________________________________________________________
dropout_33 (Dropout)            (None, 138)          0           dense_21[0][0]                   
__________________________________________________________________________________________________
dense_22 (Dense)                (None, 4)            556         dropout_33[0][0]                 
==================================================================================================
Total params: 611,643
Trainable params: 611,643
Non-trainable params: 0
__________________________________________________________________________________________________
None
	data size before sampling = 245118
	data size after sampling = 480496
	data size before focused sampling = 480496
…
	Training (Important) : 3124, Test : 1954
	MWEs in tain : 1372, occurrences : 3583
	Impotant words in tain : 1175
	MWE length mean : 2.13
	Seen MWEs : 386 (57 %)
	New MWEs : 284 (42 %)
==================================================================================================
__________________________________________________________________________________________________
Layer (type)                    Output Shape         Param #     Connected to                     
==================================================================================================
input_25 (InputLayer)           (None, 7)            0                                            
__________________________________________________________________________________________________
input_26 (InputLayer)           (None, 7)            0                                            
__________________________________________________________________________________________________
embedding_25 (Embedding)        (None, 7, 304)       358112      input_25[0][0]                   
__________________________________________________________________________________________________
embedding_26 (Embedding)        (None, 7, 84)        1596        input_26[0][0]                   
__________________________________________________________________________________________________
gru_25 (GRU)                    (None, 38)           39102       embedding_25[0][0]               
__________________________________________________________________________________________________
gru_26 (GRU)                    (None, 147)          102312      embedding_26[0][0]               
__________________________________________________________________________________________________
dropout_37 (Dropout)            (None, 38)           0           gru_25[0][0]                     
__________________________________________________________________________________________________
dropout_38 (Dropout)            (None, 147)          0           gru_26[0][0]                     
__________________________________________________________________________________________________
concatenate_13 (Concatenate)    (None, 185)          0           dropout_37[0][0]                 
                                                                 dropout_38[0][0]                 
__________________________________________________________________________________________________
dense_25 (Dense)                (None, 41)           7626        concatenate_13[0][0]             
__________________________________________________________________________________________________
dropout_39 (Dropout)            (None, 41)           0           dense_25[0][0]                   
__________________________________________________________________________________________________
dense_26 (Dense)                (None, 4)            168         dropout_39[0][0]                 
==================================================================================================
Total params: 508,916
Trainable params: 508,916
Non-trainable params: 0
__________________________________________________________________________________________________
None
	data size before sampling = 181825
	data size after sampling = 356484
	data size before focused sampling = 356484
…
	Training (Important) : 2305, Test : 3117
	MWEs in tain : 1412, occurrences : 2542
	Impotant words in tain : 1131
	MWE length mean : 2.22
	Seen MWEs : 343 (62 %)
	New MWEs : 210 (37 %)
==================================================================================================
__________________________________________________________________________________________________
Layer (type)                    Output Shape         Param #     Connected to                     
==================================================================================================
input_29 (InputLayer)           (None, 7)            0                                            
__________________________________________________________________________________________________
input_30 (InputLayer)           (None, 7)            0                                            
__________________________________________________________________________________________________
embedding_29 (Embedding)        (None, 7, 304)       344736      input_29[0][0]                   
__________________________________________________________________________________________________
embedding_30 (Embedding)        (None, 7, 84)        1596        input_30[0][0]                   
__________________________________________________________________________________________________
gru_29 (GRU)                    (None, 38)           39102       embedding_29[0][0]               
__________________________________________________________________________________________________
gru_30 (GRU)                    (None, 147)          102312      embedding_30[0][0]               
__________________________________________________________________________________________________
dropout_43 (Dropout)            (None, 38)           0           gru_29[0][0]                     
__________________________________________________________________________________________________
dropout_44 (Dropout)            (None, 147)          0           gru_30[0][0]                     
__________________________________________________________________________________________________
concatenate_15 (Concatenate)    (None, 185)          0           dropout_43[0][0]                 
                                                                 dropout_44[0][0]                 
__________________________________________________________________________________________________
dense_29 (Dense)                (None, 41)           7626        concatenate_15[0][0]             
__________________________________________________________________________________________________
dropout_45 (Dropout)            (None, 41)           0           dense_29[0][0]                   
__________________________________________________________________________________________________
dense_30 (Dense)                (None, 4)            168         dropout_45[0][0]                 
==================================================================================================
Total params: 495,540
Trainable params: 495,540
Non-trainable params: 0
__________________________________________________________________________________________________
None
	data size before sampling = 123224
	data size after sampling = 241368
	data size before focused sampling = 241368
…
	Training (Important) : 3585, Test : 1320
	MWEs in tain : 1798, occurrences : 4870
	Impotant words in tain : 1200
	MWE length mean : 2.06
	Seen MWEs : 345 (67 %)
	New MWEs : 165 (32 %)
==================================================================================================
__________________________________________________________________________________________________
Layer (type)                    Output Shape         Param #     Connected to                     
==================================================================================================
input_33 (InputLayer)           (None, 7)            0                                            
__________________________________________________________________________________________________
input_34 (InputLayer)           (None, 7)            0                                            
__________________________________________________________________________________________________
embedding_33 (Embedding)        (None, 7, 304)       365712      input_33[0][0]                   
__________________________________________________________________________________________________
embedding_34 (Embedding)        (None, 7, 84)        1176        input_34[0][0]                   
__________________________________________________________________________________________________
gru_33 (GRU)                    (None, 38)           39102       embedding_33[0][0]               
__________________________________________________________________________________________________
gru_34 (GRU)                    (None, 147)          102312      embedding_34[0][0]               
__________________________________________________________________________________________________
dropout_49 (Dropout)            (None, 38)           0           gru_33[0][0]                     
__________________________________________________________________________________________________
dropout_50 (Dropout)            (None, 147)          0           gru_34[0][0]                     
__________________________________________________________________________________________________
concatenate_17 (Concatenate)    (None, 185)          0           dropout_49[0][0]                 
                                                                 dropout_50[0][0]                 
__________________________________________________________________________________________________
dense_33 (Dense)                (None, 41)           7626        concatenate_17[0][0]             
__________________________________________________________________________________________________
dropout_51 (Dropout)            (None, 41)           0           dense_33[0][0]                   
__________________________________________________________________________________________________
dense_34 (Dense)                (None, 4)            168         dropout_51[0][0]                 
==================================================================================================
Total params: 516,096
Trainable params: 516,096
Non-trainable params: 0
__________________________________________________________________________________________________
None
	data size before sampling = 245118
	data size after sampling = 480496
	data size before focused sampling = 480496
…
	Training (Important) : 3124, Test : 1954
	MWEs in tain : 1372, occurrences : 3583
	Impotant words in tain : 1175
	MWE length mean : 2.13
	Seen MWEs : 386 (57 %)
	New MWEs : 284 (42 %)
==================================================================================================
__________________________________________________________________________________________________
Layer (type)                    Output Shape         Param #     Connected to                     
==================================================================================================
input_37 (InputLayer)           (None, 7)            0                                            
__________________________________________________________________________________________________
input_38 (InputLayer)           (None, 7)            0                                            
__________________________________________________________________________________________________
embedding_37 (Embedding)        (None, 7, 447)       526566      input_37[0][0]                   
__________________________________________________________________________________________________
embedding_38 (Embedding)        (None, 7, 41)        779         input_38[0][0]                   
__________________________________________________________________________________________________
gru_37 (GRU)                    (None, 35)           50715       embedding_37[0][0]               
__________________________________________________________________________________________________
gru_38 (GRU)                    (None, 93)           37665       embedding_38[0][0]               
__________________________________________________________________________________________________
dropout_55 (Dropout)            (None, 35)           0           gru_37[0][0]                     
__________________________________________________________________________________________________
dropout_56 (Dropout)            (None, 93)           0           gru_38[0][0]                     
__________________________________________________________________________________________________
concatenate_19 (Concatenate)    (None, 128)          0           dropout_55[0][0]                 
                                                                 dropout_56[0][0]                 
__________________________________________________________________________________________________
dense_37 (Dense)                (None, 178)          22962       concatenate_19[0][0]             
__________________________________________________________________________________________________
dropout_57 (Dropout)            (None, 178)          0           dense_37[0][0]                   
__________________________________________________________________________________________________
dense_38 (Dense)                (None, 4)            716         dropout_57[0][0]                 
==================================================================================================
Total params: 639,403
Trainable params: 639,403
Non-trainable params: 0
__________________________________________________________________________________________________
None
	data size before sampling = 181825
	data size after sampling = 356484
	data size before focused sampling = 356484
…
	Training (Important) : 2305, Test : 3117
	MWEs in tain : 1412, occurrences : 2542
	Impotant words in tain : 1131
	MWE length mean : 2.22
	Seen MWEs : 343 (62 %)
	New MWEs : 210 (37 %)
==================================================================================================
__________________________________________________________________________________________________
Layer (type)                    Output Shape         Param #     Connected to                     
==================================================================================================
input_41 (InputLayer)           (None, 7)            0                                            
__________________________________________________________________________________________________
input_42 (InputLayer)           (None, 7)            0                                            
__________________________________________________________________________________________________
embedding_41 (Embedding)        (None, 7, 447)       506898      input_41[0][0]                   
__________________________________________________________________________________________________
embedding_42 (Embedding)        (None, 7, 41)        779         input_42[0][0]                   
__________________________________________________________________________________________________
gru_41 (GRU)                    (None, 35)           50715       embedding_41[0][0]               
__________________________________________________________________________________________________
gru_42 (GRU)                    (None, 93)           37665       embedding_42[0][0]               
__________________________________________________________________________________________________
dropout_61 (Dropout)            (None, 35)           0           gru_41[0][0]                     
__________________________________________________________________________________________________
dropout_62 (Dropout)            (None, 93)           0           gru_42[0][0]                     
__________________________________________________________________________________________________
concatenate_21 (Concatenate)    (None, 128)          0           dropout_61[0][0]                 
                                                                 dropout_62[0][0]                 
__________________________________________________________________________________________________
dense_41 (Dense)                (None, 178)          22962       concatenate_21[0][0]             
__________________________________________________________________________________________________
dropout_63 (Dropout)            (None, 178)          0           dense_41[0][0]                   
__________________________________________________________________________________________________
dense_42 (Dense)                (None, 4)            716         dropout_63[0][0]                 
==================================================================================================
Total params: 619,735
Trainable params: 619,735
Non-trainable params: 0
__________________________________________________________________________________________________
None
	data size before sampling = 123224
	data size after sampling = 241368
	data size before focused sampling = 241368
…
	Training (Important) : 3585, Test : 1320
	MWEs in tain : 1798, occurrences : 4870
	Impotant words in tain : 1200
	MWE length mean : 2.06
	Seen MWEs : 345 (67 %)
	New MWEs : 165 (32 %)
==================================================================================================
__________________________________________________________________________________________________
Layer (type)                    Output Shape         Param #     Connected to                     
==================================================================================================
input_45 (InputLayer)           (None, 7)            0                                            
__________________________________________________________________________________________________
input_46 (InputLayer)           (None, 7)            0                                            
__________________________________________________________________________________________________
embedding_45 (Embedding)        (None, 7, 447)       537741      input_45[0][0]                   
__________________________________________________________________________________________________
embedding_46 (Embedding)        (None, 7, 41)        574         input_46[0][0]                   
__________________________________________________________________________________________________
gru_45 (GRU)                    (None, 35)           50715       embedding_45[0][0]               
__________________________________________________________________________________________________
gru_46 (GRU)                    (None, 93)           37665       embedding_46[0][0]               
__________________________________________________________________________________________________
dropout_67 (Dropout)            (None, 35)           0           gru_45[0][0]                     
__________________________________________________________________________________________________
dropout_68 (Dropout)            (None, 93)           0           gru_46[0][0]                     
__________________________________________________________________________________________________
concatenate_23 (Concatenate)    (None, 128)          0           dropout_67[0][0]                 
                                                                 dropout_68[0][0]                 
__________________________________________________________________________________________________
dense_45 (Dense)                (None, 178)          22962       concatenate_23[0][0]             
__________________________________________________________________________________________________
dropout_69 (Dropout)            (None, 178)          0           dense_45[0][0]                   
__________________________________________________________________________________________________
dense_46 (Dense)                (None, 4)            716         dropout_69[0][0]                 
==================================================================================================
Total params: 650,373
Trainable params: 650,373
Non-trainable params: 0
__________________________________________________________________________________________________
None
	data size before sampling = 245118
	data size after sampling = 480496
	data size before focused sampling = 480496
…
	Training (Important) : 3124, Test : 1954
	MWEs in tain : 1372, occurrences : 3583
	Impotant words in tain : 1175
	MWE length mean : 2.13
	Seen MWEs : 386 (57 %)
	New MWEs : 284 (42 %)
==================================================================================================
__________________________________________________________________________________________________
Layer (type)                    Output Shape         Param #     Connected to                     
==================================================================================================
input_49 (InputLayer)           (None, 7)            0                                            
__________________________________________________________________________________________________
input_50 (InputLayer)           (None, 7)            0                                            
__________________________________________________________________________________________________
embedding_49 (Embedding)        (None, 7, 344)       405232      input_49[0][0]                   
__________________________________________________________________________________________________
embedding_50 (Embedding)        (None, 7, 46)        874         input_50[0][0]                   
__________________________________________________________________________________________________
gru_49 (GRU)                    (None, 196)          318108      embedding_49[0][0]               
__________________________________________________________________________________________________
gru_50 (GRU)                    (None, 127)          66294       embedding_50[0][0]               
__________________________________________________________________________________________________
dropout_73 (Dropout)            (None, 196)          0           gru_49[0][0]                     
__________________________________________________________________________________________________
dropout_74 (Dropout)            (None, 127)          0           gru_50[0][0]                     
__________________________________________________________________________________________________
concatenate_25 (Concatenate)    (None, 323)          0           dropout_73[0][0]                 
                                                                 dropout_74[0][0]                 
__________________________________________________________________________________________________
dense_49 (Dense)                (None, 134)          43416       concatenate_25[0][0]             
__________________________________________________________________________________________________
dropout_75 (Dropout)            (None, 134)          0           dense_49[0][0]                   
__________________________________________________________________________________________________
dense_50 (Dense)                (None, 4)            540         dropout_75[0][0]                 
==================================================================================================
Total params: 834,464
Trainable params: 834,464
Non-trainable params: 0
__________________________________________________________________________________________________
None
	data size before sampling = 181825
	data size after sampling = 356484
	data size before focused sampling = 356484
…
	Training (Important) : 2305, Test : 3117
	MWEs in tain : 1412, occurrences : 2542
	Impotant words in tain : 1131
	MWE length mean : 2.22
	Seen MWEs : 343 (62 %)
	New MWEs : 210 (37 %)
==================================================================================================
__________________________________________________________________________________________________
Layer (type)                    Output Shape         Param #     Connected to                     
==================================================================================================
input_53 (InputLayer)           (None, 7)            0                                            
__________________________________________________________________________________________________
input_54 (InputLayer)           (None, 7)            0                                            
__________________________________________________________________________________________________
embedding_53 (Embedding)        (None, 7, 344)       390096      input_53[0][0]                   
__________________________________________________________________________________________________
embedding_54 (Embedding)        (None, 7, 46)        874         input_54[0][0]                   
__________________________________________________________________________________________________
gru_53 (GRU)                    (None, 196)          318108      embedding_53[0][0]               
__________________________________________________________________________________________________
gru_54 (GRU)                    (None, 127)          66294       embedding_54[0][0]               
__________________________________________________________________________________________________
dropout_79 (Dropout)            (None, 196)          0           gru_53[0][0]                     
__________________________________________________________________________________________________
dropout_80 (Dropout)            (None, 127)          0           gru_54[0][0]                     
__________________________________________________________________________________________________
concatenate_27 (Concatenate)    (None, 323)          0           dropout_79[0][0]                 
                                                                 dropout_80[0][0]                 
__________________________________________________________________________________________________
dense_53 (Dense)                (None, 134)          43416       concatenate_27[0][0]             
__________________________________________________________________________________________________
dropout_81 (Dropout)            (None, 134)          0           dense_53[0][0]                   
__________________________________________________________________________________________________
dense_54 (Dense)                (None, 4)            540         dropout_81[0][0]                 
==================================================================================================
Total params: 819,328
Trainable params: 819,328
Non-trainable params: 0
__________________________________________________________________________________________________
None
	data size before sampling = 123224
	data size after sampling = 241368
	data size before focused sampling = 241368
…
	Training (Important) : 3585, Test : 1320
	MWEs in tain : 1798, occurrences : 4870
	Impotant words in tain : 1200
	MWE length mean : 2.06
	Seen MWEs : 345 (67 %)
	New MWEs : 165 (32 %)
==================================================================================================
__________________________________________________________________________________________________
Layer (type)                    Output Shape         Param #     Connected to                     
==================================================================================================
input_57 (InputLayer)           (None, 7)            0                                            
__________________________________________________________________________________________________
input_58 (InputLayer)           (None, 7)            0                                            
__________________________________________________________________________________________________
embedding_57 (Embedding)        (None, 7, 344)       413832      input_57[0][0]                   
__________________________________________________________________________________________________
embedding_58 (Embedding)        (None, 7, 46)        644         input_58[0][0]                   
__________________________________________________________________________________________________
gru_57 (GRU)                    (None, 196)          318108      embedding_57[0][0]               
__________________________________________________________________________________________________
gru_58 (GRU)                    (None, 127)          66294       embedding_58[0][0]               
__________________________________________________________________________________________________
dropout_85 (Dropout)            (None, 196)          0           gru_57[0][0]                     
__________________________________________________________________________________________________
dropout_86 (Dropout)            (None, 127)          0           gru_58[0][0]                     
__________________________________________________________________________________________________
concatenate_29 (Concatenate)    (None, 323)          0           dropout_85[0][0]                 
                                                                 dropout_86[0][0]                 
__________________________________________________________________________________________________
dense_57 (Dense)                (None, 134)          43416       concatenate_29[0][0]             
__________________________________________________________________________________________________
dropout_87 (Dropout)            (None, 134)          0           dense_57[0][0]                   
__________________________________________________________________________________________________
dense_58 (Dense)                (None, 4)            540         dropout_87[0][0]                 
==================================================================================================
Total params: 842,834
Trainable params: 842,834
Non-trainable params: 0
__________________________________________________________________________________________________
None
	data size before sampling = 245118
	data size after sampling = 480496
	data size before focused sampling = 480496
…
	Training (Important) : 3124, Test : 1954
	MWEs in tain : 1372, occurrences : 3583
	Impotant words in tain : 1175
	MWE length mean : 2.13
	Seen MWEs : 386 (57 %)
	New MWEs : 284 (42 %)
==================================================================================================
__________________________________________________________________________________________________
Layer (type)                    Output Shape         Param #     Connected to                     
==================================================================================================
input_61 (InputLayer)           (None, 7)            0                                            
__________________________________________________________________________________________________
input_62 (InputLayer)           (None, 7)            0                                            
__________________________________________________________________________________________________
embedding_61 (Embedding)        (None, 7, 507)       597246      input_61[0][0]                   
__________________________________________________________________________________________________
embedding_62 (Embedding)        (None, 7, 92)        1748        input_62[0][0]                   
__________________________________________________________________________________________________
gru_61 (GRU)                    (None, 50)           83700       embedding_61[0][0]               
__________________________________________________________________________________________________
gru_62 (GRU)                    (None, 86)           46182       embedding_62[0][0]               
__________________________________________________________________________________________________
dropout_91 (Dropout)            (None, 50)           0           gru_61[0][0]                     
__________________________________________________________________________________________________
dropout_92 (Dropout)            (None, 86)           0           gru_62[0][0]                     
__________________________________________________________________________________________________
concatenate_31 (Concatenate)    (None, 136)          0           dropout_91[0][0]                 
                                                                 dropout_92[0][0]                 
__________________________________________________________________________________________________
dense_61 (Dense)                (None, 10)           1370        concatenate_31[0][0]             
__________________________________________________________________________________________________
dropout_93 (Dropout)            (None, 10)           0           dense_61[0][0]                   
__________________________________________________________________________________________________
dense_62 (Dense)                (None, 4)            44          dropout_93[0][0]                 
==================================================================================================
Total params: 730,290
Trainable params: 730,290
Non-trainable params: 0
__________________________________________________________________________________________________
None
	data size before sampling = 181825
	data size after sampling = 356484
	data size before focused sampling = 356484
…
	Training (Important) : 2305, Test : 3117
	MWEs in tain : 1412, occurrences : 2542
	Impotant words in tain : 1131
	MWE length mean : 2.22
	Seen MWEs : 343 (62 %)
	New MWEs : 210 (37 %)
==================================================================================================
__________________________________________________________________________________________________
Layer (type)                    Output Shape         Param #     Connected to                     
==================================================================================================
input_65 (InputLayer)           (None, 7)            0                                            
__________________________________________________________________________________________________
input_66 (InputLayer)           (None, 7)            0                                            
__________________________________________________________________________________________________
embedding_65 (Embedding)        (None, 7, 507)       574938      input_65[0][0]                   
__________________________________________________________________________________________________
embedding_66 (Embedding)        (None, 7, 92)        1748        input_66[0][0]                   
__________________________________________________________________________________________________
gru_65 (GRU)                    (None, 50)           83700       embedding_65[0][0]               
__________________________________________________________________________________________________
gru_66 (GRU)                    (None, 86)           46182       embedding_66[0][0]               
__________________________________________________________________________________________________
dropout_97 (Dropout)            (None, 50)           0           gru_65[0][0]                     
__________________________________________________________________________________________________
dropout_98 (Dropout)            (None, 86)           0           gru_66[0][0]                     
__________________________________________________________________________________________________
concatenate_33 (Concatenate)    (None, 136)          0           dropout_97[0][0]                 
                                                                 dropout_98[0][0]                 
__________________________________________________________________________________________________
dense_65 (Dense)                (None, 10)           1370        concatenate_33[0][0]             
__________________________________________________________________________________________________
dropout_99 (Dropout)            (None, 10)           0           dense_65[0][0]                   
__________________________________________________________________________________________________
dense_66 (Dense)                (None, 4)            44          dropout_99[0][0]                 
==================================================================================================
Total params: 707,982
Trainable params: 707,982
Non-trainable params: 0
__________________________________________________________________________________________________
None
	data size before sampling = 123224
	data size after sampling = 241368
	data size before focused sampling = 241368
…
	Training (Important) : 3585, Test : 1320
	MWEs in tain : 1798, occurrences : 4870
	Impotant words in tain : 1200
	MWE length mean : 2.06
	Seen MWEs : 345 (67 %)
	New MWEs : 165 (32 %)
==================================================================================================
__________________________________________________________________________________________________
Layer (type)                    Output Shape         Param #     Connected to                     
==================================================================================================
input_69 (InputLayer)           (None, 7)            0                                            
__________________________________________________________________________________________________
input_70 (InputLayer)           (None, 7)            0                                            
__________________________________________________________________________________________________
embedding_69 (Embedding)        (None, 7, 507)       609921      input_69[0][0]                   
__________________________________________________________________________________________________
embedding_70 (Embedding)        (None, 7, 92)        1288        input_70[0][0]                   
__________________________________________________________________________________________________
gru_69 (GRU)                    (None, 50)           83700       embedding_69[0][0]               
__________________________________________________________________________________________________
gru_70 (GRU)                    (None, 86)           46182       embedding_70[0][0]               
__________________________________________________________________________________________________
dropout_103 (Dropout)           (None, 50)           0           gru_69[0][0]                     
__________________________________________________________________________________________________
dropout_104 (Dropout)           (None, 86)           0           gru_70[0][0]                     
__________________________________________________________________________________________________
concatenate_35 (Concatenate)    (None, 136)          0           dropout_103[0][0]                
                                                                 dropout_104[0][0]                
__________________________________________________________________________________________________
dense_69 (Dense)                (None, 10)           1370        concatenate_35[0][0]             
__________________________________________________________________________________________________
dropout_105 (Dropout)           (None, 10)           0           dense_69[0][0]                   
__________________________________________________________________________________________________
dense_70 (Dense)                (None, 4)            44          dropout_105[0][0]                
==================================================================================================
Total params: 742,505
Trainable params: 742,505
Non-trainable params: 0
__________________________________________________________________________________________________
None
	data size before sampling = 245118
	data size after sampling = 480496
	data size before focused sampling = 480496
…
	Training (Important) : 3124, Test : 1954
	MWEs in tain : 1372, occurrences : 3583
	Impotant words in tain : 1175
	MWE length mean : 2.13
	Seen MWEs : 386 (57 %)
	New MWEs : 284 (42 %)
==================================================================================================
__________________________________________________________________________________________________
Layer (type)                    Output Shape         Param #     Connected to                     
==================================================================================================
input_73 (InputLayer)           (None, 7)            0                                            
__________________________________________________________________________________________________
input_74 (InputLayer)           (None, 7)            0                                            
__________________________________________________________________________________________________
embedding_73 (Embedding)        (None, 7, 399)       470022      input_73[0][0]                   
__________________________________________________________________________________________________
embedding_74 (Embedding)        (None, 7, 37)        703         input_74[0][0]                   
__________________________________________________________________________________________________
gru_73 (GRU)                    (None, 199)          357603      embedding_73[0][0]               
__________________________________________________________________________________________________
gru_74 (GRU)                    (None, 62)           18600       embedding_74[0][0]               
__________________________________________________________________________________________________
dropout_109 (Dropout)           (None, 199)          0           gru_73[0][0]                     
__________________________________________________________________________________________________
dropout_110 (Dropout)           (None, 62)           0           gru_74[0][0]                     
__________________________________________________________________________________________________
concatenate_37 (Concatenate)    (None, 261)          0           dropout_109[0][0]                
                                                                 dropout_110[0][0]                
__________________________________________________________________________________________________
dense_73 (Dense)                (None, 162)          42444       concatenate_37[0][0]             
__________________________________________________________________________________________________
dropout_111 (Dropout)           (None, 162)          0           dense_73[0][0]                   
__________________________________________________________________________________________________
dense_74 (Dense)                (None, 4)            652         dropout_111[0][0]                
==================================================================================================
Total params: 890,024
Trainable params: 890,024
Non-trainable params: 0
__________________________________________________________________________________________________
None
	data size before sampling = 181825
	data size after sampling = 356484
	data size before focused sampling = 356484
…
	Training (Important) : 2305, Test : 3117
	MWEs in tain : 1412, occurrences : 2542
	Impotant words in tain : 1131
	MWE length mean : 2.22
	Seen MWEs : 343 (62 %)
	New MWEs : 210 (37 %)
==================================================================================================
__________________________________________________________________________________________________
Layer (type)                    Output Shape         Param #     Connected to                     
==================================================================================================
input_77 (InputLayer)           (None, 7)            0                                            
__________________________________________________________________________________________________
input_78 (InputLayer)           (None, 7)            0                                            
__________________________________________________________________________________________________
embedding_77 (Embedding)        (None, 7, 399)       452466      input_77[0][0]                   
__________________________________________________________________________________________________
embedding_78 (Embedding)        (None, 7, 37)        703         input_78[0][0]                   
__________________________________________________________________________________________________
gru_77 (GRU)                    (None, 199)          357603      embedding_77[0][0]               
__________________________________________________________________________________________________
gru_78 (GRU)                    (None, 62)           18600       embedding_78[0][0]               
__________________________________________________________________________________________________
dropout_115 (Dropout)           (None, 199)          0           gru_77[0][0]                     
__________________________________________________________________________________________________
dropout_116 (Dropout)           (None, 62)           0           gru_78[0][0]                     
__________________________________________________________________________________________________
concatenate_39 (Concatenate)    (None, 261)          0           dropout_115[0][0]                
                                                                 dropout_116[0][0]                
__________________________________________________________________________________________________
dense_77 (Dense)                (None, 162)          42444       concatenate_39[0][0]             
__________________________________________________________________________________________________
dropout_117 (Dropout)           (None, 162)          0           dense_77[0][0]                   
__________________________________________________________________________________________________
dense_78 (Dense)                (None, 4)            652         dropout_117[0][0]                
==================================================================================================
Total params: 872,468
Trainable params: 872,468
Non-trainable params: 0
__________________________________________________________________________________________________
None
	data size before sampling = 123224
	data size after sampling = 241368
	data size before focused sampling = 241368
…
	Training (Important) : 3585, Test : 1320
	MWEs in tain : 1798, occurrences : 4870
	Impotant words in tain : 1200
	MWE length mean : 2.06
	Seen MWEs : 345 (67 %)
	New MWEs : 165 (32 %)
==================================================================================================
__________________________________________________________________________________________________
Layer (type)                    Output Shape         Param #     Connected to                     
==================================================================================================
input_81 (InputLayer)           (None, 7)            0                                            
__________________________________________________________________________________________________
input_82 (InputLayer)           (None, 7)            0                                            
__________________________________________________________________________________________________
embedding_81 (Embedding)        (None, 7, 399)       479997      input_81[0][0]                   
__________________________________________________________________________________________________
embedding_82 (Embedding)        (None, 7, 37)        518         input_82[0][0]                   
__________________________________________________________________________________________________
gru_81 (GRU)                    (None, 199)          357603      embedding_81[0][0]               
__________________________________________________________________________________________________
gru_82 (GRU)                    (None, 62)           18600       embedding_82[0][0]               
__________________________________________________________________________________________________
dropout_121 (Dropout)           (None, 199)          0           gru_81[0][0]                     
__________________________________________________________________________________________________
dropout_122 (Dropout)           (None, 62)           0           gru_82[0][0]                     
__________________________________________________________________________________________________
concatenate_41 (Concatenate)    (None, 261)          0           dropout_121[0][0]                
                                                                 dropout_122[0][0]                
__________________________________________________________________________________________________
dense_81 (Dense)                (None, 162)          42444       concatenate_41[0][0]             
__________________________________________________________________________________________________
dropout_123 (Dropout)           (None, 162)          0           dense_81[0][0]                   
__________________________________________________________________________________________________
dense_82 (Dense)                (None, 4)            652         dropout_123[0][0]                
==================================================================================================
Total params: 899,814
Trainable params: 899,814
Non-trainable params: 0
__________________________________________________________________________________________________
None
	data size before sampling = 245118
	data size after sampling = 480496
	data size before focused sampling = 480496
…
