…
# Train = 16092
# Test = 1788
# Tokens vocabulary = 20142
# POSs vocabulary = 236
# Padding = False
# Embedding = True
# Initialisation = False
# Concatenation = False
# Lemma  = False
# Token/Lemma emb = 175
# POS = True
# POS emb = 64
# Features = False
# Parameters = 3743002
__________________________________________________________________________________________________
Layer (type)                    Output Shape         Param #     Connected to                     
==================================================================================================
input_1 (InputLayer)            (None, 4)            0                                            
__________________________________________________________________________________________________
input_2 (InputLayer)            (None, 4)            0                                            
__________________________________________________________________________________________________
embedding_1 (Embedding)         (None, 4, 175)       3524850     input_1[0][0]                    
__________________________________________________________________________________________________
embedding_2 (Embedding)         (None, 4, 64)        15104       input_2[0][0]                    
__________________________________________________________________________________________________
flatten_1 (Flatten)             (None, 700)          0           embedding_1[0][0]                
__________________________________________________________________________________________________
flatten_2 (Flatten)             (None, 256)          0           embedding_2[0][0]                
__________________________________________________________________________________________________
concatenate_1 (Concatenate)     (None, 956)          0           flatten_1[0][0]                  
                                                                 flatten_2[0][0]                  
__________________________________________________________________________________________________
dense_1 (Dense)                 (None, 192)          183744      concatenate_1[0][0]              
__________________________________________________________________________________________________
dropout_1 (Dropout)             (None, 192)          0           dense_1[0][0]                    
__________________________________________________________________________________________________
dense_2 (Dense)                 (None, 96)           18528       dropout_1[0][0]                  
__________________________________________________________________________________________________
dropout_2 (Dropout)             (None, 96)           0           dense_2[0][0]                    
__________________________________________________________________________________________________
dense_3 (Dense)                 (None, 8)            776         dropout_2[0][0]                  
==================================================================================================
Total params: 3,743,002
Trainable params: 3,743,002
Non-trainable params: 0
__________________________________________________________________________________________________
None
Train on 713107 samples, validate on 79235 samples
Epoch 1/15
 - 12s - loss: 0.0340 - acc: 0.9880 - val_loss: 0.0255 - val_acc: 0.9896
…
# Train = 16092
# Test = 1788
# Tokens vocabulary = 20142
# POSs vocabulary = 236
# Padding = False
# Embedding = True
# Initialisation = False
# Concatenation = False
# Lemma  = False
# Token/Lemma emb = 175
# POS = True
# POS emb = 64
# Features = False
# Parameters = 3749434
__________________________________________________________________________________________________
Layer (type)                    Output Shape         Param #     Connected to                     
==================================================================================================
input_21 (InputLayer)           (None, 4)            0                                            
__________________________________________________________________________________________________
input_22 (InputLayer)           (None, 4)            0                                            
__________________________________________________________________________________________________
embedding_21 (Embedding)        (None, 4, 175)       3524850     input_21[0][0]                   
__________________________________________________________________________________________________
embedding_22 (Embedding)        (None, 4, 64)        15104       input_22[0][0]                   
__________________________________________________________________________________________________
flatten_21 (Flatten)            (None, 700)          0           embedding_21[0][0]               
__________________________________________________________________________________________________
flatten_22 (Flatten)            (None, 256)          0           embedding_22[0][0]               
__________________________________________________________________________________________________
concatenate_11 (Concatenate)    (None, 956)          0           flatten_21[0][0]                 
                                                                 flatten_22[0][0]                 
__________________________________________________________________________________________________
dense_31 (Dense)                (None, 192)          183744      concatenate_11[0][0]             
__________________________________________________________________________________________________
dropout_21 (Dropout)            (None, 192)          0           dense_31[0][0]                   
__________________________________________________________________________________________________
dense_32 (Dense)                (None, 128)          24704       dropout_21[0][0]                 
__________________________________________________________________________________________________
dropout_22 (Dropout)            (None, 128)          0           dense_32[0][0]                   
__________________________________________________________________________________________________
dense_33 (Dense)                (None, 8)            1032        dropout_22[0][0]                 
==================================================================================================
Total params: 3,749,434
Trainable params: 3,749,434
Non-trainable params: 0
__________________________________________________________________________________________________
None
Train on 713107 samples, validate on 79235 samples
Epoch 1/15
 - 12s - loss: 0.0338 - acc: 0.9883 - val_loss: 0.0264 - val_acc: 0.9889
…
# Train = 16092
# Test = 1788
# Tokens vocabulary = 20142
# POSs vocabulary = 236
# Padding = False
# Embedding = True
# Initialisation = False
# Concatenation = False
# Lemma  = False
# Token/Lemma emb = 175
# POS = True
# POS emb = 64
# Features = False
# Parameters = 3762298
__________________________________________________________________________________________________
Layer (type)                    Output Shape         Param #     Connected to                     
==================================================================================================
input_41 (InputLayer)           (None, 4)            0                                            
__________________________________________________________________________________________________
input_42 (InputLayer)           (None, 4)            0                                            
__________________________________________________________________________________________________
embedding_41 (Embedding)        (None, 4, 175)       3524850     input_41[0][0]                   
__________________________________________________________________________________________________
embedding_42 (Embedding)        (None, 4, 64)        15104       input_42[0][0]                   
__________________________________________________________________________________________________
flatten_41 (Flatten)            (None, 700)          0           embedding_41[0][0]               
__________________________________________________________________________________________________
flatten_42 (Flatten)            (None, 256)          0           embedding_42[0][0]               
__________________________________________________________________________________________________
concatenate_21 (Concatenate)    (None, 956)          0           flatten_41[0][0]                 
                                                                 flatten_42[0][0]                 
__________________________________________________________________________________________________
dense_61 (Dense)                (None, 192)          183744      concatenate_21[0][0]             
__________________________________________________________________________________________________
dropout_41 (Dropout)            (None, 192)          0           dense_61[0][0]                   
__________________________________________________________________________________________________
dense_62 (Dense)                (None, 192)          37056       dropout_41[0][0]                 
__________________________________________________________________________________________________
dropout_42 (Dropout)            (None, 192)          0           dense_62[0][0]                   
__________________________________________________________________________________________________
dense_63 (Dense)                (None, 8)            1544        dropout_42[0][0]                 
==================================================================================================
Total params: 3,762,298
Trainable params: 3,762,298
Non-trainable params: 0
__________________________________________________________________________________________________
None
Train on 713107 samples, validate on 79235 samples
Epoch 1/15
 - 12s - loss: 0.0328 - acc: 0.9882 - val_loss: 0.0261 - val_acc: 0.9890
…
# Train = 16092
# Test = 1788
# Tokens vocabulary = 20142
# POSs vocabulary = 236
# Padding = False
# Embedding = True
# Initialisation = False
# Concatenation = False
# Lemma  = False
# Token/Lemma emb = 175
# POS = True
# POS emb = 64
# Features = False
# Parameters = 3775162
__________________________________________________________________________________________________
Layer (type)                    Output Shape         Param #     Connected to                     
==================================================================================================
input_61 (InputLayer)           (None, 4)            0                                            
__________________________________________________________________________________________________
input_62 (InputLayer)           (None, 4)            0                                            
__________________________________________________________________________________________________
embedding_61 (Embedding)        (None, 4, 175)       3524850     input_61[0][0]                   
__________________________________________________________________________________________________
embedding_62 (Embedding)        (None, 4, 64)        15104       input_62[0][0]                   
__________________________________________________________________________________________________
flatten_61 (Flatten)            (None, 700)          0           embedding_61[0][0]               
__________________________________________________________________________________________________
flatten_62 (Flatten)            (None, 256)          0           embedding_62[0][0]               
__________________________________________________________________________________________________
concatenate_31 (Concatenate)    (None, 956)          0           flatten_61[0][0]                 
                                                                 flatten_62[0][0]                 
__________________________________________________________________________________________________
dense_91 (Dense)                (None, 192)          183744      concatenate_31[0][0]             
__________________________________________________________________________________________________
dropout_61 (Dropout)            (None, 192)          0           dense_91[0][0]                   
__________________________________________________________________________________________________
dense_92 (Dense)                (None, 256)          49408       dropout_61[0][0]                 
__________________________________________________________________________________________________
dropout_62 (Dropout)            (None, 256)          0           dense_92[0][0]                   
__________________________________________________________________________________________________
dense_93 (Dense)                (None, 8)            2056        dropout_62[0][0]                 
==================================================================================================
Total params: 3,775,162
Trainable params: 3,775,162
Non-trainable params: 0
__________________________________________________________________________________________________
None
Train on 713107 samples, validate on 79235 samples
Epoch 1/15
 - 12s - loss: 0.0328 - acc: 0.9885 - val_loss: 0.0269 - val_acc: 0.9891
…
# Train = 16092
# Test = 1788
# Tokens vocabulary = 20142
# POSs vocabulary = 236
# Padding = False
# Embedding = True
# Initialisation = False
# Concatenation = False
# Lemma  = False
# Token/Lemma emb = 175
# POS = True
# POS emb = 64
# Features = False
# Parameters = 3800890
__________________________________________________________________________________________________
Layer (type)                    Output Shape         Param #     Connected to                     
==================================================================================================
input_81 (InputLayer)           (None, 4)            0                                            
__________________________________________________________________________________________________
input_82 (InputLayer)           (None, 4)            0                                            
__________________________________________________________________________________________________
embedding_81 (Embedding)        (None, 4, 175)       3524850     input_81[0][0]                   
__________________________________________________________________________________________________
embedding_82 (Embedding)        (None, 4, 64)        15104       input_82[0][0]                   
__________________________________________________________________________________________________
flatten_81 (Flatten)            (None, 700)          0           embedding_81[0][0]               
__________________________________________________________________________________________________
flatten_82 (Flatten)            (None, 256)          0           embedding_82[0][0]               
__________________________________________________________________________________________________
concatenate_41 (Concatenate)    (None, 956)          0           flatten_81[0][0]                 
                                                                 flatten_82[0][0]                 
__________________________________________________________________________________________________
dense_121 (Dense)               (None, 192)          183744      concatenate_41[0][0]             
__________________________________________________________________________________________________
dropout_81 (Dropout)            (None, 192)          0           dense_121[0][0]                  
__________________________________________________________________________________________________
dense_122 (Dense)               (None, 384)          74112       dropout_81[0][0]                 
__________________________________________________________________________________________________
dropout_82 (Dropout)            (None, 384)          0           dense_122[0][0]                  
__________________________________________________________________________________________________
dense_123 (Dense)               (None, 8)            3080        dropout_82[0][0]                 
==================================================================================================
Total params: 3,800,890
Trainable params: 3,800,890
Non-trainable params: 0
__________________________________________________________________________________________________
None
Train on 713107 samples, validate on 79235 samples
Epoch 1/15
 - 13s - loss: 0.0326 - acc: 0.9882 - val_loss: 0.0266 - val_acc: 0.9893
…
