…
	Training (Important) : 3124, Test : 1954
	MWEs in tain : 1372, occurrences : 3583
	Impotant words in tain : 1175
	MWE length mean : 2.13
	Seen MWEs : 386 (57 %)
	New MWEs : 284 (42 %)
==================================================================================================
__________________________________________________________________________________________________
Layer (type)                    Output Shape         Param #     Connected to                     
==================================================================================================
input_1 (InputLayer)            (None, 7)            0                                            
__________________________________________________________________________________________________
input_2 (InputLayer)            (None, 7)            0                                            
__________________________________________________________________________________________________
embedding_1 (Embedding)         (None, 7, 356)       419368      input_1[0][0]                    
__________________________________________________________________________________________________
embedding_2 (Embedding)         (None, 7, 19)        361         input_2[0][0]                    
__________________________________________________________________________________________________
gru_1 (GRU)                     (None, 24)           27432       embedding_1[0][0]                
__________________________________________________________________________________________________
gru_2 (GRU)                     (None, 43)           8127        embedding_2[0][0]                
__________________________________________________________________________________________________
dropout_1 (Dropout)             (None, 24)           0           gru_1[0][0]                      
__________________________________________________________________________________________________
dropout_2 (Dropout)             (None, 43)           0           gru_2[0][0]                      
__________________________________________________________________________________________________
concatenate_1 (Concatenate)     (None, 67)           0           dropout_1[0][0]                  
                                                                 dropout_2[0][0]                  
__________________________________________________________________________________________________
dense_1 (Dense)                 (None, 56)           3808        concatenate_1[0][0]              
__________________________________________________________________________________________________
dropout_3 (Dropout)             (None, 56)           0           dense_1[0][0]                    
__________________________________________________________________________________________________
dense_2 (Dense)                 (None, 4)            228         dropout_3[0][0]                  
==================================================================================================
Total params: 459,324
Trainable params: 459,324
Non-trainable params: 0
__________________________________________________________________________________________________
None
Train on 320835 samples, validate on 35649 samples
Epoch 1/20
 - 77s - loss: 0.0784 - acc: 0.9767 - val_loss: 0.0430 - val_acc: 0.9997
…
	Training (Important) : 2305, Test : 3117
	MWEs in tain : 1396, occurrences : 2518
	Impotant words in tain : 1131
	MWE length mean : 2.22
	Seen MWEs : 340 (61 %)
	New MWEs : 213 (38 %)
==================================================================================================
__________________________________________________________________________________________________
Layer (type)                    Output Shape         Param #     Connected to                     
==================================================================================================
input_3 (InputLayer)            (None, 7)            0                                            
__________________________________________________________________________________________________
input_4 (InputLayer)            (None, 7)            0                                            
__________________________________________________________________________________________________
embedding_3 (Embedding)         (None, 7, 356)       403704      input_3[0][0]                    
__________________________________________________________________________________________________
embedding_4 (Embedding)         (None, 7, 19)        361         input_4[0][0]                    
__________________________________________________________________________________________________
gru_3 (GRU)                     (None, 24)           27432       embedding_3[0][0]                
__________________________________________________________________________________________________
gru_4 (GRU)                     (None, 43)           8127        embedding_4[0][0]                
__________________________________________________________________________________________________
dropout_4 (Dropout)             (None, 24)           0           gru_3[0][0]                      
__________________________________________________________________________________________________
dropout_5 (Dropout)             (None, 43)           0           gru_4[0][0]                      
__________________________________________________________________________________________________
concatenate_2 (Concatenate)     (None, 67)           0           dropout_4[0][0]                  
                                                                 dropout_5[0][0]                  
__________________________________________________________________________________________________
dense_3 (Dense)                 (None, 56)           3808        concatenate_2[0][0]              
__________________________________________________________________________________________________
dropout_6 (Dropout)             (None, 56)           0           dense_3[0][0]                    
__________________________________________________________________________________________________
dense_4 (Dense)                 (None, 4)            228         dropout_6[0][0]                  
==================================================================================================
Total params: 443,660
Trainable params: 443,660
Non-trainable params: 0
__________________________________________________________________________________________________
None
Train on 217231 samples, validate on 24137 samples
Epoch 1/20
 - 53s - loss: 0.0837 - acc: 0.9743 - val_loss: 0.0585 - val_acc: 0.9983
…
	Training (Important) : 3585, Test : 1320
	MWEs in tain : 1790, occurrences : 4856
	Impotant words in tain : 1200
	MWE length mean : 2.06
	Seen MWEs : 345 (67 %)
	New MWEs : 165 (32 %)
==================================================================================================
__________________________________________________________________________________________________
Layer (type)                    Output Shape         Param #     Connected to                     
==================================================================================================
input_5 (InputLayer)            (None, 7)            0                                            
__________________________________________________________________________________________________
input_6 (InputLayer)            (None, 7)            0                                            
__________________________________________________________________________________________________
embedding_5 (Embedding)         (None, 7, 356)       428268      input_5[0][0]                    
__________________________________________________________________________________________________
embedding_6 (Embedding)         (None, 7, 19)        266         input_6[0][0]                    
__________________________________________________________________________________________________
gru_5 (GRU)                     (None, 24)           27432       embedding_5[0][0]                
__________________________________________________________________________________________________
gru_6 (GRU)                     (None, 43)           8127        embedding_6[0][0]                
__________________________________________________________________________________________________
dropout_7 (Dropout)             (None, 24)           0           gru_5[0][0]                      
__________________________________________________________________________________________________
dropout_8 (Dropout)             (None, 43)           0           gru_6[0][0]                      
__________________________________________________________________________________________________
concatenate_3 (Concatenate)     (None, 67)           0           dropout_7[0][0]                  
                                                                 dropout_8[0][0]                  
__________________________________________________________________________________________________
dense_5 (Dense)                 (None, 56)           3808        concatenate_3[0][0]              
__________________________________________________________________________________________________
dropout_9 (Dropout)             (None, 56)           0           dense_5[0][0]                    
__________________________________________________________________________________________________
dense_6 (Dense)                 (None, 4)            228         dropout_9[0][0]                  
==================================================================================================
Total params: 468,129
Trainable params: 468,129
Non-trainable params: 0
__________________________________________________________________________________________________
None
Train on 432446 samples, validate on 48050 samples
Epoch 1/20
 - 105s - loss: 0.0758 - acc: 0.9767 - val_loss: 0.0649 - val_acc: 1.0000
…
	Training (Important) : 3124, Test : 1954
	MWEs in tain : 1372, occurrences : 3583
	Impotant words in tain : 1175
	MWE length mean : 2.13
	Seen MWEs : 386 (57 %)
	New MWEs : 284 (42 %)
==================================================================================================
__________________________________________________________________________________________________
Layer (type)                    Output Shape         Param #     Connected to                     
==================================================================================================
input_7 (InputLayer)            (None, 7)            0                                            
__________________________________________________________________________________________________
input_8 (InputLayer)            (None, 7)            0                                            
__________________________________________________________________________________________________
embedding_7 (Embedding)         (None, 7, 485)       571330      input_7[0][0]                    
__________________________________________________________________________________________________
embedding_8 (Embedding)         (None, 7, 14)        266         input_8[0][0]                    
__________________________________________________________________________________________________
gru_7 (GRU)                     (None, 5)            7365        embedding_7[0][0]                
__________________________________________________________________________________________________
gru_8 (GRU)                     (None, 11)           858         embedding_8[0][0]                
__________________________________________________________________________________________________
dropout_10 (Dropout)            (None, 5)            0           gru_7[0][0]                      
__________________________________________________________________________________________________
dropout_11 (Dropout)            (None, 11)           0           gru_8[0][0]                      
__________________________________________________________________________________________________
concatenate_4 (Concatenate)     (None, 16)           0           dropout_10[0][0]                 
                                                                 dropout_11[0][0]                 
__________________________________________________________________________________________________
dense_7 (Dense)                 (None, 9)            153         concatenate_4[0][0]              
__________________________________________________________________________________________________
dropout_12 (Dropout)            (None, 9)            0           dense_7[0][0]                    
__________________________________________________________________________________________________
dense_8 (Dense)                 (None, 4)            40          dropout_12[0][0]                 
==================================================================================================
Total params: 580,012
Trainable params: 580,012
Non-trainable params: 0
__________________________________________________________________________________________________
None
Train on 320835 samples, validate on 35649 samples
Epoch 1/20
 - 308s - loss: 0.1387 - acc: 0.9609 - val_loss: 0.0738 - val_acc: 0.9976
…
	Training (Important) : 2305, Test : 3117
	MWEs in tain : 1396, occurrences : 2518
	Impotant words in tain : 1131
	MWE length mean : 2.22
	Seen MWEs : 340 (61 %)
	New MWEs : 213 (38 %)
==================================================================================================
__________________________________________________________________________________________________
Layer (type)                    Output Shape         Param #     Connected to                     
==================================================================================================
input_9 (InputLayer)            (None, 7)            0                                            
__________________________________________________________________________________________________
input_10 (InputLayer)           (None, 7)            0                                            
__________________________________________________________________________________________________
embedding_9 (Embedding)         (None, 7, 485)       549990      input_9[0][0]                    
__________________________________________________________________________________________________
embedding_10 (Embedding)        (None, 7, 14)        266         input_10[0][0]                   
__________________________________________________________________________________________________
gru_9 (GRU)                     (None, 5)            7365        embedding_9[0][0]                
__________________________________________________________________________________________________
gru_10 (GRU)                    (None, 11)           858         embedding_10[0][0]               
__________________________________________________________________________________________________
dropout_13 (Dropout)            (None, 5)            0           gru_9[0][0]                      
__________________________________________________________________________________________________
dropout_14 (Dropout)            (None, 11)           0           gru_10[0][0]                     
__________________________________________________________________________________________________
concatenate_5 (Concatenate)     (None, 16)           0           dropout_13[0][0]                 
                                                                 dropout_14[0][0]                 
__________________________________________________________________________________________________
dense_9 (Dense)                 (None, 9)            153         concatenate_5[0][0]              
__________________________________________________________________________________________________
dropout_15 (Dropout)            (None, 9)            0           dense_9[0][0]                    
__________________________________________________________________________________________________
dense_10 (Dense)                (None, 4)            40          dropout_15[0][0]                 
==================================================================================================
Total params: 558,672
Trainable params: 558,672
Non-trainable params: 0
__________________________________________________________________________________________________
None
Train on 217231 samples, validate on 24137 samples
Epoch 1/20
 - 213s - loss: 0.1842 - acc: 0.9404 - val_loss: 0.0995 - val_acc: 0.9988
…
	Training (Important) : 3585, Test : 1320
	MWEs in tain : 1790, occurrences : 4856
	Impotant words in tain : 1200
	MWE length mean : 2.06
	Seen MWEs : 345 (67 %)
	New MWEs : 165 (32 %)
==================================================================================================
__________________________________________________________________________________________________
Layer (type)                    Output Shape         Param #     Connected to                     
==================================================================================================
input_11 (InputLayer)           (None, 7)            0                                            
__________________________________________________________________________________________________
input_12 (InputLayer)           (None, 7)            0                                            
__________________________________________________________________________________________________
embedding_11 (Embedding)        (None, 7, 485)       583455      input_11[0][0]                   
__________________________________________________________________________________________________
embedding_12 (Embedding)        (None, 7, 14)        196         input_12[0][0]                   
__________________________________________________________________________________________________
gru_11 (GRU)                    (None, 5)            7365        embedding_11[0][0]               
__________________________________________________________________________________________________
gru_12 (GRU)                    (None, 11)           858         embedding_12[0][0]               
__________________________________________________________________________________________________
dropout_16 (Dropout)            (None, 5)            0           gru_11[0][0]                     
__________________________________________________________________________________________________
dropout_17 (Dropout)            (None, 11)           0           gru_12[0][0]                     
__________________________________________________________________________________________________
concatenate_6 (Concatenate)     (None, 16)           0           dropout_16[0][0]                 
                                                                 dropout_17[0][0]                 
__________________________________________________________________________________________________
dense_11 (Dense)                (None, 9)            153         concatenate_6[0][0]              
__________________________________________________________________________________________________
dropout_18 (Dropout)            (None, 9)            0           dense_11[0][0]                   
__________________________________________________________________________________________________
dense_12 (Dense)                (None, 4)            40          dropout_18[0][0]                 
==================================================================================================
Total params: 592,067
Trainable params: 592,067
Non-trainable params: 0
__________________________________________________________________________________________________
None
Train on 432446 samples, validate on 48050 samples
Epoch 1/20
 - 423s - loss: 0.1360 - acc: 0.9592 - val_loss: 0.0909 - val_acc: 1.0000
…
	Training (Important) : 3124, Test : 1954
	MWEs in tain : 1372, occurrences : 3583
	Impotant words in tain : 1175
	MWE length mean : 2.13
	Seen MWEs : 386 (57 %)
	New MWEs : 284 (42 %)
==================================================================================================
__________________________________________________________________________________________________
Layer (type)                    Output Shape         Param #     Connected to                     
==================================================================================================
input_13 (InputLayer)           (None, 7)            0                                            
__________________________________________________________________________________________________
input_14 (InputLayer)           (None, 7)            0                                            
__________________________________________________________________________________________________
embedding_13 (Embedding)        (None, 7, 401)       472378      input_13[0][0]                   
__________________________________________________________________________________________________
embedding_14 (Embedding)        (None, 7, 92)        1748        input_14[0][0]                   
__________________________________________________________________________________________________
gru_13 (GRU)                    (None, 44)           58872       embedding_13[0][0]               
__________________________________________________________________________________________________
gru_14 (GRU)                    (None, 20)           6780        embedding_14[0][0]               
__________________________________________________________________________________________________
dropout_19 (Dropout)            (None, 44)           0           gru_13[0][0]                     
__________________________________________________________________________________________________
dropout_20 (Dropout)            (None, 20)           0           gru_14[0][0]                     
__________________________________________________________________________________________________
concatenate_7 (Concatenate)     (None, 64)           0           dropout_19[0][0]                 
                                                                 dropout_20[0][0]                 
__________________________________________________________________________________________________
dense_13 (Dense)                (None, 76)           4940        concatenate_7[0][0]              
__________________________________________________________________________________________________
dropout_21 (Dropout)            (None, 76)           0           dense_13[0][0]                   
__________________________________________________________________________________________________
dense_14 (Dense)                (None, 4)            308         dropout_21[0][0]                 
==================================================================================================
Total params: 545,026
Trainable params: 545,026
Non-trainable params: 0
__________________________________________________________________________________________________
None
Train on 320835 samples, validate on 35649 samples
Epoch 1/20
 - 156s - loss: 0.0752 - acc: 0.9787 - val_loss: 0.0655 - val_acc: 0.9994
…
	Training (Important) : 2305, Test : 3117
	MWEs in tain : 1396, occurrences : 2518
	Impotant words in tain : 1131
	MWE length mean : 2.22
	Seen MWEs : 340 (61 %)
	New MWEs : 213 (38 %)
==================================================================================================
__________________________________________________________________________________________________
Layer (type)                    Output Shape         Param #     Connected to                     
==================================================================================================
input_15 (InputLayer)           (None, 7)            0                                            
__________________________________________________________________________________________________
input_16 (InputLayer)           (None, 7)            0                                            
__________________________________________________________________________________________________
embedding_15 (Embedding)        (None, 7, 401)       454734      input_15[0][0]                   
__________________________________________________________________________________________________
embedding_16 (Embedding)        (None, 7, 92)        1748        input_16[0][0]                   
__________________________________________________________________________________________________
gru_15 (GRU)                    (None, 44)           58872       embedding_15[0][0]               
__________________________________________________________________________________________________
gru_16 (GRU)                    (None, 20)           6780        embedding_16[0][0]               
__________________________________________________________________________________________________
dropout_22 (Dropout)            (None, 44)           0           gru_15[0][0]                     
__________________________________________________________________________________________________
dropout_23 (Dropout)            (None, 20)           0           gru_16[0][0]                     
__________________________________________________________________________________________________
concatenate_8 (Concatenate)     (None, 64)           0           dropout_22[0][0]                 
                                                                 dropout_23[0][0]                 
__________________________________________________________________________________________________
dense_15 (Dense)                (None, 76)           4940        concatenate_8[0][0]              
__________________________________________________________________________________________________
dropout_24 (Dropout)            (None, 76)           0           dense_15[0][0]                   
__________________________________________________________________________________________________
dense_16 (Dense)                (None, 4)            308         dropout_24[0][0]                 
==================================================================================================
Total params: 527,382
Trainable params: 527,382
Non-trainable params: 0
__________________________________________________________________________________________________
None
Train on 217231 samples, validate on 24137 samples
Epoch 1/20
 - 123s - loss: 0.0864 - acc: 0.9740 - val_loss: 0.0758 - val_acc: 0.9988
…
	Training (Important) : 3585, Test : 1320
	MWEs in tain : 1790, occurrences : 4856
	Impotant words in tain : 1200
	MWE length mean : 2.06
	Seen MWEs : 345 (67 %)
	New MWEs : 165 (32 %)
==================================================================================================
__________________________________________________________________________________________________
Layer (type)                    Output Shape         Param #     Connected to                     
==================================================================================================
input_17 (InputLayer)           (None, 7)            0                                            
__________________________________________________________________________________________________
input_18 (InputLayer)           (None, 7)            0                                            
__________________________________________________________________________________________________
embedding_17 (Embedding)        (None, 7, 401)       482403      input_17[0][0]                   
__________________________________________________________________________________________________
embedding_18 (Embedding)        (None, 7, 92)        1288        input_18[0][0]                   
__________________________________________________________________________________________________
gru_17 (GRU)                    (None, 44)           58872       embedding_17[0][0]               
__________________________________________________________________________________________________
gru_18 (GRU)                    (None, 20)           6780        embedding_18[0][0]               
__________________________________________________________________________________________________
dropout_25 (Dropout)            (None, 44)           0           gru_17[0][0]                     
__________________________________________________________________________________________________
dropout_26 (Dropout)            (None, 20)           0           gru_18[0][0]                     
__________________________________________________________________________________________________
concatenate_9 (Concatenate)     (None, 64)           0           dropout_25[0][0]                 
                                                                 dropout_26[0][0]                 
__________________________________________________________________________________________________
dense_17 (Dense)                (None, 76)           4940        concatenate_9[0][0]              
__________________________________________________________________________________________________
dropout_27 (Dropout)            (None, 76)           0           dense_17[0][0]                   
__________________________________________________________________________________________________
dense_18 (Dense)                (None, 4)            308         dropout_27[0][0]                 
==================================================================================================
Total params: 554,591
Trainable params: 554,591
Non-trainable params: 0
__________________________________________________________________________________________________
None
Train on 432446 samples, validate on 48050 samples
Epoch 1/20
 - 211s - loss: 0.0755 - acc: 0.9775 - val_loss: 0.1023 - val_acc: 1.0000
…
	Training (Important) : 3124, Test : 1954
	MWEs in tain : 1372, occurrences : 3583
	Impotant words in tain : 1175
	MWE length mean : 2.13
	Seen MWEs : 386 (57 %)
	New MWEs : 284 (42 %)
==================================================================================================
__________________________________________________________________________________________________
Layer (type)                    Output Shape         Param #     Connected to                     
==================================================================================================
input_19 (InputLayer)           (None, 7)            0                                            
__________________________________________________________________________________________________
input_20 (InputLayer)           (None, 7)            0                                            
__________________________________________________________________________________________________
embedding_19 (Embedding)        (None, 7, 200)       235600      input_19[0][0]                   
__________________________________________________________________________________________________
embedding_20 (Embedding)        (None, 7, 36)        684         input_20[0][0]                   
__________________________________________________________________________________________________
gru_19 (GRU)                    (None, 19)           12540       embedding_19[0][0]               
__________________________________________________________________________________________________
gru_20 (GRU)                    (None, 42)           9954        embedding_20[0][0]               
__________________________________________________________________________________________________
dropout_28 (Dropout)            (None, 19)           0           gru_19[0][0]                     
__________________________________________________________________________________________________
dropout_29 (Dropout)            (None, 42)           0           gru_20[0][0]                     
__________________________________________________________________________________________________
concatenate_10 (Concatenate)    (None, 61)           0           dropout_28[0][0]                 
                                                                 dropout_29[0][0]                 
__________________________________________________________________________________________________
dense_19 (Dense)                (None, 37)           2294        concatenate_10[0][0]             
__________________________________________________________________________________________________
dropout_30 (Dropout)            (None, 37)           0           dense_19[0][0]                   
__________________________________________________________________________________________________
dense_20 (Dense)                (None, 4)            152         dropout_30[0][0]                 
==================================================================================================
Total params: 261,224
Trainable params: 261,224
Non-trainable params: 0
__________________________________________________________________________________________________
None
Train on 320835 samples, validate on 35649 samples
Epoch 1/20
 - 156s - loss: 0.0762 - acc: 0.9786 - val_loss: 0.0751 - val_acc: 0.9999
…
	Training (Important) : 2305, Test : 3117
	MWEs in tain : 1396, occurrences : 2518
	Impotant words in tain : 1131
	MWE length mean : 2.22
	Seen MWEs : 340 (61 %)
	New MWEs : 213 (38 %)
==================================================================================================
__________________________________________________________________________________________________
Layer (type)                    Output Shape         Param #     Connected to                     
==================================================================================================
input_21 (InputLayer)           (None, 7)            0                                            
__________________________________________________________________________________________________
input_22 (InputLayer)           (None, 7)            0                                            
__________________________________________________________________________________________________
embedding_21 (Embedding)        (None, 7, 200)       226800      input_21[0][0]                   
__________________________________________________________________________________________________
embedding_22 (Embedding)        (None, 7, 36)        684         input_22[0][0]                   
__________________________________________________________________________________________________
gru_21 (GRU)                    (None, 19)           12540       embedding_21[0][0]               
__________________________________________________________________________________________________
gru_22 (GRU)                    (None, 42)           9954        embedding_22[0][0]               
__________________________________________________________________________________________________
dropout_31 (Dropout)            (None, 19)           0           gru_21[0][0]                     
__________________________________________________________________________________________________
dropout_32 (Dropout)            (None, 42)           0           gru_22[0][0]                     
__________________________________________________________________________________________________
concatenate_11 (Concatenate)    (None, 61)           0           dropout_31[0][0]                 
                                                                 dropout_32[0][0]                 
__________________________________________________________________________________________________
dense_21 (Dense)                (None, 37)           2294        concatenate_11[0][0]             
__________________________________________________________________________________________________
dropout_33 (Dropout)            (None, 37)           0           dense_21[0][0]                   
__________________________________________________________________________________________________
dense_22 (Dense)                (None, 4)            152         dropout_33[0][0]                 
==================================================================================================
Total params: 252,424
Trainable params: 252,424
Non-trainable params: 0
__________________________________________________________________________________________________
None
Train on 217231 samples, validate on 24137 samples
Epoch 1/20
 - 107s - loss: 0.0877 - acc: 0.9744 - val_loss: 0.0652 - val_acc: 0.9988
…
	Training (Important) : 3585, Test : 1320
	MWEs in tain : 1790, occurrences : 4856
	Impotant words in tain : 1200
	MWE length mean : 2.06
	Seen MWEs : 345 (67 %)
	New MWEs : 165 (32 %)
==================================================================================================
__________________________________________________________________________________________________
Layer (type)                    Output Shape         Param #     Connected to                     
==================================================================================================
input_23 (InputLayer)           (None, 7)            0                                            
__________________________________________________________________________________________________
input_24 (InputLayer)           (None, 7)            0                                            
__________________________________________________________________________________________________
embedding_23 (Embedding)        (None, 7, 200)       240600      input_23[0][0]                   
__________________________________________________________________________________________________
embedding_24 (Embedding)        (None, 7, 36)        504         input_24[0][0]                   
__________________________________________________________________________________________________
gru_23 (GRU)                    (None, 19)           12540       embedding_23[0][0]               
__________________________________________________________________________________________________
gru_24 (GRU)                    (None, 42)           9954        embedding_24[0][0]               
__________________________________________________________________________________________________
dropout_34 (Dropout)            (None, 19)           0           gru_23[0][0]                     
__________________________________________________________________________________________________
dropout_35 (Dropout)            (None, 42)           0           gru_24[0][0]                     
__________________________________________________________________________________________________
concatenate_12 (Concatenate)    (None, 61)           0           dropout_34[0][0]                 
                                                                 dropout_35[0][0]                 
__________________________________________________________________________________________________
dense_23 (Dense)                (None, 37)           2294        concatenate_12[0][0]             
__________________________________________________________________________________________________
dropout_36 (Dropout)            (None, 37)           0           dense_23[0][0]                   
__________________________________________________________________________________________________
dense_24 (Dense)                (None, 4)            152         dropout_36[0][0]                 
==================================================================================================
Total params: 266,044
Trainable params: 266,044
Non-trainable params: 0
__________________________________________________________________________________________________
None
Train on 432446 samples, validate on 48050 samples
Epoch 1/20
 - 211s - loss: 0.0759 - acc: 0.9771 - val_loss: 0.0928 - val_acc: 1.0000
…
	Training (Important) : 3124, Test : 1954
	MWEs in tain : 1372, occurrences : 3583
	Impotant words in tain : 1175
	MWE length mean : 2.13
	Seen MWEs : 386 (57 %)
	New MWEs : 284 (42 %)
==================================================================================================
__________________________________________________________________________________________________
Layer (type)                    Output Shape         Param #     Connected to                     
==================================================================================================
input_25 (InputLayer)           (None, 7)            0                                            
__________________________________________________________________________________________________
input_26 (InputLayer)           (None, 7)            0                                            
__________________________________________________________________________________________________
embedding_25 (Embedding)        (None, 7, 468)       551304      input_25[0][0]                   
__________________________________________________________________________________________________
embedding_26 (Embedding)        (None, 7, 21)        399         input_26[0][0]                   
__________________________________________________________________________________________________
gru_25 (GRU)                    (None, 98)           166698      embedding_25[0][0]               
__________________________________________________________________________________________________
gru_26 (GRU)                    (None, 38)           6840        embedding_26[0][0]               
__________________________________________________________________________________________________
dropout_37 (Dropout)            (None, 98)           0           gru_25[0][0]                     
__________________________________________________________________________________________________
dropout_38 (Dropout)            (None, 38)           0           gru_26[0][0]                     
__________________________________________________________________________________________________
concatenate_13 (Concatenate)    (None, 136)          0           dropout_37[0][0]                 
                                                                 dropout_38[0][0]                 
__________________________________________________________________________________________________
dense_25 (Dense)                (None, 24)           3288        concatenate_13[0][0]             
__________________________________________________________________________________________________
dropout_39 (Dropout)            (None, 24)           0           dense_25[0][0]                   
__________________________________________________________________________________________________
dense_26 (Dense)                (None, 4)            100         dropout_39[0][0]                 
==================================================================================================
Total params: 728,629
Trainable params: 728,629
Non-trainable params: 0
__________________________________________________________________________________________________
None
Train on 320835 samples, validate on 35649 samples
Epoch 1/20
 - 310s - loss: 0.0713 - acc: 0.9794 - val_loss: 0.0809 - val_acc: 0.9992
…
	Training (Important) : 2305, Test : 3117
	MWEs in tain : 1396, occurrences : 2518
	Impotant words in tain : 1131
	MWE length mean : 2.22
	Seen MWEs : 340 (61 %)
	New MWEs : 213 (38 %)
==================================================================================================
__________________________________________________________________________________________________
Layer (type)                    Output Shape         Param #     Connected to                     
==================================================================================================
input_27 (InputLayer)           (None, 7)            0                                            
__________________________________________________________________________________________________
input_28 (InputLayer)           (None, 7)            0                                            
__________________________________________________________________________________________________
embedding_27 (Embedding)        (None, 7, 468)       530712      input_27[0][0]                   
__________________________________________________________________________________________________
embedding_28 (Embedding)        (None, 7, 21)        399         input_28[0][0]                   
__________________________________________________________________________________________________
gru_27 (GRU)                    (None, 98)           166698      embedding_27[0][0]               
__________________________________________________________________________________________________
gru_28 (GRU)                    (None, 38)           6840        embedding_28[0][0]               
__________________________________________________________________________________________________
dropout_40 (Dropout)            (None, 98)           0           gru_27[0][0]                     
__________________________________________________________________________________________________
dropout_41 (Dropout)            (None, 38)           0           gru_28[0][0]                     
__________________________________________________________________________________________________
concatenate_14 (Concatenate)    (None, 136)          0           dropout_40[0][0]                 
                                                                 dropout_41[0][0]                 
__________________________________________________________________________________________________
dense_27 (Dense)                (None, 24)           3288        concatenate_14[0][0]             
__________________________________________________________________________________________________
dropout_42 (Dropout)            (None, 24)           0           dense_27[0][0]                   
__________________________________________________________________________________________________
dense_28 (Dense)                (None, 4)            100         dropout_42[0][0]                 
==================================================================================================
Total params: 708,037
Trainable params: 708,037
Non-trainable params: 0
__________________________________________________________________________________________________
None
Train on 217231 samples, validate on 24137 samples
Epoch 1/20
 - 211s - loss: 0.0818 - acc: 0.9754 - val_loss: 0.0734 - val_acc: 0.9997
…
	Training (Important) : 3585, Test : 1320
	MWEs in tain : 1790, occurrences : 4856
	Impotant words in tain : 1200
	MWE length mean : 2.06
	Seen MWEs : 345 (67 %)
	New MWEs : 165 (32 %)
==================================================================================================
__________________________________________________________________________________________________
Layer (type)                    Output Shape         Param #     Connected to                     
==================================================================================================
input_29 (InputLayer)           (None, 7)            0                                            
__________________________________________________________________________________________________
input_30 (InputLayer)           (None, 7)            0                                            
__________________________________________________________________________________________________
embedding_29 (Embedding)        (None, 7, 468)       563004      input_29[0][0]                   
__________________________________________________________________________________________________
embedding_30 (Embedding)        (None, 7, 21)        294         input_30[0][0]                   
__________________________________________________________________________________________________
gru_29 (GRU)                    (None, 98)           166698      embedding_29[0][0]               
__________________________________________________________________________________________________
gru_30 (GRU)                    (None, 38)           6840        embedding_30[0][0]               
__________________________________________________________________________________________________
dropout_43 (Dropout)            (None, 98)           0           gru_29[0][0]                     
__________________________________________________________________________________________________
dropout_44 (Dropout)            (None, 38)           0           gru_30[0][0]                     
__________________________________________________________________________________________________
concatenate_15 (Concatenate)    (None, 136)          0           dropout_43[0][0]                 
                                                                 dropout_44[0][0]                 
__________________________________________________________________________________________________
dense_29 (Dense)                (None, 24)           3288        concatenate_15[0][0]             
__________________________________________________________________________________________________
dropout_45 (Dropout)            (None, 24)           0           dense_29[0][0]                   
__________________________________________________________________________________________________
dense_30 (Dense)                (None, 4)            100         dropout_45[0][0]                 
==================================================================================================
Total params: 740,224
Trainable params: 740,224
Non-trainable params: 0
__________________________________________________________________________________________________
None
Train on 432446 samples, validate on 48050 samples
Epoch 1/20
 - 425s - loss: 0.0716 - acc: 0.9783 - val_loss: 0.0750 - val_acc: 1.0000
…
	Training (Important) : 3124, Test : 1954
	MWEs in tain : 1372, occurrences : 3583
	Impotant words in tain : 1175
	MWE length mean : 2.13
	Seen MWEs : 386 (57 %)
	New MWEs : 284 (42 %)
==================================================================================================
__________________________________________________________________________________________________
Layer (type)                    Output Shape         Param #     Connected to                     
==================================================================================================
input_31 (InputLayer)           (None, 7)            0                                            
__________________________________________________________________________________________________
input_32 (InputLayer)           (None, 7)            0                                            
__________________________________________________________________________________________________
embedding_31 (Embedding)        (None, 7, 437)       514786      input_31[0][0]                   
__________________________________________________________________________________________________
embedding_32 (Embedding)        (None, 7, 65)        1235        input_32[0][0]                   
__________________________________________________________________________________________________
gru_31 (GRU)                    (None, 22)           30360       embedding_31[0][0]               
__________________________________________________________________________________________________
gru_32 (GRU)                    (None, 41)           13161       embedding_32[0][0]               
__________________________________________________________________________________________________
dropout_46 (Dropout)            (None, 22)           0           gru_31[0][0]                     
__________________________________________________________________________________________________
dropout_47 (Dropout)            (None, 41)           0           gru_32[0][0]                     
__________________________________________________________________________________________________
concatenate_16 (Concatenate)    (None, 63)           0           dropout_46[0][0]                 
                                                                 dropout_47[0][0]                 
__________________________________________________________________________________________________
dense_31 (Dense)                (None, 42)           2688        concatenate_16[0][0]             
__________________________________________________________________________________________________
dropout_48 (Dropout)            (None, 42)           0           dense_31[0][0]                   
__________________________________________________________________________________________________
dense_32 (Dense)                (None, 4)            172         dropout_48[0][0]                 
==================================================================================================
Total params: 562,402
Trainable params: 562,402
Non-trainable params: 0
__________________________________________________________________________________________________
None
Train on 320835 samples, validate on 35649 samples
Epoch 1/20
 - 310s - loss: 0.0811 - acc: 0.9776 - val_loss: 0.0934 - val_acc: 0.9993
…
	Training (Important) : 2305, Test : 3117
	MWEs in tain : 1396, occurrences : 2518
	Impotant words in tain : 1131
	MWE length mean : 2.22
	Seen MWEs : 340 (61 %)
	New MWEs : 213 (38 %)
==================================================================================================
__________________________________________________________________________________________________
Layer (type)                    Output Shape         Param #     Connected to                     
==================================================================================================
input_33 (InputLayer)           (None, 7)            0                                            
__________________________________________________________________________________________________
input_34 (InputLayer)           (None, 7)            0                                            
__________________________________________________________________________________________________
embedding_33 (Embedding)        (None, 7, 437)       495558      input_33[0][0]                   
__________________________________________________________________________________________________
embedding_34 (Embedding)        (None, 7, 65)        1235        input_34[0][0]                   
__________________________________________________________________________________________________
gru_33 (GRU)                    (None, 22)           30360       embedding_33[0][0]               
__________________________________________________________________________________________________
gru_34 (GRU)                    (None, 41)           13161       embedding_34[0][0]               
__________________________________________________________________________________________________
dropout_49 (Dropout)            (None, 22)           0           gru_33[0][0]                     
__________________________________________________________________________________________________
dropout_50 (Dropout)            (None, 41)           0           gru_34[0][0]                     
__________________________________________________________________________________________________
concatenate_17 (Concatenate)    (None, 63)           0           dropout_49[0][0]                 
                                                                 dropout_50[0][0]                 
__________________________________________________________________________________________________
dense_33 (Dense)                (None, 42)           2688        concatenate_17[0][0]             
__________________________________________________________________________________________________
dropout_51 (Dropout)            (None, 42)           0           dense_33[0][0]                   
__________________________________________________________________________________________________
dense_34 (Dense)                (None, 4)            172         dropout_51[0][0]                 
==================================================================================================
Total params: 543,174
Trainable params: 543,174
Non-trainable params: 0
__________________________________________________________________________________________________
None
Train on 217231 samples, validate on 24137 samples
Epoch 1/20
 - 214s - loss: 0.0907 - acc: 0.9736 - val_loss: 0.0802 - val_acc: 0.9983
…
	Training (Important) : 3585, Test : 1320
	MWEs in tain : 1790, occurrences : 4856
	Impotant words in tain : 1200
	MWE length mean : 2.06
	Seen MWEs : 345 (67 %)
	New MWEs : 165 (32 %)
==================================================================================================
__________________________________________________________________________________________________
Layer (type)                    Output Shape         Param #     Connected to                     
==================================================================================================
input_35 (InputLayer)           (None, 7)            0                                            
__________________________________________________________________________________________________
input_36 (InputLayer)           (None, 7)            0                                            
__________________________________________________________________________________________________
embedding_35 (Embedding)        (None, 7, 437)       525711      input_35[0][0]                   
__________________________________________________________________________________________________
embedding_36 (Embedding)        (None, 7, 65)        910         input_36[0][0]                   
__________________________________________________________________________________________________
gru_35 (GRU)                    (None, 22)           30360       embedding_35[0][0]               
__________________________________________________________________________________________________
gru_36 (GRU)                    (None, 41)           13161       embedding_36[0][0]               
__________________________________________________________________________________________________
dropout_52 (Dropout)            (None, 22)           0           gru_35[0][0]                     
__________________________________________________________________________________________________
dropout_53 (Dropout)            (None, 41)           0           gru_36[0][0]                     
__________________________________________________________________________________________________
concatenate_18 (Concatenate)    (None, 63)           0           dropout_52[0][0]                 
                                                                 dropout_53[0][0]                 
__________________________________________________________________________________________________
dense_35 (Dense)                (None, 42)           2688        concatenate_18[0][0]             
__________________________________________________________________________________________________
dropout_54 (Dropout)            (None, 42)           0           dense_35[0][0]                   
__________________________________________________________________________________________________
dense_36 (Dense)                (None, 4)            172         dropout_54[0][0]                 
==================================================================================================
Total params: 573,002
Trainable params: 573,002
Non-trainable params: 0
__________________________________________________________________________________________________
None
Train on 432446 samples, validate on 48050 samples
Epoch 1/20
 - 423s - loss: 0.0776 - acc: 0.9767 - val_loss: 0.0741 - val_acc: 1.0000
…
	Training (Important) : 3124, Test : 1954
	MWEs in tain : 1372, occurrences : 3583
	Impotant words in tain : 1175
	MWE length mean : 2.13
	Seen MWEs : 386 (57 %)
	New MWEs : 284 (42 %)
==================================================================================================
__________________________________________________________________________________________________
Layer (type)                    Output Shape         Param #     Connected to                     
==================================================================================================
input_37 (InputLayer)           (None, 7)            0                                            
__________________________________________________________________________________________________
input_38 (InputLayer)           (None, 7)            0                                            
__________________________________________________________________________________________________
embedding_37 (Embedding)        (None, 7, 436)       513608      input_37[0][0]                   
__________________________________________________________________________________________________
embedding_38 (Embedding)        (None, 7, 10)        190         input_38[0][0]                   
__________________________________________________________________________________________________
gru_37 (GRU)                    (None, 13)           17550       embedding_37[0][0]               
__________________________________________________________________________________________________
gru_38 (GRU)                    (None, 18)           1566        embedding_38[0][0]               
__________________________________________________________________________________________________
dropout_55 (Dropout)            (None, 13)           0           gru_37[0][0]                     
__________________________________________________________________________________________________
dropout_56 (Dropout)            (None, 18)           0           gru_38[0][0]                     
__________________________________________________________________________________________________
concatenate_19 (Concatenate)    (None, 31)           0           dropout_55[0][0]                 
                                                                 dropout_56[0][0]                 
__________________________________________________________________________________________________
dense_37 (Dense)                (None, 44)           1408        concatenate_19[0][0]             
__________________________________________________________________________________________________
dropout_57 (Dropout)            (None, 44)           0           dense_37[0][0]                   
__________________________________________________________________________________________________
dense_38 (Dense)                (None, 4)            180         dropout_57[0][0]                 
==================================================================================================
Total params: 534,502
Trainable params: 534,502
Non-trainable params: 0
__________________________________________________________________________________________________
None
Train on 320835 samples, validate on 35649 samples
Epoch 1/20
 - 40s - loss: 0.0902 - acc: 0.9725 - val_loss: 0.0735 - val_acc: 0.9988
…
	Training (Important) : 2305, Test : 3117
	MWEs in tain : 1396, occurrences : 2518
	Impotant words in tain : 1131
	MWE length mean : 2.22
	Seen MWEs : 340 (61 %)
	New MWEs : 213 (38 %)
==================================================================================================
__________________________________________________________________________________________________
Layer (type)                    Output Shape         Param #     Connected to                     
==================================================================================================
input_39 (InputLayer)           (None, 7)            0                                            
__________________________________________________________________________________________________
input_40 (InputLayer)           (None, 7)            0                                            
__________________________________________________________________________________________________
embedding_39 (Embedding)        (None, 7, 436)       494424      input_39[0][0]                   
__________________________________________________________________________________________________
embedding_40 (Embedding)        (None, 7, 10)        190         input_40[0][0]                   
__________________________________________________________________________________________________
gru_39 (GRU)                    (None, 13)           17550       embedding_39[0][0]               
__________________________________________________________________________________________________
gru_40 (GRU)                    (None, 18)           1566        embedding_40[0][0]               
__________________________________________________________________________________________________
dropout_58 (Dropout)            (None, 13)           0           gru_39[0][0]                     
__________________________________________________________________________________________________
dropout_59 (Dropout)            (None, 18)           0           gru_40[0][0]                     
__________________________________________________________________________________________________
concatenate_20 (Concatenate)    (None, 31)           0           dropout_58[0][0]                 
                                                                 dropout_59[0][0]                 
__________________________________________________________________________________________________
dense_39 (Dense)                (None, 44)           1408        concatenate_20[0][0]             
__________________________________________________________________________________________________
dropout_60 (Dropout)            (None, 44)           0           dense_39[0][0]                   
__________________________________________________________________________________________________
dense_40 (Dense)                (None, 4)            180         dropout_60[0][0]                 
==================================================================================================
Total params: 515,318
Trainable params: 515,318
Non-trainable params: 0
__________________________________________________________________________________________________
None
Train on 217231 samples, validate on 24137 samples
Epoch 1/20
 - 27s - loss: 0.1032 - acc: 0.9675 - val_loss: 0.0646 - val_acc: 0.9988
…
	Training (Important) : 3585, Test : 1320
	MWEs in tain : 1790, occurrences : 4856
	Impotant words in tain : 1200
	MWE length mean : 2.06
	Seen MWEs : 345 (67 %)
	New MWEs : 165 (32 %)
==================================================================================================
__________________________________________________________________________________________________
Layer (type)                    Output Shape         Param #     Connected to                     
==================================================================================================
input_41 (InputLayer)           (None, 7)            0                                            
__________________________________________________________________________________________________
input_42 (InputLayer)           (None, 7)            0                                            
__________________________________________________________________________________________________
embedding_41 (Embedding)        (None, 7, 436)       524508      input_41[0][0]                   
__________________________________________________________________________________________________
embedding_42 (Embedding)        (None, 7, 10)        140         input_42[0][0]                   
__________________________________________________________________________________________________
gru_41 (GRU)                    (None, 13)           17550       embedding_41[0][0]               
__________________________________________________________________________________________________
gru_42 (GRU)                    (None, 18)           1566        embedding_42[0][0]               
__________________________________________________________________________________________________
dropout_61 (Dropout)            (None, 13)           0           gru_41[0][0]                     
__________________________________________________________________________________________________
dropout_62 (Dropout)            (None, 18)           0           gru_42[0][0]                     
__________________________________________________________________________________________________
concatenate_21 (Concatenate)    (None, 31)           0           dropout_61[0][0]                 
                                                                 dropout_62[0][0]                 
__________________________________________________________________________________________________
dense_41 (Dense)                (None, 44)           1408        concatenate_21[0][0]             
__________________________________________________________________________________________________
dropout_63 (Dropout)            (None, 44)           0           dense_41[0][0]                   
__________________________________________________________________________________________________
dense_42 (Dense)                (None, 4)            180         dropout_63[0][0]                 
==================================================================================================
Total params: 545,352
Trainable params: 545,352
Non-trainable params: 0
__________________________________________________________________________________________________
None
Train on 432446 samples, validate on 48050 samples
Epoch 1/20
 - 54s - loss: 0.0838 - acc: 0.9739 - val_loss: 0.0777 - val_acc: 0.9998
…
	Training (Important) : 3124, Test : 1954
	MWEs in tain : 1372, occurrences : 3583
	Impotant words in tain : 1175
	MWE length mean : 2.13
	Seen MWEs : 386 (57 %)
	New MWEs : 284 (42 %)
==================================================================================================
__________________________________________________________________________________________________
Layer (type)                    Output Shape         Param #     Connected to                     
==================================================================================================
input_43 (InputLayer)           (None, 7)            0                                            
__________________________________________________________________________________________________
input_44 (InputLayer)           (None, 7)            0                                            
__________________________________________________________________________________________________
embedding_43 (Embedding)        (None, 7, 444)       523032      input_43[0][0]                   
__________________________________________________________________________________________________
embedding_44 (Embedding)        (None, 7, 21)        399         input_44[0][0]                   
__________________________________________________________________________________________________
gru_43 (GRU)                    (None, 28)           39732       embedding_43[0][0]               
__________________________________________________________________________________________________
gru_44 (GRU)                    (None, 44)           8712        embedding_44[0][0]               
__________________________________________________________________________________________________
dropout_64 (Dropout)            (None, 28)           0           gru_43[0][0]                     
__________________________________________________________________________________________________
dropout_65 (Dropout)            (None, 44)           0           gru_44[0][0]                     
__________________________________________________________________________________________________
concatenate_22 (Concatenate)    (None, 72)           0           dropout_64[0][0]                 
                                                                 dropout_65[0][0]                 
__________________________________________________________________________________________________
dense_43 (Dense)                (None, 8)            584         concatenate_22[0][0]             
__________________________________________________________________________________________________
dropout_66 (Dropout)            (None, 8)            0           dense_43[0][0]                   
__________________________________________________________________________________________________
dense_44 (Dense)                (None, 4)            36          dropout_66[0][0]                 
==================================================================================================
Total params: 572,495
Trainable params: 572,495
Non-trainable params: 0
__________________________________________________________________________________________________
None
Train on 320835 samples, validate on 35649 samples
Epoch 1/20
 - 311s - loss: 0.0718 - acc: 0.9796 - val_loss: 0.0617 - val_acc: 0.9983
…
	Training (Important) : 2305, Test : 3117
	MWEs in tain : 1396, occurrences : 2518
	Impotant words in tain : 1131
	MWE length mean : 2.22
	Seen MWEs : 340 (61 %)
	New MWEs : 213 (38 %)
==================================================================================================
__________________________________________________________________________________________________
Layer (type)                    Output Shape         Param #     Connected to                     
==================================================================================================
input_45 (InputLayer)           (None, 7)            0                                            
__________________________________________________________________________________________________
input_46 (InputLayer)           (None, 7)            0                                            
__________________________________________________________________________________________________
embedding_45 (Embedding)        (None, 7, 444)       503496      input_45[0][0]                   
__________________________________________________________________________________________________
embedding_46 (Embedding)        (None, 7, 21)        399         input_46[0][0]                   
__________________________________________________________________________________________________
gru_45 (GRU)                    (None, 28)           39732       embedding_45[0][0]               
__________________________________________________________________________________________________
gru_46 (GRU)                    (None, 44)           8712        embedding_46[0][0]               
__________________________________________________________________________________________________
dropout_67 (Dropout)            (None, 28)           0           gru_45[0][0]                     
__________________________________________________________________________________________________
dropout_68 (Dropout)            (None, 44)           0           gru_46[0][0]                     
__________________________________________________________________________________________________
concatenate_23 (Concatenate)    (None, 72)           0           dropout_67[0][0]                 
                                                                 dropout_68[0][0]                 
__________________________________________________________________________________________________
dense_45 (Dense)                (None, 8)            584         concatenate_23[0][0]             
__________________________________________________________________________________________________
dropout_69 (Dropout)            (None, 8)            0           dense_45[0][0]                   
__________________________________________________________________________________________________
dense_46 (Dense)                (None, 4)            36          dropout_69[0][0]                 
==================================================================================================
Total params: 552,959
Trainable params: 552,959
Non-trainable params: 0
__________________________________________________________________________________________________
None
Train on 217231 samples, validate on 24137 samples
Epoch 1/20
 - 211s - loss: 0.0824 - acc: 0.9750 - val_loss: 0.0807 - val_acc: 0.9981
…
	Training (Important) : 3585, Test : 1320
	MWEs in tain : 1790, occurrences : 4856
	Impotant words in tain : 1200
	MWE length mean : 2.06
	Seen MWEs : 345 (67 %)
	New MWEs : 165 (32 %)
==================================================================================================
__________________________________________________________________________________________________
Layer (type)                    Output Shape         Param #     Connected to                     
==================================================================================================
input_47 (InputLayer)           (None, 7)            0                                            
__________________________________________________________________________________________________
input_48 (InputLayer)           (None, 7)            0                                            
__________________________________________________________________________________________________
embedding_47 (Embedding)        (None, 7, 444)       534132      input_47[0][0]                   
__________________________________________________________________________________________________
embedding_48 (Embedding)        (None, 7, 21)        294         input_48[0][0]                   
__________________________________________________________________________________________________
gru_47 (GRU)                    (None, 28)           39732       embedding_47[0][0]               
__________________________________________________________________________________________________
gru_48 (GRU)                    (None, 44)           8712        embedding_48[0][0]               
__________________________________________________________________________________________________
dropout_70 (Dropout)            (None, 28)           0           gru_47[0][0]                     
__________________________________________________________________________________________________
dropout_71 (Dropout)            (None, 44)           0           gru_48[0][0]                     
__________________________________________________________________________________________________
concatenate_24 (Concatenate)    (None, 72)           0           dropout_70[0][0]                 
                                                                 dropout_71[0][0]                 
__________________________________________________________________________________________________
dense_47 (Dense)                (None, 8)            584         concatenate_24[0][0]             
__________________________________________________________________________________________________
dropout_72 (Dropout)            (None, 8)            0           dense_47[0][0]                   
__________________________________________________________________________________________________
dense_48 (Dense)                (None, 4)            36          dropout_72[0][0]                 
==================================================================================================
Total params: 583,490
Trainable params: 583,490
Non-trainable params: 0
__________________________________________________________________________________________________
None
Train on 432446 samples, validate on 48050 samples
Epoch 1/20
 - 424s - loss: 0.0746 - acc: 0.9773 - val_loss: 0.0607 - val_acc: 1.0000
…
	Training (Important) : 3124, Test : 1954
	MWEs in tain : 1372, occurrences : 3583
	Impotant words in tain : 1175
	MWE length mean : 2.13
	Seen MWEs : 386 (57 %)
	New MWEs : 284 (42 %)
==================================================================================================
__________________________________________________________________________________________________
Layer (type)                    Output Shape         Param #     Connected to                     
==================================================================================================
input_49 (InputLayer)           (None, 7)            0                                            
__________________________________________________________________________________________________
input_50 (InputLayer)           (None, 7)            0                                            
__________________________________________________________________________________________________
embedding_49 (Embedding)        (None, 7, 460)       541880      input_49[0][0]                   
__________________________________________________________________________________________________
embedding_50 (Embedding)        (None, 7, 93)        1767        input_50[0][0]                   
__________________________________________________________________________________________________
gru_49 (GRU)                    (None, 65)           102570      embedding_49[0][0]               
__________________________________________________________________________________________________
gru_50 (GRU)                    (None, 10)           3120        embedding_50[0][0]               
__________________________________________________________________________________________________
dropout_73 (Dropout)            (None, 65)           0           gru_49[0][0]                     
__________________________________________________________________________________________________
dropout_74 (Dropout)            (None, 10)           0           gru_50[0][0]                     
__________________________________________________________________________________________________
concatenate_25 (Concatenate)    (None, 75)           0           dropout_73[0][0]                 
                                                                 dropout_74[0][0]                 
__________________________________________________________________________________________________
dense_49 (Dense)                (None, 12)           912         concatenate_25[0][0]             
__________________________________________________________________________________________________
dropout_75 (Dropout)            (None, 12)           0           dense_49[0][0]                   
__________________________________________________________________________________________________
dense_50 (Dense)                (None, 4)            52          dropout_75[0][0]                 
==================================================================================================
Total params: 650,301
Trainable params: 650,301
Non-trainable params: 0
__________________________________________________________________________________________________
None
Train on 320835 samples, validate on 35649 samples
Epoch 1/20
 - 154s - loss: 0.0961 - acc: 0.9708 - val_loss: 0.0829 - val_acc: 0.9996
…
	Training (Important) : 2305, Test : 3117
	MWEs in tain : 1396, occurrences : 2518
	Impotant words in tain : 1131
	MWE length mean : 2.22
	Seen MWEs : 340 (61 %)
	New MWEs : 213 (38 %)
==================================================================================================
__________________________________________________________________________________________________
Layer (type)                    Output Shape         Param #     Connected to                     
==================================================================================================
input_51 (InputLayer)           (None, 7)            0                                            
__________________________________________________________________________________________________
input_52 (InputLayer)           (None, 7)            0                                            
__________________________________________________________________________________________________
embedding_51 (Embedding)        (None, 7, 460)       521640      input_51[0][0]                   
__________________________________________________________________________________________________
embedding_52 (Embedding)        (None, 7, 93)        1767        input_52[0][0]                   
__________________________________________________________________________________________________
gru_51 (GRU)                    (None, 65)           102570      embedding_51[0][0]               
__________________________________________________________________________________________________
gru_52 (GRU)                    (None, 10)           3120        embedding_52[0][0]               
__________________________________________________________________________________________________
dropout_76 (Dropout)            (None, 65)           0           gru_51[0][0]                     
__________________________________________________________________________________________________
dropout_77 (Dropout)            (None, 10)           0           gru_52[0][0]                     
__________________________________________________________________________________________________
concatenate_26 (Concatenate)    (None, 75)           0           dropout_76[0][0]                 
                                                                 dropout_77[0][0]                 
__________________________________________________________________________________________________
dense_51 (Dense)                (None, 12)           912         concatenate_26[0][0]             
__________________________________________________________________________________________________
dropout_78 (Dropout)            (None, 12)           0           dense_51[0][0]                   
__________________________________________________________________________________________________
dense_52 (Dense)                (None, 4)            52          dropout_78[0][0]                 
==================================================================================================
Total params: 630,061
Trainable params: 630,061
Non-trainable params: 0
__________________________________________________________________________________________________
None
Train on 217231 samples, validate on 24137 samples
Epoch 1/20
 - 106s - loss: 0.1096 - acc: 0.9651 - val_loss: 0.0834 - val_acc: 0.9988
…
	Training (Important) : 3585, Test : 1320
	MWEs in tain : 1790, occurrences : 4856
	Impotant words in tain : 1200
	MWE length mean : 2.06
	Seen MWEs : 345 (67 %)
	New MWEs : 165 (32 %)
==================================================================================================
__________________________________________________________________________________________________
Layer (type)                    Output Shape         Param #     Connected to                     
==================================================================================================
input_53 (InputLayer)           (None, 7)            0                                            
__________________________________________________________________________________________________
input_54 (InputLayer)           (None, 7)            0                                            
__________________________________________________________________________________________________
embedding_53 (Embedding)        (None, 7, 460)       553380      input_53[0][0]                   
__________________________________________________________________________________________________
embedding_54 (Embedding)        (None, 7, 93)        1302        input_54[0][0]                   
__________________________________________________________________________________________________
gru_53 (GRU)                    (None, 65)           102570      embedding_53[0][0]               
__________________________________________________________________________________________________
gru_54 (GRU)                    (None, 10)           3120        embedding_54[0][0]               
__________________________________________________________________________________________________
dropout_79 (Dropout)            (None, 65)           0           gru_53[0][0]                     
__________________________________________________________________________________________________
dropout_80 (Dropout)            (None, 10)           0           gru_54[0][0]                     
__________________________________________________________________________________________________
concatenate_27 (Concatenate)    (None, 75)           0           dropout_79[0][0]                 
                                                                 dropout_80[0][0]                 
__________________________________________________________________________________________________
dense_53 (Dense)                (None, 12)           912         concatenate_27[0][0]             
__________________________________________________________________________________________________
dropout_81 (Dropout)            (None, 12)           0           dense_53[0][0]                   
__________________________________________________________________________________________________
dense_54 (Dense)                (None, 4)            52          dropout_81[0][0]                 
==================================================================================================
Total params: 661,336
Trainable params: 661,336
Non-trainable params: 0
__________________________________________________________________________________________________
None
Train on 432446 samples, validate on 48050 samples
Epoch 1/20
 - 207s - loss: 0.0934 - acc: 0.9733 - val_loss: 0.0810 - val_acc: 1.0000
…
	Training (Important) : 3124, Test : 1954
	MWEs in tain : 1372, occurrences : 3583
	Impotant words in tain : 1175
	MWE length mean : 2.13
	Seen MWEs : 386 (57 %)
	New MWEs : 284 (42 %)
==================================================================================================
__________________________________________________________________________________________________
Layer (type)                    Output Shape         Param #     Connected to                     
==================================================================================================
input_55 (InputLayer)           (None, 7)            0                                            
__________________________________________________________________________________________________
input_56 (InputLayer)           (None, 7)            0                                            
__________________________________________________________________________________________________
embedding_55 (Embedding)        (None, 7, 460)       541880      input_55[0][0]                   
__________________________________________________________________________________________________
embedding_56 (Embedding)        (None, 7, 66)        1254        input_56[0][0]                   
__________________________________________________________________________________________________
gru_55 (GRU)                    (None, 97)           162378      embedding_55[0][0]               
__________________________________________________________________________________________________
gru_56 (GRU)                    (None, 7)            1554        embedding_56[0][0]               
__________________________________________________________________________________________________
dropout_82 (Dropout)            (None, 97)           0           gru_55[0][0]                     
__________________________________________________________________________________________________
dropout_83 (Dropout)            (None, 7)            0           gru_56[0][0]                     
__________________________________________________________________________________________________
concatenate_28 (Concatenate)    (None, 104)          0           dropout_82[0][0]                 
                                                                 dropout_83[0][0]                 
__________________________________________________________________________________________________
dense_55 (Dense)                (None, 54)           5670        concatenate_28[0][0]             
__________________________________________________________________________________________________
dropout_84 (Dropout)            (None, 54)           0           dense_55[0][0]                   
__________________________________________________________________________________________________
dense_56 (Dense)                (None, 4)            220         dropout_84[0][0]                 
==================================================================================================
Total params: 712,956
Trainable params: 712,956
Non-trainable params: 0
__________________________________________________________________________________________________
None
Train on 320835 samples, validate on 35649 samples
Epoch 1/20
 - 156s - loss: 0.0783 - acc: 0.9783 - val_loss: 0.0578 - val_acc: 0.9988
…
	Training (Important) : 2305, Test : 3117
	MWEs in tain : 1396, occurrences : 2518
	Impotant words in tain : 1131
	MWE length mean : 2.22
	Seen MWEs : 340 (61 %)
	New MWEs : 213 (38 %)
==================================================================================================
__________________________________________________________________________________________________
Layer (type)                    Output Shape         Param #     Connected to                     
==================================================================================================
input_57 (InputLayer)           (None, 7)            0                                            
__________________________________________________________________________________________________
input_58 (InputLayer)           (None, 7)            0                                            
__________________________________________________________________________________________________
embedding_57 (Embedding)        (None, 7, 460)       521640      input_57[0][0]                   
__________________________________________________________________________________________________
embedding_58 (Embedding)        (None, 7, 66)        1254        input_58[0][0]                   
__________________________________________________________________________________________________
gru_57 (GRU)                    (None, 97)           162378      embedding_57[0][0]               
__________________________________________________________________________________________________
gru_58 (GRU)                    (None, 7)            1554        embedding_58[0][0]               
__________________________________________________________________________________________________
dropout_85 (Dropout)            (None, 97)           0           gru_57[0][0]                     
__________________________________________________________________________________________________
dropout_86 (Dropout)            (None, 7)            0           gru_58[0][0]                     
__________________________________________________________________________________________________
concatenate_29 (Concatenate)    (None, 104)          0           dropout_85[0][0]                 
                                                                 dropout_86[0][0]                 
__________________________________________________________________________________________________
dense_57 (Dense)                (None, 54)           5670        concatenate_29[0][0]             
__________________________________________________________________________________________________
dropout_87 (Dropout)            (None, 54)           0           dense_57[0][0]                   
__________________________________________________________________________________________________
dense_58 (Dense)                (None, 4)            220         dropout_87[0][0]                 
==================================================================================================
Total params: 692,716
Trainable params: 692,716
Non-trainable params: 0
__________________________________________________________________________________________________
None
Train on 217231 samples, validate on 24137 samples
Epoch 1/20
 - 107s - loss: 0.0907 - acc: 0.9734 - val_loss: 0.0584 - val_acc: 0.9985
…
	Training (Important) : 3585, Test : 1320
	MWEs in tain : 1790, occurrences : 4856
	Impotant words in tain : 1200
	MWE length mean : 2.06
	Seen MWEs : 345 (67 %)
	New MWEs : 165 (32 %)
==================================================================================================
__________________________________________________________________________________________________
Layer (type)                    Output Shape         Param #     Connected to                     
==================================================================================================
input_59 (InputLayer)           (None, 7)            0                                            
__________________________________________________________________________________________________
input_60 (InputLayer)           (None, 7)            0                                            
__________________________________________________________________________________________________
embedding_59 (Embedding)        (None, 7, 460)       553380      input_59[0][0]                   
__________________________________________________________________________________________________
embedding_60 (Embedding)        (None, 7, 66)        924         input_60[0][0]                   
__________________________________________________________________________________________________
gru_59 (GRU)                    (None, 97)           162378      embedding_59[0][0]               
__________________________________________________________________________________________________
gru_60 (GRU)                    (None, 7)            1554        embedding_60[0][0]               
__________________________________________________________________________________________________
dropout_88 (Dropout)            (None, 97)           0           gru_59[0][0]                     
__________________________________________________________________________________________________
dropout_89 (Dropout)            (None, 7)            0           gru_60[0][0]                     
__________________________________________________________________________________________________
concatenate_30 (Concatenate)    (None, 104)          0           dropout_88[0][0]                 
                                                                 dropout_89[0][0]                 
__________________________________________________________________________________________________
dense_59 (Dense)                (None, 54)           5670        concatenate_30[0][0]             
__________________________________________________________________________________________________
dropout_90 (Dropout)            (None, 54)           0           dense_59[0][0]                   
__________________________________________________________________________________________________
dense_60 (Dense)                (None, 4)            220         dropout_90[0][0]                 
==================================================================================================
Total params: 724,126
Trainable params: 724,126
Non-trainable params: 0
__________________________________________________________________________________________________
None
Train on 432446 samples, validate on 48050 samples
Epoch 1/20
 - 212s - loss: 0.0786 - acc: 0.9763 - val_loss: 0.0586 - val_acc: 1.0000
…
	Training (Important) : 3124, Test : 1954
	MWEs in tain : 1372, occurrences : 3583
	Impotant words in tain : 1175
	MWE length mean : 2.13
	Seen MWEs : 386 (57 %)
	New MWEs : 284 (42 %)
==================================================================================================
__________________________________________________________________________________________________
Layer (type)                    Output Shape         Param #     Connected to                     
==================================================================================================
input_61 (InputLayer)           (None, 7)            0                                            
__________________________________________________________________________________________________
input_62 (InputLayer)           (None, 7)            0                                            
__________________________________________________________________________________________________
embedding_61 (Embedding)        (None, 7, 368)       433504      input_61[0][0]                   
__________________________________________________________________________________________________
embedding_62 (Embedding)        (None, 7, 53)        1007        input_62[0][0]                   
__________________________________________________________________________________________________
gru_61 (GRU)                    (None, 26)           30810       embedding_61[0][0]               
__________________________________________________________________________________________________
gru_62 (GRU)                    (None, 20)           4440        embedding_62[0][0]               
__________________________________________________________________________________________________
dropout_91 (Dropout)            (None, 26)           0           gru_61[0][0]                     
__________________________________________________________________________________________________
dropout_92 (Dropout)            (None, 20)           0           gru_62[0][0]                     
__________________________________________________________________________________________________
concatenate_31 (Concatenate)    (None, 46)           0           dropout_91[0][0]                 
                                                                 dropout_92[0][0]                 
__________________________________________________________________________________________________
dense_61 (Dense)                (None, 98)           4606        concatenate_31[0][0]             
__________________________________________________________________________________________________
dropout_93 (Dropout)            (None, 98)           0           dense_61[0][0]                   
__________________________________________________________________________________________________
dense_62 (Dense)                (None, 4)            396         dropout_93[0][0]                 
==================================================================================================
Total params: 474,763
Trainable params: 474,763
Non-trainable params: 0
__________________________________________________________________________________________________
None
Train on 320835 samples, validate on 35649 samples
Epoch 1/20
 - 78s - loss: 0.0832 - acc: 0.9758 - val_loss: 0.0698 - val_acc: 0.9989
…
	Training (Important) : 2305, Test : 3117
	MWEs in tain : 1396, occurrences : 2518
	Impotant words in tain : 1131
	MWE length mean : 2.22
	Seen MWEs : 340 (61 %)
	New MWEs : 213 (38 %)
==================================================================================================
__________________________________________________________________________________________________
Layer (type)                    Output Shape         Param #     Connected to                     
==================================================================================================
input_63 (InputLayer)           (None, 7)            0                                            
__________________________________________________________________________________________________
input_64 (InputLayer)           (None, 7)            0                                            
__________________________________________________________________________________________________
embedding_63 (Embedding)        (None, 7, 368)       417312      input_63[0][0]                   
__________________________________________________________________________________________________
embedding_64 (Embedding)        (None, 7, 53)        1007        input_64[0][0]                   
__________________________________________________________________________________________________
gru_63 (GRU)                    (None, 26)           30810       embedding_63[0][0]               
__________________________________________________________________________________________________
gru_64 (GRU)                    (None, 20)           4440        embedding_64[0][0]               
__________________________________________________________________________________________________
dropout_94 (Dropout)            (None, 26)           0           gru_63[0][0]                     
__________________________________________________________________________________________________
dropout_95 (Dropout)            (None, 20)           0           gru_64[0][0]                     
__________________________________________________________________________________________________
concatenate_32 (Concatenate)    (None, 46)           0           dropout_94[0][0]                 
                                                                 dropout_95[0][0]                 
__________________________________________________________________________________________________
dense_63 (Dense)                (None, 98)           4606        concatenate_32[0][0]             
__________________________________________________________________________________________________
dropout_96 (Dropout)            (None, 98)           0           dense_63[0][0]                   
__________________________________________________________________________________________________
dense_64 (Dense)                (None, 4)            396         dropout_96[0][0]                 
==================================================================================================
Total params: 458,571
Trainable params: 458,571
Non-trainable params: 0
__________________________________________________________________________________________________
None
Train on 217231 samples, validate on 24137 samples
Epoch 1/20
 - 53s - loss: 0.0963 - acc: 0.9710 - val_loss: 0.0838 - val_acc: 0.9988
…
	Training (Important) : 3585, Test : 1320
	MWEs in tain : 1790, occurrences : 4856
	Impotant words in tain : 1200
	MWE length mean : 2.06
	Seen MWEs : 345 (67 %)
	New MWEs : 165 (32 %)
==================================================================================================
__________________________________________________________________________________________________
Layer (type)                    Output Shape         Param #     Connected to                     
==================================================================================================
input_65 (InputLayer)           (None, 7)            0                                            
__________________________________________________________________________________________________
input_66 (InputLayer)           (None, 7)            0                                            
__________________________________________________________________________________________________
embedding_65 (Embedding)        (None, 7, 368)       442704      input_65[0][0]                   
__________________________________________________________________________________________________
embedding_66 (Embedding)        (None, 7, 53)        742         input_66[0][0]                   
__________________________________________________________________________________________________
gru_65 (GRU)                    (None, 26)           30810       embedding_65[0][0]               
__________________________________________________________________________________________________
gru_66 (GRU)                    (None, 20)           4440        embedding_66[0][0]               
__________________________________________________________________________________________________
dropout_97 (Dropout)            (None, 26)           0           gru_65[0][0]                     
__________________________________________________________________________________________________
dropout_98 (Dropout)            (None, 20)           0           gru_66[0][0]                     
__________________________________________________________________________________________________
concatenate_33 (Concatenate)    (None, 46)           0           dropout_97[0][0]                 
                                                                 dropout_98[0][0]                 
__________________________________________________________________________________________________
dense_65 (Dense)                (None, 98)           4606        concatenate_33[0][0]             
__________________________________________________________________________________________________
dropout_99 (Dropout)            (None, 98)           0           dense_65[0][0]                   
__________________________________________________________________________________________________
dense_66 (Dense)                (None, 4)            396         dropout_99[0][0]                 
==================================================================================================
Total params: 483,698
Trainable params: 483,698
Non-trainable params: 0
__________________________________________________________________________________________________
None
Train on 432446 samples, validate on 48050 samples
Epoch 1/20
 - 106s - loss: 0.0814 - acc: 0.9752 - val_loss: 0.0738 - val_acc: 1.0000
…
	Training (Important) : 3124, Test : 1954
	MWEs in tain : 1372, occurrences : 3583
	Impotant words in tain : 1175
	MWE length mean : 2.13
	Seen MWEs : 386 (57 %)
	New MWEs : 284 (42 %)
==================================================================================================
__________________________________________________________________________________________________
Layer (type)                    Output Shape         Param #     Connected to                     
==================================================================================================
input_67 (InputLayer)           (None, 7)            0                                            
__________________________________________________________________________________________________
input_68 (InputLayer)           (None, 7)            0                                            
__________________________________________________________________________________________________
embedding_67 (Embedding)        (None, 7, 403)       474734      input_67[0][0]                   
__________________________________________________________________________________________________
embedding_68 (Embedding)        (None, 7, 18)        342         input_68[0][0]                   
__________________________________________________________________________________________________
gru_67 (GRU)                    (None, 31)           40455       embedding_67[0][0]               
__________________________________________________________________________________________________
gru_68 (GRU)                    (None, 6)            450         embedding_68[0][0]               
__________________________________________________________________________________________________
dropout_100 (Dropout)           (None, 31)           0           gru_67[0][0]                     
__________________________________________________________________________________________________
dropout_101 (Dropout)           (None, 6)            0           gru_68[0][0]                     
__________________________________________________________________________________________________
concatenate_34 (Concatenate)    (None, 37)           0           dropout_100[0][0]                
                                                                 dropout_101[0][0]                
__________________________________________________________________________________________________
dense_67 (Dense)                (None, 90)           3420        concatenate_34[0][0]             
__________________________________________________________________________________________________
dropout_102 (Dropout)           (None, 90)           0           dense_67[0][0]                   
__________________________________________________________________________________________________
dense_68 (Dense)                (None, 4)            364         dropout_102[0][0]                
==================================================================================================
Total params: 519,765
Trainable params: 519,765
Non-trainable params: 0
__________________________________________________________________________________________________
None
Train on 320835 samples, validate on 35649 samples
Epoch 1/20
 - 309s - loss: 0.0765 - acc: 0.9787 - val_loss: 0.0727 - val_acc: 1.0000
…
	Training (Important) : 2305, Test : 3117
	MWEs in tain : 1396, occurrences : 2518
	Impotant words in tain : 1131
	MWE length mean : 2.22
	Seen MWEs : 340 (61 %)
	New MWEs : 213 (38 %)
==================================================================================================
__________________________________________________________________________________________________
Layer (type)                    Output Shape         Param #     Connected to                     
==================================================================================================
input_69 (InputLayer)           (None, 7)            0                                            
__________________________________________________________________________________________________
input_70 (InputLayer)           (None, 7)            0                                            
__________________________________________________________________________________________________
embedding_69 (Embedding)        (None, 7, 403)       457002      input_69[0][0]                   
__________________________________________________________________________________________________
embedding_70 (Embedding)        (None, 7, 18)        342         input_70[0][0]                   
__________________________________________________________________________________________________
gru_69 (GRU)                    (None, 31)           40455       embedding_69[0][0]               
__________________________________________________________________________________________________
gru_70 (GRU)                    (None, 6)            450         embedding_70[0][0]               
__________________________________________________________________________________________________
dropout_103 (Dropout)           (None, 31)           0           gru_69[0][0]                     
__________________________________________________________________________________________________
dropout_104 (Dropout)           (None, 6)            0           gru_70[0][0]                     
__________________________________________________________________________________________________
concatenate_35 (Concatenate)    (None, 37)           0           dropout_103[0][0]                
                                                                 dropout_104[0][0]                
__________________________________________________________________________________________________
dense_69 (Dense)                (None, 90)           3420        concatenate_35[0][0]             
__________________________________________________________________________________________________
dropout_105 (Dropout)           (None, 90)           0           dense_69[0][0]                   
__________________________________________________________________________________________________
dense_70 (Dense)                (None, 4)            364         dropout_105[0][0]                
==================================================================================================
Total params: 502,033
Trainable params: 502,033
Non-trainable params: 0
__________________________________________________________________________________________________
None
Train on 217231 samples, validate on 24137 samples
Epoch 1/20
 - 214s - loss: 0.0884 - acc: 0.9738 - val_loss: 0.0691 - val_acc: 0.9994
…
	Training (Important) : 3585, Test : 1320
	MWEs in tain : 1790, occurrences : 4856
	Impotant words in tain : 1200
	MWE length mean : 2.06
	Seen MWEs : 345 (67 %)
	New MWEs : 165 (32 %)
==================================================================================================
__________________________________________________________________________________________________
Layer (type)                    Output Shape         Param #     Connected to                     
==================================================================================================
input_71 (InputLayer)           (None, 7)            0                                            
__________________________________________________________________________________________________
input_72 (InputLayer)           (None, 7)            0                                            
__________________________________________________________________________________________________
embedding_71 (Embedding)        (None, 7, 403)       484809      input_71[0][0]                   
__________________________________________________________________________________________________
embedding_72 (Embedding)        (None, 7, 18)        252         input_72[0][0]                   
__________________________________________________________________________________________________
gru_71 (GRU)                    (None, 31)           40455       embedding_71[0][0]               
__________________________________________________________________________________________________
gru_72 (GRU)                    (None, 6)            450         embedding_72[0][0]               
__________________________________________________________________________________________________
dropout_106 (Dropout)           (None, 31)           0           gru_71[0][0]                     
__________________________________________________________________________________________________
dropout_107 (Dropout)           (None, 6)            0           gru_72[0][0]                     
__________________________________________________________________________________________________
concatenate_36 (Concatenate)    (None, 37)           0           dropout_106[0][0]                
                                                                 dropout_107[0][0]                
__________________________________________________________________________________________________
dense_71 (Dense)                (None, 90)           3420        concatenate_36[0][0]             
__________________________________________________________________________________________________
dropout_108 (Dropout)           (None, 90)           0           dense_71[0][0]                   
__________________________________________________________________________________________________
dense_72 (Dense)                (None, 4)            364         dropout_108[0][0]                
==================================================================================================
Total params: 529,750
Trainable params: 529,750
Non-trainable params: 0
__________________________________________________________________________________________________
None
Train on 432446 samples, validate on 48050 samples
Epoch 1/20
 - 427s - loss: 0.0768 - acc: 0.9770 - val_loss: 0.0635 - val_acc: 1.0000
…
	Training (Important) : 3124, Test : 1954
	MWEs in tain : 1372, occurrences : 3583
	Impotant words in tain : 1175
	MWE length mean : 2.13
	Seen MWEs : 386 (57 %)
	New MWEs : 284 (42 %)
==================================================================================================
__________________________________________________________________________________________________
Layer (type)                    Output Shape         Param #     Connected to                     
==================================================================================================
input_73 (InputLayer)           (None, 7)            0                                            
__________________________________________________________________________________________________
input_74 (InputLayer)           (None, 7)            0                                            
__________________________________________________________________________________________________
embedding_73 (Embedding)        (None, 7, 402)       473556      input_73[0][0]                   
__________________________________________________________________________________________________
embedding_74 (Embedding)        (None, 7, 72)        1368        input_74[0][0]                   
__________________________________________________________________________________________________
gru_73 (GRU)                    (None, 73)           104244      embedding_73[0][0]               
__________________________________________________________________________________________________
gru_74 (GRU)                    (None, 31)           9672        embedding_74[0][0]               
__________________________________________________________________________________________________
dropout_109 (Dropout)           (None, 73)           0           gru_73[0][0]                     
__________________________________________________________________________________________________
dropout_110 (Dropout)           (None, 31)           0           gru_74[0][0]                     
__________________________________________________________________________________________________
concatenate_37 (Concatenate)    (None, 104)          0           dropout_109[0][0]                
                                                                 dropout_110[0][0]                
__________________________________________________________________________________________________
dense_73 (Dense)                (None, 75)           7875        concatenate_37[0][0]             
__________________________________________________________________________________________________
dropout_111 (Dropout)           (None, 75)           0           dense_73[0][0]                   
__________________________________________________________________________________________________
dense_74 (Dense)                (None, 4)            304         dropout_111[0][0]                
==================================================================================================
Total params: 597,019
Trainable params: 597,019
Non-trainable params: 0
__________________________________________________________________________________________________
None
Train on 320835 samples, validate on 35649 samples
Epoch 1/20
 - 40s - loss: 0.0852 - acc: 0.9755 - val_loss: 0.0500 - val_acc: 0.9996
…
	Training (Important) : 2305, Test : 3117
	MWEs in tain : 1396, occurrences : 2518
	Impotant words in tain : 1131
	MWE length mean : 2.22
	Seen MWEs : 340 (61 %)
	New MWEs : 213 (38 %)
==================================================================================================
__________________________________________________________________________________________________
Layer (type)                    Output Shape         Param #     Connected to                     
==================================================================================================
input_75 (InputLayer)           (None, 7)            0                                            
__________________________________________________________________________________________________
input_76 (InputLayer)           (None, 7)            0                                            
__________________________________________________________________________________________________
embedding_75 (Embedding)        (None, 7, 402)       455868      input_75[0][0]                   
__________________________________________________________________________________________________
embedding_76 (Embedding)        (None, 7, 72)        1368        input_76[0][0]                   
__________________________________________________________________________________________________
gru_75 (GRU)                    (None, 73)           104244      embedding_75[0][0]               
__________________________________________________________________________________________________
gru_76 (GRU)                    (None, 31)           9672        embedding_76[0][0]               
__________________________________________________________________________________________________
dropout_112 (Dropout)           (None, 73)           0           gru_75[0][0]                     
__________________________________________________________________________________________________
dropout_113 (Dropout)           (None, 31)           0           gru_76[0][0]                     
__________________________________________________________________________________________________
concatenate_38 (Concatenate)    (None, 104)          0           dropout_112[0][0]                
                                                                 dropout_113[0][0]                
__________________________________________________________________________________________________
dense_75 (Dense)                (None, 75)           7875        concatenate_38[0][0]             
__________________________________________________________________________________________________
dropout_114 (Dropout)           (None, 75)           0           dense_75[0][0]                   
__________________________________________________________________________________________________
dense_76 (Dense)                (None, 4)            304         dropout_114[0][0]                
==================================================================================================
Total params: 579,331
Trainable params: 579,331
Non-trainable params: 0
__________________________________________________________________________________________________
None
Train on 217231 samples, validate on 24137 samples
Epoch 1/20
 - 27s - loss: 0.1058 - acc: 0.9676 - val_loss: 0.1452 - val_acc: 0.9988
…
	Training (Important) : 3585, Test : 1320
	MWEs in tain : 1790, occurrences : 4856
	Impotant words in tain : 1200
	MWE length mean : 2.06
	Seen MWEs : 345 (67 %)
	New MWEs : 165 (32 %)
==================================================================================================
__________________________________________________________________________________________________
Layer (type)                    Output Shape         Param #     Connected to                     
==================================================================================================
input_77 (InputLayer)           (None, 7)            0                                            
__________________________________________________________________________________________________
input_78 (InputLayer)           (None, 7)            0                                            
__________________________________________________________________________________________________
embedding_77 (Embedding)        (None, 7, 402)       483606      input_77[0][0]                   
__________________________________________________________________________________________________
embedding_78 (Embedding)        (None, 7, 72)        1008        input_78[0][0]                   
__________________________________________________________________________________________________
gru_77 (GRU)                    (None, 73)           104244      embedding_77[0][0]               
__________________________________________________________________________________________________
gru_78 (GRU)                    (None, 31)           9672        embedding_78[0][0]               
__________________________________________________________________________________________________
dropout_115 (Dropout)           (None, 73)           0           gru_77[0][0]                     
__________________________________________________________________________________________________
dropout_116 (Dropout)           (None, 31)           0           gru_78[0][0]                     
__________________________________________________________________________________________________
concatenate_39 (Concatenate)    (None, 104)          0           dropout_115[0][0]                
                                                                 dropout_116[0][0]                
__________________________________________________________________________________________________
dense_77 (Dense)                (None, 75)           7875        concatenate_39[0][0]             
__________________________________________________________________________________________________
dropout_117 (Dropout)           (None, 75)           0           dense_77[0][0]                   
__________________________________________________________________________________________________
dense_78 (Dense)                (None, 4)            304         dropout_117[0][0]                
==================================================================================================
Total params: 606,709
Trainable params: 606,709
Non-trainable params: 0
__________________________________________________________________________________________________
None
Train on 432446 samples, validate on 48050 samples
Epoch 1/20
 - 54s - loss: 0.0853 - acc: 0.9742 - val_loss: 0.0501 - val_acc: 1.0000
…
	Training (Important) : 3124, Test : 1954
	MWEs in tain : 1372, occurrences : 3583
	Impotant words in tain : 1175
	MWE length mean : 2.13
	Seen MWEs : 386 (57 %)
	New MWEs : 284 (42 %)
==================================================================================================
__________________________________________________________________________________________________
Layer (type)                    Output Shape         Param #     Connected to                     
==================================================================================================
input_79 (InputLayer)           (None, 7)            0                                            
__________________________________________________________________________________________________
input_80 (InputLayer)           (None, 7)            0                                            
__________________________________________________________________________________________________
embedding_79 (Embedding)        (None, 7, 424)       499472      input_79[0][0]                   
__________________________________________________________________________________________________
embedding_80 (Embedding)        (None, 7, 90)        1710        input_80[0][0]                   
__________________________________________________________________________________________________
gru_79 (GRU)                    (None, 43)           60372       embedding_79[0][0]               
__________________________________________________________________________________________________
gru_80 (GRU)                    (None, 44)           17820       embedding_80[0][0]               
__________________________________________________________________________________________________
dropout_118 (Dropout)           (None, 43)           0           gru_79[0][0]                     
__________________________________________________________________________________________________
dropout_119 (Dropout)           (None, 44)           0           gru_80[0][0]                     
__________________________________________________________________________________________________
concatenate_40 (Concatenate)    (None, 87)           0           dropout_118[0][0]                
                                                                 dropout_119[0][0]                
__________________________________________________________________________________________________
dense_79 (Dense)                (None, 72)           6336        concatenate_40[0][0]             
__________________________________________________________________________________________________
dropout_120 (Dropout)           (None, 72)           0           dense_79[0][0]                   
__________________________________________________________________________________________________
dense_80 (Dense)                (None, 4)            292         dropout_120[0][0]                
==================================================================================================
Total params: 586,002
Trainable params: 586,002
Non-trainable params: 0
__________________________________________________________________________________________________
None
Train on 320835 samples, validate on 35649 samples
Epoch 1/20
 - 312s - loss: 0.0711 - acc: 0.9800 - val_loss: 0.1090 - val_acc: 0.9996
…
	Training (Important) : 2305, Test : 3117
	MWEs in tain : 1396, occurrences : 2518
	Impotant words in tain : 1131
	MWE length mean : 2.22
	Seen MWEs : 340 (61 %)
	New MWEs : 213 (38 %)
==================================================================================================
__________________________________________________________________________________________________
Layer (type)                    Output Shape         Param #     Connected to                     
==================================================================================================
input_81 (InputLayer)           (None, 7)            0                                            
__________________________________________________________________________________________________
input_82 (InputLayer)           (None, 7)            0                                            
__________________________________________________________________________________________________
embedding_81 (Embedding)        (None, 7, 424)       480816      input_81[0][0]                   
__________________________________________________________________________________________________
embedding_82 (Embedding)        (None, 7, 90)        1710        input_82[0][0]                   
__________________________________________________________________________________________________
gru_81 (GRU)                    (None, 43)           60372       embedding_81[0][0]               
__________________________________________________________________________________________________
gru_82 (GRU)                    (None, 44)           17820       embedding_82[0][0]               
__________________________________________________________________________________________________
dropout_121 (Dropout)           (None, 43)           0           gru_81[0][0]                     
__________________________________________________________________________________________________
dropout_122 (Dropout)           (None, 44)           0           gru_82[0][0]                     
__________________________________________________________________________________________________
concatenate_41 (Concatenate)    (None, 87)           0           dropout_121[0][0]                
                                                                 dropout_122[0][0]                
__________________________________________________________________________________________________
dense_81 (Dense)                (None, 72)           6336        concatenate_41[0][0]             
__________________________________________________________________________________________________
dropout_123 (Dropout)           (None, 72)           0           dense_81[0][0]                   
__________________________________________________________________________________________________
dense_82 (Dense)                (None, 4)            292         dropout_123[0][0]                
==================================================================================================
Total params: 567,346
Trainable params: 567,346
Non-trainable params: 0
__________________________________________________________________________________________________
None
Train on 217231 samples, validate on 24137 samples
Epoch 1/20
 - 216s - loss: 0.0810 - acc: 0.9759 - val_loss: 0.1012 - val_acc: 0.9988
…
	Training (Important) : 3585, Test : 1320
	MWEs in tain : 1790, occurrences : 4856
	Impotant words in tain : 1200
	MWE length mean : 2.06
	Seen MWEs : 345 (67 %)
	New MWEs : 165 (32 %)
==================================================================================================
__________________________________________________________________________________________________
Layer (type)                    Output Shape         Param #     Connected to                     
==================================================================================================
input_83 (InputLayer)           (None, 7)            0                                            
__________________________________________________________________________________________________
input_84 (InputLayer)           (None, 7)            0                                            
__________________________________________________________________________________________________
embedding_83 (Embedding)        (None, 7, 424)       510072      input_83[0][0]                   
__________________________________________________________________________________________________
embedding_84 (Embedding)        (None, 7, 90)        1260        input_84[0][0]                   
__________________________________________________________________________________________________
gru_83 (GRU)                    (None, 43)           60372       embedding_83[0][0]               
__________________________________________________________________________________________________
gru_84 (GRU)                    (None, 44)           17820       embedding_84[0][0]               
__________________________________________________________________________________________________
dropout_124 (Dropout)           (None, 43)           0           gru_83[0][0]                     
__________________________________________________________________________________________________
dropout_125 (Dropout)           (None, 44)           0           gru_84[0][0]                     
__________________________________________________________________________________________________
concatenate_42 (Concatenate)    (None, 87)           0           dropout_124[0][0]                
                                                                 dropout_125[0][0]                
__________________________________________________________________________________________________
dense_83 (Dense)                (None, 72)           6336        concatenate_42[0][0]             
__________________________________________________________________________________________________
dropout_126 (Dropout)           (None, 72)           0           dense_83[0][0]                   
__________________________________________________________________________________________________
dense_84 (Dense)                (None, 4)            292         dropout_126[0][0]                
==================================================================================================
Total params: 596,152
Trainable params: 596,152
Non-trainable params: 0
__________________________________________________________________________________________________
None
Train on 432446 samples, validate on 48050 samples
Epoch 1/20
 - 422s - loss: 0.0716 - acc: 0.9784 - val_loss: 0.0602 - val_acc: 1.0000
…
	Training (Important) : 3124, Test : 1954
	MWEs in tain : 1372, occurrences : 3583
	Impotant words in tain : 1175
	MWE length mean : 2.13
	Seen MWEs : 386 (57 %)
	New MWEs : 284 (42 %)
==================================================================================================
__________________________________________________________________________________________________
Layer (type)                    Output Shape         Param #     Connected to                     
==================================================================================================
input_85 (InputLayer)           (None, 7)            0                                            
__________________________________________________________________________________________________
input_86 (InputLayer)           (None, 7)            0                                            
__________________________________________________________________________________________________
embedding_85 (Embedding)        (None, 7, 341)       401698      input_85[0][0]                   
__________________________________________________________________________________________________
embedding_86 (Embedding)        (None, 7, 56)        1064        input_86[0][0]                   
__________________________________________________________________________________________________
gru_85 (GRU)                    (None, 22)           24024       embedding_85[0][0]               
__________________________________________________________________________________________________
gru_86 (GRU)                    (None, 27)           6804        embedding_86[0][0]               
__________________________________________________________________________________________________
dropout_127 (Dropout)           (None, 22)           0           gru_85[0][0]                     
__________________________________________________________________________________________________
dropout_128 (Dropout)           (None, 27)           0           gru_86[0][0]                     
__________________________________________________________________________________________________
concatenate_43 (Concatenate)    (None, 49)           0           dropout_127[0][0]                
                                                                 dropout_128[0][0]                
__________________________________________________________________________________________________
dense_85 (Dense)                (None, 86)           4300        concatenate_43[0][0]             
__________________________________________________________________________________________________
dropout_129 (Dropout)           (None, 86)           0           dense_85[0][0]                   
__________________________________________________________________________________________________
dense_86 (Dense)                (None, 4)            348         dropout_129[0][0]                
==================================================================================================
Total params: 438,238
Trainable params: 438,238
Non-trainable params: 0
__________________________________________________________________________________________________
None
Train on 320835 samples, validate on 35649 samples
Epoch 1/20
 - 78s - loss: 0.0788 - acc: 0.9769 - val_loss: 0.0776 - val_acc: 0.9990
…
	Training (Important) : 2305, Test : 3117
	MWEs in tain : 1396, occurrences : 2518
	Impotant words in tain : 1131
	MWE length mean : 2.22
	Seen MWEs : 340 (61 %)
	New MWEs : 213 (38 %)
==================================================================================================
__________________________________________________________________________________________________
Layer (type)                    Output Shape         Param #     Connected to                     
==================================================================================================
input_87 (InputLayer)           (None, 7)            0                                            
__________________________________________________________________________________________________
input_88 (InputLayer)           (None, 7)            0                                            
__________________________________________________________________________________________________
embedding_87 (Embedding)        (None, 7, 341)       386694      input_87[0][0]                   
__________________________________________________________________________________________________
embedding_88 (Embedding)        (None, 7, 56)        1064        input_88[0][0]                   
__________________________________________________________________________________________________
gru_87 (GRU)                    (None, 22)           24024       embedding_87[0][0]               
__________________________________________________________________________________________________
gru_88 (GRU)                    (None, 27)           6804        embedding_88[0][0]               
__________________________________________________________________________________________________
dropout_130 (Dropout)           (None, 22)           0           gru_87[0][0]                     
__________________________________________________________________________________________________
dropout_131 (Dropout)           (None, 27)           0           gru_88[0][0]                     
__________________________________________________________________________________________________
concatenate_44 (Concatenate)    (None, 49)           0           dropout_130[0][0]                
                                                                 dropout_131[0][0]                
__________________________________________________________________________________________________
dense_87 (Dense)                (None, 86)           4300        concatenate_44[0][0]             
__________________________________________________________________________________________________
dropout_132 (Dropout)           (None, 86)           0           dense_87[0][0]                   
__________________________________________________________________________________________________
dense_88 (Dense)                (None, 4)            348         dropout_132[0][0]                
==================================================================================================
Total params: 423,234
Trainable params: 423,234
Non-trainable params: 0
__________________________________________________________________________________________________
None
Train on 217231 samples, validate on 24137 samples
Epoch 1/20
 - 54s - loss: 0.0922 - acc: 0.9717 - val_loss: 0.0489 - val_acc: 0.9991
…
	Training (Important) : 3585, Test : 1320
	MWEs in tain : 1790, occurrences : 4856
	Impotant words in tain : 1200
	MWE length mean : 2.06
	Seen MWEs : 345 (67 %)
	New MWEs : 165 (32 %)
==================================================================================================
__________________________________________________________________________________________________
Layer (type)                    Output Shape         Param #     Connected to                     
==================================================================================================
input_89 (InputLayer)           (None, 7)            0                                            
__________________________________________________________________________________________________
input_90 (InputLayer)           (None, 7)            0                                            
__________________________________________________________________________________________________
embedding_89 (Embedding)        (None, 7, 341)       410223      input_89[0][0]                   
__________________________________________________________________________________________________
embedding_90 (Embedding)        (None, 7, 56)        784         input_90[0][0]                   
__________________________________________________________________________________________________
gru_89 (GRU)                    (None, 22)           24024       embedding_89[0][0]               
__________________________________________________________________________________________________
gru_90 (GRU)                    (None, 27)           6804        embedding_90[0][0]               
__________________________________________________________________________________________________
dropout_133 (Dropout)           (None, 22)           0           gru_89[0][0]                     
__________________________________________________________________________________________________
dropout_134 (Dropout)           (None, 27)           0           gru_90[0][0]                     
__________________________________________________________________________________________________
concatenate_45 (Concatenate)    (None, 49)           0           dropout_133[0][0]                
                                                                 dropout_134[0][0]                
__________________________________________________________________________________________________
dense_89 (Dense)                (None, 86)           4300        concatenate_45[0][0]             
__________________________________________________________________________________________________
dropout_135 (Dropout)           (None, 86)           0           dense_89[0][0]                   
__________________________________________________________________________________________________
dense_90 (Dense)                (None, 4)            348         dropout_135[0][0]                
==================================================================================================
Total params: 446,483
Trainable params: 446,483
Non-trainable params: 0
__________________________________________________________________________________________________
None
Train on 432446 samples, validate on 48050 samples
Epoch 1/20
 - 120s - loss: 0.0779 - acc: 0.9763 - val_loss: 0.1125 - val_acc: 0.9998
…
	Training (Important) : 3124, Test : 1954
	MWEs in tain : 1372, occurrences : 3583
	Impotant words in tain : 1175
	MWE length mean : 2.13
	Seen MWEs : 386 (57 %)
	New MWEs : 284 (42 %)
==================================================================================================
__________________________________________________________________________________________________
Layer (type)                    Output Shape         Param #     Connected to                     
==================================================================================================
input_91 (InputLayer)           (None, 7)            0                                            
__________________________________________________________________________________________________
input_92 (InputLayer)           (None, 7)            0                                            
__________________________________________________________________________________________________
embedding_91 (Embedding)        (None, 7, 438)       515964      input_91[0][0]                   
__________________________________________________________________________________________________
embedding_92 (Embedding)        (None, 7, 81)        1539        input_92[0][0]                   
__________________________________________________________________________________________________
gru_91 (GRU)                    (None, 20)           27540       embedding_91[0][0]               
__________________________________________________________________________________________________
gru_92 (GRU)                    (None, 7)            1869        embedding_92[0][0]               
__________________________________________________________________________________________________
dropout_136 (Dropout)           (None, 20)           0           gru_91[0][0]                     
__________________________________________________________________________________________________
dropout_137 (Dropout)           (None, 7)            0           gru_92[0][0]                     
__________________________________________________________________________________________________
concatenate_46 (Concatenate)    (None, 27)           0           dropout_136[0][0]                
                                                                 dropout_137[0][0]                
__________________________________________________________________________________________________
dense_91 (Dense)                (None, 95)           2660        concatenate_46[0][0]             
__________________________________________________________________________________________________
dropout_138 (Dropout)           (None, 95)           0           dense_91[0][0]                   
__________________________________________________________________________________________________
dense_92 (Dense)                (None, 4)            384         dropout_138[0][0]                
==================================================================================================
Total params: 549,956
Trainable params: 549,956
Non-trainable params: 0
__________________________________________________________________________________________________
None
Train on 320835 samples, validate on 35649 samples
Epoch 1/20
 - 311s - loss: 0.0804 - acc: 0.9772 - val_loss: 0.0694 - val_acc: 1.0000
…
	Training (Important) : 2305, Test : 3117
	MWEs in tain : 1396, occurrences : 2518
	Impotant words in tain : 1131
	MWE length mean : 2.22
	Seen MWEs : 340 (61 %)
	New MWEs : 213 (38 %)
==================================================================================================
__________________________________________________________________________________________________
Layer (type)                    Output Shape         Param #     Connected to                     
==================================================================================================
input_93 (InputLayer)           (None, 7)            0                                            
__________________________________________________________________________________________________
input_94 (InputLayer)           (None, 7)            0                                            
__________________________________________________________________________________________________
embedding_93 (Embedding)        (None, 7, 438)       496692      input_93[0][0]                   
__________________________________________________________________________________________________
embedding_94 (Embedding)        (None, 7, 81)        1539        input_94[0][0]                   
__________________________________________________________________________________________________
gru_93 (GRU)                    (None, 20)           27540       embedding_93[0][0]               
__________________________________________________________________________________________________
gru_94 (GRU)                    (None, 7)            1869        embedding_94[0][0]               
__________________________________________________________________________________________________
dropout_139 (Dropout)           (None, 20)           0           gru_93[0][0]                     
__________________________________________________________________________________________________
dropout_140 (Dropout)           (None, 7)            0           gru_94[0][0]                     
__________________________________________________________________________________________________
concatenate_47 (Concatenate)    (None, 27)           0           dropout_139[0][0]                
                                                                 dropout_140[0][0]                
__________________________________________________________________________________________________
dense_93 (Dense)                (None, 95)           2660        concatenate_47[0][0]             
__________________________________________________________________________________________________
dropout_141 (Dropout)           (None, 95)           0           dense_93[0][0]                   
__________________________________________________________________________________________________
dense_94 (Dense)                (None, 4)            384         dropout_141[0][0]                
==================================================================================================
Total params: 530,684
Trainable params: 530,684
Non-trainable params: 0
__________________________________________________________________________________________________
None
Train on 217231 samples, validate on 24137 samples
Epoch 1/20
 - 212s - loss: 0.1010 - acc: 0.9694 - val_loss: 0.0863 - val_acc: 0.9994
…
	Training (Important) : 3585, Test : 1320
	MWEs in tain : 1790, occurrences : 4856
	Impotant words in tain : 1200
	MWE length mean : 2.06
	Seen MWEs : 345 (67 %)
	New MWEs : 165 (32 %)
==================================================================================================
__________________________________________________________________________________________________
Layer (type)                    Output Shape         Param #     Connected to                     
==================================================================================================
input_95 (InputLayer)           (None, 7)            0                                            
__________________________________________________________________________________________________
input_96 (InputLayer)           (None, 7)            0                                            
__________________________________________________________________________________________________
embedding_95 (Embedding)        (None, 7, 438)       526914      input_95[0][0]                   
__________________________________________________________________________________________________
embedding_96 (Embedding)        (None, 7, 81)        1134        input_96[0][0]                   
__________________________________________________________________________________________________
gru_95 (GRU)                    (None, 20)           27540       embedding_95[0][0]               
__________________________________________________________________________________________________
gru_96 (GRU)                    (None, 7)            1869        embedding_96[0][0]               
__________________________________________________________________________________________________
dropout_142 (Dropout)           (None, 20)           0           gru_95[0][0]                     
__________________________________________________________________________________________________
dropout_143 (Dropout)           (None, 7)            0           gru_96[0][0]                     
__________________________________________________________________________________________________
concatenate_48 (Concatenate)    (None, 27)           0           dropout_142[0][0]                
                                                                 dropout_143[0][0]                
__________________________________________________________________________________________________
dense_95 (Dense)                (None, 95)           2660        concatenate_48[0][0]             
__________________________________________________________________________________________________
dropout_144 (Dropout)           (None, 95)           0           dense_95[0][0]                   
__________________________________________________________________________________________________
dense_96 (Dense)                (None, 4)            384         dropout_144[0][0]                
==================================================================================================
Total params: 560,501
Trainable params: 560,501
Non-trainable params: 0
__________________________________________________________________________________________________
None
Train on 432446 samples, validate on 48050 samples
Epoch 1/20
 - 422s - loss: 0.0798 - acc: 0.9762 - val_loss: 0.0799 - val_acc: 1.0000
…
	Training (Important) : 3124, Test : 1954
	MWEs in tain : 1372, occurrences : 3583
	Impotant words in tain : 1175
	MWE length mean : 2.13
	Seen MWEs : 386 (57 %)
	New MWEs : 284 (42 %)
==================================================================================================
__________________________________________________________________________________________________
Layer (type)                    Output Shape         Param #     Connected to                     
==================================================================================================
input_97 (InputLayer)           (None, 7)            0                                            
__________________________________________________________________________________________________
input_98 (InputLayer)           (None, 7)            0                                            
__________________________________________________________________________________________________
embedding_97 (Embedding)        (None, 7, 401)       472378      input_97[0][0]                   
__________________________________________________________________________________________________
embedding_98 (Embedding)        (None, 7, 96)        1824        input_98[0][0]                   
__________________________________________________________________________________________________
gru_97 (GRU)                    (None, 38)           50160       embedding_97[0][0]               
__________________________________________________________________________________________________
gru_98 (GRU)                    (None, 11)           3564        embedding_98[0][0]               
__________________________________________________________________________________________________
dropout_145 (Dropout)           (None, 38)           0           gru_97[0][0]                     
__________________________________________________________________________________________________
dropout_146 (Dropout)           (None, 11)           0           gru_98[0][0]                     
__________________________________________________________________________________________________
concatenate_49 (Concatenate)    (None, 49)           0           dropout_145[0][0]                
                                                                 dropout_146[0][0]                
__________________________________________________________________________________________________
dense_97 (Dense)                (None, 54)           2700        concatenate_49[0][0]             
__________________________________________________________________________________________________
dropout_147 (Dropout)           (None, 54)           0           dense_97[0][0]                   
__________________________________________________________________________________________________
dense_98 (Dense)                (None, 4)            220         dropout_147[0][0]                
==================================================================================================
Total params: 530,846
Trainable params: 530,846
Non-trainable params: 0
__________________________________________________________________________________________________
None
Train on 320835 samples, validate on 35649 samples
Epoch 1/20
 - 311s - loss: 0.0751 - acc: 0.9787 - val_loss: 0.0851 - val_acc: 1.0000
…
	Training (Important) : 2305, Test : 3117
	MWEs in tain : 1396, occurrences : 2518
	Impotant words in tain : 1131
	MWE length mean : 2.22
	Seen MWEs : 340 (61 %)
	New MWEs : 213 (38 %)
==================================================================================================
__________________________________________________________________________________________________
Layer (type)                    Output Shape         Param #     Connected to                     
==================================================================================================
input_99 (InputLayer)           (None, 7)            0                                            
__________________________________________________________________________________________________
input_100 (InputLayer)          (None, 7)            0                                            
__________________________________________________________________________________________________
embedding_99 (Embedding)        (None, 7, 401)       454734      input_99[0][0]                   
__________________________________________________________________________________________________
embedding_100 (Embedding)       (None, 7, 96)        1824        input_100[0][0]                  
__________________________________________________________________________________________________
gru_99 (GRU)                    (None, 38)           50160       embedding_99[0][0]               
__________________________________________________________________________________________________
gru_100 (GRU)                   (None, 11)           3564        embedding_100[0][0]              
__________________________________________________________________________________________________
dropout_148 (Dropout)           (None, 38)           0           gru_99[0][0]                     
__________________________________________________________________________________________________
dropout_149 (Dropout)           (None, 11)           0           gru_100[0][0]                    
__________________________________________________________________________________________________
concatenate_50 (Concatenate)    (None, 49)           0           dropout_148[0][0]                
                                                                 dropout_149[0][0]                
__________________________________________________________________________________________________
dense_99 (Dense)                (None, 54)           2700        concatenate_50[0][0]             
__________________________________________________________________________________________________
dropout_150 (Dropout)           (None, 54)           0           dense_99[0][0]                   
__________________________________________________________________________________________________
dense_100 (Dense)               (None, 4)            220         dropout_150[0][0]                
==================================================================================================
Total params: 513,202
Trainable params: 513,202
Non-trainable params: 0
__________________________________________________________________________________________________
None
Train on 217231 samples, validate on 24137 samples
Epoch 1/20
 - 217s - loss: 0.0893 - acc: 0.9733 - val_loss: 0.0921 - val_acc: 0.9988
…
	Training (Important) : 3585, Test : 1320
	MWEs in tain : 1790, occurrences : 4856
	Impotant words in tain : 1200
	MWE length mean : 2.06
	Seen MWEs : 345 (67 %)
	New MWEs : 165 (32 %)
==================================================================================================
__________________________________________________________________________________________________
Layer (type)                    Output Shape         Param #     Connected to                     
==================================================================================================
input_101 (InputLayer)          (None, 7)            0                                            
__________________________________________________________________________________________________
input_102 (InputLayer)          (None, 7)            0                                            
__________________________________________________________________________________________________
embedding_101 (Embedding)       (None, 7, 401)       482403      input_101[0][0]                  
__________________________________________________________________________________________________
embedding_102 (Embedding)       (None, 7, 96)        1344        input_102[0][0]                  
__________________________________________________________________________________________________
gru_101 (GRU)                   (None, 38)           50160       embedding_101[0][0]              
__________________________________________________________________________________________________
gru_102 (GRU)                   (None, 11)           3564        embedding_102[0][0]              
__________________________________________________________________________________________________
dropout_151 (Dropout)           (None, 38)           0           gru_101[0][0]                    
__________________________________________________________________________________________________
dropout_152 (Dropout)           (None, 11)           0           gru_102[0][0]                    
__________________________________________________________________________________________________
concatenate_51 (Concatenate)    (None, 49)           0           dropout_151[0][0]                
                                                                 dropout_152[0][0]                
__________________________________________________________________________________________________
dense_101 (Dense)               (None, 54)           2700        concatenate_51[0][0]             
__________________________________________________________________________________________________
dropout_153 (Dropout)           (None, 54)           0           dense_101[0][0]                  
__________________________________________________________________________________________________
dense_102 (Dense)               (None, 4)            220         dropout_153[0][0]                
==================================================================================================
Total params: 540,391
Trainable params: 540,391
Non-trainable params: 0
__________________________________________________________________________________________________
None
Train on 432446 samples, validate on 48050 samples
Epoch 1/20
 - 427s - loss: 0.0748 - acc: 0.9777 - val_loss: 0.0951 - val_acc: 1.0000
…
