…
	Training (Important) : 3124, Test : 1954
	MWEs in tain : 1372, occurrences : 3583
	Impotant words in tain : 1175
	MWE length mean : 2.13
	Seen MWEs : 386 (57 %)
	New MWEs : 284 (42 %)
==================================================================================================
__________________________________________________________________________________________________
Layer (type)                    Output Shape         Param #     Connected to                     
==================================================================================================
input_1 (InputLayer)            (None, 7)            0                                            
__________________________________________________________________________________________________
input_2 (InputLayer)            (None, 7)            0                                            
__________________________________________________________________________________________________
embedding_1 (Embedding)         (None, 7, 100)       117800      input_1[0][0]                    
__________________________________________________________________________________________________
embedding_2 (Embedding)         (None, 7, 25)        475         input_2[0][0]                    
__________________________________________________________________________________________________
gru_1 (GRU)                     (None, 25)           9450        embedding_1[0][0]                
__________________________________________________________________________________________________
gru_2 (GRU)                     (None, 10)           1080        embedding_2[0][0]                
__________________________________________________________________________________________________
dropout_1 (Dropout)             (None, 25)           0           gru_1[0][0]                      
__________________________________________________________________________________________________
dropout_2 (Dropout)             (None, 10)           0           gru_2[0][0]                      
__________________________________________________________________________________________________
concatenate_1 (Concatenate)     (None, 35)           0           dropout_1[0][0]                  
                                                                 dropout_2[0][0]                  
__________________________________________________________________________________________________
dense_1 (Dense)                 (None, 25)           900         concatenate_1[0][0]              
__________________________________________________________________________________________________
dropout_3 (Dropout)             (None, 25)           0           dense_1[0][0]                    
__________________________________________________________________________________________________
dense_2 (Dense)                 (None, 4)            104         dropout_3[0][0]                  
==================================================================================================
Total params: 129,809
Trainable params: 129,809
Non-trainable params: 0
__________________________________________________________________________________________________
None
Train on 320835 samples, validate on 35649 samples
Epoch 1/20
 - 78s - loss: 0.5846 - acc: 0.7692 - val_loss: 1.2079 - val_acc: 0.0000e+00
…
